models/2050episodes/200episodes.pth (torch, 34096 bytes, 8 tensors)

input_layer.weight f4 [50, 26]
00000000: 6061 2abc 386b b4bf 9886 e93f f31b 903f
00000010: acd0 673e 0086 83bf 4d7f b83d 4913 583f
00000020: eac6 b03f 385e 07bf f730 ccbf 6f5a ffbe
00000030: 733d aebf 37f6 a6be 69d2 f93e e6d4 693f
00000040: 147d 1dc0 c490 7040 ec3e f73f d674 9dbf
00000050: b732 a6bf 021d 10bf 12f1 94bf c5c3 81bf
00000060: 0bee 993f fbcf be3e c9a9 cdc0 0502 27c0
00000070: c1f3 943f ee2d 013f aac7 913e d07f 8cbe
00000080: 38c3 9ebf 2791 a53f 2923 873f fea9 06bf
00000090: 7943 cb3f 12e6 853f e3df 9fbf 5d31 343f
000000a0: 082c 8abf 0d99 2140 4f7b 1cbf 5a17 4ec0
000000b0: ff97 e3be 1955 f03f 82ec 89be e016 babe
000000c0: 2095 2440 9a6b 3840 6731 a9c0 2342 d53e
000000d0: 04ec 543f 7d2a e8bf 4ee3 5a3e 6902 80bf
000000e0: 328f be3e 3bd0 0c40 06a7 66bf 623d 0ac0
000000f0: 4b94 ab3f 0921 b2bc aec4 67bf ad5c 12bf
00000100: 9a67 203f 218b 0040 f70d 76bf 7bdc ab3f
00000110: 5a5c d13f e01a 6fbf 29fc aebf 9907 ce3f
00000120: 8322 9bbe bb6d 0fc0 0993 af3e d760 3140
00000130: 8de6 1c3f 11b5 88bf b5a4 f53f 0df2 6ec0
00000140: 6c9f 11c0 c7ed 00c0 9b81 603d ae0a b83f
00000150: 3d29 1c3f 6156 a7bf 3a23 e73f 9d00 033f
00000160: 4c34 bebe 7ea9 b2be a81a c5bf 2cc8 74be
00000170: 6b65 693f 18e6 0240 c957 433d 3e3a e03f
00000180: f1a5 503f 1a58 a83f a4e1 b0be 620b d13f
00000190: 30d9 0538 0894 6f40 13df 2f40 956c c1bf
000001a0: 1783 c43f acba 07c0 bd63 f73f bfcf abbf
000001b0: 48a0 1dc0 9e06 ca3f f607 64be d32c 873f
000001c0: f01e d33f 8006 b9bd 2518 033f 2dbf db3f
000001d0: 5bcb d0bf 7bd6 78bf 1649 f8bd ecba 5340
000001e0: e9b0 053f cd45 c3be 7953 163d 7a59 8a3f
000001f0: c929 a0be 8a64 373f 9e5e 3bbd d5cf 5340
00000200: 4c4e 0f40 9d56 e0bf aaf9 af3e 4e37 0dc0
00000210: c0e7 b23f 1294 bdbf 438c 46bf e841 02c0
00000220: 8a5c 3cbf d8e1 923f 82e3 03bf 385a 333f
00000230: 2dc1 e83f 35d3 b43f 76a2 8d3e 34f9 4dbf
00000240: e4df 90be 55bd be3f ea05 d3bf 088c 493f
00000250: 596c 4540 bce5 603f 17cd 6abf 1298 903f
00000260: 2561 d73e 60cf 54bf f0ca 2e3f a1d6 fabf
00000270: dde8 05c0 6a46 6d40 7f32 0dbf 8007 8e3d
00000280: e678 0640 6da6 37bf 86cb 913f 9855 eabf
00000290: b473 80be bcae 953f e1db 253f 67ce bebf
000002a0: 7a78 cc3d 8faa 53be 6bf9 2140 bf93 06c0
000002b0: 720f 93bf 774e c73e 3188 cf3f dcfb 913f
000002c0: fcc5 bbbd 173b 893f f8b8 f4bf b688 45c0
000002d0: 815a d03e cbd2 80bf f140 8640 5e6b 88bf
000002e0: c2c1 a73f d8e7 b0bf 99e5 a0be 0303 2bc0
000002f0: 7689 9c3d fe4c cebf 0070 663f 3bcf 2bbe
00000300: e32f 09bf 8230 45bf 9586 f13f 7a23 79bd
00000310: ad2e eabf 9017 bcbe 7146 bfbf 4672 6540
00000320: f04a 0a40 b9d8 efbf aebe cc3e 8ebf afbe
00000330: 5d9a d5bf 9c80 f8bf fb52 95bf 9a29 4d3f
00000340: 3b85 82c0 50e4 663e c722 da3e d3e3 04bf
00000350: bf36 3a3f 0d53 8c3e 5a9f 4d3f 8e46 943e
00000360: efa8 c63f 8acd 0a3f 6184 92bf 702b 443f
00000370: 7e3a c3be a2e1 b4bf a849 b83f df52 3240
00000380: 4d6b d1be 4379 61bf 6965 db3d 4dbf 46bf
00000390: c043 16c0 d683 243f 28c8 8d3f ba17 0ec0
000003a0: 1e69 823f 8d76 a4bf 6324 95be 3907 4a3f
000003b0: 0f4a 94bf 6c54 c53f 6902 2cbf 3ee4 0640
000003c0: b1dd ef3f 4ae9 2abf 0d22 0cbf 1a1b 10c0
000003d0: 7970 adbf e816 fe3e 1aae dbbe afc4 563f
000003e0: 121e 1dbf 8fd7 c1be 4d23 9f3f 4535 513d
000003f0: d6ff 003f 16de ed3e 766b a93e 1762 dd3e
-0.010399193 -1.409522 1.82442 1.125853 0.22638196 -1.0275269 0.09008656 0.84404427
1.3810704 -0.5287814 -1.5952443 -0.49873683 -1.3612503 -0.32609722 0.48793343 0.9134048
-2.4607592 3.7588358 1.9316077 -1.230128 -1.2984227 -0.5629426 -1.1636069 -1.0137869
1.202577 0.37268052 -6.4269757 -2.6094983 1.1636888 0.5046071 0.28472644 -0.27441263
-1.2403326 1.2934922 1.0557605 -0.5260314 1.5879966 1.0460837 -1.24902 0.7038782
-1.0794687 2.5249665 -0.61125654 -3.2201753 -0.444519 1.877597 -0.26938254 -0.36345577
2.5716019 2.8815675 -5.2872806 0.4165202 0.8317263 -1.8137966 0.21375772 -1.0000736
0.37218624 2.2002094 -0.9009861 -2.1599965 1.340463 -0.021744268 -0.90534484 -0.5717266
0.62658083 2.0084918 -0.9611506 1.342666 1.6356308 -0.93400383 -1.3670703 1.6096069
-0.30299768 -2.2410724 0.34291866 2.7715356 0.6128929 -1.0680257 1.919089 -3.7335236
-2.2753553 -2.0145128 0.0548111 1.4378259 0.61000425 -1.3073236 1.8057625 0.5117281
-0.37149274 -0.34894937 -1.539876 -0.23904485 0.91170377 2.0452938 0.04769114 1.7517774
0.81503206 1.3151886 -0.3454715 1.6331599 3.1911943e-05 3.74341 2.7479904 -1.5111262
1.5352505 -2.1207685 1.9327313 -1.3422774 -2.4629078 1.578327 -0.22268662 1.0560554
1.6493816 -0.09034443 0.51208717 1.7167717 -1.6312059 -0.9720227 -0.12123315 3.3082838
0.5222307 -0.3813919 0.0367007 1.0808556 -0.3128188 0.71637785 -0.04574453 3.30956
2.2391539 -1.7526432 0.34370166 -2.2065005 1.3976974 -1.4810812 -0.7755777 -2.0352726
-0.73578703 1.1475172 -0.51519024 0.7005954 1.8183953 1.4126955 0.2766301 -0.8045838
-0.28295815 1.490153 -1.648618 0.78729296 3.084738 0.87850547 -0.9171919 1.1296408
0.42066303 -0.8312893 0.6827841 -1.959675 -2.0923378 3.7074227 -0.55155176 0.06935024
2.101129 -0.7173832 1.1390235 -1.8307371 -0.25088274 1.169395 0.64788634 -1.4906739
0.099839166 -0.20670532 2.5308483 -2.1027677 -1.1489089 0.3892705 1.6213437 1.1404986
-0.09168622 1.0721158 -1.9118948 -3.0864692 0.4069405 -1.0064329 4.1954274 -1.0657766
1.3106005 -1.3820753 -0.3142517 -2.6720588 0.07643406 -1.6117246 0.9001465 -0.16778271
-0.53588694 -0.7702714 1.8869196 -0.06082485 -1.8295494 -0.36736727 -1.4943372 3.5850997
2.1608238 -1.8738014 0.39989227 -0.34325832 -1.6687733 -1.9414248 -1.1665949 0.80141604
-4.0787635 0.22548032 0.42604658 -0.5191013 0.72739786 0.27407113 0.80321276 0.2896008
1.5520304 0.5421988 -1.1446649 0.7662878 -0.38130563 -1.4131358 1.4397478 2.786308
-0.40902176 -0.88075656 0.10712702 -0.7763565 -2.3478851 0.64263666 1.1076708 -2.2201982
1.0188329 -1.2848679 -0.29129323 0.7891727 -1.1585101 1.5416389 -0.6719118 2.1076808
1.873953 -0.6676222 -0.5473946 -2.2516541 -1.3549949 0.4962685 -0.42906266 0.83893865
-0.6137401 -0.3785977 1.2432648 0.051076192 0.50390375 0.464585 0.330898 0.432389

input_layer.bias f4 [50]
00000000: f3cd 523f 7e08 6c3d 23ed b13e d988 a73e
00000010: 7f15 f93e ac97 893e 6d1e 623f 5855 87be
00000020: 512a 76be da72 a7be 3459 273f 4386 463f
00000030: 42e3 2b3f 2abb 08bf 9e3a 8e3e 1b18 af3f
00000040: cefa e5bd 92cd 10bf e04a 87be 5f55 1ebf
00000050: d58c 74be fce7 d93d 62f7 7dbf 6d8f 8e3f
00000060: f642 e73e e8d0 babe 4b00 22bf dd24 9ebe
00000070: 3d4e d93e d482 b7be 2ddf 0d3e 5a4d 2b3e
00000080: 7e26 90be 0c4c 5fbf b7bf b63f 5ac6 b33f
00000090: 9bce 70be 978f 293f a7ec 27bf 594e dfbd
000000a0: d6a9 bfbc e212 e2bf b92f bd3e b201 c1be
000000b0: 3939 9a3f 6367 cf3e cf19 3b3f aad9 4c3e
000000c0: 88b2 173f 69fc a4bf
0.82345504 0.057625286 0.34751233 0.32721594 0.48649213 0.2687353 0.88327676 -0.264323
-0.2403958 -0.32704812 0.6537049 0.7754862 0.6714364 -0.5341059 0.27779096 1.3679231
-0.11229478 -0.56563675 -0.26424313 -0.61849016 -0.23881848 0.10639951 -0.992056 1.113752
0.45168275 -0.36487508 -0.632817 -0.308875 0.42442504 -0.35842 0.13854666 0.16728726
-0.28154367 -0.87225413 1.4277257 1.4044907 -0.23516314 0.66234726 -0.6559548 -0.109036155
-0.023396414 -1.7662013 0.36950472 -0.37696606 1.2048713 0.40508565 0.73086256 0.20004907
0.5925679 -1.288953

hidden.0.weight f4 [50, 50]
00000000: d5d0 a93f e028 4cbf 92e1 9dbf 173c a23f
00000010: c643 f73f ff20 4240 98d8 593f a375 f83d
00000020: 7a98 1940 a391 46bf 431a 2fc0 b336 d63e
00000030: 5cc2 41c0 d3c0 203f c5b2 8f3e 88db 31be
00000040: 7068 aabf e6c4 0240 6e8a b1be 2efd 26bf
00000050: 9f70 a040 19ca 3dbf a8e4 01c0 b78d 9b3f
00000060: 6dfa 61bf 0236 f1bf 3f1e b93f 44af bdbf
00000070: 9df7 9abf a4ab 3f3e a028 3540 ad7e fbbc
00000080: c864 b5bf cf6d 27bf e838 1640 1a7e 72bf
00000090: 05e6 b03f cffe 52bf ba73 be3f 3615 c93f
000000a0: a9b8 44bd 4486 99be e882 8d3f 8e8f 30bf
000000b0: 94ca 8d3f d677 833b 5e5f a2bf b7e7 c83e
000000c0: b1a8 95be fe12 5f3f 839f 0a40 d050 2ebf
000000d0: e7af 36c0 261a 07c0 7471 51c0 b27e 0cc0
000000e0: 5228 b6be cad1 1c3f 8aed 49bf 0a81 643e
000000f0: bcf8 f3bf d70f 0f40 f99f 59be c57b 403f
00000100: c7c5 6cbf 307a 023f 3440 4dbe b4ed 853f
00000110: e576 ccbe 0a0a 5abe 3959 623f f7e9 cabf
00000120: f773 46c0 ba84 0c3f cf4d 15bd db79 d2bf
00000130: 463d f4be 4a55 f03f 9432 7ec0 1b03 35bf
00000140: d154 e2bf 11c5 1040 1f63 1b40 931e 8e3f
00000150: 2d57 1140 bbbd 373f 3806 c43e e41c cc3f
00000160: a21a 363e 6fd1 90bd 5316 ebbf bea0 2740
00000170: 9367 2140 b426 593d 66c6 26c0 19e4 77bf
00000180: 6a85 0bc0 4558 6d3e 76e2 55c0 6570 f6be
00000190: 3f1b 4940 a5a4 6cbf d0fa 56bf 0798 933f
000001a0: 3793 ccbf c288 973f 20fd 4640 6585 1f40
000001b0: 3c84 c03e c4ed 1c3f f81e 563f 0537 903f
000001c0: 5423 ddbf 691e bfbd c321 51c0 2557 553f
000001d0: 7b23 1d3e 4fd3 c6be f8bb 90bf ed6b 083f
000001e0: 3060 1940 55c1 8e3e 8b96 24c0 2892 8c3f
000001f0: e2f7 3b3f 721c 72c0 4e5d 71bf fa94 cebe
00000200: 4285 e4bf e463 7b3c 81b0 9dbf 22f1 e4bf
00000210: 292b 883f 3f7e 3d3f e5db 803f e34e f9bf
00000220: de8b bf3e 559c 63c0 4f84 e33f aee4 543d
00000230: 141f 0040 a2bb 053e fc43 8d3f 88a6 e8bf
00000240: 140a 5dbf 93df 963d 13bd 06bf 3478 f63f
00000250: 79b7 623f 950f 673f c455 a63f 4b07 e1be
00000260: 873f 7bc0 ce68 0cc0 98e5 143e 54bc 973f
00000270: 4883 27c0 4140 ce3e d47f 82be e3ee b2bf
00000280: 4c74 8bbf 5db5 4a40 2589 7140 38b8 45be
00000290: d6b3 7f3f 6fb7 2ac0 eb60 f23e a71f 8240
000002a0: 22fe 843e a6d0 84bf 054f 853f 1a19 87c0
000002b0: 9891 ffbd e7cf 2dbf 09d2 f8be 2a59 bbbf
000002c0: 5ca0 7b3f d45c 7fbf 96b5 e23e 2a47 1bbf
000002d0: 07c4 6e3d 9542 afbf 24c8 1340 ec5a 093d
000002e0: 86ea df3f 8b3e f93f bdbe 14bf 490c ffbe
000002f0: ef9a b1be 5d30 61bf 48b1 07bd 13a3 7d3e
00000300: 0c85 a8bf 7b57 0ebf a477 0a40 9ee9 9f3e
00000310: 56d6 d0bf 2eed 08be 55ee 863f 4622 193d
00000320: 37f0 93bf 05b9 ab3f 0cc6 04c0 8bb0 68bf
00000330: 1161 acbe caee 2340 fe7c 453d 7e42 533e
00000340: a4af 3bbf be0d f13e 4ad7 ec3f de13 743c
00000350: 320d dd3f af5c 9b3f 992a dcbf f9ed 143f
00000360: 8838 b63f aa92 52c0 fa62 d63f 3303 0240
00000370: 545a 2abf ae16 b0bd 0084 41bf ceb6 e53f
00000380: 2558 70bf 2513 f03e 331d 43bf 2eb1 2bbf
00000390: 640b 9b3f 904f 6ec0 d760 8d3e 2404 c73e
000003a0: 01d2 6abf d6b4 e83f a1b0 98bf 1333 603f
000003b0: 9167 843f a5a7 8dbf ad3e 6f3e 562f 4740
000003c0: ea5c 413f b587 7ebf b2a8 353f 069e 0bc0
000003d0: 2d6c cdbe d0f8 d23f d6bc dbbf e9ab acbf
000003e0: 9be4 1abf 0624 55bf 7dd4 c83f 51e2 bb3f
000003f0: 2d31 0bc0 01f8 093f ff7a 69bf 2073 c43d
1.3266855 -0.7974987 -1.2334464 1.2674588 1.9317558 3.033264 0.8509612 0.121318124
2.3999314 -0.77565974 -2.735978 0.41838607 -3.0274878 0.62794226 0.28066078 -0.17368901
-1.3313122 2.0432677 -0.34675926 -0.6523007 5.0137477 -0.741365 -2.029581 1.2152623
-0.88272744 -1.8844607 1.4462355 -1.4819112 -1.2106816 0.1871782 2.8306046 -0.030700052
-1.4171381 -0.6540193 2.3472233 -0.94723666 1.3820196 -0.8242006 1.4879067 1.5709598
-0.04802767 -0.2998525 1.1055574 -0.6896905 1.1077447 0.0040120883 -1.2685354 0.39239284
-0.29230264 0.87138355 2.1659858 -0.6809206 -2.8544862 -2.110971 -3.2725496 -2.1952329
-0.35577637 0.6125761 -0.7887808 0.2231485 -1.9060283 2.2353418 -0.21252431 0.7518886
-0.92489284 0.50967693 -0.20044023 1.0463166 -0.3993446 -0.21292892 0.8841739 -1.585265
-3.100828 0.54890025 -0.036451157 -1.6443437 -0.47702998 1.8776028 -3.971837 -0.70707864
-1.7682134 2.262028 2.4279249 1.110308 2.2709458 0.7177388 0.38285995 1.5946317
0.17783597 -0.07071196 -1.8366188 2.619186 2.5219467 0.053015426 -2.6058593 -0.96832424
-2.180018 0.23178203 -3.341947 -0.48132625 3.142288 -0.9243873 -0.8397646 1.153077
-1.5982426 1.183861 3.1091995 2.4925168 0.37600887 0.613003 0.83641005 1.1266791
-1.7276406 -0.09331972 -3.2676857 0.83336097 0.15345566 -0.3883309 -1.1307364 0.5328968
2.3964958 0.27881876 -2.5716884 1.0982103 0.73425114 -3.7829862 -0.94282997 -0.40348035
-1.7853167 0.01534364 -1.231949 -1.7886088 1.0638171 0.7402076 1.0067106 -1.9477199
0.37411398 -3.5564167 1.7774752 0.0519759 2.0018969 0.13059857 1.1036372 -1.8175821
-0.86343503 0.07366862 -0.52632254 1.9255433 0.8856121 0.9025815 1.2994924 -0.43950877
-3.9257524 -2.1938968 0.14540708 1.1854348 -2.6173878 0.40283397 -0.2548815 -1.3979152
-1.0894866 3.1673195 3.7739956 -0.19308555 0.9988378 -2.667446 0.47339568 4.066364
0.25975138 -1.0376174 1.041474 -4.221814 -0.12478942 -0.6789536 -0.48597744 -1.4636586
0.98291564 -0.9975102 0.44279164 -0.6065546 0.058292415 -1.3692194 2.3090906 0.033533975
1.7493446 1.9472212 -0.58103544 -0.4981406 -0.34688517 -0.8796442 -0.033128053 0.24769239
-1.3165603 -0.55602235 2.1635523 0.31232923 -1.631541 -0.13371727 1.0541483 0.0373862
-1.1557683 1.3415838 -2.0745878 -0.90894383 -0.33667806 2.5614495 0.048214905 0.20630834
-0.7331488 0.47080797 1.8503201 0.014897315 1.7269652 1.213766 -1.72005 0.5817562
1.4236002 -3.2902017 1.6748955 2.0314453 -0.6654408 -0.08598076 -0.7559204 1.7946413
-0.938845 0.46889606 -0.7621643 -0.6706723 1.2112851 -3.723606 0.27612945 0.38870347
-0.9172669 1.8180187 -1.1928903 0.87577933 1.0344106 -1.1066786 0.23363753 3.1122642
0.755324 -0.9942582 0.70960534 -2.18152 -0.40121594 1.6482182 -1.7167003 -1.3489963
-0.60505074 -0.8325809 1.5689846 1.4678441 -2.1748765 0.5389405 -0.912033 0.09592271

hidden.0.bias f4 [50]
00000000: 8a95 12c0 3873 c4bf 1261 853f a547 12bf
00000010: 47f0 ca3f ef85 57be 754e 2940 8572 0cc0
00000020: 005f 7c3f fe4e 973f f49c 7d3f 2c43 883f
00000030: a92b e1bf 4490 173f 15f6 b7bf ef71 2740
00000040: 81fb e03e 6e45 21c0 72fb a5bf 7a6f 6ec0
00000050: b8d8 b1be 850b 3140 7757 b6bf 0c0b 7fbf
00000060: 6770 26c0 4cc2 2f40 9d4a e83f 4e38 66c0
00000070: 34f5 14bf 1ee0 a43f 994d 8a40 e3d6 833e
00000080: c8ad 8cb9 fce6 adbf 227d 87c0 40fa 503f
00000090: 3f9d 44bf 3513 833e 9a63 e4bf 10c4 5dc0
000000a0: d929 f8be 6048 03c0 643c d1bf c4a9 0cc0
000000b0: f980 d03f 61a4 8f3f f99e 4dc0 fe43 13bf
000000c0: 9cb7 30c0 b19a febd
-2.2903771 -1.5347662 1.0420249 -0.5714057 1.5854577 -0.21047185 2.6454136 -2.1944897
0.9858246 1.1820982 0.99067616 1.0645499 -1.7591449 0.59204507 -1.4371973 2.616329
0.43941882 -2.5198627 -1.296736 -3.725554 -0.34735656 2.766328 -1.4245442 -0.9962623
-2.6006105 2.746234 1.814777 -3.5971866 -0.5818665 1.2880895 4.3219724 0.25749883
-0.00026832358 -1.3586116 -4.234025 0.8163185 -0.7680244 0.2560059 -1.7842896 -3.4650917
-0.48469427 -2.0512924 -1.6346555 -2.1978617 1.6289359 1.122204 -3.212828 -0.5752562
-2.7612066 -0.12431849

hidden.1.weight f4 [50, 50]
00000000: 9913 4c3f 9511 60bf 8100 76c0 6101 5dc0
00000010: 2198 cf3f 27e9 ee3f 5211 9bbf 3e49 75c0
00000020: 7ce7 e0bf 2b90 04c1 228c 5340 5f13 7cbf
00000030: c46e 5a3f 78a9 c43e 02f6 1b3e 6cc5 65c0
00000040: d828 133f 0100 8440 921f e93f 0e8f e3bf
00000050: 6315 6abe aa41 183e 6e1c a93e 0fc7 4940
00000060: cf68 4940 aef8 a93f 018c a7bf 3667 d0be
00000070: 06e7 eebf 03b0 913f 082a 8f40 0534 f43f
00000080: 404c 2fc0 dd35 7a3e 0b54 3e40 3ef3 b040
00000090: 0c7c 753f 56b3 e23d 6f6c acc0 3d44 a640
000000a0: 3baf e33f 36a4 e13f a2a2 3dc0 b818 523f
000000b0: 9d37 cd3f 5d53 1d3f 5451 5cc0 a190 48c0
000000c0: fcc1 2a40 510a 35bf 21d4 ae3f 5dad 143e
000000d0: 1154 cc3e 685e dcbe 7b4e 0140 f4fb aabe
000000e0: 83eb 3c40 f0cc 46bf 576c a340 a719 fe3c
000000f0: 7d76 2e40 a9f1 1c3f c4a6 f0be 2a41 22c0
00000100: ab7c 2cc0 0efb 9040 e550 90be 3aad 0541
00000110: f3f4 0f40 c5fc 55c0 0c7a 3540 791a 3ec0
00000120: 9671 26c0 7402 e73f b020 babf cbc3 3c40
00000130: eb43 223e c35d 5cc0 14e5 dabf 7208 29c0
00000140: ce3f 0d40 7e87 28c0 f672 6f3f 4c72 58bd
00000150: e559 25be 15f9 8dbf 14cf e03e 5848 3dc0
00000160: cc60 14bf c2d5 29c0 72e3 e33e 419c 1640
00000170: 43e0 1fc0 7f13 8040 cf56 11c0 ee02 c3be
00000180: 35af 5c3f 53ea f6be 49ae 0c40 f955 1140
00000190: 4bbf ddbf 5718 d2bf 188c 80bf 0702 6240
000001a0: 3921 50c0 1047 013f 5b47 b3bf 76dd 0f40
000001b0: 2eba 1a40 b5be 983f 5f21 8cbe fb5b d23f
000001c0: f88e 003f 59c7 6fc0 752f 39bf b4c6 3340
000001d0: e431 2a3f 6bf9 863e 5a5e 4b40 9992 25c0
000001e0: 1021 1740 8304 c93d 51bc eebf 4233 6740
000001f0: 7a6e 05c0 5d04 cf3f 472d c13e c55f 1bc0
00000200: 48e6 cec0 64d0 4240 312b bec0 1ec4 2abe
00000210: 2590 cc3f 2e61 27c0 c8a8 2ac0 4a27 a33f
00000220: 4e27 f7bf 1382 c33f b5ac 87bf 5dfe 7440
00000230: d933 fb3f afe6 8d3f 0612 70be 50f8 0440
00000240: de09 1b40 a9cf f23d b993 2ac0 dd18 dcbf
00000250: ffed ef3f cdea 8b3e 0102 d03e 46ce f03f
00000260: 5b48 5bc0 4e16 01c0 52c2 acbd e192 7b40
00000270: 95f3 61c0 e066 30c0 20e6 09c0 9165 84bf
00000280: ebf6 203f a330 ec3e 648a 0240 c48a 5e3f
00000290: 4586 73bf b1b6 26bf 7b26 553f 6358 a2be
000002a0: 54c5 5740 6c68 ca40 e1aa aabf 1e03 7ebf
000002b0: 7201 ca3f ac77 1740 0967 b0bf 8155 e23f
000002c0: e971 1cc0 7450 34bf c565 a43f 5eb9 1240
000002d0: e015 1fc0 4b60 44bf 702a 23bf 3379 4ec0
000002e0: 3339 19c0 4eee 873f 807f 04bf bc44 21bf
000002f0: 6f5e 4dbf 27b5 3c40 f31d 53bf 779e 42bf
00000300: a469 80c0 7016 41be 1d02 b73f 4292 fd3f
00000310: 9fe8 8dbe 513d 4bbf 2d7f 4740 f040 2a40
00000320: 21d1 913f 37ff 323f 8e3c 48c0 8ce3 acc0
00000330: 3bab c3c0 bd7e 2640 cee9 2a3f 7da8 b53f
00000340: bb89 44c0 093a 2b3f 12fb 723f faff 5640
00000350: 5db3 5bbf b893 c43f efd9 c23f cc52 12c0
00000360: 3a6a 48c0 9621 a6bf b0f5 5a3f cd77 a03d
00000370: d59f c7bf 946e 1fc0 5e63 79c0 2786 6d3e
00000380: 4e6a 2bbf 5371 0bc0 5587 46c0 f90e 11c0
00000390: a6ab 1dbf 2c6d a63f 7dbe 8bbe 2ebb acbf
000003a0: d0fc 35c0 600a aebf 5267 62bf 845d 18c0
000003b0: 7550 eebd 3e4f 0840 f3df d13e 2e19 75be
000003c0: 3fb1 b73e 0243 58c0 0457 c1bf 7e39 6e40
000003d0: 7640 79bc f04c bd3f 1f0f 5840 a084 9b3f
000003e0: 2180 ac3f abeb 47bf 2cd9 0dbf 1e46 fd3e
000003f0: fd64 06c0 65ab 7abf 59cc 3a40 e4b8 1440
0.79717404 -0.8752683 -3.8437808 -3.4532092 1.6218301 1.8664902 -1.2114661 -3.8325953
-1.7570643 -8.285197 3.305428 -0.9846706 0.85325265 0.38410544 0.15230563 -3.5901747
0.574842 4.1250005 1.821276 -1.7778032 -0.22859721 0.14868799 0.33029503 3.1527746
3.147022 1.3279016 -1.3089601 -0.40703744 -1.8664253 1.138184 4.473881 1.9078375
-2.739029 0.2443461 2.9738796 5.5296926 0.95892406 0.11069362 -5.3882365 5.19583
1.7787851 1.7628238 -2.9630513 0.8206897 1.6032597 0.6145533 -3.4424639 -3.1338274
2.6680899 -0.70718867 1.3658487 0.14519258 0.39907888 -0.43040776 2.020415 -0.3339535
2.9518745 -0.7765646 5.106975 0.031018091 2.725982 0.61306244 -0.47002232 -2.5352273
-2.6951091 4.5306463 -0.28186718 8.354792 2.2493255 -3.3435528 2.8355742 -2.9703658
-2.6006827 1.8047624 -1.4541225 2.9494503 0.15846221 -3.4432228 -1.7101159 -2.6411405
2.2070193 -2.6332698 0.9353479 -0.052843377 -0.16147573 -1.1091639 0.43907988 -2.9575405
-0.579602 -2.6536717 0.44509465 2.353287 -2.4980628 4.00238 -2.2709234 -0.38088173
0.86204845 -0.4822565 2.1981375 2.2708724 -1.7324003 -1.6413678 -1.0042753 3.5313737
-3.2520278 0.5049906 -1.4006151 2.247892 2.4176135 1.1933199 -0.2736921 1.643432
0.50218153 -3.7465422 -0.7233804 2.8090029 0.6648238 0.26362166 3.1776338 -2.5870726
2.361393 0.09815314 -1.865122 3.6125035 -2.084868 1.6173207 0.37729856 -2.4277203
-6.4656105 3.0439692 -5.9427724 -0.16676375 1.598149 -2.6153064 -2.6665516 1.2746365
-1.930887 1.527407 -1.0599581 3.828025 1.9625198 1.1086024 -0.23444375 2.0776558
2.4224772 0.11856014 -2.6652663 -1.7195088 1.8744506 0.27327576 0.4062653 1.881295
-3.4262912 -2.0169864 -0.08435501 3.9308398 -3.530492 -2.756279 -2.1546707 -1.0343496
0.62876767 0.46130857 2.0396967 0.8693049 -0.95126754 -0.65122515 0.8326184 -0.3170806
3.371419 6.325247 -1.3333398 -0.99223506 1.5781691 2.3666792 -1.3781444 1.7682344
-2.4444525 -0.7043526 1.2843558 2.292564 -2.4857101 -0.7670943 -0.6373663 -3.2261474
-2.3941162 1.06196 -0.5175705 -0.62995505 -0.8022222 2.9485567 -0.82467574 -0.7602305
-4.0128956 -0.18856215 1.429752 1.9810259 -0.27716538 -0.79390436 3.1171372 2.6602135
1.1391946 0.69920677 -3.128696 -5.4027767 -6.114652 2.6014855 0.6676301 1.4192044
-3.0709064 0.6688543 0.9491435 3.3593736 -0.8582056 1.535758 1.5222758 -2.2863035
-3.1314836 -1.2979 0.8553114 0.0783535 -1.5595652 -2.4911242 -3.89669 0.23195706
-0.66959083 -2.1787918 -3.10201 -2.2665389 -0.6159004 1.3002067 -0.2729377 -1.3494623
-2.8435555 -1.3596916 -0.88438904 -2.3807077 -0.1163644 2.1298366 0.40991172 -0.23935387
0.35877416 -3.3790898 -1.510468 3.722259 -0.015213123 1.4789104 3.375923 1.2149849
1.3476602 -0.78093976 -0.55409503 0.49467558 -2.0999138 -0.9791778 2.9187224 2.3237848

hidden.1.bias f4 [50]
00000000: 769a ad3f b68b 50c0 9e50 4940 2ed4 d5c0
00000010: c11d 40c0 d45a 64bf 4554 46c0 8714 9a3e
00000020: 3f10 de3e e924 b640 5618 b83e 0c30 1340
00000030: 7e41 a13f d6c8 f33f 828f 873f d310 963f
00000040: 01f4 5840 8421 ab3f 9186 913f bdb7 63c0
00000050: 7770 86bf dcc7 8340 b1b3 1ac0 b4b3 dfbf
00000060: e465 603d 62f0 49bf b4b2 d0bf 8aab e7bf
00000070: 2e15 84be 7592 4440 cbe5 44bf d13d 3740
00000080: 668e e940 a1ca ef3c aa44 0a40 f3a6 87c0
00000090: 4da8 1bc0 e3af 91bf e39a c8bf f246 213e
000000a0: 9378 973e eefa 50c0 17b9 74c0 cff2 a8c0
000000b0: b44e 7abf 58ad 01c0 4cd2 d4bf 2d77 a53f
000000c0: 6377 3abf bdb1 1abf
1.3562763 -3.2585273 3.1455455 -6.682151 -3.001816 -0.8920109 -3.0988934 0.30093786
0.4337177 5.6920056 0.35956067 2.2998075 1.2598112 1.9045665 1.059067 1.1723884
3.3898928 1.3369603 1.1369191 -3.5580895 -1.0503072 4.118147 -2.4172175 -1.7476716
0.05478467 -0.7888242 -1.6304536 -1.8099225 -0.2579741 3.071439 -0.76913136 2.863148
7.2986326 0.029271426 2.160441 -4.2391295 -2.4321473 -1.1381801 -1.5672268 0.1574972
0.29584178 -3.2653155 -3.823797 -5.2796397 -0.9777634 -2.026205 -1.6626678 1.2926995
-0.7283842 -0.6042746

output_layer.weight f4 [25, 50]
00000000: 2645 dbbd b46d 9dbe 0a61 e0bd 9363 f4bc
00000010: 10d3 813e 6b32 83be 9900 82bc 69f8 e13c
00000020: 8ef8 273e fce9 d9bc 8e19 703d 72ee 04be
00000030: 4d55 94be 218a d6bd 9fcd 913e fb5d b7bd
00000040: d66b a63e 4e77 d43d cbf3 1cbe f2c1 c83d
00000050: c13d b0bd 6dce bebd d358 253e 0bfb 843e
00000060: 0f59 963e 8889 80be f965 b83d eaa0 923d
00000070: 0bab aabc 5007 4b3e f547 b43d 3230 9e3e
00000080: d3ab 793d 7a35 7cbe 3d2c 6dbd 4961 9fbe
00000090: 89ae 16be b75b 23be 4a1a 14be 94bf 87be
000000a0: e948 bc3e 9de3 e3bd a174 39bf 07ab d4be
000000b0: 080c a73d fea9 a2be c413 d4be b7c0 553e
000000c0: 7243 82be 4157 7ebc bdb8 c6be 037d 12be
000000d0: 59b2 c3be 23d4 67be 3547 f83e c636 a2be
000000e0: 63ea 1ebe 7272 823e d4e8 e63d 3021 2ebe
000000f0: 6f84 7dbe b226 abbe 192c 95be 999b 53be
00000100: dd1e 5ebc 7de2 5cbe 1dc8 ef3e 7dd9 3dbd
00000110: f908 7ebe 629a 8bbd a564 b53e 3de1 86bd
00000120: de3e 983e d6b0 e73e bdd6 533e 7033 71be
00000130: a008 8fbc f696 303e 624b d83d a0a3 3c3e
00000140: ccb4 513d 554f 84bd 30e4 23bd 74e3 0fbe
00000150: 0883 f03d 64f1 edbe 0378 87be f6c6 393e
00000160: 577a 7a3e 2d63 64b9 283f e43d 5aa4 17be
00000170: 92c8 e7be f1f0 04bf 2284 6f3e c986 26be
00000180: 829f 07bf 6893 9c3e c1b1 6fbe cf29 00be
00000190: 5267 53be 75fc 3cbe 3c00 30be cdb9 6cbe
000001a0: 72e1 d93e 27f8 063e 049e 4fbe 6cba d03e
000001b0: 30a4 023f c8d0 fdbd 379e 943e 88a1 2cbe
000001c0: 8102 54be a038 58be 5bc2 0f3c 4a83 01be
000001d0: dacf 7f3c a3c3 6b3e 1303 623e 855c 98be
000001e0: 994b 7dbe ccf1 bebd eda9 643e 83a2 ef3d
000001f0: 72bb 7b3e d11c a8bc c810 043e 403d 25bf
00000200: c549 0fbe 9317 d83c f88e 623e fd85 a23d
00000210: e28d b2bc 6846 f0bd 5b08 ac3e cb25 51bc
00000220: f67b 38be ef01 58be 6273 8d3d 203b 97be
00000230: b4d7 50bd 2093 863e 2abc 62be 8810 34bd
00000240: f144 e33e e26e 8cbd 7591 aabe 5e27 803e
00000250: 941a f8be 0951 8abe 20c9 a6be e928 4abe
00000260: 2c20 7b3d 6d4f 72be c835 cf3e 20c1 523e
00000270: c893 dd3d 7a2d 523f d8a1 e53e ddf3 203d
00000280: 6094 213e c409 493e 5c76 153e b2f0 393e
00000290: 5187 dc3e ecf4 7cbd f93b 87bc 2939 ae3e
000002a0: 1f66 65bc 0576 11bf 5646 bc3d 8b61 85be
000002b0: 97a0 963c b994 1fbd dc41 313e 7aeb c13e
000002c0: bac9 913d 32fb 84be dbda d7be 7b15 d6be
000002d0: 5944 f73e 41a4 86be e893 bebd a554 02be
000002e0: e4e1 85be e86e 84be d17c d63e 3fa8 d23d
000002f0: b9f7 093f 445c 44be 0df7 05bf 92a1 8fbe
00000300: df3c 083f 60c0 f13d f5a8 eb3e a6a8 b3be
00000310: 83f7 86be ebd6 3b3f a25d f3be f4d1 09bf
00000320: 5fa3 a0bd 5529 94be 1cf5 bb3e d38d 9abe
00000330: 9028 9c3e 7def c03d bd1f 1c3f c537 893f
00000340: 9771 763e fcb0 3b3e 19ec ad3e f790 963e
00000350: 5b62 973d fded 23bf 8ac0 3e3e 3081 223e
00000360: 2e2e 9ebe 57ee 103f 4921 c5be e768 3a3e
00000370: faec 453f ca88 473f 20f8 efbe 12ae 9c3e
00000380: f591 173f f694 d23e 9179 163f 4eff 98be
00000390: dd8e e83d 1de7 47bf 4d5e 1d3f 7cfc a3be
000003a0: b254 cb3e 88b7 25bf 64eb d3be a812 35bf
000003b0: 3c53 013f f7e5 0fbd 019d 413f e4e8 3ebf
000003c0: 2fc8 e6be 35be 5c3e 7b36 c13e f11c c13e
000003d0: d6f8 5abd 868d 07bf ad72 b4be af4a 1b3f
000003e0: ae7c abbc 096e d5bc 9813 5d3d c545 f9bd
000003f0: b588 12bf 527d 14be 545d 923e d24e 44be
-0.107065484 -0.3074776 -0.10956009 -0.029832637 0.2535634 -0.25624403 -0.015869426 0.027584272
0.1640341 -0.02660083 0.05861812 -0.12981585 -0.2897133 -0.10475565 0.2847719 -0.08953472
0.32504147 0.10374318 -0.15327375 0.09802617 -0.086055286 -0.09316716 0.16147165 0.2597278
0.2936482 -0.25104928 0.09003825 0.07159598 -0.020833513 0.19827008 0.08802787 0.30896145
0.06095488 -0.24629775 -0.057903517 -0.3112891 -0.14715017 -0.15952955 -0.14463153 -0.2651335
0.36774376 -0.11127398 -0.72443587 -0.41536734 0.08156592 -0.3177032 -0.4142133 0.20874296
-0.25442082 -0.015523733 -0.3881282 -0.143055 -0.38222006 -0.22639517 0.48491827 -0.31682414
-0.15519099 0.2547794 0.11274877 -0.17004848 -0.2475755 -0.3342796 -0.29135206 -0.20664825
-0.013557163 -0.21570773 0.46832362 -0.04634999 -0.2480811 -0.068165556 0.35428348 -0.065859295
0.29735464 0.45252103 0.20687385 -0.23554778 -0.017460167 0.17245087 0.10561253 0.18421793
0.051197812 -0.06460444 -0.04001254 -0.1405161 0.11743742 -0.4647323 -0.2645875 0.18142304
0.24460731 -0.0002178072 0.111448586 -0.14808789 -0.4527021 -0.5193015 0.23390248 -0.16262354
-0.52977765 0.30581212 -0.23407651 -0.12515949 -0.20644882 -0.1845568 -0.1718759 -0.23117752
0.42554814 0.131806 -0.20275122 0.4076723 0.5103178 -0.123933375 0.29026958 -0.16858494
-0.2070408 -0.2111535 0.008774365 -0.12647739 0.0156135205 0.23023848 0.22071485 -0.29758087
-0.2473587 -0.09323463 0.22330447 0.117009185 0.24583223 -0.020521553 0.12897027 -0.64546585
-0.13992985 0.026378429 0.22124851 0.079357125 -0.02179617 -0.11732179 0.33600125 -0.012765358
-0.18016037 -0.21094488 0.06906773 -0.29537296 -0.05098696 0.26284122 -0.22142091 -0.043961078
0.44388536 -0.06857087 -0.333141 0.25030035 -0.48457778 -0.2701495 -0.3257532 -0.19742168
0.06130998 -0.23663111 0.4047072 0.20581484 0.10819203 0.8210064 0.4485004 0.039295066
0.15779257 0.19632632 0.14595932 0.18158224 0.43071988 -0.061757013 -0.01650809 0.34027985
-0.014001398 -0.5682071 0.09193103 -0.26050982 0.018387122 -0.038960192 0.1731028 0.37874967
0.071185544 -0.25972897 -0.4215916 -0.41813263 0.48294333 -0.2629719 -0.09305555 -0.12727602
-0.26148903 -0.25865865 0.41892102 0.10285997 0.5389362 -0.19175822 -0.52330095 -0.28052956
0.5321788 0.11804271 0.4602734 -0.35089606 -0.2636071 0.73374814 -0.47532374 -0.5383599
-0.078436606 -0.28937784 0.3671044 -0.30186328 0.30499697 0.09420679 0.6098593 1.0720145
0.24066769 0.18329233 0.3396919 0.29407474 0.07391807 -0.64035016 0.18628135 0.15869594
-0.30894607 0.5661368 -0.38501957 0.1820408 0.7731472 0.779431 -0.46868992 0.30601555
0.5920709 0.41129273 0.58779246 -0.29882282 0.11355374 -0.78087026 0.61472017 -0.32028568
0.39713055 -0.6473317 -0.41390526 -0.7073159 0.5051763 -0.03513142 0.75630194 -0.7457411
-0.45074603 0.21556933 0.37736878 0.37717393 -0.053459965 -0.5295032 -0.3524374 0.60660833
-0.020933475 -0.026053445 0.053973764 -0.121715106 -0.5723985 -0.14500931 0.2858683 -0.19170693

output_layer.bias f4 [25]
00000000: bc94 c43e fa7e 273f 995d 633f 58c3 623f
00000010: e6d7 0d3f 6ff5 353e b064 9b3e 1101 363e
00000020: 29bb c2be 5102 783f 9699 e03e 63d6 18bf
00000030: e1cc e3be 9156 f93e 818a 703f b1ea 97bd
00000040: 3c0a c6be 949f 8cbd 5f03 193f 3050 493f
00000050: d9dd a2be 04a4 91bd 3269 1e3e f5f2 e23e
00000060: 4369 4a3f
0.38394725 0.65428126 0.88814694 0.8857932 0.5540756 0.17769407 0.30350256 0.17773844
-0.38033417 0.96878535 0.43867177 -0.5970213 -0.44492248 0.48698857 0.9396134 -0.07417811
-0.38679683 -0.068663746 0.5977077 0.7863798 -0.3180988 -0.071113616 0.15469816 0.44325987
0.79066867
