models/2950episodes/2350episodes.pth (torch, 34108 bytes, 8 tensors)

input_layer.weight f4 [50, 26]
-1.2982811 2.0707989 -0.97902536 7.818731 0.018952863 1.6760442 -1.1623898 2.800765
5.4320593 -3.6189644 -1.5527655 0.16961965 -7.127476 -2.7546895 10.616891 -4.3155303
-8.623067 13.133063 5.418916 -2.4317446 -4.062248 -5.231157 -2.8108978 -10.527999
0.8654169 3.7435942 -4.7993083 -9.852878 8.31827 0.41895226 9.44888 -10.441039
-0.5722598 4.4108696 5.1707554 3.9574666 1.1148931 7.7802796 -3.6553025 -0.5652162
-5.34615 -1.0326941 -6.3170295 -17.394203 1.2430888 4.569276 -5.66238 0.4531358
8.381078 11.482026 -5.5291967 0.14491284 -1.534747 -1.4369447 -3.4603574 1.9794973
3.4379487 4.321547 -6.45693 -6.3949866 7.4376082 -0.819255 -7.4206376 -2.8179388
3.5361016 4.7487454 -3.293739 7.042808 10.590733 -6.3122077 0.78660464 13.781716
-2.2945557 -9.526825 -2.5213745 14.407094 6.698601 -2.6695743 5.8214087 -10.698034
-8.532912 -8.304152 -1.6163058 4.9076576 -1.718013 -3.3557973 8.833411 -4.269635
2.407988 -7.0757313 -10.000867 -0.4794335 10.20877 0.7171625 -0.6614504 7.930475
2.9571917 10.333353 1.8157363 1.1820271 1.267369 5.0103507 7.019981 -5.531218
10.113153 0.36569768 2.4612856 -4.387445 -8.443432 2.5372503 4.8284965 7.432336
5.4079967 -10.593477 3.3027976 -0.5985116 -3.957009 -2.1915073 -0.83776927 8.71646
-2.7655625 0.575973 -1.8461374 0.8797428 2.5152597 3.7034912 7.652801 10.000116
9.931771 -6.6808143 2.165592 -15.180822 -1.2636135 -4.290126 -2.7801218 3.4457176
4.1179566 2.05666 -1.0485466 -1.4047039 8.518707 6.3122888 5.8343267 0.27164847
8.456222 8.83334 -7.0599566 8.440139 7.882187 -1.6201457 -8.18193 -1.4011854
5.9979033 -11.013693 0.90549016 -8.130817 1.7786765 7.7136354 -4.598074 -1.8986955
8.59093 3.9814394 0.86910176 -5.3901577 0.40539765 3.1932876 -5.735721 -3.653222
0.7969886 -2.442683 14.936678 2.036308 -6.0987854 -1.858131 4.499404 2.0861971
-0.82821697 2.6568782 0.112192154 -4.9936934 -3.3645523 -6.300424 -0.8819176 0.6111756
-1.527867 -5.6971784 -0.4110897 -5.468371 1.491716 -5.926108 4.6999307 -0.4495523
0.020136023 0.4985113 6.9858603 -3.026895 -12.548971 6.136604 -2.4761152 12.235234
8.35171 -13.858943 1.2164141 3.0452564 0.37538528 -10.695927 -9.927285 3.0598004
-8.568983 -12.640403 3.940869 3.2957082 5.9958158 -5.709796 3.8783655 1.4453344
9.160549 -5.9201355 -1.2843808 6.90757 1.9856201 -6.878886 -2.672284 4.716482
3.3268263 -1.1201377 -0.04772959 -9.745898 1.1850525 -2.8587694 -1.3786705 -18.002071
5.5047936 -2.8528423 -0.74850243 -1.3809137 1.6357166 0.6651166 -0.0883529 -3.3831615
2.7258334 2.0501053 -3.617221 -3.1488698 1.3883361 8.110454 -8.664735 3.1026807
-6.43763 -9.509556 4.0492344 3.2250485 9.560251 -3.9073677 3.6946437 1.5063796
00000000: 132e a6bf f887 0440 68a1 7abf 0b33 fa40
00000010: 0943 9b3c 9e88 d63f 30c9 94bf bc3f 3340
00000020: 6ed3 ad40 1d9d 67c0 05c1 c6bf c6b0 2d3e
00000030: 4914 e4c0 d54c 30c0 c9de 2941 d318 8ac0
00000040: 15f8 09c1 0721 5241 c367 ad40 b4a1 1bc0
00000050: f0fd 81c0 a365 a7c0 c0e5 33c0 af72 28c1
00000060: f68b 5d3f 0c97 6f40 ef93 99c0 63a5 1dc1
00000070: a217 0541 e980 d63e 9d2e 1741 7f0e 27c1
00000080: 9e7f 12bf d825 8d40 d476 a540 2247 7d40
00000090: d1b4 8e3f 0df8 f840 7af0 69c0 02b2 10bf
000000a0: a913 abc0 522f 84bf 1b25 cac0 5427 8bc1
000000b0: 891d 9f3f 8237 9240 3832 b5c0 6a01 e83e
000000c0: e518 0641 61b6 3741 2eef b0c0 0864 143e
000000d0: 9772 c4bf ceed b7bf 7f76 5dc0 2b60 fd3f
000000e0: 5a07 5c40 1d4a 8a40 2c9f cec0 bba3 ccc0
000000f0: e300 ee40 b2ba 51bf dd75 edc0 1c59 34c0
00000100: 7d4f 6240 b9f5 9740 9fcc 52c0 af5e e140
00000110: a473 2941 9bfd c9c0 ec5e 493f e981 5c41
00000120: 00da 12c0 e06d 18c1 335e 21c0 7583 6641
00000130: f05a d640 4eda 2ac0 fb48 ba40 262b 2bc1
00000140: cf86 08c1 cedd 04c1 1ce3 cebf 880b 9d40
00000150: dae7 dbbf 62c5 56c0 a755 0d41 daa0 88c0
00000160: 7a1c 1a40 646c e2c0 8d03 20c1 4f78 f5be
00000170: 1f57 2341 f697 373f d054 29bf 74c6 fd40
00000180: a142 3d40 6a55 2541 0c6a e83f aa4c 973f
00000190: 2639 a23f cb54 a040 afa3 e040 bdff b0c0
000001a0: 7acf 2141 ba3c bb3e b485 1d40 f365 8cc0
000001b0: 4c18 07c1 4f62 2240 0b83 9a40 b2d5 ed40
000001c0: 4f0e ad40 e27e 29c1 0961 5340 0e38 19bf
000001d0: a33f 7dc0 a841 0cc0 0c78 56bf 9f76 0b41
000001e0: fafe 30c0 f772 133f 3b4e ecbf d336 613f
000001f0: 04fa 2040 0006 6d40 bfe3 f440 7a00 2041
00000200: 89e8 1e41 3bc9 d5c0 0f99 0a40 a6e4 72c1
00000210: 16be a1bf b648 89c0 84ed 31c0 a386 5c40
00000220: 4dc6 8340 51a0 0340 c636 86bf 56cd b3bf
00000230: a04c 0841 45fe c940 ceb2 ba40 8215 8b3e
00000240: af4c 0741 5c55 0d41 2aeb e1c0 cf0a 0741
00000250: e03a fc40 ef60 cfbf 2fe9 02c1 0b5a b3bf
00000260: d3ee bf40 1638 30c1 34ce 673f d417 02c1
00000270: acab e33f 1ad6 f640 6c23 93c0 7408 f3bf
00000280: 7374 0941 e7cf 7e40 747d 5e3f 2c7c acc0
00000290: 4890 cf3e d35e 4c40 078b b7c0 64ce 69c0
000002a0: 7207 4c3f eb54 1cc0 a2fc 6e41 df52 0240
000002b0: 4029 c3c0 3dd7 edbf 1efb 8f40 4184 0540
000002c0: 0706 54bf 4b0a 2a40 00c5 e53d 56cc 9fc0
000002d0: d354 57c0 139d c9c0 5ac5 61bf 0176 1c3f
000002e0: 2591 c3bf 494f b6c0 597a d2be e5fc aec0
000002f0: 8df0 be3f ada2 bdc0 d565 9640 b82b e6be
00000300: 4df4 a43c e03c ff3e 2b8c df40 a6b8 41c0
00000310: 96c8 48c1 0f5f c440 ac78 1ec0 85c3 4341
00000320: 9ba0 0541 3bbe 5dc1 75b3 9b3f 7be5 4240
00000330: 8032 c03e 8422 2bc1 29d6 1ec1 c5d3 4340
00000340: 8e1a 09c1 173f 4ac1 3337 7c40 e2ec 5240
00000350: b9dd bf40 a6b6 b6c0 2437 7840 b800 b93f
00000360: 9c91 1241 c071 bdc0 9766 a4bf d00a dd40
00000370: cd28 fe3f d61f dcc0 b306 2bc0 6ced 9640
00000380: b9ea 5440 ac60 8fbf 1a80 43bd 33ef 1bc1
00000390: cdaf 973f 14f6 36c0 4678 b0bf 3e04 90c1
000003a0: 4527 b040 f894 36c0 db9d 3fbf c8c1 b0bf
000003b0: 295f d13f 1545 2a3f 5ef2 b4bd b885 58c0
000003c0: 0e74 2e40 ed34 0340 8d80 67c0 1587 49c0
000003d0: ffb4 b13f 6bc4 0141 c1a2 0ac1 5292 4640
000003e0: 1101 cec0 2427 18c1 5493 8140 3267 4e40
000003f0: caf6 1841 5012 7ac0 0b75 6c40 0cd1 c03f

input_layer.bias f4 [50]
2.24199 -5.2715254 0.18340865 2.8767703 -0.5492202 8.300865 10.842208 4.306325
3.0029137 -0.72877884 -0.631415 8.474593 3.361015 -5.8624077 1.0000197 4.6183977
2.9224267 3.1163454 -2.0392392 -0.12574434 3.0610206 5.2271433 -8.731164 4.715787
1.2788891 1.6550533 2.2508209 -0.7306149 4.879478 -4.6515884 3.908152 -2.9575455
-5.9319987 -9.913615 11.000845 10.833435 -7.541197 0.31382787 -2.0910342 7.415434
7.4602165 -10.594485 8.682118 -5.0974293 9.860395 2.6602504 0.5207693 2.4275975
-0.06739561 -4.766048
00000000: c47c 0f40 56b0 a8c0 7acf 3b3e 011d 3840
00000010: b299 0cbf 58d0 0441 af79 2d41 6acd 8940
00000020: bd2f 4040 4091 3abf 6aa4 21bf ef97 0741
00000030: df1a 5740 d898 bbc0 a500 803f eac9 9340
00000040: 0a09 3b40 3472 4740 e582 02c0 20c3 00be
00000050: c3e7 4340 c244 a740 d9b2 0bc1 bae7 9640
00000060: a3b2 a33f c9d8 d33f 730d 1040 9409 3bbf
00000070: af24 9c40 d0d9 94c0 2a1f 7a40 6d48 3dc0
00000080: efd2 bdc0 2b9e 1ec1 7603 3041 c055 2d41
00000090: 7c51 f1c0 0cae a03e 81d3 05c0 3c4b ed40
000000a0: 18ba ee40 0383 29c1 f5e9 0a41 241e a3c0
000000b0: 2ec4 1d41 8b41 2a40 2351 053f c25d 1b40
000000c0: b606 8abd 7783 98c0

hidden.0.weight f4 [50, 50]
-1.9839388 1.7302356 -3.727097 -0.22501999 7.2548614 15.104289 3.0179505 4.127345
21.529497 2.5961425 -5.4143806 1.4477721 2.0362945 3.391004 -13.136202 3.7750595
-3.6691172 2.7172606 -10.0177 -8.386109 16.746803 4.999924 -0.968644 1.5793006
-4.0566926 -9.045729 3.2406938 -0.77227354 -2.6305563 -5.484004 2.926111 -8.511664
-2.4317873 -3.8949242 4.2345057 -5.2376585 11.76109 -7.777157 4.3885713 2.4533842
0.50292563 9.713353 2.4337883 -4.852004 4.9618077 1.3755223 -5.958806 -1.8943342
5.9824476 9.310553 6.8444643 1.5721672 -12.611429 0.89723724 -15.6643095 -8.596883
-3.5021675 -1.2280262 -4.3587403 2.2790968 -9.688279 6.274737 -7.138468 4.7377563
3.3883781 0.39756113 -0.33384755 2.773163 -3.9420528 1.7750084 1.9038789 -7.461105
-8.09281 -6.8523517 -1.3176626 2.6769483 -4.416629 6.199123 -8.006902 -6.72667
-12.390502 7.322181 10.17923 10.839566 3.842841 1.2440526 -2.3018274 0.8065262
-4.563722 -7.1582255 -8.296483 8.805313 3.9006188 -0.3955991 -9.054189 -5.097249
-4.590366 -1.3388071 -16.790298 1.8467729 5.807595 -5.0748963 2.2102973 5.4258556
-5.93074 -4.3827925 1.9357736 7.1584516 -5.65303 -1.769351 6.2839937 -1.0640601
-5.3057203 -2.4124928 -6.9618516 5.0908027 8.919366 -3.5920367 2.5028708 6.3516617
-0.79145974 -6.926983 -4.551964 -3.4768841 3.0774012 -15.361229 5.31034 -6.256574
-8.150074 4.121364 -4.2271223 2.2398698 1.3645009 16.588331 1.5823233 -12.001835
-0.22252408 -7.9028153 9.829454 4.4639416 -2.4967675 2.7872207 0.564569 -2.6139178
-12.531071 -3.440382 -3.3791444 14.943438 -1.1724865 0.47779194 9.8035145 3.0933282
-9.212786 -2.905309 7.7121167 -1.022938 -11.992512 -11.332893 1.0301756 1.1815434
4.9078417 9.603745 4.355961 2.704226 0.74550366 -5.6583157 7.9922414 7.605919
3.8025355 -6.230128 2.1539586 -16.71986 0.64179707 -10.652686 0.27651846 -5.5140586
-4.8731523 -2.567487 -3.1586373 3.9219487 -1.6056131 -4.7787724 2.0275812 5.651861
-1.2796091 2.368671 -2.3130744 3.673561 6.069517 -8.421238 -7.0668797 1.4671898
-8.808137 -4.252267 4.6577744 -3.0444624 9.783351 7.45657 13.681124 -2.5622358
-9.773716 5.3379593 -8.49708 -6.266174 3.4947505 2.5886211 -6.156552 -0.43199012
-5.288128 -0.6748755 7.877323 0.29569682 -0.2877015 0.80950075 5.3802643 -7.1597586
-0.7190875 -6.059011 11.7549095 6.8003235 -0.21373521 -10.790258 1.1856887 6.4279485
-3.8955283 1.0860541 7.417089 -3.3726168 -3.225382 -6.9330854 13.600095 -0.26320496
-4.7024393 3.5059748 -0.9743338 3.712106 6.231445 -6.0567956 -1.4473684 17.147285
4.689725 -7.2620544 4.6955094 -1.495071 1.2907622 8.157177 -5.6678286 -5.6856494
0.66837066 4.837895 3.8428051 0.0657149 -3.8159273 -1.3197149 -2.0475674 3.867218
00000000: b5f1 fdbf 5c78 dd3f c288 6ec0 a46b 66be
00000010: d327 e840 2bab 7141 1a26 4140 3613 8440
00000020: 693c ac41 3327 2640 9b42 adc0 9950 b93f
00000030: a652 0240 3606 5940 e22d 52c1 939a 7140
00000040: d1d2 6ac0 99e7 2d40 8048 20c1 812d 06c1
00000050: 74f9 8541 61ff 9f40 0ef9 77bf 8626 ca3f
00000060: 6dd0 81c0 4ebb 10c1 8767 4f40 b8b3 45bf
00000070: 095b 28c0 f67c afc0 6745 3b40 c72f 08c1
00000080: 67a2 1bc0 7046 79c0 1281 8740 e69a a7c0
00000090: 6d2d 3c41 78de f8c0 2d6f 8c40 3f04 1d40
000000a0: bcbf 003f e569 1b41 30c3 1b40 9e43 9bc0
000000b0: 21c7 9e40 1d11 b03f 8aae bec0 8b79 f2bf
000000c0: 3670 bf40 06f8 1441 da05 db40 c63c c93f
000000d0: 6ac8 49c1 57b1 653f 03a1 7ac1 d58c 09c1
000000e0: 8323 60c0 f62f 9dbf cd7a 8bc0 b9dc 1140
000000f0: 3103 1bc1 a5ca c840 546e e4c0 b39b 9740
00000100: 30db 5840 228d cb3e 11ee aabe 817b 3140
00000110: 984a 7cc0 7a33 e33f 4eb2 f33f 5fc1 eec0
00000120: 267c 01c1 7746 dbc0 2ba9 a8bf 1f53 2b40
00000130: 0655 8dc0 375f c640 451c 00c1 e140 d7c0
00000140: 7f3f 46c1 4f4f ea40 20de 2241 dd6e 2d41
00000150: 1bf1 7540 1e3d 9f3f 2451 13c0 8078 4e3f
00000160: 030a 92c0 2f10 e5c0 65be 04c1 90e2 0c41
00000170: bda3 7940 f78b cabe f5dd 10c1 aa1c a3c0
00000180: 47e4 92c0 085e abbf 8852 86c1 0e63 ec3f
00000190: d1d7 b940 8d65 a2c0 8375 0d40 9ca0 ad40
000001a0: 9fc8 bdc0 d63f 8cc0 6ec7 f73f 0912 e540
000001b0: 9fe5 b4c0 187a e2bf 7a16 c940 1f33 88bf
000001c0: 76c8 a9c0 4866 1ac0 7dc7 dec0 dbe7 a240
000001d0: b9b5 0e41 eee3 65c0 092f 2040 d040 cb40
000001e0: 1b9d 4abf d8a9 ddc0 b0a9 91c0 4585 5ec0
000001f0: 24f4 4440 98c7 75c1 4eee a940 db35 c8c0
00000200: b466 02c1 37e2 8340 9644 87c0 075a 0f40
00000210: f7a7 ae3f e7b4 8441 9289 ca3f 8407 40c1
00000220: 5add 63be dde3 fcc0 7245 1d41 9cd8 8e40
00000230: 0acb 1fc0 d361 3240 9887 103f 6e4a 27c0
00000240: 447f 48c1 382f 5cc0 e743 58c0 5218 6f41
00000250: 0a14 96bf 25a1 f43e 32db 1c41 17f9 4540
00000260: 9267 13c1 95f0 39c0 a9c9 f640 a2ef 82bf
00000270: 54e1 3fc1 8853 35c1 cbdc 833f d03c 973f
00000280: 0a0d 9d40 f1a8 1941 0864 8b40 0a12 2d40
00000290: 54d9 3e3f ec10 b5c0 71c0 ff40 b063 f340
000002a0: be5c 7340 355d c7c0 75da 0940 46c2 85c1
000002b0: d04c 243f 6771 2ac1 d493 8d3e 2b73 b0c0
000002c0: ddf0 9bc0 b551 24c0 1d27 4ac0 3501 7b40
000002d0: bb84 cdbf b4eb 98c0 e4c3 0140 0cdc b440
000002e0: 3bca a3bf 4e98 1740 6909 14c0 a01b 6b40
000002f0: 7c39 c240 64bd 06c1 e123 e2c0 e0cc bb3f
00000300: 21ee 0cc1 9212 88c0 7d0c 9540 79d8 42c0
00000310: 9b88 1c41 399c ee40 e2e5 5a41 acfb 23c0
00000320: 2461 1cc1 90d0 aa40 0af4 07c1 7f84 c8c0
00000330: fea9 5f40 f8ab 2540 7902 c5c0 cf2d ddbe
00000340: 5838 a9c0 a4c4 2cbf 0813 fc40 9365 973e
00000350: 9c4d 93be 713b 4f3f 202b ac40 be1c e5c0
00000360: 1e16 38bf 6be3 c1c0 1c14 3c41 409c d940
00000370: 67dd 5abe e6a4 2cc1 a6c4 973f c1b1 cd40
00000380: 5650 79c0 d203 8b3f cb58 ed40 f4d8 57c0
00000390: a96c 4ec0 d6db ddc0 fd99 5941 cdc2 86be
000003a0: 627a 96c0 e461 6040 f16d 79bf 2593 6d40
000003b0: ff67 c740 45d1 c1c0 5e43 b9bf a42d 8941
000003c0: 3a12 9640 c062 e8c0 9d41 9640 7d5e bfbf
000003d0: b237 a53f cc83 0241 da5e b5c0 d7f0 b5c0
000003e0: 571a 2b3f 09d0 9a40 85f0 7540 8995 863d
000003f0: 2738 74c0 6bec a8bf 580b 03c0 8080 7740

hidden.0.bias f4 [50]
-11.282227 -5.6736383 3.1228573 -4.7197256 3.6689928 -1.4231479 5.9992785 -8.343489
4.119156 -1.4785919 4.967277 0.91628766 -0.14481083 -1.839862 2.8651986 13.30415
2.803285 -3.6688592 -1.4098384 -12.4610195 3.896321 17.86674 -0.10321294 -0.24724852
-12.566986 1.7143137 5.4955935 -23.292624 -3.4212582 1.8278717 14.976965 -0.27136853
-8.719749 1.0702058 -24.320919 -6.1647406 -0.5491412 -2.9519856 -7.0021954 -10.675224
-3.877133 -11.169483 -13.168839 -12.819561 3.4452817 11.453233 -13.773485 -4.321261
-5.2779303 4.3804235
00000000: 0084 34c1 728e b5c0 e5dc 4740 fe07 97c0
00000010: c7d0 6a40 b629 b6bf 17fa bf40 ee7e 05c1
00000020: 20d0 8340 8042 bdbf eff3 9e40 d491 6a3f
00000030: 4a49 14be 9980 ebbf 6a5f 3740 ccdd 5441
00000040: 0569 3340 97ce 6ac0 9675 b4bf 5660 47c1
00000050: 535d 7940 15ef 8e41 4e61 d3bd b72e 7dbe
00000060: 6012 49c1 a26e db3f e7db af40 4b57 bac1
00000070: e5f5 5ac0 b3f7 e93f a6a1 6f41 d1f0 8abe
00000080: 1884 0bc1 81fc 883f 3e91 c2c1 8e45 c5c0
00000090: 8594 0cbf 55ed 3cc0 fc11 e0c0 b8cd 2ac1
000000a0: f222 78c0 34b6 32c1 91b3 52c1 ec1c 4dc1
000000b0: 7f7f 5c40 7140 3741 3260 5cc1 c547 8ac0
000000c0: cee4 a8c0 6e2c 8c40

hidden.1.weight f4 [50, 50]
-5.688681 -34.19938 -6.0672317 -12.712837 8.894687 -25.033014 -1.3834769 -6.639946
-20.837223 -17.955074 11.943698 14.744413 -5.5393095 -0.2190647 -3.11711 -4.047765
18.880308 7.2407856 16.424143 -2.1001692 8.656447 26.639774 -10.7195835 6.968687
0.7605969 7.573812 -4.2802324 -4.755356 -44.304665 6.5512013 -8.510693 7.237592
2.855199 -2.9034584 24.092327 0.21256962 1.299795 -8.116534 2.367282 16.447813
7.1074944 9.728567 -2.4469066 1.3634384 -7.636739 14.402339 -9.67955 1.7455513
-9.122174 -2.554391 -14.117903 1.6623825 -11.851157 -5.4513836 14.619714 2.453721
30.601013 13.793885 14.123655 -6.334597 22.220322 8.577783 8.921417 -11.946679
0.88672066 -1.7628536 13.965678 19.325647 18.247087 -39.209644 -2.884597 -1.963904
12.557578 2.238893 -16.69417 -1.3247224 -0.8854891 9.8513 7.5784664 -12.468468
-10.0076685 -0.94583654 -12.4417515 -18.376484 -0.26516742 -3.447185 -4.013371 0.83970255
0.8443172 -18.409628 7.166223 1.8383012 -8.862031 6.519478 -2.6346548 17.599743
2.8305964 0.89362067 -4.9357586 2.892838 -7.794483 -7.522652 6.439684 5.4766855
10.975002 -15.553604 16.758844 29.315607 -4.5820785 9.311542 7.179475 -10.895424
-16.13184 -9.367336 -11.711839 27.323265 -4.559279 3.386371 1.9904763 -5.841707
-12.344996 -24.662525 0.78992546 33.94683 -8.26596 -2.905548 -0.117943354 2.3228912
-4.466927 1.0904856 29.102705 18.420216 1.1660436 -0.59357417 1.2581913 8.461817
-2.473466 -1.0235153 -19.46623 5.4070067 9.755702 -26.671944 7.669765 -12.713847
-5.1445312 -10.131053 10.159731 3.6809845 7.5643783 9.4602995 -2.357386 -0.93050843
-10.902481 -4.111462 2.307128 -1.2387706 14.027038 -2.9351585 2.237311 -10.173782
1.8502369 -2.5904686 0.096366785 -6.3207083 -8.125814 1.0279984 2.663883 3.7115924
7.2795725 4.5858665 6.130312 -3.8479667 16.57497 0.62514865 -14.518131 2.9615548
-9.548116 -2.0296254 4.717907 -5.1672454 -6.420102 3.2265344 4.1328616 -12.214912
3.6704452 6.878244 -3.777033 2.650549 1.938954 -3.4992745 -2.2829955 2.7414827
-6.7938166 7.009666 -3.6503277 7.851251 0.8067518 -1.4678859 0.4862208 4.7137866
3.0711281 -11.596598 -9.974477 -4.9548044 -60.348774 7.887512 26.727262 -9.084636
-3.0771227 -0.78756523 -7.726952 2.128157 -17.562008 -5.7339907 4.4239597 -5.9200325
1.0772663 -7.425797 -3.3530407 9.965526 6.0006456 4.072314 -17.255589 4.503357
7.03785 11.726501 -15.306289 9.78861 10.5364485 -0.5694189 -7.8719535 0.34178343
-21.325802 10.091532 1.3051138 -3.3624074 15.654565 -0.4443699 11.2231865 1.8740005
-15.105897 14.571428 5.3965793 4.3138204 -6.2546296 9.309797 14.202209 8.436245
0.48097587 -4.832325 4.1112432 -18.326704 -17.709291 -5.5762367 15.461595 -7.1335697
00000000: ad09 b6c0 2acc 08c2 c326 c2c0 c867 4bc1
00000010: a350 0e41 9d43 c8c1 c515 b1bf 707a d4c0
00000020: a2b2 a6c1 fea3 8fc1 6319 3f41 1ee9 6b41
00000030: 0642 b1c0 7f52 60be bb7e 47c0 4a87 81c0
00000040: df0a 9741 84b4 e740 a564 8341 2c69 06c0
00000050: cf80 0a41 421e d541 6a83 2bc1 7cff de40
00000060: 7ab6 423f ab5c f240 aaf7 88c0 e02b 98c0
00000070: fa37 31c2 71a3 d140 cc2b 08c1 5b9a e740
00000080: 95bb 3640 43d2 39c0 16bd c041 daab 593e
00000090: af5f a63f 53dd 01c1 8c81 1740 1f95 8341
000000a0: 9870 e340 36a8 1b41 1e9a 1cc0 2685 ae3f
000000b0: 2a60 f4c0 fb6f 6641 70df 1ac1 3a6e df3f
000000c0: 6df4 11c1 247b 23c0 eee2 61c1 f3c8 d43f
000000d0: 579e 3dc1 bc71 aec0 59ea 6941 c409 1d40
000000e0: e0ce f441 c1b3 5c41 7efa 6141 05b5 cac0
000000f0: 38c3 b141 993e 0941 20be 0e41 9925 3fc1
00000100: 2000 633f 30a5 e1bf 6b73 5f41 ed9a 9a41
00000110: 09fa 9141 add6 1cc2 3d9d 38c0 3561 fbbf
00000120: d7eb 4841 064a 0f40 a98d 85c1 8190 a9bf
00000130: 6aaf 62bf ed9e 1d41 cc82 f240 d87e 47c1
00000140: 691f 20c1 5822 72bf 6a11 47c1 0a03 93c1
00000150: 06c4 87be ae9e 5cc0 896d 80c0 bff6 563f
00000160: 2c25 583f eb46 93c1 b351 e540 744d eb3f
00000170: e1ca 0dc1 909f d040 2f9e 28c0 46cc 8c41
00000180: 7e28 3540 53c4 643f bcf1 9dc0 4224 3940
00000190: 686c f9c0 91b9 f0c0 e411 ce40 0241 af40
000001a0: 9c99 2f41 90db 78c1 1d12 8641 5d86 ea41
000001b0: 63a0 92c0 13fc 1441 42be e540 a853 2ec1
000001c0: 020e 81c1 9ce0 15c1 b163 3bc1 0c96 da41
000001d0: 9de5 91c0 4dba 5840 edc7 fe3f 44ef bac0
000001e0: 1b85 45c1 da4c c5c1 8e38 4a3f 8ec9 0742
000001f0: 5f41 04c1 80f4 39c0 498c f1bd 40aa 1440
00000200: 11f1 8ec0 0895 8b3f 57d2 e841 9a5c 9341
00000210: eb40 953f 7af4 17bf 6a0c a13f 9a63 0741
00000220: 444d 1ec0 8d02 83bf d7ba 9bc1 3306 ad40
00000230: 5b17 1c41 2460 d5c1 b76e f540 eb6b 4bc1
00000240: 00a0 a4c0 cb18 22c1 428e 2241 4095 6b40
00000250: 630f f240 635d 1741 6adf 16c0 cd35 6ebf
00000260: 9070 2ec1 1991 83c0 fca7 1340 0990 9ebf
00000270: bf6e 6041 a3d9 3bc0 1a30 0f40 d0c7 22c1
00000280: 90d4 ec3f 3dca 25c0 f35b c53d 3e43 cac0
00000290: 5603 02c1 7495 833f 0f7d 2a40 bb8a 6d40
000002a0: 42f2 e840 6bbf 9240 842b c440 1645 76c0
000002b0: 8a99 8441 be09 203f 444a 68c1 1d8a 3d40
000002c0: 15c5 18c1 62e5 01c0 18f9 9640 135a a5c0
000002d0: 7a71 cdc0 8a7f 4e40 6740 8440 4870 43c1
000002e0: 93e8 6a40 931a dc40 e9ba 71c0 98a2 2940
000002f0: a52f f83f 1df4 5fc0 991c 12c0 7474 2f40
00000300: f266 d9c0 2f4f e040 f89e 69c0 733d fb40
00000310: 4987 4e3f afe3 bbbf eff1 f83e 57d7 9640
00000320: 5d8d 4440 aa8b 39c1 7597 1fc1 c28d 9ec0
00000330: 2565 71c2 8066 fc40 6fd1 d541 ab5a 11c1
00000340: 94ef 44c0 e09d 49bf 3143 f7c0 b933 0840
00000350: fe7e 8cc1 da7c b7c0 1491 8d40 e870 bdc0
00000360: dde3 893f 21a0 edc0 3898 56c0 cb72 1f41
00000370: 4a05 c040 6550 8240 720b 8ac1 801b 9040
00000380: 1136 e140 c09f 3b41 8fe6 74c1 269e 1c41
00000390: 4b95 2841 70c5 11bf 0be7 fbc0 3dfe ae3e
000003a0: 3e9b aac1 ea76 2141 f80d a73f af31 57c0
000003b0: 1979 7a41 7484 e3be 2c92 3341 40df ef3f
000003c0: c1b1 71c1 9224 6941 c7b0 ac40 d10a 8a40
000003d0: ed25 c8c0 eef4 1441 403c 6341 dcfa 0641
000003e0: 7842 f63e 68a2 9ac0 4e8f 8340 179d 92c1
000003f0: a1ac 8dc1 8870 b2c0 b162 7741 3446 e4c0

hidden.1.bias f4 [50]
23.131361 -23.664927 26.504747 -51.217533 -44.51701 -0.17829564 -52.921703 -46.873985
-42.240593 37.23005 -0.7341343 18.87294 -30.715088 32.082417 39.501972 -1.7842425
56.45242 1.0810953 -63.301506 -20.44942 -15.549064 -42.633114 49.590427 63.82146
31.571562 -18.048838 34.491558 -33.407368 45.55904 54.45855 -6.9351425 66.77498
47.749615 -81.39387 -48.478607 -54.688713 -71.71234 -24.814201 24.024988 -11.91286
71.64974 -46.399086 -40.21006 -65.35525 47.85607 3.7396667 -53.922955 47.85236
-36.312294 -52.46692
00000000: 070d b941 c551 bdc1 b909 d441 c1de 4cc2
00000010: 6b11 32c2 2293 36be d3af 53c2 f67e 3bc2
00000020: 5ef6 28c2 92eb 1442 3af0 3bbf c8fb 9641
00000030: 80b8 f5c1 6554 0042 0502 1e42 0f62 e4bf
00000040: 47cf 6142 5561 8a3f be34 7dc2 6a98 a3c1
00000050: f7c8 78c1 4f88 2ac2 995c 4642 2d49 7f42
00000060: 8f92 fc41 0564 90c1 5bf7 0942 25a1 05c2
00000070: 753c 3642 8ed5 5942 b0ec ddc0 ca8c 8542
00000080: 9bff 3e42 a9c9 a2c2 18ea 41c2 3ec1 5ac2
00000090: b86c 8fc2 7c83 c6c1 2d33 c041 139b 3ec1
000000a0: ab4c 8f42 aa98 39c2 1ad7 20c2 e3b5 82c2
000000b0: 9e6c 3f42 b356 6f40 1bb1 57c2 d168 3f42
000000c0: ca3f 11c2 20de 51c2

output_layer.weight f4 [25, 50]
-0.3568822 0.22644386 0.39807388 -0.83312297 -0.2471094 -0.379356 -0.3507554 -0.13653842
0.16043209 1.7552879 -0.013569218 -0.34431374 0.5744229 -0.8574427 -1.5407828 0.30678198
-0.074889906 0.6462649 -0.8600914 0.3551464 -0.38603395 -0.3214112 -0.40752816 0.04958073
-0.9298668 -0.23430708 0.095876716 0.46158284 -0.023280894 0.9680356 -0.44899172 0.8825865
0.9218172 0.456712 -1.2255658 -2.4644153 -0.45522383 -1.8927307 0.36578315 -0.22866121
0.37206447 1.4802157 -0.24419394 -0.28535274 -0.31913504 0.41667533 -1.0989691 2.277306
-0.7778621 0.3272395 -0.6085372 0.26391524 0.33165365 -0.7692622 -0.21969707 -0.39843917
-0.46530166 -0.04128983 -0.041424155 1.626129 -0.015073034 -0.34016365 0.46555546 -0.7937701
-1.4452654 0.3068557 -0.18876241 0.51361513 -0.8387973 0.25978225 -0.402598 -0.5321513
-0.4669357 -0.017386641 -0.5766337 -0.20515284 0.107424796 0.9662988 0.2500957 0.93615633
-0.5715477 0.25704128 0.89884895 0.36613628 -0.9927564 -2.3261113 -0.5984049 -1.9569187
0.29048127 -0.5691605 0.30959678 1.4884614 -0.08841781 -0.40526304 -0.37788606 0.83259124
-1.0104572 2.3709185 -0.73379046 0.42665672 -0.43803367 0.24350455 0.340039 -0.5865142
-0.19316995 -0.40366948 -0.32630715 0.13850385 0.061208777 1.4654942 -0.48521677 -0.35246742
0.7440579 -1.0797222 -1.3659325 0.31580186 -0.71416366 0.4944947 -0.93607724 0.13270438
-0.048948254 -0.58791095 -0.4609612 -0.07716873 -0.75676054 -0.19878405 0.23071867 0.87703055
0.35991755 0.79401946 -0.41981524 0.54537183 0.69848895 0.28322548 -0.9844847 -2.469592
-0.51756096 -1.7098476 0.60768276 -0.1715093 0.31381884 1.4255464 0.11764145 -0.14893246
-0.46317154 0.7001918 -0.8744555 2.5398498 -0.57940555 0.051060263 -0.15313523 0.42386794
-0.13319421 -0.62998366 -0.14415964 -0.4129928 -0.3142104 -0.16787152 -0.380221 1.5597304
-0.43365124 -0.17593987 0.79940957 -1.0478995 -1.0887614 0.15793972 -0.5078325 0.7496187
-0.928904 0.24292086 -0.42644468 -0.6469115 -0.42734832 -0.033147834 -0.80482507 -0.044208754
0.07212134 0.74241143 0.4320501 0.7775891 -0.50942105 0.45290533 0.7803256 0.30921486
-0.96558225 -2.74988 0.099740766 -1.993431 0.44931027 -0.4636791 0.16882579 1.2492121
0.07320076 -0.3855599 -0.47706544 0.09580403 -0.91178936 2.534346 -1.094592 -0.33768225
0.01491697 0.6027748 -0.16286215 -0.77449745 -0.05866937 -0.19216397 -0.23960075 0.26573434
-0.14068131 2.244909 -0.20200668 -0.09273321 0.60557836 -1.0201391 -1.110207 0.36394364
-0.6223997 0.67360127 -0.7031116 0.41127276 -0.3083061 -0.84271896 -0.2287997 -0.12149194
-0.27571902 -0.10599153 -0.0658624 0.3595169 -0.3103083 0.8443825 -0.34424606 1.1842703
0.7828603 0.2406208 -1.03553 -2.8590338 -0.07321364 -2.0501366 0.2817709 -0.8287357
0.13770874 1.1831948 -0.1389654 0.08329248 -0.30757642 -0.11790424 -0.8114523 2.783525
-1.0508672 -0.22941905 -0.37851724 0.22453567 0.42128795 -0.5419094 -0.08378719 -0.5441061
00000000: 44b9 b6be e6e0 673e 57d0 cb3e 8c47 55bf
00000010: 3f0a 7dbe f33a c2be 3696 b3be bad0 0bbe
00000020: 4f48 243e 46ad e03f 6d51 5ebc e449 b0be
00000030: 610d 133f 5d81 5bbf 5f38 c5bf 8712 9d3e
00000040: e15f 99bd 9e71 253f f32e 5cbf c0d5 b53e
00000050: 3ea6 c5be 0290 a4be 88a7 d0be 2a15 4b3d
00000060: c00b 6ebf 32ee 6fbe 035b c43d 9654 ec3e
00000070: 93b7 bebc 2ed1 773f 3ee2 e5be 30f1 613f
00000080: 36fc 6b3f 28d6 e93e 57df 9cbf fbb8 1dc0
00000090: 1913 e9be 0045 f2bf ee47 bb3e 2a26 6abe
000000a0: 3c7f be3e b577 bd3f fa0d 7abe c119 92be
000000b0: ab65 a3be 7856 d53e 05ab 8cbf 62bf 1140
000000c0: f821 47bf f08b a73e 18c9 1bbf e61f 873e
000000d0: 82ce a93e 5eee 44bf 45f8 60be 3800 ccbe
000000e0: 053c eebe 861f 29bd 60ac 29bd ff24 d03f
000000f0: e3f4 76bc ee29 aebe 495d ee3e 8434 4bbf
00000100: 75fe b8bf 311c 9d3e ef4a 41be 487c 033f
00000110: 6bbb 56bf 2e02 853e 5321 cebe 113b 08bf
00000120: 3212 efbe 6e6e 8ebc 449e 13bf 9613 52be
00000130: 8801 dc3d 5c5f 773f 8b0c 803e f1a7 6f3f
00000140: f350 12bf ea9a 833e f71a 663f 3776 bb3e
00000150: 4925 7ebf 02df 14c0 1031 19bf 507c fabf
00000160: f6b9 943e 81b4 11bf 7883 9e3e e785 be3f
00000170: 6614 b5bd a37e cfbe 487a c1be b324 553f
00000180: a956 81bf 21bd 1740 b1d9 3bbf c072 da3e
00000190: f345 e0be 4259 793e 9819 ae3e cb25 16bf
000001a0: 58ce 45be c4ad cebe bb11 a7be f4d3 0d3e
000001b0: 0eb6 7a3d 5095 bb3f 556e f8be 9c76 b4be
000001c0: 947a 3e3f 5634 8abf e0d6 aebf c8b0 a13e
000001d0: 6ed3 36bf 692e fd3e c2a2 6fbf a8e3 073e
000001e0: f77d 48bd 5581 16bf 1b03 ecbe a40a 9ebd
000001f0: 0fbb 41bf 0c8e 4bbe 8441 6c3e 1385 603f
00000200: 1d47 b83e dc44 4b3f 06f2 d6be 7d9d 0b3f
00000210: 2cd0 323f ee02 913e 3007 7cbf cc0d 1ec0
00000220: e07e 04bf 49dc dabf 1991 1b3f 22a0 2fbe
00000230: ddac a03e 4e78 b63f 00ee f03d c081 18be
00000240: d224 edbe c53f 333f 51dc 5fbf e68c 2240
00000250: ec53 14bf 9124 513d 7bcf 1cbe 3805 d93e
00000260: 1064 08be 9c46 21bf 969e 13be cb73 d3be
00000270: 30e0 a0be 83e6 2bbe 54ac c2be 3fa5 c73f
00000280: 8907 debe 9529 34be 1ba6 4c3f 9221 86bf
00000290: 895c 8bbf f3ba 213e 5001 02bf 03e7 3f3f
000002a0: a7cc 6dbf 3fc0 783e f556 dabe fe9b 25bf
000002b0: 66cd dabe 06c6 07bd 0409 4ebf 3d14 35bd
000002c0: 5ab4 933d ad0e 3e3f ac35 dd3e 1410 473f
000002d0: 6b69 02bf 35e3 e73e 6bc3 473f 6951 9e3e
000002e0: 6630 77bf 09fe 2fc0 e344 cc3d bf28 ffbf
000002f0: ff0b e63e 5967 edbe abe0 2c3e 2fe6 9f3f
00000300: 48ea 953d 1b68 c5be ec41 f4be e734 c43d
00000310: 076b 69bf ba32 2240 971b 8cbf b0e4 acbe
00000320: 4f66 743c 734f 1a3f 56c5 26be 7745 46bf
00000330: 4b4f 70bd a2c6 44be e659 75be 550e 883e
00000340: c30e 10be 97ac 0f40 d7da 4ebe e9ea bdbd
00000350: 2f07 1b3f eb93 82bf 431b 8ebf d256 ba3e
00000360: 9655 1fbf 2271 2c3f 1fff 33bf 5892 d23e
00000370: 4cda 9dbe 6ebc 57bf 784a 6abe c4d0 f8bd
00000380: 0b2b 8dbe 1612 d9bd dee2 86bd 9912 b83e
00000390: bbe0 9ebe 7429 583f 0541 b0be 2b96 973f
000003a0: 8869 483f 4d65 763e 3f8c 84bf 69fa 36c0
000003b0: 08f1 95bd 7035 03c0 4744 903e 0628 54bf
000003c0: 8503 0d3e ed72 973f f24c 0ebe 3f95 aa3d
000003d0: a87a 9dbe c777 f1bd 57bb 4fbf 4625 3240
000003e0: d182 86bf d4ec 6abe 03cd c1be aeec 653e
000003f0: 0eb3 d73e 93ba 0abf 9e98 abbd 8a4a 0bbf

output_layer.bias f4 [25]
0.6980189 1.178559 1.7153682 0.8768114 0.27390334 1.2461957 1.3480213 1.4920828
-2.7675595 1.0741714 1.4243329 2.0632615 0.49605113 -0.72333395 0.6838946 1.6269149
2.2756443 -1.8403587 0.96886533 1.0205348 1.7309841 1.3219174 -0.66358536 0.7728061
1.0473988
00000000: 5eb1 323f 05db 963f 2f91 db3f b676 603f
00000010: 0f3d 8c3e 5783 9f3f f68b ac3f 92fc be3f
00000020: b21f 31c0 737e 893f 8a50 b63f 7a0c 0440
00000030: 6afa fd3e 6a2c 39bf b713 2f3f bf3e d03f
00000040: 28a4 1140 e090 ebbf 8f07 783f e2a0 823f
00000050: e390 dd3f 9734 a93f bbe0 29bf 9fd6 453f
00000060: 2a11 863f
