models/7x7-3-100-tanh/150episodes.pth (torch, 165104 bytes, 10 tensors)

input_layer.weight f4 [100, 50]
000000 bf d3 c9 3f 1b a7 99 bf fc ca 73 bf e9 d9 08 c0
       1.5767745 -1.2004122 -0.95231605 -2.1383002
000010 05 65 c6 bf e9 22 ca bd f1 2d 99 3f e7 e8 62 be
       -1.5499579 -0.0986994 1.1967145 -0.22159158
000020 47 4e 6a 3f 7b d2 66 3f 17 cc 09 40 39 73 f5 3e
       0.9152569 0.9016492 2.1530817 0.4793947
000030 22 9e f4 be ee 87 82 be 31 0b 4f bf 7f 26 21 bd
       -0.47776896 -0.2549433 -0.8087645 -0.039343353
000040 47 3c 03 bf 34 c3 bf 3f d1 1a 97 3f 20 55 4c be
       -0.5126385 1.4981446 1.1805059 -0.19954348
000050 f0 27 33 3e c5 12 55 bf 7d cb dc be 7d 8c 33 c0
       0.17495704 -0.83231765 -0.43124 -2.8054497
000060 aa e9 a4 bf 8c 6d d6 be a0 38 d2 be 6d da fd bf
       -1.2883809 -0.41880453 -0.41058826 -1.9832283
000070 a7 fb a1 bf 2a 5c 4a be 9d de 51 bf 20 3b d6 3f
       -1.2654923 -0.1976172 -0.81980306 1.6736794
000080 a5 c7 8e 3f 53 29 be 3f 58 19 90 bf 71 33 89 be
       1.1154677 1.4856361 -1.1257734 -0.2679706
000090 4c 41 b3 3e 23 45 60 3e 93 21 a0 3e d1 83 78 3f
       0.35010755 0.21901374 0.31275615 0.97076136
0000a0 a6 5b ca 3f 5a e8 74 3e 37 e0 c1 bf 53 08 7b 3f
       1.5809219 0.2391676 -1.514655 0.98059577
0000b0 82 5a 02 3e c1 16 c8 be f6 2d f9 be 90 87 55 bf
       0.12729838 -0.3907986 -0.48667878 -0.83409977
0000c0 59 b7 2d be f4 d7 8c 3f c0 cc 71 3e b8 51 d8 3f
       -0.16964473 1.1003404 0.23613262 1.6899939
0000d0 40 68 74 3f 4e 6d 15 3e 08 db ed 3f 7a 85 df bf
       0.9547157 0.14592478 1.8582468 -1.7462609
0000e0 15 65 0e 3f 98 4b 10 bf 9d 62 cc 3f 7b 16 12 3f
       0.5562299 -0.56365347 1.5967594 0.5706555
0000f0 11 ac ef bc 16 44 9b be 04 71 75 3f 64 23 c1 bf
       -0.029256852 -0.30325383 0.95875573 -1.5088925
000100 dd b3 5d 3f ee 01 34 3f bd 9f 67 bf 23 c4 c4 bf
       0.86602575 0.70315444 -0.90478116 -1.5372356
000110 1f 48 30 3d 9b b6 14 3e 2c a9 11 bf a3 37 96 3f
       0.04303753 0.14522783 -0.5689876 1.1735729
000120 99 11 d2 bd 1a 72 c8 be 83 87 e2 3f 9b 7e a4 be
       -0.10257263 -0.39149553 1.7697605 -0.32127842
000130 70 55 e7 3e e4 08 90 bf d7 32 70 3e 91 0f 11 bf
       0.4518237 -1.1252713 0.23456894 -0.5666438
000140 1d 13 c1 bd 0e 16 32 3f c2 d9 2a 40 37 5f 2a 3f
       -0.09427474 0.695649 2.669541 0.66551536
000150 04 e9 12 3d a0 5e 03 3e 29 e2 07 40 37 4f df be
       0.035866752 0.12829065 2.1231787 -0.43615124
000160 2b c8 69 bf cb 61 8b 3f c9 50 f2 be a8 ea 49 3e
       -0.9132106 1.0889219 -0.4732726 0.1971842
000170 2a ea 12 bf d4 e2 90 3e 7e 9c fe be 5c ab a1 bf
       -0.57388556 0.28298056 -0.4972877 -1.263042
000180 58 42 ac 3f c7 28 af bf fc ba 80 3e 6f de e9 bf
       1.3457747 -1.3684319 0.25142658 -1.8271006
000190 26 98 31 be d8 11 61 c0 51 15 14 c0 f4 bb a2 3d
       -0.17343196 -3.516714 -2.313801 0.079460055
0001a0 f4 9a 8d 3f b3 2d 04 3f 1d 02 91 bc 67 39 5b 3f
       1.1062913 0.5163223 -0.017701203 0.85634464
0001b0 52 db cb 3f 33 ef 63 3f 19 8a 37 c0 49 12 53 3f
       1.5926306 0.89036864 -2.8678038 0.82449776
0001c0 a9 22 17 3f 52 7e 0b 40 30 e0 90 bf 52 bc 95 3f
       0.5903726 2.179585 -1.1318417 1.1698096
0001d0 06 ae 02 3e b4 cd 49 3f da 61 e5 be d5 44 26 bf
       0.12761697 0.78829503 -0.44801217 -0.6494878
0001e0 a2 78 a0 bf 72 d9 ad 3e 1b a3 1c 3f 57 e6 0c c0
       -1.2536814 0.3395496 0.6118638 -2.2015588
0001f0 c7 dd fa 3d e9 d0 ee be b8 12 d0 bd 06 d1 9a bf
       0.12249332 -0.4664376 -0.1015982 -1.2095039
000200 5e c5 c9 3d ae ae f6 3f c7 02 e0 3f 32 06 c3 bf
       0.09852098 1.9272058 1.7500848 -1.5236266
000210 e3 f8 8a 3f 75 6b 15 3f 4c 71 b2 3f e6 94 a6 3f
       1.0857204 0.5836709 1.3940825 1.301419
000220 03 16 a1 bf 45 b9 33 3e 4b f7 d9 3d 48 91 61 be
       -1.2584842 0.17551143 0.106428705 -0.22028077
000230 43 7e f9 3f 1d 05 5b 3f ca 0a e1 bf e1 08 c1 bd
       1.9491657 0.8555468 -1.7581418 -0.09425522
000240 ea 6e 80 3e f4 56 8c 3f a3 1e fa 3f 07 7c 16 bf
       0.2508462 1.0964036 1.95406 -0.58783
000250 87 34 e8 bf 71 cd 01 c0 69 0e b1 be 21 5d 07 40
       -1.814103 -2.0281641 -0.34581307 2.1150591
000260 77 7c 3e 40 01 f7 70 3f 01 35 25 3f 14 81 56 3f
       2.9763467 0.941269 0.64534 0.8379071
000270 54 8f 80 bf 78 fe d0 be c8 68 b7 3f 3f 28 bf be
       -1.004374 -0.40819144 1.4328852 -0.37335393
000280 e3 a2 32 bf e9 99 83 bd fb 04 19 bf 29 17 0d 40
       -0.69779795 -0.064258404 -0.59773225 2.2045386
000290 ee 2a c0 3f 53 19 f1 3f 5a ab c8 3d 13 0b 2c c0
       1.5013101 1.8835853 0.09798308 -2.688176
0002a0 7d bb 04 40 3c ad 86 3f b0 31 9d 3e 5e 6b e7 3f
       2.0739434 1.0521617 0.3070197 1.8079641
0002b0 b6 55 65 bf d3 61 92 3f 21 4e 5c be 64 9c 11 bf
       -0.8958391 1.1436104 -0.21514179 -0.5687926
0002c0 20 39 b6 3e 9c 0a bc 3e 9c 7b 4d bf 3a c9 cc be
       0.35590458 0.36726844 -0.8026674 -0.39997274
0002d0 98 5d 8e 3d 19 db 9c be b4 9f 2c c0 c1 f0 82 bf
       0.06951445 -0.30635908 -2.6972475 -1.0229722
0002e0 eb 14 04 bf f7 3e 67 3f 33 ac 3b bd 1b 35 0d bf
       -0.5159442 0.9033045 -0.04581852 -0.5515916
0002f0 de 43 82 bc cf e1 ba bf 71 d8 af be 6b bc 02 bf
       -0.015901502 -1.4600161 -0.3434482 -0.51068753
000300 6c a9 77 bf fa a1 a9 3e ae 6e 62 3f 79 b5 be bf
       -0.9674289 0.3313139 0.88450134 -1.4899131
000310 92 d5 81 3e bb 9c 0a 40 01 4e 5e be c7 fd 17 be
       0.25358254 2.165816 -0.21709444 -0.14842902
000320 b9 2c 6e 3f 7d b1 e9 bf b0 dd 6d 3f cb 2f dd bf
       0.9303699 -1.825729 0.92916393 -1.728021
000330 e2 93 4b 3f fd 2e 0a c0 ac 8e f0 be c0 fe dd 3e
       0.79522526 -2.159118 -0.4698385 0.4335842
000340 7a a8 5c bf fc ed 06 40 f6 43 ed 3e 98 d5 87 3e
       -0.86194575 2.1082754 0.46340913 0.26530147
000350 96 67 92 bf 55 e0 76 3f 49 39 6d be e6 38 08 3f
       -1.1437862 0.96436054 -0.23166384 0.5321182
000360 71 bc 4b bf ad 48 98 3f f7 2d 4c be d5 4c 42 bd
       -0.79584414 1.1897179 -0.19939409 -0.047436554
000370 b9 bd 09 c0 2e 52 a7 3d 7d 5c 98 bd 2b e7 79 3f
       -2.1522048 0.081699714 -0.07439516 0.9761836
000380 bd c2 20 3f 32 7a ee be 24 1f 59 bf 0c c2 7f bf
       0.6279715 -0.46577603 -0.8481314 -0.9990547
000390 e7 63 e3 3f 60 9f 43 bf 0e f2 8e bf af fb ce 3f
       1.7764863 -0.7641506 -1.1167619 1.6170558
0003a0 a1 8f ce bf dd e4 e6 bd 52 47 95 3e fb de 33 c0
       -1.6137582 -0.11274121 0.29155976 -2.8104846
0003b0 31 db 0a bd 53 fb a8 3f 8d 02 07 3f 5a af 17 40
       -0.033900443 1.3201698 0.5273827 2.3700776
0003c0 53 a4 63 bf 83 8c c8 bf 88 4a 76 40 63 74 89 3f
       -0.88922614 -1.5667881 3.848299 1.0738643
0003d0 62 02 f2 bf 78 00 af bf cf 1c a5 3f 8b 93 e9 3d
       -1.8906977 -1.3672018 1.2899417 0.11405095
0003e0 80 19 33 3f b5 e8 c6 bf f1 e0 24 3f 8f af 8b bf
       0.69960785 -1.5539767 0.64405733 -1.0912951
0003f0 a1 fd e4 be 00 3b cd 3f ff 28 94 bf dd 79 18 40
       -0.44724753 1.603363 -1.1575011 2.382438

input_layer.bias f4 [100]
000000 d4 95 92 3c 42 7b 3e 3f 08 ab 22 3e fb 94 73 3f
       0.01789371 0.74406826 0.15885556 0.951492
000010 19 39 9b bf 07 0e 1b bf 59 3c aa 3f 67 e3 0d bf
       -1.21268 -0.6056828 1.3299667 -0.55425113
000020 99 7b 5c 3f c9 74 e9 3e 27 fc 2a be 6d 57 6a 3f
       0.86126095 0.45596913 -0.16697751 0.9153965
000030 96 5f 52 3f 9d 69 01 3f af 34 d6 bd e0 71 42 be
       0.821771 0.5055178 -0.10459267 -0.18988752
000040 52 54 d6 3d 66 3e 97 3f 64 b4 da be 1d 30 a1 bd
       0.104653016 1.1815917 -0.42715752 -0.07870505
000050 8d a0 1f bf ca 4c 00 bf d2 c0 bb 3d 66 4b 7e bf
       -0.62354356 -0.5011717 0.09167637 -0.993338
000060 ce 8a af 3e bd fa 9c be d3 4a af bf bf 98 c1 3e
       0.34285587 -0.30660048 -1.369471 0.3781185
000070 27 52 5e bf 5f 12 8b be 70 4f 81 3f 8a 5a e9 bd
       -0.86844105 -0.27162454 1.0102367 -0.11394222
000080 58 cd 8e bf bd b5 d3 bd e3 dc 5c bf 14 ff f5 be
       -1.1156416 -0.10337398 -0.86274546 -0.48046172
000090 4a 7d c1 bf 6a cc 15 3f 73 93 d5 3e 00 19 d5 3e
       -1.511636 0.58515036 0.41714057 0.41620636
0000a0 0e 21 36 3f 4b bc aa bf ac f7 70 3e 93 23 81 bf
       0.7114419 -1.3338712 0.2353198 -1.0088981
0000b0 06 ad 1b 3f 06 a0 c6 bd b3 d3 a4 bd 91 bd 52 3f
       0.6081089 -0.09698491 -0.08048191 0.82320505
0000c0 23 41 8f be 20 ce fd be cd de a8 be fd bf a7 3f
       -0.27979383 -0.49571323 -0.32982484 1.3105465
0000d0 7d 1b bc bd 50 ea eb 3d ca 55 3c bf ed 4e 70 be
       -0.091849305 0.11519301 -0.73568404 -0.23467608
0000e0 0a 9b 3d bf 35 b7 6a 3d 6b 26 ed 3e db 3f f3 3e
       -0.74064696 0.057303626 0.46318373 0.47509655
0000f0 d3 b4 bd be 5e 43 97 bf 4b e7 4a bf 58 25 68 bf
       -0.3705202 -1.1817434 -0.79259175 -0.9068198
000100 a4 1e 08 bf 11 68 87 3e 39 ef 91 3e 4f d0 3d bd
       -0.53171754 0.26446584 0.28502825 -0.046341237
000110 d6 9b 13 3e 76 29 8a be c6 a4 1c bf 59 da 02 3f
       0.14414915 -0.26984757 -0.61188924 0.5111442
000120 48 44 8c bf ef 2a 48 3d 41 73 6c 3e fe 5d b3 bf
       -1.0958338 0.04886907 0.23090841 -1.4013059
000130 85 35 e4 3e 78 45 19 bf fe e2 90 3f 61 7a 0b 3f
       0.44572082 -0.59871626 1.1319273 0.5448361
000140 a9 1c 1e bf ac 33 b5 3e 8e de ba 3d a4 bd 8a bf
       -0.6176248 0.35390985 0.0912448 -1.0839124
000150 c5 50 a1 be 75 70 ab bf 39 e2 49 3e ca 3a 5b bf
       -0.31506935 -1.3393694 0.19715203 -0.8563658
000160 5d e1 12 bf 82 ea 17 bf ba 6e ef be 88 91 2c 3f
       -0.5737513 -0.59342206 -0.46764165 0.67409563
000170 71 1e 85 bd 6c 51 07 bf 8c fd d2 bf 60 c6 83 be
       -0.06499947 -0.52858615 -1.6483626 -0.25737286
000180 45 97 ad bf 32 83 31 be 5e a2 7d 3e 68 c5 97 be
       -1.3561789 -0.17335203 0.2476897 -0.29642797

hidden.0.weight f4 [100, 100]
000000 e4 3a d5 bf 3c 9f 8d 3e 1d 7d 59 bf 00 48 85 bf
       -1.6658597 0.2766055 -0.8495653 -1.0412598
000010 1c 49 05 40 bc 67 0b 3f b9 17 13 3f 4c 9e 58 bf
       2.0825872 0.5445516 0.5745807 -0.8461654
000020 a7 50 8e 3f 68 46 82 3f 09 69 5c 3f 02 71 34 3e
       1.1118363 1.0177736 0.8609777 0.17621234
000030 3d 52 fa 3c be 95 a6 3f 78 ed f3 3f 0a 33 bb be
       0.030556792 1.3014448 1.9056845 -0.36562377
000040 53 80 36 bf f0 74 ce be 87 01 0d bf 0c ee 6d c0
       -0.7128956 -0.4032359 -0.55080456 -3.7176542
000050 e2 7e 0d c0 b4 f5 f5 bb 53 3d 9b 3f 76 1a 54 bf
       -2.2108693 -0.0075060967 1.212809 -0.82852876
000060 1c 6d 0a c0 05 15 ad bf 54 ec 24 c0 e4 7d ab bd
       -2.1629095 -1.352204 -2.5769243 -0.08373621
000070 b9 12 89 3d 7d ff 6a 3f 99 0a f5 3e ec dd c3 3f
       0.06693024 0.91796094 0.47859648 1.53021
000080 c4 1c 47 bf c1 25 b2 bf 51 a5 9c 3f 94 2c b0 3f
       -0.7777827 -1.3917772 1.223795 1.3763604
000090 ad 32 80 bd f9 12 9d 3e de 33 8f 3e f9 42 da 3e
       -0.06259666 0.30678537 0.2796926 0.4262922
0000a0 d8 8d d8 3f 09 8e e9 bf 48 8c cd 3f d8 b3 e3 be
       1.6918287 -1.8246471 1.6058435 -0.44473147
0000b0 32 be 35 40 e3 74 30 3f e6 1f 93 3e 98 8c c1 be
       2.8397336 0.68928355 0.28735274 -0.37802577
0000c0 c0 91 b7 3e 20 d8 55 3f bc ce c4 be 0b 20 3d be
       0.35853386 0.83532906 -0.38438976 -0.18469255
0000d0 f3 86 73 3f 72 44 67 3e 00 0d 05 bd f0 14 93 3f
       0.9512779 0.22584704 -0.0324831 1.1490765
0000e0 17 e0 3e 3f 51 bf c6 bf 36 06 51 3f af 67 91 bf
       0.74560684 -1.5527135 0.816501 -1.1359767
0000f0 12 d5 02 40 59 d6 01 c0 1a ed 5b bf 71 e2 09 3e
       2.0442548 -2.0287077 -0.85908663 0.13465287
000100 2e 9f 4e bf e7 5f 1a 3f 07 1a 46 3f b9 23 16 40
       -0.8071164 0.60302585 0.77383465 2.3459303
000110 00 a8 42 bf dc c5 23 3f 70 64 28 bf 70 d1 03 3f
       -0.760376 0.63973784 -0.65778255 0.5149145
000120 b9 69 16 bf e5 6b 21 c0 07 03 ea 3f 4b 79 20 3f
       -0.5875507 -2.5222104 1.8282174 0.6268508
000130 f2 d4 2d 3f 52 10 c7 3f b1 43 4e bf e0 c4 8c 3f
       0.67903054 1.5551856 -0.8057204 1.0997581
000140 98 2d dd bf 53 cf bf 3e 37 9b 06 c0 fe 3f 45 bf
       -1.7279539 0.37462863 -2.1032236 -0.7705077
000150 6a de 14 3e fc 54 c9 bb 56 12 d6 bf d7 8a 5a 3f
       0.14537969 -0.006144164 -1.6724346 0.853681
000160 81 51 c4 bf 1c f5 e5 bf 17 60 19 40 87 a8 82 40
       -1.5337373 -1.7965426 2.3964899 4.083072
000170 ae 41 d1 bf 0e 8b 26 bf 68 e6 3b bf 8b db d4 3f
       -1.6348169 -0.6505593 -0.7339845 1.6629499
000180 11 24 bd bf 61 cc 82 bf fa ae a4 c0 a7 96 76 bf
       -1.4776632 -1.0218621 -5.1463594 -0.9632363
000190 03 b9 cb bf c5 21 1c c0 fa 7d 8d 3f ee 76 85 3f
       -1.5915836 -2.4395611 1.105407 1.042692
0001a0 de 15 98 bf a5 80 07 40 1e 19 1e be 3f 95 d4 bf
       -1.1881673 2.1172268 -0.15439269 -1.6608046
0001b0 33 c1 10 bf 89 1e d5 bc 93 3d a6 3f 35 a2 85 bf
       -0.565448 -0.026015537 1.2987541 -1.0440127
0001c0 d7 b3 3d 3f 9b e7 c2 3f d6 ed 99 bf 54 9d 2c bf
       0.7410254 1.522693 -1.2025707 -0.67427564
0001d0 94 b3 f7 be 37 8e 17 3f 5c ec 4d 3e ba 0b 20 c0
       -0.48379195 0.5920138 0.20109695 -2.5007157
0001e0 f8 53 fb bf 9e df 65 bd f1 9c 2a c0 53 0b 4a be
       -1.9635 -0.05612146 -2.665829 -0.19730882
0001f0 99 3a 83 3f 3d f0 4d 3f c2 0f 97 bf be 8a e3 bc
       1.0252258 0.804447 -1.1801684 -0.027776118
000200 0d b8 37 3f 22 51 42 bf ab 0d a5 3f 5a f2 3a 40
       0.71765214 -0.7590505 1.2894796 2.921042
000210 ed d2 bb bf ab fe 02 3d 9a 63 83 3e 68 ab 64 3e
       -1.4673744 0.03198115 0.25661927 0.22331011
000220 d0 01 dc 3c be 99 18 40 30 8f d2 3f 9b 8f 14 c0
       0.026856333 2.3843837 1.6449947 -2.321265
000230 d8 e9 e0 3f b0 27 5b 3d 2b 10 a9 3e 2e d7 14 be
       1.7571363 0.053504646 0.33020148 -0.1453521
000240 05 16 8a 3d 5f dd 84 c0 3a 04 8d bd 27 68 b1 3e
       0.06742481 -4.152023 -0.06885572 0.34649774
000250 59 81 27 40 cd 24 c6 bf aa ab ce bd 0e df 89 bf
       2.6172698 -1.5479981 -0.10091336 -1.0771196
000260 c3 68 56 bf 31 aa b3 3e ab a3 05 40 2c 99 ee 3f
       -0.83753604 0.35090783 2.0881145 1.8640494
000270 fc ab ac bf 20 f3 a1 bf cc 25 17 c0 a6 e4 12 c0
       -1.3489985 -1.2652321 -2.361682 -2.2952056
000280 bf 54 10 3f 6c 5f ca bf 08 be 2e 3f 36 a0 55 bf
       0.5637931 -1.581037 0.68258715 -0.8344759
000290 ad 7e 8b be d6 92 2e bf 21 fd 49 c0 6e 41 b0 3f
       -0.27245083 -0.68192804 -3.1560748 1.3769968
0002a0 8f 44 9b bf 7c 6b ec bf 10 1a c1 3e 33 43 ec 3f
       -1.2130297 -1.8470302 0.37715197 1.8458008
0002b0 7b d2 d6 bf e3 c1 fe 3e cd ae c3 bb 0c 48 5b 3f
       -1.6782984 0.497573 -0.0059717656 0.8565681
0002c0 b3 33 23 3f fc 46 5f be 55 a6 a9 3c 5a 6f 12 3e
       0.6375076 -0.21804422 0.020709196 0.1430029
0002d0 19 a1 a7 bf fd c8 2c c0 b6 d3 c0 bf 88 23 5a be
       -1.3096038 -2.6997674 -1.5064609 -0.21302617
0002e0 de e4 8d bf 72 87 42 be 53 e1 7d be 36 57 12 3f
       -1.108547 -0.18996981 -0.24792986 0.57164323
0002f0 da 96 32 3e 04 ad e7 bf 98 2e 0a 40 97 c5 01 3d
       0.17440358 -1.8099675 2.1590939 0.031682577
000300 d7 77 24 3e c7 a2 45 be f7 35 5b bf c3 52 29 40
       0.1606134 -0.19300376 -0.8562922 2.6456764
000310 f8 78 86 bf 51 a9 4c bf c9 8c 80 3d f2 1e c2 bf
       -1.0505667 -0.79945856 0.06276853 -1.5165694
000320 82 05 e3 be e1 b5 85 bf 07 0b ff bf 99 c9 50 be
       -0.4434014 -1.044613 -1.992524 -0.20389403
000330 db 86 ea bf 1b 43 9a bf 4f e5 1b bf 83 1f c6 be
       -1.8322405 -1.2051729 -0.6089677 -0.38695917
000340 c7 f7 49 bf 68 eb bc 3f 98 95 07 40 d8 0a 0e bf
       -0.78893703 1.475934 2.1185055 -0.55485296
000350 fd 0f 46 40 b9 99 03 3e a1 81 41 bf 52 5c 0f c0
       3.0947258 0.1285161 -0.75588423 -2.2400098
000360 a0 de ef 3f 3e c2 1e 3f f3 d5 d5 3e a0 ea 14 c0
       1.8739815 0.6201514 0.41764793 -2.3268204
000370 11 7f bd 3e 8f d5 26 3f d0 55 8a 3f 13 06 52 bf
       0.37011006 0.65169615 1.0807438 -0.8204052
000380 1e 26 f9 be 7e f5 e9 bf a5 74 c6 bf 55 31 3c 40
       -0.48661894 -1.8278043 -1.5504347 2.940511
000390 c1 4f 37 c0 c5 c8 76 3d c7 0d c4 be af 10 f6 be
       -2.8642428 0.060250062 -0.3829176 -0.48059604
0003a0 91 6c 60 3f 36 e9 81 bf a3 45 93 be bd c8 d4 3e
       0.8766566 -1.0149295 -0.28764066 0.415594
0003b0 0f 97 50 c0 a2 c8 e5 3f 34 f0 bf bf 27 2c 64 3f
       -3.25922 1.7951853 -1.4995179 0.8912987
0003c0 c4 ba 29 40 8c 65 82 bf d4 89 be be bc 2e ae bf
       2.6520243 -1.018724 -0.3721453 -1.3608012
0003d0 88 f6 be bf 90 ac ef bf a7 97 9b bd e0 8a 05 40
       -1.4918985 -1.8724537 -0.07597285 2.0866013
0003e0 49 8e c6 bf 8f bc 86 3e 53 4d 37 c0 9f 65 74 3f
       -1.5512172 0.26315734 -2.8640945 0.9546756
0003f0 bf ae 08 bf 02 05 53 bf 20 06 b2 3f 7b 87 29 bf
       -0.5339164 -0.82429516 1.3908119 -0.6622235

hidden.0.bias f4 [100]
000000 9f 71 14 3f d7 df 4e bf 49 f1 58 3f 6d 19 b6 3f
       0.5798587 -0.808103 0.8474317 1.4226509
000010 ce 0f bd 3e 39 9e 42 bf 8f d9 4b 40 7d 06 05 40
       0.3692612 -0.7602268 3.1851537 2.078521
000020 1d 0f 5d bf fe 84 10 bf cf cc 52 bf 63 37 4c bd
       -0.86351186 -0.5645293 -0.82343763 -0.04985751
000030 b3 0a db 3f 29 36 d0 bf 4b bd d5 be 7e 27 6a 40
       1.711264 -1.6266528 -0.41745982 3.6586604
000040 85 4b 76 bf a7 1c 68 bf 28 3b b8 bf cd d3 68 40
       -0.96208984 -0.9066872 -1.4393053 3.6379273
000050 5e 0a d5 3f fc 83 1b bf 1d d0 dd 3e a9 69 8d be
       1.6643789 -0.6074827 0.4332284 -0.27619675
000060 25 9f 30 be d7 77 82 bf 39 04 5f bf 60 12 40 3f
       -0.17248209 -1.0192822 -0.8711582 0.7502804
000070 fb 51 73 3e cd 9b 33 40 70 63 37 bf 64 56 c0 3f
       0.23761742 2.8063843 -0.71636105 1.5026364
000080 e5 82 b0 bf 83 75 c9 3f 94 3e 82 bf 87 a3 dc bf
       -1.3789946 1.5738987 -1.0175347 -1.7237405
000090 a6 71 e6 bf 65 60 4e 3e ed 39 86 c0 96 55 5b c0
       -1.8003433 0.20153959 -4.194571 -3.4270988
0000a0 47 98 3d c0 a4 16 51 c0 2d 8d d8 bf d8 10 00 40
       -2.9624193 -3.2670069 -1.6918083 2.001028
0000b0 59 f0 b7 bf 92 d9 e4 be a9 09 c6 bf 37 bb 1a 3e
       -1.4370223 -0.44697243 -1.5471698 0.1511048
0000c0 d0 e1 39 3f 71 b6 a1 c0 cf 20 94 bf 8d 51 74 bf
       0.7261019 -5.0535207 -1.1572512 -0.95436937
0000d0 a1 e1 1c c0 3e b9 98 3f 44 cf 8d bf b5 13 41 bf
       -2.4512713 1.1931531 -1.1078877 -0.75420696
0000e0 d0 ba 03 3f 73 f1 0f 40 88 ec 2b 40 ef 5c 16 c0
       0.5145693 2.249112 2.6863117 -2.3494222
0000f0 07 0e 4f 3f d0 80 8f bf 3c 87 1a 3f fd ad ee bf
       0.8088078 -1.1211185 0.603626 -1.8646847
000100 f2 ce ae bf 9d 7f 86 c0 a5 8e 37 3f 48 3b 9e 3f
       -1.3656905 -4.203078 0.71702033 1.2361841
000110 18 5a 46 40 9d 16 b0 3f 5a 4f 00 3f aa 1e bc 3f
       3.099249 1.3756901 0.5012108 1.4696858
000120 03 94 23 bf b1 1a e3 3f 50 63 dd bf 9b c8 31 bf
       -0.6389772 1.774252 -1.7295933 -0.69446725
000130 16 9c 11 c0 78 57 5d 3f 26 4c 0b 3f cf d7 2a bf
       -2.2751517 0.8646159 0.5441307 -0.6673555
000140 2a 3c 79 3f a7 e9 04 c0 77 ad b4 3f 80 10 cd 3f
       0.9735743 -2.076761 1.4115437 1.602066
000150 46 76 b2 bf 2f 1c 2a bf 8c a5 53 bf e3 bf 5a 40
       -1.3942344 -0.66449255 -0.8267448 3.4179618
000160 cd c9 91 3f 36 b1 35 40 9b 71 7f c0 99 c5 ff 3f
       1.138971 2.838941 -3.991309 1.9982177
000170 82 9b a4 3f d3 d8 42 c0 74 9f a0 3f 9e ae 43 c0
       1.2859957 -3.044484 1.2548661 -3.0575328
000180 03 9d 48 3f 93 06 95 be 7a 01 23 3f ec 5a 1d 3c
       0.7836458 -0.29106578 0.6367413 0.009604197

hidden.1.weight f4 [100, 100]
000000 2c c1 8c 40 94 47 c9 bf 26 a1 91 3f a0 a1 d5 bf
       4.3985806 -1.5724969 1.1377304 -1.6689949
000010 b8 8c 28 3e 45 f3 f9 be d4 8d e1 3f d6 46 e0 3f
       0.1645993 -0.48818412 1.7621408 1.7521617
000020 e9 3e fe 3f 70 8d fe be ca 57 11 be 65 c7 8a 3e
       1.9862949 -0.49717283 -0.14193645 0.2710525
000030 7b e2 00 c0 c2 c7 03 c0 96 91 19 40 bc 76 18 bf
       -2.0138233 -2.0590672 2.3995109 -0.59556174
000040 bb d6 16 3f 6c 9e 40 40 69 06 50 3f 05 7c d7 bf
       0.589214 3.0096693 0.8125978 -1.6834723
000050 65 37 6b 3f 8a 75 e2 3f 83 53 19 40 aa 13 7e 3e
       0.918814 1.769212 2.3957222 0.24812189
000060 4f 46 2b c0 dd 90 9e bf 71 8d ca 3f ad a6 51 bf
       -2.6761663 -1.2387959 1.5824414 -0.8189495
000070 c8 d0 9f 3f d4 a9 aa 3e 90 6a 3f 3e 36 71 55 be
       1.248559 0.33332694 0.18692994 -0.20843968
000080 97 4b c0 3f 2e 72 a9 bf bd 8a 84 3f 98 7c 94 bf
       1.5023068 -1.323797 1.035484 -1.1600523
000090 3a 1a 33 3e c2 d3 42 bf 36 6a 61 3f 5e 59 28 3f
       0.17490473 -0.76104367 0.8805269 0.65761364
0000a0 ea b2 6e 3e 8c 2f 43 3f e8 9e 4d 3f 22 68 5f bf
       0.23310438 0.76244426 0.80320597 -0.8726827
0000b0 e7 40 04 3e 36 a8 d1 3f c8 3e 6e c0 a5 a7 11 3e
       0.12915383 1.6379459 -3.7225819 0.14224108
0000c0 ff 52 67 be 6f e0 01 3f 5e 07 f3 be 7b 57 16 c0
       -0.22590254 0.50733083 -0.47466558 -2.3490894
0000d0 c5 3a 5b 3f 4f df d9 bf 29 f5 48 c0 2d de 5f 3e
       0.8563655 -1.7021273 -3.1399634 0.21862097
0000e0 52 d6 45 bf 1b 29 8a be e5 d9 a9 be c1 cd 9a be
       -0.7728015 -0.26984486 -0.33174053 -0.30235103
0000f0 0f 5a 0b 40 93 09 db 3e ac 8f 16 c0 a6 f5 c2 be
       2.1773717 0.42780742 -2.352519 -0.3807804
000100 dd f0 32 c0 53 75 8c bf 66 b5 94 3f d8 2d ec 3f
       -2.7959511 -1.0973305 1.1617858 1.845149
000110 68 dd 75 3f 82 1f b0 bf 5b 5c 2c 3f b2 25 27 3f
       0.96040964 -1.3759615 0.67328423 0.65291893
000120 ce f6 6a bf c2 57 81 bd 08 4b 28 3f 31 8e 4a c0
       -0.91782844 -0.063155666 0.6573949 -3.1649287
000130 52 99 e4 bf 05 45 a8 bf d1 d5 5f be 72 ac 07 bf
       -1.785929 -1.3146063 -0.21858908 -0.52997506
000140 ce 24 30 be 7f 09 87 3f e5 ad 28 3f 6b bf b0 bf
       -0.1720154 1.0549773 0.6589034 -1.3808416
000150 50 16 a4 3e d1 40 e8 3f fe a9 2f c0 0e b0 c4 be
       0.32048273 1.814478 -2.7447505 -0.3841557
000160 00 6b f0 3e 7d 4c 07 40 4f 4d 02 be ec f7 9b 3e
       0.46956635 2.1140435 -0.12724803 0.30462587
000170 14 e3 6b 3e df f3 32 3e c5 39 a0 bf 36 13 a2 bf
       0.23035842 0.17475842 -1.251763 -1.2662113
000180 3a be 4e 3f 77 45 13 bd e8 f5 ae 3e d9 6b 32 bd
       0.8075901 -0.03595492 0.34171987 -0.043559883
000190 2c 94 e2 bf dd 8c 1b 3e b4 53 03 40 04 d0 2c 3f
       -1.7701468 0.15190454 2.0519838 0.67504907
0001a0 12 67 21 3f d5 49 d7 3e d8 b9 01 3f 23 57 13 c0
       0.630479 0.42048517 0.506742 -2.3021934
0001b0 f5 95 e5 3e 05 ac d8 be 97 d6 7c bf c9 86 9e bf
       0.4484097 -0.4231874 -0.9876494 -1.2384883
0001c0 d5 51 19 3f d4 21 d5 be 80 c1 27 bf 88 be 8c c0
       0.5989049 -0.4162737 -0.6552963 -4.398258
0001d0 1d b6 4e be 49 59 25 bf d9 bd d5 bf 78 88 12 3f
       -0.20186658 -0.64589363 -1.6698562 0.57239485
0001e0 0f 56 1d 40 33 13 13 bf 25 86 10 c0 e3 db f2 bd
       2.4583776 -0.5745117 -2.2581875 -0.11858346
0001f0 4e 21 f0 3f b1 d1 35 c0 5b 3c 3a bf 21 80 72 bf
       1.8760164 -2.8409235 -0.72748345 -0.9472676
000200 f6 8a 09 bf c2 26 ab 3f ba ff 09 40 79 bb 20 bf
       -0.5372766 1.3371203 2.1562333 -0.6278606
000210 f4 8e 30 bf 38 95 18 c0 1f 24 1a bf b3 c7 6c bf
       -0.6896813 -2.3841076 -0.60211366 -0.92492217
000220 07 31 34 40 66 0e 3d 40 f9 fe c6 bf 1e e4 a5 be
       2.8154924 2.9540038 -1.5546561 -0.32400602
000230 d6 1f 15 c0 23 50 c0 bf 72 dc 90 3f c7 95 23 c0
       -2.330068 -1.5024456 1.1317275 -2.5560167
000240 5a 09 69 c0 82 6e f6 3e e8 04 24 be 4a 40 0b 3f
       -3.6411958 0.48131186 -0.16017497 0.5439497
000250 76 26 0e 40 7a 4f 23 c0 27 d7 35 3f 18 59 14 40
       2.2210975 -2.5517259 0.7103142 2.3179379
000260 a3 5f 5f 3d ec 1d 86 3e d2 40 09 c0 a8 27 96 bf
       0.054534566 0.26194704 -2.1445813 -1.1730852
000270 be 56 bc bf 69 ae 08 3f 00 10 25 bf 4f 1d 4c bf
       -1.4713972 0.5339113 -0.6447754 -0.7973222
000280 1f 04 a9 3f a5 ae 08 bf a3 9b 2e bf 9b a7 c4 3f
       1.3204383 -0.53391486 -0.6820623 1.5363649
000290 45 e9 94 bf a7 82 e0 bf ff a1 b5 3e 7b a7 58 bf
       -1.1633688 -1.7539872 0.35475156 -0.84630555
0002a0 60 46 a2 3e 79 fa 67 3f 49 69 30 3f e4 ca fe be
       0.31694317 0.90616566 0.6891065 -0.49764168
0002b0 c3 c8 87 3f ca fd bb 3f 54 6d 56 bf ae 7c 2c 40
       1.0608143 1.4686825 -0.8376057 2.6951098
0002c0 28 50 df 3e f6 5a 35 3f f0 14 aa bf a2 36 1f bf
       0.43615842 0.7084192 -1.328764 -0.6219274
0002d0 33 b1 5d bf 3b 6b 0f 3f 7a b1 30 c0 b0 3b 56 bf
       -0.8659851 0.56022996 -2.7608323 -0.83684826
0002e0 da c6 93 bf 67 c6 2f bf e8 c2 5c c0 a3 05 43 bf
       -1.154506 -0.6866211 -3.4493961 -0.76180476
0002f0 60 87 c1 3d aa 24 07 bf 49 10 12 be d5 7f 03 40
       0.09449649 -0.5279032 -0.14264025 2.0546772
000300 df dc a8 3f 09 2e 61 be 91 14 0c 40 3e 45 ab bf
       1.3192405 -0.21990217 2.1887553 -1.3380506
000310 9b 31 c7 3e 24 48 00 bf fc 52 03 c0 0f 16 5d 3d
       0.38905033 -0.5011008 -2.05194 0.053976115
000320 ca 8d 05 3f 0d 8c 35 40 1f 8d 52 3d 8d 2c 22 40
       0.5216948 2.836673 0.051404115 2.5339692
000330 ed 66 a7 3d b3 19 c5 3e 79 1f 92 3f aa b6 40 bf
       0.081739284 0.3849617 1.1415855 -0.75278723
000340 aa f2 30 bf 27 df 11 3f b6 8d 3d 40 40 ca 91 be
       -0.69120276 0.5698113 2.9617743 -0.28474617
000350 2c 1a 99 c0 b8 37 0d 40 2c 06 97 3e 6e ab cb be
       -4.784445 2.2065258 0.29496896 -0.39779228
000360 42 e3 2a 40 9c b2 6f bf 18 fd 6b bf a5 fe fc 3e
       2.6701207 -0.9363191 -0.92183065 0.49413028
000370 fb 01 5f 3d ec cd b6 bf 83 7d 2f 3f 1f 5e 73 3e
       0.054445248 -1.4281592 0.6855089 0.23766373
000380 aa 20 81 3f f0 94 db be ce f8 bf be 4f f6 cf be
       1.0088093 -0.42887068 -0.3749451 -0.40617606
000390 2a b6 eb 3f fd 80 57 3d 29 ae 43 3e c8 a7 95 3f
       1.8414967 0.052613247 0.19109406 1.1691828
0003a0 60 f5 d5 be 50 c0 62 3d b9 85 a0 bd 35 19 d5 3f
       -0.4178877 0.055359185 -0.078380056 1.6648318
0003b0 13 f5 c4 be 9e e2 90 bf 62 cf c2 bf c1 f1 4a 40
       -0.38468227 -1.1319158 -1.5219538 3.1710055
0003c0 76 44 1a be c3 5d 21 bf f0 4b 06 c0 9b fa bc be
       -0.15065178 -0.63033694 -2.0983849 -0.36909947
0003d0 c1 1b e3 3e 00 0f 9d bf b0 89 2c c0 a6 15 33 3e
       0.44357112 -1.2270203 -2.6959038 0.17488727
0003e0 57 13 f7 bf 27 c4 69 bf 52 8f 36 c0 18 0f 0d c0
       -1.9302777 -0.9131493 -2.8524976 -2.2040462
0003f0 e6 63 8b 3f 70 8e 37 3e 03 94 a4 be 58 9e 86 3f
       1.0889862 0.1792543 -0.32144174 1.0517073

hidden.1.bias f4 [100]
000000 91 a7 0d 40 fa ad c8 be 94 27 7e 40 b5 ee f4 3f
       2.2133524 -0.39195234 3.9711657 1.9135348
000010 7e 78 30 3f ee 43 c2 3f 3d 82 e6 3f 93 57 d4 bf
       0.68933856 1.517698 1.8008496 -1.6589226
000020 00 81 d9 3e 55 86 40 3f 32 8b f6 3f b8 1f 25 bf
       0.42481232 0.75204974 1.9261229 -0.64501524
000030 d8 4b 96 bf b9 b7 5e 40 c9 34 4a 3f a2 20 bd bf
       -1.1741896 3.4799635 0.78986794 -1.4775584
000040 d8 46 a3 3f 5e d9 2f 3f ce 1b b1 3f 39 d8 89 3f
       1.2755995 0.6869105 1.383661 1.0769111
000050 9d e3 1f 3f c7 e9 ea be dd f3 2a 3f 41 07 78 be
       0.62456685 -0.45881483 0.66778356 -0.24221517
000060 a4 02 d7 3f 59 3f 85 be 52 f8 79 3f f5 ad e9 3f
       1.6797681 -0.26024893 0.9764453 1.8256212
000070 70 7a 75 c0 9f 6b 8d 3f 78 c3 17 bf 47 c5 88 bf
       -3.835598 1.1048468 -0.59282637 -1.0685204
000080 6f ea 30 bf 5c 71 76 c0 db 76 41 3f 75 67 8f bf
       -0.6910772 -3.850669 0.75571984 -1.1203448
000090 d3 f6 a0 bf 5c 13 ab be f1 bb bc 3f 3e 4d 1d 3e
       -1.2575325 -0.33413208 1.4744855 0.15361497
0000a0 14 e6 34 40 35 cb 98 bf 84 ca a9 3f 1c 3d bf bf
       2.8265429 -1.1937014 1.3264928 -1.4940524
0000b0 2f 77 39 3f e1 f7 df be fc 5b f6 3f 07 18 04 c0
       0.72447485 -0.43743804 1.9246821 -2.0639665
0000c0 41 fe 0f 40 df 5a 16 40 db c1 87 3f 41 74 9d 3f
       2.2498934 2.3492963 1.0606035 1.2301103
0000d0 32 ae b8 3f 40 52 a1 be cc 7f ef 3f f8 dd b9 bf
       1.442816 -0.31508064 1.8710876 -1.4520864
0000e0 c2 4f 24 3f 3c 75 69 c0 4c a4 49 3e 78 82 24 bf
       0.641842 -3.6477804 0.1969158 -0.6426158
0000f0 d6 f5 8d c0 95 a7 b9 bf 04 5e f6 bf d5 83 d4 bf
       -4.4362593 -1.4504267 -1.9247441 -1.6602732
000100 28 b3 ed 3d 7a 7f be bf 23 16 93 40 9b 1b 90 bf
       0.11606437 -1.4882653 4.596452 -1.1258425
000110 2e 9a 9e 3f 12 c0 de bf b3 aa b5 3f 6a a4 4b c0
       1.2390802 -1.7402365 1.4192718 -3.18191
000120 0c d1 12 c0 fd 45 0c bf 1d d0 c1 3e 4d d7 70 3f
       -2.2940092 -0.54794294 0.3785409 0.9407852
000130 9f 69 07 bf 70 fc 87 3f 74 7f d9 bf 4d d0 ec 3f
       -0.5289554 1.0623913 -1.6992021 1.8501068
000140 f4 92 89 3f 19 fd 87 be 21 8e 61 3f 24 40 78 bf
       1.0747972 -0.26560286 0.88107497 -0.9697287
000150 73 9d 17 bf 37 f4 c0 bd c3 5e 0b bf e9 db 4b c0
       -0.59224623 -0.0942158 -0.5444147 -3.1852973
000160 b6 b0 39 3d d5 b4 8a 3f 17 3f 20 3d b0 15 03 c0
       0.04533454 1.0836436 0.039122667 -2.0481987
000170 f9 36 bd bf 63 fa 7b c0 6d 56 9d 40 43 cf 2f bf
       -1.4782401 -3.9371574 4.9168 -0.6867563
000180 2d 42 c0 bd d5 02 5a 3e a9 d2 86 bf 07 dd 47 40
       -0.09387622 0.21290143 -1.0533038 3.1228654

hidden.2.weight f4 [100, 100]
000000 25 0e 46 3d f3 0c 96 3f 00 d4 8b bd 85 26 22 bf
       0.048353333 1.1722702 -0.06827545 -0.63340026
000010 b7 cd 9d bf e7 34 a7 bd 0f d0 b1 be b4 9d 91 3f
       -1.2328404 -0.08164387 -0.3472905 1.1376252
000020 0f ba 1e 3f 40 91 bc 3f 3b cb ae be b8 00 42 3f
       0.6200265 1.4731827 -0.34139428 0.75782347
000030 1e fb e5 3e 65 55 00 40 61 ef cb bf 5c e2 c9 bd
       0.4491815 2.005212 -1.5932428 -0.09857628
000040 e0 f3 8e be cb 9e 19 3e 93 3b bb be c5 73 0e bf
       -0.27920437 0.15001981 -0.3656889 -0.556454
000050 f2 dd a3 bf 7a f9 a6 bf 8b 78 37 3e 41 a0 8f 3f
       -1.2802107 -1.3044884 0.17917077 1.1220781
000060 30 e8 bf bf ba 5f 0c 40 20 bf 8b 3f e2 d0 84 bf
       -1.4992733 2.1933427 1.0917702 -1.0376246
000070 51 5a c7 3f 58 d5 3e bf d4 3c 56 bf eb a1 ec 3e
       1.5574437 -0.74544287 -0.83686566 0.46217284
000080 92 e6 5e 3f 1b d3 2d 3f ce 56 65 3f 74 e3 41 3f
       0.8707057 0.67900246 0.8958558 0.7573769
000090 ce 64 d1 3f d9 26 29 3f 77 e7 a5 3d 66 db 14 bf
       1.6358888 0.660749 0.08100789 -0.58147275
0000a0 d6 45 0c c0 fb e3 16 3f a2 7f ce 3f 75 75 e4 bf
       -2.1917624 0.5894162 1.61327 -1.7848345
0000b0 b6 01 7b 3f 17 8e 18 3f b3 b5 ce 3f b6 9c aa bf
       0.98049486 0.5959181 1.61492 -1.3329074
0000c0 61 35 d8 bf e5 7d 97 3f 7f 8b 16 40 16 59 11 c0
       -1.689129 1.1835295 2.3522642 -2.2710624
0000d0 30 1d 0b c0 f2 ae 62 be bb 88 7f 3f 34 58 d9 bf
       -2.1736565 -0.22137049 0.9981801 -1.6980042
0000e0 b6 30 b1 be 19 30 9a bd 2a 90 12 c0 d1 35 12 3f
       -0.34607476 -0.07528705 -2.290049 0.5711337
0000f0 da 21 7f bf 1e 4e 69 3f 76 1d 2e 3e 95 c6 23 bf
       -0.9966103 0.9113482 0.17003426 -0.6397489
000100 0c cf 91 3d 20 f9 1a bf 29 47 2c 3e 99 97 6e 3e
       0.07119569 -0.60536385 0.1682402 0.23300017
000110 70 cc 99 bd 63 0f 63 3d d6 be cf bf c7 b8 9c 3e
       -0.075096965 0.055434596 -1.6230114 0.30609724
000120 e8 6c 33 bf b4 44 84 3e 9f 82 cd bf a3 e8 b7 3d
       -0.7008805 0.25833666 -1.6055487 0.08979919
000130 b2 06 62 bf ab 9a b2 3f 72 f5 77 be 25 c1 91 bf
       -0.88291466 1.3953451 -0.24214724 -1.1387068
000140 4d 35 2a 3e e4 42 d7 3f ec e9 24 3e a5 70 6b be
       0.16621895 1.6817288 0.16104859 -0.22992189
000150 bc c2 ae bf 1a 74 bf 3f 0e 96 4d 3f 82 4c 7f 3f
       -1.3653178 1.4957306 0.8030709 0.99726117
000160 4b 32 41 40 26 c1 24 3f 17 53 98 3f ca c2 ca 3f
       3.0186946 0.6435722 1.1900357 1.5840695
000170 f6 cf e5 be 42 63 23 3e 9f 4f 63 3f c3 7f 86 3e
       -0.44885224 0.15955833 0.8879337 0.2626935
000180 a1 02 c3 3b 77 f8 c5 3d 73 5b b7 be 7e 29 69 bf
       0.005951241 0.096665315 -0.35811958 -0.9107894
000190 21 de e1 3f fd c0 1a 3f a1 c5 18 3f 8c e6 9c 3e
       1.7645913 0.60450727 0.5967656 0.30644643
0001a0 36 e2 b5 bf 63 26 18 3f 16 43 b2 3f 92 15 c8 bd
       -1.4209659 0.59433573 1.3926723 -0.09769739
0001b0 6c c0 17 3f 4f 54 d6 3e 78 76 a9 bf 7b 9f 89 3f
       0.5927799 0.41861197 -1.3239279 1.0751795
0001c0 26 5d e7 3e a7 42 51 be b6 a8 09 3e 2d 5f 56 3e
       0.45188254 -0.20435582 0.13443264 0.20934744
0001d0 60 8e 17 be 72 44 9c 3f d1 b5 06 be 96 ed e3 be
       -0.14800406 1.2208388 -0.13155295 -0.445172
0001e0 78 bc a2 bf a5 09 98 bf b9 f7 e2 be ae d2 bf 3e
       -1.2713766 -1.1877943 -0.44329622 0.37465423
0001f0 1b 8d bf 3f fb e4 8e 3f ed 46 e2 bf c1 ff 14 be
       1.4964937 1.1163629 -1.7677895 -0.14550687
000200 dd 84 96 bf 54 d3 44 bf 7d f4 8a 3f 66 f0 af bf
       -1.1759297 -0.7688496 1.0855862 -1.3745239
000210 f6 09 10 3f f7 2e 23 3f e7 51 92 3e 04 99 88 3e
       0.562652 0.6374354 0.28578112 0.26679242
000220 74 4f d8 3f 2b d3 66 be 25 e9 0b bf 8d 6b c5 bf
       1.6899247 -0.22541492 -0.54652625 -1.5423447
000230 7a ce 84 be 05 ef 49 be f2 df df 3f 88 52 d7 3f
       -0.2593878 -0.19720085 1.7490218 1.6822062
000240 58 3d 4d 3f bd 86 1c 3e 79 d7 23 40 aa 88 1a be
       0.8017173 0.15285774 2.5600264 -0.15091196
000250 c8 a5 63 3e 2a 15 23 3f e3 b0 bc 3f f5 83 2d 3f
       0.2223121 0.6370417 1.4741482 0.67779475
000260 48 79 2c 3e 20 d0 bd bf 30 d8 b2 c0 47 d0 bd 3e
       0.1684314 -1.482914 -5.58889 0.37072966
000270 51 af 46 be ab 98 5f 3f c6 4d 38 3f f3 7a 76 bf
       -0.19402815 0.8734233 0.7199367 -0.96281356
000280 2a ae 59 bf 67 d4 6f bc a4 40 b0 3f 0c 35 57 bf
       -0.8503138 -0.014638043 1.3769727 -0.8406532
000290 75 84 a5 3f a9 7e 57 be c7 b9 98 3f f0 21 9e bf
       1.2931048 -0.21044411 1.1931695 -1.2354107
0002a0 8c ec 83 3f 42 1f 5c bf 63 83 fd bf 7a 95 ac be
       1.0306563 -0.85985196 -1.9805721 -0.33707792
0002b0 92 4e 5e 3e ed 9a 52 3e da 7c 6e 3f 36 d1 b8 3e
       0.2170966 0.20566912 0.9315926 0.36097115
0002c0 a9 2a 80 40 8b 6e 5a c0 04 56 df 3e 53 e4 27 3f
       4.0052075 -3.412997 0.43620312 0.6558277
0002d0 bf 2c 16 3f 09 16 b1 3e d3 3b c1 be ef ed f9 3f
       0.5866203 0.34587124 -0.37740955 1.9525737
0002e0 42 68 99 bf 0a 68 47 bf 3c 66 40 3f 62 e8 49 bf
       -1.1984942 -0.77893126 0.75156 -0.78870213
0002f0 4c 48 2f 3e 36 7a 7b bc 6a 05 a5 3f 5d 37 19 3e
       0.17117423 -0.015348962 1.2892277 0.14962526
000300 32 c8 af 3e 39 e4 6f be 78 9c e7 bf fa 37 b5 3f
       0.34332424 -0.23426904 -1.8094625 1.4157708
000310 0c e8 8c bf 03 49 0c bf a2 f0 98 be 27 c3 d0 be
       -1.1008315 -0.5479891 -0.29871088 -0.4077389
000320 1c 28 f6 bf 65 72 9a 3f 5f b6 d0 3d ed 4c b5 3f
       -1.923099 1.206616 0.101910345 1.4164101
000330 b6 f9 f3 3d 94 33 ed bf 67 8d 38 40 61 61 bd 3e
       0.11912863 -1.8531365 2.8836305 0.36988357
000340 4f 23 0e 40 d1 bf d7 bf 77 fd f5 be 3d d6 ec bf
       2.220905 -1.6855413 -0.4804494 -1.850288
000350 13 40 57 c0 32 44 8f bf d9 55 2d 3f df 0a 03 40
       -3.3632858 -1.1192687 0.6770912 2.0475385
000360 20 55 14 be 28 79 13 bf 54 79 93 bf b6 90 63 3c
       -0.14485598 -0.57606745 -1.1521401 0.013889482
000370 d6 4d fe 3d e6 30 bd 3e 4e 94 10 bf a2 7e e5 3f
       0.1241719 0.3695137 -0.56476295 1.792927
000380 46 7d 16 40 c1 9e e1 3f d9 df 74 bf 47 1c b3 be
       2.351396 1.7626573 -0.95654064 -0.3498251
000390 d6 e1 ca 3e d6 41 74 bf ff b7 29 3f ca 79 bd 3c
       0.39625424 -0.9541296 0.6629638 0.023129363
0003a0 88 99 0a bf ae 95 fb 3e 2e 8e b5 bf 41 b2 31 be
       -0.5414052 0.49137634 -1.4184015 -0.17353155
0003b0 07 06 f8 3f 2f 9c 2f bf 1e fd ea be d0 99 de bf
       1.9376839 -0.6859769 -0.45896238 -1.739069
0003c0 4d 31 0c 40 e9 14 4a bf c6 42 fe be b3 10 71 3f
       2.190509 -0.78938156 -0.4966032 0.94166106
0003d0 4d 91 b7 3e ca e7 d5 bf 30 ee 92 bf 5e a4 b4 3e
       0.35853043 -1.6711361 -1.1478939 0.35281652
0003e0 bf 7e e2 3d 33 70 a0 bf 6c 7a 43 c0 76 8d 6d bf
       0.11059331 -1.253424 -3.054347 -0.9279398
0003f0 77 fb 8c 3f bf af 10 c0 18 7f c8 be 37 da 0a 40
       1.1014241 -2.2607267 -0.39159465 2.1695688

hidden.2.bias f4 [100]
000000 88 ac 7d c0 ad 46 19 bf ae ad 89 3f 5d 8a 23 bf
       -3.9636555 -0.5987347 1.0756128 -0.63883
000010 7f 89 9a 3f 23 2d c8 3f 50 35 b7 3f 03 21 aa bf
       1.207321 1.5638775 1.4313145 -1.3291324
000020 9b 82 99 3f 86 41 0f 3c d1 97 b2 bf 4c db bd bf
       1.1992983 0.008743649 -1.3952581 -1.4832549
000030 04 e7 7b 3f 27 a3 93 be a9 0e 9c bd b7 b3 a4 be
       0.98399377 -0.28835413 -0.07619984 -0.32168362
000040 6b bb 12 bf d5 5e f1 bf 49 8a b7 3e b5 1f b7 be
       -0.5731723 -1.8857065 0.3584769 -0.35766378
000050 43 e3 34 bf 13 27 05 bf 48 1f 34 be 4b ee 31 40
       -0.70659274 -0.5201275 -0.17590058 2.7801692
000060 67 71 71 be 92 82 0a be e6 93 d4 bf af a1 cb 3f
       -0.23578416 -0.13526371 -1.6607635 1.5908717
000070 46 39 b4 bf 02 21 3a 3f 93 16 6b c0 50 97 69 3f
       -1.4079978 0.72706616 -3.6732528 0.9124651
000080 29 90 a3 3f 0e cf 1c 3b ab f7 05 bf 93 43 9c bf
       1.2778369 0.0023927125 -0.52331036 -1.2208122
000090 24 3f 4e c0 f7 9b 3b c0 ad ab 35 bf 08 69 bf be
       -3.2226038 -2.9313943 -0.7096508 -0.3738482
0000a0 83 89 ef bf 89 4f 9e be f4 53 50 3e 18 56 5f 3f
       -1.871384 -0.30920056 0.20344526 0.87240744
0000b0 4e 42 22 c0 ab 37 b7 be 36 f8 35 3d 58 a8 f4 bf
       -2.535297 -0.3578466 0.044426166 -1.9113874
0000c0 c9 cb 93 3f 33 f2 6c be d8 9b 93 bf 78 00 e8 3f
       1.1546565 -0.23139267 -1.1531935 1.8125143
0000d0 ec ad 1d bf 34 7e 61 40 71 68 54 c0 bf 81 0b 3f
       -0.6159351 3.5233278 -3.3188746 0.5449485
0000e0 39 13 fe 3e c9 be ba bf 28 fd d3 3f b6 03 86 3e
       0.4962404 -1.4589473 1.6561632 0.26174706
0000f0 e5 70 31 40 49 6e bf be 0b a2 5b c0 0e 72 b9 bf
       2.7725155 -0.37388828 -3.4317653 -1.4487932
000100 51 22 91 bf 46 5e 2b 40 9a c4 58 40 1d 27 cd bf
       -1.1338598 2.677629 3.3869996 -1.6027561
000110 a8 b6 84 3f d2 60 c3 bd 8d 10 03 3f 34 f2 a2 bf
       1.0368242 -0.095399514 0.5119713 -1.2730165
000120 8a c5 42 40 8f 13 c0 3f fd 97 93 3e 06 57 f9 bd
       3.0433068 1.5005969 0.28826895 -0.121748015
000130 3b 9a a5 bf 25 f8 98 be ab ab 29 c0 38 76 46 bf
       -1.2937692 -0.2987682 -2.6511028 -0.7752414
000140 be 8a a5 3f 2c b4 15 3d be 3e 3b bf be ce 5d bd
       1.2932966 0.03654878 -0.7314261 -0.054152243
000150 85 45 40 bf 5d 20 16 c0 65 76 df 3f 47 c3 cb 3e
       -0.7510608 -2.3457253 1.7458006 0.39797422
000160 03 0d cf 3f c8 10 1c c0 3f 3f e4 bf d5 a3 c0 bf
       1.6175846 -2.4385242 -1.7831801 -1.5049998
000170 66 be 1f 40 07 5c 2c 40 07 78 fa 3f 39 1b d5 be
       2.495996 2.693117 1.956788 -0.41622332
000180 28 b5 72 3f 02 cf 54 bf 4e 23 76 3f 18 6d b5 3f
       0.9480767 -0.8312837 0.9614762 1.4173918

output_layer.weight f4 [49, 100]
000000 74 ca c2 be f1 e7 cd bd dc 19 14 3e ce 09 13 3f
       -0.38045084 -0.10054005 0.1446299 0.57436836
000010 b0 ae 66 be 42 80 a9 3d 45 f1 8e 3e de 9a a2 be
       -0.22527575 0.08276416 0.2791845 -0.3175878
000020 8c 52 f7 bd ed 3d bf 3e db 40 2a 3c e7 5b f6 bd
       -0.120762914 0.37351933 0.010391439 -0.12029248
000030 af e2 b3 bd 04 b5 19 bd 1e fb de 3d 73 82 9b 3d
       -0.08783471 -0.037526146 0.108877406 0.075932406
000040 1e b7 48 be a0 d7 b5 3c 86 d5 0c bd 5c 3f 0a bd
       -0.19601104 0.022197545 -0.03438332 -0.03375183
000050 e4 38 4c 3e c7 2c 8d 3e 97 1d 6d 3d 74 d2 9d 3d
       0.19943577 0.27573225 0.057889547 0.077061564
000060 83 99 a2 bd 47 81 99 3d 25 a6 0e 3e 97 ee ad 3c
       -0.07939436 0.07495361 0.13930567 0.021231933
000070 b7 af ba bc 92 73 b9 bd f7 fe 84 be f1 82 b4 bb
       -0.022788865 -0.090552464 -0.25975773 -0.0055087735
000080 f3 41 bf bb f4 0f 22 be b2 6a 93 be 35 a9 04 be
       -0.005836719 -0.15826398 -0.2879234 -0.12955172
000090 ec 66 a1 3d 69 e2 8d 3d ea 4b 24 3c 88 6b 05 be
       0.07880959 0.0692795 0.010027865 -0.13029301
0000a0 3c 4f 36 3e 18 3c c0 bd 40 ca 0d bd 1b a5 87 bd
       0.17803663 -0.09386462 -0.03461671 -0.06623288
0000b0 de 96 74 be e2 2e 9c bc 9e 5d 5d bd 1a 89 e1 bd
       -0.23885676 -0.019065324 -0.05404436 -0.11012478
0000c0 b2 73 56 3e 39 3e 87 3e c5 ef a0 3a 2d ca 82 3e
       0.20942572 0.2641466 0.0012278488 0.25544873
0000d0 1e c1 82 be e9 66 0a 3f cf 38 67 be 82 97 08 3e
       -0.25537962 0.5406328 -0.22580265 0.13339046
0000e0 90 cf f3 3d 2e 50 59 bc 3e 0f 14 3e 9e 4f 25 be
       0.11904824 -0.013263745 0.1445894 -0.16143653
0000f0 1e 1c 1c 3d 4d d3 a8 be 8d 22 67 bd be eb c5 3c
       0.038112752 -0.3297371 -0.056429435 0.024160262
000100 08 ba 72 bd e9 9f 6f 3d 9d 96 6e be 12 c4 ad 3d
       -0.059259444 0.05850211 -0.23299642 0.08484663
000110 67 49 d8 bd ab 1d 05 3e 29 b4 9f bd 0f 25 78 be
       -0.105608754 0.12999599 -0.07798035 -0.24232887
000120 ac e3 af 3c 0e 49 60 3e d4 46 71 be 18 4d 85 3d
       0.021470867 0.21902868 -0.23562175 0.06508845
000130 44 5a 95 be d6 3c b9 3a 57 58 a9 be b9 20 1c be
       -0.2917043 0.001413251 -0.3307521 -0.15246858
000140 46 4c 4a 3e c7 0c 8d be fc 4a 9c 3c 17 7f 0b 3d
       0.19755659 -0.2754881 0.019078724 0.03405675
000150 cf ed 2d 3e a9 04 5a be 02 8a 1a 3b 39 b9 e4 bd
       0.16985248 -0.2129084 0.0023580794 -0.11168141
000160 c8 05 02 3d 1b 6f 0f 3d 31 4d 34 be cf f3 ba bc
       0.031743795 0.035018068 -0.17607571 -0.022821335
000170 bf 12 81 be 9a 37 2e 3d ec f1 55 3e 1b c6 cf be
       -0.25209615 0.042533495 0.20893067 -0.4058083
000180 54 7c 86 be 72 39 76 3e c8 c7 14 3e b1 95 54 be
       -0.2626673 0.24045351 0.14529335 -0.20760228
000190 9f 21 b9 be 36 61 30 be d6 e3 44 bd 0d 48 15 3f
       -0.36158463 -0.17224583 -0.048068844 0.58313066
0001a0 df 84 a0 3d a0 0c e1 3d e2 31 31 3e 06 ec 5b be
       0.07837843 0.10988736 0.17304185 -0.21476755
0001b0 40 ed d3 be 7c 47 9b 3e 13 46 8d bd 68 24 84 bc
       -0.41391945 0.30327976 -0.06898131 -0.016130641
0001c0 a4 6b 2e bd 75 5b 42 be bf ac 8f bd 9f ca 70 bd
       -0.042583123 -0.189802 -0.070153706 -0.058786985
0001d0 ed 7c bb bd 8e 09 5a 3d 78 1d c8 be 71 4f 6e 3d
       -0.09154687 0.05323177 -0.39084983 0.05818123
0001e0 f4 8b 55 bd 17 4c 8f 3e 0d 75 12 3e 47 88 c4 3d
       -0.052135423 0.2798774 0.14302464 0.09596305
0001f0 8b 33 f0 3c 12 23 43 3e f9 ae b5 3e 3f 17 0d 3d
       0.029321453 0.19056347 0.35485056 0.034445997
000200 7f 4a 02 3c 8f 7e bf 3d 17 c8 b0 be 60 93 34 be
       0.007952332 0.09350311 -0.34527656 -0.17634344
000210 65 e0 fb 3d 70 96 75 be b7 f2 eb be 68 c6 99 bd
       0.12298659 -0.23983169 -0.46083614 -0.07508546
000220 46 ff 13 be 98 7d 6a 3e bf 50 3b bd 40 4e 0d 3d
       -0.14452848 0.22899473 -0.045731302 0.034498453
000230 e6 3b 1b 3e 31 25 25 be c3 dc 8e bd 1f 7d 25 be
       0.15159568 -0.16127469 -0.06975701 -0.16161011
000240 ea ad 85 be 5a 2d ab be a5 bc 96 3c 80 7e 14 be
       -0.26109248 -0.33433038 0.0184005 -0.14501381
000250 f6 cd 07 3e 25 de 00 3e 27 da aa 3c 8e bc 80 3d
       0.13262162 0.12584741 0.020855976 0.06285964
000260 1f d8 2c be 8e a2 0f 3f a5 38 df bc 33 3b 81 3e
       -0.16879319 0.56107414 -0.02724869 0.25240478
000270 3f 1b 05 3d 61 0f 04 be a1 95 81 3d 69 7e cb bd
       0.032496687 -0.12896492 0.063273676 -0.0993622
000280 fb 79 02 3d 70 8b 82 bd 36 97 3e be 56 8a 54 be
       0.03185461 -0.06374252 -0.1861237 -0.20755896
000290 ca ac 80 be d2 78 94 3d 5e 77 16 bf 67 8d dd 3d
       -0.25131828 0.07249607 -0.5877589 0.10817986
0002a0 ff de 06 bd af d7 79 3b ba 32 48 3d 60 d5 59 be
       -0.03292751 0.0038122942 0.0488765 -0.21272802
0002b0 cb 30 13 3e 68 71 53 3e d8 00 50 3e 45 2a 91 3c
       0.14374082 0.2064873 0.20312822 0.017720351
0002c0 e6 c9 d6 be e7 7e 1d 3d f8 f5 6c bd 29 61 43 be
       -0.4195091 0.0384511 -0.05785176 -0.19080032
0002d0 35 4a 7f 3e 14 3b 4a be c0 73 89 3c 42 c7 b6 3e
       0.24930651 -0.19749099 0.016778827 0.35698897
0002e0 3b b4 9c 3e 0d 76 80 be de ad 1e 3e 6b 0c 09 be
       0.30606255 -0.25090066 0.15496013 -0.13383643
0002f0 57 d2 46 3e 9c 0f af 3b 4b 70 4d be 06 79 1d 3e
       0.19416176 0.005342437 -0.20062368 0.15378198
000300 0d 3c 5e bd 85 ed 80 3e 4c 17 81 3e 38 1e b3 be
       -0.054256488 0.25181213 0.25213087 -0.34983993
000310 01 c1 1a 3e 9c 47 80 3e ca 14 9c bd 7e 76 8b bd
       0.15112688 0.25054634 -0.07621153 -0.0680971
000320 1f e0 d7 be 46 44 4d be f3 ed e1 bc c5 22 1e 3f
       -0.42163178 -0.20045575 -0.027579283 0.61771804
000330 9e 0e 02 3e fb 10 9b 3c 19 20 85 3e 5a ea e0 be
       0.12700889 0.018928995 0.2600105 -0.43928796
000340 bb 0d 4e be 9e 66 23 3e 6e b5 32 bc dc 9c 8e bd
       -0.20122425 0.15957114 -0.010907514 -0.06963512
000350 22 f7 39 3e 25 03 81 3c 22 d7 82 be 59 89 42 3e
       0.1816068 0.01574857 -0.25554758 0.18997706
000360 04 8f 8d be 81 cb e1 3c 44 45 51 3e 9d 2d 12 be
       -0.27648175 0.027562859 0.20436579 -0.14275213
000370 df 7b 52 bd f6 b8 66 3e 70 68 2a 3e 61 63 2b 3e
       -0.051387664 0.22531494 0.16641402 0.16737129
000380 19 18 cd be 69 cc 60 3e 62 59 6a 3e c5 8b 8e 3d
       -0.40057448 0.21952976 0.2288566 0.06960253
000390 7d c4 9b 3e 10 ad 5c 3d 1f 50 82 be 83 96 c2 be
       0.30423346 0.053875983 -0.25451753 -0.38005456
0003a0 7f 40 22 3e ee 24 be be a4 e5 d0 be a4 cd f8 bd
       0.15844916 -0.3713755 -0.40800202 -0.12148598
0003b0 de 63 50 3d 5c a2 44 3e 60 f2 48 3b 3a 7a b9 bd
       0.05087649 0.1920256 0.0030662045 -0.09056516
0003c0 96 9f 43 3e e8 81 d1 3d 52 5e 26 be 65 99 81 be
       0.19103846 0.10229856 -0.16246918 -0.25312343
0003d0 e6 58 5e be 17 88 a5 bc 13 c3 c9 bd 55 8a 42 be
       -0.217136 -0.020206494 -0.098516606 -0.18998082
0003e0 91 a0 e4 3d 93 2f 1c 3e 21 64 4f be 33 e5 98 3e
       0.11163438 0.15252523 -0.2025304 0.29862365
0003f0 f0 60 83 be 45 bc c2 3e 76 20 d8 bd d6 07 33 3d
       -0.25659895 0.38034263 -0.105530664 0.043708645

output_layer.bias f4 [49]
000000 8e 4c af 3c 3f b8 a0 3c 1f a6 13 3d 6b 7f 5a 3e
       0.021398809 0.019619105 0.036047097 0.21337669
000010 62 b4 de 3c 9d 2d 8f bd 28 e9 22 be cb 4d 24 3e
       0.027185623 -0.06991122 -0.15909255 0.160453
000020 b5 0c ca 3d 94 fd 8b 3e a7 09 a0 3d e8 e4 4c be
       0.09865705 0.27341902 0.07814341 -0.20009196
000030 58 73 07 3e ca dc 91 3e 84 2a 4d 3d 22 5e 74 3e
       0.13227594 0.2848876 0.050089374 0.23864034
000040 8a bb 92 3e 91 c1 d6 3c eb bc 0f 3e fc af 42 3c
       0.28658706 0.026215347 0.1403691 0.011882778
000050 56 a4 3a 3e 7f 06 0e 3e 2d a8 dd 3c f1 a5 1f 3e
       0.18226752 0.13869666 0.027057732 0.15590645
000060 43 f7 2f be 23 1b 30 3d c2 39 bc 3d fa 86 56 3d
       -0.17184167 0.04299463 0.09190704 0.052374817
000070 b9 5b 2f 3e 3e 97 a5 3e 42 af 14 3e 74 86 c2 3e
       0.17124833 0.3234195 0.1451998 0.37993205
000080 8e c3 84 3d 87 32 76 3d 19 1d 28 3d 67 26 25 3e
       0.064826116 0.06010678 0.041043375 0.1612793
000090 e9 21 0a be ed e5 f4 3d c2 ab 54 3e 6f 56 84 3e
       -0.13489498 0.11957917 0.20768645 0.25847194
0000a0 e8 7c 9d 3c 6f 93 ed 3d 60 c8 f1 3d b1 62 12 3d
       0.019224599 0.11600386 0.118057966 0.03573865
0000b0 c0 d4 68 3e f2 47 11 3e 0d 61 0f 3e d8 4e 2b 3e
       0.22737408 0.14187601 0.14001866 0.16729295
0000c0 87 96 e8 3d
       0.11356836
