models/7x7-4-99-relu/250episodes.pth (torch, 202354 bytes, 12 tensors)

input_layer.weight f4 [99, 50]
0.5974018 0.07753143 -0.112260744 -0.08384966 -0.11878477 -0.007336669 -0.28958073 -0.2675886
0.3482608 -0.095678136 -0.057451863 0.18440227 0.2672132 -0.2929092 0.23973283 -0.1531692
-0.40131864 -0.050965454 -0.31000173 -0.04062435 0.41369927 0.03137183 0.108618714 0.14467496
0.35258964 -0.4342351 0.06992001 -0.28153342 0.078911155 0.060697176 0.22997019 -0.34395295
0.045754205 0.21292701 0.12359462 0.1031276 -0.31708735 0.13035044 -0.12939699 -0.020544562
0.46983385 0.54161906 -0.0025361218 -0.12277331 0.45502612 -0.18444125 0.44202808 0.20661825
-0.06926797 -0.050252482 -0.17958798 0.1932266 -0.30731803 -0.16047296 -0.27949363 -0.07623387
0.33087817 0.15907298 0.4112067 0.45107654 -0.4159055 0.11816466 0.10768535 -0.30016062
-0.04278677 -0.022933701 0.37557012 -0.08443281 -0.23275976 0.02116845 0.34474483 -0.27795076
-0.5102392 -0.2605044 -0.12047095 -0.04071961 -0.016500616 -0.046572987 0.44772106 -0.18024623
-0.44640538 0.11374944 -0.009609086 0.16262954 -0.065731324 0.101370335 0.16063844 0.07766563
-0.2077467 0.35330164 -0.0769566 -0.3187859 0.15655383 -0.37655446 -0.08481134 0.11806486
0.07232475 -0.21451566 0.340355 0.04906486 0.6964054 0.4352294 -0.3102794 0.20396079
-0.526165 -0.17462362 -0.11863372 -0.4612075 0.087756604 0.03138783 -0.18269962 -0.14322351
-0.029790482 0.36203668 0.18111098 0.39828822 -0.25790954 0.06672546 -0.08551173 0.30708924
0.20291384 -0.27404013 -0.6291942 0.08790228 -0.07145476 -0.0003686795 -0.05582986 0.050688382
-0.016850801 0.002789592 0.13871466 0.3700178 -0.34978157 0.09036243 0.3671079 0.20252144
0.18750566 -0.12170439 -0.13378863 -0.089949094 0.03074804 -0.010005466 -0.33775136 0.257238
0.5337564 0.7758587 -0.038126096 0.059512384 0.10587205 0.0063920952 0.23340175 -0.059352253
-0.30372903 -0.120084494 -0.30227473 0.03912275 -0.092641205 -0.14991578 0.11068223 -0.28833887
0.24485046 -0.27517205 -0.056752454 0.3517355 0.035062775 0.20732325 0.5058757 0.20744218
0.04641449 -0.032293443 -0.37971544 -0.49462926 -0.043061785 0.09198496 -0.06533485 -0.03120701
-0.21098031 0.2661031 0.11308383 0.099395216 -0.26551244 0.06412443 0.0861559 -0.14571197
-0.15334791 0.16979562 0.23340829 0.30280748 -0.10567904 0.07257279 0.20725873 -0.32255003
0.0626837 0.46296272 0.44145408 0.18752727 0.21187128 -0.0316802 -0.11846955 -0.08935337
-0.16132383 -0.03321614 0.12540059 -0.14822929 -0.49277613 -0.11817948 -0.30858585 0.23999894
0.0010787384 -0.21218671 0.07843767 -0.15600263 -0.3026886 -0.14072987 0.22466286 -0.25175354
0.020669015 0.12334762 0.19900031 -0.31280288 0.3367568 -0.43655142 0.24994138 -0.06345616
-0.06524158 0.0015550244 0.08389831 0.20267247 -0.3161281 -0.015786627 -0.18245324 -0.030721383
0.3643375 0.029842025 -0.40593165 0.089579776 -0.18338995 -0.086127795 0.29361597 -0.087297745
0.2354445 -0.015594615 0.28230268 0.26486772 0.26028824 -0.14730407 -0.311699 -0.09552745
-0.6097662 0.22206731 -0.2413727 -0.0424892 0.2923373 -0.3990105 0.00941532 -0.063875325
00000000: 53ef 183f ccc8 9e3d f6e8 e5bd 5fb9 abbd
00000010: 6e45 f3bd 7168 f0bb ed43 94be 5f01 89be
00000020: 3d4f b23e e6f2 c3bd a552 6bbd f3d3 3c3e
00000030: 2bd0 883e 32f8 95be 867c 753e 63d8 1cbe
00000040: a379 cdbe 27c1 50bd 8cb8 9ebe b865 26bd
00000050: 64d0 d33e bf7f 003d 7d73 de3d ac25 143e
00000060: a186 b43e 1054 debe 3932 8f3d 2625 90be
00000070: 2c9c a13d 9a9d 783d 4e7d 6b3e 9a1a b0be
00000080: c368 3b3d 8a09 5a3e 2d1f fd3d 9034 d33d
00000090: 4659 a2be 967a 053e a580 04be 124d a8bc
000000a0: 108e f03e 8ca7 0a3f 1035 26bb 9370 fbbd
000000b0: 2ff9 e83e 2bde 3cbe 8151 e23e bc93 533e
000000c0: 5edc 8dbd 8cd5 4dbd e9e5 37be 32dd 453e
000000d0: ca58 9dbe 0653 24be ca19 8fbe 8120 9cbd
000000e0: dd68 a93e 07e4 223e af89 d23e 81f3 e63e
000000f0: 91f1 d4be 5000 f23d 238a dc3d a7ae 99be
00000100: 2e41 2fbd 75df bbbc ba4a c03e 1ceb acbd
00000110: 9358 6ebe 7569 ad3c 6582 b03e 904f 8ebe
00000120: 099f 02bf d560 85be 79b9 f6bd 9bc9 26bd
00000130: 4d2c 87bc 51c3 3ebd b23b e53e 7892 38be
00000140: 3f8f e4be 77f5 e83d 6e6f 1dbc 5c88 263e
00000150: 259e 86bd 409b cf3d 677e 243e 280f 9f3d
00000160: 8dbb 54be f4e3 b43e 6c9b 9dbd e837 a3be
00000170: a64f 203e bfcb c0be 91b1 adbd fdcb f13d
00000180: 001f 943d fea9 5bbe 0343 ae3e 3cf8 483d
00000190: a047 323f 63d6 de3e f1dc 9ebe 19db 503e
000001a0: c0b2 06bf 89d0 32be 3cf6 f2bd 6423 ecbe
000001b0: bcb9 b33d 8690 003d 9c15 3bbe 2fa9 12be
000001c0: 2b0b f4bc df5c b93e 2875 393e 6fec cb3e
000001d0: b80c 84be 5ca7 883d c620 afbd cd3a 9d3e
000001e0: a5c8 4f3e fd4e 8cbe df12 21bf 1c06 b43d
000001f0: e056 92bd 534b c1b9 daad 64bd 9f9e 4f3d
00000200: b10a 8abc 96d1 363b 370b 0e3e f972 bd3e
00000210: 9216 b3be f00f b93d 91f5 bb3e c861 4f3e
00000220: 7c01 403e 2740 f9bd e3ff 08be 3b37 b8bd
00000230: 50e3 fb3c f7ed 23bc bfed acbe b3b4 833e
00000240: 42a4 083f ad9e 463f 1c2a 1cbd 42c3 733d
00000250: 72d3 d83d c874 d13b de00 6f3e 591b 73bd
00000260: 5f82 9bbe dcee f5bd c1c3 9abe 2d3f 203d
00000270: acba bdbd 8683 19be 5dad e23d 27a1 93be
00000280: 14ba 7a3e 5ae3 8cbe 4375 68bd ad16 b43e
00000290: fc9d 0f3d 8c4c 543e 1281 013f b96b 543e
000002a0: 1f1d 3e3d 2146 04bd 106a c2be 0c40 fdbe
000002b0: 8e61 30bd 9c62 bc3d 47ce 85bd d8a5 ffbc
000002c0: 390b 58be aa3e 883e 7f98 e73d b88f cb3d
000002d0: 3ff1 87be ab53 833d 8172 b03d 8535 15be
000002e0: 3c07 1dbe e7de 2d3e 9502 6f3e 9509 9b3e
000002f0: 416e d8bd 0ba1 943d a23b 543e 4725 a5be
00000300: 5060 803d 7309 ed3e 4506 e23e 2607 403e
00000310: c9f4 583e 19c3 01bd 2aa0 f2bd e6fe b6bd
00000320: 1332 25be a60d 08bd 0369 003e 6bc9 17be
00000330: 274d fcbe 1508 f2bd f7fe 9dbe 48c2 753e
00000340: 7464 8d3a 7947 59be eea3 a03d 27bf 1fbe
00000350: 00fa 9abe 7e1b 10be 050e 663e d7e5 80be
00000360: 1152 a93c ad9d fc3d bdc6 4b3e b327 a0be
00000370: 636b ac3e ab83 dfbe a2f0 7f3e 4ef5 81bd
00000380: 619d 85bd f6d1 cb3a e1d2 ab3d 5f89 4f3e
00000390: 8bdb a1be f552 81bc 06d5 3abe 69ab fbbc
000003a0: 728a ba3e 4377 f43c 46d6 cfbe 9a75 b73d
000003b0: 93ca 3bbe c563 b0bd d554 963e 29c9 b2bd
000003c0: 5d18 713e 8e80 7fbc fa89 903e be9c 873e
000003d0: 8044 853e e1d6 16be 0397 9fbe e5a3 c3bd
000003e0: a319 1cbf 9d65 633e 682a 77be 2809 2ebd
000003f0: 3cad 953e 1b4b ccbe b742 1a3c 11d1 82bd

input_layer.bias f4 [99]
-0.15274766 -0.2190127 0.015426155 -0.0072256783 -0.047843635 -0.05460872 0.2865233 0.18263017
0.08588706 0.3851047 -0.03826414 0.09020821 -0.044469424 0.022262266 0.12813343 -0.14398803
-0.016128732 -0.112765655 0.03052395 0.0171377 -0.019815618 -0.21898647 -0.061632477 -0.01917021
-0.15185805 -0.08117675 0.026746295 -0.15319882 0.23208012 0.31202263 0.00993364 -0.048040166
-0.062714346 0.13912001 0.25073275 -0.05969485 0.06550203 -0.09288043 0.048586 -0.3340889
-0.09472322 0.12203876 0.02910313 0.11453441 0.055489186 -0.23128492 0.050724663 -0.07197485
-0.0018532623 0.024382629 -0.22076182 -0.05806941 0.21372995 0.2110547 -0.05542934 0.2656178
0.09618228 -0.27231795 -0.20323572 -0.094183855 -0.02958155 -0.03606473 -0.3733135 -0.008844458
-0.025909133 -0.1040889 -0.021514926 -0.07464541 -0.19493674 0.018926205 -0.18964885 0.21372384
0.12913008 -0.15455452 0.05592551 -0.06972831 0.18569876 0.44790977 -0.3643323 -0.08779407
0.15388753 0.112845674 0.09048102 -0.059670072 0.061832745 0.15902561 -0.061772294 0.23484999
-0.019045798 -0.11909176 -0.012657205 -0.0023080562 -0.11517947 0.06488048 0.035438478 0.21993713
-0.16567 0.08920299 0.15093014
00000000: e269 1cbe dd44 60be fcbd 7c3c 62c5 ecbb
00000010: b0f7 43bd 65ad 5fbd 2fb3 923e 6703 3b3e
00000020: 8ee5 af3d 712c c53e dcba 1cbd 15bf b83d
00000030: 9225 36bd 5b5f b63c 6935 033e 9971 13be
00000040: 6720 84bc aef1 e6bd 5d0d fa3c 5d64 8c3c
00000050: 5d54 a2bc fd3d 60be 5672 7cbd d80a 9dbc
00000060: ad80 1bbe ff3f a6bd 0c1b db3c 27e0 1cbe
00000070: 69a6 6d3e 6ec1 9f3e b5c0 223c c4c5 44bd
00000080: 6170 80bd 7a75 0e3e 0b60 803e 9682 74bd
00000090: ee25 863d 1838 bebd 1d02 473d b30d abbe
000000a0: 3ffe c1bd 75ef f93d b069 ee3c 0491 ea3d
000000b0: a148 633d f4d5 6cbe aac4 4f3d 8d67 93bd
000000c0: 2ae9 f2ba 14be c73c 630f 62be 31da 6dbd
000000d0: 06dc 5a3e b91e 583e e009 63bd 0eff 873e
000000e0: 37fb c43d 426d 8bbe 061d 50be 77e3 c0bd
000000f0: 0255 f2bc 9cb8 13bd f222 bfbe 58e8 10bc
00000100: 643f d4bc 902c d5bd 1240 b0bc b1df 98bd
00000110: 7f9d 47be 210b 9b3c 4f33 42be 6cda 5a3e
00000120: ad3a 043e 8a43 1ebe 2612 653d b7cd 8ebd
00000130: d127 3e3e 6e54 e53e c389 babe 61cd b3bd
00000140: b194 1d3e a21b e73d 1d4e b93d 9b68 74bd
00000150: 5544 7d3d 9cd7 223e f204 7dbd 847c 703e
00000160: ef05 9cbc 61e6 f3bd 2a60 4fbc c242 17bb
00000170: 37e3 ebbd 0fe0 843d f027 113d 3337 613e
00000180: 65a5 29be 0fb0 b63d 6e8d 1a3e

hidden.0.weight f4 [99, 99]
0.138724 -0.098811574 -0.02228342 0.049917933 0.0894425 -0.08991124 0.18865794 -0.04089672
-0.18463509 0.28425375 0.0017862469 0.12757663 0.058464576 0.13997838 -0.016161254 -0.14436856
0.14637418 0.06276127 0.3704448 -0.33580065 -0.025961421 -0.1768005 0.112214595 0.12399786
-0.11681097 -0.0052135293 0.23201242 -0.36163566 0.22922692 0.04939735 0.2444406 -0.20316939
-0.23715517 0.22014189 0.1473438 -0.28135645 0.0826496 -0.1016992 0.09684758 -0.06805916
-0.37785313 -0.13438413 0.049006473 -0.2852504 -0.12280663 -0.24850936 -0.0007344434 -0.18444806
0.011741258 0.114677556 -0.3090299 -0.043654066 0.09959587 0.030544551 -0.49896708 -0.14224719
0.14368378 -0.08011459 -0.31915447 0.11653588 0.05089278 0.17207015 -0.1290003 0.04867416
0.16362102 0.039204143 -0.1378868 -0.18918642 0.2658527 0.008700666 -0.10670843 0.4153347
0.21740611 -0.10656473 -0.19519322 -0.41006118 0.014719553 -0.008913065 0.12554471 -0.019277772
0.14740773 -0.103151634 0.35356635 0.171032 0.1502987 0.023511356 0.05655317 0.15906489
-0.02046805 0.000791578 -0.10525801 0.3744692 -0.28965482 -0.45678386 -0.22917648 0.2159236
0.35940582 0.006924642 -0.23803802 -0.28312573 0.20507759 0.271488 0.55537665 -0.024722965
0.08231147 -0.09920897 -0.12923272 0.051016923 -0.25781134 -0.20323128 -0.08344267 -0.025999788
0.023382016 0.22680093 0.19468623 -0.13513923 -0.26000968 -0.380904 0.24066755 0.053631548
-0.10327055 0.08425855 0.3506641 -0.12882489 0.13962744 -0.046186898 -0.26432776 -0.5517849
0.28371632 -0.53622854 -0.25347683 0.36439994 -0.1784871 0.101014994 0.23242134 -0.073743865
0.24154651 -0.12054958 -0.12737757 -0.42008275 0.20012467 -0.07354906 0.04760213 0.12130035
-0.13886024 0.098413244 0.2734781 0.48785877 0.06111835 0.08955239 -0.17937845 0.026597245
-0.1368595 -0.1893099 0.015303337 -0.21006383 0.24774693 0.6502515 0.02085575 -0.009414127
0.007957722 -0.1723372 0.3119765 -0.09549748 -0.08894582 0.17288812 0.019228077 0.3007919
-0.28701243 0.19963755 -0.17077033 -0.07264596 0.12258881 -0.38085526 0.32851663 0.20024778
0.12117336 0.028055701 0.17556706 0.1431027 0.068790525 -0.06421519 -0.40149215 0.1249104
-0.45641765 0.030539896 -0.444532 -0.10454867 -0.23490492 -0.15432602 -0.03840299 0.16329601
-0.076204315 -0.14004195 -0.09630523 0.0065222066 -0.22111624 -0.52038574 0.052365635 0.15748222
-0.16581903 0.16333069 -0.0043626497 -0.057258416 -0.2861364 -0.00081254565 0.23482233 -0.6352336
0.33831546 -0.61278474 0.10444017 0.09720832 0.07338341 -0.13240597 -0.0012025759 0.059884585
-0.10122475 0.27401426 -0.108128116 -0.1721865 -0.031094456 0.3275686 0.47638702 -0.04323239
-0.14031261 -0.1158329 -0.18891965 0.17938666 -0.27138725 -0.39597556 -0.11987367 0.22552331
-0.26815695 0.050612513 0.30298272 0.26544023 0.034410156 -0.110445686 0.42074078 0.0034123939
-0.28893963 -0.07936023 0.1626372 -0.18052232 -0.24838495 0.009674852 -0.08058621 0.38149554
-0.17738146 0.2592113 0.006922399 -0.22701605 -0.25879174 0.14299135 -0.04827562 0.20448837
00000000: aa0d 0e3e b95d cabd b88b b6bc bf76 4c3d
00000010: a12d b73d 6223 b8bd 8c2f 413e 5283 27bd
00000020: fb10 3dbe b589 913e 8020 ea3a 73a3 023e
00000030: 8d78 6f3d 7e56 0f3e 9b64 84bc 5ad5 13be
00000040: 1de3 153e fb88 803d f1aa bd3e 10ee abbe
00000050: 0cad d4bc 310b 35be c4d0 e53d 97f2 fd3d
00000060: 973a efbd 41d6 aabb aa94 6d3e 4f28 b9be
00000070: 76ba 6a3e e054 4a3d a34e 7a3e a30b 50be
00000080: ced8 72be e06c 613e 4be1 163e f40d 90be
00000090: 3244 a93d ac47 d0bd 0658 c63d 9a62 8bbd
000000a0: f775 c1be fe9b 09be 03bb 483d 570c 92be
000000b0: 0b82 fbbd 3d79 7ebe aa87 40ba f4df 3cbe
000000c0: 685e 403c 11dc ea3d 2b39 9ebe 9bce 32bd
000000d0: ebf8 cb3d 9138 fa3c 9d78 ffbe 3fa9 11be
000000e0: d721 133e 1e13 a4bd 3768 a3be 5daa ee3d
000000f0: f374 503d 2833 303e a818 04be 8e5e 473d
00000100: 458c 273e 8694 203d 3332 0dbe 16ba 41be
00000110: d81d 883e 3d8d 0e3c f389 dabd c0a6 d43e
00000120: b59f 5e3e 9c3e dabd bbe0 47be 8af3 d1be
00000130: 482a 713c 1b08 12bc cb8e 003e 6bec 9dbc
00000140: 0df2 163e 2a41 d3bd a606 b53e 0323 2f3e
00000150: e7e7 193e e39a c03c 4ca4 673d e8e1 223e
00000160: 9dac a7bc e681 4f3a 8391 d7bd 6dba bf3e
00000170: a34d 94be 93df e9be 3dad 6abe 141b 5d3e
00000180: 0a04 b83e 1be8 e23b 3dc0 73be dbf5 90be
00000190: dcff 513e 7a00 8b3e 2a2d 0e3f d187 cabc
000001a0: ea92 a83d 132e cbbd 9555 04be 1ff7 503d
000001b0: d9ff 83be dc1b 50be fee3 aabd 82fd d4bc
000001c0: a48b bf3c 813e 683e d45b 473e f061 0abe
000001d0: fd1f 85be d905 c3be 8e71 763e c1ac 5b3d
000001e0: 837f d3bd bf8f ac3d 3f8a b33e acea 03be
000001f0: 7ffa 0e3e 792e 3dbd f855 87be c641 0dbf
00000200: 4443 913e 4646 09bf b7c7 81be a192 ba3e
00000210: 53c5 36be f3e0 ce3d dcff 6d3e 0607 97bd
00000220: f857 773e b3e2 f6bd 446f 02be 1615 d7be
00000230: 7bed 4c3e e4a0 96bd 73fa 423d 516c f83d
00000240: 6131 0ebe e28c c93d 5205 8c3e a0c8 f93e
00000250: 3c57 7a3d 3e67 b73d fcae 37be 77e2 d93c
00000260: e624 0cbe 74da 41be d9ba 7a3c f91a 57be
00000270: 5fb1 7d3e e276 263f aed9 aa3c b63d 1abc
00000280: 1b61 023c 2a79 30be 62bb 9f3e 2f94 c3bd
00000290: 3a29 b6bd 9509 313e 3384 9d3c 6501 9a3e
000002a0: 4bf3 92be c96d 4c3e 6bde 2ebe 68c7 94bd
000002b0: d80f fb3d 76ff c2be 5533 a83e c10d 4d3e
000002c0: bd29 f83d 12d5 e53c dac7 333e 8489 123e
000002d0: 0ce2 8c3d 4183 83bd 6190 cdbe 06d1 ff3d
000002e0: 93af e9be ce2e fa3c b399 e3be 9d1d d6bd
000002f0: ea8a 70be a407 1ebe 744c 1dbd 1237 273e
00000300: 0211 9cbd 2867 0fbe ad3b c5bd 3cb8 d53b
00000310: 4c6c 62be 0038 05bf 597d 563d 0543 213e
00000320: 77cc 29be 2940 273e 8ff4 8ebb cd87 6abd
00000330: 7880 92be 0401 55ba 4475 703e ab9e 22bf
00000340: af37 ad3e 76df 1cbf bae4 d53d 2815 c73d
00000350: 0b4a 963d 6e95 07be c09f 9dba 8a49 753d
00000360: ec4e cfbd 994b 8c3e 4672 ddbd a851 30be
00000370: cdb9 febc 12b7 a73e 00e9 f33e 7214 31bd
00000380: 1cae 0fbe cd39 edbd 2774 41be 23b1 373e
00000390: 45f3 8abe 4fbd cabe 5480 f5bd 95ef 663e
000003a0: de4b 89be 114f 4f3d 8d20 9b3e c8e7 873e
000003b0: aaf1 0c3d 5931 e2bd 566b d73e 78a2 5f3b
000003c0: e5ef 93be 9e87 a2bd 5e8a 263e d8da 38be
000003d0: a058 7ebe 4583 1e3c 620a a5bd 6253 c33e
000003e0: 7ca3 35be 58b7 843e 4bd5 e23b e576 68be
000003f0: 5a80 84be 536c 123e a8bc 45bd 6665 513e

hidden.0.bias f4 [99]
0.08324241 -0.10790776 -0.09275143 -0.24306183 -0.033461563 -0.026407514 -0.43878335 -0.040062353
0.09856779 -0.38612065 0.018259175 0.09996337 -0.20913218 0.12641594 0.10953445 0.08872232
-0.16063112 -0.17000704 -0.18003905 0.13131344 -0.013864034 0.06692228 -0.21001376 -0.3339605
-0.24882472 -0.105920754 -0.24852404 0.041121032 -0.20965734 0.09555575 -0.06515581 -0.1829091
-0.059840202 -0.021204801 -0.18406545 0.064977825 -0.07293685 0.014296009 -0.07875359 -0.2412884
-0.12986377 0.0027712912 0.110140964 -0.05430352 -0.236071 -0.107712224 -0.13835222 0.32670015
0.055743 -0.07602353 -0.022111846 -0.13481484 -0.09945181 0.13217735 -0.35391232 0.19080475
-0.073125415 -0.26297045 -0.13480817 -0.21798761 -0.0970237 -0.11096796 -0.20886245 -0.172719
-0.2637533 0.0112263905 -0.05171776 0.08067168 -0.32723114 0.13651733 0.10416341 -0.24908005
-0.3080577 -0.073162675 -0.11572088 -0.07985987 -0.3473423 0.06074582 -0.15214062 -0.016980086
-0.0115186125 -0.21533932 -0.07571874 -0.5587445 0.13521807 0.041571967 -0.0069949757 4.6916048e-05
-0.06115125 0.04907038 -0.10080752 0.009716794 -0.031116484 -0.05136535 -0.36404616 0.067164816
0.007109033 -0.32554182 -0.06911784
00000000: ff7a aa3d befe dcbd 76f4 bdbd 33e5 78be
00000010: fe0e 09bd 9254 d8bc 36a8 e0be 6c18 24bd
00000020: e9dd c93d 9bb1 c5be 4494 953c 98b9 cc3d
00000030: bf26 56be 2e73 013e 9953 e03d 0cb4 b53d
00000040: 7c7c 24be 5316 2ebe 285c 38be 0877 063e
00000050: f925 63bc 8c0e 893d d90d 57be dffc aabe
00000060: e8cb 7ebe fbec d8bd 167d 7ebe 876e 283d
00000070: 6ab0 56be bcb2 c33d 6970 85bd 864c 3bbe
00000080: 001b 75bd b1b5 adbc a77b 3cbe 1813 853d
00000090: ea5f 95bd cf39 6a3c 9049 a1bd 4e14 77be
000000a0: 02fb 04be 8d9e 353b 9691 e13d 5e6d 5ebd
000000b0: 99bc 71be 3a98 dcbd 34ac 0dbe 3e45 a73e
000000c0: c652 643d 39b2 9bbd e723 b5bc e70c 0abe
000000d0: 64ad cbbd 8059 073e ff33 b5be 5262 433e
000000e0: c7c2 95bd 10a4 86be 270b 0abe 2538 5fbe
000000f0: 5db4 c6bd 2b43 e3bd 0ae0 55be 40dd 30be
00000100: ac0a 87be e5ee 373c 00d6 53bd 3237 a53d
00000110: d78a a7be 33cb 0b3e a053 d53d d70e 7fbe
00000120: bdb9 9dbe 50d6 95bd 12ff ecbd 928d a3bd
00000130: dad6 b1be 9cd0 783d c0ca 1bbe d219 8bbc
00000140: 90b8 3cbc e981 5cbe 6d12 9bbd e109 0fbf
00000150: 9b76 0a3e 5e47 2a3d 1c36 e5bb b9c7 4438
00000160: bc79 7abd 06fe 483d 2c74 cebd 3033 1f3c
00000170: ffe7 febc 7964 52bd 4264 babe b58d 893d
00000180: e4f2 e83b 6bad a6be a78d 8dbd

hidden.1.weight f4 [99, 99]
-0.13215652 0.23345463 -0.28281933 -0.09387488 0.09692532 -1.6088991 0.02899225 0.2736981
0.04863109 -0.05276524 -0.2471618 0.16486478 0.12512213 -0.034611635 -0.079187065 -0.6204998
-0.2510262 0.035282634 -0.293388 0.35103297 -0.54318994 -0.43449673 -0.19913319 -0.3830365
0.06491066 -0.34543374 0.08570587 0.30875957 -0.44983113 -0.058473695 -0.4673797 0.19782542
-0.17054953 -0.1990558 -0.4873334 -1.2140417 0.53084344 -0.20451374 0.20450129 0.07785933
0.63928986 -0.06630879 0.15304077 -0.025014326 0.30014297 -0.42782497 -0.20062032 0.30907288
-0.047772624 -1.8373492 0.11431918 -3.7243153e-06 -0.5746823 0.1347706 0.21743812 -0.22403903
-0.12104924 -0.20445669 0.15689595 0.049807347 -0.05286924 -0.59787774 0.021597505 0.014328078
-0.19344859 -0.19727878 0.14551258 -1.5024571 -0.030288989 0.06778873 0.088893436 0.20880237
-0.6085359 -0.124598525 -0.34968013 -0.58168405 0.0907491 -0.049068075 0.10952917 -0.14710492
-0.1867282 0.017869279 0.32132244 -0.51132447 0.16619658 0.45952335 0.31982958 -0.1496352
-0.32890847 -0.09223027 0.24290651 0.33333132 0.22044775 0.103952765 -0.8980091 0.34133032
-0.56132644 -0.3468821 -0.1222323 -0.16804694 0.17030466 -0.22936696 0.1944771 0.28085187
0.25438648 0.19697918 0.004432528 0.20101532 0.19517209 -0.12139245 -0.30254054 -0.14136158
-0.050553303 0.3749523 0.043525133 -0.13649361 0.301044 0.19539602 -0.16762331 0.30738243
-0.0026045209 0.35262343 -0.009825156 0.29690337 -0.14642611 -0.080082335 0.17108893 -0.22537832
-0.24535011 0.13393812 -0.27613413 -0.24584697 0.33549693 0.3752008 0.10864148 -0.19960661
0.20490554 0.058655605 -0.2731841 -0.16134402 0.4193769 -0.11448613 -0.072306894 -0.3612548
0.08551936 0.16715577 0.14416055 0.25539413 0.017411482 0.16298006 -0.5594021 0.11473726
-0.74644005 0.038752418 -0.03624076 0.17878252 0.2523189 -0.61370033 -0.10690236 -0.28903347
-0.08859663 0.0041295807 0.073616736 -0.29868808 0.0521458 0.27245662 -0.11255252 0.07835821
0.065218605 -0.10231658 0.33549413 -0.24108492 -0.22563736 -0.75839573 0.17344968 -0.2459796
-0.0024600176 -0.28952768 -0.02613656 -0.06332823 -0.45428512 -0.24312603 -0.28880754 -0.0539931
-0.024097072 0.047863908 0.014166928 -0.17990139 -0.1793946 -0.21734689 -0.4062702 0.14745934
-1.0482849 0.3051638 -0.15895492 -0.038682707 0.19414571 -0.31753865 -0.21907705 0.1886207
0.025881788 0.17084618 0.36646253 -0.24208641 -0.0037107314 0.13373213 -0.08294112 0.3992749
-0.060014885 -0.4528879 -0.11433312 0.102933645 -0.07739591 -0.25498438 -0.08946783 0.2093184
0.2575818 -0.11592483 -0.2933816 0.2323897 -0.013462883 0.24766338 0.28010353 0.07492245
0.3892388 0.24505952 -0.14635599 0.2542806 -0.09582794 -0.09810713 0.006203152 0.18917553
-0.07150138 -0.20587023 -0.025371807 0.0922025 0.027441269 0.0506127 0.0228149 0.06267624
-0.022580069 -0.12534116 0.32696483 0.17978244 -0.38860297 0.2837668 0.30348325 -0.0042719333
-0.29383802 -0.38816443 -0.29902726 -0.086656354 0.08281253 0.23529305 -0.07662605 -0.393931
00000000: 0a54 07be bb0e 6f3e b2cd 90be 7941 c0bd
00000010: c880 c63d 68f0 cdbf 2881 ed3c 2822 8c3e
00000020: 6531 473d 5d20 58bd fc17 7dbe 50d2 283e
00000030: 0420 003e eec4 0dbd d42c a2bd 13d9 1ebf
00000040: 8286 80be 8684 103d f436 96be 98ba b33e
00000050: 7f0e 0bbf 5b76 debe 92e9 4bbe 5c1d c4be
00000060: e1ef 843d b1dc b0be 8f86 af3d bc15 9e3e
00000070: 4450 e6be 1d82 6fbd 644c efbe bf92 4a3e
00000080: 89a4 2ebe 49d5 4bbe c383 f9be b865 9bbf
00000090: 5be5 073f 0d6c 51be c968 513e b674 9f3d
000000a0: 80a8 233f e7cc 87bd b8b6 1c3e d8ea ccbc
000000b0: 57ac 993e e00b dbbe 6a6f 4dbe cd3e 9e3e
000000c0: 3aad 43bd 422e ebbf 2d20 ea3d 40ef 79b6
000000d0: 611e 13bf 4e01 0a3e 19a8 5e3e 7d6a 65be
000000e0: aae8 f7bd 185d 51be 55a9 203e ca02 4c3d
000000f0: 6b8d 58bd 840e 19bf 40ed b03c 51c0 6a3c
00000100: 6317 46be 7303 4abe 4001 153e 8450 c0bf
00000110: 9d20 f8bc d1d4 8a3d c30d b63d 4ad0 553e
00000120: 02c9 1bbf 832d ffbd 4609 b3be 3fe9 14bf
00000130: aada b93d 9bfb 48bd d450 e03d aca2 16be
00000140: ad35 3fbe 9862 923c 6084 a43e 29e6 02bf
00000150: 702f 2a3e a546 eb3e b4c0 a33e f839 19be
00000160: b166 a8be 39e3 bcbd 7cbc 783e 67aa aa3e
00000170: 0ebd 613e 30e5 d43d ede3 65bf d9c2 ae3e
00000180: 17b3 0fbf 889a b1be ee54 fabd 7f14 2cbe
00000190: 5864 2e3e 2cdf 6abe 0125 473e d1cb 8f3e
000001a0: f23e 823e e9b4 493e bd3e 913b f6d6 4d3e
000001b0: 31db 473e 9b9c f8bd 98e6 9abe 17c1 10be
000001c0: fb10 4fbd bff9 bf3e 6947 323d fbc4 0bbe
000001d0: 7022 9a3e e515 483e 72a5 2bbe 3b61 9d3e
000001e0: 9cb0 2abb 0f8b b43e b1f9 20bc b803 983e
000001f0: baf0 15be 3502 a4bd f031 2f3e 93c9 66be
00000200: 0f3d 7bbe 1327 093e 7461 8dbe 4fbf 7bbe
00000210: 41c6 ab3e 521a c03e 6d7f de3d ad65 4cbe
00000220: c2d2 513e dc40 703d c9de 8bbe 5e37 25be
00000230: 92b8 d63e b477 eabd a315 94bd 64f6 b8be
00000240: c624 af3d e22a 2b3e d39e 133e 05c3 823e
00000250: 86a2 8e3c 3fe4 263e fa34 0fbf 5efb ea3d
00000260: b216 3fbf dbba 1e3d 3171 14bd c412 373e
00000270: f12f 813e 771b 1dbf a0ef dabd 32fc 93be
00000280: 2672 b5bd 6f51 873b 5fc4 963d a5ed 98be
00000290: d696 553d 6f7f 8b3e f081 e6bd 457a a03d
000002a0: 5591 853d 5b8b d1bd e3c5 ab3e f7de 76be
000002b0: 7b0d 67be 3926 42bf cb9c 313e 14e2 7bbe
000002c0: 3f38 21bb f93c 94be 571c d6bc 3bb2 81bd
000002d0: 0f98 e8be 08f6 78be 95de 93be de27 5dbd
000002e0: 3967 c5bc f20c 443d 671c 683c 1238 38be
000002f0: 38b3 37be 2f90 5ebe a602 d0be 95ff 163e
00000300: 332e 86bf 6e3e 9c3e 14c5 22be c271 1ebd
00000310: 22ce 463e 6d94 a2be bc55 60be c925 413e
00000320: 0b06 d43c 4df2 2e3e faa0 bb3e 80e5 77be
00000330: be2f 73bb 13f1 083e 09dd a9bd c26d cc3e
00000340: 2bd2 75bd ece0 e7be 7c27 eabd e0ce d23d
00000350: bf81 9ebd 508d 82be e93a b7bd 9057 563e
00000360: c3e1 833e ff69 edbd 1d36 96be 91f7 6d3e
00000370: 6d93 5cbc 789b 7d3e bb69 8f3e f170 993d
00000380: 4f4a c73e e2f0 7a3e 58de 15be 1131 823e
00000390: 7041 c4bd 64ec c8bd cf43 cb3b 3bb7 413e
000003a0: 516f 92bd a5cf 52be 89d8 cfbc aad4 bc3d
000003b0: 83cc e03c 434f 4f3d 50e6 ba3c 675c 803d
000003c0: d6f9 b8bc 6f59 00be ef67 a73e e318 383e
000003d0: f8f6 c6be e249 913e 2862 9b3e 93fb 8bbb
000003e0: f071 96be 7dbd c6be 1a1a 99be e378 b1bd
000003f0: 9e99 a93d a9f0 703e 1eee 9cbd 53b1 c9be

hidden.1.bias f4 [99]
0.030149272 -0.124540865 0.15013129 -0.2248312 0.013218964 -0.13888848 -0.040462326 0.006548253
0.033761434 -0.08858244 0.12497549 -0.26612374 0.048561253 0.035200678 0.123608 -0.22780782
-0.12616652 -0.23020037 -0.2521701 -0.19582829 0.23908864 0.033570826 0.09090948 -0.067962185
-0.06754166 0.15542871 -0.3243088 0.19599491 0.1278532 0.004066487 0.026593862 0.044439938
-0.090056114 -0.16568853 0.0030601693 -0.09352866 -0.23878227 -0.31661406 -0.017450081 0.31372988
0.20011 -0.3320527 0.049670737 0.3782138 -0.07758428 0.0708792 -0.10010954 0.20595743
0.081536464 -0.01352281 0.31942797 -0.072258316 0.337647 -0.25216138 0.0027351177 0.0702085
0.23089124 0.018842956 0.012345986 -0.055561792 -0.10964781 -0.12723239 0.16422023 -0.08667917
0.15362814 0.15919642 0.1250185 -0.1835191 0.055848017 -0.3052067 -0.3182467 -0.062135812
0.24906161 -0.39235198 0.00816819 -0.13218406 -0.036386356 -0.1680165 -0.32400927 -0.034049336
-0.096917346 -0.06264191 -0.27347767 -0.17445418 -0.06878152 -0.11643259 -0.4485117 -0.051687192
-0.13535596 -0.044720456 -0.037007883 0.25865605 -0.16601998 0.2108005 -0.33548975 0.15673104
0.17547397 -0.050415486 0.14718433
00000000: 9bfb f63c 480f ffbd 04bc 193e 263a 66be
00000010: 5b94 583c c838 0ebe d3bb 25bd ba92 d63b
00000020: 6e49 0a3d b66a b5bd 26f3 ff3d 5f41 88be
00000030: 2ae8 463d 962e 103d 3126 fd3d 7446 69be
00000040: cc31 01be a5b9 6bbe 701c 81be 3687 48be
00000050: a7d3 743e 9081 093d c02e ba3d c22f 8bbd
00000060: 4853 8abd b428 1f3e ce0b a6be e4b2 483e
00000070: f3eb 023e 2a40 853b 5fdb d93c a706 363d
00000080: 576f b8bd 41aa 29be 1f8d 483b f48b bfbd
00000090: 5783 74be 3d1b a2be 79f3 8ebc 34a1 a03e
000000a0: a3e9 4c3e d002 aabe 8b73 4b3d 3da5 c13e
000000b0: 82e4 9ebd 1d29 913d 3b06 cdbd 81e6 523e
000000c0: 97fc a63d c78e 5dbc 108c a33e 2bfc 93bd
000000d0: 11e0 ac3e 4c1b 81be a93f 333b 79c9 8f3d
000000e0: c16e 6c3e 8b5c 9a3c d246 4a3c c394 63bd
000000f0: 088f e0bd 3549 02be 5929 283e d984 b1bd
00000100: b250 1d3e 6304 233e da04 003e 6eec 3bbe
00000110: e4c0 643d 0d44 9cbe 3bf1 a2be 1f82 7ebd
00000120: 020a 7f3e 5ce2 c8be dfd3 053c 425b 07be
00000130: dc09 15bd 840c 2cbe 8be4 a5be 5177 0bbd
00000140: 9a7c c6bd 674a 80bd 4405 8cbe 1ea4 32be
00000150: 53dd 8cbd 3674 eebd 53a3 e5be f3b5 53bd
00000160: c19a 0abe cc2c 37bd 9495 17bd 916e 843e
00000170: 2401 2abe 16dc 573e 50c5 abbe 1a7e 203e
00000180: 73af 333e 7880 4ebd 7db7 163e

hidden.2.weight f4 [99, 99]
0.000578726 -0.16021775 0.19577616 0.020579465 0.1927224 0.15651944 0.17988676 0.046304714
0.1273258 0.16056253 -0.20808889 -0.23170827 -0.018160777 -0.07095825 -0.099037476 0.15056774
-0.44954094 0.04845456 -0.1533561 -1.2596233 0.03876821 0.015462726 0.17771716 0.13326748
-0.268076 0.10429766 -0.18100637 0.10438154 0.065469205 0.15545532 0.15602048 0.102195
0.22685547 0.018120762 0.3104607 0.06438338 -0.08489848 0.26587978 0.15518935 -0.00052605534
0.18192327 0.24507816 -0.071528874 0.15897371 0.08049599 -0.20999496 0.03565617 0.11577623
-0.15824561 0.25293007 0.050485622 -0.1523415 -0.15972719 0.011215079 -0.07928698 0.17757082
0.27682656 0.052508842 -0.037813637 -0.11529177 -0.040984858 -0.36264634 -0.009099605 -0.03989626
-0.24051297 -0.41489688 0.02612079 0.35833558 -0.2610128 0.04907957 -0.082643345 0.0121901
-0.11024096 0.028850084 -0.16064768 -0.12409309 0.231762 0.35095787 -0.1504864 0.26196095
-0.15262555 0.15691058 -0.24572894 -0.14116852 0.30078518 0.08483815 -0.10405342 -0.12447774
0.056740433 0.16041389 -0.30297142 -0.10326362 0.14341228 0.011241588 -0.22839741 0.299577
0.05492578 -0.17583813 0.01777743 -1.0680861 0.04671222 0.20227283 0.005769888 -0.03368611
0.08479538 -0.20253801 -0.0048004007 0.23710635 -0.2490063 0.20648447 0.33718312 -0.057680868
-0.007280058 0.081157126 -0.18158185 0.3790579 0.27546018 -0.79198974 0.39646134 0.14200988
0.25438303 0.26692295 -0.40011594 0.047514077 -0.45067447 0.22118881 -0.43598616 -0.36400113
0.008154212 0.28750202 -0.19544427 0.10343727 -0.14566842 -0.34530923 0.2900725 -0.26220196
-0.34352604 0.21402489 0.021623159 0.053202473 0.22048324 -0.015947461 0.28058648 -0.090725675
0.34092706 -0.5319879 -0.45674762 -0.073809035 0.18174186 -0.71944445 -0.16519201 -0.41709137
-0.32998824 -0.106133975 0.07058146 -0.17130917 0.4644519 0.1425856 -0.571074 0.18572626
-0.31948608 0.08210116 -0.008874807 0.31145614 0.018889835 0.15749544 0.2366029 -0.14899625
-0.0058661522 -0.16772021 -0.07092899 -0.4270495 0.18524007 0.10342035 -0.26057193 0.035167612
0.085252754 0.14725785 -0.23601834 0.24106342 0.09033333 0.22617343 -0.10787677 -1.0374677
0.013413893 0.39930424 0.28002593 -0.50126797 0.033508047 -0.032930624 -0.17896979 -0.22713205
0.38236123 -0.09384299 -0.11028636 0.15761024 0.02995659 0.1721267 -0.31522298 -0.09455817
0.04559878 0.0156655 0.3484485 -0.17881016 -0.65072167 -1.2249203 -1.4739525 -0.2475012
-0.2767444 -0.87782454 0.13869561 0.33820882 0.21049173 0.10763373 -0.5444983 0.23798148
0.42012522 0.82864606 -0.39798087 0.009892299 -0.58291227 0.27980602 0.23998007 -0.32869515
0.11512605 -0.43244946 0.23585029 -0.024676435 0.14350702 0.04712524 -0.41446343 -0.95745534
0.39929438 -0.8257936 -0.10740954 0.38092253 0.14456885 -0.5306239 -0.66185015 0.047561932
0.23101816 0.0071707726 -0.70999205 0.14076263 -0.2053865 0.06605205 0.53398585 -0.93517435
-0.3476431 0.1233498 0.17739658 -0.6397142 -0.008977519 -0.017182354 0.027379544 0.23282562
00000000: a5b5 173a 1f10 24be 8c79 483e 4496 a83c
00000010: 0559 453e a246 203e 3c34 383e 03aa 3d3d
00000020: b261 023e 816a 243e 4115 55be ef44 6dbe
00000030: e9c5 94bc 8f52 91bd 29d4 cabd 6e2e 1a3e
00000040: 3b2a e6be 4a78 463d 6209 1dbe 563b a1bf
00000050: 6acb 1e3d 6057 7d3c 7dfb 353e 4577 083e
00000060: 4241 89be 039a d53d bc59 39be fdc5 d53d
00000070: b814 863d ae2f 1f3e d5c3 1f3e 9d4b d13d
00000080: cd4c 683e fe71 943c b4f4 9e3e 6fdb 833d
00000090: 41df adbd 6521 883e f5e9 1e3e fae6 09ba
000000a0: 184a 3a3e c5f5 7a3e bb7d 92bd 01ca 223e
000000b0: 15db a43d eb08 57be 340c 123d 171c ed3d
000000c0: 230b 22be 0d80 813e 03ca 4e3d 69ff 1bbe
000000d0: 868f 23be 73bf 373c 3661 a2bd 20d5 353e
000000e0: 36bc 8d3e 8313 573d 79e2 1abd 171e ecbd
000000f0: bddf 27bd c8ac b9be 8216 15bc 436a 23bd
00000100: 0849 76be 5d6d d4be 44fb d53c c377 b73e
00000110: 78a3 85be a907 493d ea40 a9bd fcb8 473c
00000120: 03c6 e1bd 0357 ec3c d380 24be 8524 febd
00000130: 0553 6d3e c0b0 b33e 1b19 1abe bf1f 863e
00000140: df49 1cbe 2bad 203e 5ea0 7bbe 7b8e 10be
00000150: 8400 9a3e a0bf ad3d f619 d5bd 2fee febd
00000160: a868 683d 8a43 243e 121f 9bbe e07b d3bd
00000170: abda 123e a32e 383c 03e1 69be 2862 993e
00000180: dbf9 603d e90e 34be f9a1 913c 0cb7 88bf
00000190: 5055 3f3d 9c20 4f3e 5411 bd3b 72fa 09bd
000001a0: 33a9 ad3d 2066 4fbe ae4c 9dbb 02cc 723e
000001b0: 82fb 7ebe aa70 533e 44a3 ac3e c642 6cbd
000001c0: 8e8d eebb b535 a63d 98f0 39be e113 c23e
000001d0: 1e09 8d3e d7bf 4abf fbfc ca3e 0a6b 113e
000001e0: 7e3e 823e 20aa 883e ffdb ccbe 1f9e 423d
000001f0: cebe e6be 527f 623e 9439 dfbe 5b5e babe
00000200: 3e99 053c 7733 933e 8b22 48be ebd6 d33d
00000210: 1a2a 15be 5fcc b0be 6284 943e 563f 86be
00000220: a5e2 afbe 5729 5b3e 0d23 b13c d6ea 593d
00000230: 5cc6 613e 40a4 82bc 08a9 8f3e 62ce b9bd
00000240: fe8d ae3e 5c30 08bf d3da e9be 3129 97bd
00000250: 8a1a 3a3e 832d 38bf 1828 29be 008d d5be
00000260: 38f4 a8be c55c d9bd 038d 903d ac6b 2fbe
00000270: a4cc ed3e f601 123e e831 12bf 062f 3e3e
00000280: ae93 a3be a724 a83d a367 11bc 2e77 9f3e
00000290: dbbe 9a3c 7c46 213e 0848 723e 7992 18be
000002a0: da38 c0bb d9be 2bbe 3843 91bd 3ba6 dabe
000002b0: 93af 3d3e 0cce d33d af69 85be ea0b 103d
000002c0: ff98 ae3d c3ca 163e cbae 71be 54d9 763e
000002d0: ae00 b93d 029a 673e 7fee dcbd becb 84bf
000002e0: f2c5 5b3c 9b71 cc3e 8f5f 8f3e 1953 00bf
000002f0: bc3f 093d 43e2 06bd db43 37be 4e95 68be
00000300: dac4 c33e c130 c0bd d1dd e1bd 9464 213e
00000310: 8667 f53c fb41 303e e864 a1be b7a7 c1bd
00000320: c9c5 3a3d ef54 803c d767 b23e 031a 37be
00000330: b295 26bf 30ca 9cbf 7aaa bcbf f470 7dbe
00000340: 71b1 8dbe 1cb9 60bf 3906 0e3e b529 ad3e
00000350: 258b 573e 136f dc3d 3e64 0bbf 6bb1 733e
00000360: a71a d73e 2622 543f 26c4 cbbe 4f13 223c
00000370: bd39 15bf bc42 8f3e 56bd 753e bb4a a8be
00000380: 35c7 eb3d 046a ddbe bd82 713e 3c26 cabc
00000390: 81f3 123e 6506 413d 8d34 d4be cb1b 75bf
000003a0: 5070 cc3e 3667 53bf 88f9 dbbd 4708 c33e
000003b0: db09 143e f8d6 07bf 036f 29bf 4dd0 423d
000003c0: 0690 6c3e cdf8 ea3b 0ac2 35bf 1424 103e
000003d0: d750 52be 4c46 873d 4cb3 083f 9667 6fbf
000003e0: 47fe b1be d29e fc3d 73a7 353e 4fc4 23bf
000003f0: 7216 13bc 02c2 8cbc 114b e03c d769 6e3e

hidden.2.bias f4 [99]
-0.04593943 -0.05139294 -0.3434209 -0.07103564 -0.12992613 -0.3534468 -0.18734923 -0.018320244
-0.08681414 0.07515291 0.049160246 -0.001254485 -0.0468561 0.04626537 0.16009232 -0.37766755
0.004940699 -0.308119 -0.2643984 -0.03445769 -0.08666828 -0.05712679 -0.119441874 -0.37805098
-0.041599087 0.09348515 -0.10154999 0.27490363 0.01251042 -0.09621552 -0.17460647 -0.07586796
-0.17847793 -0.1489345 -0.13580815 -0.15336475 -0.27696332 0.26765242 -0.25696492 -0.021849817
0.3245543 0.039511815 0.06377665 0.19012102 -0.029737609 0.11618489 -0.0014041975 -0.039582375
0.23049007 -0.08565561 -0.043079298 0.19735295 -0.23126225 -0.17303196 -0.29060128 0.012967891
-0.22550881 0.26385617 -0.1703474 0.020759486 -0.21229033 0.009612438 -0.3107124 0.19716477
-0.23283575 -0.38478848 -0.041153103 -0.065138765 -0.34149042 0.19681114 0.2826698 0.028384456
-0.079583034 -0.24783234 -0.326593 -0.040777735 -0.08879669 0.48419866 -0.31513906 -0.07809067
-0.30942276 0.02845384 0.09862682 -0.014830838 0.00949156 0.35865188 -0.1712565 0.052997224
-0.07843398 -0.23494716 0.11092277 -0.106546745 -0.20092484 -0.0016240157 0.02936927 -0.4924485
0.27214134 -0.13399617 -0.07649196
00000000: fc2a 3cbd 6781 52bd ddd4 afbe 227b 91bd
00000010: 5b0b 05be fbf6 b4be 7ad8 3fbe 5614 96bc
00000020: 9dcb b1bd c5e9 993d 415c 493d 886d a4ba
00000030: 2fec 3fbd c280 3d3d 3eef 233e a45d c1be
00000040: 96e5 a13b c6c1 9dbe 3a5f 87be 8223 0dbd
00000050: 247f b1bd c8fd 69bd f19d f4bd e68f c1be
00000060: ce63 2abd 2475 bf3d 71f9 cfbd 2bc0 8c3e
00000070: 81f8 4c3c a40c c5bd 0acc 32be a960 9bbd
00000080: ebc2 36be 4982 18be 4b11 0bbe a60b 1dbe
00000090: 23ce 8dbe bd09 893e e890 83be 63fe b2bc
000000a0: fb2b a63e 24d7 213d 559d 823d 16af 423e
000000b0: 499c f3bc 58f2 ed3d 0d0d b8ba 2121 22bd
000000c0: 9705 6c3e 356c afbd eb73 30bd e416 4a3e
000000d0: 03d0 6cbe 4a2f 31be b1c9 94be 4777 543c
000000e0: c8eb 66be 2818 873e 8c6f 2ebe cc0f aa3c
000000f0: a362 59be 7d7d 1d3c b215 9fbe 90e5 493e
00000100: 7f6c 6ebe ff02 c5be 2890 28bd 7967 85bd
00000110: d5d7 aebe dc88 493e 19ba 903e 8586 e83c
00000120: 6efc a2bd c3c7 7dbe 3337 a7be 8e06 27bd
00000130: 0adb b5bd e3e8 f73e e859 a1be 00ee 9fbd
00000140: a96c 9ebe 0718 e93c dcfc c93d 0bfd 72bc
00000150: 7d82 1b3c 38a1 b73e dd5d 2fbe 9e13 593d
00000160: ffa1 a0bd fd95 70be 7a2b e33d 2e35 dabd
00000170: 3ebf 4dbe eddc d4ba d397 f03c 3622 fcbe
00000180: 1c56 8b3e 4b36 09be d1a7 9cbd

hidden.3.weight f4 [99, 99]
-0.038205598 -0.03982104 -0.058175765 0.030576866 -0.08382887 -0.11906305 -0.09535473 -0.061835162
-0.039116282 0.04202149 0.06115005 -0.13048403 -0.0026730795 -0.10026141 -0.009999908 -0.02663105
-0.08272038 0.01531475 -0.08474173 0.010468641 -0.010529429 -0.051023148 -0.009715294 -0.081893325
-0.09813317 -0.0420007 -0.015676346 -0.00084095565 0.064216964 0.0724681 -0.086494476 -0.11555584
-0.07423108 0.019396998 -0.07824139 0.007791007 0.010215581 -0.041166056 -0.06656726 0.03859675
-0.06730573 -0.10719046 -0.031752244 -2.0764866e-05 0.06335333 -0.035593573 -0.13135318 -0.021962373
-0.16073534 -0.06910682 -0.06317968 0.014605329 -0.021630948 -0.07218016 -0.10378052 -0.024595464
0.043831844 0.020016817 0.023952376 -0.045328837 -0.044738118 0.0070621083 0.06048024 0.00820026
-0.04742252 -0.10429639 -0.03831969 0.027195083 -0.12151256 -0.039796956 -0.07114998 -0.075674325
-0.03787604 -0.0050802827 -0.09469681 0.006821706 -0.057519276 -0.03536434 0.0009890422 -0.0958616
-0.016511222 0.043691166 0.04576411 -0.051239442 -0.09662941 -0.1144759 0.032346502 -0.10796317
-0.12199018 -0.033530004 0.047221415 -0.017123967 -0.039283827 -0.0323527 -0.046930663 -0.011075306
-0.00634797 0.02053481 0.054878935 0.18262197 -0.15696093 -0.0029676107 -0.088612854 -0.010566508
-0.05151744 0.6065075 0.09232711 -0.076786004 0.07269715 0.031964533 -0.26198578 0.36208692
0.42499474 0.06276106 0.34892088 -0.061380126 -0.16244996 -0.013788662 0.113912664 -0.41648343
0.58136255 -0.24459861 0.22230224 0.08345006 -0.4756709 0.22670092 -0.013176471 0.03287995
0.36310312 0.038617224 -0.15973331 0.0997923 -0.17468046 -0.0965917 0.40184698 0.18499887
-0.08318868 -0.0043382035 -0.7670105 0.1731522 -0.09817767 -0.3129288 0.10510398 0.07168829
-0.039516862 0.5590424 0.18409477 0.2808632 -0.103507 0.37779447 -0.26221573 -0.03145762
0.12657775 -0.42862514 0.09131024 0.28966677 -0.099617705 -0.34679043 0.006863719 0.121924974
-0.28258032 -0.84229136 -0.033859253 0.16759901 -0.29999942 -0.029408978 -0.22980505 0.26067296
-0.50829977 0.36764422 0.13373989 -0.02230691 0.040284324 -0.03938606 -0.07084705 -1.0251948
-0.08079694 0.09947699 -0.34956536 0.39443415 0.03289391 0.094133504 -1.9285209 0.023712445
0.4721565 -0.58872414 0.000378957 0.21060167 -0.41143093 -0.42747134 -0.28133518 -0.32499635
-0.40145567 0.06535172 0.2800587 -0.15538554 0.3322383 0.5088434 0.017574694 0.006046304
-0.017204981 -0.044789173 -0.1629079 0.07606864 0.57056445 -0.09914061 0.07232618 0.11545237
0.22659571 0.15427937 -0.08775919 0.5191869 -0.34657297 -0.9186418 0.10350139 -0.015312558
-0.2305714 -0.09442287 0.28355858 0.16290152 -0.07021024 -0.4212989 -0.16892451 0.37109113
0.0019662923 -0.09910774 0.19502424 0.20494092 -0.04131081 0.06083487 -0.36073726 0.3875903
0.14562833 -0.08442201 -0.36226794 -0.24673691 -0.14946613 -0.19885768 0.4662491 -0.46610153
-0.100276634 0.0069047897 0.002881647 -0.28853038 -0.12301873 -0.18714626 -0.47338876 -0.23565066
0.22279455 0.096808724 0.038989007 0.31826162 -0.9960207 0.08557196 -0.22233598 -0.21360575
00000000: 797d 1cbd 631b 23bd b649 6ebd 567c fa3c
00000010: 78ae abbd 54d7 f3bd 5749 c3bd de46 7dbd
00000020: 6538 20bd ba1e 2c3d 7a78 7a3d 9b9d 05be
00000030: d52e 2fbb db55 cdbd a7d6 23bc 5c29 dabc
00000040: 4d69 a9bd b8ea 7a3c 128d adbd aa84 2b3c
00000050: a083 2cbc a6fd 50bd e62c 1fbc b0b7 a7bd
00000060: 0bfa c8bd ed08 2cbd ae6b 80bc 9473 5cba
00000070: 2f84 833d 286a 943d 0424 b1bd 8aa8 ecbd
00000080: 7706 98bd 74e6 9e3c 063d a0bd b44b ff3b
00000090: 415f 273c bd9d 28bd 6a54 88bd a017 1e3d
000000a0: 96d7 89bd ac86 dbbd a40e 02bd 3630 aeb7
000000b0: 64bf 813d 91ca 11bd 7381 06be 6fea b3bc
000000c0: ce97 24be e087 8dbd 5964 81bd 314b 6f3c
000000d0: 6333 b1bc 31d3 93bd e28a d4bd 6d7c c9bc
000000e0: 0589 333d 4ffa a33c c637 c43c bbaa 39bd
000000f0: 513f 37bd 4269 e73b 21ba 773d 625a 063c
00000100: 1e3e 42bd 5999 d5bd 1bf5 1cbd 39c8 de3c
00000110: 94db f8bd 2202 23bd 15b7 91bd 24fb 9abd
00000120: e823 1bbd 8078 a6bb 67f0 c1bd 9e88 df3b
00000130: 5599 6bbd 33da 10bd c0a2 813a 1653 c4bd
00000140: 8b42 87bc 82f5 323d 2673 3b3d 73e0 51bd
00000150: a4e5 c5bd 5772 eabd c47d 043d cb1b ddbd
00000160: fdd5 f9bd c256 09bd 3e6b 413d 9047 8cbc
00000170: 14e8 20bd 4484 04bd 5e3a 40bd 3375 35bc
00000180: a202 d0bb 9e38 a83c bcc8 603d 4101 3b3e
00000190: 5eba 20be 3f7c 42bb a87a b5bd 261f 2dbc
000001a0: f303 53bd 1344 1b3f ff15 bd3d fb41 9dbd
000001b0: 3ee2 943d 3eed 023d 0023 86be 7563 b93e
000001c0: e998 d93e df88 803d c2a5 b23e ba69 7bbd
000001d0: 4859 26be d7e9 61bc 0b4b e93d 513d d5be
000001e0: 2dd4 143f 0f78 7abe 33a3 633e dde7 aa3d
000001f0: 238b f3be 4924 683e 20e2 57bc 20ad 063d
00000200: a7e8 b93e 182d 1e3d 2191 23be e85f cc3d
00000210: 6fdf 32be dfd1 c5bd e3be cd3e 5870 3d3e
00000220: d45e aabd 7d27 8ebb cd5a 44bf cf4e 313e
00000230: 6011 c9bd 3438 a0be c140 d73d 4fd1 923d
00000240: 6fdc 21bd 671d 0f3f 5783 3c3e 4dcd 8f3e
00000250: 7afb d3bd 476e c13e 2441 86be b5d9 00bd
00000260: 999d 013e c174 dbbe dd00 bb3d 344f 943e
00000270: 5e04 ccbd 848e b1be 0ce9 e03b cdb3 f93d
00000280: 5eae 90be 68a0 57bf 00b0 0abd 139f 2b3e
00000290: 8699 99be 19eb f0bc 0452 6bbe ed76 853e
000002a0: ef1f 02bf dd3b bc3e 1cf3 083e fbbc b6bc
000002b0: 2d01 253d 4753 21bd 4218 91bd 9539 83bf
000002c0: de78 a5bd 98ba cb3d 3bfa b2be 46f3 c93e
000002d0: c4bb 063d 11c9 c03d c6d9 f6bf 9a40 c23c
000002e0: 7fbe f13e a0b6 16bf bfae c639 f7a7 573e
000002f0: 13a7 d2be 86dd dabe 2a0b 90be ec65 a6be
00000300: 998b cdbe 1fd7 853d db63 8f3e 631d 1fbe
00000310: 231b aa3e 9043 023f cef8 8f3c 1320 c63b
00000320: 76f1 8cbc da74 37bd 54d1 26be e0c9 9b3d
00000330: 8310 123f 3b0a cbbd c01f 943d 4b72 ec3d
00000340: b508 683e 69fb 1d3e 17bb b3bd 6fe9 043f
00000350: 0372 b1be 1c2c 6bbf 89f8 d33d 86e1 7abc
00000360: e91a 6cbe c760 c1bd 972e 913e a8cf 263e
00000370: 63ca 8fbd 7db4 d7be 8cfa 2cbe a8ff bd3e
00000380: e9dc 003b 00f9 cabd 6fb4 473e 08dc 513e
00000390: 8635 29bd fc2d 793d 8eb2 b8be 3c72 c63e
000003a0: 981f 153e 72e5 acbd 2f7b b9be 9aa8 7cbe
000003b0: a60d 19be 59a1 4bbe 34b8 ee3e dca4 eebe
000003c0: d65d cdbd 9341 e23b 04da 3c3b 41ba 93be
000003d0: 3ef1 fbbd 45a3 3fbe 0360 f2be 684e 71be
000003e0: 4124 643e a743 c63d f0b2 1f3d 30f3 a23e
000003f0: 36fb 7ebf 5a40 af3d 0bac 63be 77bb 5abe

hidden.3.bias f4 [99]
0.008871416 -0.15478319 -0.031276513 0.19161218 -0.59370524 -0.13230163 -0.14195503 -0.3292392
-0.65768296 -0.03589554 -0.21140176 0.10870646 -0.3151549 0.43012175 -0.03139598 0.11366579
-0.020510625 -0.22250098 -0.4734522 -0.30101493 -0.22471282 -0.04840449 -0.20044264 0.30956697
-0.32128376 0.06865464 -0.04688935 0.04038411 -0.22341213 -0.8428077 -0.05950337 -0.050375868
-0.1677989 -0.3028105 -0.09926835 -0.4318312 -0.33425313 -0.279675 -0.04166063 -0.040971708
-0.636923 -0.67157 -0.019498216 -0.22857074 0.009316618 -0.24133143 -0.4489251 -0.050064657
-0.1019427 0.10467936 -0.2266332 0.34361595 -0.44805303 -0.17075835 -0.26352605 -0.06322851
-0.298787 -0.11349069 -0.24899745 0.37391832 0.029593019 -0.39137706 0.11453206 -0.040798534
-0.06012628 -0.49848828 0.07196676 -0.25763062 -0.04527856 -0.30866408 -0.114667386 0.4876951
0.0067370785 -0.29557982 0.13093944 -0.15737826 -0.5045625 -0.16008165 -0.33063102 -0.19052278
-0.15396214 -0.34029752 -0.4710051 -0.1225654 0.22883657 -0.295288 -0.040671308 -0.09699657
-0.028173141 -0.34476626 0.0009765538 -0.37030867 -0.03474589 -0.08233089 -0.019552985 0.02971954
-0.25420666 -0.058810316 0.18744254
00000000: 6a59 113c 7c7f 1ebe cd1b 00bd fc35 443e
00000010: 11fd 17bf 147a 07be a95c 11be 0a92 a8be
00000020: e95d 28bf 3407 13bd b479 58be 7ea1 de3d
00000030: fc5b a1be eb38 dc3e 1299 00bd 9cc9 e83d
00000040: e605 a8bc 4cd7 63be 5468 f2be a11e 9abe
00000050: 1e1b 66be c943 46bd d640 4dbe 907f 9e3e
00000060: 4e7f a4be ce9a 8c3d 0c0f 40bd cf69 253d
00000070: 26c6 64be 3fc2 57bf ceb9 73bd ed56 4ebd
00000080: 7ad3 2bbe fa09 9bbe 344d cbbd fb18 ddbe
00000090: 3a23 abbe 9031 8fbe 56a4 2abd f3d1 27bd
000000a0: 630d 23bf 03ec 2bbf b9ba 9fbc 730e 6abe
000000b0: baa4 183c 961f 77be 83d9 e5be 9910 4dbd
000000c0: 56c7 d0bd 2262 d63d 8912 68be 6eee af3e
000000d0: 3567 e5be 47db 2ebe e3ec 86be f37d 81bd
000000e0: 9cfa 98be cf6d e8bd 30f9 7ebe 3972 bf3e
000000f0: 0f6d f23c 9362 c8be c98f ea3d 5d1c 27bd
00000100: f946 76bd db39 ffbe 4f63 933d 29e8 83be
00000110: 0376 39bd 3809 9ebe bcd6 eabd 2cb3 f93e
00000120: b6c2 dc3b 3d56 97be fd14 063e c427 21be
00000130: 022b 01bf 72ec 23be 7848 a9be 6718 43be
00000140: 40a8 1dbe 7a3b aebe 9527 f1be 9203 fbbd
00000150: 2254 6a3e fd2f 97be f596 26bd 23a6 c6bd
00000160: 5ccb e6bc 3485 b0be 6bff 7f3a 1999 bdbe
00000170: b551 0ebd 199d a8bd 952d a0bc 6576 f33c
00000180: 6027 82be 16e3 70bd f0f0 3f3e

output_layer.weight f4 [49, 99]
0.12333435 -0.017958224 0.104559034 -0.0826712 0.008599712 0.10134226 0.16299859 0.113078006
0.24247278 0.41494924 0.056935094 0.123802744 -0.056532726 0.06422296 0.029082375 -0.15253839
0.40737703 0.03010783 -0.077482305 0.08671686 0.083006 -0.10463927 0.14316238 0.10817164
0.07787059 0.1833057 0.08346727 0.012014891 0.14003275 0.22142044 0.4206219 0.12491159
0.15291391 0.13638783 -0.07470266 0.17030506 -0.1392303 0.064661175 0.024576485 0.07585486
0.34471735 0.1846491 0.15039897 0.15346432 0.01546416 0.10914085 0.16595034 0.3171899
0.2031554 0.019110588 0.22339286 -0.01712603 0.15197441 0.0787245 0.17540906 0.15972766
0.15067469 0.1730916 0.20300117 0.010175322 0.12594494 0.040340405 -0.018793244 0.07461489
0.05066822 0.5552721 -0.015110476 0.25502783 0.030995274 0.17252982 -0.034642458 0.11463239
0.25498512 0.13851067 0.095269084 0.021573344 0.07888771 0.021617142 0.050959747 0.124518834
0.13552813 0.09924701 0.09295149 0.025481086 0.059487164 0.13207322 0.073451206 0.18687941
0.028111238 -0.009771071 0.071363345 0.16958822 -0.030117625 0.2009233 -0.045344945 0.11789457
0.22046997 0.114972636 0.074045405 0.09799932 0.12225241 0.007510125 0.027054409 0.18582927
0.25803939 -0.010694128 0.101670384 0.3747109 0.25168335 0.09974651 0.30393362 0.14596014
-0.095090896 0.06941665 0.020065555 -0.32856274 -0.030325878 0.06738504 0.43381143 0.029339824
-0.025265222 0.07428749 -0.02180856 -0.3584329 0.061478313 -0.117351264 0.031092456 -0.058578927
0.17732026 -0.020556614 0.34109664 0.1447118 0.18848583 -0.04474866 0.18245499 0.11716768
0.12533532 0.10178765 0.036099926 0.19515856 0.057284832 0.23374002 0.21268518 0.096710205
-0.011659832 0.15641181 0.30124098 0.23276593 0.23481362 0.18581457 0.3042288 0.07372785
-0.019258296 0.068207316 0.07687671 0.10483098 0.1298003 0.17642626 0.34006754 -0.09866082
0.1340068 0.081940755 0.19907096 0.103547536 0.12935913 -0.023210946 0.22428775 -0.013023009
-0.027671916 0.10012144 -0.0722809 -0.06908096 0.21332698 0.3940516 0.028380921 0.3287213
0.12540059 -0.09232093 0.04393987 0.07620846 0.2707238 0.12107114 0.25933498 0.1604979
0.19780724 0.0472318 0.039301798 0.095960476 0.1971597 0.17511131 0.2708647 0.16545758
0.17503399 0.06309409 0.21157077 0.28830755 0.081075266 -0.031507708 -0.028233055 0.30682087
-0.0027431024 0.14247428 0.08199747 0.23198605 -0.006868805 0.099536695 0.27867144 0.019372258
-0.3867886 -0.1774996 0.028945068 -0.15109386 0.36716378 0.044535454 -0.26104856 0.28491962
-0.008901842 0.8231954 -0.28600928 -0.08450302 0.027322628 0.17312291 0.25468636 0.5233464
-0.021937052 0.20944329 0.09506849 0.181045 0.21958394 0.20421861 0.045972306 -0.029867768
-0.0020810214 0.118259534 0.13495503 0.0034973635 0.11918434 0.04883724 0.2295034 0.091290474
0.08376311 0.39657363 -0.043708965 -0.012706516 -0.03156893 -0.028750446 -0.030958932 0.28792387
0.25386494 -0.11463546 0.26164323 -0.11442136 0.09381719 0.28703618 0.25471795 -0.086007245
00000000: b896 fc3d 201d 93bc 0c23 d63d 854f a9bd
00000010: cee5 0c3c 888c cf3d 1ae9 263e 7195 e73d
00000020: c94a 783e 3a74 d43e c634 693d 4b8c fd3d
00000030: dc8e 67bd 5487 833d 293e ee3c 0633 1cbe
00000040: b993 d03e b2a4 f63c 0baf 9ebd 9c98 b13d
00000050: 0dff a93d 1d4d d6bd 2999 123e 1889 dd3d
00000060: 9e7a 9f3d 7db4 3b3e e3f0 aa3d 1bda 443c
00000070: bf64 0f3e 0abc 623e c15b d73e a6d1 ff3d
00000080: 7795 1c3e 40a9 0b3e b5fd 98bd 7364 2e3e
00000090: 6392 0ebe 146d 843d a054 c93c cb59 9b3d
000000a0: cb7e b03e a714 3d3e 3002 1a3e c025 1d3e
000000b0: 635d 7d3c 3d85 df3d e3ee 293e b766 a23e
000000c0: f807 503e cf8d 9c3c 19c1 643e e34b 8cbc
000000d0: 2e9f 1b3e 503a a13d 6f9e 333e a68f 233e
000000e0: 774a 1a3e ed3e 313e 8adf 4f3e 65b6 263c
000000f0: b6f7 003e fb3b 253d 4af4 99bc b1cf 983d
00000100: 7b89 4f3d 5026 0e3f ee91 77bc 0293 823e
00000110: cde9 fd3c a8ab 303e 40e5 0dbd 63c4 ea3d
00000120: 698d 823e bed5 0d3e 701c c33d 95ba b03c
00000130: e18f a13d 6f16 b13c 2bbb 503d bb03 ff3d
00000140: e3c7 0a3e 0442 cb3d 5a5d be3d b6bd d03c
00000150: d0a8 733d 343e 073e 966d 963d 515d 3f3e
00000160: 8a49 e63c d816 20bc f226 923d 89a8 2d3e
00000170: 3db9 f6bc d6be 4d3e 9fbb 39bd b572 f13d
00000180: e1c2 613e c676 eb3d 1ea5 973d deb3 c83d
00000190: 795f fa3d 7f17 f63b 35a1 dd3c 074a 3e3e
000001a0: bd1d 843e 6d36 2fbc 9038 d03d 1bda bf3e
000001b0: a4dc 803e e647 cc3d 309d 9b3e 9376 153e
000001c0: 04bf c2bd 512a 8e3d 8560 a43c 6039 a8be
000001d0: fa6d f8bc 2b01 8a3d 881c de3e 125a f03c
000001e0: 03f9 cebc 0a24 983d dda7 b2bc 8484 b7be
000001f0: afd0 7b3d dc55 f0bd 9bb5 fe3c 75f0 6fbd
00000200: 7193 353e 5866 a8bc 38a4 ae3e 552f 143e
00000210: 6e02 413e 5f4a 37bd 7bd5 3a3e 9cf5 ef3d
00000220: e757 003e 0b76 d03d 84dd 133d a5d7 473e
00000230: 80a3 6a3d 8b59 6f3e 25ca 593e 0010 c63d
00000240: e108 3fbc 6b2a 203e 423c 9a3e 315a 6e3e
00000250: fb72 703e 2d46 3e3e e1c3 9b3e a1fe 963d
00000260: 93c3 9dbc 47b0 8b3d 8971 9d3d a0b1 d63d
00000270: 5fea 043e 16a9 343e 551d ae3e af0e cabd
00000280: 1439 093e 8ed0 a73d 42d9 4b3e bb10 d43d
00000290: b876 043e e224 bebc b0ab 653e 755e 55bc
000002a0: 37b0 e2bc 780c cd3d 0208 94bd 517a 8dbd
000002b0: 6372 5a3e 22c1 c93e 1b7f e83c 294e a83e
000002c0: 0369 003e c112 bdbd 4bfa 333d 2e13 9c3d
000002d0: 4f9c 8a3e 25f4 f73d 8ec7 843e 9059 243e
000002e0: fb8d 4a3e 2276 413d ecfa 203d ed86 c43d
000002f0: 3be4 493e 6150 333e c7ae 8a3e b66d 293e
00000300: 1c3c 333e 7937 813d 02a6 583e 0c9d 933e
00000310: ca0a a63d 3a0e 01bd 0249 e7bc a017 9d3e
00000320: 9fc5 33bb c7e4 113e 4aee a73d c08d 6d3e
00000330: b613 e1bb e5d9 cb3d 06ae 8e3e 92b2 9e3c
00000340: 2809 c6be 75c2 35be 351e ed3c 59b8 1abe
00000350: e4fc bb3e cf6a 363d 28a8 85be fce0 913e
00000360: 08d9 11bc efbc 523f cf6f 92be eb0f adbd
00000370: b4d3 df3c 2247 313e 4066 823e 08fa 053f
00000380: 55b5 b3bc 4d78 563e 45b3 c23d dc63 393e
00000390: 9dda 603e af1e 513e 754d 3c3d 40ad f4bc
000003a0: bf61 08bb 0e32 f23d a731 0a3e 0634 653b
000003b0: eb16 f43d 8f09 483d f002 6b3e 80f6 ba3d
000003c0: fe8b ab3d b30b cb3e 2c08 33bd fe2e 50bc
000003d0: 6c4e 01bd 0e86 ebbc 969d fdbc c26a 933e
000003e0: 96fa 813e ffc5 eabd 1af6 853e bf55 eabd
000003f0: 3a23 c03d 68f6 923e 646a 823e 9124 b0bd
