models/7x7-4-99-relu/350episodes.pth (torch, 202354 bytes, 12 tensors)

input_layer.weight f4 [99, 50]
000000 41 1a 14 3f c4 c6 36 3d 95 87 04 be 3a ee 88 bd
       0.5785256 0.04462315 -0.12942345 -0.06686063
000010 f2 b7 0a be 5d 0c 3a 3d b4 6d 6a be c3 95 9f be
       -0.13546732 0.045421947 -0.22893411 -0.31168947
000020 9f ef 9d 3e 14 00 98 bd 03 33 d9 bd 08 c5 0e 3e
       0.3084688 -0.0742189 -0.10605433 0.13942349
000030 69 c6 64 3e 93 0e 83 be 42 3d 67 3e a4 b3 f6 bd
       0.22341312 -0.25597057 0.22581962 -0.120459825
000040 5a 7e d1 be 55 f1 0c bd 75 c2 8a be 12 85 ca 3b
       -0.4091671 -0.03440984 -0.27101484 0.006180414
000050 77 d2 cc 3e 00 c2 7f 3d 31 21 c6 3d c9 4b 2f 3e
       0.40004322 0.062440872 0.096742995 0.17118753
000060 30 80 9a 3e 32 c4 c1 be f9 5d 9f 3d 53 d6 88 be
       0.30175924 -0.37844998 0.07781596 -0.26726016
000070 5f 4b c1 3d 11 13 8c 3d 0d ad 73 3e 31 ac ac be
       0.09438204 0.06839574 0.23796482 -0.33725122
000080 29 22 c0 3d d8 ac 8b 3e 39 e5 39 3d a3 4c 4e 3e
       0.093815155 0.27280307 0.04538462 0.20146422
000090 8c 49 80 be df c7 14 3e a7 88 ea bd 6c 87 e1 3c
       -0.25056112 0.1452937 -0.114518456 0.027530394
0000a0 fa 0e ff 3e 1f c3 f0 3e d1 62 c0 3c d3 ad 8a bd
       0.49816114 0.47023866 0.02348462 -0.067714356
0000b0 c7 78 db 3e c8 8a 25 be 34 77 c2 3e ee 6b 71 3e
       0.42865583 -0.16166222 0.3798157 0.23576328
0000c0 8e 58 d8 bc 9b 30 4e bd 08 cf ab bd 6c 65 33 3e
       -0.026409414 -0.050339323 -0.083890975 0.17519158
0000d0 33 76 93 be b3 b3 08 be fb c7 92 be eb 06 da bd
       -0.28801116 -0.133498 -0.28668198 -0.10645851
0000e0 67 87 a4 3e 95 4c c5 3d e5 a6 d6 3e 63 21 f6 3e
       0.32134554 0.096337475 0.41924205 0.48072347
0000f0 92 fb c2 be 0d f8 cc 3d 12 29 c5 3d 80 f7 84 be
       -0.38082558 0.100082494 0.09626974 -0.25970078
000100 52 1d 36 bd 2c ff ae bc 0b 3f b7 3e 55 5f 90 bd
       -0.044461556 -0.02136191 0.35790285 -0.07049433
000110 6a e9 38 be 51 6f 21 3d 57 30 d0 3e fa f8 9f be
       -0.1805779 0.0394128 0.4066188 -0.31244642
000120 e5 a7 0a bf 4e 50 6b be 43 a4 f7 bd 84 1e 98 bd
       -0.54162437 -0.22979853 -0.12091877 -0.074276954
000130 8c 3c 6d 3c df c5 00 bd a2 c7 c7 3e b7 e1 4a be
       0.0144797675 -0.031438705 0.39019495 -0.19812666
000140 c4 cd d6 be dc 89 e6 3d a0 5e 17 bb 22 a3 b9 3d
       -0.41953862 0.11256763 -0.0023097172 0.09064318
000150 75 8e 28 bd dd 13 a3 3d a8 e6 04 3e 3d a7 46 3d
       -0.041151483 0.07962773 0.12978613 0.048499335
000160 07 dc 37 be 45 cc b5 3e 16 7f b3 bd 36 b4 c2 be
       -0.17955028 0.35507408 -0.08764474 -0.38028115
000170 9f 14 57 3e e2 be ac be e2 08 8d bd e0 b0 27 3d
       0.2100396 -0.33739382 -0.0688646 0.040940166
000180 55 fb 2d 3d 74 7f 16 be 4f 41 e6 3e 0a 6d 61 3d
       0.042476017 -0.14697057 0.44971702 0.05503563
000190 aa 68 2d 3f ba a3 ae 3e 8d f9 53 be 56 12 58 3e
       0.6773783 0.34109288 -0.20700665 0.21100745
0001a0 0f d4 fb be 8d 0c 35 be 8e e0 b2 bd 8a f1 e8 be
       -0.49185225 -0.17680569 -0.08734237 -0.4549678
0001b0 2c 86 9d 3d fa e1 db 3c f0 49 11 be fd 25 25 bd
       0.07691607 0.026841152 -0.14188361 -0.04031943
0001c0 47 75 d6 bc 75 92 b5 3e 60 78 14 3e 2f 49 b2 3e
       -0.02617897 0.354633 0.14499044 0.3482146
0001d0 a0 a5 7c be c3 7a 1f 3d 4d 9a 1f bd 0b 4f 89 3e
       -0.24672556 0.038935434 -0.038965512 0.26818117
0001e0 5b 07 4b 3e 6a 6d 80 be ab b3 28 bf bd 9b 52 3d
       0.19827025 -0.25083476 -0.6589915 0.051418055
0001f0 b4 6e a2 bd b0 80 d0 bc f8 ab 3f bd 65 87 0b 3d
       -0.07931271 -0.025451988 -0.04679486 0.03406467
000200 fe 3c a3 3b 6e 52 82 3d 0d 78 03 3e db 4a a3 3e
       0.004981636 0.063633785 0.12838764 0.31893048
000210 17 cf b0 be 76 f9 ce 3d 5d d6 bb 3e 4b b2 66 3e
       -0.34532997 0.10106175 0.36686984 0.22528951
000220 72 8e 29 3e 56 f3 08 be 7a b7 22 be 14 2b d8 bd
       0.16558245 -0.13374075 -0.15890303 -0.105550915
000230 64 0a 6c 3c ed 83 5a 3d 91 92 9c be 91 45 70 3e
       0.014406774 0.05334847 -0.3058057 0.23464037
000240 4e fe 0b 3f fb f5 4c 3f 09 d9 a2 bd 97 e4 52 3d
       0.54684913 0.80062836 -0.079515524 0.05148753
000250 ea a0 f1 3b 2c ff 80 3c 09 d9 98 3e c3 58 39 bd
       0.007373919 0.015746675 0.29853085 -0.045250665
000260 42 80 82 be 86 65 95 bd 63 06 4c be 56 e5 58 3d
       -0.25488478 -0.07294755 -0.19924311 0.052953087
000270 9d e0 92 bd 2e 00 11 be c9 3d c6 3d 34 5b 5b be
       -0.07171748 -0.14160225 0.09679753 -0.2142151
000280 29 62 86 3e 7d b9 70 be 8e d9 c1 bc 6c 39 b4 3e
       0.26246765 -0.23508258 -0.023663308 0.3520006
000290 cd ca 92 3d 58 ca 52 3e 60 41 fd 3e ae 43 63 3e
       0.071675874 0.20585 0.4946394 0.22193787
0002a0 2b 7b dc 3d 9b bc 31 bc a7 ed ad be 02 43 dc be
       0.1076568 -0.01084819 -0.33970377 -0.43019873
0002b0 69 4a f6 bb b7 3e 22 3e 45 21 73 bd 67 ae e7 bc
       -0.0075161946 0.15844236 -0.0593579 -0.028281404
0002c0 0e 42 21 be d2 d4 59 3e 9c 17 08 3e e1 4e 10 3e
       -0.15747854 0.21272591 0.13290256 0.1409259
0002d0 9c 0c 59 be 09 96 bb 3d 71 25 dc 3d a7 16 bf bd
       -0.21196216 0.09159476 0.10749329 -0.093304925
0002e0 29 06 c0 bd 75 5a 47 3e 24 9c a1 3e 9f 6a a6 3e
       -0.09376175 0.194681 0.31564438 0.3250322
0002f0 e7 aa d9 bd 84 9d 08 3e 61 7e 8d 3e ec 0b 99 be
       -0.106283 0.13341337 0.27635482 -0.29891908
000300 77 0e b0 3d 5e ac f5 3e 8a 92 ec 3e e8 98 1f 3e
       0.08596509 0.47983068 0.4620555 0.15585673
000310 3d 1d 7b 3e ef 92 70 3d 5f 37 2a be 9c c2 a4 bd
       0.24522872 0.058733877 -0.16622685 -0.08044931
000320 81 32 e7 bd cc 28 75 bc 69 1d 30 3e be c5 b4 bd
       -0.1128893 -0.01496334 0.17198719 -0.08826779
000330 d1 66 03 bf 84 c3 78 bd 1e 26 8c be a2 78 83 3e
       -0.5132876 -0.060733333 -0.2737283 0.25677973
000340 ff ca b0 3c c9 ce 29 be 1f f7 cc 3c 11 fe 3f be
       0.021581171 -0.16582789 0.02502018 -0.18749262
000350 01 bf 94 be ee ff f8 bd c3 07 8a 3e 11 95 8e be
       -0.29051974 -0.1215819 0.26959047 -0.27848104
000360 1e 35 01 3d 20 dd de 3d 48 c3 48 3e 3d 34 a3 be
       0.031544797 0.1088202 0.19605744 -0.31875792
000370 9c a9 9e 3e 4a e4 cc be 46 1b 78 3e 62 58 cb bd
       0.30988777 -0.4001792 0.24229154 -0.09928967
000380 bb fc 52 bd 0b 29 d5 bc 80 58 ce 3d 1f 43 40 3e
       -0.051510554 -0.026020547 0.10075474 0.18775605
000390 78 a4 9a be d9 2f 6d bd 26 45 3d be 16 cc b8 bc
       -0.30203605 -0.05790696 -0.1848341 -0.022558253
0003a0 d5 bf bb 3e 89 45 12 3d 26 4b c5 be b3 82 74 3d
       0.36669794 0.035710845 -0.38533896 0.059694957
0003b0 95 5f 37 be 83 d3 9d bd 1f 80 97 3e 5e 47 87 bd
       -0.17907555 -0.07706358 0.29589936 -0.06605409
0003c0 63 7e 64 3e 1b d7 eb bb 43 9e 7d 3e 73 e5 6e 3e
       0.22313838 -0.0071972734 0.24767403 0.23329715
0003d0 12 60 86 3e f1 db f0 bd 82 b2 bb be a5 7d 0a be
       0.2624517 -0.117607005 -0.36659628 -0.13524492
0003e0 c9 03 2e bf aa cc 51 3e ea ca 88 be bd 60 cb bc
       -0.67974526 0.2048823 -0.2671731 -0.024826402
0003f0 b2 d6 a7 3e f2 e0 bf be e8 61 b9 3c c0 21 b3 bd
       0.32780987 -0.37476307 0.022629693 -0.08746672

input_layer.bias f4 [99]
000000 d0 e9 1a be 7f fb 4e be 00 24 ca 3a c8 44 ac bb
       -0.15128255 -0.20213126 0.0015422106 -0.005257223
000010 a5 a0 3d bd 6c 41 6f bd 37 ef 9c 3e 7b 73 37 3e
       -0.04629578 -0.058412 0.30651256 0.17915146
000020 ca a0 d4 3d 18 bb bd 3e 13 18 e6 bc 6d 6d 9d 3d
       0.103822306 0.37056804 -0.028087651 0.07686887
000030 4b 41 52 bc 08 fe 08 3c 0e 1b 95 3d 00 17 15 be
       -0.01283295 0.008361347 0.07280551 -0.14559555
000040 ec 3d 4f bd 0c d1 d6 bd f6 74 fc 3c 22 e5 18 3d
       -0.050596163 -0.10489091 0.03081749 0.037327893
000050 49 6b dd bc 3b 5f 66 be 04 63 98 bd bc e5 20 3c
       -0.027028697 -0.22497265 -0.07440761 0.009820398
000060 5d 70 14 be 6c d8 53 bd d1 3e 63 3c 28 e2 10 be
       -0.14495988 -0.051720068 0.013869957 -0.14148772
000070 bf 77 79 3e 40 3d 8f 3e 55 d9 9b 3c 13 67 98 bc
       0.24362086 0.27976418 0.01902453 -0.018603837
000080 30 26 65 bd b8 10 e0 3d 41 51 70 3e bd 3a 4d bd
       -0.05594462 0.10940689 0.23468496 -0.050104845
000090 96 39 7b 3d 49 14 b1 bd 2e fb 00 3d ff 37 a3 be
       0.061334215 -0.08646447 0.031489544 -0.3187866
0000a0 53 ea bb bd 87 f2 ee 3d d3 87 69 3c 87 63 eb 3d
       -0.09175553 0.11667352 0.014253574 0.11493593
0000b0 1c 8b 1a 3d 80 e5 5d be a9 64 0a 3d 69 1a 4a bd
       0.03773032 -0.21669579 0.033787403 -0.049341593
0000c0 01 1d 23 3b 7d a3 88 3c 73 3d 68 be 77 19 a2 bd
       0.0024889114 0.01667952 -0.22679691 -0.07915013
0000d0 35 55 46 3e ea 13 46 3e 3c 76 86 bd 8a c1 82 3e
       0.19368441 0.19343534 -0.0656552 0.25538284
0000e0 2f c5 ba 3d 30 78 83 be b8 99 4b be d6 c6 a6 bd
       0.09119641 -0.25677633 -0.19882858 -0.08143394
0000f0 2d 02 94 39 b3 cc 10 bd 6e 1e b9 be 6a de e4 3b
       0.0002823038 -0.035351466 -0.36156029 0.0069845216
000100 e6 c2 b1 bc 39 84 d0 bd 04 d1 80 bd b4 9a 6e bd
       -0.02169938 -0.101814695 -0.062898666 -0.058253005
000110 7c 41 51 be 62 27 88 ba 0c e1 25 be a1 b2 5a 3e
       -0.20435137 -0.0010387714 -0.1619913 0.21357204
000120 18 65 1a 3e de 47 db bd 7c de 98 3d f7 4f 88 bd
       0.15077627 -0.10707067 0.074643105 -0.06655877
000130 6e 3a 13 3e ce a5 e2 3e b6 aa aa be 62 ab ce bd
       0.14377758 0.44267124 -0.33333367 -0.100912824
000140 a1 a7 fb 3d 26 1e cf 3d f8 8b b5 3d c6 e6 a0 bd
       0.12287832 0.10113172 0.088645875 -0.078565165
000150 b6 e5 39 3d 4a 22 25 3e 54 1e c3 bc 59 e1 65 3e
       0.045385085 0.16126361 -0.023818173 0.22449245
000160 e6 53 a2 bc 73 86 13 be 10 75 b4 bc 99 7d be 3c
       -0.019815397 -0.14406757 -0.022028476 0.023253249
000170 fe cb e9 bd f9 33 02 3d c0 34 a8 3b 26 0f 79 3e
       -0.114158615 0.031787846 0.0051332414 0.24322185
000180 ab 11 23 be 21 c8 ae 3d 89 be ec 3d
       -0.15924709 0.08534265 0.11559779

hidden.0.weight f4 [99, 99]
000000 d5 a9 d6 3c 6e cd 66 3c d4 78 e7 ba 4a 6a a6 3d
       0.02620403 0.014087064 -0.0017659911 0.08125742
000010 6b d8 d3 3c ce ca 11 be fa 9b 39 3e 42 7f 8c bd
       0.025860032 -0.1423752 0.18125907 -0.0686021
000020 8f 43 1c be 10 5b 89 3e d0 6b bc 3b 78 f0 22 3e
       -0.15260147 0.26827288 0.005750157 0.15912044
000030 79 a7 bd 3d 28 91 50 3e 5b 88 d1 3c 84 ea cb bd
       0.092604585 0.20367873 0.025577715 -0.0995684
000040 03 d9 3f 3e 27 63 f3 3d 15 4a ce 3e f8 4d bc be
       0.18735127 0.11884146 0.40290895 -0.36778235
000050 d9 b5 7f bc 6e 0d 25 be 8f c1 cf 3d cd fa 1f 3d
       -0.015607321 -0.16118404 0.1014434 0.03905754
000060 d2 c5 19 be b5 13 7e 3c 8b 9e 75 3e c2 cd ab be
       -0.15016869 0.015507628 0.2398626 -0.33555418
000070 46 19 7e 3e 61 9e c5 3c 86 be 8d 3e 09 25 86 be
       0.24814329 0.024123373 0.2768442 -0.2620013
000080 82 24 bb be c1 0f 3f 3e aa 72 0b 3e 13 65 8e be
       -0.3655129 0.18658353 0.1361796 -0.27811489
000090 65 c3 66 3d 75 4c 2b bd fc fc 88 3c 28 29 d3 bd
       0.056338686 -0.041820962 0.016722195 -0.10310584
0000a0 55 e3 d3 be 57 78 21 be 89 87 de 3d 64 3e 94 be
       -0.41384378 -0.15768562 0.10865695 -0.2895385
0000b0 41 ef 69 bd 8f ee 64 be b5 a2 01 3a e1 ee 2f be
       -0.057112936 -0.22356628 0.0004945205 -0.17180969
0000c0 79 ef ab bc d1 6d fd 3d f7 22 b0 be d0 b8 a7 bd
       -0.020988213 0.123744614 -0.34401676 -0.08189547
0000d0 e8 0f 0c 3e 96 d1 87 3d ca 9a 00 bf e8 24 22 be
       0.13677943 0.06631772 -0.5023619 -0.15834391
0000e0 ab 07 32 3e d5 b6 ad 3c 47 34 af be 89 4f e9 3d
       0.17385738 0.021205345 -0.34219572 0.11392123
0000f0 8a 2a 97 3d c8 c0 26 3e 6f 25 9b bd e1 8a 1b 3d
       0.073811606 0.16284478 -0.07575499 0.037974242
000100 60 d6 4f 3e fa 4d 42 3d 32 a6 0d be 00 14 64 be
       0.20296621 0.047437645 -0.1383293 -0.22273254
000110 f0 c9 7c 3e 82 3c 17 3d 6f e4 f1 bd 59 e5 e9 3e
       0.24686408 0.03692294 -0.118111484 0.4568279
000120 f6 1a 82 3e 33 7a 97 bd cf f4 53 be 96 88 de be
       0.25411195 -0.073963545 -0.20698856 -0.43463582
000130 d0 4a 9a bc 7d a6 91 bd 31 39 13 3e 94 45 24 bc
       -0.018834502 -0.07111833 0.14377286 -0.010026354
000140 7a 11 e8 3d 44 dd 09 be 03 60 b9 3e ba 95 fc 3d
       0.113314584 -0.13463312 0.36206064 0.123332456
000150 0e 2d 3c 3e b8 55 b7 bb 82 b0 8c 3d c2 ef 2f 3e
       0.18376562 -0.0055949353 0.06869604 0.17181304
000160 6a a7 af bd c3 74 29 3d 6b 2a f1 bd 1c 79 b3 3e
       -0.085768536 0.04137112 -0.11775669 0.35053337
000170 0a dd 7e be 71 ad cf be d2 51 50 be 29 9e 76 3e
       -0.24889007 -0.40562013 -0.20343712 0.24083771
000180 8a 19 ab 3e 89 e7 de 3c 40 df 75 be 54 8b db be
       0.33417922 0.027210014 -0.24010944 -0.42879736
000190 02 be 62 3e 17 30 8a 3e aa 2f 19 3f bd c9 b7 bd
       0.22142795 0.26989815 0.59838355 -0.089740254
0001a0 82 24 99 3d a5 15 36 be f6 70 c1 bd 92 c3 be 3d
       0.074776664 -0.17781694 -0.09445374 0.09314646
0001b0 cf 30 95 be 4e bd 6e be 61 00 ad bd bb 07 43 bc
       -0.291388 -0.23314402 -0.08447338 -0.011903699
0001c0 57 64 00 3e ef 19 8e 3e 4b b9 27 3e 18 7a c8 bd
       0.12538277 0.2775416 0.16379277 -0.097889125
0001d0 d1 fe 5f be 66 16 da be 2d 3a 85 3e da 1d af 3d
       -0.21874548 -0.42595214 0.26020947 0.085506156
0001e0 29 0c ac bd 7a 8a ca 3d 3e 3b c6 3e ca ae 1e be
       -0.08400757 0.098896936 0.38717073 -0.15496364
0001f0 51 3c 25 3e c8 15 c6 bd cc c7 86 be a5 c4 08 bf
       0.1613629 -0.09672123 -0.26324308 -0.53425056
000200 cc f1 9c 3e 25 55 03 bf e7 05 a4 be 83 1d a3 3e
       0.30653226 -0.51301795 -0.32035753 0.31858453
000210 4e d2 40 be 1b 6b 19 3e 8c 42 66 3e 0c 54 aa bd
       -0.18830225 0.14982264 0.22486323 -0.08316812
000220 be 03 88 3e f5 11 60 be b9 4c c9 bd df 31 e8 be
       0.26565355 -0.2188185 -0.09829087 -0.4535055
000230 39 c3 13 3e c4 28 f1 bc c8 0a 9d 3d d5 2c 44 3e
       0.1442994 -0.029438384 0.07668072 0.19157727
000240 c0 30 8b bd 7f 3c 6f 3d 29 70 75 3e 1a c0 eb 3e
       -0.06796408 0.058407303 0.23968567 0.46045
000250 1f 03 25 3d 42 9f 03 3e 0b 1a 6e be 2b ac e7 3b
       0.04028618 0.12853721 -0.23252122 0.0070700846
000260 9b 40 13 be 2c 22 85 be b3 47 be 3c c0 f8 44 be
       -0.14380114 -0.26002634 0.023227548 -0.19235516
000270 df 01 8f 3e 09 b4 16 3f fd 8d b7 3c 38 5d ed bb
       0.27931115 0.5886846 0.022406572 -0.0072437786
000280 cb 6c b7 3a 3f d0 2d be 9f b8 84 3e 6c b0 d6 bd
       0.0013994215 -0.16973971 0.25922105 -0.104828686
000290 e4 92 f6 bd 69 f8 53 3e 64 18 d7 3c 07 88 81 3e
       -0.12039736 0.2070023 0.026256748 0.25299093
0002a0 68 69 63 be 82 14 4d 3e b6 b9 12 be 5a 53 52 bd
       -0.22208178 0.20027354 -0.14328656 -0.05134902
0002b0 2d b5 61 3e 3e 8c d4 be 9e 3a 84 3e c5 f2 4f 3e
       0.2204177 -0.41513246 0.2582597 0.20307453
0002c0 a1 6f 03 3e 76 4e 31 bd b4 40 31 3e 55 23 1b 3e
       0.12835552 -0.043287717 0.17309839 0.15150197
0002d0 07 5a c7 bc c3 63 cd bd 03 e5 d4 be fe 04 b6 3d
       -0.02433492 -0.10028794 -0.41580972 0.08887671
0002e0 49 60 ed be 6a 03 ab 3b 19 b7 04 bf e3 ed 26 be
       -0.46362522 0.005218913 -0.51841885 -0.16301684
0002f0 93 be 23 be 90 ee 07 be b6 ff d3 bd 27 e5 68 3e
       -0.15990667 -0.13274598 -0.10351507 0.22743665
000300 68 f1 68 3c 8d 2e 05 be 8e 28 c9 bd e2 27 9a 3c
       0.014217712 -0.13006039 -0.09822188 0.018817846
000310 23 22 47 be f2 cf 03 bf 40 c8 54 bd 9d 52 87 3e
       -0.19446616 -0.51489174 -0.051948786 0.26430216
000320 3a af 2d be 91 a9 5f 3e 88 e1 57 bd f1 45 72 bd
       -0.16961375 0.21842028 -0.052705318 -0.059148733
000330 b5 10 96 be ba 44 f1 bd 03 88 77 3e 79 98 1d bf
       -0.2930962 -0.11780687 0.24172978 -0.6156078
000340 11 94 a6 3e a7 61 0d bf 52 5f e6 3d 2e 7c 9d 3d
       0.3253484 -0.5522713 0.1124865 0.07689701
000350 a9 a0 d4 3d 5f 7e b2 bd 97 fd 9a 3c 66 0b ff 3d
       0.10382206 -0.087155096 0.01891975 0.12453346
000360 e1 96 ff bd 7f f3 9c 3e d4 2e c4 bd 35 18 58 be
       -0.1247995 0.30654523 -0.09579244 -0.21102984
000370 de 86 70 bd 20 e9 95 3e ac 5f 0d 3f 40 1b b9 bd
       -0.05872237 0.29279423 0.5522411 -0.09038401
000380 e9 2a 1b bd cc 20 91 be 95 2b ea bd d4 6f bc 3d
       -0.03788272 -0.28345335 -0.11434094 0.09201017
000390 8e 2c 90 be fb c7 ad be d3 5f fe bd a0 20 7e 3e
       -0.28158993 -0.33941635 -0.12420621 0.24817133
0003a0 61 6f a8 be d3 78 8e 3c 1c 03 97 3e 68 ce 92 3e
       -0.32897475 0.017391598 0.2949456 0.286731
0003b0 b7 09 8f 3d e5 bd aa bd 2d 2e d3 3e f5 dd 9c 3d
       0.06984275 -0.08337001 0.41246167 0.076595224
0003c0 ab b4 74 be 74 8d c5 bd cb 6a 3e 3e bb 16 31 be
       -0.23897044 -0.09646121 0.18595426 -0.17293827
0003d0 b9 1f 7a be 8c d1 05 be f9 58 c3 bc 64 2d c0 3e
       -0.24426164 -0.13068217 -0.023846136 0.3753463
0003e0 4e 1c 18 be 6c a7 70 3e 76 c1 bb 3b fe 12 65 be
       -0.14854547 0.23501366 0.0057298495 -0.22370526
0003f0 b2 d5 8d be 03 68 1a 3e 21 0c 28 bd e1 7b 75 3e
       -0.277021 0.1507874 -0.041027192 0.23973037

hidden.0.bias f4 [99]
000000 f8 a5 33 3d 4b 6d 21 be be d5 5c bd 33 89 97 be
       0.043859452 -0.15764348 -0.053914778 -0.29596862
000010 58 f3 80 bd 4e 12 b7 bc 9d e8 e9 be 02 ae 16 bd
       -0.06296414 -0.022347596 -0.45685282 -0.03678704
000020 7a 0e 02 3e bf 1e fd be b1 14 49 3d 5c c7 cb 3d
       0.12700835 -0.4943752 0.049092 0.09950134
000030 87 74 67 be ec e3 20 3e 95 93 05 3e aa b4 05 3e
       -0.22603045 0.15711945 0.1304458 0.13057199
000040 e0 24 42 be e1 ad 40 be 62 b1 4a be 51 fd 01 3e
       -0.18959379 -0.1881633 -0.19794229 0.12694289
000050 74 ea 2a bd a8 5d 9a 3d f7 1a 58 be 3f b0 b7 be
       -0.0417275 0.07537395 -0.21104036 -0.35876653
000060 27 17 95 be 26 77 a0 bd 63 c2 8f be 9b 34 00 3d
       -0.29119226 -0.07835226 -0.28077993 0.03130017
000070 a9 4a 4b be 3c 0f d2 3d b9 f6 b4 bd 8c 93 7a be
       -0.198527 0.10256812 -0.08836121 -0.24470347
000080 e0 47 b6 bd 6f 68 91 bc 7c 87 38 be d7 7e a1 3d
       -0.08900428 -0.017749993 -0.18020433 0.07885521
000090 7e c8 97 bd 91 2a 92 3d ce 55 cb bd a7 46 85 be
       -0.07411288 0.07137025 -0.09928475 -0.26030466
0000a0 c3 4a f5 bd c5 4a 5a bc 30 0b ff 3d 38 8a ee bc
       -0.1197715 -0.0133234905 0.12453306 -0.029118642
0000b0 22 c8 9d be a5 61 13 be 4d 0e 29 be c5 81 d4 3e
       -0.30816752 -0.14392717 -0.16509362 0.41505256
0000c0 d5 6b c9 3d 12 a2 8c bd d1 7d 49 bd 96 66 30 be
       0.098350205 -0.0686685 -0.049192254 -0.17226633
0000d0 ed 3c ef bd ab a5 1e 3e 3d 3d ce be e7 ca 74 3e
       -0.116815425 0.15492885 -0.40281096 0.23905526
0000e0 3b 18 b8 bd f8 74 73 be be 7d 08 be ee ff 2a be
       -0.089889966 -0.23775089 -0.13329217 -0.16699192
0000f0 71 fa b1 bd ac 3b e0 bd 93 f8 7d be 23 83 5a be
       -0.08690346 -0.109488815 -0.24801855 -0.21339087
000100 0d 46 93 be 26 1c b9 ba fc 3d c4 bd 44 30 9f 3d
       -0.28764382 -0.0014122769 -0.09582135 0.07772878
000110 4f 3d ad be 71 ec e9 3d 55 ab db 3d ab e4 79 be
       -0.33835837 0.11422051 0.10726038 -0.24403636
000120 ad b6 a8 be 6b c9 1e bd d1 ea 3d be 66 57 0a be
       -0.3295187 -0.038766306 -0.18546607 -0.13509902
000130 13 db c4 be da f9 b9 3d c0 fc 3d be c4 d7 45 bd
       -0.3844839 0.090808585 -0.18553448 -0.048301473
000140 fa 61 a0 bc 70 32 59 be 2f f6 75 bd ef 9c 26 bf
       -0.019577969 -0.21210647 -0.060049232 -0.6508321
000150 6b 4d 0d 3e f3 6c 24 3d a0 a0 87 ba 87 86 a6 bb
       0.13799064 0.040142965 -0.0010347553 -0.005081955
000160 1a 70 ba bd 49 67 fe b9 bd 7e f2 bd f5 b2 8f bc
       -0.09103413 -0.0004852361 -0.1184058 -0.017541388
000170 b2 52 e0 bc d4 34 c8 bd 7b 3c c2 be 39 0a b1 3d
       -0.027383182 -0.09775701 -0.37936768 0.08644528
000180 c5 c1 28 3b 4a 4e b6 be 0f 9b 48 bd
       0.0025750261 -0.35606605 -0.048976

hidden.1.weight f4 [99, 99]
000000 32 ab 0a bd c3 e1 60 3e 81 67 52 bd b3 a9 19 be
       -0.03385467 0.21961121 -0.05136824 -0.15006141
000010 aa 21 98 3d 46 70 c2 bf 2d 0c 71 bd 3f 03 b6 3e
       0.07428296 -1.5190513 -0.058849502 0.35549352
000020 db 78 84 3e 44 81 29 3e dd f8 b5 be 41 4c 88 3e
       0.25873455 0.16553217 -0.3554143 0.26620677
000030 ed eb 36 3e 30 23 9e 3d d7 fc 0d 3d a0 bd 44 bf
       0.17863436 0.07721555 0.034664955 -0.76851845
000040 49 ac 50 be 3f 44 c0 3c 5b 74 cd be 3a 64 d1 3e
       -0.20378222 0.023470042 -0.40127835 0.4089678
000050 a5 e9 89 bd b7 3a b2 be cd c8 68 be a9 e6 dd be
       -0.06734017 -0.3481042 -0.2273285 -0.43340042
000060 3b 41 25 bc 4f f3 b8 be b6 3b cd 3d a7 33 b1 3e
       -0.010086353 -0.3612313 0.100211546 0.3460972
000070 1a 2c 0c bf f8 13 b7 be 14 ae 06 bf f9 73 72 3e
       -0.54754794 -0.35757422 -0.5260937 0.23677053
000080 5c f3 49 bd 78 ba 8c be 37 d5 07 bf c6 b1 a5 bf
       -0.04930435 -0.27486014 -0.53059715 -1.2944877
000090 13 26 fa 3e 8c 58 7b be 29 5f 3f 3e 6a ea 02 3e
       0.48857173 -0.24545497 0.18688644 0.12784734
0000a0 b7 48 55 3f 40 a7 06 be b4 80 1c 3e 48 a0 06 3e
       0.8331408 -0.13149738 0.15283471 0.1314708
0000b0 7b 15 b9 3d f9 15 09 bf 3e 6c 4e be db 12 8e 3e
       0.090373 -0.5354915 -0.20158479 0.2774876
0000c0 e1 ff 8a bd 87 3d e2 bf 4f f2 14 3e 76 b2 79 bd
       -0.06787086 -1.7675027 0.14545558 -0.06096121
0000d0 b0 cc 8e be 69 c1 6d 3d f4 94 a4 3e 16 f6 53 be
       -0.2789054 0.05804578 0.32144892 -0.20699343
0000e0 81 24 01 3e ef fb 80 be 89 dd 25 3e ff b2 43 3e
       0.12611581 -0.2519221 0.1619779 0.1911125
0000f0 06 c5 56 bd c1 c3 20 bf 16 9c 87 3d 57 81 fa 3d
       -0.05243399 -0.62798697 0.06621568 0.12231701
000100 86 79 56 be 69 45 96 be 68 d0 00 3e 40 c8 e0 bf
       -0.20944795 -0.2934983 0.125795 -1.7561111
000110 02 5e 04 3e 1b ca 98 bb 15 89 73 bd 0d 66 e7 3e
       0.12926486 -0.0046627647 -0.059456903 0.45195046
000120 ee 04 24 bf 5b 48 8e be 2a b8 db be 45 4c 38 bf
       -0.6407002 -0.27789578 -0.42913944 -0.7199138
000130 72 77 ff 3d 0d 89 8f bd 46 9b 15 3d 4f 79 d1 bd
       0.12473954 -0.07008562 0.036525033 -0.10228216
000140 ed 16 e1 be 9d 2b b0 3b 45 47 a6 3e 02 a2 1c bf
       -0.43962803 0.005376293 0.3247625 -0.61184704
000150 ab 7d 04 3e 5d 74 ec 3e 77 a8 2c 3e 11 7f c0 be
       0.12938564 0.46182528 0.16861139 -0.37596944
000160 6d f1 d2 be b2 db f1 bd f8 68 17 3d b8 d2 bc 3e
       -0.41199818 -0.11809482 0.03696534 0.36879516
000170 23 03 cb 3e d9 1f 9d 3e 3a 19 8a bf e0 7e ba 3e
       0.3965083 0.3068836 -1.0788949 0.36424923
000180 d4 26 da be 6b 2e 08 bf a3 e6 95 be 1c 0d 33 be
       -0.42607749 -0.5319583 -0.29277524 -0.1748547
000190 4a af 6c 3e a6 74 87 be 13 41 91 3e b3 be 84 3e
       0.23113742 -0.26456183 0.2836996 0.25926742
0001a0 fd 1e 62 3e 78 b4 00 3e 82 10 ee 3c 56 3a 6c 3e
       0.22082134 0.12568843 0.029060606 0.23069128
0001b0 ec 35 6a 3e ee c2 51 be ab c9 a0 be 5d cc 3c be
       0.22872132 -0.20484516 -0.3140386 -0.18437333
0001c0 3a 99 36 be 41 49 c8 3e 1e 56 9a 3d 2c 8f 67 be
       -0.17831889 0.39118388 0.07535957 -0.2261321
0001d0 4c 83 99 3e 24 8e 8c 3e 52 cd eb bd da 84 9e 3e
       0.29982984 0.27452195 -0.11513771 0.30960733
0001e0 6f c3 00 3d 94 19 ad 3e a9 21 83 3d 42 dc 6f 3e
       0.03143638 0.33808577 0.064029045 0.23423865
0001f0 8d bc 29 be 90 eb 56 be 3b d3 5b 3e e8 27 9c bd
       -0.16575833 -0.20988297 0.21467297 -0.07624799
000200 82 c4 92 be 5d 51 38 3e 52 e5 a3 be c0 75 20 be
       -0.2866555 0.17999788 -0.32010895 -0.15669918
000210 c4 d3 b0 3e f5 d2 b1 3e 40 bc 22 bc c0 66 0f be
       0.34536564 0.3473126 -0.009932578 -0.1400404
000220 49 b0 2b 3e a1 d4 24 3d d8 48 18 be c7 ff fd bd
       0.16766466 0.04024184 -0.14871538 -0.12402301
000230 4e b0 c9 3e c2 d7 eb bd 41 33 16 bd e4 39 c2 be
       0.39392322 -0.11515762 -0.036669973 -0.37934792
000240 8a e5 e1 3d 44 59 88 3e 59 4c 1f 3e 8c 19 ae 3e
       0.11030109 0.26630604 0.15556468 0.34003866
000250 b5 53 df 3c b6 85 45 3e 5e a4 32 bf 51 a9 da 3d
       0.027261594 0.19289288 -0.69782054 0.10676826
000260 88 04 4b bf 42 62 e3 3c ba b3 95 bd 79 84 2b 3e
       -0.7930379 0.027756814 -0.07309671 0.16749753
000270 52 db 4f 3e d3 b2 21 bf f5 7a 32 be 74 a6 77 be
       0.20298508 -0.6316349 -0.17429717 -0.2418459
000280 32 cd 9d bd 9c a7 f8 bd 63 c2 9e bd 28 5a b4 be
       -0.077051535 -0.12141344 -0.0775192 -0.35225034
000290 b2 4a 01 3e 17 24 fa 3d ef b9 44 bd fe 2e 38 bd
       0.1262615 0.12213915 -0.048028883 -0.04496669
0002a0 c3 dc b7 3d a0 80 8f be 48 07 cd 3e 37 3b 41 be
       0.08977654 -0.2802782 0.40044618 -0.18870245
0002b0 82 85 88 be 9e b9 90 bf ac c6 ad 3d 66 27 70 be
       -0.26664358 -1.1306646 0.08485159 -0.2345253
0002c0 5f cb a7 bd 9c 9c 38 be a6 b3 cc 3d a2 af 14 b9
       -0.08193087 -0.18028492 0.09995203 -0.00014179808
0002d0 ef 5c 00 be 19 e4 a6 be 3d fa a7 bd eb 0f 9b 3d
       -0.12535451 -0.325959 -0.08202026 0.075713955
0002e0 15 be 1a 3e 6f 42 0b 3d 03 c0 68 3d 69 f1 91 be
       0.15111573 0.033998903 0.05682374 -0.28504494
0002f0 70 34 c5 bd 78 df 77 be 4e 23 af be cd 2a 6e bc
       -0.09629142 -0.2420634 -0.34206623 -0.014536572
000300 5b 86 8a bf a7 de bb 3e 8f 23 b3 3d ef 8f 38 be
       -1.0822252 0.36693308 0.08747017 -0.18023656
000310 41 99 56 3e 61 f1 1c bf bd a3 69 be 34 50 48 3e
       0.20956899 -0.61305815 -0.22816367 0.19561845
000320 f4 5b 0d 3d c9 64 80 3e b3 bd cc 3e 1d d1 b6 be
       0.03451152 0.25076893 0.3998848 -0.35706416
000330 66 78 74 bc 80 14 72 3d 44 a7 e7 bd fb 46 aa 3e
       -0.014921283 0.05910158 -0.113112 0.3325728
000340 d4 a1 c4 bd 5f 4e cd be 15 95 dd bd 66 75 5c 3d
       -0.09601179 -0.40098855 -0.10819451 0.053822897
000350 8a 12 e7 bc a3 d4 92 be a3 00 ad bd b5 f4 0a 3e
       -0.028207082 -0.28677854 -0.08447387 0.13569911
000360 ab 61 9a 3e ef c3 2c be b3 01 9d be fb 41 59 3e
       0.3015264 -0.16871618 -0.3066536 0.21216576
000370 2c 00 8f 3d 80 a3 36 3e 26 36 a4 3e 05 03 45 3d
       0.06982455 0.17835808 0.32072562 0.048098583
000380 8c 41 e0 3e 6d b7 54 3e 09 8b 92 bd f1 ff b5 3e
       0.43800008 0.20773096 -0.07155425 0.3554683
000390 28 2e 48 be be fc 62 bd a1 96 3f 3c b0 3f 2b 3e
       -0.19548857 -0.055416815 0.011693628 0.16723514
0003a0 bf e0 59 3d d2 73 86 be d2 be 04 be e6 d9 eb 3d
       0.05319285 -0.2626024 -0.12963417 0.1151617
0003b0 a9 ae a5 bb 61 a8 84 bd 56 b8 05 bd c7 b8 b8 3d
       -0.0050562215 -0.06477428 -0.0326465 0.090196185
0003c0 1d f8 ed ba 6f 24 0a be 2a 40 96 3e 13 ca 0a 3e
       -0.0018155609 -0.13490461 0.29345828 0.13553648
0003d0 2b b6 c4 be 1b 23 cf 3e 2b 2f 95 3e 9d f7 2c 3e
       -0.38420233 0.4045647 0.2913755 0.16891332
0003e0 84 28 b0 be 36 08 d1 be 84 69 8d be ea 12 2c bd
       -0.3440591 -0.40826577 -0.27619565 -0.042010225
0003f0 0a 56 92 b9 e3 61 5d 3e 70 54 4e be 0b 8e b6 be
       -0.00027911394 0.21619372 -0.20149398 -0.35655245

hidden.1.bias f4 [99]
000000 6a 88 0a be d8 03 34 be b5 28 52 3e 25 f9 41 be
       -0.135286 -0.17579591 0.20523341 -0.18942697
000010 b6 5f c4 3c c4 4a a7 be db bd a2 bd 8f 41 c6 bd
       0.02397142 -0.3267423 -0.07946368 -0.09680473
000020 cc ef 36 bd f8 58 09 be 44 89 39 3e bf d6 81 be
       -0.044662282 -0.13412845 0.18118769 -0.2535915
000030 d2 34 fa 3d 9b a0 20 3d 3e f5 2d 3e 9f 69 5e be
       0.12217106 0.039215665 0.16988084 -0.21719979
000040 12 63 b1 bd df 1b b9 be e5 9c d9 be ef 84 a2 be
       -0.08661474 -0.36154076 -0.42502514 -0.31742045
000050 91 49 6a 3e 72 b1 b5 3d ea b9 d8 3d 1c 9b 98 3c
       0.22879626 0.08871736 0.10582335 0.01862865
000060 8d 6e 2d bd 5b ea 6e 3e 34 04 d7 be 32 7d 61 3e
       -0.042341758 0.23331587 -0.41995394 0.22020414
000070 38 4f 2a 3e 4b 2e 85 3d 5c bf 77 bd d2 f4 75 3e
       0.16631782 0.0650297 -0.06048523 0.24019173
000080 8e 33 d0 bd f3 1d 7c be 9c a0 b2 3c 18 14 11 be
       -0.10166083 -0.246208 0.0218051 -0.14167821
000090 15 05 a1 be b8 20 f8 be 92 da 95 bc 06 29 7a 3e
       -0.3144919 -0.48462462 -0.018292699 0.24429712
0000a0 aa 01 c9 3d d8 6a 14 bf 54 da 6c 3d 83 e1 68 3e
       0.098147705 -0.5797553 0.0578254 0.22742276
0000b0 1c 92 40 be 1f 4f f6 bd b0 be 23 bd f0 0c d1 3d
       -0.18805736 -0.1202681 -0.039976776 0.10207546
0000c0 da e9 ad bc 4b 08 db 3b f4 8d 56 3e a6 e5 4c be
       -0.021229673 0.006684338 0.20952588 -0.20009479
0000d0 07 e6 af 3e cc 1d 27 be 6f 4f e8 bc 0d ce da bc
       0.34355184 -0.1631996 -0.02835819 -0.02670958
0000e0 eb 0f c3 3e dc 5f 3e 3d 04 4e 04 be 65 3b 4a be
       0.38098082 0.046478137 -0.12920386 -0.1974922
0000f0 55 65 3e be f7 fe ad bd bd c8 97 3e 08 5c 60 be
       -0.18593343 -0.08495896 0.2964534 -0.21910107
000100 dc c3 3f 3e f4 c3 6f 3e b1 39 13 3e 73 43 93 be
       0.18727058 0.23414594 0.14377476 -0.28762397
000110 ec 13 3d bc 83 2d b4 be 6e bb f6 be 3c f0 9c be
       -0.011540394 -0.35190973 -0.48189873 -0.30652034
000120 cf 88 88 3e 0f 67 c5 be ae c9 9a bd 32 65 be be
       0.26666877 -0.3855519 -0.075579986 -0.3718658
000130 23 8e 3e 3d a5 46 2b be c3 ac 95 be ef d3 64 bc
       0.04652227 -0.16726168 -0.2923337 -0.0139665445
000140 fb d8 a4 bd 40 45 1d bd 36 9f bc be ce f4 97 be
       -0.08049198 -0.03839612 -0.36840218 -0.2967896
000150 64 67 11 be 36 74 ee bd 83 b8 33 bf 71 4e 6a bd
       -0.14199597 -0.11643259 -0.7020342 -0.057203714
000160 58 d2 42 be 59 01 88 3c ff f8 99 bd 49 78 a4 3d
       -0.19025552 0.016602205 -0.07518195 0.08030755
000170 62 bf be be 6e b4 e8 3d 2d 68 b6 be 19 ae 8e 3e
       -0.37255388 0.11362539 -0.35626355 0.278672
000180 91 ca 25 3d 67 12 9e bd 77 e6 1e 3e
       0.040476386 -0.07718354 0.15517603

hidden.2.weight f4 [99, 99]
000000 ef a1 1c 3b ea db e2 bd 5e 38 8b 3e 51 28 6c 3d
       0.002390023 -0.110771015 0.27191442 0.057655636
000010 88 e1 82 3e 4a c4 7b 3e 4a 46 f1 3d 79 f6 50 3d
       0.25562692 0.24586597 0.11780985 0.051016305
000020 c1 4e 02 3e 41 0f 0c 3e d5 51 27 be c1 05 cb bd
       0.12725355 0.13677694 -0.1633981 -0.09913207
000030 4a d7 fb 3b 42 c7 6c be 69 d1 3f 3c 3f 8f 56 3e
       0.0076855766 -0.23122886 0.011707642 0.20953082
000040 65 41 c9 be 3b dc 39 bd 03 86 c4 be e5 f0 c7 bf
       -0.39307705 -0.045376044 -0.38383493 -1.562039
000050 89 c2 cd 3d db 08 9d 3d b2 87 e7 3d 49 51 42 3e
       0.1004687 0.07667705 0.11305179 0.1897632
000060 f4 a1 6f be f6 73 44 3e 7c 21 17 be 2e 40 37 3e
       -0.23401624 0.1918486 -0.14758867 0.17895576
000070 f1 18 16 3d a2 d8 41 3e f0 ca 1d 3e 83 d9 fb 3d
       0.03664488 0.18930295 0.15409446 0.122973464
000080 b8 e2 09 3e 0f aa 84 3d 29 ee 96 3e 20 c7 1b 3e
       0.13465393 0.064777486 0.29478577 0.15212679
000090 08 79 30 be 17 46 83 3e 05 15 66 3e c9 c8 01 bd
       -0.1723367 0.25639412 0.22468956 -0.031685624
0000a0 38 0e 17 3e 95 59 ff 3d a0 36 8d bd bf 83 96 3d
       0.14751518 0.12468258 -0.068951845 0.07349347
0000b0 dc 61 01 3d ff d4 9f be 91 e2 81 3d 72 66 19 3d
       0.031587467 -0.3121719 0.06342042 0.037451215
0000c0 9f 84 2a be 5e bd 9f 3e 91 a2 0f 3d 83 c2 00 be
       -0.16652153 0.31199163 0.035067145 -0.125742
0000d0 dd fb d3 bd ca ae 31 be 55 30 42 bd 31 b9 0a 3e
       -0.103507735 -0.17351833 -0.047409374 0.13547207
0000e0 8f b0 c9 3e 90 6c 05 3e 1e d3 e0 3b 29 69 95 bd
       0.39392516 0.13029695 0.0068611046 -0.07295448
0000f0 d6 b6 88 bd 30 3c a3 be f0 43 47 3d 93 cb 88 bd
       -0.06675498 -0.31881857 0.048648775 -0.06679454
000100 8f 4b b9 be 6e b9 d2 be 44 8b d7 bb bc ce df 3e
       -0.3619046 -0.41157097 -0.006577881 0.43712413
000110 5f fb 79 be 77 f9 0d 3e 48 b3 fb bd 49 6a 0f 3b
       -0.24412297 0.13864695 -0.122900546 0.002188342
000120 20 bf b3 bd 46 36 f5 3c 4e 36 54 be d5 64 56 be
       -0.087766886 0.029933106 -0.2072384 -0.20936902
000130 5d b9 66 3e 35 b7 99 3e 83 e6 2b be aa 87 77 3e
       0.22531648 0.30022588 -0.16787152 0.24172845
000140 6f 11 43 be db 2a 8a bc 93 67 2a be f6 d0 2f be
       -0.19049619 -0.016866138 -0.16641073 -0.17169556
000150 4c 6c 88 3e a0 bf ad 3d a6 56 49 be 7b b9 15 be
       0.26645124 0.08483815 -0.1966196 -0.14621536
000160 7a 42 9a 3d c7 be 6f 3e 44 d0 73 be af d3 0a be
       0.07532211 0.2341262 -0.23809916 -0.13557313
000170 37 0c 78 3e fd 0b b0 bd d6 bb 31 be 55 2d 80 3e
       0.2422341 -0.085960366 -0.1735681 0.25034586
000180 f2 ab 8e bd 21 6b 6a be f8 9f 29 3d 0b 82 29 c0
       -0.0696639 -0.22892429 0.041412324 -2.6485622
000190 96 77 2b 3d a8 c5 a1 3e 95 b2 71 3d d0 00 3d 3c
       0.041862093 0.31596112 0.0590082 0.011535838
0001a0 e0 4c 0f 3e 47 76 0c be ff 02 06 3e 1c 30 34 3e
       0.13994169 -0.13716994 0.1308708 0.17596477
0001b0 e3 1e a4 be 80 43 2d 3e 0d d0 86 3e 9f c0 36 bd
       -0.32054815 0.1692028 0.26330605 -0.04461729
0001c0 1d b6 f8 3c 5a fe 95 3e ce 7d c5 bd f8 0a 12 3f
       0.030360276 0.29295617 -0.09643136 0.57047987
0001d0 f1 60 85 3e 70 f5 6c bf 53 09 ca 3e 3e a2 19 3e
       0.26050523 -0.9256201 0.3946024 0.15003297
0001e0 d4 3e 5f 3e 94 f9 4c 3e 18 b7 1e bf 92 14 d4 3d
       0.21801311 0.20017081 -0.6199813 0.10355486
0001f0 c4 b6 e3 be f2 9d 99 3e e5 a6 81 be 34 b5 24 be
       -0.44475377 0.30003315 -0.25322643 -0.16084749
000200 dc 88 07 bc f2 6f dd 3b bd d5 60 be ea 31 80 3c
       -0.008272376 0.0067577297 -0.21956535 0.0156488
000210 75 fa 53 be bc 70 38 bf 46 de a5 3e 99 54 4a be
       -0.2070101 -0.7204702 0.32396144 -0.19758834
000220 39 bd d4 be b3 ef a4 3c ba 9d b2 bd 78 a1 bd 3d
       -0.41550615 0.020133829 -0.0872149 0.09259313
000230 aa a2 3f 3e 40 33 91 be a4 1f 88 3e e9 e9 8c bd
       0.18714395 -0.28359413 0.2658664 -0.06880552
000240 b9 ec 30 3e 25 2d 1e bf ff 94 06 bf 46 50 1a be
       0.17277803 -0.61787635 -0.525711 -0.15069684
000250 0e 30 89 3e 03 14 12 bf c6 21 71 be 93 8d c0 be
       0.26794475 -0.57061785 -0.2354804 -0.37608013
000260 73 05 a2 be dd bf 12 bc 73 ef a1 3d 9a eb 6d be
       -0.31644782 -0.008956877 0.079069994 -0.23234406
000270 3e 7f 14 3f 5c 56 12 3e 6d aa f8 be c8 c3 01 3e
       0.58006656 0.14290756 -0.48567525 0.12672341
000280 ed 6b 8e be 0f 6b b7 3d 9e 16 ab 3b 25 76 b8 3e
       -0.27816716 0.08955967 0.005221202 0.36027637
000290 9a 8f 52 3e d4 59 8e 3e 25 a6 1e 3e 1f 9f 3c be
       0.20562592 0.27802908 0.15493067 -0.18420075
0002a0 22 69 37 3c 7f 06 4c be e0 e7 56 be de 75 dd be
       0.011194499 -0.19924353 -0.20986891 -0.43253988
0002b0 1c d1 a3 3e bf 2a 16 3e b4 d6 dd be 1b c2 2c 3e
       0.31995475 0.14664744 -0.43327868 0.1687092
0002c0 e6 f5 08 3e 85 6f f3 3d a5 47 b6 bd ae 7f 4a 3e
       0.13375053 0.11886505 -0.08900384 0.19775268
0002d0 74 78 16 3d a5 43 64 3e 77 4e 31 bd 5e de 90 bf
       0.036735967 0.2229143 -0.04328772 -1.1317861
0002e0 f2 c5 5b 3c d8 de f3 3e c6 66 1e 3e 3b ec 0f bf
       0.013413893 0.47630954 0.15468892 -0.56219834
0002f0 21 35 9d 3d d6 27 72 bd 3d 17 8c bd 93 e1 8e be
       0.07676149 -0.05912002 -0.0684037 -0.27906474
000300 93 fa d4 3e a1 e4 cf bd eb 87 a1 3a 43 0c 4b 3e
       0.41597423 -0.101510294 0.0012323832 0.19828896
000310 16 d5 e1 3d e1 c4 3d 3e 3b 3f 93 be cc 46 80 be
       0.11026971 0.18532135 -0.2875918 -0.25054014
000320 48 c4 dc 3e 10 63 b6 3d 61 87 e3 3e c9 ad d5 be
       0.431185 0.089056134 0.44439223 -0.4173415
000330 72 6d 21 bf 1a cc 91 bf dc 9d c3 bf 5a 29 07 be
       -0.63057625 -1.1390412 -1.528255 -0.13199368
000340 b2 80 39 be dd e1 ca bf 71 02 13 3e 8f 34 be 3e
       -0.181155 -1.5850178 0.143564 0.37149474
000350 a0 49 a6 3e 0d 2e 14 3d 1c be 6d bf d9 3e d3 3e
       0.32478046 0.03617673 -0.9286821 0.41258886
000360 24 fa b7 3d 55 95 18 bf 05 a0 7f 3d 25 85 86 bd
       0.089832574 -0.5960286 0.062408466 -0.06568364
000370 91 43 fb be 17 e1 f4 3e c5 63 6e 3e af 0e a8 be
       -0.49074987 0.4782798 0.23280247 -0.32823703
000380 58 d7 31 be 8e a0 47 be cc 98 48 3e 00 a1 88 bd
       -0.17367303 -0.1949484 0.19589537 -0.06671333
000390 3c 8e 8e 3e 74 ce df 3c ff ad 02 be 3c c3 34 bf
       0.2784289 0.027320124 -0.12761687 -0.70610404
0003a0 92 45 ce 3e c4 27 34 bf 58 f9 72 bd c9 be 8a 3e
       0.40287453 -0.7037318 -0.059319824 0.27098683
0003b0 80 b1 b9 bd 5d 34 6f be 99 e9 90 bf b2 ca 77 3d
       -0.090670586 -0.23359819 -1.1321288 0.06049604
0003c0 f2 39 87 3d 46 c4 21 be 6f d3 53 bf de 3a 23 3e
       0.06602849 -0.15797529 -0.827445 0.15940425
0003d0 b4 83 82 bd 81 9f e1 bd 70 0f 22 3f bf 2e 36 bf
       -0.06372777 -0.11016751 0.63304806 -0.7116508
0003e0 01 80 a8 be 88 2d 82 bd f1 0b 3f 3e 6e c9 12 bf
       -0.3291016 -0.06356341 0.18656899 -0.5733861
0003f0 95 ef 80 be 4c 6c e6 3d 43 a3 05 3e 09 84 a9 3e
       -0.25182787 0.11251125 0.1305056 0.33108547

hidden.2.bias f4 [99]
000000 d2 33 c3 bd 9b 09 b3 bc 0a 85 e3 be 22 7b 91 bd
       -0.09531368 -0.021855166 -0.44437438 -0.07103564
000010 9b 0f 09 be a1 10 b3 be aa 71 82 be 9f 1d 90 be
       -0.1338486 -0.34973624 -0.25477344 -0.281476
000020 da 7a 04 be 4c 1c d4 bd 53 d6 0a 3d 4a 48 4e bd
       -0.12937489 -0.1035696 0.0338958 -0.05036191
000030 ca 05 b4 3b 27 e2 07 be 2d 2d 39 3e f4 04 12 bf
       0.005493854 -0.13269864 0.1808364 -0.5703881
000040 d4 c4 a2 be 74 39 f5 be 9f b7 02 bf 1d fa 01 be
       -0.31790793 -0.47895396 -0.51061434 -0.12693067
000050 41 fd 0a be 73 ab a3 be d5 5d ad be c5 35 0a bf
       -0.13573171 -0.31966743 -0.3386065 -0.53988296
000060 47 f8 49 bd 11 97 97 bd 3c c2 a5 bd ad 78 8a 3e
       -0.04930904 -0.074018605 -0.08093688 0.27045193
000070 1d 74 56 bd 3e 0c 30 be cb 9d d6 be 9f fb 3e be
       -0.052356828 -0.1719217 -0.4191726 -0.18650673
000080 51 4a b4 be 45 6e 87 be 1d 85 eb bd 11 e9 7c be
       -0.3521295 -0.26451316 -0.11499999 -0.24698283
000090 98 14 87 be dd d1 95 3e aa 92 9e be 8c 6e 17 bd
       -0.263829 0.29261675 -0.3097127 -0.03697066
0000a0 b9 77 82 3e b0 83 88 bb c9 98 1d 3e 2e 48 d2 3c
       0.25481966 -0.004166089 0.15390314 0.025669184
0000b0 f3 e1 48 be 2a 68 10 3e 1e 7a 14 be 2a 99 ba bd
       -0.19617443 0.14102235 -0.14499709 -0.09111245
0000c0 6b b6 a2 3e 6e 82 15 be b5 79 1a be 83 32 96 3b
       0.317798 -0.14600536 -0.1508549 0.004583658
0000d0 dc 64 c2 be 01 dd eb bd 58 7a 14 bf ef da 17 3e
       -0.37967575 -0.115167625 -0.5799918 0.1482961
0000e0 2d d8 7f be 40 d0 7a 3e f1 e3 95 be 36 ca e2 bd
       -0.24984808 0.24493504 -0.29275468 -0.11073725
0000f0 0e b5 ba be ca f3 78 3d 46 9c ba be 29 a1 63 3d
       -0.3646626 0.06077937 -0.36447352 0.055573616
000100 77 84 d6 be bf 75 e9 be e3 47 df bd 9e 8c 32 be
       -0.41897938 -0.45597646 -0.10902383 -0.17436454
000110 7f 75 0e bf e6 12 fc bb db 4b 92 3e ae 19 68 bd
       -0.55648035 -0.0076926826 0.28573498 -0.056665115
000120 92 78 57 be 9a be c9 be 95 9e c2 be d8 9b a3 bc
       -0.21042088 -0.3940323 -0.38011613 -0.019971773
000130 65 3b 94 be f5 5d 96 3e ba 41 57 be 9c 30 28 be
       -0.28951564 0.2936856 -0.21021166 -0.16424793
000140 55 81 08 bf 66 b8 4c 3c 51 d5 c3 3d 3b ac 37 3e
       -0.53322345 0.012495136 0.09562171 0.17936794
000150 2a 8a 7d be 25 0f df 3e 60 38 41 be 0d 11 32 be
       -0.24759737 0.43566242 -0.18869162 -0.17389317
000160 6a 56 35 be db 25 6e be 84 5f 7c 3e eb a9 fb bd
       -0.17708746 -0.23256628 0.24645811 -0.12288269
000170 4d 8e b8 be bd c1 83 3d 11 52 17 3e 7b 77 18 bf
       -0.36046067 0.06433437 0.147774 -0.5955731
000180 f9 25 a4 3e 34 be 31 be bd 36 a1 bd
       0.3206022 -0.17357713 -0.078717686

hidden.3.weight f4 [99, 99]
000000 70 71 49 bd 63 1b 23 bd b6 49 6e bd 56 7c fa 3c
       -0.049180448 -0.03982104 -0.058175765 0.030576866
000010 78 ae ab bd 54 d7 f3 bd c5 8e d9 bd de 46 7d bd
       -0.08382887 -0.11906305 -0.10622934 -0.061835162
000020 4b 26 4d bd ba 1e 2c 3d 7a 78 7a 3d 9f 71 10 be
       -0.050085347 0.04202149 0.06115005 -0.14105843
000030 d5 2e 2f bb db 55 cd bd a7 d6 23 bc 5c 29 da bc
       -0.0026730795 -0.10026141 -0.009999908 -0.02663105
000040 4d 69 a9 bd b8 ea 7a 3c 12 8d ad bd df 7b 0a ba
       -0.08272038 0.01531475 -0.08474173 -0.00052827405
000050 a0 83 2c bc a6 fd 50 bd e6 2c 1f bc a6 84 bd bd
       -0.010529429 -0.051023148 -0.009715294 -0.09253816
000060 0b fa c8 bd 4e fd 58 bd ae 6b 80 bc 94 73 5c ba
       -0.09813317 -0.052975945 -0.015676346 -0.00084095565
000070 06 40 5a 3d 47 3c 7c 3d 04 24 b1 bd 8a a8 ec bd
       0.053283714 0.061580922 -0.086494476 -0.11555584
000080 77 06 98 bd 74 e6 9e 3c 2d bc b6 bd b4 4b ff 3b
       -0.07423108 0.019396998 -0.089226104 0.007791007
000090 41 5f 27 3c b0 ac 55 bd 6a 54 88 bd 96 5c e2 3c
       0.010215581 -0.05216664 -0.06656726 0.027632039
0000a0 96 d7 89 bd ac 86 db bd a4 0e 02 bd 36 30 ae b7
       -0.06730573 -0.10719046 -0.031752244 -2.0764866e-05
0000b0 b6 63 56 3d 91 ca 11 bd 73 81 06 be 6f ea b3 bc
       0.052341186 -0.035593573 -0.13135318 -0.021962373
0000c0 ce 97 24 be e4 13 9d bd 59 64 81 bd 31 4b 6f 3c
       -0.16073534 -0.076698095 -0.06317968 0.014605329
0000d0 05 8f 05 bd 31 d3 93 bd 9c cd ea bd 93 b5 0f bd
       -0.032607097 -0.07218016 -0.11464998 -0.035085272
0000e0 05 89 33 3d 4f fa a3 3c 71 f2 53 3c bb aa 39 bd
       0.043831844 0.020016817 0.0129362205 -0.045328837
0000f0 51 3f 37 bd 42 69 e7 3b 21 ba 77 3d 62 5a 06 3c
       -0.044738118 0.0070621083 0.06048024 0.00820026
000100 1e 3e 42 bd 59 99 d5 bd 1b f5 1c bd 39 c8 de 3c
       -0.04742252 -0.10429639 -0.03831969 0.027195083
000110 94 db f8 bd 22 02 23 bd 68 1f a5 bd 24 fb 9a bd
       -0.12151256 -0.039796956 -0.08062631 -0.075674325
000120 e8 23 1b bd 80 78 a6 bb 67 f0 c1 bd 9e 88 df 3b
       -0.03787604 -0.0050802827 -0.09469681 0.006821706
000130 55 99 6b bd 33 da 10 bd 85 fb 22 bc 16 53 c4 bd
       -0.057519276 -0.03536434 -0.009947662 -0.0958616
000140 8b 42 87 bc 48 f1 05 3d 26 73 3b 3d 73 e0 51 bd
       -0.016511222 0.032700807 0.04576411 -0.051239442
000150 a4 e5 c5 bd 2b 74 00 be c4 7d 04 3d 3b 84 f3 bd
       -0.09662941 -0.12544315 0.032346502 -0.11890455
000160 f7 8c 07 be 29 64 36 bd 60 60 14 3d 90 47 8c bc
       -0.13237368 -0.044529114 0.036224723 -0.017123967
000170 6b f7 4d bd 44 84 04 bd 5e 3a 40 bd 33 75 35 bc
       -0.050284784 -0.0323527 -0.046930663 -0.011075306
000180 46 1e 8e bc d3 39 1c 3c 65 b2 33 3d 43 f3 c2 3d
       -0.01734842 0.009535271 0.043871302 0.09519055
000190 51 68 48 be 4c 56 38 3d a8 7a b5 bd fe c0 b4 bd
       -0.19571044 0.045004174 -0.088612854 -0.08825873
0001a0 5e 9e 83 bc 71 57 28 3f 5e ca f3 3d 60 85 b6 bd
       -0.016066726 0.65758425 0.11903833 -0.08912158
0001b0 5a ba 89 3c 92 d5 09 3e b0 b5 9e be e9 f2 8c 3e
       0.016812492 0.13460377 -0.30997992 0.27529076
0001c0 94 dc f8 3e b4 b2 81 bd cb e4 a3 3e 8a e7 1c 3c
       0.48605788 -0.06332913 0.32010493 0.009576688
0001d0 b4 8f a6 be c7 55 2a 3e 04 3a e6 3d e9 97 d3 be
       -0.32531512 0.16634284 0.11241534 -0.41326836
0001e0 ea d4 40 3f 17 9f 9a be 0c 80 0b 3e 5a fb 48 3d
       0.7532488 -0.301995 0.13623065 0.049067833
0001f0 5c ca a5 be f2 9f 61 3e a1 00 1b bd af fa 99 3d
       -0.3238095 0.2203367 -0.037842397 0.07518517
000200 45 19 c0 3e 76 e7 b3 3d 12 3b 5c be f3 f5 40 3e
       0.3751928 0.08784382 -0.21506909 0.18843822
000210 88 a5 b4 bd 3a 6f 26 be 95 66 f2 3e 6a e4 94 3e
       -0.08820635 -0.16253367 0.4734389 0.29080516
000220 0b fa aa bd 2b 6f 13 be f8 00 1c bf f4 76 6f 3d
       -0.08348473 -0.14397876 -0.6093898 0.058463052
000230 13 fc 6d bd 0d 5a 8b be 5d 10 a4 3e 44 95 e2 3d
       -0.058101725 -0.2721714 0.32043734 0.110636264
000240 d9 12 7f bd e4 ae 0a 3f a1 f0 05 3e f8 99 b5 3e
       -0.062273834 0.5417311 0.13080074 0.3546903
000250 4f da 09 bd d0 61 d2 3e 0a 05 fe be da c8 e4 bd
       -0.03365546 0.4109025 -0.4961322 -0.11171122
000260 56 51 8c 3e 6d 1b 0c bf 22 86 ab 3b 6a bc 19 3f
       0.27405804 -0.5472935 0.0052344957 0.6005312
000270 d5 62 44 be 06 e7 e0 be ec 3e 6c 3d 08 f7 1a 3e
       -0.19178326 -0.43926257 0.057677194 0.15133297
000280 b0 69 8b be ff 71 81 bf ed 23 5c be c8 ab 9e 3e
       -0.2722907 -1.0112914 -0.2149808 0.30990434
000290 48 38 58 be f3 68 76 be 02 54 ef bd 4a 79 8b 3e
       -0.2111522 -0.24063472 -0.11685945 0.27240974
0002a0 91 66 03 bf e3 85 b1 3e 71 bc 83 3e 92 f0 ab bd
       -0.5132838 0.3467246 0.25729707 -0.083954945
0002b0 b0 11 4a 3d 68 c6 49 3b 10 8d 6f bd 24 d3 5d bf
       0.049333274 0.0030788425 -0.058484137 -0.866503
0002c0 7b f1 aa be d8 a2 1c bd d6 c0 14 bf 2c 94 ff 3e
       -0.3338736 -0.038241237 -0.58106744 0.49917734
0002d0 44 58 ac 3d 20 f3 cc 3b 0d f2 61 bf 94 98 c7 bd
       0.08415273 0.0062545687 -0.88259965 -0.09745899
0002e0 ca 46 a5 3e 05 4e ef be d6 2f 36 3d 25 fc 79 3e
       0.3228057 -0.46739212 0.044479214 0.24412592
0002f0 8c a0 c1 be 2a f5 e3 be 00 17 07 bf f6 ed 82 be
       -0.378178 -0.44522983 -0.5276947 -0.25572175
000300 d5 ec d2 be 18 f1 10 3d ca 8d e0 3e ea a1 ba bd
       -0.41196314 0.035386175 0.43858176 -0.09112914
000310 8b 86 fc 3e 4f 38 be 3e 6c ba 9f 3d 87 53 a4 bd
       0.49321398 0.37152335 0.07799229 -0.08023744
000320 7f 58 93 be da 74 37 bd a4 76 2e be 10 3a 86 3d
       -0.28778455 -0.044789173 -0.17037445 0.06554043
000330 ea c6 17 3f d4 dd 3f be 27 a8 1e 3e 31 b8 4f 3e
       0.59287894 -0.18736964 0.15493833 0.20285107
000340 64 27 9b 3e 95 8c a0 3c f6 4f 2b be da 8b 2a 3f
       0.3030349 0.019598285 -0.16729721 0.66619647
000350 41 56 fa be 00 91 bb bf 86 ec 8c 3e 2b 25 38 3b
       -0.48893932 -1.4653625 0.27524203 0.0028098326
000360 64 a8 98 be 85 0f 80 be 34 cc 7f 3e 68 52 d8 3e
       -0.29815972 -0.2501184 0.24980241 0.4225037
000370 61 3e c9 bd 61 54 f5 be cf c9 7f 3c 63 33 a6 3e
       -0.09826351 -0.47915938 0.01561208 0.3246108
000380 a3 8f 87 3d b9 98 ba bd 86 93 3d 3e 3f 35 3f 3e
       0.066191934 -0.09111161 0.18513307 0.18672656
000390 f8 7f 8b bd ba 34 e9 3d 71 20 f0 be 09 c4 ef 3e
       -0.068115175 0.1138701 -0.4689975 0.4682925
0003a0 62 81 10 3e 38 4d 05 3e eb 5a bf be 4b 53 6c be
       0.14111856 0.13017738 -0.37374052 -0.23078649
0003b0 4a 74 54 be 7b 76 cb bd 82 c9 b5 3e b0 5a e8 be
       -0.20747486 -0.09934708 0.355053 -0.4538169
0003c0 82 8b 7e bc 25 8d 09 3e 00 23 12 bd 98 ff 89 be
       -0.015536191 0.13432749 -0.03567791 -0.26952815
0003d0 78 7b a6 be 40 97 81 be ff 78 c5 be fb ab 80 be
       -0.32516074 -0.25310707 -0.38568875 -0.2513121
0003e0 3f 47 3e 3e 06 03 fb 3d d4 bc 9e 3d 56 61 c2 3e
       0.18581866 0.12256436 0.0775086 0.37964886
0003f0 3d 09 7c bf 56 dc 13 bb ce 16 4b be 0f 06 6f bf
       -0.98451596 -0.002256175 -0.19832918 -0.9336862

hidden.3.bias f4 [99]
000000 31 75 07 bb ba 6e 8c be 0a bc 54 be 25 ac 85 3d
       -0.0020669217 -0.27428228 -0.20774856 0.065269746
000010 80 c4 40 bf 02 54 42 be f5 51 66 be 62 b9 a9 be
       -0.75299835 -0.18977359 -0.22492202 -0.33149248
000020 aa d4 73 bf d3 df 2d be c6 f2 9e be 12 10 c9 bc
       -0.95246375 -0.16979913 -0.31044596 -0.024543796
000030 c2 fe 42 be 39 4d 7b 3e 06 f9 57 be e8 4b f0 3c
       -0.19042495 0.24541177 -0.21091089 0.02933307
000040 79 b4 87 bd 3c 9d 99 be 55 ec 18 bf 59 4c 71 be
       -0.06626219 -0.30002773 -0.59735614 -0.2356428
000050 94 36 00 bf fe be 96 be a8 d8 9b be d8 49 6e 3c
       -0.5008328 -0.2944259 -0.30438733 0.014543973
000060 80 84 f3 be be 30 3d be a4 7a 3a be 25 2a 85 bd
       -0.47562027 -0.18475625 -0.18210846 -0.06502179
000070 35 8a d8 be f8 37 7a bf c1 ec 35 be fe 25 ce be
       -0.42292944 -0.9774165 -0.17766096 -0.4026336
000080 a0 ba 02 bf 0a d6 d8 be 34 4d cb bd 52 18 f6 be
       -0.5106602 -0.423508 -0.09926835 -0.4806543
000090 e8 7c a8 be f8 fa 61 be dc 95 26 bc 4e c5 c2 be
       -0.32907796 -0.22068393 -0.010167565 -0.38041157
0000a0 e6 af 30 bf 35 7b 66 bf 7b 7d 83 be 49 89 d3 be
       -0.690184 -0.9003175 -0.25681672 -0.41315678
0000b0 ba a4 18 3c 81 a1 d8 be 2b 42 cb be 45 0b b8 bd
       0.009316618 -0.42310718 -0.3969892 -0.089865245
0000c0 7a a7 02 bf f4 40 70 3c af 78 f5 be bc 51 01 3f
       -0.510368 0.0146639235 -0.47943637 0.5051534
0000d0 bc 77 22 bf 75 0c bc be a9 72 f2 be 62 d0 30 be
       -0.6346395 -0.36728254 -0.47353104 -0.17266992
0000e0 7b 99 81 be 61 d5 e8 be 6e b5 e9 bd 23 18 1a bb
       -0.2531241 -0.45475295 -0.11411558 -0.0023512922
0000f0 b8 15 6a 3d e6 ce 18 bf 46 89 65 3d 91 30 a9 bd
       0.05714962 -0.596907 0.056039117 -0.082612164
000100 8d f7 46 be d5 03 44 bf 10 14 86 bd 60 fa b3 be
       -0.1943037 -0.7656835 -0.06546795 -0.35151958
000110 e4 da 23 3d 6b 2d cb be 2c 64 c7 bd 34 4e c2 3e
       0.040003672 -0.3968309 -0.09735903 0.3795029
000120 5f c0 8e be be 3a 06 bf 41 9d bc bd e8 25 a7 be
       -0.27881142 -0.52433383 -0.09209681 -0.32646108
000130 62 26 65 bf 39 6c 41 be ea a5 9e be ff b1 a2 be
       -0.8951169 -0.1888894 -0.30985957 -0.31776425
000140 0b b3 80 be 79 b6 df be 2f 35 e0 be d1 73 5c be
       -0.251366 -0.43693903 -0.43790576 -0.21528555
000150 69 60 01 be c1 7d dd be 04 52 4d bc b1 c2 46 be
       -0.12634434 -0.43260005 -0.012531761 -0.19410206
000160 ec 24 a4 bd 09 98 02 bf f2 2d e9 3d 24 b3 f1 be
       -0.08014855 -0.5101324 0.113857165 -0.47206986
000170 00 81 c4 bd ce 8e 21 be 95 2d a0 bc 98 56 f7 bc
       -0.09594917 -0.15777132 -0.019552985 -0.030192658
000180 59 33 bc be 2c b0 55 be 5b fe bb 3d
       -0.36757925 -0.20867985 0.09179374
