models/7x7-4-99-relu/400episodes.pth (torch, 202354 bytes, 12 tensors)

input_layer.weight f4 [99, 50]
0	0x3f151004	0.5822756
1	0x3d338b1c	0.043833837
2	0xbe0d944b	-0.138261
3	0xbda09511	-0.07840932
4	0xbe1289ab	-0.14310329
5	0x3cbe71b2	0.023247574
6	0xbe6fe606	-0.2342759
7	0xbea14411	-0.31497243
8	0x3e973caf	0.29538485
9	0xbdbc03ca	-0.0918041
10	0xbdf57a5a	-0.11986227
11	0x3de713f6	0.11283104
12	0x3e6a0b19	0.22855796
13	0xbe7c0b71	-0.2461374
14	0x3e455ef9	0.1927451
15	0xbdfb11b4	-0.12259236
16	0xbed5c966	-0.41755217
17	0xbd1308f6	-0.035897218
18	0xbe82d18d	-0.255505
19	0x3ce1f4fa	0.027582634
20	0x3eb4e120	0.35328007
21	0x3d7e6588	0.062108546
22	0x3dda7333	0.10666504
23	0x3e461d68	0.19347155
24	0x3e91f90a	0.28510314
25	0xbebe515c	-0.37171447
26	0x3dd8cb9d	0.10585711
27	0xbe960d0a	-0.29306823
28	0x3dc6ca6b	0.09706577
29	0x3d6177fb	0.055046063
30	0x3e7441eb	0.2385327
31	0xbeacfa0b	-0.33784518
32	0x3dc71825	0.09721402
33	0x3e82d8f5	0.2555615
34	0x3d17eba8	0.037089974
35	0x3e4895d2	0.19588402
36	0xbe73bc8d	-0.23802395
37	0x3e0095fe	0.12557217
38	0xbdeb168a	-0.11478908
39	0x3d2df8fd	0.04247378
40	0x3f03125d	0.51199895
41	0x3ee53247	0.4476492
42	0x3d1c6f9a	0.03819237
43	0xbd15644c	-0.036472604
44	0x3ed7a6d9	0.42119482
45	0xbe39aa15	-0.18131287
46	0x3eb6c791	0.35699132
47	0x3e647b0d	0.22312565
48	0x3cc83123	0.024437493
49	0xbd86f7a2	-0.06590201
50	0xbdc920c6	-0.09820704
51	0x3e1733a5	0.14765795
52	0xbe96512c	-0.29358804
53	0xbe05d1f0	-0.13068366
54	0xbe80242a	-0.2502759
55	0xbdf51f14	-0.11968818
56	0x3ea2623b	0.3171557
57	0x3d09b337	0.03361818
58	0x3ec29a1f	0.3800821
59	0x3eeb4f9b	0.45959172
60	0xbebdbc45	-0.370577
61	0x3dc25950	0.09489691
62	0x3db65103	0.089021705
63	0xbe859f0a	-0.260979
64	0xbcc55c8f	-0.024091987
65	0xbd1b78b2	-0.0379569
66	0x3ea04240	0.31300545
67	0xbda599ea	-0.080859974
68	0xbe219cce	-0.15782472
69	0xbb5fe9df	-0.0034166498
70	0x3ec7796f	0.38959834
71	0xbea42892	-0.32062203
72	0xbf0a74ae	-0.5408429
73	0xbe749e64	-0.23888546
74	0xbe08ee6f	-0.13372205
75	0xbd94b5e8	-0.07261258
76	0xbbf9a2f0	-0.0076183006
77	0xbd1fce12	-0.039014883
78	0x3ecd4d08	0.40097833
79	0xbe453424	-0.19258171
80	0xbed7e15a	-0.42164117
81	0x3df47339	0.119360395
82	0xbc581422	-0.013188394
83	0x3db5b7d9	0.08872957
84	0xbd1d4ed1	-0.038405243
85	0x3d9fe7b5	0.078078665
86	0x3e12770c	0.14303225
87	0x3d5c3c1e	0.05376827
88	0xbe28207d	-0.16418643
89	0x3eb01e10	0.34397936
90	0xbdb36955	-0.08760325
91	0xbece1b34	-0.4025513
92	0x3e4ca672	0.19985369
93	0xbea8981b	-0.32928547
94	0xbdc0fe80	-0.09423542
95	0x3d42d5b6	0.047567092
96	0x3da4802a	0.08032258
97	0xbe300d15	-0.1719249
98	0x3ed4d468	0.41568303
99	0x3d74ba66	0.059748076
100	0x3f29465b	0.6612298
101	0x3ea921c2	0.33033568
102	0xbe55ae76	-0.20867333
103	0x3e530883	0.20608716
104	0xbefdd57e	-0.49576944
105	0xbe121aed	-0.14268084
106	0xbd954307	-0.07288175
107	0xbef47e02	-0.47752386
108	0x3dba609f	0.0910046
109	0x3b02ab09	0.001993837
110	0xbe083262	-0.1330047
111	0xbd1f479f	-0.038886663
112	0xbd14a982	-0.036294468
113	0x3eb47610	0.35246325
114	0x3e2bdede	0.16784236
115	0x3eb26bbe	0.34847826
116	0xbe7f4f08	-0.24932492
117	0x3c54f8da	0.012998784
118	0xbd37d958	-0.04488501
119	0x3e602745	0.2188998
120	0x3e593d73	0.21214847
121	0xbe823804	-0.25433362
122	0xbf2ae258	-0.66751623
123	0x3d3f1e09	0.046659503
124	0xbd1fc78e	-0.03900867
125	0xbd191de4	-0.03738202
126	0xbd5c5314	-0.053790167
127	0x3bf6b966	0.0075294254
128	0x3c8e5fca	0.01737966
129	0x3d9e1ca0	0.077203035
130	0x3e12f14a	0.14349857
131	0x3e9fa3d9	0.31179693
132	0xbeb1ba54	-0.3471247
133	0x3dc3396b	0.09532436
134	0x3eb5166e	0.35368675
135	0x3e610200	0.21973419
136	0x3e2878f4	0.1645239
137	0xbe1d3015	-0.15350373
138	0xbe14d5c8	-0.14534676
139	0xbdc9b67e	-0.09849261
140	0x3ac7f3d6	0.0015255164
141	0x3d9a3895	0.075303234
142	0xbe93b50c	-0.28849065
143	0x3e703d47	0.23460875
144	0x3f10fb4c	0.5663345
145	0x3f56d3ba	0.8391682
146	0xbd3099fb	-0.043115597
147	0x3d80911e	0.06277679
148	0xbce45e48	-0.027876988
149	0x3c7330d4	0.0148431845
150	0x3e98161f	0.29704377
151	0xbd72b84e	-0.059257798
152	0xbe527939	-0.20554055
153	0xbd8c327e	-0.06845568
154	0xbe2ff489	-0.17183127
155	0x3d19c4b8	0.03754112
156	0xbd97a09d	-0.074036814
157	0xbde8a590	-0.113597035
158	0x3d7344e2	0.059391864
159	0xbe716091	-0.23571993
160	0x3e84f308	0.25966668
161	0xbe7bb5e7	-0.24581109
162	0xbb961898	-0.0045805685
163	0x3ead2007	0.33813497
164	0x3d82e801	0.063919075
165	0x3e55f28d	0.20893307
166	0x3efb2425	0.49051014
167	0x3e4e7483	0.20161633
168	0x3dfd425c	0.12366173
169	0xbcabdb59	-0.020978617
170	0xbea4714f	-0.32117698
171	0xbee855b5	-0.4537789
172	0xbcce77b5	-0.025203565
173	0x3e103728	0.1408354
174	0xbd06f8c8	-0.0329521
175	0xbd286f15	-0.04112156
176	0xbe1e1904	-0.1543923
177	0x3e6337e2	0.22189286
178	0x3e15b29c	0.14618915
179	0x3e15f568	0.14644396
180	0xbe469d0d	-0.19395848
181	0x3dd82e37	0.1055569
182	0x3dca8990	0.09889519
183	0xbdc94955	-0.0982844
184	0xbdb4a8f4	-0.08821288
185	0x3e3f46cc	0.1867935
186	0x3eaf33fd	0.3421935
187	0x3ea87a51	0.3290582
188	0xbd912f9f	-0.07089161
189	0x3e1e1628	0.1543814
190	0x3e8606b0	0.26176977
191	0xbe8045c1	-0.25053218
192	0x3da67da1	0.081294306
193	0x3f004874	0.50110555
194	0x3ee534b1	0.44766763
195	0x3e35c3fc	0.17750543
196	0x3e7c9ad8	0.24668443
197	0x3d7ff9ed	0.062494207
198	0xbe28b1fb	-0.16474144
199	0xbd91070e	-0.07081424
200	0xbe20e2f8	-0.15711582
201	0xbc5abb1b	-0.0133502735
202	0x3e26ebd7	0.16300903
203	0xbddb48ef	-0.1070727
204	0xbf06caab	-0.52652997
205	0xbd75cada	-0.060007907
206	0xbe8b623b	-0.2722338
207	0x3e97b6e1	0.29631713
208	0x3c1c6d72	0.009547578
209	0xbe2ef1ac	-0.17084378
210	0xbbf43997	-0.0074531543
211	0xbe41e36e	-0.18934414
212	0xbe996358	-0.29958606
213	0xbe0ab1e0	-0.13544416
214	0x3e85204d	0.26001206
215	0xbe879557	-0.26481125
216	0x3c6f468d	0.014604223
217	0x3dcfee75	0.10152904
218	0x3e5710b0	0.2100246
219	0xbea422e7	-0.32057878
220	0x3e9e6ea1	0.30943778
221	0xbec91bdf	-0.39279076
222	0x3e50f048	0.2040416
223	0xbdbbdf4f	-0.09173452
224	0xbd3ab7e0	-0.045585513
225	0xbd1cd690	-0.03829056
226	0x3dda7c66	0.10668258
227	0x3e3d4afe	0.18485638
228	0xbe98c46c	-0.29837358
229	0xbd94b650	-0.07261336
230	0xbe26f3ee	-0.1630399
231	0xbc97a797	-0.01851253
232	0x3eb71cb3	0.35764083
233	0x3d334a93	0.04377229
234	0xbec98bc3	-0.39364442
235	0x3d48f2dc	0.049059734
236	0xbe38249c	-0.17982715
237	0xbda1b5df	-0.07896017
238	0x3e9a2e2b	0.30113348
239	0xbd83a745	-0.064283885
240	0x3e52345a	0.20527783
241	0x3c176748	0.009240933
242	0x3e8344a8	0.25638318
243	0x3e76161c	0.24031872
244	0x3e7b3bf5	0.2453459
245	0xbdcefed6	-0.101072
246	0xbeb9d547	-0.3629553
247	0xbdfc1495	-0.12308613
248	0xbf2fe3c2	-0.68706906
249	0x3e5db2f0	0.2165029
250	0xbe8e7432	-0.27823025
251	0xbcddc1ed	-0.02707001
252	0x3eab40d1	0.33447888
253	0xbea9a032	-0.33130032
254	0x3cff45d6	0.03116123
255	0xbdd1bbc5	-0.10240892

input_layer.bias f4 [99]
0	0xbe103120	-0.1408124
1	0xbe431afd	-0.19053264
2	0x3c19037b	0.009339209
3	0xbb1f8d09	-0.0024345538
4	0xbd1a6d15	-0.037701685
5	0xbd862925	-0.065508164
6	0x3e981d6e	0.29709953
7	0x3e280a46	0.16410169
8	0x3de4d543	0.11173489
9	0x3eb97059	0.36218527
10	0xbcaa2574	-0.020769812
11	0x3d96c6fc	0.07362172
12	0x3a7673de	0.0009401421
13	0x3c4bb643	0.012433591
14	0x3d9584f4	0.073007494
15	0xbe0091e4	-0.12555653
16	0xbd3fb11a	-0.046799757
17	0xbde54edb	-0.11196681
18	0x3c8ca7eb	0.017169913
19	0x3d7a1173	0.061051797
20	0xbd2a4672	-0.041571088
21	0xbe62bed5	-0.22143109
22	0xbd9701df	-0.07373404
23	0x3cae4f07	0.021277918
24	0xbe1ea8c1	-0.15494062
25	0xbd6c204b	-0.057647984
26	0xbc8b1cd1	-0.016981514
27	0xbe03e37e	-0.1287975
28	0x3e80a90d	0.25128976
29	0x3e8d2b7b	0.27572235
30	0x3c7bbb49	0.0153644765
31	0xbd0eca4d	-0.034860898
32	0xbd6317dd	-0.05544268
33	0x3dbdd94b	0.09269961
34	0x3e6d1650	0.23153043
35	0xbd10d719	-0.035361383
36	0x3d8982b8	0.06714386
37	0xbda6b022	-0.081390634
38	0x3c8858ee	0.016643967
39	0xbe9fb5d6	-0.31193417
40	0xbdbf739f	-0.09348225
41	0x3de38487	0.11109262
42	0x3ca24b63	0.019811338
43	0x3ddf9ea1	0.10918928
44	0x3ccc9d79	0.024977433
45	0xbe4fb8ce	-0.20285341
46	0x3c85db36	0.01633988
47	0xbd644f46	-0.055739664
48	0x3b1e23b7	0.0024130174
49	0x3c4d0494	0.012513299
50	0xbe705ece	-0.23473665
51	0xbdb0c95c	-0.08632156
52	0x3e4e4706	0.20144281
53	0x3e3ffdb1	0.1874912
54	0xbda8ba33	-0.0823864
55	0x3e7fdb6b	0.24986045
56	0x3d962717	0.073316745
57	0xbe83a28f	-0.2570996
58	0xbe477722	-0.1947904
59	0xbd90d734	-0.07072297
60	0xba8f4b00	-0.0010932386
61	0xbd0e47ca	-0.034736432
62	0xbeaea2ba	-0.34108526
63	0x3c8e428c	0.017365716
64	0xbcc5a282	-0.024125341
65	0xbd9d9e57	-0.076962166
66	0xbd970b69	-0.07375223
67	0xbd54380d	-0.051811267
68	0xbe52740e	-0.20552084
69	0xbd159630	-0.036520183
70	0xbe2712e5	-0.16315801
71	0x3e5789e7	0.210487
72	0x3e3ae577	0.18251596
73	0xbdf5c28c	-0.119999975
74	0x3d953d65	0.07287101
75	0xbd815285	-0.063145675
76	0x3e0b5f7d	0.13610645
77	0x3ee845ba	0.45365697
78	0xbea94696	-0.33061665
79	0xbdb96709	-0.090528555
80	0x3dea8175	0.11450473
81	0x3db5f481	0.08884526
82	0x3d957b9e	0.07298969
83	0xbd8b3da8	-0.06798869
84	0x3d163443	0.036670934
85	0x3e23878f	0.1596968
86	0xbcfc3255	-0.030785719
87	0x3e607126	0.21918163
88	0xbcc63322	-0.024194304
89	0xbe11d1ea	-0.14240232
90	0xbcc31985	-0.02381588
91	0x3b9fe7e0	0.0048799366
92	0xbde9c86a	-0.11415179
93	0x3cdb3463	0.026758378
94	0xba5b2c86	-0.00083608215
95	0x3e7872e2	0.24262574
96	0xbe336eb8	-0.17522705
97	0x3da155d9	0.07877702
98	0x3de9e8ca	0.11421354

hidden.0.weight f4 [99, 99]
0	0x3cbb93c9	0.022897618
1	0x3cc01420	0.023447096
2	0xbcf8c16d	-0.03036567
3	0x3e2377d7	0.15963684
4	0xbcb353c4	-0.021890529
5	0xbe22032a	-0.1582152
6	0x3e2a44e3	0.1662784
7	0xbdc711b3	-0.09720173
8	0xbe273c53	-0.16331606
9	0x3e8a80e7	0.2705147
10	0x3d15cd3b	0.036572676
11	0x3df02d13	0.11727347
12	0x3d7674e2	0.060170062
13	0x3e49a8f4	0.19693357
14	0x3cb3b921	0.021938862
15	0xbdb6869e	-0.08912395
16	0x3e49ea82	0.19718364
17	0x3e0d136f	0.13776945
18	0x3eced9d5	0.40400568
19	0xbeab7dd6	-0.33494443
20	0xb87efe6c	-6.0795268e-05
21	0xbe1202a2	-0.14258817
22	0x3e0253e4	0.12727314
23	0x3c8557c8	0.016277209
24	0xbde6fe94	-0.11279026
25	0x3d1b28ff	0.037880894
26	0x3e4040d9	0.18774737
27	0xbeaacb26	-0.33358115
28	0x3e8a187f	0.26971814
29	0x3ccddace	0.025128748
30	0x3e85e28b	0.261494
31	0xbe8e0ea6	-0.2774555
32	0xbec872fe	-0.39150232
33	0x3e1da1db	0.15393774
34	0x3df29687	0.11845117
35	0xbe906e4c	-0.2820915
36	0x3d10ee45	0.03538348
37	0xbd4a17f0	-0.049339235
38	0x3c2e6729	0.0106447125
39	0xbda3b370	-0.07993209
40	0xbee19023	-0.4405528
41	0xbe466bc3	-0.19377045
42	0x3dd38c49	0.10329492
43	0xbe9e145e	-0.30874914
44	0xbd1ce4b2	-0.03830404
45	0xbe7894ff	-0.24275587
46	0x3d212cfc	0.03934954
47	0xbe49da5f	-0.19712208
48	0xbd40c647	-0.047064092
49	0x3dce398f	0.10069572
50	0xbeb910e4	-0.361457
51	0xbd2b3426	-0.04179778
52	0x3e246adb	0.16056387
53	0x3dae0e5b	0.08498832
54	0xbeee532d	-0.46547833
55	0xbe3b1302	-0.1826897
56	0x3e45556b	0.19270866
57	0x3c9a5b38	0.018842325
58	0xbeb86b6a	-0.3601945
59	0x3dffc3b6	0.12488501
60	0x3daf5f8f	0.08563148
61	0x3e3c2467	0.18373261
62	0xbd7be177	-0.061494317
63	0x3d25cd80	0.040479183
64	0x3e41bd18	0.1891979
65	0x3cbc8e2e	0.023017015
66	0xbe1ee480	-0.15516853
67	0xbe54c0d3	-0.20776682
68	0x3e68328f	0.22675537
69	0x3cef8d57	0.0292422
70	0xbdec3161	-0.11532856
71	0x3ee18001	0.44042972
72	0x3e86aeaf	0.26305148
73	0xbd05ee0d	-0.032697726
74	0xbe57877a	-0.21047774
75	0xbee76846	-0.45196742
76	0xbae99ddd	-0.0017823536
77	0xbdd54065	-0.10412673
78	0x3df81a60	0.12114406
79	0xbbfd3fe7	-0.007728565
80	0x3d9b2503	0.07575419
81	0xbe259fcc	-0.16174239
82	0x3ebd05fc	0.36918628
83	0x3dcc5778	0.09977621
84	0x3e50a647	0.2037593
85	0xbcc40e2c	-0.023932539
86	0x3d42a9a8	0.047525078
87	0x3e28d3b0	0.16487002
88	0xbe07d3d4	-0.132644
89	0x3d788421	0.060672883
90	0xbde6986f	-0.11259543
91	0x3ec11250	0.37709284
92	0xbe874b8d	-0.26424828
93	0xbecc6c83	-0.39926538
94	0xbe4ae92f	-0.19815515
95	0x3e6e296c	0.23257989
96	0x3e96c1dc	0.29444778
97	0x3c9fc3e1	0.019502582
98	0xbe55be10	-0.20873284
99	0xbed444e6	-0.41458815
100	0x3e836b57	0.2566783
101	0x3e95aa8e	0.29231685
102	0x3f159f40	0.5844612
103	0xbc2e561b	-0.010640646
104	0x3da84226	0.08215742
105	0xbe438387	-0.19093142
106	0xbe075d74	-0.13219243
107	0x3d757b84	0.059932247
108	0xbe99aa21	-0.3001261
109	0xbe7f4ca3	-0.24931578
110	0xbd67563c	-0.056478724
111	0xbc2b120f	-0.010441317
112	0x3ce13c24	0.027494498
113	0x3e9b3061	0.30310348
114	0x3e4ec3df	0.20191906
115	0xbdcfb81b	-0.10142537
116	0xbe75aef9	-0.23992528
117	0xbee80f6b	-0.45324263
118	0x3e94520c	0.28968847
119	0x3d6cf1b7	0.057847705
120	0xbd124724	-0.035712376
121	0x3ddc93b9	0.10770363
122	0x3eb9ea3a	0.36311513
123	0xbe361c3f	-0.17784213
124	0x3e175878	0.14779842
125	0xbda5b672	-0.08091439
126	0xbe912e67	-0.28355715
127	0xbf080a1d	-0.5314043
128	0x3e94e758	0.2908275
129	0xbf060c30	-0.52362347
130	0xbeb3ccbb	-0.35117134
131	0x3ea4ed62	0.3221236
132	0xbe4115d5	-0.18855985
133	0x3e29702b	0.16546695
134	0x3e6ebbfc	0.23313898
135	0xbdf7de59	-0.12102956
136	0x3e822542	0.2541905
137	0xbe55c9d4	-0.20877773
138	0xbd7ae827	-0.061256554
139	0xbee8638e	-0.45388454
140	0x3e2be39e	0.16786048
141	0xbd086a60	-0.033304572
142	0x3cade763	0.021228498
143	0x3e033ea0	0.12816858
144	0xbddd5afd	-0.1080837
145	0x3d00ef19	0.03147802
146	0x3e78c555	0.24294026
147	0x3ef5f228	0.48036313
148	0x3d68a396	0.056796633
149	0x3de18f59	0.110136695
150	0xbe864fec	-0.2623285
151	0x3c898daa	0.016791184
152	0xbe22fa5d	-0.15915819
153	0xbe8a3ed0	-0.27001047
154	0x3c62959e	0.013829617
155	0xbe56a040	-0.20959568
156	0x3e97ab0a	0.2962268
157	0x3f1fd45c	0.6243341
158	0x3d170c5e	0.03687703
159	0xb9fa6403	-0.0004775823
160	0x3d7b5643	0.061361562
161	0xbe0d13c6	-0.13777074
162	0x3e835717	0.25652382
163	0xbda387b2	-0.07984866
164	0xbe01c513	-0.12672834
165	0x3e42030a	0.18946472
166	0x3ce20601	0.027590754
167	0x3e9854eb	0.29752287
168	0xbe5c03d8	-0.21485841
169	0x3e57b0b9	0.21063508
170	0xbe2a95ac	-0.16658658
171	0xbd81539d	-0.06314776
172	0x3e4775de	0.19478557
173	0xbec354e6	-0.3815071
174	0x3e7984b1	0.24367024
175	0x3e3f430e	0.18677923
176	0x3dedc89b	0.11610528
177	0xbd2860d4	-0.041107967
178	0x3e543fca	0.20727459
179	0x3e0d38dd	0.13791223
180	0x3c4db457	0.012555203
181	0xbddc0d1a	-0.107446864
182	0xbee606b8	-0.44927
183	0x3d9c10b7	0.076203756
184	0xbef30151	-0.47461942
185	0x3ce3151d	0.027720029
186	0xbf1086dd	-0.56455785
187	0xbe35b2df	-0.17744015
188	0xbe365d60	-0.17809057
189	0xbe1223b6	-0.14271435
190	0xbdc2da5e	-0.095143065
191	0x3e643eb2	0.22289541
192	0x3acd4d76	0.0015663344
193	0xbdc641f8	-0.09680551
194	0xbdba64b2	-0.09101237
195	0xbc14b7d1	-0.009077028
196	0xbe49b082	-0.19696239
197	0xbf068cd6	-0.5255865
198	0xbd21a150	-0.03946048
199	0x3e8adc50	0.2712121
200	0xbe302f29	-0.1720549
201	0x3e47e659	0.19521464
202	0xbd45f8b4	-0.048332885
203	0xbb7c79d6	-0.0038524768
204	0xbe8f9359	-0.28042105
205	0xbdaff43b	-0.08591505
206	0x3e48a34b	0.19593541
207	0xbf1d0438	-0.6133456
208	0x3eaa8d62	0.33310992
209	0xbf0f8346	-0.5605968
210	0x3e295a76	0.16538414
211	0x3d1292f9	0.035784695
212	0x3dfbcfd9	0.12295503
213	0xbe15c79c	-0.14626926
214	0x3d2688b8	0.04065773
215	0x3d8ff6ec	0.070295185
216	0xbe2eda0c	-0.17075366
217	0x3e97041b	0.2949532
218	0xbdd21e8b	-0.10259732
219	0xbe43b810	-0.19113183
220	0xbd9ed0cc	-0.077546686
221	0x3e9294cb	0.28629145
222	0x3f198a7d	0.5997694
223	0xbd75e19a	-0.060029604
224	0x3cbef246	0.023308884
225	0xbe9f61ff	-0.31129453
226	0xbe7d066e	-0.24709484
227	0x3d878dd3	0.06618848
228	0xbe889481	-0.266758
229	0xbea2e916	-0.31818455
230	0xbdff290c	-0.12459001
231	0x3e9cd0c7	0.30628034
232	0xbea7ad94	-0.32749617
233	0x3c4fec7c	0.01269066
234	0x3e66a90e	0.22525427
235	0x3e84fddc	0.2597493
236	0x3dbffe53	0.0937468
237	0xbd7c54da	-0.06160436
238	0x3f0066bc	0.5015676
239	0x3d8949ad	0.06703506
240	0xbe79ab46	-0.24381742
241	0xbde10f0b	-0.10989197
242	0x3e14065b	0.1445555
243	0xbe29bc39	-0.16575707
244	0xbe8bcbeb	-0.27304015
245	0xbe475c22	-0.1946874
246	0xbd0e4fda	-0.03474412
247	0x3e9b3d17	0.30320045
248	0xbe1b7be9	-0.15183987
249	0x3e80acf1	0.25131944
250	0xba7222db	-0.0009236761
251	0xbe3ebdcb	-0.18627088
252	0xbe8e7326	-0.27822226
253	0x3db6ebaf	0.08931672
254	0xbd8f93cf	-0.07010614
255	0x3e8c32e5	0.2738258

hidden.0.bias f4 [99]
0	0x3c4294b5	0.011876275
1	0xbe181eba	-0.14855471
2	0xbd720045	-0.05908229
3	0xbe98f740	-0.29876137
4	0xbdacb0b1	-0.08432139
5	0xbd1fc3ee	-0.039005212
6	0xbef1c72f	-0.47222278
7	0xbd081f7d	-0.033233155
8	0x3dfbe1e2	0.12298943
9	0xbf1343e0	-0.57525444
10	0x3d816931	0.06318892
11	0x3d98f9e7	0.0746954
12	0xbe6e0907	-0.23245631
13	0x3e2b8cdd	0.16752954
14	0x3e0cb4ef	0.13740896
15	0x3e0ca832	0.13736036
16	0xbe5ee3cb	-0.21766584
17	0xbe354390	-0.17701554
18	0xbe5f1928	-0.2178694
19	0x3e0cf67b	0.137659
20	0xbd97ae01	-0.074062355
21	0x3d80ac61	0.06282879
22	0xbe4cb123	-0.19989447
23	0xbeb96f73	-0.36217842
24	0xbea28eed	-0.3174967
25	0xbd9a6a6c	-0.075398296
26	0xbe935c1c	-0.2878121
27	0x3d09a429	0.03360382
28	0xbe51a6ce	-0.20473787
29	0x3dff6537	0.12470477
30	0xbda53299	-0.08066291
31	0xbe7f2557	-0.24916588
32	0xbdaca63c	-0.08430144
33	0xbca6a1c6	-0.020340811
34	0xbe481964	-0.19540936
35	0x3ddae27a	0.10687728
36	0xbd943f9a	-0.072386935
37	0x3d6158d6	0.05501636
38	0xbdc3dc86	-0.09563546
39	0xbe989f25	-0.29808918
40	0xbdcedf86	-0.101012275
41	0xbbbc5eb0	-0.0057485923
42	0x3e08a708	0.13344967
43	0xbd1eb21c	-0.038744077
44	0xbe9fb1b4	-0.31190264
45	0xbe164552	-0.14674881
46	0xbe3381c8	-0.17529976
47	0x3ed81794	0.4220549
48	0x3df00b6c	0.117209285
49	0xbd91f803	-0.071273826
50	0xbd83a20a	-0.06427391
51	0xbe249a27	-0.1607443
52	0xbe092188	-0.13391697
53	0x3e20441e	0.15650985
54	0xbed1d86e	-0.40985435
55	0x3e8005de	0.25004476
56	0xbdb9546c	-0.09049305
57	0xbe8b0ef6	-0.27159852
58	0xbe1bf4ab	-0.15230052
59	0xbe2a5c32	-0.16636732
60	0xbd975a34	-0.07390252
61	0xbdd8122c	-0.10550341
62	0xbe9a81e4	-0.30177224
63	0xbe7276c5	-0.2367812
64	0xbe981c16	-0.29708928
65	0xbd39f96d	-0.045403887
66	0xbdcf1358	-0.101111114
67	0x3daceb0b	0.084432684
68	0xbeb3c9eb	-0.3511499
69	0x3de24616	0.11048524
70	0x3dcc0c96	0.09963338
71	0xbe78f97b	-0.24313919
72	0xbea900f9	-0.33008555
73	0xbcf8739c	-0.030328564
74	0xbe58804e	-0.21142694
75	0xbe3039e8	-0.1720959
76	0xbed0dc44	-0.4079305
77	0x3db349fa	0.08754344
78	0xbe373bf2	-0.17893961
79	0xbd562cd3	-0.05228884
80	0xbd02ff93	-0.031982016
81	0xbe7e871a	-0.24856225
82	0xbd9c3c7a	-0.076287225
83	0xbf26e456	-0.65192163
84	0x3e1a8d00	0.1509285
85	0x3ca4a2d9	0.020097183
86	0xbc04041e	-0.008057622
87	0xbb8e16c7	-0.0043362114
88	0xbd8d25c5	-0.068919696
89	0x3bdf1115	0.0068074563
90	0xbe157c04	-0.1459809
91	0xbce8ee35	-0.028433898
92	0xbced7409	-0.028985994
93	0xbe02e1fe	-0.12781522
94	0xbec1df38	-0.37865615
95	0x3de81723	0.11332538
96	0xbcbaf385	-0.022821197
97	0xbeb6d4de	-0.3570928
98	0xbce13b9c	-0.027494244

hidden.1.weight f4 [99, 99]
0	0xbce872cd	-0.028375054
1	0x3e6f9557	0.23396812
2	0xbe0d2454	-0.1378339
3	0xbe0eb1d1	-0.13935019
4	0x3d9dff89	0.07714755
5	0xbf91741b	-1.1363558
6	0xbd85cfec	-0.065337986
7	0x3ebddfe7	0.37084886
8	0x3ecaaf32	0.39586788
9	0x3eed4de8	0.463485
10	0xbec79885	-0.3898355
11	0x3ea592b3	0.32338485
12	0x3de70b73	0.11281481
13	0x3de7cda3	0.11318519
14	0x3d77c62e	0.060491733
15	0xbf37e2cd	-0.71830446
16	0xbdf418d1	-0.11918796
17	0x3dc5ac16	0.096519634
18	0xbf018fba	-0.50609934
19	0x3eab4ad6	0.33455533
20	0xbb37583c	-0.0027976176
21	0xbe96007b	-0.29297242
22	0xbe57f051	-0.21087767
23	0xbeca16b6	-0.39470452
24	0x3d1d02b8	0.03833267
25	0xbeb6c93e	-0.3570041
26	0x3e16be76	0.14721093
27	0x3eaf5b56	0.3424937
28	0xbefe9adc	-0.49727523
29	0xbe3ef20e	-0.18647024
30	0xbef0ac03	-0.47006235
31	0x3e689eb9	0.22716798
32	0x3ada5b53	0.0016659297
33	0xbea31e7b	-0.31859192
34	0xbf004447	-0.5010418
35	0xbf8ed9db	-1.1160234
36	0x3f00d471	0.5032416
37	0xbea3ec0f	-0.32016036
38	0x3e8aa542	0.27079207
39	0x3e2e9fda	0.17053166
40	0x3f56d4b6	0.8391832
41	0xbe27e7e9	-0.1639706
42	0x3e2a33a1	0.16621257
43	0x3de71a76	0.11284344
44	0x3d7e3a11	0.062067095
45	0xbef03fb0	-0.4692359
46	0xbe5a1b5f	-0.21299504
47	0x3e988ac7	0.2979338
48	0xbd1b04ad	-0.037846256
49	0xbfe876f0	-1.8161297
50	0x3e5966eb	0.21230666
51	0xbe2d4a6e	-0.16922924
52	0xbead5d59	-0.3386028
53	0xbca3c163	-0.019989675
54	0x3eb1941e	0.34683317
55	0xbe4801fd	-0.19532008
56	0x3ca687f9	0.020328509
57	0xbe9b5584	-0.3033868
58	0x3e03d7a4	0.12875229
59	0x3e37fcdf	0.17967556
60	0xbe4a626a	-0.19764104
61	0xbf4b2b00	-0.7936249
62	0x3d11e53d	0.03561901
63	0x3e192376	0.14954934
64	0xbe6871a5	-0.22699602
65	0xbe5a0749	-0.21291842
66	0x3e1e8ff3	0.154846
67	0xbfec5907	-1.8464669
68	0x3e2c2f30	0.16814876
69	0xbc8464ef	-0.01616141
70	0xbe188587	-0.14894687
71	0x3ee6ca91	0.4507642
72	0xbf19751c	-0.5994432
73	0xbeaa7af7	-0.3329694
74	0xbec374be	-0.38175005
75	0xbf2ac086	-0.6670002
76	0x3e04eb9f	0.12980507
77	0xbd9e7904	-0.07737926
78	0x3cf54fec	0.029945336
79	0xbdd417e1	-0.10356117
80	0xbecf68ec	-0.40509737
81	0xbde488db	-0.111589156
82	0x3ebca0b6	0.36841363
83	0xbf37259d	-0.7154177
84	0x3e10d670	0.14144301
85	0x3f01fd0a	0.5077673
86	0x3e2780e5	0.16357763
87	0xbf07a40d	-0.52984697
88	0xbed0d333	-0.40786132
89	0xbd885cf9	-0.06658358
90	0xbd397430	-0.04527682
91	0x3e99f589	0.3007014
92	0x3ecf3410	0.40469408
93	0x3ecef034	0.40417635
94	0xbf9c45ea	-1.2208836
95	0x3ebfe8da	0.3748234
96	0xbee5363c	-0.4476794
97	0xbee8bc66	-0.45456237
98	0xbecf8fb7	-0.40539333
99	0xbe314811	-0.17312647
100	0x3e84e65a	0.25956994
101	0xbe68b49c	-0.22725147
102	0x3e93dfcf	0.2888169
103	0x3eae1c26	0.3400585
104	0x3e45d4cb	0.19319455
105	0x3e0c0704	0.13674551
106	0x3c0b52b3	0.008503604
107	0x3e73ed8b	0.23821084
108	0x3e9848f0	0.29743147
109	0xbe73a93c	-0.23795027
110	0xbe90f4c8	-0.28311753
111	0xbe81c30a	-0.25344115
112	0xbe411a58	-0.18857706
113	0x3edc9872	0.43085057
114	0x3def6698	0.1168949
115	0xbe3f07fe	-0.18655393
116	0x3e9e7af1	0.30953172
117	0x3e9ca6d3	0.30596027
118	0xbddba765	-0.10725287
119	0x3ea0b3c3	0.31387147
120	0x3c322171	0.010872231
121	0x3eb89d73	0.36057624
122	0x3db9561e	0.09049629
123	0x3e51c65c	0.20485824
124	0xbe11f131	-0.14252163
125	0xbe292a45	-0.16520031
126	0x3e4dc041	0.2009287
127	0xbe02b776	-0.12765297
128	0xbe7f8aa1	-0.24955226
129	0x3e3dde00	0.18541718
130	0xbe9e9e93	-0.30980358
131	0xbe09780c	-0.134247
132	0x3ebe0af7	0.3711774
133	0x3eca90fc	0.3956374
134	0xbda70dab	-0.08156904
135	0xbe1bebbd	-0.15226646
136	0x3e1c63bb	0.15272419
137	0x3dccc1d2	0.09997906
138	0xbe29d969	-0.16586842
139	0xbdb462f9	-0.0880794
140	0x3ec3b73e	0.3822574
141	0xbe3af6aa	-0.18258157
142	0xbb4dddc9	-0.0031412712
143	0xbea46d17	-0.3211448
144	0x3d98d210	0.07461941
145	0x3e931091	0.28723577
146	0x3de02bd2	0.10945858
147	0x3eb20ec2	0.34776884
148	0xbce331a7	-0.027733637
149	0x3e549aa8	0.20762122
150	0xbf3ba3f3	-0.7329704
151	0x3db5d117	0.08877771
152	0xbf4c2798	-0.79747915
153	0xbb5139d0	-0.0031925328
154	0xbdc48cfe	-0.095972046
155	0x3e23ff5b	0.16015379
156	0x3e6422d8	0.22278917
157	0xbf1d217b	-0.6137921
158	0xbe4563f0	-0.19276404
159	0xbe9985e5	-0.29984966
160	0xbd8d676c	-0.06904492
161	0xbe25a407	-0.16175853
162	0xbdc1f6e8	-0.09470922
163	0xbeb6dbbc	-0.3571452
164	0x3e0b975c	0.13631958
165	0x3e1fd5ec	0.15608948
166	0xbc36de0e	-0.01116134
167	0xbb93b4c0	-0.004507631
168	0x3dec0460	0.11524272
169	0xbe6611fe	-0.22467801
170	0x3ed5f61c	0.4178933
171	0xbe5c24ad	-0.21498366
172	0xbe817a90	-0.2528882
173	0xbf8d1267	-1.1021241
174	0x3d83670d	0.0641614
175	0xbe7d5f59	-0.24743403
176	0xbdc8191c	-0.09770414
177	0xbe1adbdd	-0.15122934
178	0x3de93082	0.11386205
179	0x3cc6108c	0.024177812
180	0xbde54ba0	-0.11196065
181	0xbeb3b7b1	-0.35101083
182	0xbe1eb802	-0.15499881
183	0x3d783bcf	0.060603913
184	0x3e26d38e	0.16291639
185	0x3d1df087	0.038559463
186	0x3d07c113	0.033143114
187	0xbea00b5a	-0.3125866
188	0xbdcd88e1	-0.10035873
189	0xbe86bcdd	-0.26315966
190	0xbea4b9ac	-0.32172906
191	0xbc67b55b	-0.01414236
192	0xbfa0777e	-1.2536466
193	0x3eb3c9ed	0.35114995
194	0x3dd9abe8	0.10628492
195	0xbe5a5fa0	-0.2132554
196	0x3e24a774	0.16079503
197	0xbf0b08f4	-0.54310536
198	0xbe897deb	-0.2685388
199	0x3e775f5d	0.24157472
200	0x3cdf0297	0.027222915
201	0x3ea209f2	0.31648213
202	0x3edaa541	0.42704204
203	0xbeebb00b	-0.46032748
204	0x3d5c5024	0.053787366
205	0x3d79121d	0.06080829
206	0xbdc8b674	-0.09800425
207	0x3eadcd29	0.33945587
208	0xbdaea6fc	-0.085279435
209	0xbea8f747	-0.33001158
210	0xbda9fc94	-0.083001286
211	0x3cdd0f5e	0.026984867
212	0xbc4f700a	-0.01266099
213	0xbea0784d	-0.31341782
214	0xbdb28ea3	-0.08718612
215	0x3e243045	0.16034038
216	0x3e9891b5	0.29798666
217	0xbe427d94	-0.18993217
218	0xbe958f04	-0.29210675
219	0x3e5f74d6	0.21821913
220	0x3cc3569f	0.023845015
221	0x3e13da46	0.14438733
222	0x3e9b70e4	0.30359566
223	0x3d507638	0.050893992
224	0x3ed1c96e	0.4097399
225	0x3e7116b6	0.2354382
226	0xbdc9143a	-0.09818311
227	0x3ed6a71a	0.41924363
228	0xbe6e2d75	-0.23259528
229	0xbdf9c032	-0.121948615
230	0x3c2be9b6	0.010492733
231	0x3e70510a	0.23468414
232	0x3d8c51de	0.068515524
233	0xbeb214a8	-0.34781384
234	0xbe53101e	-0.20611617
235	0x3e2a5a5a	0.16636029
236	0x3d09c241	0.03363252
237	0xbd4003ee	-0.046878748
238	0xbd3aee2f	-0.045637306
239	0x3dedfcb7	0.11620467
240	0xbd15256a	-0.036412634
241	0xbdeee88b	-0.11665448
242	0x3e83dc9e	0.25754255
243	0x3e10f607	0.14156352
244	0xbec4a79e	-0.38409132
245	0x3ed8ee3a	0.42369252
246	0x3eac77c9	0.3368514
247	0x3e2c539d	0.16828771
248	0xbe8c7a7a	-0.27437192
249	0xbed4efd9	-0.4158924
250	0xbe809099	-0.2511032
251	0xbd798ceb	-0.060925405
252	0x3cfe658a	0.031054277
253	0x3e4dc3a8	0.20094168
254	0xbe464527	-0.19362317
255	0xbebb9680	-0.3663826

hidden.1.bias f4 [99]
0	0xbe453e2d	-0.19262
1	0xbe474e34	-0.19463426
2	0x3e4da2fc	0.20081705
3	0xbe8840e8	-0.2661202
4	0xbcc22783	-0.023700481
5	0xbebef02b	-0.3729261
6	0xbc8c8cde	-0.017157014
7	0xbd561456	-0.052265488
8	0x3bac296b	0.005253961
9	0xbe896153	-0.26832065
10	0x3e051b0f	0.12998603
11	0xbe796e29	-0.24358429
12	0x3d816403	0.06317904
13	0x3d4b1113	0.04957683
14	0x3e0587d6	0.13040099
15	0xbe0c7eb7	-0.13720213
16	0xbe0bdbdd	-0.1365809
17	0xbed3098f	-0.4121823
18	0xbed9f182	-0.42567068
19	0xbeaf097e	-0.3418693
20	0x3e6e69ca	0.23282543
21	0x3d215e27	0.03939643
22	0x3e944084	0.28955472
23	0x3ca7f003	0.020500189
24	0xbd0fa4b8	-0.035069197
25	0x3ea7fda7	0.3281071
26	0xbf0db3e3	-0.5535261
27	0x3e2edfa7	0.17077504
28	0x3e0f0aa9	0.1396891
29	0x3d685e31	0.056730453
30	0xbdc9baae	-0.098500594
31	0x3eaf5981	0.34247974
32	0xbe469bb0	-0.19395328
33	0xbe681992	-0.22666004
34	0x3d576a64	0.052591696
35	0xbd41cfd2	-0.047317334
36	0xbec9aecf	-0.3939118
37	0xbf19b6a9	-0.6004434
38	0x3d8ba4f7	0.06818574
39	0x3e7abfa1	0.24487163
40	0x3c420038	0.0118408725
41	0xbf1fbdc8	-0.6239896
42	0x3d25fbd6	0.040523373
43	0x3e59bc15	0.21263154
44	0xbe54943c	-0.20759672
45	0xbe2b5fab	-0.16735713
46	0x3cb2815c	0.021790199
47	0x3d5e92fa	0.054339387
48	0xbdc10d74	-0.09426394
49	0xbd83a5dd	-0.0642812
50	0x3dc071b8	0.0939669
51	0xbe879de8	-0.2648766
52	0x3ebe7eb5	0.37206045
53	0xbe34df68	-0.17663348
54	0xbd01e9d4	-0.031717137
55	0xbe22de5a	-0.15905133
56	0x3ed2f5a3	0.4120303
57	0xbdb8097d	-0.08986185
58	0xbd69262b	-0.056921165
59	0xbdb5fdb4	-0.08886281
60	0xbe4c5370	-0.19953704
61	0xbe0658bd	-0.13119788
62	0x3e9ab8a7	0.30219004
63	0xbea17634	-0.31535494
64	0x3e0e97a6	0.13925037
65	0x3e75921e	0.2398152
66	0x3dce0425	0.10059384
67	0xbe686dc7	-0.22698127
68	0x3c7a42db	0.015274729
69	0xbecc24b4	-0.39871752
70	0xbf05bf94	-0.5224545
71	0xbea9d305	-0.33168808
72	0x3eaad67d	0.33366767
73	0xbee91147	-0.45520994
74	0xbd8afd5b	-0.06786605
75	0xbecc6b57	-0.39925644
76	0x3d4446c8	0.047919065
77	0xbe047859	-0.12936534
78	0xbe5add98	-0.21373594
79	0x3d435135	0.047684867
80	0xbdb0e1d4	-0.08636823
81	0xbd61b612	-0.055105276
82	0xbec10efe	-0.3770675
83	0xbeb5ef25	-0.35534015
84	0xbdb398e0	-0.08769393
85	0xbdee7436	-0.11643259
86	0xbf46384d	-0.7742966
87	0xbe2f766e	-0.17135021
88	0xbe17c87c	-0.14822572
89	0x3df3253b	0.118723355
90	0xbd122d52	-0.035687752
91	0x3d9fd12a	0.07803567
92	0xbf04b4fa	-0.5183865
93	0x3d11a99f	0.035562154
94	0xbe609fb0	-0.21935916
95	0x3e90b607	0.28263876
96	0x3e3230ad	0.17401381
97	0xbdf69687	-0.120404296
98	0x3e6f5ed9	0.23376025

hidden.2.weight f4 [99, 99]
0	0x3d9eab54	0.07747522
1	0xbe3d1809	-0.184662
2	0x3e91f2b7	0.2850549
3	0x3dbe7bf3	0.09300985
4	0x3e890300	0.267601
5	0x3e945794	0.28973067
6	0x3d73af4a	0.05949334
7	0x3d020555	0.031743366
8	0x3e273863	0.16330104
9	0x3e14c7f0	0.14529395
10	0xbe1da2fb	-0.15394203
11	0xbd50b8b6	-0.050957404
12	0xbb38e658	-0.0028213467
13	0xbe5ed28a	-0.21760002
14	0xbbb29acd	-0.0054505826
15	0x3e4f9326	0.20270976
16	0xbe455d18	-0.19273794
17	0xba84094e	-0.0010073574
18	0xbeb43ba4	-0.35201752
19	0xbffa7070	-1.9565563
20	0x3d11e8cd	0.035622407
21	0x3d9ecfe3	0.07754495
22	0x3dbecd5f	0.09316515
23	0x3e28b2e4	0.16474491
24	0xbe823d36	-0.25437325
25	0x3e767e22	0.24071553
26	0xbdf64ec1	-0.1202674
27	0x3e4ab5b6	0.1979588
28	0x3cff06a8	0.031131104
29	0x3e573595	0.21016534
30	0x3da3c1d2	0.07995953
31	0x3e116760	0.1419959
32	0x3e182cb4	0.14860803
33	0x3de2c569	0.11072809
34	0x3e9a37ab	0.30120596
35	0x3e4aaeb3	0.19793205
36	0xbe0fa010	-0.14025903
37	0x3e831589	0.25602368
38	0x3e66009f	0.22461174
39	0xbda4beb3	-0.080441855
40	0x3dac8eba	0.084256604
41	0x3dc96825	0.09834317
42	0xbd78c0a5	-0.060730595
43	0x3d99f074	0.07516566
44	0xbc33b6f8	-0.010968916
45	0xbe81f640	-0.25383186
46	0x3cfc81e1	0.03082365
47	0x3dca9ab3	0.09892788
48	0xbe56c38b	-0.20973031
49	0x3ec24589	0.37943676
50	0xbc18e3c1	-0.0093316445
51	0xbdfb8f7c	-0.12283227
52	0xbd596b56	-0.05308088
53	0xbdfd8ced	-0.12380395
54	0xbdb17c6a	-0.08666308
55	0x3e0ef8f0	0.1396215
56	0x3ea361db	0.31910595
57	0x3e387570	0.18013549
58	0xbd3a6569	-0.04550687
59	0xbda936ca	-0.08262403
60	0xbe0be15d	-0.13660188
61	0xbec12f72	-0.3773151
62	0x3d11d087	0.035599258
63	0xbdd5ee72	-0.104458705
64	0xbeac71d4	-0.33680594
65	0xbec86ae8	-0.39144063
66	0x3ce3f5d7	0.027827187
67	0x3ec20bad	0.37899533
68	0xbe7c5ec3	-0.24645524
69	0x3e08e659	0.1336912
70	0xbdd1726f	-0.102269046
71	0xbbbe9ee9	-0.0058172834
72	0xbdf81db3	-0.1211504
73	0x3cd8cc75	0.02646468
74	0xbe6a2287	-0.22864734
75	0xbe7dc9e2	-0.24784043
76	0x3e3539d2	0.17697838
77	0x3e6e713b	0.23285381
78	0xbe06ebb2	-0.13175848
79	0x3e1d53df	0.15364026
80	0xbe2835c8	-0.16426766
81	0xbde22481	-0.11042119
82	0xbdadd50b	-0.084879
83	0xbe19ef19	-0.15032615
84	0x3ea2921c	0.31752098
85	0x3dadbfa0	0.08483815
86	0xbe411486	-0.18855485
87	0xbe2a3a97	-0.16623913
88	0x3d911754	0.070845276
89	0x3e85d7a8	0.26141095
90	0xbe87370d	-0.26409188
91	0xbe1d5a5d	-0.15366502
92	0x3e98facd	0.29878846
93	0xbd59e6cb	-0.053198617
94	0xbe3df87f	-0.18551825
95	0x3e30bcc8	0.17259514
96	0xbc6cff48	-0.014465161
97	0xbdfc4daf	-0.123195045
98	0x3b86768f	0.0041034888
99	0xc096ac2d	-4.7085176
100	0x3d8266e8	0.06367284
101	0x3ee6d36e	0.45083183
102	0x3d062361	0.032748584
103	0x3b108cfd	0.0022056692
104	0x3e08d5fa	0.13362876
105	0xbe907089	-0.28210858
106	0x3dae5746	0.0851274
107	0x3e38a9cd	0.18033524
108	0xbea71675	-0.3263432
109	0x3db67a53	0.0891005
110	0x3ea4a177	0.32154438
111	0xbd5e71bd	-0.054307688
112	0x3d1a9683	0.037741195
113	0x3e83bb74	0.25728953
114	0xbd899aa7	-0.06718951
115	0x3f1acc88	0.6046834
116	0x3e5baf2f	0.21453546
117	0xbf94150d	-1.1568924
118	0x3eae6f7a	0.34069425
119	0x3e310f17	0.17290913
120	0x3e5c9f2a	0.21545091
121	0x3e2f199c	0.17099613
122	0xbf1f1336	-0.6213869
123	0x3d398402	0.045291908
124	0xbee8c4fc	-0.45462787
125	0x3ee362e1	0.44411376
126	0xbe2d124e	-0.16901514
127	0xbd82f2f0	-0.06393993
128	0x3c11517f	0.008869528
129	0x3bc381d7	0.005966406
130	0xbe6048d9	-0.21902789
131	0xbd0fae75	-0.035078485
132	0xbe797c66	-0.2436386
133	0xbf822f0c	-1.0170608
134	0x3e847733	0.25872192
135	0xbe595247	-0.21222793
136	0xbf02f6b4	-0.5115769
137	0x3d455466	0.04817619
138	0xbdaade9e	-0.08343242
139	0x3d03fb83	0.032222282
140	0x3e3a399e	0.18186042
141	0xbead8935	-0.33893743
142	0x3eb3a162	0.35084063
143	0xbd1d9e6b	-0.038481157
144	0x3e54321e	0.20722243
145	0xbf21269d	-0.62949544
146	0xbf0604b7	-0.52350944
147	0xbe8d5201	-0.27601627
148	0x3e844b06	0.25838488
149	0xbf364034	-0.71191716
150	0xbe47c8ce	-0.19510195
151	0xbec8d8a5	-0.39227787
152	0xbe91e57f	-0.28495404
153	0x3e1143b0	0.14185977
154	0x3d881586	0.0664473
155	0xbe763e96	-0.24047312
156	0x3f20c4c6	0.6280025
157	0x3e289047	0.16461287
158	0xbee439c1	-0.44575313
159	0x3e1c777a	0.15279952
160	0xbebd21cc	-0.36939847
161	0x3ddaeac5	0.1068931
162	0xbd4649c2	-0.048410185
163	0x3e8ce1ca	0.27516013
164	0x3e3f36b9	0.18673219
165	0x3e80cb06	0.25154895
166	0x3e9312f9	0.28725412
167	0xbe34dc08	-0.1766206
168	0xbc8e3cfb	-0.017363062
169	0xbe164f0f	-0.14678596
170	0xbe803ead	-0.25047818
171	0xbecb1155	-0.3966166
172	0x3e632b7f	0.22184561
173	0x3cf17e6d	0.02947923
174	0xbf003415	-0.5007947
175	0x3e1e3d68	0.15453112
176	0x3df1916e	0.11795317
177	0x3e11a1f6	0.1422194
178	0x3be4cece	0.006982661
179	0x3e814143	0.25245103
180	0x3db685ad	0.089122154
181	0x3e71f168	0.23627245
182	0x3c88f3dd	0.016717846
183	0xbf7c31bd	-0.98513395
184	0x3c5bc5f2	0.013413893
185	0x3f002e8c	0.50071025
186	0x3e26c7cf	0.16287158
187	0xbf0b9adc	-0.5453317
188	0x3ddd4a71	0.10805214
189	0xbcf98cdd	-0.030462677
190	0xbda64ed1	-0.08120502
191	0xbe6ea413	-0.23304777
192	0x3eae5321	0.34047797
193	0xbc9cd9d4	-0.019146837
194	0xbe09f63b	-0.13472836
195	0x3e395410	0.18098474
196	0x3d9a29cb	0.075275026
197	0x3e8c3761	0.27386
198	0xbeb83fcb	-0.3598617
199	0xbe30e89f	-0.17276238
200	0x3efa5b44	0.48897755
201	0x3da948ea	0.082658604
202	0x3f04d496	0.5188688
203	0xbeda9270	-0.42689848
204	0xbef401cb	-0.47657618
205	0xbf92083b	-1.1408762
206	0xbfb13c24	-1.3846478
207	0xbd2cd310	-0.042193472
208	0xbe9aff05	-0.3027269
209	0xbfe25eb5	-1.7685152
210	0x3dc9bee5	0.09850863
211	0x3e5a0a3e	0.2129297
212	0x3edb12ac	0.42787683
213	0xbc1b31db	-0.009472336
214	0xbfc8de73	-1.5692886
215	0x3ec5e27f	0.38649365
216	0x3dfd5ad6	0.12370841
217	0xbfa6a4a8	-1.3018999
218	0x3e24ea69	0.16105045
219	0xbe075bdc	-0.13218635
220	0xbf166c3d	-0.5875891
221	0x3f084265	0.5322631
222	0x3e8a9da9	0.2707341
223	0xbec6641f	-0.3874826
224	0xbdf2727f	-0.11838245
225	0xbd6261c8	-0.055269033
226	0x3e66ea9d	0.22550435
227	0x3b160dca	0.0022896403
228	0x3e9e0dda	0.30869943
229	0xbb5e9cca	-0.0033967965
230	0xbe162a57	-0.14664589
231	0xbf11e9c7	-0.5699734
232	0x3eebf5e7	0.46086046
233	0xbf1c3754	-0.61021924
234	0x3bd34e75	0.006448562
235	0x3eda938d	0.42690697
236	0xbe0aa02d	-0.13537665
237	0xbe966011	-0.29370168
238	0xbf977e08	-1.1835337
239	0x3e167613	0.14693479
240	0x3daf702e	0.085663185
241	0xbe1b9355	-0.15192921
242	0xbf8dd748	-1.1081324
243	0x3e896aeb	0.26839384
244	0x3c29cb4e	0.010363413
245	0xbe02a2fc	-0.12757486
246	0x3f3243db	0.6963479
247	0xbf0e8544	-0.556721
248	0xbe9e3ecc	-0.30907285
249	0xbcbacf0b	-0.022803804
250	0x3e215c1a	0.1575779
251	0xbf27d17a	-0.6555401
252	0xbe815e2c	-0.2526716
253	0x3e197d27	0.14989148
254	0x3ccb3e10	0.024809867
255	0x3ea18534	0.31546938

hidden.2.bias f4 [99]
0	0xbe13c962	-0.1443229
1	0x3d637fc2	0.05554176
2	0xbf16a7ce	-0.588498
3	0xbd917b22	-0.07103564
4	0xbe3d8401	-0.18507387
5	0xbeacddfb	-0.33763108
6	0xbeb2999a	-0.34882814
7	0xbea6421d	-0.32472315
8	0xbe6e584b	-0.23275869
9	0xbdc49097	-0.09597891
10	0xbd3b4edb	-0.0457295
11	0xbcd3d139	-0.025856601
12	0x3dad0553	0.08448281
13	0xbe1d20ac	-0.15344495
14	0x3e6edc8d	0.23326321
15	0xbf330e97	-0.6994414
16	0xbec11e79	-0.3771856
17	0xbef5f1da	-0.4803608
18	0xbf2b0587	-0.6680531
19	0xbe52b6f3	-0.20577602
20	0xbe060060	-0.1308608
21	0xbed8d484	-0.42349637
22	0xbec80ca6	-0.3907215
23	0xbf163adf	-0.5868358
24	0xbc04e225	-0.008110558
25	0xbdc2bbc0	-0.09508467
26	0xbe17e96f	-0.14835142
27	0x3e3a13fe	0.18171689
28	0xbe0f1325	-0.13972147
29	0xbe2e4289	-0.17017569
30	0xbefe006b	-0.49609694
31	0xbe3d5dba	-0.18492785
32	0xbe90b11b	-0.2826012
33	0xbe6b31dc	-0.22968239
34	0xbd5c35a5	-0.053762097
35	0xbec4f00f	-0.384644
36	0xbed41205	-0.41419998
37	0x3e5461fd	0.20740505
38	0xbeb5482c	-0.35406625
39	0xbcc580db	-0.024109295
40	0x3ec8223c	0.3908862
41	0xbe0a52f0	-0.135082
42	0x3e33f258	0.17572916
43	0xbce62bea	-0.028097112
44	0xbdf6c9aa	-0.12050183
45	0x3e2cfa28	0.16892302
46	0xbe3b9869	-0.18319859
47	0xbdd28ddd	-0.102809645
48	0x3e7687ef	0.24075292
49	0xbe957428	-0.29190183
50	0xbe6b1d6f	-0.22960447
51	0x3c6c19a3	0.014410409
52	0xbeda7339	-0.42666033
53	0xbe212146	-0.15735349
54	0xbf351150	-0.7072954
55	0x3e224d67	0.15849839
56	0xbe9ea973	-0.30988654
57	0x3e79b2f8	0.24384677
58	0xbeab8fe3	-0.33508214
59	0xbe14684e	-0.14492914
60	0xbeca492c	-0.3950895
61	0x3d8dda4a	0.06926401
62	0xbea18bc1	-0.31551936
63	0xbad0d3d8	-0.0015932275
64	0xbf0f60d3	-0.5600712
65	0xbedb68dc	-0.4285344
66	0xbe574052	-0.2102063
67	0xbea1100f	-0.31457564
68	0xbf01d4f5	-0.5071557
69	0x3c15d141	0.009144128
70	0x3e671121	0.22565128
71	0x3cb0903b	0.02155315
72	0xbe909e96	-0.2824599
73	0xbefbdd56	-0.49192303
74	0xbeafa930	-0.34308767
75	0xbcbdd200	-0.023171425
76	0xbe402c45	-0.18766887
77	0x3e89f19b	0.26942143
78	0xbe5c4a1f	-0.2151265
79	0xbe499f26	-0.19689617
80	0xbf142073	-0.57862014
81	0xbd096232	-0.033540912
82	0x3dbc434a	0.09192522
83	0x3dd81a89	0.10551936
84	0xbeaf370d	-0.34221688
85	0x3edc5632	0.43034512
86	0xbe362866	-0.17788848
87	0xbe4284a2	-0.18995908
88	0xbe8fac85	-0.2806131
89	0xbe8ccc42	-0.27499586
90	0x3e7fe790	0.24990678
91	0xbe5dc965	-0.21658857
92	0xbf08e8e2	-0.5348035
93	0xbb88785f	-0.00416474
94	0x3d4d6f3a	0.050154902
95	0xbf448575	-0.7676614
96	0x3e49b305	0.19697197
97	0xbe110f69	-0.14166035
98	0xbcfc8856	-0.030826729

hidden.3.weight f4 [99, 99]
0	0xbd497170	-0.049180448
1	0xbd231b63	-0.03982104
2	0xbd6e49b6	-0.058175765
3	0x3cfa7c56	0.030576866
4	0xbdabae78	-0.08382887
5	0xbdf3d754	-0.11906305
6	0xbdd98ec5	-0.10622934
7	0xbd7d46de	-0.061835162
8	0xbd4d264b	-0.050085347
9	0x3d2c1eba	0.04202149
10	0x3d7a787a	0.06115005
11	0xbe10719f	-0.14105843
12	0xbb2f2ed5	-0.0026730795
13	0xbdcd55db	-0.10026141
14	0xbc23d6a7	-0.009999908
15	0xbcda295c	-0.02663105
16	0xbda9694d	-0.08272038
17	0x3c7aeab8	0.01531475
18	0xbdad8d12	-0.08474173
19	0xba0a7bdf	-0.00052827405
20	0xbc2c83a0	-0.010529429
21	0xbd50fda6	-0.051023148
22	0xbc1f2ce6	-0.009715294
23	0xbdbd84a6	-0.09253816
24	0xbdc8fa0b	-0.09813317
25	0xbd58fd4e	-0.052975945
26	0xbc806bae	-0.015676346
27	0xba5c7394	-0.00084095565
28	0x3d5a4006	0.053283714
29	0x3d7c3c47	0.061580922
30	0xbdb12404	-0.086494476
31	0xbdeca88a	-0.11555584
32	0xbd980677	-0.07423108
33	0x3c9ee674	0.019396998
34	0xbdb6bc2d	-0.089226104
35	0x3bff4bb4	0.007791007
36	0x3c275f41	0.010215581
37	0xbd55acb0	-0.05216664
38	0xbd88546a	-0.06656726
39	0x3ce25c96	0.027632039
40	0xbd89d796	-0.06730573
41	0xbddb86ac	-0.10719046
42	0xbd020ea4	-0.031752244
43	0xb7ae3036	-2.0764866e-05
44	0x3d5663b6	0.052341186
45	0xbd11ca91	-0.035593573
46	0xbe068173	-0.13135318
47	0xbcb3ea6f	-0.021962373
48	0xbe2497ce	-0.16073534
49	0xbd9d13e4	-0.076698095
50	0xbd816459	-0.06317968
51	0x3c6f4b31	0.014605329
52	0xbd058f05	-0.032607097
53	0xbd93d331	-0.07218016
54	0xbdeacd9c	-0.11464998
55	0xbd0fb593	-0.035085272
56	0x3d338905	0.043831844
57	0x3ca3fa4f	0.020016817
58	0x3c53f271	0.0129362205
59	0xbd39aabb	-0.045328837
60	0xbd373f51	-0.044738118
61	0x3be76942	0.0070621083
62	0x3d77ba21	0.06048024
63	0x3c065a62	0.00820026
64	0xbd423e1e	-0.04742252
65	0xbdd59959	-0.10429639
66	0xbd1cf51b	-0.03831969
67	0x3cdec839	0.027195083
68	0xbdf8db94	-0.12151256
69	0xbd230222	-0.039796956
70	0xbda51f68	-0.08062631
71	0xbd9afb24	-0.075674325
72	0xbd1b23e8	-0.03787604
73	0xbba67880	-0.0050802827
74	0xbdc1f067	-0.09469681
75	0x3bdf889e	0.006821706
76	0xbd6b9955	-0.057519276
77	0xbd10da33	-0.03536434
78	0xbc22fb85	-0.009947662
79	0xbdc45316	-0.0958616
80	0xbc87428b	-0.016511222
81	0x3d05f148	0.032700807
82	0x3d3b7326	0.04576411
83	0xbd51e073	-0.051239442
84	0xbdc5e5a4	-0.09662941
85	0xbe00742b	-0.12544315
86	0x3d047dc4	0.032346502
87	0xbdf3843b	-0.11890455
88	0xbe078cf7	-0.13237368
89	0xbd366429	-0.044529114
90	0x3d146060	0.036224723
91	0xbc8c4790	-0.017123967
92	0xbd4df76b	-0.050284784
93	0xbd048444	-0.0323527
94	0xbd403a5e	-0.046930663
95	0xbc357533	-0.011075306
96	0xbc8e1e46	-0.01734842
97	0x3c1c39d3	0.009535271
98	0x3d33b265	0.043871302
99	0x3cbc01ec	0.022950135
100	0xbe37ed5e	-0.17961642
101	0x3e008a14	0.12552673
102	0xbdb57aa8	-0.088612854
103	0xbd792d1a	-0.060834028
104	0xbb830c66	-0.0039992807
105	0x3f2e12b8	0.6799731
106	0x3e267f91	0.162596
107	0xbd930970	-0.071795344
108	0x3ca56d63	0.020193761
109	0x3e555814	0.2083438
110	0xbe98c379	-0.29836634
111	0x3e85fb71	0.26168397
112	0x3eead297	0.45863792
113	0xbe3a813b	-0.1821336
114	0x3e820a70	0.25398588
115	0x3e0a34db	0.13496725
116	0xbe8aec28	-0.27133298
117	0x3e11a47b	0.142229
118	0x3d712c8e	0.05888038
119	0xbee2da93	-0.44307384
120	0x3f2257cf	0.63415235
121	0xbe84f6d6	-0.2596957
122	0x3e47033f	0.19434832
123	0x3d18c6d7	0.037299003
124	0xbec4bd2d	-0.3842558
125	0x3e4a1d6d	0.19737788
126	0x3c4c7e30	0.012481257
127	0x3dc81866	0.09770279
128	0x3ed863cd	0.42263642
129	0x3e4e08a7	0.20120488
130	0xbe8637a2	-0.2621432
131	0x3e00d439	0.12580957
132	0xbe3491ac	-0.17633694
133	0xbe0c604a	-0.13708606
134	0x3ed64fcd	0.41857758
135	0x3ea9910e	0.3311848
136	0x3d9d0c03	0.07668307
137	0xbe49ecb3	-0.197192
138	0xbf2d5e1e	-0.67721736
139	0x3e13f527	0.14448987
140	0xbd8f683d	-0.07002304
141	0xbe8363ef	-0.2566218
142	0x3ebf58be	0.37372392
143	0x3e0c1d4d	0.13683052
144	0xbda78fc9	-0.08181722
145	0x3f1ba7d0	0.60802937
146	0x3e151d17	0.14561878
147	0x3e96cc55	0.29452768
148	0xbd8542db	-0.06506892
149	0x3ed615b4	0.41813433
150	0xbee5effc	-0.44909656
151	0xbdc7d846	-0.09758048
152	0x3e9206dc	0.28520858
153	0xbe7b84ca	-0.24562374
154	0xbd75d1d2	-0.060014553
155	0x3f1dfba2	0.61712086
156	0xbe5da6d2	-0.21645668
157	0xbeff0c15	-0.49813905
158	0x3daad848	0.083420336
159	0x3e23d498	0.15999067
160	0xbeaa9d35	-0.33323064
161	0xbf1b95c0	-0.60775375
162	0xbe829b73	-0.25509223
163	0x3ec536c6	0.3851835
164	0xbe158554	-0.14601642
165	0xbeb679bb	-0.35639748
166	0xbdf23b29	-0.1182769
167	0x3e8310ab	0.25598654
168	0xbf17913c	-0.59205985
169	0x3ea19269	0.31557015
170	0x3e6e91db	0.23297827
171	0xbdebac6c	-0.11507496
172	0x3e169cc0	0.14708233
173	0xbc89a525	-0.01680238
174	0xbde17b39	-0.11009831
175	0xbf43d2a2	-0.76493275
176	0xbe65a61c	-0.22426647
177	0xbcb4ffa2	-0.022094551
178	0xbf2acb28	-0.6671624
179	0x3ee4c559	0.44681814
180	0x3dca009e	0.09863399
181	0xbbd8a48f	-0.006611414
182	0xbeef3b30	-0.46724844
183	0xbe228488	-0.15870869
184	0x3e8ac94c	0.27106702
185	0xbf181076	-0.5940012
186	0xbc8ceec7	-0.017203702
187	0x3dde8aa5	0.10866288
188	0xbed08c6c	-0.40732133
189	0xbedd5830	-0.43231344
190	0xbf383c02	-0.71966565
191	0xbe82af49	-0.25524357
192	0xbea5a5be	-0.32353014
193	0x3dab2d1b	0.083582126
194	0x3ee5d114	0.44886076
195	0xbdb831c3	-0.08993866
196	0x3f0e76d4	0.5565007
197	0x3e614040	0.21997166
198	0x3daae917	0.083452396
199	0xbd122b81	-0.03568602
200	0xbe67bb82	-0.22630122
201	0xbd3774da	-0.044789173
202	0xbe1cc1c0	-0.15308285
203	0x3db9006c	0.090332836
204	0x3f264969	0.64955765
205	0xbe4c9c7a	-0.19981566
206	0x3e418485	0.18898208
207	0x3e33d6c2	0.17562392
208	0x3ee987a2	0.45611292
209	0x3d3a4905	0.045479793
210	0xbe2a0ba9	-0.1660601
211	0x3f1bf398	0.6091857
212	0xbf3946fd	-0.72373945
213	0xc01450ef	-2.3174398
214	0x3eafb732	0.34319454
215	0xbd309b3a	-0.043116786
216	0xbe158e0e	-0.14604971
217	0xbe212b7d	-0.15739246
218	0x3dcb2b26	0.09920339
219	0x3ed8b46f	0.4232516
220	0xbe63bcc5	-0.22239979
221	0xbf1143e6	-0.5674423
222	0x3c91f980	0.017819166
223	0x3e98aa88	0.29817605
224	0x3e0135a2	0.12618116
225	0xbe1f8eb5	-0.15581782
226	0x3e55b2b8	0.20868957
227	0x3e571ec3	0.21007828
228	0xbd899863	-0.067185186
229	0x3dc72e4c	0.09725627
230	0xbedd37b0	-0.4320655
231	0x3ec9f7b7	0.39446804
232	0x3e096fad	0.13421507
233	0x3e1f6e5c	0.15569443
234	0xbebd0cd7	-0.3692386
235	0xbe8521a1	-0.2600222
236	0xbe777ce8	-0.24168742
237	0xbc4fafe5	-0.012676214
238	0x3ec750ba	0.38928777
239	0xbed9764b	-0.42473063
240	0xbba50465	-0.0050359243
241	0x3e191a39	0.1495141
242	0xbdab794c	-0.08372745
243	0xbe8fbd73	-0.28074226
244	0xbe50eb43	-0.20402245
245	0xbe8e7822	-0.2782603
246	0xbe966a9e	-0.29378217
247	0xbe299fe5	-0.16564901
248	0x3e471b9c	0.19444126
249	0x3cd97bae	0.026548233
250	0x3bd65579	0.006540951
251	0x3ebdfea3	0.37108335
252	0xbf815ed2	-1.0107062
253	0xbbb434fe	-0.005499481
254	0x3c0da515	0.008645316
255	0xbf7d12d6	-0.98856866

hidden.3.bias f4 [99]
0	0xbb077531	-0.0020669217
1	0xbe82d4af	-0.2555289
2	0xbe8f8d6c	-0.28037584
3	0xbc1d57fa	-0.009603495
4	0xbf54ad54	-0.8307698
5	0xbe566093	-0.20935278
6	0xbea132da	-0.3148411
7	0xbe8b879f	-0.27251908
8	0xbf869e1f	-1.0517005
9	0xbe48497d	-0.19559284
10	0xbeab9d6f	-0.3351855
11	0xbe22a380	-0.15882683
12	0xbe418665	-0.18898924
13	0x3e786921	0.24258853
14	0xbeb2c3e8	-0.3491509
15	0xbd7e7873	-0.062126588
16	0xbe3cc685	-0.18435104
17	0xbea98ed9	-0.33116797
18	0xbf467bd0	-0.7753267
19	0xbedcd2c4	-0.4312955
20	0xbf0eebb4	-0.55828404
21	0xbe710633	-0.23537521
22	0xbe8af03f	-0.27136418
23	0xbe1069bc	-0.14102834
24	0xbf262a08	-0.64907885
25	0xbeafb894	-0.3432051
26	0xbe7ed5e3	-0.24886279
27	0xbe39a0a9	-0.18127693
28	0xbef986ff	-0.48735806
29	0xbf8436ac	-1.0329185
30	0xbe588f34	-0.21148378
31	0xbeb38eed	-0.3506998
32	0xbf0fa1c4	-0.5610621
33	0xbed7fcb1	-0.42184976
34	0xbdcb4d34	-0.09926835
35	0xbf033a85	-0.5126117
36	0xbee8fab5	-0.45503774
37	0xbead5a52	-0.3385797
38	0xbc9d4fd7	-0.01920311
39	0xbecf07e2	-0.40435702
40	0xbf3ce9ff	-0.7379455
41	0xbf78e2f6	-0.97221315
42	0xbe833ea3	-0.25633726
43	0xbeb9e821	-0.36309913
44	0xb9e18b3c	-0.00043019082
45	0xbeab8b28	-0.33504605
46	0xbf12c7ee	-0.5733632
47	0xbe119a4a	-0.14219013
48	0xbf293d0d	-0.6610878
49	0xbdd366e3	-0.103223585
50	0xbf0256ca	-0.5091368
51	0x3ed6e447	0.41971037
52	0xbf526b02	-0.8219453
53	0xbeab918b	-0.33509478
54	0xbf16b9a5	-0.5887702
55	0xbe85a1e9	-0.2610009
56	0xbe0ba1ee	-0.1363599
57	0xbf14558c	-0.57943034
58	0xbe3ba8c5	-0.18326099
59	0xbd35d600	-0.04439354
60	0x3dc1d284	0.09463981
61	0xbf3d1f10	-0.7387552
62	0xbc7e4530	-0.015519425
63	0xbd10ef85	-0.035384674
64	0xbe6d71d2	-0.2318795
65	0xbf4aeff5	-0.79272395
66	0xbe3f2b6d	-0.1866891
67	0xbed1d7d4	-0.40984976
68	0x3bba0b61	0.005677626
69	0xbe9e3177	-0.30897114
70	0xbe3bb059	-0.1832899
71	0x3e80bf1c	0.25145805
72	0xbecb2a49	-0.396807
73	0xbf1dabea	-0.61590445
74	0xbe6299d8	-0.22128999
75	0xbed21120	-0.4102869
76	0xbf6b60b6	-0.91944444
77	0xbead69d4	-0.33869803
78	0xbeae217c	-0.34009922
79	0xbec2dc30	-0.38058615
80	0xbe810294	-0.2519728
81	0xbf0a6b91	-0.54070383
82	0xbf179ca4	-0.5922339
83	0xbe77b3db	-0.24189703
84	0xbe153790	-0.14571977
85	0xbf028604	-0.5098574
86	0xbd6ea381	-0.0582614
87	0xbe47bb51	-0.1950505
88	0xbb83eec2	-0.004026265
89	0xbf075b1e	-0.5287341
90	0x3ddade75	0.106869616
91	0xbf2ea878	-0.6822581
92	0xbe00eae5	-0.12589605
93	0xbe71b403	-0.23603825
94	0xbca02d95	-0.019552985
95	0xbe165df3	-0.14684276
96	0xbe68f65f	-0.22750233
97	0xbea38431	-0.31936792
98	0xbd98a3dd	-0.074531294
