models/7x7-4-99-tanh/100episodes.pth (torch, 202354 bytes, 12 tensors)

input_layer.weight f4 [99, 50]
0	0x3df98745	0.12184004
1	0xbe37a7c1	-0.17935087
2	0xbdf0ee83	-0.117642425
3	0xbe3547d2	-0.17703179
4	0xbe1e4800	-0.15457153
5	0xbde0caf5	-0.10976211
6	0xbe0edfb3	-0.13952522
7	0x3d9d30a1	0.07675291
8	0xbd2f3b19	-0.04278097
9	0x3d2f3da8	0.04278341
10	0x3ccb359d	0.024805838
11	0x3ddf2ab3	0.10896816
12	0xbd55c756	-0.052192055
13	0xbdfa12a4	-0.12210587
14	0xbd91d509	-0.07120711
15	0x3d592632	0.05301494
16	0x3d06576e	0.032798223
17	0x3c8f5df6	0.017500859
18	0x3dfb9c70	0.122856975
19	0x3ccfb28f	0.025353698
20	0xbe2666cf	-0.16250156
21	0x3e3900c7	0.18066703
22	0x397eb380	0.00024290197
23	0x3c176c8a	0.009242186
24	0x3c30a718	0.010782026
25	0x3e13a3cd	0.14417954
26	0xbdb7c124	-0.089723855
27	0xbe229d03	-0.15880208
28	0xbe0c5379	-0.13703717
29	0x3d72b9e5	0.059259314
30	0xbde9e141	-0.11419917
31	0xbde12876	-0.109940454
32	0xbc71f151	-0.014767007
33	0xbd0b6002	-0.034027107
34	0xbde79205	-0.11307148
35	0xbba6ae5b	-0.0050867028
36	0xbceb0825	-0.028690407
37	0x3d8aa745	0.067701854
38	0xbdeb7a92	-0.11497988
39	0xbe13e516	-0.14442858
40	0x3d9c89f1	0.07643498
41	0xbced8a82	-0.02899671
42	0x3d6ce95b	0.057839733
43	0x3c34416a	0.011001924
44	0xbd7529de	-0.05985438
45	0x3e180627	0.14846097
46	0x3cbd590e	0.023113754
47	0xbe277d84	-0.16356474
48	0xbd429189	-0.047502074
49	0x3da393d3	0.079871796
50	0x3d0ea42f	0.034824546
51	0xbe07667b	-0.13222687
52	0x3d16358b	0.036672156
53	0xbd9e794b	-0.077379785
54	0xbd8eb838	-0.06968731
55	0x3e0945e8	0.13405573
56	0x3dbcc9f1	0.09218205
57	0x3d96293b	0.07332083
58	0xbde9496e	-0.11390959
59	0x3b6a1dd5	0.0035723348
60	0xbd9e3e23	-0.077266954
61	0xbde990ef	-0.11404597
62	0x3e1848bb	0.14871494
63	0xbdd5e8be	-0.10444783
64	0x3cdb41db	0.0267648
65	0x3d1eabbc	0.038737997
66	0xbcad1421	-0.021127762
67	0x3dee2246	0.11627631
68	0xbdd46837	-0.1037144
69	0x3ca5dfb1	0.020248266
70	0x3d88aaa5	0.06673173
71	0xbd065d09	-0.03280357
72	0xbd63da9d	-0.055628408
73	0xbc201da2	-0.00977269
74	0xbda1d9e3	-0.07902887
75	0xbd33316c	-0.043748304
76	0xbe31185a	-0.17294446
77	0x3d1570ef	0.036484655
78	0x3d93d602	0.07218553
79	0xbe0ceeee	-0.1376302
80	0x3ab384ae	0.0013696158
81	0x3d8ba806	0.06819157
82	0x3d970dcf	0.07375681
83	0xbd2af90f	-0.041741427
84	0xbd85d124	-0.06534031
85	0xbe3c9f62	-0.18420175
86	0xbde27490	-0.11057389
87	0xbbbb4a70	-0.0057156608
88	0x3dd051b3	0.10171833
89	0x3c00d64e	0.007863594
90	0xbdfb2a72	-0.12263955
91	0xbd8b6deb	-0.068080746
92	0xbd67dd38	-0.056607455
93	0xbcc49ec0	-0.02400148
94	0xbbd5c4e3	-0.006523715
95	0x3b89fc98	0.0042110197
96	0xbd53a4ca	-0.051670827
97	0xbd8065e6	-0.062694356
98	0x3d3409ea	0.043954767
99	0x3c17779b	0.009244825
100	0xbe1fb666	-0.15596923
101	0xbd3c5a93	-0.045984816
102	0xbdb636d7	-0.088971786
103	0x3d89aa24	0.06721905
104	0x3ce31288	0.027718797
105	0x3ddd1247	0.10794502
106	0xbd6bce0c	-0.05756955
107	0x3c260413	0.010132807
108	0x3e301d0b	0.17198579
109	0xbdf05b51	-0.11736167
110	0xbdcac855	-0.099014916
111	0xbe275759	-0.16341914
112	0x3d47590f	0.048668917
113	0x3daaa404	0.08332065
114	0xbc2598b4	-0.010107208
115	0x3d532f03	0.051558506
116	0xbd661dc6	-0.056180738
117	0x3df890f2	0.12137021
118	0x3e00cc53	0.12577944
119	0x3dcf4c28	0.101219475
120	0xbaff1e35	-0.0019463958
121	0x3e09466b	0.13405769
122	0xbda6aa0c	-0.081379026
123	0xbd6bf2da	-0.05760465
124	0x3ddda827	0.10823088
125	0x3c970ffb	0.018440237
126	0xbe256735	-0.16152652
127	0xbd6b9f9f	-0.057525273
128	0x3cf57031	0.029960724
129	0xbd6d513e	-0.057938807
130	0x3d524eee	0.051344804
131	0xbd8c9abf	-0.06865453
132	0x3d6376dd	0.05553328
133	0xbd955c58	-0.07293004
134	0x3c8d7190	0.017266065
135	0x3dbde013	0.092712544
136	0xbdee6fc3	-0.116424106
137	0xbde88101	-0.113527305
138	0xbde612a4	-0.11234024
139	0x3de4d339	0.111731
140	0x3c34f8c9	0.011045643
141	0xbdda89c5	-0.10670809
142	0x3d0f9cfd	0.035061825
143	0x3dbba229	0.09161789
144	0xbd4c981e	-0.049949758
145	0x3d4dac4f	0.050213154
146	0x3dc4374a	0.09580858
147	0xbdb7f6c9	-0.089826174
148	0x3cda85df	0.026675163
149	0xbd848c3a	-0.064720586
150	0x3ccf5e93	0.025313651
151	0xbd64e3a3	-0.055881154
152	0xbdd396f3	-0.10331526
153	0xbaed7089	-0.0018115203
154	0xbd46b152	-0.04850895
155	0xbcbca54b	-0.023028037
156	0x3c91b5b0	0.01778683
157	0x3d7c077e	0.061530583
158	0xbd57f88b	-0.052727263
159	0x3ddcd59b	0.107829295
160	0x3e010ba2	0.12602094
161	0xbdebf026	-0.11520414
162	0x3d41e839	0.047340605
163	0xbd1e9818	-0.038719267
164	0x3e272bcd	0.16325302
165	0x3e0a1e5c	0.13488144
166	0x3cb74b16	0.022374671
167	0x3e0230b2	0.12713888
168	0xbc3b3167	-0.011425353
169	0xbd2c19c6	-0.042016767
170	0xbe1d6e33	-0.15374069
171	0x3e020a5c	0.12699264
172	0xbd708a90	-0.058725893
173	0xbd07c2fb	-0.033144932
174	0xbcb7b418	-0.022424743
175	0xbdae2c30	-0.08504522
176	0xbd47092a	-0.048592724
177	0xbd742467	-0.05960503
178	0xbe28339a	-0.16425934
179	0xbd87d2b3	-0.066319846
180	0x3da8866c	0.08228764
181	0xbc3a208b	-0.011360298
182	0xbdd32aba	-0.10310884
183	0xbd695919	-0.056969736
184	0xbe0e3e87	-0.1389104
185	0x3d61688d	0.055031348
186	0x3d693a09	0.056940112
187	0xbb10ba95	-0.0022083868
188	0x3dec9a0f	0.11552822
189	0xbbe71b37	-0.007052805
190	0x3cbf3082	0.02333856
191	0xbbc481cd	-0.005996919
192	0xbc66a338	-0.014077
193	0xbca0eeae	-0.019645061
194	0x3cb39eec	0.021926366
195	0x3dfb6a37	0.12276118
196	0xbd963ea0	-0.073361635
197	0xbda37847	-0.079819255
198	0x3d218a70	0.039438665
199	0xbda77ce0	-0.08178115
200	0xbe0b3348	-0.13593781
201	0xbdb7f130	-0.0898155
202	0xbbe4c950	-0.006982006
203	0x3dde1f0d	0.10845766
204	0x3d06d4d1	0.0329178
205	0x3d716a66	0.05893936
206	0xbdb90146	-0.09033446
207	0xbdc63ab7	-0.09679168
208	0x3c84adc7	0.016196145
209	0xbd26b34e	-0.040698342
210	0x3cf0e5e5	0.029406497
211	0x3df19690	0.11796296
212	0xbbaadd4c	-0.005214369
213	0xbd4414d1	-0.047871415
214	0xbe1a5ba7	-0.15074025
215	0xbd88bdf9	-0.066768594
216	0x3e003c23	0.1252294
217	0x3de359b5	0.11101095
218	0xbd4828e3	-0.048867118
219	0xbe24562e	-0.160485
220	0xb9bbc86f	-0.00035816754
221	0x3dfb74db	0.12278148
222	0xbdb3a269	-0.08771212
223	0x3e1dc37a	0.154066
224	0xbdf8a1ac	-0.121402115
225	0x3d0ec667	0.03485718
226	0x3d805629	0.06266434
227	0xbdb8fba6	-0.09032373
228	0x3dc110e4	0.0942705
229	0xbdec7c01	-0.11547089
230	0x3c4a1cee	0.012335999
231	0x3dd6e13d	0.104921795
232	0xbcbdbe79	-0.023162114
233	0xbccb3b37	-0.02480851
234	0x3dd3f2df	0.10349058
235	0x3d7a90dc	0.061173305
236	0x3d0de780	0.034644604
237	0x3befa6d8	0.0073135905
238	0xbd45d33e	-0.04829716
239	0x3d9712a8	0.07376605
240	0xbdcf624e	-0.10126172
241	0xbd9d725a	-0.076878265
242	0xbc56d128	-0.01311139
243	0x3d783e13	0.060606074
244	0xbd6dd84e	-0.058067612
245	0xbdb1d381	-0.08682919
246	0x3acc1f41	0.0015573279
247	0xbe06c8ef	-0.13162588
248	0xbc6e2c84	-0.014536981
249	0x3db5660a	0.08857353
250	0xbdba4531	-0.090952285
251	0xbd94aef5	-0.07259933
252	0xbd24196a	-0.0400633
253	0xbdc843ef	-0.09778582
254	0x3c2aa5bd	0.010415492
255	0xbd865fba	-0.06561227

input_layer.bias f4 [99]
0	0x3c59c98f	0.013292684
1	0xbdea2d9a	-0.11434479
2	0x3e0d73eb	0.1381375
3	0xbbd6b4fc	-0.0065523367
4	0x3e29f7b8	0.16598403
5	0xbdc6d540	-0.09708643
6	0xbdbce212	-0.09222807
7	0x3cdefb4c	0.027219437
8	0xbdb41f89	-0.08795077
9	0x3d111eaf	0.035429653
10	0xbe070ee7	-0.13189279
11	0x3c9d1bdd	0.019178325
12	0xbda277eb	-0.07933029
13	0x3dc5add6	0.09652297
14	0xbd2df302	-0.04246808
15	0x3d326711	0.043555323
16	0xbcbe25ed	-0.023211444
17	0xbdce70ed	-0.10080133
18	0xbdaff1a6	-0.08591013
19	0x3da35c88	0.07976633
20	0x3d6259c7	0.0552614
21	0x3dcebf28	0.10095054
22	0x3def821f	0.116947405
23	0xbdbddcf1	-0.09270657
24	0x3dc40475	0.095711626
25	0x3e087fea	0.13330045
26	0xbd9eb706	-0.07749753
27	0x3df2c922	0.11854769
28	0xbd15920f	-0.036516245
29	0xbd98942a	-0.07450135
30	0xbdb35652	-0.08756699
31	0xbbb1edc8	-0.005429957
32	0x3c79723b	0.015224989
33	0xbda519ae	-0.08061539
34	0x3cefdae1	0.029279174
35	0x3de1e25a	0.11029501
36	0xbd1c8fce	-0.03822308
37	0xbdaf203c	-0.0855107
38	0xbe017057	-0.1264051
39	0xbd73ed2c	-0.059552357
40	0xbcd88c56	-0.026434105
41	0x3cd25b25	0.025678227
42	0x3e1bea21	0.15226032
43	0xbda909c5	-0.082538165
44	0xbd486e20	-0.04893315
45	0x3da1ddd4	0.079036385
46	0x3c229c60	0.009924978
47	0x3dc37cbb	0.09545275
48	0x3dbebfbc	0.09313914
49	0xbcaab111	-0.020836385
50	0x3dc4005e	0.095703825
51	0x3def42a2	0.11682631
52	0x3d347e9d	0.04406606
53	0xbcaa7f4a	-0.02081265
54	0xbdcf63b6	-0.1012644
55	0xbdf6e4e7	-0.120553784
56	0xbdcce4bf	-0.10004567
57	0xbde413ee	-0.11136614
58	0xbdee43c6	-0.116340205
59	0xbd1ad8c4	-0.03780438
60	0x3cf147f0	0.029453248
61	0x3de047d9	0.10951204
62	0x3c66fc58	0.014098249
63	0x3dca8393	0.09888377
64	0xbdff4759	-0.1246478
65	0xbd02020c	-0.031740233
66	0xbddc9989	-0.10771472
67	0xbe0216b8	-0.12703979
68	0xbe02bad5	-0.12766583
69	0xbd149750	-0.036277115
70	0xbddace81	-0.10683919
71	0x3e077559	0.13228358
72	0xbd5cd147	-0.05391052
73	0x3dd0961c	0.10184881
74	0xbdce6152	-0.10077156
75	0xbc9994e1	-0.018747749
76	0xbcbc1332	-0.022958372
77	0xbe200296	-0.15625986
78	0x3dbb2d81	0.091395386
79	0xbd76d496	-0.06026133
80	0x3dc7b2bc	0.09750888
81	0xbdc5fa96	-0.09666936
82	0xbdfd12e3	-0.12357118
83	0x3e017813	0.12643461
84	0xbded4107	-0.115846686
85	0x3d640e7b	0.055677872
86	0xbdd964c5	-0.106149234
87	0x3d7ddd6c	0.061978742
88	0xbde0fab2	-0.10985316
89	0x3c6614db	0.014043058
90	0x3df0754b	0.11741122
91	0x3e108339	0.14112557
92	0x3d5c4681	0.053778175
93	0xbdb4c496	-0.08826558
94	0xbbf4491e	-0.0074550053
95	0x3df53767	0.11973458
96	0xbdace840	-0.08442736
97	0xbbf4ebae	-0.0074743843
98	0xbce5150a	-0.027964134

hidden.0.weight f4 [99, 99]
0	0xbe066ccc	-0.1312744
1	0xbd6fa42c	-0.058506176
2	0x3c1c5cbc	0.009543594
3	0xbdccd367	-0.10001259
4	0x3daa1cfa	0.08306308
5	0xbcfd5fd5	-0.030929485
6	0x3cdd4538	0.027010545
7	0x3d762fdc	0.060104236
8	0xbccb26b9	-0.024798738
9	0x3d85e936	0.06538622
10	0x3afb24a0	0.0019160695
11	0x3d02fbe5	0.031978507
12	0x3d36c29c	0.044619188
13	0x3d093a35	0.033502776
14	0x3cef778d	0.029231811
15	0x3de52044	0.11187795
16	0xbdd6dcc9	-0.1049133
17	0x3c9a3eb5	0.01882873
18	0xbd5a3e47	-0.05328205
19	0x3ca0d0c0	0.01963079
20	0xbdc2bfed	-0.09509263
21	0x3d11fd44	0.035641924
22	0x3ce973a7	0.02849753
23	0x3dced67b	0.10099503
24	0x3dbf87b6	0.09352057
25	0x3d5e1f10	0.054228842
26	0xbd814b3c	-0.06313178
27	0xbcdf27ac	-0.027240597
28	0xbdba6065	-0.09100417
29	0xbd8726db	-0.06599208
30	0xbdf36935	-0.11885301
31	0xbc0d93e9	-0.008641222
32	0xbde12033	-0.1099247
33	0x3cf6c786	0.030124437
34	0x3cf37430	0.029718488
35	0x3dc8502a	0.09780915
36	0x3d67a1fb	0.05655096
37	0x3d91386a	0.07090838
38	0x3d14ce95	0.036329824
39	0x3debd8cc	0.1151596
40	0x3e15dc01	0.14634706
41	0x3e04a739	0.12954415
42	0xbd379807	-0.04482272
43	0x3c7af7f4	0.015317906
44	0x3d953e10	0.07287228
45	0x3ce3b95b	0.027798345
46	0xbd68c097	-0.056824293
47	0xbc16ba18	-0.009199642
48	0xbd2a5d16	-0.04159268
49	0xbdaf463a	-0.085583165
50	0xbdbbdbfe	-0.091728196
51	0x3da9b9fd	0.082874276
52	0xbc7b0a60	-0.015322298
53	0x3d61edc2	0.055158384
54	0xbe0369f3	-0.12833385
55	0xbccac820	-0.02475363
56	0x3c319841	0.010839523
57	0xbb8c7759	-0.0042866883
58	0x3d2eb3e1	0.042652015
59	0x3d6d5f6f	0.05795234
60	0x3e15aae8	0.14615977
61	0x3ded07a3	0.11573722
62	0x3d85888a	0.065201834
63	0x3e02e651	0.12783171
64	0xbd897efa	-0.06713672
65	0xbd853511	-0.06504262
66	0x3d8d07fe	0.0688629
67	0x3db1e3d2	0.086860314
68	0x3d6eb994	0.05828245
69	0x3d67e001	0.05661011
70	0x3bc165e1	0.0059020375
71	0x3de18453	0.11011567
72	0x3cb6d495	0.022318164
73	0xbd8bdbc3	-0.068290256
74	0x3b728714	0.0037006782
75	0x3d0756a3	0.033041608
76	0xbdd0ab08	-0.101888716
77	0xbcd86001	-0.026412966
78	0x3d9fa882	0.07795812
79	0xbd045b82	-0.03231383
80	0xbd352ee4	-0.04423417
81	0xbc8d3d1a	-0.01724105
82	0xbcacee82	-0.021109823
83	0x3bd34a07	0.0064480337
84	0x3decb701	0.11558343
85	0xbd9df2be	-0.07712315
86	0xbd00487c	-0.031319126
87	0x3cba3e99	0.022734927
88	0xbd965e50	-0.073422074
89	0x3d388b7a	0.04505489
90	0x3c550e13	0.013003844
91	0x3d918a5a	0.071064666
92	0xbd96b29e	-0.07358287
93	0x3d63b5cf	0.055593308
94	0xbcae0404	-0.02124215
95	0x3d6b6c73	0.057476472
96	0x3dd511c6	0.10403781
97	0x3ddfe32c	0.109320015
98	0xbd1a0be2	-0.03760899
99	0x3d25876f	0.040412363
100	0x3d1ea27a	0.03872917
101	0xbd366882	-0.04453326
102	0x3d8ef3ef	0.069801204
103	0x3cc5b35c	0.024133377
104	0x3ce6589e	0.028118428
105	0x3d6c4bef	0.057689603
106	0x3d67d777	0.056601968
107	0x3df015aa	0.11722882
108	0xbce4be71	-0.02792284
109	0x3dafe60d	0.085888006
110	0xbde1cc46	-0.1102529
111	0xbd19f0d5	-0.03758319
112	0xbdf00c25	-0.117210664
113	0x3d65115e	0.055924766
114	0xbd39c0ad	-0.045349766
115	0xbd09d20a	-0.033647574
116	0x3c8a708c	0.01689937
117	0xbda6d782	-0.081465736
118	0x3cafc38f	0.021455554
119	0xbb88c27e	-0.004173576
120	0x3d43041a	0.047611333
121	0xbe0085aa	-0.12550989
122	0xbcdd0b10	-0.026982814
123	0xbd6f924e	-0.058489136
124	0x3c51e907	0.012811906
125	0xbd514d91	-0.051099364
126	0xbd9b1f4f	-0.07574331
127	0xbda70029	-0.081543274
128	0x3b40955b	0.0029385898
129	0x3d847a26	0.064686105
130	0x3de62f55	0.112394966
131	0xbd92bb26	-0.07164602
132	0xbdb816f5	-0.08988754
133	0xbd4a3e0a	-0.04937557
134	0xbd6c455d	-0.057683337
135	0x3e04dbab	0.12974422
136	0x3c029faf	0.007972642
137	0x3da03097	0.07821768
138	0xbc9a3c7c	-0.01882767
139	0x3dea41b6	0.114383146
140	0xbd921976	-0.071337625
141	0x3d2b35cc	0.04179935
142	0x3db204a3	0.08692291
143	0xbc951d3b	-0.018202415
144	0xbd5f8b73	-0.05457635
145	0xbda5fb52	-0.08104576
146	0xbb67dd69	-0.0035379773
147	0xbe04291a	-0.12906304
148	0xbd24e7f6	-0.040260278
149	0x3d34bdad	0.0441262
150	0x3d40ae86	0.04704144
151	0x3d11befe	0.035582535
152	0x3ccad2ce	0.024758723
153	0xbd870cdf	-0.06594252
154	0x3d17049b	0.036869626
155	0x3c6bb727	0.014386929
156	0xbd1e1aa7	-0.038599636
157	0x3b13fc60	0.0022580847
158	0x3d44e7d8	0.048072666
159	0xbd8972ac	-0.06711325
160	0x3d307811	0.043083254
161	0xbbb84f1c	-0.005624665
162	0x3da9a82f	0.082840316
163	0xbc808710	-0.015689403
164	0x3cb6fb4d	0.022336626
165	0xb9c9de53	-0.00038503352
166	0xbdeb82d8	-0.11499566
167	0xbd5dbccf	-0.05413514
168	0xbd41952e	-0.04726141
169	0xbdbf9ed2	-0.093564644
170	0xbdb6464f	-0.08900129
171	0xbb906637	-0.004406716
172	0x3a8e0975	0.0010836559
173	0xbdc9a52b	-0.098459564
174	0xbd08aa39	-0.033365462
175	0x3d734ba0	0.059398293
176	0xbdcb6de9	-0.09933073
177	0x3caf4914	0.021397151
178	0xbd702d7e	-0.058637135
179	0xbc66cd66	-0.014087057
180	0xbde2750a	-0.1105748
181	0xbdb40df5	-0.087917246
182	0xbce4d263	-0.027932351
183	0x3dee86c2	0.11646797
184	0x3aae2868	0.0013287188
185	0x3d9b27bc	0.07575938
186	0xbd9edf84	-0.07757476
187	0xba5efbac	-0.000850613
188	0xbda3f7f2	-0.08006276
189	0xbd311b14	-0.043238714
190	0x3ca4ce08	0.020117775
191	0x3d976635	0.07392541
192	0xba941d59	-0.001130025
193	0xbdbd88eb	-0.09254631
194	0x3d30f507	0.043202426
195	0xba2be43f	-0.00065571436
196	0x3dac5ea1	0.084164865
197	0x3c0264c3	0.007958594
198	0xbd9c7bf2	-0.07640828
199	0x3dc80d29	0.09768135
200	0xbd8fafcb	-0.07015952
201	0xbc1f0fa0	-0.009708315
202	0xbdc0ca63	-0.09413602
203	0x3d8b8743	0.068129085
204	0xbd3a4593	-0.045476507
205	0x3d2e2f3c	0.042525515
206	0x3d292ed2	0.041304417
207	0xbe0209fe	-0.12699124
208	0x3dfd70d8	0.12375039
209	0x3db37e6b	0.08764347
210	0xbd60a5cc	-0.054845616
211	0xbd9416f2	-0.07230939
212	0xbc02a2d3	-0.007973391
213	0x3e0832ef	0.1330068
214	0xbd692e1a	-0.05692873
215	0xbd1cc36e	-0.038272314
216	0x3d48771c	0.048941717
217	0x39ae1fb4	0.00033211487
218	0xbd400259	-0.04687724
219	0x3d855aa6	0.065114304
220	0x3da3c39e	0.079962954
221	0x3db40790	0.08790505
222	0xbd3823f4	-0.044956163
223	0x3c6a216d	0.014290196
224	0xbcb35b32	-0.021894071
225	0x3d0ab40a	0.033863105
226	0x3c954784	0.018222578
227	0xbd6e87b1	-0.058234874
228	0xbdbbc8df	-0.091691725
229	0xbda458a7	-0.080247216
230	0x3dc0d10c	0.094148725
231	0xbd5c78a8	-0.053826004
232	0x3d6997df	0.0570296
233	0x3de6939f	0.11258625
234	0xbd99f0fe	-0.07516669
235	0xbdefcc55	-0.11708895
236	0xbd958a3e	-0.07301758
237	0x3b8ecefc	0.0043581706
238	0xbc623e0e	-0.01380874
239	0x3dca2165	0.09869651
240	0x3ccaec47	0.024770869
241	0xbc9c4b38	-0.019078836
242	0x3bd43859	0.0064764437
243	0xbd8b1caf	-0.0679258
244	0xbc31d9b2	-0.010855125
245	0x3d4511ac	0.048112556
246	0x3db9c60a	0.09070976
247	0xbcb3b46b	-0.021936616
248	0xbda3f4d1	-0.080056794
249	0xbdb725ce	-0.089427575
250	0x3d12c557	0.03583273
251	0xbd2b6f4f	-0.0418542
252	0xbdd15dd4	-0.102229744
253	0xbd1fd069	-0.039017115
254	0xbdc9575f	-0.09831118
255	0xbd190578	-0.03735873

hidden.0.bias f4 [99]
0	0xbd124ef7	-0.035719838
1	0x3dba9bd2	0.091117516
2	0xbdad40a7	-0.08459597
3	0xbd76197a	-0.06008289
4	0x3d47d920	0.04879105
5	0xbd998fb6	-0.07498114
6	0xbd837fa1	-0.06420828
7	0xbd445596	-0.047933184
8	0xbd628dd5	-0.055311043
9	0x3d37b017	0.044845667
10	0x3db15350	0.08658469
11	0x3d4b9178	0.049699277
12	0xbda9ba57	-0.08287495
13	0x3cedebf8	0.029043183
14	0x3da76b38	0.08174747
15	0xbcb4723a	-0.022027124
16	0x3d45aa34	0.04825802
17	0x3d237989	0.039910827
18	0xbd372652	-0.04471428
19	0x3c087162	0.008327814
20	0xbda7901d	-0.08181784
21	0x3d98d4b5	0.07462446
22	0xbd241731	-0.04006118
23	0xbd8db9d0	-0.069202065
24	0xbce6f312	-0.028192077
25	0x3d37e89f	0.04489958
26	0xbdd2246d	-0.10260854
27	0x3d3b4a0a	0.045724906
28	0xbc118a9c	-0.008883145
29	0x3d6e190e	0.058129363
30	0x3d037759	0.03209624
31	0xbd84ffd0	-0.06494105
32	0xbd6e228d	-0.05813842
33	0xbd79f0f4	-0.061020806
34	0x3d1b8765	0.03797092
35	0xbdde7209	-0.10861594
36	0x3cf7abb8	0.030233249
37	0x3c0df30e	0.008663906
38	0x3d2f8082	0.042847164
39	0xbd828df6	-0.06374733
40	0x3d87f4e2	0.066385046
41	0x3d4d72ba	0.05015824
42	0xbb571daf	-0.003282409
43	0xbdbe8359	-0.09302396
44	0x3d7d5580	0.061849117
45	0x3ccc19d6	0.024914663
46	0xbca662ac	-0.020310722
47	0xba998972	-0.0011713936
48	0xbd036257	-0.032076206
49	0x3d0769e8	0.033059984
50	0x3d521f72	0.05129952
51	0x3db20d3d	0.08693931
52	0xbd2c5444	-0.04207255
53	0xbc6027db	-0.013681377
54	0xbc8d7b64	-0.017270751
55	0x3d6a408e	0.05719047
56	0x3d9561f2	0.07294072
57	0x3d834044	0.06408742
58	0xbcf5f7ef	-0.03002545
59	0x3cbe758c	0.02324941
60	0x3d62c0f4	0.055359796
61	0x3dc87f1f	0.097898714
62	0xbd84ec29	-0.064903565
63	0x3d6863b9	0.056735728
64	0xbd7e44ad	-0.062077213
65	0x3d067afa	0.032832123
66	0xbdbcf322	-0.092260614
67	0x3dba3111	0.0909139
68	0x3d19b142	0.03752256
69	0xbd6bc3b2	-0.057559676
70	0xbdc7cdd3	-0.09756055
71	0x3c1566aa	0.009118715
72	0x3db878dd	0.09007428
73	0x3a581edd	0.0008244345
74	0xbda0956e	-0.078410015
75	0x3d3ca060	0.046051383
76	0xbcae834b	-0.02130284
77	0x3d51f929	0.05126301
78	0xbcdde175	-0.027085045
79	0x3dbc3025	0.0918887
80	0x3ca9dc1a	0.020734835
81	0xbdbd8bfe	-0.09255217
82	0xbd6fd06e	-0.058548383
83	0xbd873ff3	-0.06603994
84	0xbc994665	-0.018710325
85	0xbc759ba3	-0.01499072
86	0x3cfa7fa1	0.030578436
87	0xbd6910d1	-0.056900803
88	0x3c61ec5f	0.013789265
89	0x3db54701	0.088514335
90	0xbcfe3037	-0.03102885
91	0xbdaa60e7	-0.08319264
92	0xbcf58fc4	-0.02997578
93	0xbd798ec2	-0.06092716
94	0xbcaa38e9	-0.02077909
95	0x3d035d13	0.032071184
96	0x3da80b96	0.08205335
97	0xbd9ffd9f	-0.07812046
98	0x3d0ac1fd	0.033876408

hidden.1.weight f4 [99, 99]
0	0xbcca6218	-0.024704978
1	0xba744b8c	-0.00093191187
2	0x3d508a39	0.05091307
3	0x3e1605e4	0.14650685
4	0xbd996555	-0.07490031
5	0x3d8a24b5	0.067452826
6	0x3daa6e16	0.083217785
7	0x3dd8cbd2	0.10585751
8	0xbd8ec397	-0.069708996
9	0x3bdaa9e6	0.0066730855
10	0x3dc44ea5	0.09585313
11	0xbd3d019c	-0.046144113
12	0xbdeaad34	-0.11458817
13	0xbd5f6ae8	-0.054545313
14	0xbca885a8	-0.020571545
15	0xbe25fed6	-0.16210493
16	0xbd481716	-0.04885014
17	0xbc8e8066	-0.01739521
18	0x3a04b270	0.00050619897
19	0x3d1fc292	0.039003916
20	0xbdcf5af4	-0.1012477
21	0x3d6e0980	0.05811453
22	0x3da1c63d	0.07899139
23	0xbc237fb3	-0.009979176
24	0x3d614be8	0.05500403
25	0x3d287fb5	0.041137416
26	0x3df33841	0.11875964
27	0x3d54e151	0.05197269
28	0xbd5b5fef	-0.053558286
29	0xbd0d205e	-0.034454696
30	0xbda65dac	-0.08123335
31	0x3e05a891	0.13052584
32	0x3dc9b865	0.098496236
33	0x3e15bb6a	0.14622274
34	0xbba37585	-0.0049883747
35	0xbcb29c18	-0.021802947
36	0x3d3c722f	0.04600733
37	0xbdd3a52f	-0.10334241
38	0xbd32b117	-0.043625917
39	0xbd653a6d	-0.055963922
40	0xbc4fd159	-0.01268419
41	0x3dbdfedb	0.092771254
42	0xbdcbe4b1	-0.09955729
43	0x3cfd20df	0.030899463
44	0x3d81cb83	0.06337645
45	0x3d5c2caa	0.053753532
46	0xbcdd4465	-0.027010152
47	0x3d79e48c	0.061008975
48	0xbde0576e	-0.10954176
49	0xbdc0a79f	-0.09406971
50	0x3d99fe1d	0.075191714
51	0x3e02d5a7	0.12776814
52	0xbcde373a	-0.027125943
53	0x3c2f66ea	0.010705689
54	0xbd736e0a	-0.059431113
55	0xbc23ca2e	-0.009996934
56	0x3c49055e	0.012269346
57	0xbd8e8324	-0.06958607
58	0xbdb11af4	-0.08647719
59	0xbcc47833	-0.023983097
60	0xbdadf72f	-0.08494412
61	0x3d4b0c66	0.04957237
62	0xbd64cf78	-0.05586192
63	0x3d0f0e29	0.034925614
64	0x3d69e641	0.057104353
65	0x3c9d2da1	0.019186797
66	0x3d9e5fab	0.07733091
67	0xbdd941df	-0.10608267
68	0xbda8a40e	-0.08234416
69	0xbc730118	-0.014831804
70	0x3deadb88	0.114676535
71	0x3d5376fc	0.051627144
72	0x3e1406d4	0.1445573
73	0xbda5048c	-0.08057508
74	0xbdd37493	-0.10324969
75	0x3d1db492	0.038502283
76	0x3ce99e3b	0.028517833
77	0x3c3f6007	0.01168061
78	0x3d413c5e	0.04717671
79	0x3d0acb71	0.033885423
80	0xbd88ec6b	-0.06685718
81	0x3e1030ae	0.1408107
82	0x3d4007c6	0.046882413
83	0x3cef6005	0.02922059
84	0x3d70ccfa	0.05878923
85	0xbdad9787	-0.08476167
86	0xbd487b2d	-0.048945595
87	0x3dc8a78d	0.09797583
88	0xbd384bca	-0.044994153
89	0x3d403681	0.04692698
90	0x3e05826f	0.13038038
91	0xbd96aa83	-0.07356741
92	0x3dc365d2	0.09540905
93	0xbdd49ce8	-0.1038149
94	0xbdbf310f	-0.09335529
95	0xbbbb5cab	-0.005717834
96	0xbdca6faf	-0.09884583
97	0x3cea50ec	0.02860304
98	0x3bc606b7	0.006043281
99	0xbd807038	-0.06271404
100	0x3e01875e	0.12649295
101	0x3daed023	0.08535793
102	0xbde6edd8	-0.11275834
103	0x3c837aef	0.01604983
104	0x3dcaac00	0.09896088
105	0xbdb7286c	-0.08943257
106	0xbd3e9def	-0.046537336
107	0xbcb6d1a9	-0.02231677
108	0xbca7922c	-0.020455442
109	0xbdd9c114	-0.1063253
110	0x3d8b8525	0.06812505
111	0xbbdaec93	-0.006681034
112	0x3c4084c1	0.011750401
113	0xbd9acb4c	-0.07558307
114	0x3d86d77d	0.0658407
115	0x3d92742e	0.07151066
116	0xbd98aa49	-0.07454354
117	0xbc7d1a8d	-0.015448225
118	0xbe1a9600	-0.15096283
119	0xbdf424c9	-0.11921079
120	0xbe2282f0	-0.15870261
121	0x3d806f79	0.06271262
122	0xbcc4067e	-0.023928877
123	0x3dcee3b3	0.10102024
124	0x3d51d76a	0.051230825
125	0xbdc7cdea	-0.09756072
126	0xbe20dc8d	-0.15709133
127	0x3d651eb4	0.055937484
128	0xbe17c2b5	-0.14820369
129	0xbde991c8	-0.11404759
130	0xbdeb7557	-0.1149699
131	0x3beab556	0.00716273
132	0x3d1f01a3	0.03881992
133	0x3d3f9ef8	0.046782464
134	0x3e0b768c	0.13619441
135	0xbd49b92e	-0.049248867
136	0x3d8631d2	0.06552471
137	0x3bbc508a	0.0057469057
138	0x3d99b931	0.075060256
139	0xbbb0b9f7	-0.0053932625
140	0xbe094496	-0.1340507
141	0xbd46ac1d	-0.048503984
142	0x3c9203a7	0.017824007
143	0xbc377935	-0.011198332
144	0x3e1c1338	0.15241706
145	0x3d65494d	0.05597811
146	0x3b441b4f	0.0029923504
147	0x3d216267	0.039400484
148	0xbd56c8ff	-0.05243778
149	0x3d5c301e	0.053756826
150	0xbd841ff7	-0.06451409
151	0xbdc27758	-0.09495419
152	0xbd7cac9c	-0.06168805
153	0x3e0d2884	0.13784987
154	0x3d90146a	0.07035144
155	0xbd9c139e	-0.07620929
156	0x3d73141c	0.05934535
157	0x3b23fcca	0.00250225
158	0x3d7159fa	0.0589237
159	0xbd82e339	-0.063909955
160	0xbe0507e1	-0.12991287
161	0x3db4ffca	0.088378504
162	0xbd8c5e09	-0.06853873
163	0x3d3079d6	0.04308494
164	0x3befd81f	0.007319465
165	0xbc9bc6ad	-0.019015634
166	0x3d7ee81f	0.062233087
167	0x3cee4473	0.029085374
168	0xbd1b9ee6	-0.037993334
169	0xbdcb6e82	-0.09933187
170	0xbe0f1390	-0.13972306
171	0xbdeb9ee6	-0.11504917
172	0x3de550d3	0.111970566
173	0xbd3bbe17	-0.04583558
174	0x3d9dd3b3	0.07706394
175	0xbd466ed0	-0.048445523
176	0xbabbaadd	-0.0014317889
177	0x3d93621a	0.07196446
178	0xbe0e6288	-0.13904774
179	0xbddcebdb	-0.10787173
180	0x3d8a0988	0.06740099
181	0x3d8781a1	0.066165216
182	0xbd36033f	-0.04443669
183	0xbbc6a5a4	-0.0060622264
184	0x3df26e6b	0.11837467
185	0xbd8029fe	-0.062580094
186	0xbd200a6f	-0.03907245
187	0xbce840dd	-0.028351242
188	0xbc6b467a	-0.014360065
189	0x3d05ddc3	0.03268219
190	0xbdb397df	-0.087692015
191	0xbdc5ef5a	-0.09664793
192	0xbb89364c	-0.004187381
193	0x3cceae18	0.025229499
194	0xbd3ecef6	-0.046584092
195	0x3c2516d5	0.010076244
196	0x3dbb6c45	0.0915151
197	0xbd5d865b	-0.05408321
198	0x3ddc73e8	0.10764295
199	0x3db261b8	0.087100446
200	0x3cdefab9	0.027219163
201	0xbc8be67a	-0.017077673
202	0x3d203502	0.039113052
203	0x3dad5cad	0.08464942
204	0xbc59d6e8	-0.013295867
205	0xbd581e63	-0.052763354
206	0x3d712762	0.05887545
207	0x3e009ff5	0.12561019
208	0xbcb66685	-0.022265682
209	0xbdad94a8	-0.084756196
210	0xbd012ed3	-0.031538796
211	0xbd659b6c	-0.056056425
212	0x3da02a52	0.07820572
213	0xbd6d0bed	-0.0578727
214	0x3de7e6cb	0.11323317
215	0x3d77b571	0.06047577
216	0x3d7ce94c	0.061745927
217	0xbdf1c380	-0.11804867
218	0xbd352a88	-0.044230014
219	0xbda7f736	-0.082014486
220	0xbcd368a4	-0.025806732
221	0xbcdb1ac8	-0.026746169
222	0x3dab5d48	0.08367401
223	0x3d350637	0.04419538
224	0x3d3cb251	0.046068493
225	0xbc5636c4	-0.013074581
226	0x3d20dcb0	0.039272964
227	0x3c13134e	0.008976771
228	0x3d6a6130	0.05722159
229	0xbce5a7d0	-0.02803412
230	0xbdc0e38c	-0.09418401
231	0xbd26f210	-0.040758193
232	0x3c8759c4	0.016522296
233	0xbda9d08c	-0.0829173
234	0xbd0f33cc	-0.034961507
235	0xbd3dc675	-0.04633184
236	0xbd103103	-0.03520299
237	0xbd391e3c	-0.04519485
238	0xbdb534a4	-0.08847931
239	0xba6024a2	-0.00085503806
240	0x3d8b565e	0.068035826
241	0xbd508264	-0.0509056
242	0xbd494f3b	-0.049147826
243	0x3b79c926	0.0038114279
244	0xbca733a0	-0.020410359
245	0xbbce47f7	-0.0062952
246	0xbcf6a662	-0.030108634
247	0xbdb28c75	-0.08718196
248	0xbdbdd202	-0.092685714
249	0x3b0b69df	0.002127282
250	0x3c11af4a	0.00889189
251	0x3db9a9e6	0.09065609
252	0xbc93ca69	-0.018040853
253	0x3ce98821	0.028507294
254	0x3df050b4	0.11734143
255	0x3dcef5a2	0.101054445

hidden.1.bias f4 [99]
0	0xbdc34674	-0.09534922
1	0x3d59951a	0.05312071
2	0xbd5cb5d4	-0.053884342
3	0x3d80ef44	0.06295636
4	0x3cb86caf	0.022512762
5	0xbd9dd15e	-0.07705949
6	0xba25a104	-0.00063182437
7	0x38cf7bf0	9.893614e-05
8	0xbd4c297c	-0.04984425
9	0xbdbfbc3f	-0.09362077
10	0xbc7f2174	-0.015571941
11	0x3b3a0ce3	0.0028389029
12	0xbd985ba3	-0.07439353
13	0x3d7fe31b	0.062472444
14	0xbd2a9a44	-0.041651025
15	0xbc3cd270	-0.011524782
16	0xbd4d4a01	-0.050119404
17	0x3d26a707	0.040686633
18	0xbd1084a1	-0.035282735
19	0xbd99f7ad	-0.075179435
20	0xbdac01ad	-0.08398757
21	0x3d693453	0.056934666
22	0xbc8fde0e	-0.017561939
23	0xbdab2921	-0.08357454
24	0xbd607a04	-0.054803863
25	0xbd5d541f	-0.054035302
26	0x3d7d0414	0.061771467
27	0xbdab72be	-0.08371495
28	0xbd47fa51	-0.048822705
29	0xbc4b95d2	-0.012425857
30	0x3d8ad79e	0.06779407
31	0x3d725608	0.059164077
32	0x3dc7ef94	0.09762493
33	0xbdb4f4a6	-0.088357255
34	0x3d6a61c6	0.05722215
35	0xbd85cf1e	-0.06533645
36	0x3c8352b5	0.016030649
37	0xbd95ba56	-0.073109314
38	0xbaf1e895	-0.0018456156
39	0xbb8065b3	-0.0039183735
40	0xbdd15a2d	-0.10222278
41	0x3dc95f50	0.098326325
42	0xbd16adce	-0.036786847
43	0xbd5fc2df	-0.054629203
44	0xbd8c03ef	-0.06836688
45	0xbd8a19fa	-0.06743236
46	0xbda3ef11	-0.08004583
47	0x3d8da9f1	0.069171794
48	0x3c11991b	0.008886601
49	0xbcf1c9ea	-0.029515225
50	0xbbdc23c8	-0.0067181326
51	0x3d93dc47	0.07219749
52	0xbd946757	-0.07246273
53	0x3d87dfa7	0.06634455
54	0xbdb5d831	-0.08879126
55	0xbd0af8d1	-0.033928696
56	0x3cd11dff	0.025526999
57	0x3d23b32e	0.0399658
58	0x3cfacf2d	0.030616367
59	0xbd7b0357	-0.061282482
60	0xbcac2e1a	-0.021018077
61	0x3cb9ab19	0.022664594
62	0x3ccdacad	0.025106752
63	0x3de1b700	0.110212326
64	0x3d705b82	0.05868102
65	0xbd3da5bd	-0.04630064
66	0x3c9ffcd0	0.01952973
67	0xbc2471ac	-0.010036867
68	0xbdbc0635	-0.091808714
69	0x3d491f9e	0.049102418
70	0x3c055f6b	0.008140425
71	0x3d3c13c2	0.04591728
72	0xbd8f2d8c	-0.06991109
73	0x3bad0ebb	0.005281297
74	0xbd69a6cd	-0.05704384
75	0x3d292d94	0.041303232
76	0x3d8bd747	0.0682817
77	0xbba60ed0	-0.0050676838
78	0x3d8fd2a7	0.070226006
79	0xbd219eb0	-0.039457977
80	0x3d479e0f	0.04873472
81	0x3db64576	0.08899967
82	0x3d4a57a8	0.0494
83	0xbdd4c7a6	-0.103896424
84	0x3cde3c65	0.027128408
85	0xbd7809ba	-0.06055615
86	0xbdc71a1a	-0.09721775
87	0xbd90c963	-0.070696615
88	0xbc090c86	-0.008364802
89	0xbd01c7cc	-0.03168468
90	0xbd54592e	-0.05184286
91	0x3c44a2d9	0.0120017165
92	0x3d7cacf1	0.061688367
93	0x3cf0b52f	0.02938327
94	0x3ce046e4	0.027377553
95	0xbdbc90e1	-0.09207321
96	0xbda846ed	-0.08216653
97	0x3d30cb7e	0.043162815
98	0xbd0df441	-0.034656767

hidden.2.weight f4 [99, 99]
0	0x3d90d70c	0.07072267
1	0x3deb0d33	0.11477127
2	0x3dc807df	0.09767126
3	0x3d97311a	0.07382412
4	0xbc708ead	-0.014682454
5	0x3ca5ccec	0.020239316
6	0xbcf233ef	-0.02956578
7	0xbce38914	-0.027775325
8	0xbdf8966e	-0.12138067
9	0x3db9106a	0.09036334
10	0x3d168be5	0.036754508
11	0x3d330a2e	0.04371088
12	0xbd25ac3c	-0.04044746
13	0xbcd61e21	-0.026137413
14	0x3d6a4c12	0.057201453
15	0x3aa5faa1	0.0012663194
16	0xbe0b84a3	-0.13624816
17	0x3d6a5811	0.057212893
18	0x3d863c62	0.06554486
19	0xbd555057	-0.05207857
20	0xbc0eaecf	-0.00870867
21	0xbdded91f	-0.10881256
22	0xbdbb7768	-0.09153634
23	0xbd2fc338	-0.042910784
24	0x3d20eea7	0.039290097
25	0x3b880142	0.0041505406
26	0xbcd91edf	-0.026503978
27	0xbc8cfbf4	-0.017209984
28	0x3cc094f1	0.02350852
29	0xbdabd45a	-0.08390112
30	0xbd69182f	-0.05690783
31	0xbbdbaf81	-0.0067042713
32	0x3c91e0c8	0.01780738
33	0x3d4b9444	0.049701944
34	0x3d33f246	0.04393222
35	0x3e363ee2	0.17797425
36	0xbc04bcd2	-0.008101659
37	0xbd99ebc1	-0.075156696
38	0xbcba97e9	-0.022777515
39	0xbdd53bae	-0.104117736
40	0xbcbe5f71	-0.02323887
41	0xbda5b604	-0.08091357
42	0x3dd3bad0	0.10338366
43	0x3c9684b6	0.018373828
44	0xbc6fd985	-0.014639263
45	0x3d30d232	0.043169208
46	0x3d7857cd	0.06063061
47	0xbcc4228b	-0.023942253
48	0x3d0d2cf1	0.034466688
49	0x3dc38412	0.09546675
50	0xbdba2cde	-0.09090589
51	0xbd21df7f	-0.039519783
52	0x3d0ab22e	0.03386133
53	0xbd802dbf	-0.062587254
54	0x3d9a028c	0.07520017
55	0xbd94cd30	-0.07265699
56	0xbc9bf930	-0.01903972
57	0x3d7dcbd9	0.061961982
58	0x3da159e0	0.078784704
59	0xbdc33d69	-0.095331974
60	0xbd04aa39	-0.0323889
61	0xbe3b1be3	-0.18272357
62	0xbbd0267f	-0.0063522453
63	0x3d108dde	0.035291545
64	0xbd26a750	-0.040686905
65	0x3d51946a	0.05116693
66	0x3dff0653	0.12452378
67	0xbd80ebd2	-0.06294979
68	0x3e10018a	0.14063087
69	0x3dac0c00	0.08400726
70	0x3c8a53d8	0.016885683
71	0x3d2056e4	0.039145365
72	0xbbbd1fce	-0.0057716137
73	0xbc4484a6	-0.0119945165
74	0x3ce2bd86	0.027678262
75	0xbd33cb57	-0.04389509
76	0xbdd14a35	-0.10219232
77	0xbd65b82a	-0.056083836
78	0xbdbc3126	-0.09189062
79	0x3d96671e	0.07343887
80	0xbd5ba206	-0.053621314
81	0xbde3cf7e	-0.1112356
82	0xbd8e987c	-0.06962678
83	0x3c58e854	0.013238985
84	0x3d2e7b5f	0.042598125
85	0xbb969cda	-0.004596335
86	0x3c4572c4	0.012051288
87	0x3d4a2a77	0.049356904
88	0xbc93f65e	-0.018061813
89	0xbcd22b11	-0.025655301
90	0xbd9d64cf	-0.07685243
91	0xbe091e32	-0.13390425
92	0x3dde8f91	0.10867227
93	0x3d93d05c	0.07217476
94	0xbdc0ce8e	-0.09414397
95	0xbdc68a1b	-0.0969431
96	0x3c5b13ca	0.013371417
97	0xbc836828	-0.016040877
98	0x3e373cbf	0.17894267
99	0x3d5e696c	0.054299757
100	0xbdbd6d6b	-0.092493854
101	0x3d2fed04	0.042950645
102	0xbca8fe36	-0.02062903
103	0xbd98c9bb	-0.07460352
104	0x3d4a95e2	0.049459346
105	0xbc22eaf6	-0.009943714
106	0x3d52aa0c	0.0514317
107	0x3de371ea	0.11105712
108	0xbd26095c	-0.04053627
109	0xbd660a64	-0.056162253
110	0xbdbb0bcf	-0.09133112
111	0x3d30d719	0.043173883
112	0x3b7d6e66	0.003867054
113	0x3d9e3d63	0.07726552
114	0xbc91a05b	-0.017776659
115	0xbca0c685	-0.019625911
116	0xbd4927a8	-0.049110085
117	0x3de95f0a	0.113950804
118	0x3b49bab1	0.0030781443
119	0xbd361d6e	-0.04446166
120	0x3d8fcaf1	0.0702113
121	0xbc1e45c6	-0.00966019
122	0x3e0e0215	0.13867982
123	0xbc5af605	-0.01336432
124	0x3db0b94d	0.08629093
125	0x3c73ebdb	0.014887775
126	0x3dee0001	0.116210945
127	0x3d3c1ec4	0.045927778
128	0x3b7855d3	0.0037892952
129	0x3d2e9302	0.042620666
130	0x3df45e55	0.11932055
131	0x3d045a8a	0.032312907
132	0xbda60bc7	-0.08107715
133	0xbdbb3a88	-0.09142023
134	0x3caa4db7	0.02078901
135	0xbd8d24ef	-0.0689181
136	0x3d399591	0.045308653
137	0xbe0335b1	-0.1281345
138	0x3d7a08fb	0.06104372
139	0xbb926c40	-0.004468471
140	0x3dc880e9	0.09790213
141	0xbd53407b	-0.051575165
142	0xbc205877	-0.009786717
143	0x3e07ce1c	0.13262218
144	0x3cea9d28	0.028639391
145	0x3d3fe634	0.0468504
146	0x3dbd5054	0.09243837
147	0xbd8964cd	-0.06708679
148	0x3cf5fca7	0.0300277
149	0xbb823463	-0.00397353
150	0xbe195a7f	-0.14975928
151	0xbddd0828	-0.10792571
152	0xbd830f89	-0.063994475
153	0xbdbee5b6	-0.09321158
154	0x3c1c07bb	0.009523327
155	0x3d7b6fca	0.061385907
156	0xbda63e6d	-0.081173755
157	0xbd13a337	-0.036044326
158	0x3e220455	0.15821965
159	0x3df9fb4f	0.122061364
160	0x3cea0540	0.028566957
161	0x3c9a5cb6	0.018843036
162	0xbd2e805b	-0.042602878
163	0x3c84d0d4	0.016212858
164	0x3ca6f474	0.020380236
165	0xbb8cf6af	-0.004301868
166	0xbd4a4825	-0.04938521
167	0xbd4ab118	-0.049485296
168	0xbdc0a3cb	-0.09406241
169	0x3c3262d6	0.010887822
170	0xbcd4e2ed	-0.025987113
171	0xbc942126	-0.018082213
172	0xbab4d0b6	-0.0013795111
173	0xbdd7f385	-0.105444945
174	0xbc818de3	-0.015814727
175	0xbe0f668b	-0.14003961
176	0xbdad5805	-0.08464054
177	0x3d0e9c69	0.034817133
178	0xbc1bf249	-0.0095182145
179	0xbdce2792	-0.10066141
180	0x3d5a4acb	0.053293984
181	0xbddd03c0	-0.10791731
182	0x3e0c0767	0.13674699
183	0x3d20e14f	0.03927737
184	0xbdae1369	-0.08499796
185	0xbdc73b6f	-0.09728133
186	0x3d3076cc	0.043082044
187	0xbd8f324b	-0.069920145
188	0xbda0d36b	-0.07852825
189	0x3dbabfe4	0.091186315
190	0xbd80d107	-0.06289869
191	0xbdbf96e7	-0.09354954
192	0x3d843e68	0.064572155
193	0x3d6c284f	0.05765563
194	0x3db38716	0.08766
195	0x3d2bdd52	0.041959114
196	0x3cf944a9	0.030428248
197	0xbdae96e9	-0.085248776
198	0xbd8556e9	-0.065107174
199	0xbcdfa2b9	-0.027299272
200	0xbc954780	-0.01822257
201	0x3d33f11c	0.04393111
202	0xbda00399	-0.07813186
203	0xbc10d006	-0.008838659
204	0xbdb48e3b	-0.08816191
205	0x3af15c74	0.0018414394
206	0x3db30d97	0.087428264
207	0xbc000066	-0.007812595
208	0x3e058393	0.13038473
209	0xbd2945ea	-0.04132644
210	0xbe0a1514	-0.13484603
211	0xbbb1a56e	-0.005421332
212	0xbdec1eca	-0.1152931
213	0x3e0a72ab	0.13520305
214	0xbda8414e	-0.08215581
215	0xbd7da3d7	-0.061923828
216	0x3db1b960	0.086779356
217	0x3bfad446	0.0076546995
218	0xbcfd6706	-0.030932914
219	0x3db07819	0.08616657
220	0xbdbf8e8d	-0.09353361
221	0x3d883af4	0.066518694
222	0x3c268691	0.010163919
223	0xbd93e6b7	-0.0722174
224	0xbe0959d3	-0.13413171
225	0x3d5b284a	0.05350522
226	0x3cfd76c3	0.030940419
227	0x3cb72025	0.022354195
228	0xbd691ba6	-0.056911133
229	0xbd231042	-0.039810427
230	0x3acd6766	0.0015671074
231	0x3daba90a	0.08381851
232	0xbceb3367	-0.028711034
233	0x3d017c9f	0.03161299
234	0xbddd9f22	-0.10821368
235	0xbcac44b2	-0.02102885
236	0x3d17bbf5	0.037044484
237	0x3dcbd931	0.09953535
238	0xbd266377	-0.0406222
239	0xbd145b51	-0.0362199
240	0x3dcd04d4	0.100106865
241	0x3dc5f643	0.09666111
242	0xbd14fc19	-0.03637323
243	0xbe0ba6bd	-0.13637824
244	0x3bc5ee94	0.0060404036
245	0x3d3eda2b	0.04659478
246	0x3acc93a8	0.001560797
247	0x3cd39f6b	0.025832852
248	0x3e1bac01	0.15202333
249	0xbd428913	-0.047494005
250	0x3db5d691	0.08878816
251	0x3cbcb3eb	0.02303501
252	0xbc9ca411	-0.019121202
253	0x3d8cbd4f	0.06872045
254	0x3da0272b	0.07819971
255	0x3d89747f	0.06711673

hidden.2.bias f4 [99]
0	0x3d6b2c96	0.057415567
1	0xbd613bb4	-0.054988578
2	0x3d6e89a4	0.058236733
3	0x3cce1864	0.025158115
4	0xbdb4cf66	-0.088286206
5	0x3d7267b9	0.05918095
6	0xbccf463f	-0.02530205
7	0xbd25a0eb	-0.040436666
8	0xbd86d6e8	-0.06583959
9	0x3d614ee2	0.05500687
10	0x3d5dc960	0.054147124
11	0x3df5f7c7	0.120101504
12	0xbd13f175	-0.036118943
13	0x3d3b8d49	0.045789037
14	0x3d9993e8	0.07498914
15	0x3dacf976	0.084460184
16	0xbd625ab6	-0.05526229
17	0x3ceed854	0.029155888
18	0x3dac70d3	0.08419957
19	0x3bef4d78	0.007302936
20	0x3da3b333	0.07993164
21	0xbcf4ed03	-0.029898172
22	0x3d757d54	0.059933975
23	0x3d8eef47	0.06979232
24	0xbd7b8d9e	-0.061414354
25	0x3dca79f2	0.098865405
26	0x3dbee532	0.09321059
27	0x3bae3a76	0.0053170277
28	0xbd552fc1	-0.052047495
29	0x3cdda287	0.027055038
30	0x3d0388f8	0.032113045
31	0xbca53823	-0.02016837
32	0x3d96d1c8	0.07364231
33	0xbd770351	-0.060305897
34	0x3d49b684	0.049246326
35	0xbd2323ae	-0.03982895
36	0xbd2ec07b	-0.042664032
37	0xbd0d66fa	-0.034522034
38	0x3d8ab130	0.06772077
39	0xbd0d8d57	-0.03455862
40	0x3de9383c	0.11387679
41	0x3d493123	0.049119126
42	0x3d7f9450	0.0623973
43	0xbdf5246a	-0.11969836
44	0xbbeeb559	-0.007284802
45	0xbdaa1f2a	-0.08306725
46	0x3d970507	0.07374006
47	0xbd742550	-0.059605896
48	0xbd308589	-0.0430961
49	0x3da443ba	0.0802073
50	0x3c3d1334	0.011540223
51	0x3d71d385	0.05903961
52	0xbd1d2e58	-0.038374275
53	0x3c01743c	0.007901248
54	0x3d993e42	0.07482578
55	0x3d9d0ebf	0.07668828
56	0xbd93c497	-0.07215231
57	0xbcf7a450	-0.030229717
58	0xbdbd5a56	-0.09245746
59	0xbce491bf	-0.027901528
60	0xbd50d696	-0.050985895
61	0x3df4d7e4	0.1195524
62	0x3c019799	0.007909679
63	0x3d9b3add	0.07579587
64	0xbd120705	-0.035651226
65	0xbd8a63c4	-0.0675731
66	0x3da62548	0.081125796
67	0x3b8954d3	0.00419102
68	0xbc42b2c1	-0.011883439
69	0xbd0cd01d	-0.03437816
70	0x3da83ef1	0.0821513
71	0x3dccfe30	0.1000942
72	0x3dab7c58	0.08373326
73	0x3da60400	0.08106232
74	0xbdccff0f	-0.10009586
75	0xbdaf9be2	-0.08574654
76	0x3b30d1a0	0.0026980415
77	0xbd11225b	-0.035433155
78	0xbc809120	-0.015694201
79	0x3d93dffb	0.07220455
80	0xbc7d5f06	-0.01546455
81	0x3d7740f0	0.060364664
82	0xbd7012b2	-0.05861158
83	0x3c9ff228	0.019524649
84	0x3dabe184	0.08392623
85	0x3da326b9	0.0796637
86	0xbdd9276b	-0.106032215
87	0x3c5ecfc3	0.013599339
88	0xbd3dae12	-0.046308585
89	0x3d7944e5	0.06085672
90	0x3c1fd45b	0.009755219
91	0x3c7daa73	0.015482533
92	0x3d124d3f	0.0357182
93	0xbd8bfa26	-0.068348214
94	0x3b98c22a	0.004661818
95	0x3d3fedce	0.046857648
96	0x3aa320a3	0.001244564
97	0x3d8ce7af	0.06880128
98	0xbd092a48	-0.03348759

hidden.3.weight f4 [99, 99]
0	0xbd04f941	-0.03246427
1	0x3d7f02b6	0.062258445
2	0xbd81c431	-0.06336249
3	0xbc0b2bc3	-0.00849432
4	0x3d9a44b2	0.07532634
5	0x3c6dea90	0.014521256
6	0xbd5a8a01	-0.053354267
7	0x3db3bae4	0.08775881
8	0xbce85226	-0.028359484
9	0xbd8a2d89	-0.067469664
10	0xbca81a4a	-0.020520348
11	0x3dd6b434	0.1048359
12	0x3c1640cf	0.009170725
13	0xbdc34d43	-0.09536221
14	0x3e021fa5	0.12707384
15	0x3dc7f6bf	0.0976386
16	0xbda168a4	-0.07881287
17	0xbdf53bb3	-0.11974277
18	0x3c8dd2bd	0.017312402
19	0x3cf4164f	0.029795794
20	0xbdcad551	-0.09903968
21	0x3d7881b1	0.06067056
22	0x3d06ef61	0.032943133
23	0x3d01eec9	0.031721864
24	0x3ce70e91	0.028205188
25	0x3db3d9d8	0.08781785
26	0xbe215d3f	-0.15758227
27	0x3ced7189	0.028984802
28	0xbcc56456	-0.024095695
29	0xbd1c7ebc	-0.0382068
30	0xbc9ab682	-0.018885855
31	0x3c949fcd	0.018142605
32	0x3d596e4c	0.053083703
33	0xbcba1592	-0.022715364
34	0xbe0c7928	-0.13718092
35	0x3c19f2df	0.009396284
36	0xbe17d64f	-0.14827846
37	0x3d9486dc	0.07252285
38	0x3cb36a7f	0.021901367
39	0x3d57ee70	0.052717626
40	0xbd962ab2	-0.07332362
41	0xbe2fc9f4	-0.17166883
42	0x3c91dcf9	0.017805563
43	0x3dd47f79	0.10375876
44	0x3db8c2f9	0.09021563
45	0x3d959b15	0.0730497
46	0x3cb5974c	0.02216687
47	0x3e081f88	0.13293278
48	0x3cc043e0	0.023469865
49	0x3d5cd0f2	0.053910203
50	0xbc3af407	-0.01141072
51	0xbcbac9d1	-0.022801312
52	0xbdafb9d5	-0.085803665
53	0x3c1a704c	0.009426188
54	0xbdbd96f5	-0.092573084
55	0xbdc6780a	-0.096908644
56	0xbd6d0f2d	-0.0578758
57	0xbd707880	-0.058708668
58	0x3ca2c861	0.019870939
59	0xbe095c88	-0.13414204
60	0x3d0de101	0.03463841
61	0xbca1e71f	-0.019763527
62	0x3d3d5989	0.046227966
63	0xbdb5d700	-0.088788986
64	0xbd608066	-0.05480995
65	0xbcc7c75d	-0.024387056
66	0xbdcf605d	-0.10125802
67	0xbddc8edc	-0.10769436
68	0xbd3ea46b	-0.04654352
69	0x3d9d4c00	0.076805115
70	0x3da2381e	0.0792086
71	0xbd418f38	-0.047255725
72	0x3d416169	0.04721204
73	0x3d3bde5b	0.04586635
74	0xbdae4623	-0.08509471
75	0x3d8018d3	0.06254735
76	0xbd5ac59b	-0.053411108
77	0x3d1d0964	0.038339034
78	0x3dd215c7	0.1025806
79	0xbd8724f5	-0.06598846
80	0xbca79d5c	-0.020460777
81	0x3d3d6154	0.046235397
82	0xbdfe213e	-0.12408684
83	0xbc549f63	-0.012977454
84	0xbcb80568	-0.022463515
85	0x3dbed03b	0.093170606
86	0x3d4149b3	0.047189426
87	0x3df43f0c	0.11926088
88	0xbd8d003b	-0.068848096
89	0x3d87f2e9	0.06638128
90	0x3d8f3b73	0.06993761
91	0x3c9962bb	0.018723836
92	0xbc72d27c	-0.014820691
93	0xbdc1ab32	-0.09456481
94	0x3ddc5e9b	0.10760232
95	0x3c573164	0.013134334
96	0x3d82ab41	0.0638032
97	0x3ddfcb89	0.10927493
98	0x3dc77332	0.09738769
99	0xbdc3c4df	-0.095590346
100	0x3e0af5af	0.13570283
101	0xbe15a68f	-0.14614318
102	0x3bc811a9	0.006105621
103	0x3cb2b5d6	0.021815222
104	0x3dc97c4a	0.098381594
105	0xbcf4c4c3	-0.02987898
106	0x3d6c8c81	0.057751182
107	0x3dae15e0	0.08500266
108	0x3cab2002	0.020889286
109	0x3ddbd4d8	0.10733956
110	0x3c8f86a9	0.017520266
111	0x3cf56ed6	0.029960077
112	0x3d81762f	0.0632137
113	0xbdcd0ec1	-0.1001258
114	0xbbec76b6	-0.0072163
115	0x3e20c383	0.15699582
116	0x3db86c0b	0.090049826
117	0x3d8beb2e	0.06831966
118	0xbdd0f5e9	-0.10203154
119	0xbc953ee7	-0.01821847
120	0x3e08a3f9	0.133438
121	0x3e07c689	0.13259329
122	0xbd1f3aa1	-0.038874272
123	0x3cad8a83	0.021184212
124	0xbdc761a4	-0.0973542
125	0xbd60f53b	-0.05492137
126	0x3d57d114	0.052689627
127	0x3e2d3862	0.1691604
128	0xbd448f30	-0.047988117
129	0x3d134fe8	0.035964876
130	0x3d8a132b	0.06741937
131	0x3d8a6cb6	0.06759016
132	0xbd042935	-0.03226586
133	0xbd476cd0	-0.048687756
134	0xbd19c7db	-0.037544113
135	0x3d66ef9d	0.056380857
136	0x3c40dfb0	0.011772081
137	0xbc905554	-0.017618813
138	0x3d812e6f	0.06307685
139	0x3ddb309d	0.107026316
140	0xbd7498d8	-0.059716076
141	0x3d376e0d	0.044782687
142	0xbdcc871a	-0.09986706
143	0x3da8c2d6	0.08240287
144	0x3d1a28e5	0.037636656
145	0xbc925a05	-0.01786519
146	0x3d5aa5ac	0.053380653
147	0x3d74ccbd	0.059765566
148	0xbda9dcbf	-0.08294057
149	0xbd66689a	-0.0562521
150	0xbd64c8ea	-0.05585567
151	0xbd4ef62a	-0.05052773
152	0xbe0f4612	-0.13991573
153	0x3dc93d78	0.09826177
154	0x3dc06eb7	0.09396117
155	0x3c91f6c9	0.017817872
156	0x3e04a6fe	0.12954327
157	0xbd30b2a9	-0.043139134
158	0x3db01e35	0.085995115
159	0xbcf8c1f4	-0.030365922
160	0xbcfd9e04	-0.030959137
161	0xbd52fd80	-0.051511288
162	0xbd1b905e	-0.037979476
163	0x3de6247e	0.11237429
164	0x3d84a935	0.06477586
165	0xbe431130	-0.19049525
166	0xbe10a6f6	-0.1412619
167	0xbe1ae00c	-0.1512453
168	0x3cd5b422	0.02608687
169	0x3cd20551	0.0256373
170	0x3d756d6c	0.059918806
171	0xbc802c5a	-0.015646148
172	0xbca3f192	-0.02001265
173	0xbda85c07	-0.08220678
174	0xbcbaf2fe	-0.022820946
175	0xbccddc20	-0.025129378
176	0xbe037d34	-0.1284073
177	0xbc892a8e	-0.016743924
178	0xbd4ad578	-0.049519986
179	0xbdd5ed85	-0.10445694
180	0xbda8566f	-0.08219611
181	0x3e05872e	0.13039848
182	0xbce7e9e0	-0.028309762
183	0xbc7850fb	-0.015156026
184	0xbc58e9be	-0.013239322
185	0x3d533e47	0.051573064
186	0x3c08668b	0.008325229
187	0x3dee35bc	0.11631343
188	0xbd569bf5	-0.052394826
189	0x3d0f2996	0.03495177
190	0xbcad2439	-0.021135436
191	0xbc97528e	-0.018471982
192	0x3d22f6a5	0.039786
193	0xbb6047dc	-0.003422252
194	0xbda03b3f	-0.078238
195	0x3d6f5b17	0.05843648
196	0x3c75d285	0.015003805
197	0xbbeb2c1f	-0.0071768905
198	0xbca75c34	-0.020429708
199	0x3dd1bfaa	0.10241635
200	0x3b9440b1	0.0045243134
201	0x3c33ad4c	0.01096661
202	0x3d9a1b3b	0.07524725
203	0xbd0f3f97	-0.034972753
204	0xbdc3a05f	-0.09552073
205	0x3d833aa6	0.06407671
206	0xbc4a7a7f	-0.012358307
207	0x3cb2f3d1	0.021844776
208	0xbc37724b	-0.011196683
209	0x3d67319a	0.056443788
210	0x3cf8de4c	0.030379437
211	0x3dbaefd3	0.09127774
212	0xbd1714fe	-0.036885254
213	0xbdb9f4bf	-0.09079885
214	0x3dada3e7	0.084785275
215	0xbd2bb9dc	-0.041925296
216	0xbdd9a035	-0.1062626
217	0xbcc6a3f3	-0.024248099
218	0xbccc8e9b	-0.024970343
219	0xbd8c2c4f	-0.06844389
220	0xbda83620	-0.082134485
221	0x3e114049	0.14184679
222	0xbd1da813	-0.038490366
223	0xb9d5e047	-0.00040793626
224	0xbdeb19e4	-0.114795476
225	0xbc9c8123	-0.019104546
226	0xbcb90d2b	-0.022589287
227	0x3d4c81a6	0.04992833
228	0xbcec6aa2	-0.02885944
229	0x3dbf0862	0.09327771
230	0x3d344ac9	0.044016633
231	0xbbf6b3f7	-0.0075287777
232	0x3c935148	0.017983094
233	0xbdec903e	-0.115509495
234	0xbe151e19	-0.14562263
235	0x3d0b912d	0.034073997
236	0x3d40e25b	0.04709087
237	0x3d7ff1be	0.062486403
238	0xbe019d6c	-0.12657708
239	0xbd077410	-0.03306967
240	0x3db4c6b7	0.08826964
241	0xbdbbcbea	-0.09169753
242	0xbd12d07a	-0.03584335
243	0x3ce020f3	0.027359461
244	0xbc84934b	-0.016183516
245	0xbd0bc6ce	-0.03412514
246	0xbcc2a59c	-0.02376061
247	0xbe14cbc4	-0.14530855
248	0xbd1d1bb7	-0.03835651
249	0x3c3d1b94	0.01154222
250	0xbb00e188	-0.0019665677
251	0xbdb4182e	-0.087936744
252	0xbd9abe91	-0.07555879
253	0xbd8499e6	-0.06474666
254	0xbca25c06	-0.01981927
255	0xbdf4377c	-0.11924645

hidden.3.bias f4 [99]
0	0x3d3f7193	0.046739172
1	0xbd877ebe	-0.06615971
2	0x3d794a1c	0.06086169
3	0x3daf69cd	0.08565102
4	0xbd6d552d	-0.057942558
5	0xbd338413	-0.043827128
6	0x3b3cdde2	0.0028818776
7	0x3dd29a9b	0.10283395
8	0xbc95401c	-0.018219046
9	0xbd733d89	-0.059384856
10	0x3d508609	0.050909076
11	0xbd733134	-0.059373096
12	0x3d4def94	0.050277308
13	0xbd3c71a9	-0.046006832
14	0xbd2c5be1	-0.04207981
15	0xbdd59681	-0.10429097
16	0x3da6800e	0.08129893
17	0xbb9b6ce1	-0.004743204
18	0x3cc79739	0.0243641
19	0xbdac1db2	-0.084041014
20	0x3d880a98	0.066426456
21	0x3cb75692	0.022380147
22	0x3cf8fc9a	0.030393887
23	0xbd59e4e5	-0.053196806
24	0xbd777c24	-0.060421124
25	0xbdcbd6f6	-0.0995311
26	0x3dc0dcb7	0.09417098
27	0xbd971d06	-0.07378583
28	0xbd4b3d63	-0.04961909
29	0xbd8820ce	-0.06646882
30	0xbba6ad24	-0.005086558
31	0x3d41c51d	0.047307122
32	0x3de15152	0.11001839
33	0x3d78aac7	0.06070974
34	0xbd74a797	-0.05973014
35	0xbcb33e67	-0.021880342
36	0x3bd67ae1	0.00654541
37	0x3cb30e21	0.021857323
38	0xbbf26139	-0.0073968438
39	0x3df4a06b	0.1194466
40	0xbbc18c77	-0.0059066373
41	0xbcca6606	-0.024706852
42	0xbd188f0d	-0.0372458
43	0xbddccbc0	-0.1078105
44	0x3d1cbc9f	0.03826582
45	0xbd35be54	-0.044370964
46	0x3cc6b1b8	0.024254665
47	0xbdb73518	-0.08945674
48	0x3dc83872	0.09776391
49	0x3d9d1cbe	0.07671498
50	0x3d5efbed	0.054439474
51	0xbd2318e5	-0.039818663
52	0xbda47e3e	-0.08031891
53	0xbd8a7418	-0.067604244
54	0x3d801faf	0.06256043
55	0x3af8914b	0.0018964199
56	0x3d89b9c2	0.067248836
57	0x3d973752	0.073835984
58	0x3aa01f6a	0.0012216393
59	0x3d4d5e5a	0.05013881
60	0xbd112ff7	-0.035446133
61	0x3d5009c1	0.050790552
62	0x3d442a4d	0.047891904
63	0xbc5ef789	-0.013608822
64	0xbdad0e3c	-0.084499806
65	0xbd50ac8d	-0.050945807
66	0x3db468b7	0.08809035
67	0x3d451a23	0.04812063
68	0xbd73a819	-0.059486482
69	0x3d20d301	0.03926373
70	0x3d5a4b84	0.053294674
71	0xbdb4e608	-0.088329375
72	0xbd00ef61	-0.03147829
73	0x3ce11858	0.027477428
74	0x3dc73843	0.09727528
75	0xbdcde1c6	-0.100528285
76	0x3d71eab2	0.059061714
77	0x3cd2028f	0.025635986
78	0xbc924f97	-0.017860217
79	0xbd149aea	-0.03628055
80	0xbdbef7ee	-0.093246326
81	0xbd272d08	-0.04081443
82	0x3d0dd3f9	0.03462598
83	0x3b4a3c2c	0.003085862
84	0x3dba82c0	0.0910697
85	0xbd51d2a8	-0.051226288
86	0xbc33ccaa	-0.010974089
87	0x3d9774db	0.07395335
88	0xbda65a98	-0.08122748
89	0xbd0bb6a3	-0.034109723
90	0xbca3c984	-0.019993551
91	0xbe084ca4	-0.13310486
92	0x3ce088d3	0.027408993
93	0xbcc9f7d9	-0.024654316
94	0x3d353d26	0.04424777
95	0x3c863d5c	0.01638668
96	0x3d1a5fbb	0.037688952
97	0x3da16171	0.078799136
98	0xbdb02ccd	-0.08602295
