models/7x7-4-99-tanh/140episodes.pth (torch, 202354 bytes, 12 tensors)

input_layer.weight f4 [99, 50]
0.1073442 -0.1932685 -0.12169713 -0.17895937 -0.15277211 -0.110769294 -0.15234804 0.06584415
-0.047920708 0.054320842 0.01541145 0.09065141 -0.050875023 -0.11977621 -0.06691611 0.049368788
0.030430596 0.018734813 0.123531334 0.01828415 -0.16464512 0.18465286 0.0017311707 0.020887576
0.010047928 0.14447118 -0.070563935 -0.17802243 -0.13401884 0.061493892 -0.123511985 -0.118713014
-0.010656492 -0.0399008 -0.10045653 -0.016292753 -0.026062446 0.06417546 -0.12422862 -0.15185353
0.06991013 -0.012242152 0.064091936 0.017702693 -0.032164443 0.1744215 0.019808108 -0.15624462
-0.064331725 0.083962165 0.0366098 -0.14073429 0.034955624 -0.07943968 -0.060523003 0.13825487
0.08837074 0.0780739 -0.11196397 0.00067568163 -0.090416424 -0.11415861 0.15518749 -0.098541506
-0.004489422 0.05085661 -0.020926181 0.1085417 -0.09101596 0.015425816 0.07007766 -0.024236571
-0.04609354 0.0037748003 -0.10002494 -0.04404123 -0.18592577 0.024997186 0.07489425 -0.13041839
-0.00011081976 0.06790259 0.08407968 -0.032713387 -0.049700465 -0.16552432 -0.10174576 0.00022308466
0.09526328 -0.0098271575 -0.10329588 -0.06730413 -0.04569037 -0.040106032 -0.028825574 0.008728951
-0.07986972 -0.063710146 0.038868863 0.011098633 -0.18247606 -0.04583318 -0.102257475 0.08442284
0.01693948 0.11368778 -0.055137068 0.025826363 0.144236 -0.11676203 -0.10656705 -0.16800302
0.051351458 0.082017004 0.0013533522 0.050445452 -0.051149923 0.1339033 0.12023252 0.10886988
-0.0018008616 0.13472393 -0.09468246 -0.06252848 0.112579644 0.022557724 -0.15356685 -0.042594
0.0052667474 -0.055110827 0.04936246 -0.0820867 0.06282273 -0.07830435 0.027174782 0.09471185
-0.116361104 -0.109189495 -0.10236358 0.11033415 0.01244032 -0.08533964 0.024005314 0.112234786
-0.03490625 0.062255442 0.11270213 -0.10144357 0.018772446 -0.07002028 0.030926328 -0.057309415
-0.106971316 -0.02216424 -0.036594518 -0.023002928 0.021215577 0.03419259 -0.039338022 0.11191353
0.12777558 -0.13079509 0.053470064 -0.03443738 0.1752699 0.14152588 0.025096733 0.12565465
-0.0041890545 -0.050765265 -0.13251673 0.11891725 -0.05812553 -0.035872344 -0.022220671 -0.08742781
-0.028620608 -0.083892316 -0.15877931 -0.051484723 0.07852053 -0.0048738886 -0.101890534 -0.052259155
-0.16054209 0.033957787 0.05023131 -0.0069753635 0.10462235 -0.00010522251 0.009215768 -0.010529069
-0.018940058 -0.0050734906 0.0336869 0.13762394 -0.07594081 -0.06632076 0.02709918 -0.08335484
-0.11404157 -0.064620875 0.010584371 0.13837044 0.021487296 0.05236288 -0.089503504 -0.09937462
0.027274793 -0.037534833 0.039519854 0.12094055 -0.0029893024 -0.059096854 -0.15013422 -0.07405674
0.123245284 0.099726796 -0.051903743 -0.16452889 -0.003164994 0.13175845 -0.08853279 0.14923745
-0.13154285 0.043205563 0.05941558 -0.097398266 0.10106074 -0.115474164 0.033130735 0.108318254
-0.027755262 -0.026346013 0.087872975 0.06303611 0.034559187 0.011212444 -0.048018087 0.07972039
-0.10290535 -0.09724825 -0.022023011 0.06166986 -0.054856032 -0.11220464 0.0033918761 -0.1451864
0.0034276978 0.085677475 -0.093755364 -0.069963 -0.04652428 -0.12171444 0.025318308 -0.09117825
00000000: 47d7 db3d 2de8 45be 583c f9bd 2041 37be
00000010: 4b70 1cbe 03db e2bd 2001 1cbe 4cd9 863d
00000020: 8148 44bd 887f 5e3d 4e80 7c3c 72a7 b93d
00000030: 5462 50bd 3b4d f5bd 500b 89bd ed36 4a3d
00000040: 9649 f93c c079 993c fffd fc3d a4c8 953c
00000050: bb98 28be a415 3d3e 73e8 e23a 6c1c ab3c
00000060: 11a0 243c 41f0 133e d383 90bd 834b 36be
00000070: 3c3c 09be 05e1 7b3d daf3 fcbd cf1f f3bd
00000080: 9198 2ebc 056f 23bd 27bc cdbd 6178 85bc
00000090: e980 d5bc 6c6e 833d 936b febd 7e7f 1bbe
000000a0: 0b2d 8f3d 4f93 48bc a242 833d 3d05 913c
000000b0: ddbe 03bd 8d9b 323e 9d44 a23c 97fe 1fbe
000000c0: 5ac0 83bd 5bf4 ab3d 28f4 153d a61c 10be
000000d0: a12d 0f3d 45b1 a2bd f8e6 77bd af92 0d3e
000000e0: b8fb b43d 35e5 9f3d 5e4d e5bd 3a20 313a
000000f0: 3f2c b9bd fdcb e9bd 78e9 1e3e 21d0 c9bd
00000100: 001c 93bb 054f 503d 626d abbc 1c4b de3d
00000110: 9366 babd 90bc 7c3c e084 8f3d c68b c6bc
00000120: 94cc 3cbd a462 773b e0d9 ccbd 9464 34bd
00000130: 5363 3ebe e6c6 cc3c 2862 993d 668c 05be
00000140: e867 e8b8 8310 8b3d f831 ac3d 79fe 05bd
00000150: b792 4bbd 357f 29be 1560 d0bd d5eb 6939
00000160: 6519 c33d 1602 21bc ca8c d3bd bfd6 89bd
00000170: d325 3bbd 3946 24bd 9c23 ecbc e003 0f3c
00000180: bc92 a3bd 777a 82bd f534 1f3d 0ad7 353c
00000190: 01db 3abe 93bb 3bbd 5e6c d1bd e2e5 ac3d
000001a0: aac4 8a3c 24d5 e83d 68d7 61bd cf91 d33c
000001b0: 9ab2 133e ee20 efbd d33f dabd fc08 2cbe
000001c0: e855 523d 88f8 a73d f762 b13a e49f 4e3d
000001d0: 9582 51bd f21d 093e 783c f63d 2cf7 de3d
000001e0: e30a ecba 12f5 093e e1e8 c1bd ef0e 80bd
000001f0: 2890 e63d faca b83c a140 1dbe 0c77 2ebd
00000200: ae94 ac3b e4bb 61bd 4a30 4a3d 121d a8bd
00000210: 34a9 803d 085e a0bd a69d de3c 49f8 c13d
00000220: bb4e eebd be9e dfbd ffa3 d1bd dff6 e13d
00000230: 7cd2 4b3c 8dc6 aebd cba6 c43c 5adb e53d
00000240: dbf9 0ebd 90ff 7e3d 60d0 e63d a5c1 cfbd
00000250: acc8 993c cb66 8fbd 3659 fd3c 47bd 6abd
00000260: c713 dbbd c891 b5bc 22e4 15bd a370 bcbc
00000270: 4acc ad3c 870d 0c3d e820 21bd ec32 e53d
00000280: 9ad7 023e 26ef 05be 6d03 5b3d 360e 0dbd
00000290: f479 333e 29ec 103e aa97 cd3c 9dab 003e
000002a0: 5644 89bb 3def 4fbd 77b2 07be e38a f33d
000002b0: 0915 6ebd e1ee 12bd 2008 b6bc 5a0d b3bd
000002c0: c475 eabc bccf abbd 0b97 22be a5e1 52bd
000002d0: 5fcf a03d 24b5 9fbb fcab d0bd b20d 56bd
000002e0: 2565 24be 5217 0b3d 59bf 4d3d 9791 e4bb
000002f0: 3e44 d63d e8aa dcb8 bcfd 163c 1e82 2cbc
00000300: 2e28 9bbc 863f a6bb 46fb 093d 4aed 0c3e
00000310: db86 9bbd 2ed3 87bd 19ff dd3c f1b5 aabd
00000320: a08e e9bd f357 84bd 126a 2d3c fbb0 0d3e
00000330: 2006 b03c 767a 563d 9d4d b7bd ec84 cbbd
00000340: 636f df3c 20be 19bd 92df 213d aeaf f73d
00000350: 2ce8 43bb 8b0f 72bd c9bc 19be 0fab 97bd
00000360: 0668 fc3d 903d cc3d 0599 54bd 437a 28be
00000370: ca6b 4fbb b0eb 063e ae50 b5bd b4d1 183e
00000380: 2bb3 06be 51f8 303d c05d 733d be78 c7bd
00000390: eff8 ce3d b87d ecbd 18b4 073d f6d5 dd3d
000003a0: 015f e3bc 98d3 d7bc bff6 b33d 1319 813d
000003b0: ef8d 0d3d 66b4 373c 9dae 44bd 7244 a33d
000003c0: 0ac0 d2bd 172a c7bd 9a69 b4bc 8999 7c3d
000003d0: b8b0 60bd 8ccb e5bd 3d4a 5e3b beab 14be
000003e0: 3aa3 603b ac77 af3d d002 c0bd c348 8fbd
000003f0: 3e90 3ebd 6c45 f9bd 5768 cf3c aabb babd

input_layer.bias f4 [99]
0.012094948 -0.117574476 0.14265177 -0.017577082 0.17438993 -0.1137687 -0.103183754 0.028380433
-0.09486248 0.035451476 -0.12949394 0.022107387 -0.07751177 0.10091841 -0.041780226 0.045366
-0.01494105 -0.10705593 -0.088724956 0.08141959 0.0495737 0.08994996 0.11374425 -0.08734888
0.09870767 0.13768783 -0.08291124 0.114307046 -0.034154173 -0.0651342 -0.099236384 -0.014758038
0.014355033 -0.08315617 0.022490287 0.11985963 -0.032770593 -0.07833088 -0.12720491 -0.055160996
-0.030274527 0.024849232 0.16043723 -0.08707563 -0.046213727 0.07885305 0.015489014 0.10366261
0.08715187 -0.022570468 0.095818594 0.12477893 0.048252948 -0.024604129 -0.095364794 -0.12210872
-0.094044104 -0.105066165 -0.11759818 -0.041412413 0.034855396 0.11354164 0.0187471 0.0968194
-0.1304955 -0.029710192 -0.1173397 -0.12538168 -0.1301259 -0.047609154 -0.108257994 0.13605821
-0.057174776 0.10643672 -0.09298347 -0.025935654 -0.021281881 -0.1579607 0.09572285 -0.060589746
0.0938811 -0.08919185 -0.12390149 0.13281214 -0.1103555 0.058723696 -0.116236396 0.0692778
-0.11170411 0.017817844 0.10548161 0.15114753 0.063824415 -0.084128164 -0.010575742 0.12900306
-0.0874258 -0.0023598173 -0.036508925
00000000: e429 463c e3ca f0bd 4e13 123e d0fd 8fbc
00000010: 4693 323e 90ff e8bd 0152 d3bd 157e e83c
00000020: 4347 c2bd 9135 113d 0f9a 04be 8d1a b53c
00000030: 7ebe 9ebd 50ae ce3d be21 2bbd b3d1 393d
00000040: 4ecb 74bc 2440 dbbd 6eb5 b5bd 50bf a63d
00000050: cb0d 4b3d af37 b83d bff2 e83d f8e3 b2bd
00000060: 3f27 ca3d 0afe 0c3e 5ecd a9bd d019 ea3d
00000070: 3fe5 0bbd 1465 85bd 723c cbbd b3cb 71bc
00000080: 5f31 6b3c c84d aabd 8d3d b83c f778 f53d
00000090: 753a 06bd f16b a0bd 0142 02be 7ff0 61bd
000000a0: 4902 f8bc 9e90 cb3c a849 243e b554 b2bd
000000b0: 9b4a 3dbd b57d a13d a2c5 7d3c 104d d43d
000000c0: ae7c b23d b4e5 b8bc 8a3c c43d 188c ff3d
000000d0: e2a4 453d 998e c9bc 9e4e c3bd 2314 fabd
000000e0: 329a c0bd ee2c d7bd 51d7 f0bd 10a0 29bd
000000f0: 88c4 0e3d 8588 e83d 8593 993c 4049 c63d
00000100: 9da0 05be ca62 f3bc cc4f f0bd 0e64 00be
00000110: b93f 05be d101 43bd 5eb6 ddbd d852 0b3e
00000120: 1930 6abd 7ffb d93d 1e6e bebd 0277 d4bc
00000130: 5757 aebc 73c0 21be 570a c43d f42c 78bd
00000140: bc44 c03d 37aa b6bd 10c0 fdbd e8ff 073e
00000150: 1002 e2bd 4288 703d 590d eebd 85e1 8d3d
00000160: 20c5 e4bd baf6 913c be06 d83d 6bc6 1a3e
00000170: 60b6 823d 634b acbd e145 2dbc 6119 043e
00000180: 4c0c b3bd 2aa7 1abb 628a 15bd

hidden.0.weight f4 [99, 99]
-0.12770936 -0.061746694 0.013584274 -0.10511543 0.08631878 -0.016862908 0.017280295 0.06307606
-0.02493749 0.057475943 0.0029416191 0.03707009 0.04191651 0.033142075 0.036647454 0.12143366
-0.09952953 0.019676842 -0.056981463 0.0004657478 -0.09030571 0.026460456 0.023461493 0.103861615
0.100542404 0.05547983 -0.063291386 -0.0389419 -0.08714812 -0.05157826 -0.113549784 -0.026449328
-0.12211072 0.044308875 0.022739597 0.09216556 0.06176974 0.07403363 0.04164707 0.099729404
0.15487038 0.14041339 -0.048274048 0.0159138 0.08602531 0.035762377 -0.057733655 -0.00909561
-0.048571747 -0.08824899 -0.09891639 0.10643667 -0.027381176 0.04156148 -0.116811566 -0.019921385
-0.0011197715 0.0026102406 0.04382407 0.040102754 0.1520567 0.12749502 0.058356117 0.13749304
-0.05610623 -0.050775852 0.07964917 0.07709055 0.056333836 0.034331795 -0.0016937073 0.10648579
0.020705465 -0.085823275 0.004922955 0.03551379 -0.09818105 -0.02763815 0.08245816 -0.030365523
-0.035290338 -0.029235695 -0.021493843 0.016861942 0.11062602 -0.065697014 -0.034713984 0.033202197
-0.0715624 0.039381813 0.008339348 0.073578976 -0.08081181 0.06514093 -0.033122696 0.052033912
0.11183703 0.10425221 -0.041066248 0.04731157 0.027348327 -0.045267478 0.08227053 0.021133356
0.028153397 0.05818807 0.05769661 0.113416955 -0.029282285 0.07246729 -0.11183358 -0.037168186
-0.11621184 0.05723691 -0.04908514 -0.032248512 0.026409803 -0.0957008 0.022764076 0.0071189273
0.03689 -0.1348385 -0.03621444 -0.06158937 0.011094928 -0.0545223 -0.089507945 -0.08106168
0.009074043 0.063783854 0.10887654 -0.076906234 -0.10268766 -0.04113036 -0.06673832 0.13208555
0.017891407 0.06536615 -0.0362428 0.11981783 -0.08914939 0.04068624 0.0811655 -0.012481719
-0.058582123 -0.082178734 0.0060066106 -0.13579126 -0.034558944 0.04578311 0.058798395 0.0332826
0.027743237 -0.08672026 0.04464989 0.018784031 -0.048190087 0.0006145669 0.04499429 -0.058454577
0.035565466 -0.018759206 0.08934021 -0.022790832 0.02280075 -0.0059786793 -0.12371742 -0.06755174
-0.05075038 -0.10614434 -0.088093884 -0.002092943 -0.005287207 -0.11052451 -0.025992727 0.048346996
-0.10536815 0.021558592 -0.057285935 -0.021942869 -0.119089335 -0.09342743 -0.0262417 0.10893651
-0.00325047 0.07029134 -0.06815556 -0.006902186 -0.074502334 -0.04372753 0.024750166 0.07658973
0.0028377885 -0.095537774 0.04015138 0.0019091857 0.071605034 -0.010397309 -0.060987618 0.107333146
-0.06571882 -0.0012787988 -0.09932422 0.05759826 -0.045962248 0.047772143 0.049409393 -0.120119564
0.116740614 0.09790179 -0.062396985 -0.07537629 -0.0031739615 0.13626471 -0.03622297 -0.051562097
0.031656623 -0.009214943 -0.048624296 0.05746337 0.09373363 0.07928256 -0.051802464 0.0016522523
-0.017272893 0.023157936 0.012612818 -0.0680917 -0.08380575 -0.075978994 0.08981836 -0.05367898
0.055885088 0.11856421 -0.06740984 -0.118661955 -0.07451341 0.005286852 -0.0055818195 0.107786
0.020052858 -0.001057698 0.0079244375 -0.06304404 -0.012424591 0.055213694 0.09334125 -0.020907823
-0.08507471 -0.079836 0.03738948 -0.045526225 -0.10480933 -0.039696794 -0.10326889 -0.037333388
00000000: 3ec6 02be 1aea 7cbd 9390 5e3c c246 d7bd
00000010: e7c7 b03d 1524 8abc 688f 8d3c 052e 813d
00000020: b549 ccbc e56b 6b3d 2ec8 403b cfd6 173d
00000030: a5b0 2b3d fcbf 073d a41b 163d 36b2 f83d
00000040: 23d6 cbbd 5431 a13c 6565 69bd 9d2f f439
00000050: 33f2 b8bd 99c3 d83c 5132 c03c 66b5 d43d
00000060: 2de9 cd3d d13e 633d ea9e 81bd 8b81 1fbd
00000070: b77a b2bd ba43 53bd ca8c e8bd 43ac d8bc
00000080: 2f15 fabd 397d 353d 6448 ba3c 4cc1 bc3d
00000090: 4402 7d3d f29e 973d 1e96 2a3d ee3e cc3d
000000a0: 5796 1e3e 87c8 0f3e 02bb 45bd a85d 823c
000000b0: 0a2e b03d 927b 123d 207a 6cbd c105 15bc
000000c0: 2bf3 46bd e3bb b4bd ad94 cabd 78fb d93d
000000d0: 7d4e e0bc 5f3c 2a3d e73a efbd 2c32 a3bc
000000e0: 4cc5 92ba 9210 2b3b de80 333d c942 243d
000000f0: c0b4 1b3e 0e8e 023e d306 6f3d faca 0c3e
00000100: a5cf 65bd 57fa 4fbd 1b1f a33d a6e1 9d3d
00000110: 4fbe 663d 7f9f 0c3d 63ff ddba 3915 da3d
00000120: 829e a93c 1dc4 afbd bd50 a13b e876 113d
00000130: 2513 c9bd 6769 e2bc d3df a83d 1ec1 f8bc
00000140: 9a8c 10bd b27f efbc db13 b0bc 0e22 8a3c
00000150: e58f e23d 288c 86bd 4030 0ebd 07ff 073d
00000160: 4f8f 92bd d34e 213d c3a1 083c 93b0 963d
00000170: aa80 a5bd 9c68 853d aaab 07bd 8321 553d
00000180: d00a e53d 2f82 d53d 1535 28bd c7c9 413d
00000190: 9909 e03c 646a 39bd 747d a83d dc1f ad3c
000001a0: f4a1 e63c 9d56 6e3d 4853 6c3d 2647 e83d
000001b0: 67e1 efbc bb69 943d 0109 e5bd ab3d 18bd
000001c0: 7900 eebd 4071 6a3d 800d 49bd 0417 04bd
000001d0: 5f59 d83c c8fe c3bd ba7b ba3c e445 e93b
000001e0: f819 173d 1b13 0abe 9855 14bd 2345 7cbd
000001f0: 80c7 353c c652 5fbd f14f b7bd ab03 a6bd
00000200: 4bab 143c 1ca1 823d aafa de3d 0481 9dbd
00000210: e84d d2bd 4f78 28bd 1aae 88bd 6f41 073e
00000220: 0091 923c b0de 853d 5573 14bd 0d63 f53d
00000230: f593 b6bd 9da6 263d 193a a63d 2080 4cbc
00000240: cff3 6fbd 534d a8bd 1ad3 c43b dd0c 0bbe
00000250: ae8d 0dbd 1287 3b3d 96d6 703d 5653 083d
00000260: c945 e33c 649a b1bd cee2 363d f8e0 993c
00000270: f862 45bd e31a 213a ef4b 383d 116e 6fbd
00000280: 18ad 113d e8ac 99bc 00f8 b63d d7b3 babc
00000290: a3c8 ba3c cce8 c3bb 8f5f fdbd 9158 8abd
000002a0: a1df 4fbd 3462 d9bd 916a b4bd c229 09bb
000002b0: 4f40 adbb ad5a e2bd b3ee d4bc 8007 463d
000002c0: 42cb d7bd a59b b03c a8a4 6abd 88c1 b3bc
000002d0: 1ce5 f3bd e156 bfbd d5f8 d6bc 1b1a df3d
000002e0: d605 55bb e8f4 8f3d 2495 8bbd bc2b e2bb
000002f0: ae94 98bd a31b 33bd dcc0 ca3c 14db 9c3d
00000300: 31fa 393b 4fa9 c3bd c675 243d a43d fa3a
00000310: a9a5 923d 7a59 2abc 27ce 79bd 7bd1 db3d
00000320: 9797 86bd 5e9d a7ba 7f6a cbbd 27ec 6b3d
00000330: e942 3cbd b9ac 433d 8161 4a3d 3f01 f6bd
00000340: b415 ef3d bc80 c83d fb93 7fbd e25e 9abd
00000350: 3d02 50bb fa88 0b3e 895e 14bd c732 53bd
00000360: 60aa 013d 46fa 16bc 452a 47bd b65e 6b3d
00000370: 6bf7 bf3d e55e a23d d22e 54bd 6390 d83a
00000380: e27f 8dbc b6b5 bd3c fea5 4e3c a973 8bbd
00000390: 59a2 abbd e09a 9bbd b0f2 b73d 7dde 5bbd
000003a0: c3e7 643d cbd1 f23d 2c0e 8abd 0a05 f3bd
000003b0: 7d9a 98bd 543d ad3b b2e7 b6bb e8be dc3d
000003c0: e445 a43c 75a2 8aba 80d5 013c 3c1d 81bd
000003d0: 8390 4bbc c127 623d b329 bf3d e246 abbc
000003e0: a63b aebd 0f81 a3bd b625 193d b579 3abd
000003f0: 46a6 d6bd 1b99 22bd a47e d3bd e5ea 18bd

hidden.0.bias f4 [99]
-0.035385072 0.08503754 -0.08899947 -0.058100916 0.047231372 -0.07519336 -0.0585037 -0.048197113
-0.061724838 0.042316664 0.08926779 0.058358822 -0.0760048 0.03852604 0.08673291 -0.01911782
0.052561898 0.050550826 -0.04045892 0.0019085662 -0.08038646 0.0786018 -0.036838196 -0.065849595
-0.031052474 0.038023047 -0.10314921 0.034771238 -0.013684318 0.06015319 0.024847083 -0.06712679
-0.062421598 -0.064277306 0.027806014 -0.109066196 0.029898271 0.017154522 0.06000369 -0.06857164
0.07577973 0.048203263 -0.0046143704 -0.097173825 0.06713636 0.022713186 -0.022264458 -0.00032883268
-0.029409677 0.037088636 0.043730874 0.08314794 -0.047229994 -0.013930593 -0.012008614 0.052009877
0.07614018 0.06274023 -0.03528413 0.031079596 0.05946845 0.101322465 -0.062350985 0.052316256
-0.06294161 0.032742485 -0.08417212 0.09278768 0.032024864 -0.0578914 -0.099937394 0.01732634
0.084484704 0.0032975085 -0.06973 0.037898876 -0.020556659 0.060751967 -0.032245934 0.10187996
0.035723098 -0.09160084 -0.051909614 -0.067322165 -0.035290387 -0.0148982685 0.020740438 -0.063516796
0.014890492 0.08188077 -0.027446114 -0.09244975 -0.035490274 -0.054261718 -0.015921343 0.045566227
0.091317035 -0.080897406 0.03274489
00000000: f0ef 10bd 2928 ae3d 5b45 b6bd 3afb 6dbd
00000010: af75 413d fafe 99bd 93a1 6fbd 566a 45bd
00000020: 2fd3 7cbd 3d54 2d3d 08d2 b63d a909 6f3d
00000030: 68a8 9bbd 7bcd 1d3d 06a1 b13d f99c 9cbc
00000040: 254b 573d 620e 4f3d 41b8 25bd db28 fa3a
00000050: a8a1 a4bd fbf9 a03d a6e3 16bd 27dc 86bd
00000060: c261 febc 0ebe 1b3d e53f d3bd 496c 0e3d
00000070: 3134 60bc 3163 763d 1c8c cb3c c579 89bd
00000080: caad 7fbd d2a3 83bd 70c9 e33c 195e dfbd
00000090: 38ed f43c a487 8c3c 6ec6 753d 4a6f 8cbd
000000a0: 6732 9b3d c970 453d 2534 97bb 1203 c7bd
000000b0: ca7e 893d 0111 ba3c f463 b6bc 2d67 acb9
000000c0: 90ec f0bc 41ea 173d 251f 333d 7849 aa3d
000000d0: 3d74 41bd 243d 64bc c7bf 44bc 4f08 553d
000000e0: 62ef 9b3d f37d 803d 1886 10bd a39a fe3c
000000f0: 3095 733d 2782 cf3d bf63 7fbd 9249 563d
00000100: 88e7 80bd fc1c 063d 6f62 acbd 7807 be3d
00000110: 812c 033d 881f 6dbd faab ccbd f8ef 8d3c
00000120: 5106 ad3d 031b 583b 9ace 8ebd da3b 1b3d
00000130: 7066 a8bc 0ed7 783d 5014 04bd 71a6 d03d
00000140: 6252 123d 3999 bbbd 2d9f 54bd 34e0 89bd
00000150: a78c 10bd de17 74bc dae7 a93c 1815 82bd
00000160: 40f7 733c 1bb1 a73d acd6 e0bc 4b56 bdbd
00000170: 405e 11bd 8941 5ebd 7a6d 82bc a7a3 3a3d
00000180: 6d04 bb3d 8aad a5bd 811f 063d

hidden.1.weight f4 [99, 99]
-0.026508993 -0.0018803693 0.05009674 0.15152282 -0.07540191 0.076084636 0.09565977 0.10686098
-0.062341485 0.010571153 0.11508347 -0.054739714 -0.12588744 -0.063115455 -0.037227023 -0.17592734
-0.051132187 -0.020459134 0.008817534 0.043366224 -0.09480754 0.06278061 0.08874363 -0.014673879
0.051890336 0.04010392 0.11936653 0.056756493 -0.049593106 -0.025404759 -0.07372757 0.14058705
0.08113701 0.14868946 0.010597723 -0.022366196 0.040727753 -0.09524929 -0.043308653 -0.06462224
-0.013131342 0.09153383 -0.102082826 0.035777524 0.06345785 0.05194041 -0.013919865 0.07006276
-0.10532228 -0.09970336 0.081779644 0.12694211 -0.03228742 0.0009670921 -0.048766717 -0.0095428685
0.012611014 -0.0771736 -0.07636248 -0.014062669 -0.0780018 0.047390405 -0.059246324 0.039560523
0.046189412 0.014720099 0.082140096 -0.1255751 -0.072712675 -0.009726899 0.13419197 0.044921026
0.1425475 -0.08464015 -0.09329487 0.034984462 0.03565385 0.0058449134 0.06074783 0.02394223
-0.07477177 0.13710119 0.055396043 0.033997323 0.07467509 -0.08597862 -0.052182138 0.09363408
-0.042458396 0.049715497 0.12876548 -0.07687248 0.104283035 -0.10308455 -0.092471406 -0.008995746
-0.095714755 0.0342789 -0.013133842 -0.0755293 0.13346884 0.084981576 -0.11977798 0.013378006
0.10340139 -0.08799002 -0.053158287 -0.018740952 -0.020849466 -0.114425436 0.063936934 -0.010312614
0.018367186 -0.06843381 0.058625203 0.078243695 -0.07099372 -0.015837368 -0.15447831 -0.112298846
-0.1681232 0.06321587 -0.030037345 0.12026657 0.049541812 -0.09839503 -0.15660793 0.05250146
-0.15525526 -0.12561628 -0.11522718 0.012991234 0.03936066 0.049849205 0.1318795 -0.053045325
0.07609098 -0.002448373 0.06914623 -0.0005407172 -0.12640846 -0.040503874 0.010049626 -0.019130941
0.15663056 0.058628384 -0.0009462641 0.03204303 -0.06096413 0.059862223 -0.055055656 -0.10450095
-0.060450703 0.155422 0.077099785 -0.0896029 0.057405923 0.010292211 0.053335365 -0.058654465
-0.12371228 0.094755754 -0.06750976 0.032462265 0.007242399 -0.022008954 0.06349609 0.030702252
-0.0388168 -0.11625636 -0.14981323 -0.11541125 0.114855655 -0.03869028 0.082366735 -0.055911783
-0.007719813 0.06996555 -0.15064421 -0.11998903 0.06571443 0.06979187 -0.049007144 0.00082098035
0.115799256 -0.05933164 -0.05551894 -0.02941031 -0.009965325 0.035797175 -0.08465665 -0.096974
0.008084208 0.01846739 -0.050637994 0.017396223 0.09095474 -0.053882483 0.11529317 0.08517234
0.039375883 -0.023675798 0.023717597 0.084742576 -0.009392609 -0.05109784 0.06776997 0.13542268
-0.009220489 -0.09889628 -0.021696165 -0.060213745 0.05952895 -0.046896562 0.13139564 0.057217874
0.066028774 -0.1252086 -0.04779488 -0.08442749 -0.033678025 -0.02869359 0.0839383 0.03474627
0.03304294 -0.008930626 0.02526357 0.009157366 0.04999866 -0.022255577 -0.098563425 -0.047188405
0.027032604 -0.09745936 -0.029619971 -0.04721015 -0.030279214 -0.034446355 -0.08721377 0.007410603
0.06163538 -0.06682523 -0.04282671 0.018431842 -0.020464158 -0.004659354 -0.031722937 -0.07833463
-0.08880093 0.002305874 0.01892914 0.10497838 -0.022045976 0.020234928 0.112829596 0.10073672
00000000: 6329 d9bc b976 f6ba 3d32 4d3d cc28 1b3e
00000010: 516c 9abd 43d2 9b3d 45e9 c33d eed9 da3d
00000020: c959 7fbd a132 2d3c e2b0 eb3d c036 60bd
00000030: a3e8 00be ad42 81bd 5d7b 18bd 4c26 34be
00000040: fc6f 51bd ea99 a7bc 6b77 103c c8a0 313d
00000050: 752a c2bd 1f93 803d 38bf b53d b66a 70bc
00000060: f68a 543d 0244 243d 7076 f43d 7f79 683d
00000070: 2422 4bbd a41d d0bc 7bfe 96bd 0df6 0f3e
00000080: 292b a63d 0d42 183e 12a2 2d3c 5039 b7bc
00000090: 25d2 263d 0f12 c3bd 6a64 31bd aa58 84bd
000000a0: d724 57bc 1776 bb3d cd10 d1bd 748b 123d
000000b0: 30f6 813d 78bf 543d 2510 64bc 107d 8f3d
000000c0: 35b3 d7bd 4631 ccbd 167c a73d 1dfd 013e
000000d0: d03f 04bd 7484 7d3a 9cbf 47bd b159 1cbc
000000e0: 6d9e 4e3c 310d 9ebd ef63 9cbd 1c67 66bc
000000f0: 68bf 9fbd 711c 423d 46ac 72bd 370a 223d
00000100: 1c31 3d3d 922c 713c 1139 a83d c296 00be
00000110: 62ea 94bd 925d 1fbc 9f69 093e 1cff 373d
00000120: f9f7 113e d157 adbd 6111 bfbd de4b 0f3d
00000130: c509 123d b086 bf3b b7d2 783d 7f22 c43c
00000140: f121 99bd 4164 0c3e f6e6 623d c740 0b3d
00000150: 41ef 983d 8f15 b0bd f0bc 55bd 39c3 bf3d
00000160: dbe8 2dbd 7aa2 4b3d 19db 033e 526f 9dbd
00000170: 5892 d53d fe1d d3bd a661 bdbd e562 13bc
00000180: 1906 c4bd 0868 0c3d 532f 57bc 1baf 9abd
00000190: 0eac 083e d20a ae3d 284e f5bd 6d2f 5b3c
000001a0: 1cc4 d33d 1d34 b4bd 81bc 59bd a086 99bc
000001b0: 80cc aabc e257 eabd 5ef1 823d 3df6 28bc
000001c0: c876 963c 0627 8cbd fb20 703d 3b3e a03d
000001d0: 2865 91bd 5ebd 81bc 902f 1ebe f0fc e5bd
000001e0: 7d28 2cbe 5277 813d e110 f6bc 524e f63d
000001f0: 5bec 4a3d 5583 c9bd d45d 20be c50b 573d
00000200: 3cfb 1ebe 8ea1 00be 3afc ebbd 2fd9 543c
00000210: a538 213d ae2e 4c3d 6b0b 073e 0e46 59bd
00000220: 96d5 9b3d e274 20bb 8a9c 8d3d ebbe 0dba
00000230: 3871 01be 64e7 25bd 30a7 243c 7eb8 9cbc
00000240: c363 203e 5124 703d b50e 78ba 8d3f 033d
00000250: 86b5 79bd 1732 753d 0a82 61bd 9804 d6bd
00000260: 289b 77bd f226 1f3e 7ee6 9d3d ba81 b7bd
00000270: 7922 6b3d a9a0 283c 2f76 5a3d aa3f 70bd
00000280: dd5c fdbd 4e0f c23d 8f42 8abd 27f7 043d
00000290: a551 ed3b 1f4c b4bc 3d0a 823d 4a83 fb3c
000002a0: 5dfe 1ebd d117 eebd a468 19be bc5c ecbd
000002b0: 7139 eb3d b379 1ebd e4af a83d c103 65bd
000002c0: 7cf6 fcbb 194a 8f3d 7a42 1abe cfbc f5bd
000002d0: 4995 863d 0aef 8e3d b7bb 48bd 0f37 573a
000002e0: 2928 ed3d bc05 73bd d467 63bd e4ed f0bc
000002f0: 9a45 23bc 0fa0 123d 7760 adbd 4e9a c6bd
00000300: a073 043c ed48 973c c969 4fbd 8682 8e3c
00000310: 7b46 ba3d e1b3 5cbd d31e ec3d d66e ae3d
00000320: 9b48 213d bff3 c1bc 684b c23c 848d ad3d
00000330: 75e3 19bc f84b 51bd fbca 8a3d 3eac 0a3e
00000340: 8911 17bc 228a cabd 28bc b1bc b0a2 76bd
00000350: a1d4 733d 9c16 40bd 948c 063e 4a5d 6a3d
00000360: 183a 873d af36 00be 90c4 43bd 52e8 acbd
00000370: f8f1 09bd d20e ebbc d8e7 ab3d 1b52 0e3d
00000380: 0958 073d c351 12bc 8cf5 ce3c c708 163c
00000390: 65cb 4c3d 5451 b6bc 9fdb c9bd a148 41bd
000003a0: 7b73 dd3c c698 c7bd 95a5 f2bc 6e5f 41bd
000003b0: 1d0c f8bc 9f17 0dbd 229d b2bd a5d4 f23b
000003c0: 6175 7c3d abdb 88bd 0f6b 2fbd 60fe 963c
000003d0: 73a4 a7bc 7fad 98bb e9ef 01bd e86d a0bd
000003e0: 43dd b5bd 251e 173b 4911 9b3c e8fe d63d
000003f0: c399 b4bc b8c3 a53c 3413 e73d 0e4f ce3d

hidden.1.bias f4 [99]
-0.09110112 0.04993882 -0.050441593 0.050260656 0.034019705 -0.07608616 -0.004222654 -0.010601745
-0.049639925 -0.09689832 -0.01524136 -0.00085584965 -0.07333009 0.058280744 -0.04319061 -0.0070146048
-0.055374276 0.04651537 -0.022574043 -0.071034394 -0.0842995 0.053584095 -0.02210504 -0.08658218
-0.055711344 -0.0551719 0.06715601 -0.082732394 -0.039843757 -0.008257787 0.07974133 0.06442735
0.09525067 -0.098026216 0.05165194 -0.067326084 0.02634943 -0.08582392 -0.0054050186 -0.013038727
-0.10578404 0.102140956 -0.02360435 -0.04917989 -0.061330516 -0.055461336 -0.087003686 0.08236166
0.004655399 -0.027783645 -0.0053529153 0.07269985 -0.061812796 0.06875642 -0.08509084 -0.045275997
0.026787775 0.034633793 0.033061933 -0.05879249 -0.030261531 0.026831299 0.023077445 0.113752544
0.066130094 -0.033206016 0.022071717 -0.0138119515 -0.092893966 0.05364902 0.004387369 0.041603643
-0.07528485 0.014361723 -0.065891914 0.042699423 0.06502167 -0.005174175 0.07631805 -0.044611454
0.057451215 0.09610795 0.052463066 -0.11191246 0.035433523 -0.07018098 -0.10294361 -0.070430376
-0.012336619 -0.030550746 -0.046043877 0.0054603643 0.063163586 0.046276413 0.027149646 -0.09049321
-0.084291264 0.03608229 -0.041236054
00000000: 3993 babd a68c 4c3d d89b 4ebd 1ede 4d3d
00000010: 3f58 0b3d 10d3 9bbd 305e 8abb f1b2 2dbc
00000020: 3c53 4bbd a072 c6bd e6b6 79bc 195b 60ba
00000030: 162e 96bd cab7 6e3d a3e8 30bd c5da e5bb
00000040: 23d0 62bd e786 3e3d 33ed b8bc 7b7a 91bd
00000050: 37a5 acbd ff7a 5b3d a115 b5bc ff51 b1bd
00000060: 9431 64bd eefb 61bd 1789 893d 9a6f a9bd
00000070: 3533 23bd ab4b 07bc 6c4f a33d 7df2 833d
00000080: c912 c33d f8c1 c8bd fc90 533d 42e2 89bd
00000090: c3da d73c 74c4 afbd 951c b1bb 63a0 55bc
000000a0: 4ea5 d8bd 472f d13d e95d c1bc da70 49bd
000000b0: b535 7bbd 6d2b 63bd fd2e b2bd 3bad a83d
000000c0: 518c 983b 879a e3bc 8267 afbb a9e3 943d
000000d0: 6a2f 7dbd 2ad0 8c3d 1b44 aebd 5373 39bd
000000e0: 0972 db3c 2adc 0d3d f36b 073d 65d0 70bd
000000f0: 08e7 f7bc 50cd db3c e90c bd3c 18f7 e83d
00000100: 376f 873d 0803 08bd bfcf b43c 864b 62bc
00000110: 313f bebd 13bf 5b3d ebc3 8f3b 9568 2a3d
00000120: f22e 9abd 6f4d 6b3c 57f2 86bd 97e5 2e3d
00000130: 152a 853d 208c a9bb a34c 9c3d 80ba 36bd
00000140: f751 6b3d 3fd4 c43d 83e3 563d 5c32 e5bd
00000150: be22 113d 0cbb 8fbd 19d4 d2bd cd3d 90bd
00000160: 881f 4abc 8f45 fabc 8198 3cbd dbec b23b
00000170: e95b 813d 568c 3d3d ef68 de3c 8154 b9bd
00000180: e6a0 acbd 06cb 133d 23e7 28bd

hidden.2.weight f4 [99, 99]
0.07483575 0.12454467 0.09685387 0.07393506 -0.018540075 0.010767915 -0.0359908 -0.03105195
-0.13210177 0.10239768 0.053383455 0.042481482 -0.031744342 -0.028892105 0.06622798 0.00773374
-0.141337 0.0375112 0.07149288 -0.05009132 -0.0056363177 -0.12547389 -0.08598091 -0.04182193
0.044544443 0.008112523 -0.016144961 -0.017231742 0.027551746 -0.096249826 -0.056338023 -0.004895513
-0.006271954 0.06630567 0.054097317 0.18777591 -0.012528752 -0.08626099 -0.027788207 -0.123342976
-0.019284166 -0.09205688 0.11185951 0.03279098 -0.011960068 0.033374425 0.068909384 -0.04209499
0.047019854 0.096341416 -0.08585644 -0.052253537 0.03426719 -0.067380056 0.08653661 -0.08408595
-0.018195512 0.07606921 0.08779335 -0.10800346 -0.042615753 -0.19754757 0.0009814458 0.032734644
-0.05310504 0.06465773 0.14061742 -0.045900706 0.18236347 0.08465324 0.016969575 0.04731409
-0.029805942 7.0213423e-06 0.041451763 -0.057048053 -0.11547598 -0.053121317 -0.08887246 0.06113921
-0.0622661 -0.13539514 -0.08367269 0.014044386 0.041184068 0.00074239296 -0.0038027684 0.06575595
-0.02472784 -0.012770705 -0.06919876 -0.13815977 0.10939502 0.07205561 -0.09313174 -0.1037457
0.026180489 -0.021187445 0.19194338 0.053901758 -0.09206557 0.050302215 -0.029098446 -0.08588282
0.039515633 -0.010707484 0.054450575 0.11974159 -0.045326713 -0.06621265 -0.10601215 0.037739664
0.014099333 0.085457504 -0.023232698 -0.03243403 -0.04876921 0.12528852 0.017163845 -0.04848989
0.07349586 -0.013763435 0.14867282 -0.01645852 0.092183776 0.01166275 0.11799185 0.044575658
0.015666526 0.035136644 0.119510636 0.0333701 -0.09699591 -0.10313734 0.028199295 -0.06912916
0.034107592 -0.12986325 0.068837754 -0.01344187 0.09763684 -0.06599033 -0.024224779 0.12981585
0.028356593 0.045373466 0.10738975 -0.073257215 0.0343988 -0.011283913 -0.15831847 -0.10617564
-0.07789798 -0.085616514 0.013145955 0.07174178 -0.09499616 -0.028355166 0.16013834 0.13197881
0.029609956 0.024511682 -0.040686816 0.0058800746 0.0072057764 0.0052128257 -0.055890888 -0.056386363
-0.102051005 0.01792735 -0.01623508 -0.006489832 0.010788612 -0.103325546 -0.006993381 -0.14842165
-0.07960355 0.040603828 -0.008145855 -0.10249208 0.06076307 -0.09241666 0.14350808 0.04888614
-0.08364362 -0.09124215 0.032440115 -0.075648546 -0.08974866 0.06590792 -0.051868264 -0.10315976
0.08449214 0.054711573 0.08689307 0.040135235 0.019682806 -0.07101409 -0.06136621 -0.04365926
-0.02333394 0.05001025 -0.0809361 -0.020709036 -0.08268277 0.019504493 0.09533846 -0.0032398892
0.14271225 -0.048274245 -0.13036895 -0.008293094 -0.12418494 0.14407136 -0.07949931 -0.067892656
0.09100555 0.0061932155 -0.024724554 0.0907163 -0.09188923 0.065187596 0.005039817 -0.06726441
-0.1491119 0.06331997 0.03976093 0.011351655 -0.054096133 -0.056761015 -0.0074391067 0.08808934
-0.01999858 0.02417234 -0.1194763 -0.03105951 0.0437778 0.10645123 -0.055569362 -0.033250257
0.09189283 0.11703456 -0.042309638 -0.14012052 0.0030817545 0.06135263 0.01767111 0.020671403
0.16237238 -0.05506699 0.085753 0.022833794 -0.03430733 0.07035846 0.08549593 0.06933551
00000000: 7c43 993d 4711 ff3d 525b c63d 446b 973d
00000010: 5be1 97bc e96b 303c 176b 13bd a960 febc
00000020: b045 07be e0b5 d13d 9ca8 5a3d 1001 2e3d
00000030: 5b06 02bd 23af ecbc 89a2 873d 506b fd3b
00000040: a6ba 10be 58a5 193d dc6a 923d 8e2c 4dbd
00000050: dcb0 b8bb 3a7c 00be c216 b0bd 794d 2bbd
00000060: 3c74 363d 63ea 043c 7042 84bc 9529 8dbc
00000070: 33b4 e13c a11e c5bd b3c2 66bd 8a6a a0bb
00000080: f784 cdbb 44cb 873d 2695 5d3d 5448 403e
00000090: 6545 4dbc 9aa9 b0bd 18a4 e3bc 3e9b fcbd
000000a0: d4f9 9dbc 5188 bcbd 9916 e53d d64f 063d
000000b0: 29f4 43bc 9fb3 083d 5d20 8d3d cc6b 2cbd
000000c0: e497 403d a64e c53d 80d5 afbd ce07 56bd
000000d0: c15b 0c3d 8efe 89bd 1b3a b13d 4135 acbd
000000e0: c10e 95bc 2dca 9b3d 00cd b33d eb30 ddbd
000000f0: db8d 2ebd e949 4abe dba3 803a c314 063d
00000100: ac84 59bd 466b 843d 03fe 0f3e 6102 3cbd
00000110: 7dbd 3a3e ae5e ad3d c703 8b3c 6bcc 413d
00000120: 972b f4bc df98 eb36 53c9 293d 38ab 69bd
00000130: ac7e ecbd bd95 59bd c402 b6bd 1c6d 7a3d
00000140: bd0a 7fbd 06a5 0abe 965c abbd 6d1a 663c
00000150: a0b0 283d 269d 423a de37 79bb 0eab 863d
00000160: 0a92 cabc 383c 51bc 14b8 8dbd c179 0dbe
00000170: 7f0a e03d e491 933d dbbb bebd a078 d4bd
00000180: 7778 d63c 4b91 adbc ce8c 443e 17c8 5c3d
00000190: e08c bcbd b209 4e3d dd5f eebc 55e3 afbd
000001a0: 25db 213d 716e 2fbc 9107 5f3d 143b f53d
000001b0: 81a8 39bd 7f9a 87bd e61c d9bd e894 1a3d
000001c0: e400 673c 5804 af3d 8052 bebc 8cd9 04bd
000001d0: 39c2 47bd a24b 003e 319b 8c3c 569d 46bd
000001e0: ff84 963d 0880 61bc b03d 183e 05d4 86bc
000001f0: d9ca bc3d 1e15 3f3c b6a5 f13d f794 363d
00000200: 1657 803c 71eb 0f3d fec1 f43d 16af 083d
00000210: cba5 c6bd ab39 d3bd 3502 e73c 9793 8dbd
00000220: 67b4 0b3d dffa 04be cffa 8c3d 4a3b 5cbc
00000230: d3f5 c73d f025 87bd 0b73 c6bc 72ee 043e
00000240: 164c e83c 87d9 393d 28ef db3d e107 96bd
00000250: c2e5 0c3d 29e0 38bc 3d1e 22be 9d72 d9bd
00000260: fa88 9fbd b657 afbd 2262 573c 5bed 923d
00000270: 598d c2bd 1849 e8bc 4efb 233e 7425 073e
00000280: 9490 f23c b9cc c83c 38a7 26bd a4ad c03b
00000290: 6f1e ec3b 5ad0 aa3b d8ed 64bd 63f5 66bd
000002a0: 1e00 d1bd 61dc 923c 6eff 84bc a8a8 d4bb
000002b0: b8c2 303c 589c d3bd bb28 e5bb d8fb 17be
000002c0: 3007 a3bd 3350 263d 3176 05bc 5ee7 d1bd
000002d0: b2e2 783d f244 bdbd c8f3 123e d53c 483d
000002e0: 594d abbd 2add babd eddf 043d a0ed 9abd
000002f0: 25ce b7bd bbfa 863d d173 54bd 6d45 d3bd
00000300: 370a ad3d 3e19 603d fef4 b13d d864 243d
00000310: d63d a13c d66f 91bd 235b 7bbd 0dd4 32bd
00000320: d226 bfbc 8cd7 4c3d d3c1 a5bd ffa5 a9bc
00000330: 9655 a9bd e3c7 9f3c cf40 c33d 5254 54bb
00000340: 2923 123e 37bb 45bd 707f 05be c2df 07bc
00000350: ac54 febd 7187 133e 89d0 a2bd 4e0b 8bbd
00000360: 1e61 ba3d 75f0 ca3b 268b cabc 78c9 b93d
00000370: 6c30 bcbd 1381 853d 0d25 a53b ecc1 89bd
00000380: cab0 18be e7ad 813d 5bdc 223d 4bfc 393c
00000390: e893 5dbd 3d7e 68bd c0c3 f3bb 2f68 b43d
000003a0: 10d4 a3bc 1205 c63c feaf f4bd 8370 febc
000003b0: 5a50 333d 1a03 da3d b39c 63bd 6c31 08bd
000003c0: 4f32 bc3d d1af ef3d df4c 2dbd c17b 0fbe
000003d0: 43f7 493b e54c 7b3d 01c3 903c 1357 a93c
000003e0: f244 263e ed8d 61bd 459f af3d f00d bb3c
000003f0: d885 0cbd 1918 903d 7d18 af3d c7ff 8d3d

hidden.2.bias f4 [99]
0.050202247 -0.04854394 0.052012213 0.022429442 -0.10568455 0.05897062 -0.031593204 -0.031760573
-0.065031715 0.058995325 0.042410232 0.12071467 -0.034566138 0.03189518 0.06404795 0.080863915
-0.07040419 0.03314027 0.08293841 0.017181741 0.081611596 -0.028670251 0.05475818 0.06090658
-0.06312121 0.08875452 0.09792537 0.009178719 -0.056569956 0.028691828 0.026326584 -0.024202164
0.06401248 -0.064071044 0.050626826 -0.042379256 -0.034451015 -0.031854037 0.06719799 -0.033412755
0.114726596 0.045701057 0.05192462 -0.12671928 0.0018913996 -0.08646707 0.08179679 -0.070944756
-0.031994347 0.08553253 0.016939407 0.053159695 -0.040591702 0.015862407 0.070348024 0.074466206
-0.07684369 -0.030656284 -0.09039069 -0.03425085 -0.067991406 0.12126759 0.016379097 0.08015635
-0.037546992 -0.07675972 0.076925315 0.002648021 1.082768e-06 -0.03081702 0.08499789 0.103862464
0.078459606 0.08655234 -0.09963824 -0.094993 0.00016147518 -0.05948219 -0.014292085 0.06388589
-0.009211141 0.06493492 -0.076442465 0.016082114 0.096774675 0.08526233 -0.09782556 0.02146451
-0.04352441 0.069144934 0.009747429 0.0179057 0.037877932 -0.069021694 0.01874791 0.028524278
0.00086523633 0.06493184 -0.027492255
00000000: dfa0 4d3d 03d6 46bd c20a 553d f3bd b73c
00000010: 2471 d8bd 2d8b 713d e067 01bd 6017 02bd
00000020: 592f 85bd 15a5 713d 5ab6 2d3d 4139 f73d
00000030: 3995 0dbd 85a4 023d 922b 833d fb9b a53d
00000040: 1230 90bd 17be 073d 9ddb a93d b9c0 8c3c
00000050: fb23 a73d e0dd eabc 1d4a 603d 2e79 793d
00000060: b145 81bd eec4 b53d 198d c83d 5662 163c
00000070: e6b5 67bd 200b eb3c d9aa d73c 9e43 c6bc
00000080: fa18 833d ae37 83bd 135e 4f3d df95 2dbd
00000090: 821c 0dbd 6179 02bd 1a9f 893d d0db 08bd
000000a0: c7f5 ea3d 0831 3b3d e9ae 543d b3c2 01be
000000b0: d7e8 f73a a615 b1bd 1385 a73d 7c4b 91bd
000000c0: 810c 03bd ae2b af3d 83c4 8a3c fbbd 593d
000000d0: 7c43 26bd e1f1 813c a012 903d bd81 983d
000000e0: 3960 9dbd e322 fbbc c11e b9bd 9f4a 0cbd
000000f0: 143f 8bbd 245b f83d 752d 863c 0329 a43d
00000100: e0ca 19bd 3334 9dbd 058b 9d3d 6c8a 2d3b
00000110: a053 9135 fa73 fcbc 6013 ae3d d8b5 d43d
00000120: 6eaf a03d 5a42 b13d 220f ccbd b18b c2bd
00000130: aa51 2939 99a3 73bd 5929 6abc 9bd6 823d
00000140: 53ea 16bc 99fc 843d de8d 9cbd a3be 833c
00000150: cd31 c63d 049e ae3d c458 c8bd 57d6 af3c
00000160: a746 32bd dc9b 8d3d aeb3 1f3c f9ae 923c
00000170: e425 1b3d 3f5b 8dbd 3895 993c bfab e93c
00000180: 07d1 623a fcfa 843d 7037 e1bc

hidden.3.weight f4 [99, 99]
-0.033591647 0.07192825 -0.06829732 0.0007562002 0.079668105 0.027981322 -0.0662192 0.11828965
-0.020313166 -0.0684732 -0.027345395 0.10839202 0.005409794 -0.07620357 0.13952665 0.08794717
-0.063383356 -0.119256176 0.002708871 0.035513785 -0.11000181 0.071272485 0.049464896 0.03279067
0.012593719 0.09576789 -0.17800131 0.034939617 -0.014909376 -0.038985632 -0.0065807183 0.024061609
0.05286632 -0.052202903 -0.14396752 0.004112465 -0.16641256 0.082822874 0.018854273 0.05987122
-0.079691336 -0.16349268 0.036291465 0.1110996 0.10519871 0.05897148 0.014582572 0.13714406
0.03287893 0.060950305 0.002384035 -0.025030423 -0.08197375 -0.0031935205 -0.08731684 -0.108667195
-0.051479828 -0.0622863 -0.002153223 -0.121835224 0.038262367 -0.018985452 0.05456785 -0.09831564
-0.05110905 -0.028468715 -0.11857855 -0.12003856 -0.046339788 0.07572149 0.07849225 -0.04561394
0.04459787 0.061971758 -0.10845575 0.06020773 -0.0707418 0.034771852 0.095090464 -0.09010614
-0.032190114 0.051229063 -0.13083705 -0.01869687 -0.018932344 0.10030277 0.038735118 0.1406765
-0.10456702 0.07055739 0.0682043 0.042043794 -0.011909941 -0.092126735 0.106494136 0.013920814
0.07073621 0.11246819 0.10113406 -0.1018019 0.14721335 -0.1476372 0.005743583 0.036432195
0.10281146 -0.018205218 0.054892268 0.07690715 0.022793284 0.101155594 0.010494673 0.030169746
0.06581574 -0.093045466 -0.0076704854 0.16858208 0.09945656 0.07216094 -0.110224284 -0.030021207
0.12656327 0.14376988 -0.044115484 0.021895476 -0.090973675 -0.04899813 0.06484936 0.18680678
-0.037392564 0.026148122 0.07210344 0.06716781 -0.03660613 -0.06890551 -0.040990897 0.0491467
0.011112077 -0.017715057 0.06639374 0.10899901 -0.061057314 0.04686396 -0.09175968 0.081233375
0.0390426 -0.02971101 0.0560771 0.05486499 -0.07443069 -0.056843445 -0.05662772 -0.06165903
-0.14609954 0.09215899 0.08667246 0.02360498 0.14477986 -0.05591406 0.095545225 -0.03457205
-0.025201323 -0.048689425 -0.044732768 0.12563747 0.071903385 -0.19634522 -0.14186859 -0.14852346
0.017356964 0.02501394 0.06564714 -0.010087311 -0.016787048 -0.06979687 -0.022458363 -0.030009037
-0.1238111 -0.006972659 -0.056300882 -0.099169016 -0.09733544 0.14591965 -0.0418188 -0.01926062
-0.021639258 0.060240924 0.008981441 0.12646572 -0.059489064 0.034509894 -0.013580979 -0.02992628
0.04675682 0.0007547716 -0.076905444 0.064052396 0.029989656 0.0021487644 -0.022076553 0.09423988
0.0139567945 -0.0108281085 0.083749875 -0.03647766 -0.08195468 0.057042617 0.007915219 0.014418924
-0.031656157 0.052454855 0.025442878 0.11380332 -0.013911496 -0.08946412 0.09368976 -0.056024037
-0.117518455 -0.0093514975 -0.03723592 -0.085585915 -0.09796611 0.15021582 -0.03248393 0.018666113
-0.12818608 -0.020914346 -0.029813016 0.020556405 -0.042445656 0.10640058 0.04829944 -0.023989795
0.0074039903 -0.14514038 -0.171627 0.037689347 0.049077462 0.08255279 -0.13538353 -0.041845612
0.08216907 -0.08479042 -0.03250985 0.046818748 -0.013623428 -0.03789405 -0.034149896 -0.1585512
-0.04981893 0.010519346 -0.023822302 -0.09830098 -0.096123874 -0.054874763 -0.034328874 -0.14042552
00000000: 6597 09bd 1e4f 933d 77df 8bbd bd3b 463a
00000010: 0829 a33d 1639 e53c ef9d 87bd d841 f23d
00000020: cc67 a6bc ad3b 8cbd 7303 e0bc a3fc dd3d
00000030: a444 b13b 9e10 9cbd 13e0 0e3e a51d b43d
00000040: 22cf 81bd 953c f4bd 5087 313b e776 113d
00000050: a148 e1bd 4ff7 913d b49b 4a3d 824f 063d
00000060: e355 4e3c f521 c43d fa45 36be d81c 0f3d
00000070: 7546 74bc 66af 1fbd 11a3 d7bb da1c c53c
00000080: 5b8a 583d b6d2 55bd 396c 13be dbc1 863b
00000090: 0e68 2abe 0a9f a93d 4774 9a3c 863b 753d
000000a0: 3635 a3bd a06a 27be 5ca6 143d 3088 e33d
000000b0: 6c72 d73d 148c 713d bdeb 6e3c 7e6f 0c3e
000000c0: 0fac 063d 07a7 793d 783d 1c3b 9a0c cdbc
000000d0: dae1 a7bd 624a 51bb 2cd3 b2bd e88c debd
000000e0: 83dc 52bd eb1f 7fbd 161d 0dbb bf84 f9bd
000000f0: 00b9 1c3d 6187 9bbc 8a82 5f3d b659 c9bd
00000100: b957 51bd 3937 e9bc 50d9 f2bd c7d6 f5bd
00000110: cace 3dbd de13 9b3d 8bc0 a03d afd5 3abd
00000120: 42ac 363d 19d6 7d3d 0c1e debd 619c 763d
00000130: 14e1 90bd ee6c 0e3d cabe c23d 9189 b8bd
00000140: c8d9 03bd 91d5 513d 26fa 05be 2e2a 99bc
00000150: 0118 9bbc 8a6b cd3d b7a8 1e3d 800d 103e
00000160: 3c27 d6bd 6580 903d b2ae 8b3d 1d36 2c3d
00000170: ea21 43bc f1ac bcbd 9919 da3d 2014 643c
00000180: 25de 903d b955 e63d 601f cf3d 847d d0bd
00000190: 19bf 163e 352e 17be ab34 bc3b ed39 153d
000001a0: d18e d23d 1c23 95bc b7d6 603d 7f81 9d3d
000001b0: fbb8 ba3c aa2a cf3d d9f1 2b3c 8b26 f73c
000001c0: 67ca 863d 9f8e bebd b258 fbbb c8a0 2c3e
000001d0: e2af cb3d 1dc9 933d 45bd e1bd 09ef f5bc
000001e0: cd99 013e 6938 133e 70b2 34bd 245e b33c
000001f0: 6850 babd 43b2 48bd becf 843d 474a 3f3e
00000200: f228 19bd 9634 d63c f8aa 933d 478f 893d
00000210: 4ff0 15bd 551e 8dbd 12e6 27bd 0d4e 493d
00000220: 6e0f 363c 2b1f 91bc 71f9 873d df3a df3d
00000230: 3c17 7abd 6cf4 3f3d 80ec bbbd af5d a63d
00000240: 22eb 1f3d 8164 f3bc 1ab1 653d 1dba 603d
00000250: 1e6f 98bd acd4 68bd 78f2 67bd 2e8e 7cbd
00000260: 1e9b 15be dabd bc3d 5581 b13d 3b5f c13c
00000270: 2c41 143e 2406 65bd 37ad c33d 6c9b 0dbd
00000280: 0173 cebc 906e 47bd b539 37bd 1ca7 003e
00000290: 1542 933d b90e 49be 0046 11be 8916 18be
000002a0: 3130 8e3c 09ea cc3c 0272 863d 4045 25bc
000002b0: fe84 89bc a9f1 8ebd 9afa b7bc 83d5 f5bc
000002c0: ad90 fdbd e77a e4bb c19b 66bd 2019 cbbd
000002d0: ce57 c7bd f66b 153e 314a 2bbd 73c8 9dbc
000002e0: d044 b1bc 30bf 763d e526 133c 3b80 013e
000002f0: ceaa 73bd 3f5a 0d3d c182 5ebc f527 f5bc
00000300: 1484 3f3d dddb 453a 9a80 9dbd e72d 833d
00000310: deac f53c 49d2 0c3b e3d9 b4bc d700 c13d
00000320: 0aab 643c 6168 31bc 0e85 ab3d 9969 15bd
00000330: dbd7 a7bd 85a5 693d d6ae 013c 5a3d 6c3c
00000340: e3a9 01bd e7da 563d 956d d03c b711 e93d
00000350: 0bed 63bc f738 b7bd 6be0 bf3d 7679 65bd
00000360: 84ad f0bd 0637 19bc b184 18bd ab47 afbd
00000370: 75a2 c8bd 2dd2 193e df0d 05bd ade9 983c
00000380: 3643 03be 9054 abbc 6d3a f4bc e865 a83c
00000390: 7fdb 2dbd 8ce8 d93d a2d5 453d 3f86 c4bc
000003a0: 2c9d f23b ae9f 14be fdbe 2fbe 2560 1a3d
000003b0: 7305 493d 7011 a93d fba1 0abe 4e66 2bbd
000003c0: 4248 a83d 9aa6 adbd 0c29 05bd 04c5 3f3d
000003d0: cc34 5fbc cb36 1bbd c3e0 0bbd 3f5b 22be
000003e0: ef0e 4cbd 5659 2c3c fd26 c3bc 0652 c9bd
000003f0: 98dc c4bd 5cc4 60bd 6f9c 0cbd b5cb 0fbe

hidden.3.bias f4 [99]
0.055058036 -0.06643694 0.06454386 0.0861866 -0.07074347 -0.051447403 -0.012234729 0.10707472
-0.0067630243 -0.050233 0.02774354 -0.07048369 0.058675773 -0.04353123 -0.039706405 -0.09238067
0.06592433 -0.02383906 0.023081742 -0.087876715 0.0608086 0.0011293183 0.028541394 -0.038719762
-0.069443606 -0.103116274 0.095154844 -0.07949627 -0.047506217 -0.046199758 -0.026183229 0.047252726
0.11718505 0.0695746 -0.050673183 -0.030993633 0.00116998 0.022279428 -0.0069508916 0.113503546
-0.002503994 -0.02295544 -0.043471716 -0.09503715 0.030436141 -0.039879434 0.029593965 -0.10870815
0.10386654 0.08808404 0.051487755 -0.018317567 -0.07477865 -0.072613485 0.053202413 -0.00885337
0.062881514 0.075547725 -0.0018162837 0.056988657 -0.056633644 0.06633271 0.04319005 -0.022865584
-0.094787166 -0.054337025 0.09473611 0.05951217 -0.054449674 0.034223434 0.039450556 -0.08302117
-0.025548901 0.03382208 0.102255866 -0.11222172 0.051629122 0.021711163 -0.017014617 -0.038036972
-0.10167147 -0.03986506 0.02893228 0.00090907834 0.085317545 -0.043583993 -0.0125002945 0.07041564
-0.06777117 -0.020611692 -0.024075037 -0.12839492 0.031423382 -0.021237133 0.06866888 0.01472931
0.034408394 0.07337622 -0.07608887
00000000: 8984 613d 1710 88bd 922f 843d 9a82 b03d
00000010: f4e1 90bd 83ba 52bd 2c74 48bc fe49 db3d
00000020: 5c9c ddbb 1ec1 4dbd 6c46 e33c c159 90bd
00000030: 0256 703d ce4d 32bd 2fa3 22bd 1432 bdbd
00000040: 5603 873d 224a c3bc ec15 bd3c b5f8 b3bd
00000050: 7012 793d a205 943a a4cf e93c 9d98 1ebd
00000060: 7338 8ebd a02e d3bd 8be0 c23d f1ce a2bd
00000070: e195 42bd f53b 3dbd 367e d6bc 138c 413d
00000080: b7fe ef3d 217d 8e3d af8e 4fbd 5ce6 fdbc
00000090: 045a 993a 5983 b63c 4ec4 e3bb 8c74 e83d
000000a0: 0c1a 24bb 0c0d bcbc 660f 32bd d6a2 c2bd
000000b0: 3755 f93c 9e58 23bd 0b6f f23c 61a2 debd
000000c0: fbb7 d43d 6865 b43d d3e4 523d b90e 96bc
000000d0: 8d25 99bd 61b6 94bd c6ea 593d ba0d 11bc
000000e0: 06c8 803d c4b8 9a3d 5e10 eeba f06c 693d
000000f0: aef8 67bd 72d9 873d 0de8 303d 9b50 bbbc
00000100: c61f c2bd 8090 5ebd 0105 c23d 08c3 733d
00000110: 9f06 5fbd df2d 0c3d e896 213d 0107 aabd
00000120: ee4b d1bc 0589 0a3d 866b d13d 80d4 e5bd
00000130: 0f79 533d 9cdb b13c 3d62 8bbc a8cc 1bbd
00000140: 2239 d0bd 8c49 23bd 6403 ed3c 374f 6e3a
00000150: f7ba ae3d 2185 32bd 09ce 4cbc 1336 903d
00000160: 9ccb 8abd dad9 a8bc 0339 c5bc f579 03be
00000170: ceb5 003d 7ff9 adbc 45a2 8c3d 3453 713c
00000180: d1ef 0c3d 4646 963d 7bd4 9bbd

output_layer.weight f4 [49, 99]
-0.05724383 0.014528962 -0.04085784 -0.08588638 0.0019094119 -0.056144558 -0.08159858 0.09963448
0.08493242 -0.07385907 -0.074901074 0.010021494 -0.07258494 -0.065460466 0.110856146 0.12477958
-0.059543416 0.0049876785 0.005320167 -0.056318812 -0.1061759 -0.104044355 0.05266986 0.014153028
0.06219577 0.06353977 -0.12766956 0.020613879 0.0039651645 -0.057082452 0.037448645 0.05350917
0.07280963 0.03690364 0.113186985 0.016520185 0.05833117 0.016398517 0.060336594 0.05679406
0.08064985 -0.041300517 -0.02393414 -0.021801317 0.020281838 0.035021134 0.10449582 0.0047996524
0.006016101 -0.038201638 0.017337965 0.13435018 -0.06646364 0.0635244 -0.1000903 0.0014113167
-0.023772579 -0.02646627 0.03407175 0.03427559 0.052158106 0.008001169 -0.059413943 0.034919538
0.054900344 -0.067217395 -0.059989974 0.070817396 0.06391514 -0.11625567 0.0064883763 -0.054290302
0.07374804 -0.038674295 -0.0750299 0.11703505 0.044071257 -0.060292322 0.04170672 -0.03614765
-0.005914466 0.067245476 -0.018460205 0.10733 0.10847666 -0.041875042 -0.041925244 -0.0659878
-0.07080058 0.008068617 0.010729551 0.060941685 0.037373602 -0.06723235 0.10671373 -0.06351614
-0.02062581 -0.06079867 0.00076169847 0.06388444 -0.0052699014 -0.08237011 -0.03980476 -0.083986595
0.07681244 -0.040993404 -0.034073506 0.0033432208 -0.0026166798 0.013861238 0.040720522 -0.034209926
-0.03739842 0.06395466 0.13129215 -0.13075231 0.005855213 0.003985961 0.00056745426 -0.0853244
-0.07006473 -0.033463713 0.10497619 0.0035736174 0.06161069 0.057225622 -0.050239425 0.057493996
-0.09051888 -0.12062297 -0.11962949 -0.011432665 -0.02615164 -0.041476756 0.032992873 -0.019934688
-0.027985591 -0.10738747 -0.07879418 -0.018779736 0.06502659 0.11337669 0.06783572 -0.06294783
-0.049002077 0.009750664 0.00014267226 -0.042366978 -0.07353994 -0.03747454 0.074385665 -0.00917468
-0.103544936 0.065556586 0.016060863 -0.042389728 0.08698838 0.0049760453 -0.065372065 0.036348235
0.07681355 -0.05137007 0.109876 -0.089136966 -0.0074353544 0.05898814 -0.037214763 -0.0063999356
-0.11855992 -0.038674753 -0.0014050597 -0.035881985 0.08798367 0.06592388 0.09659085 -0.06275741
-0.10674147 -0.02384563 -0.109866075 -0.016861947 -0.0032178494 -0.0034868899 0.045134086 -0.009286354
0.115828864 0.058008768 -0.008251997 0.021816144 0.038968675 -0.02613006 0.0005384014 -0.08581658
-0.039165057 0.09391129 0.049636222 -0.056688536 -0.110055454 0.10724713 -0.04101164 0.01222639
-0.05686599 -0.10158673 0.10633628 -0.042455096 -0.11469521 0.07072707 0.044590194 -0.016911224
-0.09948332 -0.0027978884 0.017224016 0.014077567 -0.09199203 0.07126091 -0.03865248 0.011534256
0.05848833 -0.031793065 0.048417814 0.052204378 -0.109757796 -0.03684744 -0.05085499 0.01536319
-0.0085359765 -0.083165765 -0.0322532 0.06763789 0.030683698 -0.0026845613 -0.078303784 -0.02692578
0.05064776 0.02198685 0.022793137 0.049914032 0.054273847 -0.054801118 -0.005217044 0.01317392
0.08633508 0.1021195 0.032149892 0.051198013 -0.05790174 0.039244954 -0.11609615 -0.024477977
0.03427813 0.102409594 0.001403282 0.013038105 0.058943152 0.042238206 -0.011794942 -0.0403736
00000000: 8278 6abd e20a 6e3c 8d5a 27bd 33e5 afbd
00000010: 3b45 fa3a d6f7 65bd 281d a7bd 2a0d cc3d
00000020: 0cf1 ad3d 6d43 97bd bc65 99bd 3131 243c
00000030: 6aa7 94bd 2310 86bd 8c08 e33d 708c ff3d
00000040: cce3 73bd ae6f a33b cc54 ae3b 8eae 66bd
00000050: c072 d9bd 3515 d5bd 5abc 573d 1ae2 673c
00000060: fec0 7e3d 2421 823d cfbb 02be 70de a83c
00000070: 36ee 813b 4acf 69bd c063 193d 6e2c 5b3d
00000080: 371d 953d 4528 173d 94ce e73d 5755 873c
00000090: aaec 6e3d 2f56 863c 8123 773d e3a0 683d
000000a0: c02b a53d bb2a 29bd 8811 c4bc ad98 b2bc
000000b0: 1926 a63c 5272 0f3d e801 d63d 6746 9d3b
000000c0: b722 c53b 5279 1cbd 5908 8e3c 1893 093e
000000d0: 171e 88bd 1519 823d 25fc ccbd eefb b83a
000000e0: b6be c2bc cbcf d8bc d28e 0b3d 9064 0c3d
000000f0: bda3 553d 5617 033c 095c 73bd ca07 0f3d
00000100: 2fdf 603d 46a9 89bd 0cb8 75bd b608 913d
00000110: f1e5 823d 7417 eebd 729c d43b 825f 5ebd
00000120: 3609 973d f068 1ebd 47a9 99bd 13b0 ef3d
00000130: 1084 343d 15f5 76bd aad4 2a3d 8f0f 14bd
00000140: 23ce c1bb ffb7 893d db39 97bc d5cf db3d
00000150: 0329 de3d 2a85 2bbd ceb9 2bbd 9d24 87bd
00000160: e5ff 90bd 3c32 043c 00cb 2f3c fd9d 793d
00000170: 1015 193d 1db1 89bd ba8c da3d c014 82bd
00000180: 75f7 a8bc 0708 79bd b8ac 473a d8d5 823d
00000190: 23af acbb a9b1 a8bd 510a 23bd 2a01 acbd
000001a0: d74f 9d3d b3e8 27bd a990 0bbd f019 5b3b
000001b0: 9a7c 2bbb 3f1a 633c 90ca 263d b51f 0cbd
000001c0: 162f 19bd a9fa 823d 7371 063e efe3 05be
000001d0: 16dd bf3b aa9c 823b 36c1 143a 8fbe aebd
000001e0: 197e 8fbd 3f11 09bd c2fd d63d 5a33 6a3b
000001f0: 7e5b 7c3d 6a65 6a3d dbc7 4dbd d37e 6b3d
00000200: f661 b9bd 2d09 f7bd 4e00 f5bd 1350 3bbc
00000210: f73b d6bc 88e3 29bd 8923 073d 124e a3bc
00000220: 0a42 e5bc f6ed dbbd d85e a1bd f6d7 99bc
00000230: a92c 853d 0a32 e83d 74ed 8a3d cbea 80bd
00000240: 67b6 48bd 40c1 1f3c 4b9a 1539 ff88 2dbd
00000250: 1c9c 96bd e77e 19bd 8357 983d 6651 16bc
00000260: 5e0f d4bd 8842 863d 1292 833c daa0 2dbd
00000270: f726 b23d 180e a33b cae1 85bd e3e1 143d
00000280: 6c50 9d3d 6c69 52bd ab06 e13d 718d b6bd
00000290: 46a4 f3bb 8c9d 713d 826e 18bd 8db6 d1bb
000002a0: 8bcf f2bd 6b69 1ebd fb29 b8ba fdf8 12bd
000002b0: c830 b43d 1903 873d 6cd1 c53d f586 80bd
000002c0: 469b dabd e957 c3bc 7701 e1bd 1122 8abc
000002d0: 8ee2 52bb 4e84 64bb 85de 383d cb25 18bc
000002e0: af37 ed3d 9a9a 6d3d 6233 07bc c5b7 b23c
000002f0: 9e9d 1f3d b50e d6bc 8223 0d3a 9ac0 afbd
00000300: 8a6b 20bd 9054 c03d 5a4f 4b3d 3d32 68bd
00000310: c164 e1bd 62a4 db3d d2fb 27bd 3251 483c
00000320: 50ec 68bd b40c d0bd d6c6 d93d 65e5 2dbd
00000330: 52e5 eabd 5bd9 903d 35a4 363d 6889 8abc
00000340: e9bd cbbd c75c 37bb 6119 8d3c 98a5 663c
00000350: 5166 bcbd 3df1 913d 1052 1ebd 2dfa 3c3c
00000360: 7691 6f3d 7239 02bd c251 463d 42d4 553d
00000370: b2c8 e0bd 57ed 16bd 524d 50bd e4b5 7b3c
00000380: 7bda 0bbc d052 aabd ee1b 04bd bc85 8a3d
00000390: 615c fb3c 77ef 2fbb bc5d a0bd 7493 dcbc
000003a0: 0774 4f3d c41d b43c acb8 ba3c a872 4c3d
000003b0: 414e 5e3d 2377 60bd bdf3 aabb 6dd7 573c
000003c0: 72d0 b03d 0724 d13d 9baf 033d 02b5 513d
000003d0: 602a 6dbd 51bf 203d d1c3 edbd 0a86 c8bc
000003e0: 3967 0c3d 1fbc d13d 55ee b73a c79d 553c
000003f0: 606e 713d f801 2d3d 933f 41bc ca5e 25bd
