models/7x7-4-99-tanh/150episodes.pth (torch, 202354 bytes, 12 tensors)

input_layer.weight f4 [99, 50]
0	0x3ddef90c	0.10887346
1	0xbe4f0c23	-0.20219474
2	0xbdf7d29e	-0.12100719
3	0xbe37caa5	-0.17948397
4	0xbe163966	-0.14670333
5	0xbddbd5ea	-0.1073416
6	0xbe224ae8	-0.15848887
7	0x3d88a4b1	0.066720374
8	0xbd216c23	-0.039409768
9	0x3d403ed8	0.046934932
10	0x3c809ba8	0.015699223
11	0x3db41f2d	0.08795009
12	0xbd4f2956	-0.05057653
13	0xbdf25f6d	-0.11834607
14	0xbd83ec93	-0.06441607
15	0x3d4ed8de	0.05049979
16	0x3ce54c6e	0.027990546
17	0x3c88befe	0.016692635
18	0x3e041e80	0.1290226
19	0x3cb9b610	0.022669822
20	0xbe26f70b	-0.16305177
21	0x3e384d92	0.1799834
22	0x3b7b21a6	0.0038319617
23	0x3c72d3b1	0.014820979
24	0x3c62507a	0.013813132
25	0x3e161c09	0.14659132
26	0xbd8f52a3	-0.069981836
27	0xbe33ec7f	-0.17570685
28	0xbe06d10d	-0.13165684
29	0x3d68d424	0.056842938
30	0xbe07d6dc	-0.13265556
31	0xbde689ce	-0.11256753
32	0xbbe5b581	-0.0070101623
33	0xbd2398d8	-0.039940685
34	0xbdd66362	-0.104681745
35	0xbc93dbec	-0.018049203
36	0xbd09abcb	-0.0336111
37	0x3d70048d	0.05859809
38	0xbe002291	-0.12513186
39	0xbe221d1a	-0.15831414
40	0x3d9d4890	0.07679856
41	0xbc23843f	-0.00998026
42	0x3d8821ba	0.06647058
43	0x3cadd3c4	0.021219142
44	0xbcf20209	-0.029541986
45	0x3e388288	0.18018544
46	0x3cef635c	0.029222183
47	0xbe295a18	-0.16538274
48	0xbd852a96	-0.06502263
49	0x3db06f5a	0.086149886
50	0x3d28cea9	0.04121271
51	0xbe0e982e	-0.1392524
52	0x3cfae64a	0.030627389
53	0xbd9c221c	-0.07623693
54	0xbd6a40ee	-0.057190828
55	0x3e0f32fa	0.1398429
56	0x3daef952	0.08543648
57	0x3d920c28	0.07131225
58	0xbde4cfed	-0.11172471
59	0x3ae666e1	0.0017578268
60	0xbdbaff73	-0.09130754
61	0xbde3c171	-0.111208804
62	0x3e24b4e7	0.16084634
63	0xbdcab372	-0.09897508
64	0xbb9a39e0	-0.0047066063
65	0x3d5553f8	0.052082032
66	0xbcc0569f	-0.023478804
67	0x3dd81010	0.10549939
68	0xbdc48211	-0.09595121
69	0x3c9516a1	0.018199267
70	0x3d845926	0.06462316
71	0xbcde8d73	-0.027167058
72	0xbd40ea3e	-0.04709839
73	0x3b76e9c4	0.0037675956
74	0xbdcc481a	-0.0997469
75	0xbd1fde74	-0.039030507
76	0xbe442ba5	-0.19157274
77	0x3ccb70fd	0.02483415
78	0x3d99e0d8	0.07513589
79	0xbdff0ecd	-0.12453995
80	0x3c121ab2	0.0089174975
81	0x3d858b5a	0.0652072
82	0x3dac59cb	0.08415564
83	0xbd06b152	-0.03288395
84	0xbd3037e2	-0.043022044
85	0xbe2c62f5	-0.16834624
86	0xbdd7dec7	-0.10540538
87	0xb993e4cc	-0.00028208492
88	0x3dd59b40	0.10430002
89	0xbc212697	-0.009835861
90	0xbde1e622	-0.110302225
91	0xbd89f050	-0.06735289
92	0xbd394ecd	-0.045241166
93	0xbd3c9b85	-0.046046752
94	0xbd0522e5	-0.03250398
95	0x3c53b77e	0.012922166
96	0xbda7dc44	-0.08196309
97	0xbd772cf8	-0.06034562
98	0x3d0ccf28	0.034377247
99	0x3c3fb379	0.011700504
100	0xbe3f4c79	-0.18681516
101	0xbd6aa019	-0.057281587
102	0xbdcd71d0	-0.10031474
103	0x3db37254	0.08762041
104	0x3c8274e4	0.015924878
105	0x3dd9c4d8	0.10633248
106	0xbd4a849d	-0.049442876
107	0x3cbb573b	0.022868743
108	0x3e0fc6a6	0.14040622
109	0xbdf4cdbf	-0.119533055
110	0xbdcaeadf	-0.09908079
111	0xbe30c042	-0.1726084
112	0x3d52cbac	0.051463768
113	0x3da8e020	0.082458735
114	0x3b8f519d	0.0043737427
115	0x3d521136	0.051285945
116	0xbd542084	-0.05178882
117	0x3e09b4ed	0.13447924
118	0x3df7ee0d	0.121059515
119	0x3ddeffbe	0.10888623
120	0xb9b173e7	-0.00033846425
121	0x3e0b02c6	0.13575277
122	0xbdc2ac77	-0.09505551
123	0xbd8118d9	-0.063035674
124	0x3df21dcb	0.11822089
125	0x3cd36756	0.02580611
126	0xbe1b8f32	-0.15191343
127	0xbd224fba	-0.039626814
128	0x3c0da35e	0.008644907
129	0xbd7fdae3	-0.062464606
130	0x3d4da96d	0.050210405
131	0xbda209f7	-0.07912057
132	0x3d875a7f	0.06609058
133	0xbda07dba	-0.078364804
134	0x3ccd31db	0.025048187
135	0x3dc1c73e	0.094618306
136	0xbdf386db	-0.11890956
137	0xbddeb137	-0.10873645
138	0xbde2c6e0	-0.11073089
139	0x3dcef4b5	0.10105268
140	0x3c78f76a	0.015195707
141	0xbdba8b60	-0.09108615
142	0x3cdcb176	0.026940089
143	0x3ddc8f34	0.10769501
144	0xbd050746	-0.03247764
145	0x3d87778d	0.066145994
146	0x3df5a841	0.119949825
147	0xbde2e144	-0.11078122
148	0x3cbf6f91	0.023368629
149	0xbd843bf5	-0.064567484
150	0x3d03908e	0.03212028
151	0xbd6a37f1	-0.057182256
152	0xbdd755c9	-0.10514409
153	0xbccdd041	-0.025123717
154	0xbd261296	-0.04054507
155	0xbca927e4	-0.020648904
156	0x3cbae055	0.022812048
157	0x3d17949b	0.037006956
158	0xbd0f27d6	-0.0349501
159	0x3dda7e78	0.10668653
160	0x3e028d0d	0.12749119
161	0xbe08638a	-0.13319221
162	0x3d4ade31	0.049528304
163	0xbcfda251	-0.030961188
164	0x3e32ed6c	0.17473382
165	0x3e0ddb83	0.13853268
166	0x3d08632d	0.033297706
167	0x3df70298	0.120610416
168	0xbaef7dca	-0.0018271741
169	0xbd4990fd	-0.049210537
170	0xbe0aecec	-0.13566941
171	0x3df2bbe5	0.11852244
172	0xbd835394	-0.06412426
173	0xbd06172b	-0.03273694
174	0xbccc4acd	-0.024938012
175	0xbdb20d48	-0.086939394
176	0xbcec3703	-0.028834825
177	0xbda61be2	-0.08110787
178	0xbe1c7763	-0.15279917
179	0xbd55ff23	-0.05224527
180	0x3da1bf66	0.078978345
181	0xbb0249a6	-0.0019880324
182	0xbdcac2b6	-0.099004194
183	0xbd307ebe	-0.04308962
184	0xbe2da954	-0.16959125
185	0x3d140c59	0.03614459
186	0x3d507061	0.050888423
187	0xbc159b0b	-0.009131203
188	0x3dd54cdd	0.10415051
189	0x3aae942f	0.0013319309
190	0x3c4a3fa9	0.012344279
191	0xbc608c28	-0.013705291
192	0xbc953977	-0.018215878
193	0xbb21bbed	-0.0024678663
194	0x3d2d4786	0.04230454
195	0x3e160940	0.14651966
196	0xbd8f5687	-0.06998926
197	0xbd8e4dde	-0.06948446
198	0x3cd00e96	0.02539758
199	0xbdad6665	-0.08466796
200	0xbdec64de	-0.115426764
201	0xbd57e49f	-0.052708264
202	0x3c2c6738	0.010522656
203	0x3e13370b	0.14376466
204	0x3c773773	0.015088904
205	0x3d4a0504	0.04932119
206	0xbdb4c92d	-0.08827434
207	0xbdd08d8e	-0.101832494
208	0x3cd867f4	0.026416756
209	0xbd152947	-0.03641632
210	0x3d25ec3e	0.0405085
211	0x3dfabf14	0.122434765
212	0xbb2ce0e3	-0.002637916
213	0xbd749a59	-0.05971751
214	0xbe1a0bb7	-0.15043531
215	0xbda435b4	-0.080180556
216	0x3dfe874d	0.1242815
217	0x3dd1ae59	0.10238332
218	0xbd49e0c3	-0.049286615
219	0xbe281f67	-0.16418229
220	0xbb2faf0e	-0.0026807222
221	0x3e042683	0.12905316
222	0xbdb4b215	-0.08823029
223	0x3e158f0d	0.14605351
224	0xbe0dcd23	-0.13847785
225	0x3d1ab221	0.037767533
226	0x3d884090	0.06652939
227	0xbdc76ab9	-0.097371526
228	0x3ddaffea	0.10693343
229	0xbde6be47	-0.11266761
230	0x3d0522e5	0.03250398
231	0x3dd05d19	0.10174007
232	0xbd164092	-0.036682673
233	0xbcd666d2	-0.026172075
234	0x3dbb2e2d	0.09139667
235	0x3d8e1561	0.069376715
236	0x3d02ff0f	0.031981524
237	0x3c909ef0	0.017653912
238	0xbd393406	-0.04521563
239	0x3dac15a6	0.084025666
240	0xbde4d64c	-0.111736864
241	0xbdc8c601	-0.09803391
242	0xbcbbc5f6	-0.022921544
243	0x3d6cfbf1	0.057857458
244	0xbd6ac5d2	-0.057317562
245	0xbdeade30	-0.1146816
246	0x3bdb6633	0.0066955327
247	0xbe0c8f45	-0.13726528
248	0xba74b776	-0.0009335199
249	0x3dae3e97	0.08508032
250	0xbdcf6a4d	-0.10127697
251	0xbd8fb336	-0.07016604
252	0xbd1b7f51	-0.037963215
253	0xbe0564eb	-0.13026778
254	0x3cccc71c	0.024997286
255	0xbdaf646f	-0.08564078

input_layer.bias f4 [99]
0	0x3c41152f	0.011784836
1	0xbdf18a98	-0.11794013
2	0x3e1408c8	0.14456475
3	0xbc80fe10	-0.015746146
4	0x3e34e772	0.17666414
5	0xbde4d6e1	-0.111737974
6	0xbdd18a16	-0.10231416
7	0x3cfd3491	0.030908855
8	0xbdc7cc35	-0.09755746
9	0x3d129e21	0.035795335
10	0xbe017291	-0.1264136
11	0x3cde0205	0.027100572
12	0xbd96a403	-0.073555015
13	0x3dd52f9f	0.10409474
14	0xbd2c4c48	-0.042064935
15	0x3d3601fd	0.04443549
16	0xbc6311fd	-0.013859269
17	0xbde49681	-0.11161519
18	0xbdb0f7dd	-0.08641026
19	0x3da1ae4a	0.07894571
20	0x3d4a3d59	0.049374912
21	0x3dbebdec	0.093135685
22	0x3de5deac	0.11224112
23	0xbdae2d54	-0.085047394
24	0x3dc635f3	0.09678259
25	0x3e0fe8f5	0.1405371
26	0xbdaa02e2	-0.08301331
27	0x3de9a6a3	0.114087366
28	0xbd101513	-0.035176348
29	0xbd85d4c7	-0.06534725
30	0xbdcf5ab5	-0.10124723
31	0xbc8dba4d	-0.01730075
32	0x3c43b528	0.0119450465
33	0xbdb75f8f	-0.08953773
34	0x3caeab20	0.021321833
35	0x3df5ba63	0.11998441
36	0xbd194061	-0.037414912
37	0xbd9a500b	-0.07534798
38	0xbdfd2bb3	-0.123618506
39	0xbd60cf92	-0.054885454
40	0xbd06aa7e	-0.032877438
41	0x3cb38d30	0.02191791
42	0x3e2785fc	0.16359705
43	0xbdb3d5c8	-0.0878101
44	0xbd329c16	-0.043605886
45	0x3da28be0	0.07936835
46	0x3c920bc8	0.017827883
47	0x3dd42367	0.10358315
48	0x3db31db2	0.08745898
49	0xbcae8343	-0.021302825
50	0x3dce9cdc	0.10088512
51	0x3dfa5b7a	0.12224479
52	0x3d5f08d2	0.05445177
53	0xbcdbde91	-0.026839526
54	0xbdc9a756	-0.0984637
55	0xbdf6dd3c	-0.12053916
56	0xbdbaea9e	-0.09126781
57	0xbdd41074	-0.10354701
58	0xbdefcf01	-0.11709405
59	0xbd2c5e0d	-0.04208188
60	0x3d183d6c	0.03716795
61	0x3decbd93	0.11559596
62	0x3cad5706	0.02115966
63	0x3dca023b	0.09863707
64	0xbe02ecf3	-0.12785701
65	0xbcf9331f	-0.030419884
66	0xbdf4d329	-0.11954338
67	0xbdfdc132	-0.12390365
68	0xbe017365	-0.12641676
69	0xbd4506a3	-0.048102032
70	0xbddc2d89	-0.10750873
71	0x3e0cac1f	0.13737534
72	0xbd6c68f4	-0.05771728
73	0x3de79c21	0.11309076
74	0xbdbebf46	-0.09313826
75	0xbcd4b812	-0.025966678
76	0xbcaeabd7	-0.021322174
77	0xbe24b838	-0.16085899
78	0x3dcfa058	0.10138005
79	0xbd7c4b80	-0.06159544
80	0x3dc5a4af	0.096505515
81	0xbdbc1ab0	-0.09184778
82	0xbe02902a	-0.12750307
83	0x3e0b352e	0.13594505
84	0xbddeba62	-0.108753935
85	0x3d580beb	0.05274574
86	0xbdf0e555	-0.117624916
87	0x3d89ad90	0.067225575
88	0xbde94ad2	-0.11391224
89	0x3c4b955f	0.01242575
90	0x3dcbe4cb	0.09955748
91	0x3e1d8ef2	0.1538656
92	0x3d891253	0.06692948
93	0xbdae01ac	-0.08496413
94	0xbc63d24d	-0.01390512
95	0x3e01ee3d	0.12688537
96	0xbdb6debd	-0.08929203
97	0xbb59ae86	-0.0033215596
98	0xbd289566	-0.041158102

hidden.0.weight f4 [99, 99]
0	0xbe089993	-0.13339834
1	0xbd748ef7	-0.059706654
2	0x3b97b007	0.0046291384
3	0xbdd38542	-0.10328151
4	0x3db6c96d	0.08925138
5	0xbc6d04fe	-0.014466522
6	0x3c8a67fc	0.016895287
7	0x3d82b5c0	0.06382322
8	0xbcce1705	-0.025157461
9	0x3d59c875	0.053169686
10	0x3baed0da	0.0053349556
11	0x3d02a8cb	0.031899255
12	0x3d344870	0.044014394
13	0x3cde57fc	0.027141564
14	0x3d2df450	0.042469323
15	0x3df3a58c	0.1189681
16	0xbdc5d2b3	-0.09659328
17	0x3cad4d3b	0.02115499
18	0xbd617166	-0.055039786
19	0xba98946d	-0.0011640914
20	0xbdbe7a73	-0.09300699
21	0x3cc72a63	0.024312204
22	0x3ca64676	0.02029727
23	0x3dcdfdc7	0.1005817
24	0x3dd37ae3	0.10326173
25	0x3d6c1201	0.057634357
26	0xbd87bbb1	-0.06627596
27	0xbd1e4c8d	-0.038647223
28	0xbdb2b244	-0.08725408
29	0xbd797bcc	-0.060909078
30	0xbdf1dbcc	-0.11809501
31	0xbcd47b2e	-0.025937643
32	0xbdfe21c6	-0.124087855
33	0x3d36627a	0.04452751
34	0x3ca6ec8d	0.020376468
35	0x3dbeb35e	0.09311555
36	0x3d667cc7	0.05627134
37	0x3d86520a	0.065586165
38	0x3d3334bd	0.043751467
39	0x3dd81724	0.10551289
40	0x3e1ef003	0.15521245
41	0x3e0e6a23	0.13907675
42	0xbd465cf7	-0.048428502
43	0x3c325aa6	0.01088587
44	0x3db002a9	0.085942574
45	0x3cf40468	0.029787257
46	0xbd4b4f2b	-0.049636047
47	0xbc1bb06f	-0.009502514
48	0xbd50fdcc	-0.05102329
49	0xbdb40e73	-0.087918185
50	0xbdd290df	-0.10281538
51	0x3de4eeff	0.111783974
52	0xbcb2b5d5	-0.02181522
53	0x3d0ca170	0.034333646
54	0xbdec32be	-0.11533116
55	0xbcd7f918	-0.026363894
56	0x3a2e05c1	0.00066384306
57	0x3b9cbf8c	0.0047835764
58	0x3d3d5764	0.04622592
59	0x3d2f6873	0.04282422
60	0x3e289ccb	0.16466062
61	0x3e011f91	0.12609698
62	0x3d81f632	0.06345786
63	0x3e08e5db	0.13368933
64	0xbd493efc	-0.049132332
65	0xbd595d96	-0.053067766
66	0x3da6f262	0.081516996
67	0x3da93882	0.08262731
68	0x3d7e4932	0.062081523
69	0x3d07eac9	0.033182893
70	0x3a085168	0.0005200119
71	0x3ddf9cc5	0.10918573
72	0x3ca64f82	0.020301584
73	0xbda6ea3e	-0.08150147
74	0x3b44cdf5	0.0030029987
75	0x3d1183e6	0.03552618
76	0xbdc21c34	-0.094780356
77	0xbcc01836	-0.023449045
78	0x3dbb0d9a	0.09133454
79	0xbd16ce3d	-0.036817778
80	0xbd03ce5a	-0.032179214
81	0xbce96be5	-0.028493831
82	0xbc9395f7	-0.018015845
83	0x3cbb93b4	0.022897579
84	0x3de6d9fe	0.112720475
85	0xbd87091d	-0.06593535
86	0xbd200eb8	-0.039076537
87	0x3cdc8ed3	0.026923573
88	0xbd8bcf1b	-0.068266116
89	0x3d2fb04c	0.04289274
90	0x3c383cf5	0.011245002
91	0x3da3e7fa	0.080032304
92	0xbda3ced0	-0.07998431
93	0x3d8752b7	0.066075735
94	0xbd23dbd3	-0.040004563
95	0x3d4d89a7	0.050180104
96	0x3de6abfe	0.11263274
97	0x3de1dbab	0.110282265
98	0xbd3553dc	-0.044269428
99	0x3d353b00	0.04424572
100	0x3cba8836	0.022770029
101	0xbd55d7bb	-0.05220769
102	0x3da2238f	0.079169385
103	0x3c97a338	0.018510446
104	0x3cf6a0b7	0.030105932
105	0x3d81faa3	0.06346633
106	0x3d5c33e6	0.05376043
107	0x3de8a991	0.11360467
108	0xbcef580a	-0.029216785
109	0x3d8fac27	0.07015257
110	0xbdf11cd5	-0.117730774
111	0xbd2223c8	-0.039584905
112	0xbdf76191	-0.12079156
113	0x3d83ce90	0.06435883
114	0xbd53174d	-0.051535893
115	0xbd12d2da	-0.035845615
116	0x3cc05665	0.023478696
117	0xbdbf794d	-0.09349308
118	0x3ca66850	0.020313412
119	0x3c48812b	0.012237827
120	0x3d12ef48	0.035872728
121	0xbe0f6bce	-0.14005968
122	0xbd17ba3d	-0.037042845
123	0xbd8866ee	-0.06660257
124	0x3bd35af9	0.006450054
125	0xbd556911	-0.052102152
126	0xbdb8b4d7	-0.090188675
127	0xbda06109	-0.07831008
128	0x3ba1eeb5	0.004941786
129	0x3d677d09	0.056515727
130	0x3de1a8f2	0.11018552
131	0xbd97929f	-0.07401013
132	0xbdcdf018	-0.1005556
133	0xbd1b26a0	-0.037878633
134	0xbd6ff0c9	-0.05857924
135	0x3e0b489b	0.13601916
136	0x3c668b7d	0.014071343
137	0x3d6b586d	0.057457376
138	0xbcfc7e16	-0.030821841
139	0x3dfb3aa5	0.12267045
140	0xbdbb0081	-0.091309555
141	0x3d3e2a49	0.046427045
142	0x3da64952	0.081194535
143	0xbc14075d	-0.009034959
144	0xbd7c93e5	-0.06166448
145	0xbd99cc82	-0.0750971
146	0x3bc28c5b	0.005937142
147	0xbe0a9215	-0.13532288
148	0xbd027d7e	-0.03185796
149	0x3d392540	0.04520154
150	0x3d791cd5	0.060818512
151	0x3d0c96e2	0.03432358
152	0x3ce3fa41	0.027829291
153	0xbdb5719e	-0.088595614
154	0x3d260ac0	0.040537596
155	0x3c6306bc	0.013856586
156	0xbd44980c	-0.047996566
157	0xbbf9fd30	-0.0076290593
158	0x3d430cce	0.047619633
159	0xbd6d39a8	-0.057916313
160	0x3d194276	0.037416898
161	0xbc5077ce	-0.012723876
162	0x3db4f4df	0.08835768
163	0xbcaf1aca	-0.021375079
164	0x3c75bf8e	0.0149992835
165	0xbb7462f2	-0.0037290421
166	0xbde62b98	-0.112387836
167	0xbd810a7b	-0.06300827
168	0xbd456315	-0.048190195
169	0xbdd97892	-0.106187
170	0xbdb1dc62	-0.08684613
171	0xbaddec36	-0.0016931358
172	0x3b8e70b5	0.004346932
173	0xbdeceb1d	-0.11568282
174	0xbcdfb4ff	-0.027307985
175	0x3d3cb37e	0.046069615
176	0xbdd2f2d7	-0.10300224
177	0x3cac33df	0.021020828
178	0xbd635968	-0.055505186
179	0xbcb41fdb	-0.021987846
180	0xbdf73dab	-0.12072309
181	0xbdc921ee	-0.09820925
182	0xbce150d9	-0.027504371
183	0x3de2abe6	0.11067943
184	0xbbcd45a9	-0.0062644077
185	0x3d8679ab	0.06566175
186	0xbd8e2789	-0.069411345
187	0xbb80d4bf	-0.0039316113
188	0xbd91c557	-0.07117718
189	0xbd313505	-0.043263454
190	0x3d0a0193	0.033692908
191	0x3da23b77	0.07921498
192	0x3b7c5945	0.0038505357
193	0xbdc72bb1	-0.0972513
194	0x3d1ad4eb	0.03780071
195	0x3bd8dd42	0.006618173
196	0x3d8e8809	0.069595404
197	0xbc81245f	-0.015764413
198	0xbd787062	-0.06065405
199	0x3ded21e3	0.11578729
200	0xbd83029d	-0.06396983
201	0x3bcb536f	0.0062050144
202	0xbddea268	-0.1087082
203	0x3d7919a2	0.06081546
204	0xbd310124	-0.04321398
205	0x3d38a9a3	0.045083653
206	0x3d3382cf	0.04382592
207	0xbdf546f9	-0.119764276
208	0x3de27bfb	0.11058804
209	0x3dc8d7f8	0.09806818
210	0xbd8b1606	-0.0679131
211	0xbdad503d	-0.0846257
212	0xbba519aa	-0.00503846
213	0x3e08ccb9	0.13359345
214	0xbcef5dea	-0.029219586
215	0xbd5460eb	-0.05185024
216	0x3d021b92	0.031764574
217	0xbc1dc1a7	-0.00962869
218	0xbd6030c7	-0.054734018
219	0x3d635e58	0.055509895
220	0x3dc2c5cf	0.09510385
221	0x3d935c3a	0.07195325
222	0xbd570f90	-0.052505076
223	0x3a30fb67	0.0006751329
224	0xbc39b77f	-0.011335253
225	0x3cd50e67	0.026007844
226	0x3c40072e	0.011720462
227	0xbd874288	-0.06604487
228	0xbda03849	-0.078232355
229	0xbd95fff2	-0.07324208
230	0x3db65e51	0.08904708
231	0xbd5635ba	-0.05229733
232	0x3d625cba	0.055264212
233	0x3dfbb992	0.12291254
234	0xbd89f395	-0.06735913
235	0xbdf97f79	-0.121825166
236	0xbd9398c4	-0.07206872
237	0x3c07cdb2	0.008288788
238	0xb9ca75fa	-0.00038616342
239	0x3dd4197a	0.10356422
240	0x3ca3a20f	0.019974736
241	0xbbc80387	-0.006103936
242	0x3bd3865c	0.006455226
243	0xbd7a873b	-0.061164122
244	0xbc929111	-0.017891439
245	0x3d6a7a6d	0.05724566
246	0x3dbfa0f7	0.093568735
247	0xbcbe850d	-0.023256803
248	0xbdadb899	-0.08482475
249	0xbda2e40e	-0.07953654
250	0x3d104c7b	0.035229187
251	0xbd377fb8	-0.044799536
252	0xbdd639ac	-0.10460219
253	0xbd41715a	-0.04722724
254	0xbdde2027	-0.10845976
255	0xbd18af4a	-0.037276544

hidden.0.bias f4 [99]
0	0xbd0e48d4	-0.034737423
1	0x3daa0b97	0.08302992
2	0xbdb8d8a1	-0.09025694
3	0xbd71756b	-0.05894987
4	0x3d574c51	0.052563015
5	0xbd9fcb7c	-0.078024834
6	0xbd624858	-0.055244774
7	0xbd398ff0	-0.045303285
8	0xbd7c0629	-0.061529312
9	0x3d2bb258	0.04191813
10	0x3dbcda57	0.092213325
11	0x3d5c2226	0.053743504
12	0xbd9d99e0	-0.07695365
13	0x3d0f40ac	0.034973785
14	0x3dc0b57c	0.094096154
15	0xbca3c923	-0.01999337
16	0x3d52d1cc	0.05146961
17	0x3d4f6ab7	0.05063888
18	0xbd252b56	-0.04032453
19	0x3b605496	0.0034230105
20	0xbd9b2606	-0.07575612
21	0x3d9f37a6	0.07774286
22	0xbd17e98e	-0.03708797
23	0xbd86a8ca	-0.06575163
24	0xbd0c9f7e	-0.03433179
25	0x3d077db4	0.033078864
26	0xbdd2303c	-0.10263106
27	0x3d033c19	0.032039735
28	0xbc4dd1e6	-0.012562251
29	0x3d81d88c	0.06340131
30	0x3d043277	0.03227469
31	0xbd8f5ad0	-0.06999743
32	0xbd91d4e0	-0.07120681
33	0xbd95ca95	-0.0731403
34	0x3ce0eb9e	0.027456101
35	0xbde84111	-0.113405354
36	0x3cfae4a8	0.03062661
37	0x3c8b84a6	0.017031025
38	0x3d71ab7a	0.059001423
39	0xbd86ad0e	-0.06575976
40	0x3d96b77a	0.07359214
41	0x3d42247e	0.047398083
42	0xbb50f452	-0.0031883908
43	0xbdc2f6db	-0.0951974
44	0x3d8e9d1e	0.069635615
45	0x3cc3b5f6	0.023890477
46	0xbcc3c147	-0.023895873
47	0xbb117e36	-0.0022200472
48	0xbccec073	-0.025238251
49	0x3d195520	0.037434697
50	0x3d320df4	0.043470338
51	0x3da986b9	0.082776494
52	0xbd4a1b2f	-0.04934233
53	0xbc57b086	-0.013164645
54	0xbc3dbaa9	-0.011580148
55	0x3d598ab1	0.053110782
56	0x3d9d36ec	0.07676491
57	0x3d833bba	0.06407876
58	0xbd0c2191	-0.0342117
59	0x3d04edb7	0.032453265
60	0x3d7a950b	0.061177295
61	0x3dd419be	0.103564724
62	0xbd8525f8	-0.065013826
63	0x3d542f40	0.051802874
64	0xbd70a8ad	-0.05875461
65	0x3d08c1be	0.033387892
66	0xbdace317	-0.084417515
67	0x3db83767	0.08994942
68	0x3d005e6e	0.031340055
69	0xbd7e7382	-0.062121876
70	0xbdcabe89	-0.09899623
71	0x3c5d3268	0.013500787
72	0x3db04f21	0.08608843
73	0x3b423d93	0.0029638752
74	0xbd92a310	-0.07160008
75	0x3d0c5942	0.03426481
76	0xbcb5b278	-0.022179827
77	0x3d7ae4a3	0.0612532
78	0xbce65ff7	-0.028121931
79	0x3dd16d56	0.10225932
80	0x3d117b2b	0.035517853
81	0xbdbcdcc8	-0.09221798
82	0xbd49be67	-0.049253847
83	0xbd801203	-0.062534355
84	0xbd202ad8	-0.03910336
85	0xbc6ba451	-0.014382438
86	0x3c868580	0.01642108
87	0xbd87df75	-0.06634418
88	0x3c4a3ba3	0.01234332
89	0x3da7ca67	0.08192902
90	0xbce0ce46	-0.027442109
91	0xbdbb1144	-0.091341525
92	0xbd06ef3f	-0.032943007
93	0xbd6a3ec3	-0.05718876
94	0xbc18b27c	-0.009319898
95	0x3d3d8c1c	0.046276197
96	0x3db81e3e	0.08990143
97	0xbda5ab3e	-0.080893025
98	0x3d03c9e2	0.032174952

hidden.1.weight f4 [99, 99]
0	0xbcc0e0cd	-0.023544693
1	0xbb8a1eff	-0.004215121
2	0x3d445831	0.04793567
3	0x3e167003	0.14691167
4	0xbda6704f	-0.0812689
5	0x3da3d159	0.07998914
6	0x3dbcb900	0.092149734
7	0x3de1c668	0.11024171
8	0xbd81cb95	-0.06337658
9	0x3c2d1849	0.010564872
10	0x3df19d64	0.11797598
11	0xbd4d8fcd	-0.050185967
12	0xbdf8e651	-0.12153304
13	0xbd8689aa	-0.06569226
14	0xbd32aa56	-0.043619476
15	0xbe30fec5	-0.17284687
16	0xbd46964e	-0.048483185
17	0xbc8a9bcd	-0.016919995
18	0x3b4ec384	0.0031549642
19	0x3d3bb9cb	0.045831483
20	0xbdc4ff79	-0.0961904
21	0x3d814d23	0.06313541
22	0x3db5651e	0.08857177
23	0xbc3d1f4b	-0.011543105
24	0x3d54bd74	0.05193849
25	0x3d2eeee1	0.04270828
26	0x3defab93	0.11702647
27	0x3d6b31d2	0.05742056
28	0xbd4a389e	-0.0493704
29	0xbcfa869a	-0.030581761
30	0xbd9a1b4d	-0.075247385
31	0x3e1041df	0.14087628
32	0x3da0af2e	0.07845913
33	0x3e161d44	0.14659601
34	0x3c7aac0d	0.015299809
35	0xbcab59e8	-0.020916894
36	0x3d1f2ebc	0.03886293
37	0xbdc0af48	-0.09408432
38	0xbd25707f	-0.040390488
39	0xbd8039ac	-0.06261
40	0xbc2abcb6	-0.010420969
41	0x3dbb658e	0.091502294
42	0xbdce600f	-0.100769155
43	0x3d1a8858	0.037727684
44	0x3d7f236d	0.062289644
45	0x3d5e53a5	0.05427899
46	0xbc587c34	-0.013213206
47	0x3d910e7e	0.07082842
48	0xbdd8ea5f	-0.10591578
49	0xbdd71589	-0.105021544
50	0x3da578b5	0.08079664
51	0x3e066cc5	0.1312743
52	0xbd066bda	-0.0328177
53	0xbb281801	-0.0025649073
54	0xbd54fab3	-0.051996898
55	0xbc79a2d6	-0.015236577
56	0x3c38a43f	0.011269628
57	0xbdaa1927	-0.08305579
58	0xbda12c71	-0.07869805
59	0xbc50230b	-0.012703667
60	0xbda86a57	-0.08223408
61	0x3d3e7a12	0.046503134
62	0xbd7d5d17	-0.061856356
63	0x3d3638a3	0.044487607
64	0x3d3bee17	0.045881357
65	0x3cc06ae8	0.023488477
66	0x3da01482	0.078164116
67	0xbe0b2cf1	-0.13591363
68	0xbd90e238	-0.07074398
69	0xbbe2a59c	-0.006916715
70	0x3e0907d6	0.13381895
71	0x3d34f3d7	0.044177856
72	0x3e1258a9	0.14291634
73	0xbda9c41d	-0.08289359
74	0xbdc26033	-0.09491005
75	0x3d1abe3c	0.037779078
76	0x3d215b67	0.03939381
77	0x3b6cbb06	0.0036122217
78	0x3d73e9bf	0.05954909
79	0x3caa0b6e	0.020757403
80	0xbdac2a68	-0.08406526
81	0x3e072525	0.13197763
82	0x3d56f388	0.052478343
83	0x3d178928	0.036996037
84	0x3d91fbb4	0.07128087
85	0xbdbebf61	-0.093138464
86	0xbd44ce14	-0.048048094
87	0x3dccf5d3	0.10007825
88	0xbd1a81c5	-0.037721414
89	0x3d3cbb62	0.04607714
90	0x3dfef9fe	0.12450026
91	0xbd9ea45e	-0.07746194
92	0x3dd47ecf	0.10375749
93	0xbdcf9a76	-0.10136883
94	0xbdc4f684	-0.096173316
95	0xbc87f9f8	-0.016598687
96	0xbdbd6668	-0.09248048
97	0x3d097470	0.03355831
98	0xbc32418e	-0.010879887
99	0xbd96cbdd	-0.073631026
100	0x3e0b5ff1	0.13610817
101	0x3dae16fe	0.08500479
102	0xbdf02b42	-0.11727001
103	0x3c08deeb	0.008353929
104	0x3dd260b0	0.10272348
105	0xbdc23e6b	-0.094845615
106	0xbd5b7b19	-0.053584192
107	0xbccade8f	-0.024764327
108	0xbcd693a2	-0.026193444
109	0xbde29a8c	-0.11064634
110	0x3d54d789	0.051963363
111	0xbb8e58fa	-0.004344103
112	0x3c49a684	0.012307767
113	0xbd89e984	-0.06733993
114	0x3d593c0e	0.05303579
115	0x3da615d9	0.08109636
116	0xbd86695c	-0.065630645
117	0xbc21025b	-0.009827222
118	0xbe1eccce	-0.15507814
119	0xbdf34c6c	-0.11879811
120	0xbe337b67	-0.17527543
121	0x3d85896a	0.0652035
122	0xbd0aec23	-0.033916604
123	0x3def8098	0.11694449
124	0x3d4a7b24	0.049433842
125	0xbdcb0f07	-0.099149756
126	0xbe240f34	-0.16021425
127	0x3d798a45	0.06092288
128	0xbe1e4b8d	-0.15458508
129	0xbdf76952	-0.12080635
130	0xbdf2746f	-0.11838614
131	0x3c4ea042	0.012611451
132	0x3d1fc050	0.039001763
133	0x3d3f5263	0.04670943
134	0x3e0324dd	0.12807031
135	0xbd4b339c	-0.049609765
136	0x3d9ad159	0.07559461
137	0xbc0bed1c	-0.008540418
138	0x3d8bd993	0.06828608
139	0xb9f6182d	-0.0004693879
140	0xbdfd68de	-0.123735175
141	0xbd4f4306	-0.050601028
142	0x3c50fef1	0.012756095
143	0xbc8f33da	-0.01748078
144	0x3e248e5d	0.16069932
145	0x3d63a65d	0.05557858
146	0xb9fea535	-0.00048569744
147	0x3ccfd541	0.025370242
148	0xbd6e438a	-0.05816988
149	0x3d750ef6	0.05982872
150	0xbd795108	-0.060868293
151	0xbdce4387	-0.100714736
152	0xbd7a7c9c	-0.061153993
153	0x3e235ee7	0.15954171
154	0x3d9ec908	0.077531874
155	0xbdbdea5c	-0.09273216
156	0x3d663511	0.05620295
157	0x3c2a38d1	0.010389523
158	0x3d48154c	0.048848435
159	0xbd71a280	-0.058992863
160	0xbdf7ae67	-0.120938115
161	0x3dca4a29	0.09877426
162	0xbd90d23d	-0.0707135
163	0x3cf7cd0a	0.030249137
164	0x3c52416c	0.012832981
165	0xbcb61298	-0.022225663
166	0x3d82bbed	0.063835
167	0x3cfa0459	0.030519651
168	0xbd169ebc	-0.036772475
169	0xbdef517d	-0.116854645
170	0xbe207258	-0.15668619
171	0xbde3a33b	-0.11115118
172	0x3df0987c	0.11747834
173	0xbd2b51ed	-0.041826177
174	0x3db4e23c	0.08832213
175	0xbd73b879	-0.0595021
176	0xbc01c472	-0.007920371
177	0x3d91aa74	0.071125895
178	0xbe186e27	-0.1488577
179	0xbdef99a1	-0.11699224
180	0x3d9260c7	0.07147365
181	0x3d9a6424	0.075386316
182	0xbd2e7548	-0.042592317
183	0x3b9c9845	0.004778894
184	0x3dec2d30	0.11532056
185	0xbd857e20	-0.06518197
186	0xbd55b82e	-0.0521776
187	0xbcfeacb5	-0.031088213
188	0xbbea4072	-0.0071487958
189	0x3d11068d	0.035406638
190	0xbda29213	-0.07938018
191	0xbdbeb6b4	-0.093121916
192	0x3c09a458	0.008400999
193	0x3cbe0776	0.023196917
194	0xbd4e1119	-0.050309274
195	0x3c9fca59	0.019505667
196	0x3dc7eb93	0.09761729
197	0xbd518f38	-0.051161975
198	0x3df36e17	0.11886232
199	0x3dba9a3e	0.091114506
200	0x3d14ca53	0.036325764
201	0xbcbce2fe	-0.023057457
202	0x3ca127d9	0.019672321
203	0x3dae140f	0.084999196
204	0xbc0be41d	-0.008538273
205	0xbd4f24e4	-0.05057229
206	0x3d8b35f6	0.067974016
207	0x3e04a5d5	0.12953885
208	0xbc0fc555	-0.008775075
209	0xbdd6d184	-0.10489181
210	0xbc781811	-0.015142457
211	0xbd790366	-0.060794257
212	0x3d6e76f7	0.058218922
213	0xbd3e3dc7	-0.046445634
214	0x3e0a07fd	0.1347961
215	0x3d7ca41a	0.061679937
216	0x3d944833	0.072403334
217	0xbe0233a3	-0.1271501
218	0xbd6b7464	-0.057484046
219	0xbda6209c	-0.081116885
220	0xbcfc66a6	-0.030810665
221	0xbcb5a8c1	-0.022175195
222	0x3d95e550	0.073191285
223	0x3d0bdb4f	0.034144696
224	0x3ceeeff0	0.029167145
225	0xbc424708	-0.0118577555
226	0x3cb5b950	0.02218309
227	0x3c2ec810	0.010667816
228	0x3d58496f	0.052804407
229	0xbce2a8bc	-0.02766835
230	0xbdbf030a	-0.093267515
231	0xbd364467	-0.044498827
232	0x3cdfefa0	0.027335942
233	0xbdc147e1	-0.09437538
234	0xbcf3f64a	-0.029780526
235	0xbd31f706	-0.04344847
236	0xbcb1e30b	-0.021714708
237	0xbd0db3d7	-0.034595337
238	0xbdb4c684	-0.08826926
239	0x3c274d11	0.010211245
240	0x3d856953	0.065142296
241	0xbd7cd6ae	-0.061728172
242	0xbd2363e3	-0.03989018
243	0x3c99f166	0.018791866
244	0xbca834ad	-0.02053293
245	0xbb91516c	-0.004434755
246	0xbce76da8	-0.02825053
247	0xbda25547	-0.079264216
248	0xbdb38908	-0.08766371
249	0x3b0e8656	0.002174755
250	0x3c7c9ea4	0.015418682
251	0x3dd7cf07	0.10537534
252	0xbcd5b5f6	-0.026087742
253	0x3cc0549e	0.023477849
254	0x3de82763	0.113356374
255	0x3dd7e592	0.10541834

hidden.1.bias f4 [99]
0	0xbdbaf46f	-0.09128653
1	0x3d41b87a	0.04729507
2	0xbd4db15b	-0.050217967
3	0x3d42a1c7	0.047517564
4	0x3d001f70	0.03127998
5	0xbd8dc6e7	-0.06922703
6	0xbbe61f22	-0.0070227543
7	0xbbed975c	-0.0072507095
8	0xbd3892bb	-0.045061808
9	0xbdc7b814	-0.09751907
10	0xbc5a2f2a	-0.013316909
11	0x3b0a198b	0.0021072354
12	0xbd985f0f	-0.07440006
13	0x3d6a7d69	0.057248507
14	0xbd2c2bca	-0.042033948
15	0xbbb084f0	-0.005386941
16	0xbd6f5884	-0.058434024
17	0x3d3d764e	0.046255402
18	0xbcbba31c	-0.022904925
19	0xbd941e06	-0.07232289
20	0xbdb06724	-0.086134225
21	0x3d5348e3	0.051583182
22	0xbca6b62c	-0.020350538
23	0xbdb14f73	-0.08657732
24	0xbd561896	-0.05226954
25	0xbd78aa73	-0.060709428
26	0x3d8aca95	0.06776921
27	0xbdb42772	-0.08796586
28	0xbd1c4c7c	-0.03815888
29	0xbc024f28	-0.007953443
30	0x3da2fb00	0.07958031
31	0x3d8c6546	0.06855254
32	0x3dc72eb3	0.09725704
33	0xbdc56878	-0.096390665
34	0x3d465379	0.04841945
35	0xbd858edd	-0.0652139
36	0x3cc2f973	0.023800587
37	0xbdb4cab5	-0.08827726
38	0xbc277979	-0.010221832
39	0xbc96e171	-0.018418046
40	0xbdd2d6ed	-0.102949
41	0x3dccf204	0.10007098
42	0xbc74a545	-0.014931981
43	0xbd45cbc1	-0.048290018
44	0xbd888a5a	-0.066670135
45	0xbd660532	-0.0561573
46	0xbdbf95b6	-0.09354727
47	0x3dab86a9	0.08375294
48	0x3bcbd5dc	0.0062205624
49	0xbce14f4c	-0.027503632
50	0xbbc60b77	-0.006043847
51	0x3d9eec77	0.07759946
52	0xbd6e65aa	-0.058202423
53	0x3d943cbb	0.07238146
54	0xbda76aab	-0.08174642
55	0xbd3a30f1	-0.04545683
56	0x3cef88ad	0.029239977
57	0x3d1a05b8	0.03760311
58	0x3d06f16b	0.032945078
59	0xbd77b5a6	-0.060475968
60	0xbcf9dfac	-0.030502163
61	0x3caf7134	0.021416284
62	0x3cb1993b	0.021679511
63	0x3de790d7	0.11306923
64	0x3d810db3	0.06301441
65	0xbcfce734	-0.030871965
66	0x3ca78dd4	0.020453371
67	0xbc736576	-0.014855733
68	0xbdbeb1f7	-0.09311288
69	0x3d4513ca	0.048114575
70	0x3b84b885	0.0040503168
71	0x3d25aa7b	0.040445786
72	0xbd979fda	-0.07403536
73	0x3c8dc0b6	0.017303806
74	0xbd801348	-0.062536776
75	0x3d3e50dd	0.046463836
76	0x3d88dbfa	0.06682582
77	0xbbbe18c1	-0.0058012907
78	0x3d9ce07a	0.07660003
79	0xbd35204a	-0.044220246
80	0x3d66aeb8	0.05631897
81	0x3dc4b578	0.09604925
82	0x3d60c5e0	0.05487621
83	0xbddd870a	-0.10816772
84	0x3d218952	0.0394376
85	0xbd99306f	-0.07479941
86	0xbdde9426	-0.10868101
87	0xbd8fb940	-0.070177555
88	0xbc48d377	-0.012257448
89	0xbd0f930d	-0.035052348
90	0xbd41f18d	-0.0473495
91	0x3bf6957d	0.0075251446
92	0x3d898aaf	0.06715905
93	0x3d263f2f	0.0405876
94	0x3cb5455d	0.022127802
95	0xbdc238ef	-0.094835155
96	0xbdb9baf8	-0.090688646
97	0x3d21153c	0.03932689
98	0xbd2787c9	-0.04090098

hidden.2.weight f4 [99, 99]
0	0x3d964d1d	0.07338927
1	0x3df96cff	0.121789925
2	0x3dc2d0f6	0.095125124
3	0x3d927b7f	0.07152461
4	0xbc8bbbe1	-0.017057361
5	0x3c3ecbb5	0.011645247
6	0xbd07b8c6	-0.033135198
7	0xbcff707b	-0.031181565
8	0xbe0e1705	-0.13875969
9	0x3dde1b06	0.10844998
10	0x3d55ae82	0.052168377
11	0x3d1b9678	0.037985295
12	0xbce37afc	-0.027768604
13	0xbce88d39	-0.028387653
14	0x3d89892a	0.06715615
15	0x3c46797f	0.012113928
16	0xbe10fa7c	-0.14158052
17	0x3d1b601e	0.03793346
18	0x3d9cf9db	0.07664844
19	0xbd510a28	-0.051035076
20	0xbbcf8d20	-0.006333962
21	0xbe034313	-0.12818556
22	0xbdab603d	-0.08367965
23	0xbd415791	-0.04720265
24	0x3d288866	0.041145705
25	0x3c06bf09	0.008224257
26	0xbc82f0f7	-0.015984042
27	0xbca2a015	-0.019851724
28	0x3d133808	0.035942107
29	0xbdc39475	-0.095498
30	0xbd5646c3	-0.052313577
31	0xbbebd3a5	-0.007196861
32	0xbbeee2f4	-0.0072902385
33	0x3d888a98	0.0666706
34	0x3d6dd00d	0.05805974
35	0x3e40ca6b	0.18827216
36	0xbc207539	-0.009793573
37	0xbdba9de1	-0.09112144
38	0xbcfd22e8	-0.030900434
39	0xbe0281ff	-0.12744902
40	0xbc8ac70d	-0.016940618
41	0xbdb04e87	-0.08608728
42	0x3de76478	0.1129846
43	0x3d130b9d	0.035899747
44	0xbc63e527	-0.013909615
45	0x3d07102d	0.03297441
46	0x3d8e0617	0.06934755
47	0xbd346c73	-0.044048738
48	0x3d48e693	0.049048018
49	0x3dbc3faa	0.091918305
50	0xbdb76308	-0.089544356
51	0xbd48782a	-0.048942722
52	0x3d13a4e5	0.036045928
53	0xbd8a416d	-0.0675076
54	0x3db02570	0.08600891
55	0xbdadf10c	-0.08493242
56	0xbc953eb5	-0.018218378
57	0x3da108cb	0.07863005
58	0x3db6cfaf	0.08926331
59	0xbddf71b6	-0.109103605
60	0xbd2c503a	-0.042068698
61	0xbe44f17a	-0.19232741
62	0xbb48efe6	-0.0030660569
63	0x3d0aa725	0.033850808
64	0xbd560eca	-0.052260198
65	0x3d981ddb	0.074275695
66	0x3e13e787	0.1444379
67	0xbd2eaedf	-0.04264724
68	0x3e3f0396	0.18653712
69	0x3da8166a	0.082074
70	0x3c8fc888	0.017551675
71	0x3d2c546b	0.042072695
72	0xbcda94b1	-0.02668223
73	0x3c091506	0.008366829
74	0x3d145d69	0.036221895
75	0xbd7c5313	-0.061602663
76	0xbdf34f39	-0.11880345
77	0xbd53441c	-0.051578626
78	0xbdb7567c	-0.089520425
79	0x3d7b638d	0.061374236
80	0xbd8dffba	-0.069335416
81	0xbe0c0878	-0.13675106
82	0xbdad8a88	-0.08473688
83	0x3c851a15	0.016247788
84	0x3d353862	0.044243224
85	0xbaa6cb86	-0.001272545
86	0xbc06befa	-0.008224243
87	0x3d8dccd6	0.06923835
88	0xbd089a34	-0.033350185
89	0xbc1f35f8	-0.009717457
90	0xbd8259a3	-0.06364753
91	0xbe11079f	-0.14163063
92	0x3de19aee	0.110158786
93	0x3d98e9b0	0.07466447
94	0xbdc45f04	-0.09588435
95	0xbddf4c56	-0.10903232
96	0x3cd8b6db	0.02645438
97	0xbc90a683	-0.017657524
98	0x3e46094e	0.19339487
99	0x3d5146db	0.051092964
100	0xbdaf04b9	-0.08545823
101	0x3d62bee8	0.055357844
102	0xbcc84f5c	-0.024451904
103	0xbdac604a	-0.08416803
104	0x3d1a2ca1	0.037640218
105	0xbc3227cf	-0.010873749
106	0x3d5705b6	0.05249568
107	0x3def7c1d	0.116935946
108	0xbd4d7b18	-0.05016622
109	0xbd7ec0bc	-0.062195525
110	0xbdde9f5c	-0.10870239
111	0x3d1fe026	0.039032124
112	0x3c6950b4	0.0142404325
113	0x3dabbb52	0.08385338
114	0xbcb24bef	-0.021764724
115	0xbd0eaa81	-0.034830574
116	0xbd601f0a	-0.0547171
117	0x3e034379	0.12818708
118	0x3c685a49	0.014181682
119	0xbd2d016a	-0.042237677
120	0x3d96f4c6	0.073709056
121	0xbc0534df	-0.008130281
122	0x3e1c7096	0.15277323
123	0xbc57a6a3	-0.013162288
124	0x3dc3e7d3	0.09565701
125	0x3c4bc6b4	0.012437511
126	0x3dfd6028	0.12371856
127	0x3d2e44b9	0.042546008
128	0x3c0db300	0.008648634
129	0x3d08dbc6	0.033412717
130	0x3dfba8ba	0.122880414
131	0x3cf924bf	0.03041303
132	0xbdbc488b	-0.09193524
133	0xbddbafce	-0.107268915
134	0x3d11c5c6	0.035589002
135	0xbd82692f	-0.063677184
136	0x3d31e317	0.04342946
137	0xbe0af9eb	-0.13571899
138	0x3d8fa08d	0.070130445
139	0xbbfdd8dc	-0.007746799
140	0x3dc416b2	0.09574641
141	0xbd887281	-0.06662465
142	0xbce17ff1	-0.027526828
143	0x3e06597c	0.13120073
144	0x3cf910f3	0.03040359
145	0x3d5b210e	0.05349832
146	0x3dccf199	0.100070186
147	0xbda3ebdb	-0.0800397
148	0x3d164e4a	0.036695756
149	0xbc916883	-0.01775003
150	0xbe269c30	-0.16270518
151	0xbdd6410a	-0.10461624
152	0xbdaaff98	-0.08349532
153	0xbda96b56	-0.08272426
154	0x3c18f366	0.009335374
155	0x3d93c32a	0.07214959
156	0xbdd37ac7	-0.10326152
157	0xbcfed976	-0.031109553
158	0x3e26ae52	0.16277435
159	0x3e0aef8d	0.13567944
160	0x3ce2bfb5	0.027679304
161	0x3cfbcd72	0.030737612
162	0xbd3cb388	-0.04606965
163	0x3b121dae	0.0022295523
164	0x3be96d38	0.0071236156
165	0x3c004ac8	0.007830329
166	0xbd6ca660	-0.057775855
167	0xbd65e5b7	-0.056127276
168	0xbdce41a6	-0.10071115
169	0x3c7416e0	0.014898032
170	0xbc0fdca9	-0.008780637
171	0xbbab6f14	-0.0052317474
172	0x3c646e2d	0.013942284
173	0xbdda48a8	-0.10658389
174	0xbc83369e	-0.016017254
175	0xbe1c0363	-0.15235667
176	0xbd9e0492	-0.077157155
177	0x3d400fec	0.046890184
178	0xbbe57c4c	-0.0070033427
179	0xbdca1824	-0.09867886
180	0x3d618eca	0.055067815
181	0xbdc0f8ad	-0.09422431
182	0x3e157158	0.14594018
183	0x3d3df5f9	0.046377156
184	0xbda6b6af	-0.08140313
185	0xbdbc46c4	-0.09193185
186	0x3cc211e3	0.02369017
187	0xbd97f80b	-0.07420357
188	0xbdb60ff2	-0.0888976
189	0x3d8b57de	0.06803869
190	0xbd62e3e7	-0.055393126
191	0xbdd0b801	-0.10191346
192	0x3dac36a1	0.08408857
193	0x3d5a4ddd	0.053296912
194	0x3db70fcf	0.08938562
195	0x3d3f5837	0.046714988
196	0x3c8e5f9a	0.01737957
197	0xbd894351	-0.06702293
198	0xbd80c3ff	-0.06287383
199	0xbd2cc418	-0.042179197
200	0xbcb141e6	-0.021637868
201	0x3d623e99	0.05523548
202	0xbd9e5bcc	-0.077323526
203	0xbcb27e29	-0.021788673
204	0xbdb5151f	-0.08841919
205	0x3cb856e6	0.022502374
206	0x3dcabc67	0.09899216
207	0xbc0b06fb	-0.008485551
208	0x3e10ccbe	0.14140603
209	0xbd59d9b9	-0.053186152
210	0xbe0049c3	-0.12528138
211	0xbc3d73c7	-0.011563248
212	0xbdfccae4	-0.12343386
213	0x3e1154a9	0.14192452
214	0xbda19558	-0.07889813
215	0xbd89d69d	-0.06730387
216	0x3dad9531	0.08475722
217	0x39d70fc4	0.00041019742
218	0xbcce0ed2	-0.025153551
219	0x3dc307ba	0.09522958
220	0xbdc2f0bb	-0.09518572
221	0x3d7522c6	0.059847616
222	0x3a3431f9	0.00068739016
223	0xbd856544	-0.065134555
224	0xbe175ea9	-0.14782204
225	0x3d7adee9	0.06124774
226	0x3d143f62	0.03619326
227	0x3c7b1de1	0.015326948
228	0xbd715202	-0.0589161
229	0xbd5de3a2	-0.054172166
230	0xbc27b7e1	-0.010236711
231	0x3dbcedfa	0.09225078
232	0xbcb53e4f	-0.022124438
233	0x3c9bdae7	0.01902528
234	0xbdf32cb6	-0.11873762
235	0xbcdb4423	-0.026765889
236	0x3d20c218	0.039247602
237	0x3de1047c	0.109871835
238	0xbd7d96db	-0.061911445
239	0xbcd9b937	-0.026577575
240	0x3dbe1afc	0.092824906
241	0x3def342b	0.11679872
242	0xbd2a61cd	-0.041597176
243	0xbe10d884	-0.14145094
244	0xbb2b2d06	-0.0026119365
245	0x3d82d730	0.063887
246	0x3c17932e	0.009251399
247	0x3cc986b2	0.02460036
248	0x3e251796	0.16122279
249	0xbd5ef37a	-0.054431416
250	0x3db43431	0.08799017
251	0x3ce86290	0.02836731
252	0xbd284b12	-0.041087218
253	0x3d9899f4	0.07451239
254	0x3db6eedb	0.08932277
255	0x3d78c743	0.060736906

hidden.2.bias f4 [99]
0	0x3d50c613	0.05097015
1	0xbd618c2b	-0.055065315
2	0x3d511f83	0.051055443
3	0x3cb535ad	0.022120321
4	0xbddce4b4	-0.10785809
5	0x3d8c9bed	0.06865678
6	0xbcd08acd	-0.02545681
7	0xbd26a9ef	-0.040689405
8	0xbd8835ae	-0.066508636
9	0x3d684d6c	0.05671446
10	0x3d351df0	0.044218004
11	0x3df4ec37	0.11959117
12	0xbd00423e	-0.031313173
13	0x3d1a7e40	0.037718058
14	0x3d869946	0.06572203
15	0x3da9a4ef	0.08283412
16	0xbd823433	-0.063576125
17	0x3cf8d755	0.030376116
18	0x3daf5b5c	0.08562347
19	0x3c95a004	0.018264778
20	0x3daf9a5d	0.08574364
21	0xbcd5e7f0	-0.026111573
22	0x3d5bb48a	0.053638972
23	0x3d871124	0.06595066
24	0xbd6cabb1	-0.057780925
25	0x3daab8b9	0.08336014
26	0x3dc16312	0.09442724
27	0x3b4a0be4	0.0030829841
28	0xbd593159	-0.053025577
29	0x3d0046e4	0.031317607
30	0x3ccd259e	0.025042351
31	0xbcdd10f7	-0.026985629
32	0x3d83a0e3	0.06427171
33	0xbd89ab90	-0.06722176
34	0x3d4c410b	0.049866717
35	0xbd123b1b	-0.0357009
36	0xbcde2df8	-0.027121529
37	0xbcfcb5e0	-0.030848444
38	0x3d8a9103	0.0676594
39	0xbd0c3df2	-0.034238763
40	0x3dea37fc	0.114364594
41	0x3d560496	0.052250467
42	0x3d5551a8	0.052079827
43	0xbe02dfef	-0.12780736
44	0x3b0a5634	0.002110851
45	0xbdafc0d7	-0.08581703
46	0x3db19371	0.086707
47	0xbd92f2cf	-0.07175218
48	0xbcece67a	-0.028918494
49	0x3db2d48f	0.087319486
50	0x3c68226d	0.014168364
51	0x3d4e9e5e	0.050444
52	0xbd1ac7d2	-0.03778822
53	0x3c787ceb	0.0151665015
54	0x3d8f7c94	0.07006183
55	0x3d8d140c	0.06888589
56	0xbd9f6093	-0.07782092
57	0xbcda0141	-0.026611926
58	0xbdc38fdd	-0.09548924
59	0xbccf4b0a	-0.025304336
60	0xbd8b732f	-0.06809079
61	0x3df63bef	0.1202315
62	0x3c9d32d8	0.019189283
63	0x3da59ce2	0.08086564
64	0xbd2c2d05	-0.04203512
65	0xbda3a299	-0.079899974
66	0x3daecbe8	0.08534986
67	0x3b11b319	0.0022231995
68	0x3aba88e0	0.0014231466
69	0xbcc5dbca	-0.024152655
70	0x3daab42f	0.083351485
71	0x3ddafe34	0.10693017
72	0x3da6ba8c	0.0814105
73	0x3dba91a2	0.091098085
74	0xbdd768c5	-0.1051803
75	0xbdce3837	-0.10069316
76	0xbb0a4651	-0.002109904
77	0xbd813d29	-0.063104935
78	0xbc864904	-0.016392238
79	0x3d7c649e	0.061619394
80	0xbc0d09d7	-0.008608303
81	0x3d7e9167	0.062150385
82	0xbd9c8e46	-0.07644324
83	0x3c682483	0.014168861
84	0x3dc49dfc	0.09600446
85	0x3db4d851	0.088303216
86	0xbdcfc260	-0.10144496
87	0x3c84351a	0.016138602
88	0xbd2e29bf	-0.04252028
89	0x3d9dbcc8	0.07702023
90	0x3c1a4d33	0.00941782
91	0x3c21e22f	0.0098805865
92	0x3d153635	0.03642865
93	0xbd8c4a07	-0.06850057
94	0x3c86f0d6	0.016472261
95	0x3cf2ffc5	0.029662976
96	0xb9da5251	-0.0004164153
97	0x3d7b7b44	0.061396852
98	0xbce04a58	-0.0273792

hidden.3.weight f4 [99, 99]
0	0xbd024a71	-0.031809274
1	0x3d88ecd9	0.066858
2	0xbd8a8769	-0.06764109
3	0xbbb2382e	-0.005438826
4	0x3d9fdf1d	0.07806227
5	0x3ce113b1	0.02747521
6	0xbd769aa2	-0.060206063
7	0x3def1c1d	0.11675284
8	0xbca1d64d	-0.019755507
9	0xbd8f9c2b	-0.070122086
10	0xbcfae25c	-0.030625515
11	0x3dc682cb	0.096929155
12	0x3c60aa1c	0.013712432
13	0xbd8fd3ca	-0.070228174
14	0x3e0fce2d	0.14043494
15	0x3db7933f	0.08963632
16	0xbd853831	-0.06504858
17	0xbdfc43e1	-0.123176344
18	0x3b07bc1e	0.0020711492
19	0x3d331ec3	0.04373051
20	0xbde06f77	-0.1095876
21	0x3d8f5620	0.06998849
22	0x3d2e7431	0.042591278
23	0x3ce2360e	0.027613666
24	0x3c7a1b8d	0.015265358
25	0x3dbe36cd	0.09287796
26	0xbe37883f	-0.17923068
27	0x3cf6797c	0.030087225
28	0xbcb37aab	-0.021909079
29	0xbd3bc698	-0.04584369
30	0xbc262a1d	-0.0101418765
31	0x3cd2d3f4	0.025735833
32	0x3d4f4e0f	0.05061155
33	0xbd54db05	-0.051966686
34	0xbe0fcd4a	-0.14043155
35	0x3a0051ae	0.0004894984
36	0xbe2c046d	-0.16798563
37	0x3d9d63db	0.076850615
38	0x3cbd85aa	0.023135025
39	0x3d897486	0.06711678
40	0xbda565ca	-0.08076055
41	0xbe29b9d6	-0.16574797
42	0x3d051e37	0.03249952
43	0x3de944fb	0.1139011
44	0x3dd6f0db	0.10495158
45	0x3d807e65	0.06274108
46	0x3c60575e	0.013692705
47	0x3e139fc3	0.14416413
48	0x3d14844e	0.036258988
49	0x3d64a6d3	0.05582316
50	0xbbd38831	-0.0064554443
51	0xbcbd4a28	-0.02310665
52	0xbd96b7f2	-0.073593035
53	0x3b5bd242	0.0033542071
54	0xbdcab70e	-0.09898196
55	0xbdd7e1e6	-0.105411336
56	0xbd633dde	-0.055478923
57	0xbd897bfa	-0.067131
58	0x3b616b42	0.0034396206
59	0xbdfafbc0	-0.12255049
60	0x3cf326a0	0.029681504
61	0xbc9987b1	-0.01874146
62	0x3d569f6e	0.052398138
63	0xbdd8fa12	-0.10594572
64	0xbd6d36b8	-0.057913512
65	0xbd00efad	-0.031478573
66	0xbdee9788	-0.11649996
67	0xbde7ee36	-0.11324732
68	0xbd2f1b07	-0.042750385
69	0x3db3f01a	0.0878603
70	0x3d9f0b03	0.07765772
71	0xbd3f2921	-0.046670083
72	0x3d30d6f3	0.04317374
73	0x3d82adec	0.06380829
74	0xbde2ce66	-0.11074524
75	0x3d87299e	0.06599735
76	0xbd913773	-0.07090654
77	0x3d07d388	0.033160716
78	0x3dc5aa83	0.09651663
79	0xbdaa989a	-0.08329888
80	0xbce9cd64	-0.02854032
81	0x3d717e9c	0.058958635
82	0xbe0b93ce	-0.13630602
83	0xbcbfb93d	-0.023403758
84	0xbcaab4b5	-0.020838121
85	0x3dd883a9	0.10571987
86	0x3d199d15	0.03750332
87	0x3e0d8df0	0.13823676
88	0xbdda18f7	-0.10649293
89	0x3d9c8cdc	0.07644054
90	0x3d82b9ce	0.06383096
91	0x3d22fbdb	0.03979097
92	0xbc564297	-0.0130774
93	0xbdbe3f75	-0.09289447
94	0x3dd02cf4	0.10164824
95	0x3c457be5	0.012053465
96	0x3d8a1748	0.06742722
97	0x3dec2ebc	0.115323514
98	0x3dca32ea	0.09872992
99	0xbdce7707	-0.100812964
100	0x3e154782	0.1457806
101	0xbe165d6e	-0.14684078
102	0x3ba60467	0.005066443
103	0x3cfebe44	0.031096585
104	0x3dcefa4d	0.10106335
105	0xbcad7f22	-0.021178786
106	0x3d62df92	0.055388995
107	0x3d9d713b	0.076876126
108	0x3ce6c738	0.028171167
109	0x3dd950eb	0.10611137
110	0x3b93eab2	0.004514062
111	0x3d17e10f	0.037079867
112	0x3d8edc9f	0.06975674
113	0xbdc6545d	-0.0968406
114	0xbba67460	-0.005079791
115	0x3e242ff3	0.16033916
116	0x3dcde71c	0.10053846
117	0x3d96131d	0.07327864
118	0xbdedb2e3	-0.116063856
119	0xbce857de	-0.02836221
120	0x3e034943	0.12820916
121	0x3e0f55fb	0.13997643
122	0xbd39c3ce	-0.04535275
123	0x3cf49e52	0.02986065
124	0xbdcdf093	-0.100556515
125	0xbd3ed5cb	-0.046590608
126	0x3d64f594	0.055898264
127	0x3e41c6f8	0.18923557
128	0xbd0f6b09	-0.035014186
129	0x3cedeb96	0.029043
130	0x3d99fc03	0.075187705
131	0x3d83fa6d	0.06444249
132	0xbd03341e	-0.032032125
133	0xbd8700e5	-0.065919675
134	0xbd2623b7	-0.040561404
135	0x3d642053	0.05569489
136	0x3c2bc216	0.010483285
137	0xbc98c685	-0.018649349
138	0x3d94eb74	0.072714716
139	0x3dea354b	0.11435946
140	0xbd6ec3fb	-0.05829237
141	0x3d268929	0.04065815
142	0xbdb8791c	-0.09007475
143	0x3db4b616	0.08823793
144	0x3d15fb25	0.036616463
145	0xbd0cb5a7	-0.034352925
146	0x3d60dda9	0.05489889
147	0x3d4dd751	0.05025417
148	0xbda3af0e	-0.079923734
149	0xbd6a3db9	-0.05718777
150	0xbd740396	-0.059573732
151	0xbd672add	-0.056437362
152	0xbe153a89	-0.1457311
153	0x3dbd189f	0.09233212
154	0x3da98c8a	0.08278759
155	0x3cb55a1b	0.022137692
156	0x3e17e703	0.14834218
157	0xbd53955c	-0.051656112
158	0x3dc297c2	0.09501602
159	0xbd03eaf3	-0.032206487
160	0xbcbac42a	-0.022798616
161	0xbd4186c4	-0.047247663
162	0xbd384aa6	-0.044993065
163	0x3df68e5b	0.12038871
164	0x3d9379f8	0.07200998
165	0xbe494e00	-0.19658661
166	0xbe0fa3cd	-0.14027329
167	0xbe159fa9	-0.14611687
168	0x3c97fc32	0.018552873
169	0x3cbcc519	0.023043202
170	0x3d86b556	0.06577556
171	0xbc3ec328	-0.011643209
172	0xbc8a42d9	-0.016877579
173	0xbd8f2b71	-0.06990708
174	0xbca4a26d	-0.020096982
175	0xbd0100ff	-0.03149509
176	0xbe03c82d	-0.1286933
177	0xbc19a451	-0.009377555
178	0xbd5ced67	-0.053937342
179	0xbdccb800	-0.09996033
180	0xbdce3c83	-0.100701354
181	0x3e20b9d8	0.15695894
182	0xbd36d55c	-0.04463707
183	0xbca79995	-0.020458976
184	0xbc802e26	-0.015647005
185	0x3d61370a	0.05498413
186	0x3b9be411	0.0047574122
187	0x3e050bf1	0.12992837
188	0xbd60f6eb	-0.05492298
189	0x3ce7a4cf	0.028276829
190	0xbc6319d2	-0.0138611365
191	0xbcdcc996	-0.026951592
192	0x3d40984d	0.047020245
193	0x39d4a883	0.00040561342
194	0xbd9cae95	-0.076504864
195	0x3d6c9952	0.057763405
196	0x3cda60b8	0.026657447
197	0x3ba6d0d1	0.005090811
198	0xbc928993	-0.017887866
199	0x3dc74595	0.097300686
200	0x3c897197	0.016777797
201	0xbba1e489	-0.0049405736
202	0x3daeafdf	0.085296385
203	0xbd02ec65	-0.031963725
204	0xbda826e3	-0.08210542
205	0x3d8a553e	0.0675454
206	0x3c929aa7	0.01789601
207	0x3bfeeabb	0.007779447
208	0xbd072c9e	-0.033001535
209	0x3d52e768	0.051490217
210	0x3cbc2f4a	0.022971768
211	0x3df7c8c2	0.120988384
212	0xbc7aecf9	-0.015315288
213	0xbdb6fc93	-0.089348935
214	0x3dcd0a5c	0.100117415
215	0xbd3ed97f	-0.04659414
216	0xbe00af1c	-0.12566799
217	0xbc527b63	-0.0128468005
218	0xbd263624	-0.040578976
219	0xbdb698d7	-0.08915871
220	0xbdc59426	-0.09647398
221	0x3e206ca9	0.1566645
222	0xbd15bf7f	-0.036559578
223	0x3cb85e34	0.022505857
224	0xbe07568a	-0.13216606
225	0xbc92db74	-0.017926909
226	0xbcb6b6b9	-0.022303926
227	0x3cbc386c	0.022976123
228	0xbd309c7a	-0.043117978
229	0x3de190f7	0.11013978
230	0x3d4ea0ac	0.050446197
231	0xbce9cd04	-0.028540142
232	0xb95783ce	-0.00020553099
233	0xbe13ec89	-0.144457
234	0xbe38a721	-0.18032505
235	0x3d2666f9	0.040625546
236	0x3d622b5a	0.055217125
237	0x3daf726e	0.085667476
238	0xbe135b9d	-0.14390416
239	0xbcf294ea	-0.029612023
240	0x3db5dd02	0.088800445
241	0xbdb01ad1	-0.08598865
242	0xbcf2a2d6	-0.029618662
243	0x3d1114c1	0.035420183
244	0xbc6bea28	-0.014399089
245	0xbd4328b7	-0.04764625
246	0xbd10fb11	-0.035395686
247	0xbe294010	-0.16528344
248	0xbd5b75b9	-0.053579066
249	0x3bd845a3	0.006600098
250	0xbca66600	-0.02031231
251	0xbdd6d00d	-0.10488901
252	0xbdb92ee9	-0.090421505
253	0xbd4997f8	-0.049217194
254	0xbcea5bc7	-0.028608216
255	0xbe155b99	-0.14585723

hidden.3.bias f4 [99]
0	0x3d486cf5	0.048932035
1	0xbd927b17	-0.07152384
2	0x3d82c0ca	0.06384428
3	0x3db16729	0.08662254
4	0xbd8c6246	-0.06854682
5	0xbd5a58ea	-0.05330745
6	0xbc499f27	-0.012306011
7	0x3de0eb2f	0.10982358
8	0x3b0427ac	0.0020165248
9	0xbd532a33	-0.051553916
10	0x3cc2c1ed	0.023774112
11	0xbd8c0915	-0.0683767
12	0x3d57e874	0.05271192
13	0xbd595e68	-0.05306855
14	0xbd20eff0	-0.039291322
15	0xbdb44746	-0.08802657
16	0x3d8651da	0.06558581
17	0xbcd2ef73	-0.025748944
18	0x3c800535	0.015627483
19	0xbdad3282	-0.08456899
20	0x3d82c742	0.06385662
21	0x3a5e12d0	0.0008471431
22	0x3d0c7125	0.03428759
23	0xbd1fa601	-0.038976673
24	0xbd78d682	-0.060751446
25	0xbde6c8d5	-0.112687744
26	0x3dc39fef	0.09551989
27	0xbdb4bfda	-0.08825655
28	0xbd5367d8	-0.051612705
29	0xbd393d50	-0.045224488
30	0xbcd2fdca	-0.025755782
31	0x3d0ae637	0.033910956
32	0x3de53411	0.111915715
33	0x3d8e4bb8	0.06948036
34	0xbd5dab57	-0.05411848
35	0xbd170f35	-0.036879737
36	0xbb8204e0	-0.0039678663
37	0x3cf9f6b7	0.03051315
38	0xbc0ec3a7	-0.008713639
39	0x3dee2a67	0.11629181
40	0xbb0491d3	-0.002022852
41	0xbca9cec1	-0.02072847
42	0xbd2553a2	-0.04036296
43	0xbdb84e01	-0.08999253
44	0x3c97e227	0.018540455
45	0xbd26c6e6	-0.040717028
46	0x3cf49778	0.029857382
47	0xbdd3d49d	-0.10343287
48	0x3dd1d318	0.10245341
49	0x3da2ca2f	0.0794872
50	0x3d40bebb	0.047056895
51	0xbc6c7bbe	-0.014433799
52	0xbda36955	-0.07979075
53	0xbd87353a	-0.06601949
54	0x3d5c8555	0.053838093
55	0xbc26cae9	-0.0101802135
56	0x3d6b3baf	0.057429966
57	0x3d9ba070	0.075989604
58	0xbb6da0de	-0.0036259214
59	0x3d76c3c2	0.060245283
60	0xbd69d4c6	-0.057087682
61	0x3d833f0f	0.06408512
62	0x3d25bdfb	0.040464383
63	0xbce5f937	-0.028072936
64	0xbdcdfaad	-0.10057578
65	0xbd6ad49c	-0.057331666
66	0x3dc9c396	0.09851758
67	0x3d7224e1	0.0591172
68	0xbd539fee	-0.051666193
69	0x3d131caf	0.035916027
70	0x3d372019	0.044708345
71	0xbda93d6e	-0.0826367
72	0xbce80a96	-0.02832536
73	0x3d006ab0	0.031351745
74	0x3dcbb39c	0.09946367
75	0xbde8973e	-0.11356972
76	0x3d4cf75b	0.050040584
77	0x3cd8df62	0.026473705
78	0xbca2cb7a	-0.019872416
79	0xbd3618b5	-0.044457156
80	0xbdcc0607	-0.09962087
81	0xbd3b09be	-0.045663588
82	0x3cd67e20	0.026183188
83	0xbb5d9ca9	-0.00338153
84	0x3daf230f	0.08551609
85	0xbd27a327	-0.04092708
86	0xbcb47e18	-0.022032782
87	0x3d9b8e1f	0.07595467
88	0xbd848cf0	-0.06472194
89	0xbc3c4273	-0.011490452
90	0xbcd99a20	-0.02656275
91	0xbdfe3a5b	-0.12413474
92	0x3ced9b1c	0.029004626
93	0xbc94c85c	-0.018161945
94	0x3d88d71c	0.06681654
95	0x3c2eeb65	0.01067624
96	0x3d25f33d	0.040515173
97	0x3d8b299b	0.06795045
98	0xbda80268	-0.08203584
