models/7x7-4-99-tanh/190episodes.pth (torch, 202354 bytes, 12 tensors)

input_layer.weight f4 [99, 50]
00000000: aed3 a83d 5a45 4fbe e6b3 f7bd 42fd 37be
00000010: 0c30 04be 10ca d0bd d3d9 1fbe 8d0f 653d
00000020: 49d3 13bd 90fc 643d a014 793c 6c29 cb3d
00000030: 9fb5 3ebd bcaa eabd 9430 8bbd da11 813d
00000040: 0180 f13c c6a1 c83c 163f 0b3e 96f4 b43b
00000050: 288a 1ebe 03dd 313e 1e12 e437 912c 4e3c
00000060: b387 e23c bc1d f83d a3b5 a1bd 3153 21be
00000070: 690d 0abe 0742 513d 1b1b 12be 7535 02be
00000080: a9a6 44ba 3cd9 45bd 3987 ccbd 244b 88bc
00000090: 56c2 acbc a22d 723d c808 09be b4a8 24be
000000a0: 47c9 a53d b7db 8bbc 8fc2 a53d 8d36 e03b
000000b0: fa74 e8bc 7f59 3b3e 4f38 eb3c a9d9 26be
000000c0: ddc2 95bd 57ed b43d 5151 803d f659 15be
000000d0: 8c01 223d 06ca b5bd f23d 8cbd 80b7 153e
000000e0: aaab aa3d b3e7 963d 139f d9bd d785 8c3b
000000f0: 6d47 bcbd aee1 e2bd 4cf6 2b3e cb67 e4bd
00000100: 995a 93bc 54cb 5d3d 8770 02bd 010c dc3d
00000110: 6704 d7bd d93d b43c 827d 663d 532b a0bc
00000120: 40e9 65bd 377e 8c3c 2783 d1bd 1ea3 fabc
00000130: 9e1b 44be de8c 883c 386d 9e3d d6cc 06be
00000140: 3ae7 923b d85d 6b3d a6b3 b13d a404 11bd
00000150: 50f4 05bd f9e7 3abe beb5 d1bd 48ce 8cbb
00000160: 7b92 d83d f1a8 1dba 6e80 eebd 2dcb 21bd
00000170: f7ab 34bd c04a 40bd 22b0 00bd 7b5e 06bc
00000180: f1d0 d4bd f61d 85bd 508d 893c a030 823b
00000190: af16 5ebe 839b 83bd d99c cebd f92e c93d
000001a0: 408c 9d3c ecfa ce3d 03fb 2cbd afa7 fa3b
000001b0: ce19 0f3e 29cb f9bd a9fb ccbd d0ad 2fbe
000001c0: b1b4 443d 181d a53d b744 b33b a7df 0a3d
000001d0: 0ce9 25bd c28e 153e 7056 fd3d e591 cd3d
000001e0: 86d0 49bb 6a75 053e 8499 cfbd b0d5 73bd
000001f0: 85d0 013e 7443 d63c b79f 17be 7695 06bd
00000200: a3a3 783c 0dca 89bd 9fa0 393d 3f08 abbd
00000210: 41eb 823d a165 a2bd 81b9 d23c 4b8b a63d
00000220: 0c85 eabd 70ac c7bd e91e d7bd fc83 e53d
00000230: ae21 063c bedd d2bd 9cc9 153d e796 d53d
00000240: 1a8d 2cbd 5d98 883d 0355 0b3e c416 e7bd
00000250: 5020 883c 81a9 8bbd 9aae f63c 565c 74bd
00000260: b283 aabd eb50 d4bc 6913 20bd ce1a d7bc
00000270: 3729 d63c bf66 493d 1606 77bc d408 e03d
00000280: e2d3 eb3d 54c7 08be 1092 463d 7898 1dbd
00000290: 4713 493e f748 133e 1aab ea3c 8f25 f53d
000002a0: c90a 8b3b ebcd 60bd 122a 04be 013e d93d
000002b0: f480 7cbd a0ca b3bc e1de 11bd f8be c4bd
000002c0: aab4 24bd 2ebb c0bd 75f0 2cbe c819 7dbd
000002d0: e245 903d 8c9b 37ba 0de5 bdbd 9de7 3dbd
000002e0: bafc 42be 0b37 073d 7520 753d cf06 8fbb
000002f0: e930 b53d 3c8e d53a cfc7 8f3c 1731 f8bc
00000300: 906b 7abc 9c13 90bb 91c8 433d 1704 183e
00000310: e889 7cbd cdf7 5dbd e5b2 d33c 7a86 aabd
00000320: a8e6 aebd df04 54bd f712 72bb 6d7a 1b3e
00000330: a423 563c 13a7 5c3d cf1f b5bd 2a7c a3bd
00000340: 3f22 fc3c 69dd 31bd e51f 523d e6c4 fb3d
00000350: fa6f 2438 3760 87bd 780a 13be b336 b0bd
00000360: c9ff 093e af93 cb3d 8211 2fbd 09fb 27be
00000370: de16 953c e3d8 0a3e 8ff3 a2bd bcfb 143e
00000380: 41db 0bbe 8f4d 253d af5c 853d bb66 edbd
00000390: 00b9 c93d 3b8b d9bd 422e 143d 37a3 d23d
000003a0: ea5b 23bd 5d56 3cbd 575d a33d 467a 923d
000003b0: 989b ff3c ce0b 1b3c 708f 43bd 0700 b73d
000003c0: 99a5 d4bd 9450 f7bd 62a7 08bd 74b6 5c3d
000003d0: 1390 9fbd eba0 cebd c77f 763c 2c09 03be
000003e0: a637 603c 9684 bd3d 1402 a9bd e4a4 83bd
000003f0: 6fbb 02bd 5df2 13be fd4c 073d e456 94bd
0.082435 -0.202413 -0.1209486 -0.17967704 -0.12908953 -0.1019479 -0.15610437 0.055923034
-0.03609017 0.055904925 0.015202671 0.0992001 -0.046559926 -0.11458346 -0.06796375 0.06302233
0.029479982 0.024491202 0.13598284 0.005522321 -0.1548239 0.17369466 2.7188154e-05 0.012583868
0.027652597 0.121150464 -0.078959726 -0.15754391 -0.13481678 0.05108836 -0.14268152 -0.12715705
-0.0007501641 -0.048302874 -0.09986729 -0.016637392 -0.02108876 0.05912555 -0.13382256 -0.1607998
0.08095031 -0.017072542 0.0809375 0.0068424405 -0.028376091 0.18295859 0.028713373 -0.16293968
-0.07312558 0.088343315 0.0626551 -0.14585099 0.039552256 -0.088764235 -0.06847753 0.14620781
0.083335236 0.07368412 -0.10626044 0.004288416 -0.09193311 -0.11078201 0.16793174 -0.111526094
-0.017987536 0.054148987 -0.031845596 0.10744477 -0.104988866 0.022002148 0.056272037 -0.019551909
-0.056130648 0.017150028 -0.102300934 -0.030595358 -0.1915116 0.016668733 0.077356756 -0.13164076
0.0044831308 0.057462543 0.08676843 -0.035404816 -0.032703698 -0.18252553 -0.10239743 -0.0042970516
0.10574814 -0.0006014249 -0.1164559 -0.039500404 -0.04410931 -0.046946287 -0.031417973 -0.008201237
-0.10391415 -0.06499855 0.016791016 0.0039730817 -0.2168834 -0.06426146 -0.1008851 0.098234124
0.019231915 0.10106453 -0.04223157 0.007649384 0.13974687 -0.12196953 -0.10008938 -0.17156148
0.048023883 0.0806219 0.005470838 0.033904698 -0.040505454 0.14605239 0.12370002 0.10037593
-0.0030794456 0.13033071 -0.10136703 -0.05952996 0.126772 0.026155211 -0.1480702 -0.03285738
0.015175733 -0.06727991 0.045319196 -0.08351182 0.06392527 -0.079295404 0.02572322 0.08132037
-0.11451158 -0.09749687 -0.105039425 0.11206815 0.008186741 -0.102962 0.036569223 0.10429173
-0.042126752 0.06669686 0.13606648 -0.11283639 0.01661697 -0.0681944 0.030112553 -0.05965837
-0.083259 -0.025917491 -0.03908101 -0.026257899 0.0261427 0.049170252 -0.015077135 0.10939184
0.11515023 -0.13357288 0.04847914 -0.038475484 0.1963626 0.14383303 0.02864604 0.11970054
0.004243229 -0.05488388 -0.12906674 0.106075294 -0.061646417 -0.021947205 -0.035612945 -0.09606737
-0.040211357 -0.09410702 -0.16888602 -0.061792165 0.07044579 -0.0007004074 -0.092722036 -0.04636346
-0.1904172 0.033011477 0.059845407 -0.0043648253 0.088472195 0.0016293 0.01755133 -0.030296845
-0.015284434 -0.004396869 0.047798697 0.1484531 -0.061654955 -0.0541914 0.02584214 -0.083264306
-0.08540088 -0.051762458 -0.0036937573 0.1518342 0.013070021 0.053870272 -0.08843958 -0.07982667
0.030778049 -0.043424044 0.05129995 0.12293415 3.9204933e-05 -0.066101484 -0.14359462 -0.08604183
0.1347648 0.09940278 -0.042741306 -0.16404356 0.01819938 0.13559298 -0.07956611 0.14549154
-0.13657857 0.04035717 0.065118186 -0.1159186 0.09849739 -0.10622259 0.036176927 0.10285037
-0.039882578 -0.0459808 0.079767875 0.07152228 0.031202123 0.009463264 -0.047744215 0.08935552
-0.10383148 -0.12075916 -0.033362754 0.05388494 -0.07791152 -0.100892864 0.015045113 -0.12796468
0.013685143 0.092538044 -0.082523495 -0.06427935 -0.03191703 -0.14447923 0.033032406 -0.072431356

input_layer.bias f4 [99]
00000000: a253 053c a663 00be d46f 143e 6a4f 9ebc
00000010: a2be 3f3e 9c8d eebd fb17 d5bd 66aa 143d
00000020: db1e c1bd 17e4 243d 5e88 01be 2ad9 cc3c
00000030: 5104 99bd b552 db3d ffb6 2abd f23b 353d
00000040: c6e8 73bc f886 f1bd d460 aebd d7dd a93d
00000050: 7cd3 4d3d 6ecb cf3d b609 d73d 27dd bcbd
00000060: fca7 d53d 6326 123e 82d9 c3bd 1d86 f63d
00000070: 56e3 f7bc c10c 96bd b2c7 d7bd b7f6 93bc
00000080: a083 483b 542c bebd 7856 e03c 04fe f93d
00000090: bb31 06bd 443b 8dbd af47 05be 747c 5fbd
000000a0: 6aa5 dfbc 30a8 c53c 0af4 233e 556e bebd
000000b0: a6d1 3cbd 0b96 953d e1b3 d53c b998 dd3d
000000c0: 2128 a43d 1166 96bc 1d3d cf3d f696 fd3d
000000d0: 3c9b 633d b809 cfbc 54cc d4bd 6a2f f8bd
000000e0: d147 c6bd f2c5 d5bd 372a 02be 7350 30bd
000000f0: c753 043d 2ecc fc3d 2bc3 b33c c8f4 d33d
00000100: 5bef 06be 8735 18bd e213 f0bd 3770 fabd
00000110: 6793 04be c749 5dbd 6816 e0bd 6cc1 0b3e
00000120: 1956 6dbd 1589 e83d 264b c9bd ac71 0cbd
00000130: 8efe a8bc f308 27be 9c2c d43d c14b 81bd
00000140: 234a d03d f45d c5bd 7043 04be 59bb 093e
00000150: be45 ecbd 51fc 5d3d 562f f0bd 1374 8c3d
00000160: d869 f3bd 4827 293c 60b3 cd3d bf55 243e
00000170: 9438 923d 84f4 abbd 1622 5abc 4975 023e
00000180: 7119 c0bd 2850 b5bb 600e 17bd
0.008137615 -0.12538013 0.14495784 -0.019324977 0.18725064 -0.116481036 -0.104049645 0.036295317
-0.09429713 0.040256586 -0.12649676 0.025005896 -0.074715264 0.107091345 -0.041678425 0.04424662
-0.0148870405 -0.11793321 -0.08514562 0.08294266 0.050250515 0.10146223 0.10499899 -0.09221869
0.10432431 0.14272456 -0.09562971 0.12037299 -0.03025977 -0.07326651 -0.10536136 -0.018061979
0.0030596033 -0.09285799 0.027384982 0.12206653 -0.03276227 -0.0689607 -0.13015626 -0.054562047
-0.027300555 0.02412805 0.16011062 -0.09298388 -0.046098374 0.07304009 0.02608675 0.10820145
0.080154665 -0.018359216 0.10119078 0.12382309 0.055567965 -0.025273189 -0.10390535 -0.121184185
-0.09681667 -0.10438146 -0.12711416 -0.043045472 0.03230646 0.12343632 0.02194365 0.10349423
-0.13177244 -0.037160423 -0.11722542 -0.122284345 -0.12946855 -0.054025438 -0.10941774 0.13648003
-0.057943437 0.11354271 -0.098287866 -0.034288093 -0.020629194 -0.16312008 0.10360071 -0.06313277
0.101703905 -0.09637061 -0.1291635 0.13450374 -0.1153674 0.054195706 -0.117277786 0.06858077
-0.118854225 0.010324307 0.10043979 0.16048335 0.07139698 -0.08396247 -0.013313791 0.12740053
-0.093798526 -0.005533237 -0.036878943

hidden.0.weight f4 [99, 99]
00000000: c6a6 02be 7aa9 70bd d8e7 253b 1576 ebbd
00000010: 9a8e ab3d 3965 79bc dc5e bd3b 2d01 9c3d
00000020: e93c 9cbc 8e15 6c3d d6fb 163b fb7b 473d
00000030: 1c21 3e3d 8da6 d53c 4fcc 753d 9c2d 0a3e
00000040: 1eb2 cfbd 1e05 023d f09c 58bd 2dde e33b
00000050: 740a bbbd af97 fe3c 3a17 3a3b de57 e23d
00000060: 5f8b be3d 34dc 803d 80c5 89bd bbc9 22bd
00000070: 17c6 abbd abca 6ebd 2a9f eebd 9113 f0bc
00000080: 73ad f9bd cedd 693d b02b 993c 66f9 ae3d
00000090: b73f 6b3d 83e4 9e3d d18a 733d cc9d cb3d
000000a0: 29c2 0f3e 4263 0a3e 6087 46bd 02a6 ec39
000000b0: b1a0 a23d 2a27 e13c fd1e 75bd 909f 38bc
000000c0: 5811 83bd 23c6 a5bd 2739 cfbd 6cf8 d63d
000000d0: 3cb0 dcbc 7d21 203d c1d7 ebbd bab8 e1bc
000000e0: ba1c 553c 5526 d33b 81f6 2d3d 052b 363d
000000f0: 67bb 2f3e 3941 043e 98b4 6c3d 8147 093e
00000100: 79d4 66bd 5e71 4cbd ba8b 9c3d dff0 a93d
00000110: 7463 7b3d 42db 113d 5aa8 063b f658 e23d
00000120: af81 f53c 85f3 99bd 7e70 cc3b 5226 073d
00000130: 9292 b1bd fd15 c2bc 308e cd3d d15f 56bd
00000140: 51f1 ffbc bd21 d2bc 1dcb 8cbc 6bd6 e33c
00000150: 7a61 e83d 7806 78bd a5a3 24bd 0059 833c
00000160: ff1f 86bd 0347 543d 93bf 543c 5980 ab3d
00000170: 2610 b6bd 6cf5 853d bb86 3ebd caab 413d
00000180: 8119 f33d 8fe4 e13d 067c 38bd a708 2a3d
00000190: 5736 413c eb11 44bd f71e 9c3d 4924 603c
000001a0: 27f3 0b3d fc57 8e3d 96e9 5d3d ab1e fa3d
000001b0: f725 38bd 9440 903d bdfc e4bd c1f8 e8bc
000001c0: be3c ecbd 1a63 7f3d c36a f9bc 7fb3 0dbd
000001d0: b3f5 703c d9b6 b8bd b214 963c 5aee 4a3c
000001e0: 7035 043d fefc 14be 5426 19bd 0274 63bd
000001f0: 12d8 553c 0526 83bd ec0e b3bd 5a1a a6bd
00000200: 656c 6d3b 976e 633d 9972 c63d 4838 84bd
00000210: 8e83 cabd 30ad 3dbd b15b 85bd 7a0c 113e
00000220: bea6 b83c bd71 7a3d a820 3dbd da3a f33d
00000230: c6e8 bbbd 1cfb 383d 742f 8d3d 9cc7 8eba
00000240: b24e 78bd 846a 88bd 842f 143c 7f63 0bbe
00000250: 0dc5 dfbc 68ba 6d3d 8bd2 5b3d 9ec0 e03c
00000260: 5817 523d 1c8b aebd f9fc 113d 3fc8 953c
00000270: c0d8 43bd 7518 dabb 8c98 4b3d bfb0 6ebd
00000280: 32c7 bd3c 3379 4ebc b750 d13d c1af a2bc
00000290: 86aa 863c f370 da3b 0428 cabd 8384 8dbd
000002a0: ca38 3dbd fde1 cebd 7434 afbd 9065 12bc
000002b0: 4ac6 2f3b ae67 eebd 642c a1bc ae63 3a3d
000002c0: b4ad cabd c957 c33c 58bd 7ebd 0552 8cbc
000002d0: a8f2 f9bd 7491 cdbd 64a7 9cbc 56e8 d23d
000002e0: 02ca 5abc 2e7d 813d 1251 9dbd 92f5 393b
000002f0: 1d26 88bd df85 37bd ad84 fa3c 1b28 a03d
00000300: 365c 113c a088 c8bd 2086 223d 6205 ea3b
00000310: 0b31 7d3d 0c16 4cbc 0277 7ebd 770b e13d
00000320: fba6 95bd 8b73 363c d932 e0bd b589 713d
00000330: e657 52bd 374c 5e3d 9556 383d ea6f ebbd
00000340: e3e0 d43d 6da2 cf3d 5bad 78bd af88 adbd
00000350: a7e7 1f3c 147a 113e fb3d 63bc 88c6 8abd
00000360: 8b72 023d 3977 5bbb 6b08 63bd 5d5b 5a3d
00000370: eb1a cc3d ed3d 5a3d e44d 62bd fcd0 013c
00000380: ee1f 70bc 7d02 ab3c 4528 af3c 2a91 95bd
00000390: ed02 9bbd 3228 85bd 66f9 ba3d 4556 33bd
000003a0: 585b 733d d4ae 013e 4785 95bd 8ed4 0abe
000003b0: a7d5 94bd 66fb d43c b138 043a 8b1a c73d
000003c0: 9812 5d3c 77dd b43b ad3a 25bc 659c 87bd
000003d0: 3be6 46bc ff49 4b3d 10ec d13d 03d2 9abc
000003e0: 534e acbd c0be bebd edaa 173d 542b 4bbd
000003f0: 3ddb e2bd b42f 26bd 15d1 cfbd 6e1a 15bd
-0.12758932 -0.058755375 0.0025315192 -0.11497132 0.083768085 -0.015221887 0.0057791304 0.07617412
-0.019072013 0.057637744 0.002303829 0.04870222 0.046418294 0.026080394 0.060009297 0.13493961
-0.10141395 0.03174316 -0.052884042 0.0069539757 -0.09132853 0.031078188 0.0028395192 0.110519156
0.09303927 0.062920004 -0.06727123 -0.039743166 -0.08387392 -0.058298748 -0.11651452 -0.029306205
-0.12191286 0.057096295 0.01869759 0.08543663 0.05743381 0.07758429 0.059458558 0.09942207
0.1403891 0.13514426 -0.048468947 0.00045137113 0.07940806 0.027484495 -0.059844006 -0.011268511
-0.063997924 -0.08094432 -0.10118323 0.104966015 -0.026939504 0.039094437 -0.11515761 -0.027553905
0.013007337 0.0064437785 0.042471413 0.04447462 0.17161332 0.12915505 0.057789415 0.13406183
-0.056354973 -0.049912803 0.07643838 0.08297896 0.061374143 0.03560949 0.0020547123 0.11052124
0.029969065 -0.07517151 0.006238996 0.03299553 -0.08670534 -0.023692125 0.10036886 -0.05233747
-0.031242998 -0.025650853 -0.017186696 0.027812203 0.11346717 -0.060553044 -0.040195126 0.01603365
-0.065490715 0.051825535 0.012985128 0.0837409 -0.08889799 0.06540951 -0.046515208 0.04728297
0.11870099 0.11029922 -0.045040153 0.041512158 0.011792741 -0.04786865 0.076230936 0.013680526
0.034167435 0.069503754 0.054177843 0.12212881 -0.04495808 0.07043567 -0.111810185 -0.028438928
-0.11535023 0.06235037 -0.030446416 -0.03459501 0.014707017 -0.090192504 0.018320415 0.012385929
0.032277524 -0.14549634 -0.03739007 -0.055530556 0.013052003 -0.06403736 -0.087430805 -0.08110495
0.0036227938 0.05552539 0.096898265 -0.06456047 -0.09888373 -0.046307743 -0.065116294 0.14164916
0.022540446 0.061143626 -0.04617372 0.118764594 -0.091752574 0.04516135 0.068938166 -0.0010893228
-0.060621925 -0.06660941 0.009044532 -0.13612173 -0.02731564 0.0580391 0.053667586 0.027435597
0.051291794 -0.08522627 0.035641644 0.018283961 -0.04781413 -0.0066557475 0.049706027 -0.058274027
0.023166273 -0.012602138 0.10220473 -0.019859197 0.016438734 0.0066662966 -0.098709136 -0.0691004
-0.046196736 -0.101016976 -0.085549265 -0.008935347 0.002682107 -0.11640869 -0.019674487 0.04550522
-0.098964125 0.02384557 -0.06219229 -0.017128954 -0.12204486 -0.100375086 -0.019122787 0.10298221
-0.0133538265 0.06322704 -0.076814786 0.002837513 -0.066478945 -0.044805404 0.030580843 0.078201495
0.008872082 -0.09791684 0.039678693 0.007141755 0.06181435 -0.012456428 -0.062125213 0.10988515
-0.073072396 0.011135946 -0.109471984 0.05896922 -0.051353358 0.054271903 0.045004446 -0.11495955
0.10394456 0.10138402 -0.0607122 -0.08473336 0.00975982 0.14206725 -0.013869758 -0.06776148
0.031847518 -0.003348781 -0.05542795 0.053309787 0.09966072 0.053281713 -0.055250064 0.007923361
-0.01465605 0.02087521 0.021381507 -0.073030785 -0.075689174 -0.06501807 0.091296 -0.043783445
0.059413284 0.12664348 -0.07300811 -0.13557646 -0.072673135 0.025998782 0.0005043848 0.097218595
0.013493203 0.0055195647 -0.01008479 -0.06621627 -0.012139852 0.049631115 0.102501035 -0.01889897
-0.08413377 -0.093137264 0.037028242 -0.049601868 -0.11076973 -0.040572837 -0.10147301 -0.03640216

hidden.0.bias f4 [99]
00000000: 1005 20bd bd5a ba3d 8428 b8bd 0931 71bd
00000010: 1da1 693d 0a8a 95bd 6b0a 72bd 7ca7 55bd
00000020: 68a6 7cbd cce8 333d 8da2 cc3d 4977 4a3d
00000030: a297 96bd 174c 333d e008 c43d 13c7 08bc
00000040: 694f 4d3d 195e 4e3d d29e 18bd 6547 823a
00000050: 4a8a 98bd e910 b33d 795b 38bd 7e50 82bd
00000060: 32ac 29bd 6ff4 e93c 5bdc d8bd 1a04 ef3c
00000070: 08cd 2bbc b3bf 953d 83e6 043d d530 8dbd
00000080: fbc0 8fbd 6484 a9bd 6ac5 a13c 45f2 f1bd
00000090: b816 073d 91c9 863c 0dfe 783d 9fef 8ebd
000000a0: 0428 953d 61e4 523d c504 b33a 0be4 c4bd
000000b0: 9b78 893d 959a ab3c f7cd b9bc f0de 05bc
000000c0: 0375 02bd c2e6 193d 9744 633d ac83 a83d
000000d0: 0831 52bd bc9e acbc 6caf 7dbc fa21 4f3d
000000e0: ef31 973d 5fe7 8f3d c060 15bd 97d6 0a3d
000000f0: 2129 713d 61c5 dc3d ce1c 8abd 116e 573d
00000100: 8295 70bd 9b62 083d 65d6 a6bd 9e67 bc3d
00000110: e5ae c03c 5c90 7cbd f5fe c6bd 2275 4c3c
00000120: 0b1a c03d 6fff ee39 4728 92bd bacb 243d
00000130: c7f4 99bc 1aa7 493d 1d8c 17bd 390a eb3d
00000140: f75c 033d bf63 c5bd 371d 50bd 5a79 61bd
00000150: b48c 21bd d8cf 9bbc f11b 203c 5428 76bd
00000160: 26a9 c43c e0b2 a63d c928 d9bc a423 bebd
00000170: 3052 08bd 0467 62bd c35b 5fbc c6cd 663d
00000180: 6391 bc3d a83d aebd 8bba ff3c
-0.039067328 0.09099338 -0.08992103 -0.058884654 0.057038415 -0.073017195 -0.059091967 -0.05216168
-0.061682135 0.043923184 0.099919416 0.049430165 -0.073531404 0.043773737 0.09572005 -0.008348244
0.05012456 0.050382707 -0.037260838 0.000993949 -0.074482515 0.0874346 -0.04500911 -0.06363009
-0.041423984 0.028558938 -0.105889045 0.02917676 -0.010485895 0.07311954 0.032446396 -0.068940796
-0.0701923 -0.08277205 0.019747455 -0.11813787 0.03298065 0.016453536 0.060789157 -0.06979298
0.07283023 0.05148733 0.0013658038 -0.09613808 0.06712457 0.020947734 -0.02268122 -0.008170828
-0.031849872 0.037573583 0.055485334 0.082282394 -0.05131629 -0.021071784 -0.015483718 0.050569512
0.07382571 0.070265524 -0.03646922 0.033896055 0.058877114 0.107798345 -0.06743775 0.052595202
-0.05873633 0.033297163 -0.08146361 0.09199451 0.023520896 -0.06166111 -0.09716598 0.0124790985
0.09379967 0.0004558521 -0.071365885 0.04023335 -0.018793477 0.049231626 -0.036998857 0.11476559
0.03207108 -0.09638166 -0.05080911 -0.05504737 -0.039440826 -0.019020006 0.009772287 -0.060097054
0.024006438 0.081395864 -0.026508706 -0.09284142 -0.033281505 -0.055274025 -0.013632718 0.056348585
0.09207418 -0.08507854 0.03121688

hidden.1.weight f4 [99, 99]
00000000: 7bf4 8cbc 958c 91bc 6ba8 773d 6d8c 1e3e
00000010: 0329 a8bd baf4 8d3d 0c52 da3d b83e e13d
00000020: a74d 8cbd e8fe b83b e713 ee3d fa15 64bd
00000030: 3168 f7bd 17c6 6abd beb6 55bd f211 2abe
00000040: b76a 4cbd a1aa 9fbc 43da 72b8 91ec 583d
00000050: 75d6 cebd a217 8c3d 896c d63d a90c e8bb
00000060: 8d06 343d 50b6 443d 6a7b e83d 8067 753d
00000070: 6aed 28bd 72d1 0dbd e9d9 95bd 7038 1d3e
00000080: 5bbd ac3d 3152 1d3e da5d 523c 1aa9 37bc
00000090: 8c0c fb3c 83fa aebd 7f88 2ebd f519 81bd
000000a0: d574 cb3b fc03 b93d 5793 dfbd 37b7 3e3d
000000b0: 89b1 7a3d b2cf 483d 9deb d03a 46be b13d
000000c0: 7e89 e2bd e841 e2bd 321f bc3d d4e4 093e
000000d0: 9608 8fbc a806 95bb 9e77 6cbd d681 86bc
000000e0: 00c2 8a3b ae2d d0bd 55c1 a8bd 7689 49bc
000000f0: ccde a8bd fb04 603d c0f1 81bd dd87 1e3d
00000100: 2c8b 0a3d c02e 1c3c fbfb a43d 9a79 20be
00000110: e009 9dbd 7988 61bc fab3 1f3e fac4 1a3d
00000120: c099 163e 5792 b9bd e60d bbbd 502e 263d
00000130: 886b 653d 32ff 973b d677 8e3d 8772 6b3c
00000140: ffe2 c8bd 5c1b 053e 75a6 593d 6977 1f3d
00000150: c86b 9f3d f1f3 c9bd 8333 2cbd 05f4 c33d
00000160: 5dee 35bd a2b9 5c3d eb7d f83d bf99 89bd
00000170: 6446 e03d f86d f6bd 21b5 a5bd ab6a b4bc
00000180: 41b9 d5bd fbb5 173d 4f3f 083b e8d3 a2bd
00000190: 39a3 013e 41d5 b83d 924f e8bd 0c2b 3a3c
000001a0: 5a83 fb3d 9f80 d8bd c340 8ebd 7d84 ccbc
000001b0: 9288 7fbc eec8 ddbd 44a6 4e3d b559 cbba
000001c0: 6c0e d63b 363b aabd 1b1f 333d 1bf4 a43d
000001d0: aaac 83bd e4c6 01bc 047f 15be f167 e0bd
000001e0: 8b9e 34be 4c02 943d 07f0 26bd abf0 fe3d
000001f0: f9c5 543d 2552 cabd 2c1c 2bbe cb1b 633d
00000200: 47ef 2bbe 6cb0 03be af47 e9bd 0ae5 ba3b
00000210: 7b3f 253d fd0d 453d b62b 133e 8069 62bd
00000220: 5751 a33d 4541 68ba 8321 9e3d 31c2 86bc
00000230: 8462 fcbd bb0c 31bd d70e 843c e32d a6bc
00000240: 6033 1b3e 3eb6 553d a147 64bc 2187 cf3c
00000250: 0bea 7abd 3f3d 7e3d ac04 7abd a721 d1bd
00000260: bb8a 8abd d9e9 2d3e ebf8 9c3d e468 debd
00000270: 28fd 743d 9081 ee3b 4da1 6d3d 70a9 85bd
00000280: 449f 02be 057a d23d ce42 6cbd 068d 0c3d
00000290: 79fa 913c fa3b c3bc e339 823d df94 073d
000002a0: dfea bdbc ea64 e6bd a24c 20be f021 e6bd
000002b0: e07d e33d 3e2a 2abd 3534 bc3d 3e90 8ebd
000002c0: 495f 6abc 376c 9c3d 1a4b 23be bcf3 0abe
000002d0: 461f 873d f54e 8f3d 2e1c 1bbd c033 0a3c
000002e0: 30c2 d23d d2f9 9cbd c89b 4bbd 397d 2abd
000002f0: 2cd3 10bc c720 f23c 3615 a0bd 6648 cdbd
00000300: 6785 df3c 4953 c23c bce8 4fbd fab4 f63c
00000310: a43a e33d f388 6dbd d48a fc3d 191a d63d
00000320: 1746 0c3d 8deb babc 0132 de3b b956 973d
00000330: 490f 0fbc cf3b 40bd 113f bd3d 0493 073e
00000340: 08c3 acbb 9556 e0bd 777c dbbc 17fc 4dbd
00000350: 23c6 703d 06f4 06bd 19f2 043e 97b2 843d
00000360: f508 933d 3e7e 08be b681 80bd 0d51 a3bd
00000370: 2a55 10bd b352 94bc 45c2 ae3d 74af 113d
00000380: 9ecd c63c 446c 82bc 2fe1 e43c 1fd8 893b
00000390: 2698 4e3d 26ec cbbc 29cd c5bd 75c2 43bd
000003a0: 33fb c13c 8d28 c8bd 89ef ccbc 30e2 31bd
000003b0: c5e5 0fbd 0441 ebbc 7f70 d0bd d270 803c
000003c0: ec19 a03d 2654 7cbd 3097 1cbd 6d6c c53c
000003d0: 5c7b b6bc 067b 723b e461 eebc 1479 9cbd
000003e0: 3829 ccbd 7a1d f03b cf79 273c 83a4 ce3d
000003f0: 429c 6abc 5c42 a03c 9086 e03d bf43 c53d
-0.017206421 -0.01776723 0.06046335 0.15483256 -0.08210947 0.069314435 0.106601804 0.10998291
-0.068507485 0.0056456216 0.1162489 -0.05568502 -0.1208042 -0.05731782 -0.05217623 -0.16608408
-0.04990646 -0.019490542 -5.790057e-05 0.052959982 -0.10099498 0.06840445 0.1046992 -0.0070815873
0.04395156 0.04802543 0.11351664 0.05991316 -0.04124204 -0.03462357 -0.07316954 0.1535356
0.08434554 0.15363385 0.012839759 -0.011209751 0.030645631 -0.08543875 -0.04261064 -0.06303779
0.006208996 0.09033963 -0.10916775 0.046561446 0.061204467 0.0490262 0.0015939359 0.0867887
-0.11061381 -0.11047727 0.091856375 0.13466197 -0.017460149 -0.0045479126 -0.057731263 -0.016419332
0.0042345524 -0.10164963 -0.0824 -0.01230084 -0.0824562 0.05469225 -0.06344938 0.038703788
0.03382413 0.00953263 0.08055874 -0.15671387 -0.07667899 -0.013765448 0.15596 0.037785508
0.14707088 -0.09061115 -0.0913351 0.04057151 0.056010753 0.004638576 0.06956451 0.014370567
-0.09808921 0.12998718 0.05313726 0.038932238 0.077842295 -0.09860981 -0.042041313 0.095680274
-0.044416774 0.05388797 0.12133392 -0.06718778 0.10950926 -0.120326936 -0.08091188 -0.02202352
-0.10435725 0.037038784 0.0020789688 -0.07950574 0.12659921 0.0902505 -0.11343302 0.011362802
0.12280913 -0.105714075 -0.06945946 -0.02496552 -0.015596526 -0.1082934 0.050451532 -0.0015514406
0.006532481 -0.08312075 0.043730836 0.08054372 -0.064294174 -0.007920954 -0.14599234 -0.10957325
-0.17638604 0.072270006 -0.04075625 0.124482475 0.051946614 -0.09878949 -0.16709965 0.055446427
-0.16790496 -0.12860268 -0.11390626 0.005703573 0.040343743 0.048109043 0.14372143 -0.055276394
0.07974499 -0.00088598236 0.077212356 -0.01645002 -0.12323478 -0.04322503 0.016120357 -0.020285552
0.15156317 0.052175753 -0.013933093 0.02533299 -0.061258357 0.062070128 -0.06103961 -0.10211497
-0.06764742 0.16983737 0.07664665 -0.1085985 0.05981174 0.0072786286 0.058015157 -0.06526458
-0.12756068 0.1027718 -0.057680897 0.034314178 0.01781963 -0.02383231 0.06358697 0.03310096
-0.023183284 -0.112497166 -0.15654233 -0.11236942 0.11107993 -0.04154419 0.09189645 -0.06961106
-0.014304944 0.07637828 -0.15946618 -0.1356954 0.06597762 0.06997482 -0.03786867 0.00843519
0.102909446 -0.07664837 -0.04970911 -0.041623328 -0.00883941 0.029556645 -0.07816546 -0.100235745
0.02728529 0.023721354 -0.050759062 0.030115593 0.11095169 -0.057991933 0.12331167 0.104541965
0.03424653 -0.022817397 0.0067808633 0.07389588 -0.008731672 -0.046932038 0.092405446 0.13239676
-0.005272273 -0.10954014 -0.026792748 -0.05028924 0.058782708 -0.032947563 0.12982978 0.06479376
0.07179443 -0.13329408 -0.062747404 -0.079744436 -0.03523747 -0.01810584 0.08533148 0.035567716
0.024267968 -0.015920766 0.027939407 0.004206672 0.05043807 -0.024892878 -0.09658272 -0.04779287
0.023679351 -0.097733594 -0.025016563 -0.0434286 -0.035131235 -0.028717525 -0.10177707 0.015678797
0.07817444 -0.061603688 -0.03823012 0.024099553 -0.02227562 0.0036999597 -0.029099412 -0.07640281
-0.09968799 0.0073277326 0.0102219125 0.10089972 -0.014319481 0.019562893 0.10963166 0.09632062

hidden.1.bias f4 [99]
00000000: 26ab bbbd 82a9 433d 5566 68bd 263d 333d
00000010: bb19 f93c 21e0 90bd 2035 02bc c9de e7bb
00000020: b321 20bd 76d7 c4bd f81f a6bc 2cee 14ba
00000030: 050c 97bd a5d8 693d f620 17bd 9f97 f6bb
00000040: a486 82bd c8f7 523d e843 97bc 2b02 93bd
00000050: 81c0 90bd 16e6 683d 78c2 cfbc dd33 afbd
00000060: a34c 69bd 46bf 6bbd 3a2e 8c3d 7bf6 afbd
00000070: 7604 2fbd 7ee4 d9bb c6d4 c43d 00d8 8f3d
00000080: a5a0 d33d f327 c8bd 6094 3e3d dcb1 8abd
00000090: 82eb 0c3d 759d c4bd 617f c5bb 2b3c d9bc
000000a0: d3d5 d6bd 677d d43d 2665 59bc 040f 70bd
000000b0: f518 6cbd 43ae 37bd 8c80 d0bd 94f0 b13d
000000c0: 3580 673b 164c b3bc 374b f0bb b0da ad3d
000000d0: 2387 81bd eb72 833d 072a a3bd e79f 33bd
000000e0: dad7 073d 39cc 1d3d def4 093d 06cf 7ebd
000000f0: c3f8 aabc 1502 283c 1a8e 943c b121 ec3d
00000100: 188b 863d 97c5 d9bc e048 0d3d 311f b1bc
00000110: 2980 c7bd d36e 453d 7b7a e53b b009 293d
00000120: c5a7 92bd b81e 163c 2eca 89bd e7b8 653d
00000130: 2f70 763d 27f0 963a f739 ab3d 9f87 29bd
00000140: 8d34 693d 34e3 cb3d c5d8 5b3d dc12 e3bd
00000150: f946 273d 3722 abbd e296 febd 7483 92bd
00000160: f1f8 82bc d321 0bbd e00b 37bd 936e 7d3b
00000170: 1140 913d 9d0c f13c 4cc9 c83c 853e bcbd
00000180: 237b c4bd e4b0 273d 3d85 23bd
-0.09163503 0.047769077 -0.056738216 0.043759488 0.030407777 -0.07073999 -0.007947236 -0.0070761186
-0.039094638 -0.096114084 -0.020278916 -0.00056812423 -0.073753394 0.057091374 -0.03689667 -0.007525399
-0.06373337 0.051505834 -0.018464997 -0.07178148 -0.07067967 0.056860052 -0.025361285 -0.08554814
-0.056957852 -0.05755546 0.068447545 -0.08591934 -0.042728864 -0.006649553 0.09610896 0.070236206
0.10333375 -0.09773245 0.04652822 -0.06772205 0.034404285 -0.09600345 -0.0060271476 -0.026517948
-0.104900025 0.10375481 -0.013268745 -0.05860807 -0.05764099 -0.044843923 -0.10180768 0.08688465
0.003532422 -0.021886867 -0.007333185 0.08488977 -0.063246034 0.06418403 -0.079670005 -0.043853667
0.033164836 0.03852484 0.03368079 -0.06220915 -0.020870572 0.010254403 0.018134166 0.115298636
0.06569499 -0.026583476 0.034493327 -0.021621319 -0.097412415 0.048201393 0.007003126 0.041269004
-0.07160906 0.009162597 -0.06728016 0.05608454 0.06016558 0.0011515663 0.08360665 -0.041389104
0.056934882 0.09955445 0.053673524 -0.110875815 0.04083917 -0.08356135 -0.12431122 -0.07153979
-0.015987845 -0.033967804 -0.04468906 0.0038670644 0.07092298 0.02942496 0.024510048 -0.09191612
-0.09593799 0.04094018 -0.039921988

hidden.2.weight f4 [99, 99]
00000000: 759b 813d c61a 033e ae3d bd3d fb19 8e3d
00000010: a165 a3bc 98a6 313a e187 5cbd 9a18 dcbc
00000020: f317 12be 46fc e13d be09 443d 6465 523d
00000030: 3044 3dbd 692d 9ebc 320c a93d 7575 843c
00000040: e0f7 10be 4da6 3a3d acc0 943d 72fe 44bd
00000050: 3101 d1bb 39e1 02be 1e52 a4bd d0b9 80bd
00000060: 30f7 583d 8b37 84bb 1969 8cbc 3782 66bc
00000070: 3ead 143d c79c d8bd aaf7 73bd 631f 063b
00000080: 65dc 9cbc 3510 773d 6003 6c3d 62fa 513e
00000090: 64df e8bb b5bb c3bd be20 06bd 51f9 06be
000000a0: e912 bbbc efdc aebd ead1 fe3d cce2 463d
000000b0: 15dc f0bc 73b5 6a3c 10c2 ad3d fe51 4abd
000000c0: 77a5 8a3d 6a86 cb3d e179 98bd 0a02 20bd
000000d0: 542e 3d3d e17e 9bbd 8e3b c03d 7399 c5bd
000000e0: bb40 c1bc 21aa b33d 12b7 ac3d 7bf2 f8bd
000000f0: 599f 27bd c6df 4bbe 2d42 4f3c 4fd6 2f3d
00000100: 1fd2 44bd 2b43 9b3d 75b0 153e 0ee5 e5bc
00000110: 8a4d 423e 1f30 9d3d 2c2b 103d ff75 593d
00000120: 373c 02bd bda7 003c f661 4e3d 60d4 89bd
00000130: 6926 edbd 01f3 5bbd 7e09 c6bd 9849 7f3d
00000140: 07f2 a4bd 1e0e 16be 55f0 acbd a2d1 c93c
00000150: 617c 233d 3770 093c 6ad5 14bc 7733 9b3d
00000160: 0f17 1abd 5648 22bc b7e0 a7bd 3db4 08be
00000170: aabd f43d 142c 743d 69da d2bd ee4f dbbd
00000180: cebf f53c c137 98bc 1500 5c3e 2b44 8e3d
00000190: 69dc afbd 32d3 8c3d 8bc5 91bc 9e90 cebd
000001a0: cc3e c53c 07aa cdba b2cd 933d 1f35 003e
000001b0: 83a0 1fbd 5fd9 67bd aec4 eebd cd52 1d3d
000001c0: fdbe 833c 10af 933d 8da5 d3bc 58e6 1abd
000001d0: cb51 70bd b759 0e3e 4cdb 8d3c 5a49 0ebd
000001e0: 98dc ad3d 6181 99bc 5602 2f3e a494 cdbc
000001f0: 1aa9 e73d 1e88 31bc 50aa 013e a978 e73c
00000200: 947d 973a 6042 503d c1db f93d 3aee 233d
00000210: 1acf 9bbd 052b d3bd 14dc 293d d3d1 8dbd
00000220: 4983 263d 4d37 05be 803e 963d fb94 52bc
00000230: 9edf c73d e64b 98bd e198 98bc cf71 1b3e
00000240: 41b4 3d3d 8f91 823d 8687 d53d 23f4 a8bd
00000250: 0e7b f43c a295 a9bb bc36 32be 8bf3 ecbd
00000260: 5f6a b0bd a521 babd b25a d63c 22bc 833d
00000270: 15fd debd 0f76 03bd 6471 2e3e 574f 1e3e
00000280: 0600 ec39 e2a8 2d3d 538d 34bd 4963 eabb
00000290: ce8c 453c 5159 ea3c 995e 8fbd 4bae 61bd
000002a0: d197 d9bd 3b33 ca3c 4724 3bbc 21c8 abbb
000002b0: 55fc a23c fb39 e3bd 100b fbbc adaf 2bbe
000002c0: 6daa 95bd feb3 503d 84fe c2b6 8e6a dbbd
000002d0: da13 7e3d 609f d1bd 3d1f 193e b865 673d
000002e0: ab10 b3bd 55f5 d7bd abb4 8f3c 39a3 a3bd
000002f0: ade6 b5bd 8144 4f3d fc63 69bd c840 f1bd
00000300: 0821 b83d a67f 1f3d 7521 b23d 296e 263d
00000310: be15 203c 5144 7dbd 44b8 88bd 1084 11bd
00000320: 112e 8cbc c6a1 4c3d 66f9 8cbd 47ee f3bc
00000330: a8b0 b8bd 209e e13c ed7d e53d 13e7 b9bc
00000340: 2edf 0d3e e033 41bd 5416 0abe f4e9 acbc
00000350: 0ae5 f6bd fc30 f63d 3f11 a2bd e049 9ebd
00000360: ca0e 933d f555 723b e571 bfbc 53c6 ce3d
00000370: 9139 b2bd bba9 633d 3634 133c 1a68 7fbd
00000380: 9793 1cbe d5e4 4a3d 31c8 cb3c 6b35 f63a
00000390: 1862 87bd d339 4fbd f008 f03a e593 9e3d
000003a0: 52f6 e9bc a884 d13c 7b7c ecbd 5786 74bc
000003b0: 6585 1e3d 8385 0b3e 5629 7abd 0eab 99bc
000003c0: f15a c53d ed3c c73d cd8a 31bd cf1a 1bbe
000003d0: 4aca e8ba b887 493d da7f 3b3a e5a4 1d3d
000003e0: a8d4 263e 222d 56bd 4bb8 ce3d fc74 ea3c
000003f0: b466 26bd b956 783d 4e96 bd3d c414 633d
0.06328479 0.12803182 0.0924028 0.06938549 -0.019945921 0.00067768386 -0.05384052 -0.0268672
-0.14266948 0.110344455 0.047860853 0.051366225 -0.046207607 -0.019308763 0.08254279 0.01616929
-0.14157057 0.045568753 0.07263312 -0.04809422 -0.006378316 -0.12781228 -0.08023475 -0.06285441
0.05297011 -0.0040349416 -0.017139958 -0.014069132 0.03629803 -0.10576778 -0.059562363 0.0020465485
-0.019148061 0.06031819 0.057620406 0.2050567 -0.0071067084 -0.09557287 -0.03274607 -0.13181044
-0.022836166 -0.085382335 0.12442382 0.048556134 -0.029401818 0.014325487 0.0848428 -0.0493946
0.06769841 0.09937747 -0.074451216 -0.039064445 0.04618676 -0.075925596 0.09386359 -0.09648409
-0.023590436 0.08772684 0.084333554 -0.121556245 -0.04092345 -0.19909582 0.012650055 0.04292899
-0.04805195 0.07581171 0.14618094 -0.028063323 0.18974891 0.07675194 0.035197422 0.053091045
-0.031795707 0.007852492 0.05038639 -0.067299604 -0.11579592 -0.053698543 -0.09669779 0.062326044
-0.080539756 -0.14653823 -0.08444277 0.024636094 0.03991354 0.0083885705 -0.009084085 0.075781755
-0.037619647 -0.009904942 -0.08197158 -0.13350005 0.11950238 0.05961235 -0.10295565 -0.10708605
0.029998686 -0.018581273 0.21484406 0.06946596 -0.08586962 0.0687622 -0.017794391 -0.10086177
0.024077795 -0.0015690931 0.07216968 0.12520264 -0.038971435 -0.056603786 -0.116586074 0.038409043
0.016082281 0.07211125 -0.025835777 -0.03781733 -0.058671754 0.13901411 0.017316483 -0.034737922
0.084893405 -0.01873845 0.17090735 -0.025095291 0.113115504 -0.0108356755 0.12662625 0.028255777
0.0011557811 0.05084455 0.12200118 0.040022112 -0.07607861 -0.1031094 0.04146965 -0.069247864
0.040652547 -0.13009377 0.0733614 -0.0128529025 0.097594485 -0.074363515 -0.018627586 0.15180133
0.04631448 0.06375419 0.1042624 -0.082496904 0.029843833 -0.0051753083 -0.17403692 -0.1156989
-0.08614039 -0.090884484 0.026166294 0.06432368 -0.10888115 -0.03209501 0.17035443 0.15459953
0.00045013445 0.042397387 -0.04408009 -0.007152949 0.012057496 0.028607043 -0.07000465 -0.05509786
-0.1062466 0.024682632 -0.011422223 -0.005242363 0.019895712 -0.11095043 -0.030644923 -0.16766234
-0.07307897 0.050952904 -5.81128e-06 -0.10713683 0.06203065 -0.102354765 0.14953323 0.05649349
-0.087434135 -0.1054484 0.017542204 -0.079901166 -0.088818885 0.05060244 -0.05698012 -0.11779934
0.08990675 0.038940094 0.08697788 0.0406324 0.009770809 -0.06183273 -0.06675771 -0.035526335
-0.01711181 0.049958967 -0.068835065 -0.029776705 -0.090180695 0.02754122 0.11205659 -0.022693193
0.13854668 -0.047168612 -0.1348508 -0.021107651 -0.120554045 0.12021062 -0.07913446 -0.07728934
0.07180555 0.0036977504 -0.023369739 0.10096421 -0.08702386 0.05558179 0.008984616 -0.06235514
-0.15290676 0.049534637 0.024875732 0.001878423 -0.06610507 -0.050592255 0.001831321 0.077430524
-0.028559837 0.02557595 -0.1154718 -0.014924607 0.038701434 0.1362515 -0.061074577 -0.018758323
0.09636486 0.097284175 -0.04334526 -0.15146945 -0.0017760482 0.049201697 0.0007152535 0.038487334
0.1629206 -0.052289136 0.10093745 0.028620236 -0.04062529 0.06062958 0.09257184 0.055439726

hidden.2.bias f4 [99]
00000000: b265 693d 4c47 88bd ec78 2d3d 4b0b 903c
00000010: 95cc e5bd e73b 923d dde9 a1bc 7253 12bd
00000020: 7733 93bd 8313 643d 99ec 663d fa7b f83d
00000030: fd71 9ebc 7990 0a3d 2488 873d 7651 a13d
00000040: 9fa3 8abd 75e5 c23c b537 ad3d 715f 943c
00000050: c753 b43d 62a9 c7bc 763c 8b3d 6c40 9b3d
00000060: 437f 85bd 7c05 993d a4c2 c93d d41c 65bb
00000070: 20e3 71bd 0f19 f83c 63ff de3c 8e3a e2bc
00000080: b150 833d 2bab 91bd b8b3 893d d83b e0bc
00000090: cd95 8cbc 5bf3 a0bc 0e72 8a3d a306 10bd
000000a0: 3d4a f53d 7d05 683d fa5c 7b3d 065c 09be
000000b0: d033 18bc 1fcc bbbd 61a2 c03d 3dbb a7bd
000000c0: 6acc 1dbd 0d72 b03d b714 353c ce8c 433d
000000d0: f5eb 18bd 2d74 6d3c 1843 a63d 842f 6d3d
000000e0: b2fe aabd d472 0ebd 6ec6 babd 6d46 8abc
000000f0: 3b61 a0bd 940c 003e 3446 df3c 8980 b23d
00000100: 6b1b 02bd 80b8 a2bd bfc3 bd3d edac 9dba
00000110: 0bd3 7eb9 beac bdbc 9a98 ae3d 912d e73d
00000120: 70b8 943d 71d3 b13d 00ad d0bd d0ae d2bd
00000130: 4f6f 91ba b626 a0bd 17c2 ccbc 0758 7b3d
00000140: 198a 223b c734 8b3d 578a a9bd d86b 173c
00000150: e413 d53d d221 bd3d cec0 e0bd 3e85 473c
00000160: c726 23bd c2d6 a83d a862 07bb 7084 4bbb
00000170: d857 153d f53d 7cbd 2c53 ef3a 2cf6 973c
00000180: baac 98ba bf66 623d 6298 febc
0.05698175 -0.06654224 0.04235165 0.01758351 -0.112206616 0.07140332 -0.019764835 -0.03572411
-0.071875505 0.05568267 0.05637798 0.12133022 -0.019341463 0.033829186 0.06617764 0.078768656
-0.067694895 0.023791054 0.08457891 0.018111916 0.08805042 -0.02437276 0.067986414 0.07580647
-0.06518414 0.07471749 0.09851578 -0.003495981 -0.059054494 0.030285386 0.027221387 -0.027615812
0.06411875 -0.07112726 0.06723732 -0.027372286 -0.017161274 -0.01964729 0.067600355 -0.03516258
0.119770505 0.05664586 0.061367966 -0.1341401 -0.009289697 -0.091697924 0.09405971 -0.0819001
-0.038525023 0.086155035 0.011052302 0.047741704 -0.0373344 0.0144930305 0.08118266 0.057906643
-0.083493605 -0.034777477 -0.09119879 -0.016879285 -0.07831045 0.12504798 0.027255155 0.087159224
-0.03176443 -0.07945347 0.09265851 -0.0012029685 -0.00024301947 -0.023153659 0.085252 0.11287988
0.07261741 0.086829074 -0.10189247 -0.10287249 -0.0011095795 -0.078198835 -0.024994893 0.061363246
0.002480155 0.06797176 -0.08278339 0.009242021 0.104041845 0.09234966 -0.109742746 0.0121777635
-0.039831903 0.08244087 -0.002065817 -0.003105428 0.036460727 -0.061582524 0.001825904 0.018550001
-0.0011648156 0.055273768 -0.031078521

hidden.3.weight f4 [99, 99]
00000000: ae84 f2bc ade5 873d 1e10 70bd 827e 9c3a
00000010: ad4c a23d 4410 b83c 76fc 3bbd 5e43 f13d
00000020: ac53 97bc 6f67 87bd 8857 2bbd 1aff bc3d
00000030: 7928 893c 26c3 92bd 99ec 133e 43f4 dc3d
00000040: d394 a2bd 8972 0bbe 6859 993b 5483 473d
00000050: 4232 e6bd db61 993d 37c6 263d d4e8 ec3c
00000060: 7814 ec3c 2bc7 c83d 7ca6 3ebe 47a2 6e3c
00000070: 9fb8 debc 19a8 4dbd c45c 81bc 3633 b73c
00000080: 0c57 583d d0fb 45bd e792 11be 15bf ab3c
00000090: 1053 21be e428 993d 4558 2d3d 63f7 913d
000000a0: e355 abbd 1471 2dbe 4854 263d 2fc4 d93d
000000b0: 8371 d03d bfb9 983d 37f3 563c 76b8 173e
000000c0: a4db 503d cd20 393d 7fa4 bcbb dbf1 c9bc
000000d0: fc16 9dbd 0f10 133c b83a d9bd 48dc c9bd
000000e0: 8622 89bd 0fb9 9cbd e506 b8bb 0929 02be
000000f0: beae a23c a25a 4dbc cb47 923d 6dd3 d5bd
00000100: da3e 9ebd 2afe c3bc d3ba 06be 3942 fbbd
00000110: 9209 11bd cc92 ba3d af9b 9b3d 974b 55bd
00000120: 4567 513d 841a 753d eab2 fcbd 2ccc 933d
00000130: a1ef 9cbd 872a e83c 83db d63d ff74 9fbd
00000140: d2f1 fbbc 2b0d 713d 716d 17be 8587 40bd
00000150: 44d9 02bd 4ef6 f93d 50c6 153d d37f 113e
00000160: 51d7 eabd fdf2 a43d b272 6c3d 9fb7 d83c
00000170: 822b 83bc 1a78 adbd decc f03d fa7f a73c
00000180: 7e41 883d d547 f33d 189d d43d 5210 babd
00000190: 6aa6 153e 7bd2 27be 6f26 af3b 4339 383c
000001a0: 366e c73d dc19 28bd 05b2 853d 8ceb a13d
000001b0: a63d 473d 83a9 eb3d 91fe 9b3b daa5 423d
000001c0: 0e6c 7d3d cb7e f9bd 3f37 afbb 9358 243e
000001d0: 3aeb fa3d 74d5 9b3d 0cd6 03be 191b 1abd
000001e0: 3acf 073e 7ec5 133e 4c25 6dbd 3116 293d
000001f0: 871d ddbd 910f 64bd 00fe 5a3d 08f9 583e
00000200: 9065 38bd 2805 273d ba0b 9f3d 54e6 6b3d
00000210: 80da e9bc 457c 88bd 7e30 cdbc 069e 883d
00000220: 726d 493c 2783 04bc d54c 913d d6c3 fa3d
00000230: 5489 8ebd 2fe0 3b3d c842 b3bd c64d b13d
00000240: f0e5 013d 027f 2dbd b53a 553d 1a03 873d
00000250: 7f51 a8bd 2570 0fbd 3dca 3ebd 970a 39bd
00000260: 8cef 19be 6850 bf3d f96a b13d a8be c13c
00000270: c681 203e 198d 2cbd 893e c03d 0bef 9cbc
00000280: 475b 93bc a735 4cbd 2559 07bd de56 e93d
00000290: 0925 923d 44ea 58be 66ed 18be 831a 03be
000002a0: 289e f63c 8536 bf3c 35fa a13d f757 b3bc
000002b0: 65ba 86bc 723d 7cbd 3e1c 10bd f750 c4bc
000002c0: bd10 1cbe 1647 aabb b6ce 7fbd cdf0 d7bd
000002d0: 1637 d2bd eb37 223e fb49 60bd efea 83bc
000002e0: a920 3ebc 6fd0 563d 1cfd 473b 8ffd 0a3e
000002f0: 8712 5abd 81d0 a73c e1fb 90bc 7851 33bc
00000300: db2d 763d ce2f bd3b 5ad6 91bd ed7a a13d
00000310: e1be 8e3c 653b 4d3c 5ea0 e1bc 2773 e03d
00000320: d748 a63c 7491 e8bb db83 b33d 9d41 bdbc
00000330: 1053 9ebd da4c 683d 7482 123d 6679 cc3a
00000340: 55d4 14bd c924 7c3d b256 de3c 0f84 f63d
00000350: 2aae 72bc d667 c0bd dd39 d93d c617 46bd
00000360: 8183 03be e4ea 59bc d817 4bbd 38b8 c0bd
00000370: a4e5 d2bd 03a8 283e a75a 09bd de48 e53c
00000380: 1717 12be 3b51 95bc b742 f0bc ecea b33c
00000390: 26cc 6abd 3519 fc3d d0de 553d 78bd e9bc
000003a0: 586d ea39 c753 29be 66de 3ebe 30b7 3e3d
000003b0: b127 663d 6e27 c83d 230c 1fbe f31c b1bc
000003c0: 49fe b53d 652d b5bd 34bf c7bc 6400 183d
000003d0: edf6 69bc 1e11 6cbd a259 42bd fae0 26be
000003e0: 4d64 87bd c9d1 bd3c 15d6 a4bc c509 ecbd
000003f0: cdd5 d0bd 6626 52bd 268a 18bd 10e6 26be
-0.029604282 0.06635604 -0.05860912 0.0011939558 0.07924781 0.022468694 -0.045895062 0.117804274
-0.018472515 -0.06611525 -0.041831523 0.09228344 0.016742932 -0.07166128 0.14445724 0.10788777
-0.07938542 -0.1361791 0.0046798475 0.04870923 -0.11240055 0.074893676 0.040716376 0.028919615
0.028818354 0.09803613 -0.18618196 0.014565057 -0.027187644 -0.05020914 -0.015791304 0.022363286
0.05281739 -0.04833585 -0.14216195 0.020965138 -0.15754342 0.074785024 0.04232051 0.071272634
-0.08365991 -0.16937667 0.04060772 0.10633122 0.10177901 0.07457303 0.01311951 0.1481646
0.050990716 0.045197297 -0.005756914 -0.024651458 -0.076703995 0.008975997 -0.10606903 -0.098564684
-0.06696038 -0.076524846 -0.0056160563 -0.12710966 0.019858714 -0.012533816 0.071426 -0.10440717
-0.07726832 -0.023924906 -0.13157205 -0.1226849 -0.035409518 0.091100305 0.07598054 -0.05207404
0.051123876 0.05983974 -0.12338813 0.07216677 -0.07662893 0.028340591 0.10491087 -0.07785987
-0.030754957 0.05885045 -0.14787842 -0.04700424 -0.031945482 0.12205182 0.03656608 0.14208917
-0.114668496 0.08054159 0.05772657 0.026454745 -0.016011957 -0.08470173 0.11757825 0.020446766
0.06653117 0.11878935 0.10381526 -0.09085144 0.14614263 -0.16388886 0.005345158 0.011244121
0.09737818 -0.041040286 0.06528095 0.07906255 0.048642777 0.11506941 0.0047605713 0.04752145
0.061870627 -0.12182387 -0.005347162 0.16049413 0.12251897 0.07609072 -0.12874621 -0.0376235
0.13262644 0.14430806 -0.057896897 0.04128093 -0.107966475 -0.055678908 0.05346489 0.21188748
-0.045018733 0.0407764 0.077659085 0.057592705 -0.028546572 -0.066643275 -0.025047537 0.066707656
0.01229416 -0.00808791 0.07094733 0.12244384 -0.06959787 0.045868095 -0.08752972 0.08657412
0.031713426 -0.042357452 0.05205794 0.065923885 -0.08218669 -0.03501906 -0.04657959 -0.045176115
-0.15032786 0.09341508 0.086629815 0.023650482 0.15674505 -0.04212675 0.09386928 -0.019156953
-0.01798786 -0.049855854 -0.033044 0.11393522 0.0713597 -0.21183115 -0.1493431 -0.12803082
0.030104712 0.023341427 0.07909051 -0.02189253 -0.016446302 -0.061582036 -0.035183184 -0.023964388
-0.1524076 -0.0051964624 -0.062452994 -0.10543976 -0.10264413 0.15841644 -0.054758053 -0.016103236
-0.0116044665 0.05244487 0.0030515855 0.13573287 -0.053240325 0.020485165 -0.01769823 -0.010944717
0.060102325 0.005773521 -0.071209624 0.07884774 0.017425003 0.012526368 -0.02754229 0.109594636
0.020298405 -0.0070974175 0.08765384 -0.023102576 -0.07730687 0.056713916 0.03576894 0.0015600144
-0.036335308 0.06155852 0.027140949 0.12036907 -0.014812032 -0.09394805 0.1060674 -0.048362516
-0.12843134 -0.013300631 -0.049583286 -0.09410137 -0.10297707 0.16470341 -0.03353372 0.027988847
-0.1426662 -0.01822721 -0.029328687 0.021962605 -0.057323597 0.12309495 0.052214444 -0.028532729
0.00044713425 -0.16535865 -0.18639526 0.04656142 0.056190196 0.097731456 -0.15531974 -0.02162025
0.08886392 -0.08846549 -0.024383165 0.037109748 -0.014280063 -0.05763351 -0.04744876 -0.16296759
-0.06610928 0.023171322 -0.020121614 -0.11525301 -0.10197029 -0.05130615 -0.037241124 -0.162987

hidden.3.bias f4 [99]
00000000: a5c6 3b3d 29e3 95bd a412 953d ca72 a03d
00000010: d96e 90bd aaad 54bd a5f0 7cbc bbba f63d
00000020: 146d 043c 6595 2bbd eae0 6e3c 2c21 a9bd
00000030: 4784 563d d882 30bd 76ff 0abd 9cb6 9abd
00000040: 43a1 823d c072 f5bc 4302 573c fb33 98bd
00000050: df72 3f3d 0037 08bc ac4e 293d 7223 3abd
00000060: 9f1b 9abd 8741 07be 32b4 db3d d7cb c2bd
00000070: cd79 5cbd e986 0ebd 4419 4bbc 46b0 e83c
00000080: 79cf ed3d a043 983d 3456 5dbd 5665 0abd
00000090: 1ee3 a3bc 2772 e13c 5a6f ee3a 31ed f63d
000000a0: 5f92 003b a29c ccbc 74a8 57bd 2b7a 9abd
000000b0: 58e2 233c d2a9 d9bc a13a 0d3d dc77 d0bd
000000c0: dffc ce3d 256a bc3d edfd 483d ab2c a83b
000000d0: 18e9 a4bd f76e 84bd 1cc8 823d e870 a1bc
000000e0: a78d 723d 5454 a53d 497c 1ebb 6ccc 733d
000000f0: 7efd 55bd bbad 953d 523c cb3c 31bf 24bd
00000100: 4a2a dbbd cf67 5cbd 1654 b33d 7ce8 8e3d
00000110: 6324 47bd 2935 073d 696f 4d3d 6d21 bcbd
00000120: d675 a9bc 35b0 a43c 4228 d13d d91a d2bd
00000130: bdae 433d ba8a 603c 4e36 bbbc e73e 61bd
00000140: 3ae5 d6bd 2c40 10bd adb4 d13c 3ece a5bc
00000150: d7dd c13d 54df 43bd 4e84 09bd c3bc 863d
00000160: 87b9 6cbd 46cf 0cbc a12c 53bc 2e7b f1bd
00000170: 43c5 193d cb3a b7bc 856e 8f3d b823 123c
00000180: 9a94 653d 73c1 8a3d ba7d b8bd
0.04584374 -0.07318718 0.07278946 0.07834394 -0.070523925 -0.05192343 -0.0154382335 0.12047335
0.008082647 -0.04189052 0.014579991 -0.0825828 0.052372243 -0.043093532 -0.033935033 -0.07554361
0.063784145 -0.029961944 0.013123098 -0.074317895 0.04674041 -0.008313894 0.041334793 -0.04544396
-0.075247996 -0.1320859 0.10727729 -0.095115356 -0.053827096 -0.03479663 -0.0123961605 0.028404366
0.11611838 0.074347734 -0.054037288 -0.033788048 -0.020005759 0.027520252 0.0018191144 0.120569594
0.0019618494 -0.024977032 -0.052650884 -0.07542833 0.010002695 -0.026570234 0.03447974 -0.10179111
0.10106825 0.09199933 0.049070287 0.005132278 -0.080522716 -0.06466477 0.06385824 -0.019707158
0.05921712 0.08072725 -0.0024182966 0.059521124 -0.052243702 0.07308527 0.024809036 -0.040221397
-0.107014254 -0.053809937 0.087562725 0.069779366 -0.048618685 0.03300968 0.050155077 -0.09186063
-0.020686071 0.020103553 0.10212757 -0.10259027 0.047774065 0.01370495 -0.022853043 -0.05499163
-0.1049294 -0.03521745 0.025598848 -0.020239946 0.09466141 -0.047820404 -0.03357344 0.06578972
-0.05779412 -0.00859434 -0.012889058 -0.11791073 0.03754164 -0.022366902 0.07003502 0.008919649
0.05604992 0.06775179 -0.090083554

output_layer.weight f4 [49, 99]
00000000: dc9e 3cbd 2c14 433d c1ab 20bd 3c41 c3bd
00000010: 239f b53c 5d79 2ebd 8107 66bd d3ac bf3d
00000020: fac3 983d c66d 86bd ed6f b7bd dc29 adb9
00000030: d5ae 61bd a3d8 24bd eaa9 ce3d fb77 033e
00000040: eb67 79bd 166c 503c 0276 ab3c ef87 2ebd
00000050: 28e1 cfbd 7e9f fbbd 7a01 273d 68fa 4c3c
00000060: c485 783d 1b97 893d 8939 0ebe f8ed af3c
00000070: 5a01 19bc 1603 9cbd 51fe 6d3d 45cd b53d
00000080: 6351 663d 95e1 173d 6b2d 0e3e 3525 9b3c
00000090: d4f1 293d 1d60 883c ce88 733d d4c7 ce3c
000000a0: 82df 7b3d 5cef 3abd 0a78 0d3c f4c3 17bd
000000b0: 188b 073d fdaa cb3b 5685 d73d 514c 923c
000000c0: 1d6e bbbc 25aa 35bd 9f6d 0f3d 5db6 f13d
000000d0: 6b47 2ebd eec4 183d 5149 afbd 408f 113c
000000e0: 3261 80bc ac32 6bbc 71be 803d 5734 213d
000000f0: c36e 4b3d 52cc 87bc 7884 57bd 611c 973c
00000100: 484d 973d 451e a0bd 0411 94bd 0f5e 203d
00000110: 4a2d 503d 20db c0bd f4e6 45bc a72a ffbc
00000120: 90ef 5d3d b9e5 c5bc f25a 60bd 754d d23d
00000130: 509e 1a3d 3e1a 1dbd cc9b ca3c b957 50bd
00000140: 0783 5abc 767d b43d 02db c13a 59d0 df3d
00000150: fe62 b63d 3b91 2abd 7785 acbc c06a 3dbd
00000160: 2d9f 93bd 0394 ae3a 44ea b53b 81a6 7c3d
00000170: 4eb3 803c 30ce 94bd 35ab ce3d 3f65 68bd
00000180: d591 f6bc 63e2 1fbd 116c 293c a0ed 833d
00000190: b04b 6cbb 75c1 9fbd f638 3abd 60e9 8cbd
000001a0: e944 b03d bcba e2bc 5634 19bd 55c9 b2ba
000001b0: 5e72 ddba 47b6 283c ddaf 343d 440d 0abd
000001c0: 5777 b4bc b8cb 8a3d 4e2b e73d d81a f9bd
000001d0: 4b2c 84bb 008e dabb 48ad 903c e5c8 abbd
000001e0: 0fe4 96bd 203a 3dbd bf5e dd3d c2e5 c33c
000001f0: c951 863d 8ab4 4b3d 09ef 27bd c147 813d
00000200: eada ddbd ade2 edbd 5bc6 d4bd 94f9 99bc
00000210: 8952 8bbc 37d7 cbbc 59d7 a63c 4328 5fbc
00000220: a1fe 22bd 1a65 e3bd 94ae a4bd 5d4c 9fbc
00000230: aa0a 5f3d 8ca9 f83d 8646 4f3d 35ab 99bd
00000240: 9c17 7dbd bc57 cb3c 24dc 723c 439e 6fbd
00000250: 2eef 78bd ec93 edbc 90cc 903d 3211 7d3a
00000260: 1823 d2bd 65c2 5f3d 0bd2 31bb f1c4 50bd
00000270: ca48 9a3d 7e86 4c3c 12cb 9cbd ecd4 1d3d
00000280: 0121 873d 739f 27bd 74f2 b93d fe22 9fbd
00000290: a9d9 93bb 261e 4e3d 8b56 45bd bae4 a4bc
000002a0: 92c2 d2bd 03f3 4fbd 9964 023a 78a7 29bd
000002b0: ba62 c43d c430 a23d 032f da3d 3adf a4bd
000002c0: d141 eabd 2740 27bd a4a3 00be 41d6 a3bc
000002d0: 33f1 303c 099e a13c da22 523d 394b 62bc
000002e0: 2c6c 073e 0c04 7f3d 6c36 66bc bf59 0e3d
000002f0: bdfd d93c 4e73 1bbd 58ad 0ebb afd4 bfbd
00000300: b488 ddbc e056 b43d f997 5d3d 1664 8ebd
00000310: c928 d7bd ab9f fc3d 0927 36bd 0fe9 063c
00000320: 8bdc 43bd 653e babd a9e0 dd3d 408f 69bd
00000330: d10d f1bd ba2e 8a3d 1036 293d af52 3fbc
00000340: 7c92 cabd 8958 653c 02b8 963c 7718 b53c
00000350: 143a b6bd 7f2a 943d 7c7a 20bd 6096 b9ba
00000360: 26c6 633d 062b e7bc 2360 633d d946 893d
00000370: f6e8 bfbd 66e1 12bd c5c1 21bd 3549 0e3c
00000380: f1ad 46bc def9 8ebd fdc4 07bd 7d4f 933d
00000390: f003 823d 725c f7bb 2017 90bd 7965 cfbc
000003a0: f54e 853d 7b08 f6ba 9422 d63c 3fd3 1b3d
000003b0: b4d7 793d 1ace a2bd aea5 86bc 0001 ae3c
000003c0: 7808 ac3d c497 e13d 74c1 e93c 6bde 293d
000003d0: 85eb 43bd a1e4 403d a371 00be b3fe 48bc
000003e0: 6a0a de3c d260 e53d 2ded 65bb 2ce8 db3c
000003f0: 4c9f 2f3d 3523 bf3c fd64 d3bc d3c2 86bd
-0.046049938 0.04762666 -0.039226297 -0.09533927 0.022170609 -0.04259621 -0.0561595 0.093591355
0.074592546 -0.06563906 -0.08956895 -0.0003302832 -0.055098373 -0.040245663 0.10091002 0.12838738
-0.06089012 0.012721082 0.020930294 -0.042610105 -0.10150367 -0.1228628 0.040772893 0.012510873
0.060674444 0.06718274 -0.13889135 0.021475777 -0.009338701 -0.07617776 0.058103863 0.08877043
0.05622996 0.037080366 0.13884513 0.01893864 0.04149039 0.016647393 0.05945664 0.02524177
0.06149245 -0.045638427 0.008634577 -0.03705211 0.033091635 0.0062154518 0.10523479 0.017858656
-0.022879655 -0.044351716 0.035016652 0.11802361 -0.04254858 0.03729718 -0.08558906 0.008884251
-0.015671346 -0.014355343 0.06286324 0.039356556 0.049666177 -0.01657692 -0.052616566 0.01844615
0.07387787 -0.078182735 -0.07229808 0.0391522 0.05082444 -0.09416795 -0.012078989 -0.031148268
0.054183543 -0.024157392 -0.054774232 0.1026868 0.037748635 -0.038355105 0.024732493 -0.05086491
-0.013336903 0.08812992 0.0014790001 0.10928411 0.089056 -0.04164241 -0.021059735 -0.046244383
-0.07208095 0.0013319257 0.0055516083 0.061682228 0.0157105 -0.0726589 0.10091249 -0.05673718
-0.030098835 -0.03903426 0.010340706 0.06441808 -0.0036055855 -0.07800571 -0.04546448 -0.0688045
0.086068936 -0.027676933 -0.037403427 -0.0013640324 -0.0016895046 0.010297365 0.04411303 -0.033704057
-0.022029562 0.067771375 0.112875566 -0.12163323 -0.0040336004 -0.0066697598 0.017660752 -0.08387927
-0.073677175 -0.04619801 0.10809087 0.023913268 0.06558568 0.049732722 -0.040999446 0.06312514
-0.1083277 -0.116155006 -0.10389396 -0.018795766 -0.01700713 -0.024882896 0.020366358 -0.013620439
-0.039793614 -0.11103268 -0.08041111 -0.019445593 0.05445353 0.121417135 0.050604366 -0.07503358
-0.061790094 0.024822108 0.014822993 -0.05850054 -0.060774975 -0.029001199 0.07070267 0.00096537464
-0.102606 0.05462875 -0.0027133252 -0.050969068 0.07533415 0.012483237 -0.0765592 0.038533136
0.06598092 -0.040923547 0.090794474 -0.07770346 -0.004512031 0.05032172 -0.048178237 -0.020128597
-0.102910176 -0.050768863 0.00049740967 -0.041419476 0.09589143 0.079194576 0.10653498 -0.080503896
-0.11438335 -0.040832665 -0.12562424 -0.019999625 0.010799694 0.019728677 0.05130277 -0.01381188
0.13224858 0.06225972 -0.014051061 0.034753557 0.02661025 -0.03795176 -0.0021770801 -0.09366738
-0.027042724 0.088056326 0.05410001 -0.06952684 -0.10505826 0.12335142 -0.04447082 0.008234276
-0.047817748 -0.09093932 0.10833866 -0.05702138 -0.117702134 0.06747194 0.041311324 -0.011677428
-0.09891221 0.013998159 0.018398289 0.022106392 -0.08897796 0.07234668 -0.03917931 -0.0014159195
0.05560889 -0.028218757 0.055511605 0.06702966 -0.09370606 -0.035859488 -0.039491434 0.008684446
-0.012126432 -0.06981252 -0.033146847 0.071928956 0.06348407 -0.007548862 -0.07035661 -0.02531694
0.065092005 -0.0018770838 0.026139535 0.038043257 0.060996726 -0.07949467 -0.016436424 0.021240711
0.08400053 0.11015275 0.028534628 0.04147188 -0.04783203 0.047093038 -0.12543349 -0.012267756
0.027104575 0.11200108 -0.0035083995 0.026844107 0.042876527 0.023332218 -0.02580499 -0.065801285
