models/7x7-4-99-tanh/220episodes.pth (torch, 202354 bytes, 12 tensors)

input_layer.weight f4 [99, 50]
000000 1f 49 a9 3d 9b 8b 52 be 61 da fc bd 7a 17 47 be
       0.082659 -0.20561068 -0.1234634 -0.1944255
000010 9d ac 01 be e2 da cf bd 78 77 26 be fe ca 36 3d
       -0.12663503 -0.101491705 -0.16256511 0.044627182
000020 d5 c8 1d bd 01 ef 61 3d d6 73 bf 3c aa 60 bf 3d
       -0.038521606 0.055159573 0.023370665 0.09344609
000030 60 ac 81 bd 97 88 f4 bd 70 d4 84 bd 53 89 81 3d
       -0.06331706 -0.11940115 -0.06485832 0.06325021
000040 53 c3 47 3d 7e eb da 3c 0a 46 05 3e 7e d4 0a bb
       0.04877026 0.02672362 0.13014999 -0.0021183784
000050 6e a0 1d be d3 d5 35 3e de 87 46 3b 96 29 83 3c
       -0.1539323 0.17757349 0.0030293385 0.01601104
000060 9d 32 d7 3c 45 86 f7 3d fe b8 ba bd 99 d3 1f be
       0.026269251 0.12086157 -0.09117316 -0.15608062
000070 08 37 07 be 04 9e 78 3d 7e a7 14 be 2c a2 fb bd
       -0.13204587 0.06069757 -0.14517018 -0.12286791
000080 4c 21 03 3b 9c 98 5f bd 98 46 bd bd a2 19 98 bc
       0.002000886 -0.0545889 -0.0924198 -0.01856691
000090 e3 dc 17 bd 31 2b 8e 3d 25 81 0f be c0 d2 21 be
       -0.03707589 0.06941832 -0.14014108 -0.15803051
0000a0 ba a0 a1 3d 89 0e 07 bd 28 6c 91 3d eb 84 d0 3b
       0.07891984 -0.032972846 0.07100707 0.0063635013
0000b0 f1 9d c3 bc 0a 8c 42 3e 83 41 0a 3d 75 58 11 be
       -0.023879023 0.18998733 0.033753883 -0.141939
0000c0 d8 1d 95 bd 0e 0e b8 3d e2 b3 a7 3d 0c 36 20 be
       -0.07281083 0.08987056 0.08188607 -0.15645617
0000d0 91 c4 08 3d 02 7f b3 bd 80 bf 84 bd b2 e1 10 3e
       0.033390585 -0.08764459 -0.06481838 0.14148596
0000e0 f2 63 96 3d 15 21 a7 3d 6d 4d e2 bd 2d 5a 04 3c
       0.07343282 0.08160607 -0.11049924 0.00807814
0000f0 c5 d4 b8 bd 55 03 f7 bd 67 6a 2a 3e bf 4a db bd
       -0.090249576 -0.120611824 0.16642152 -0.10707616
000100 04 39 77 bc 03 f6 6a 3d ff 50 18 bd 31 71 db 3d
       -0.015089277 0.05736352 -0.03718662 0.10714949
000110 c6 bd da bd c7 ce bb 3c cd 46 71 3d 94 ad 23 bc
       -0.10680728 0.022925748 0.05890541 -0.009990115
000120 3d fb 4e bd 2a 46 ba 3c 74 5c c9 bd 10 54 d5 bc
       -0.05053257 0.022738535 -0.09832087 -0.02604106
000130 6d fc 43 be ce c5 79 3c c9 1d aa 3d 44 e9 f4 bd
       -0.19139262 0.015244914 0.08306462 -0.119585544
000140 d2 7f a2 3b e9 3c 8a 3d c8 1c a3 3d 47 f8 02 bd
       0.004959085 0.06749899 0.07964474 -0.031975057
000150 ff c5 10 bd 50 d0 3d be 58 65 da bd 38 b0 6f bb
       -0.035345074 -0.18536496 -0.10663861 -0.003657354
000160 70 eb cb 3d 49 6c 55 3b c0 67 f3 bd 0c a0 27 bd
       0.099570155 0.0032565764 -0.11885023 -0.040924117
000170 fa c8 01 bd 5a 2e 24 bd 46 4b 0e bd 83 c0 f1 bb
       -0.031685807 -0.040083267 -0.034739755 -0.0073776855
000180 a1 8f f2 bd a1 dc 91 bd 15 cb 47 3c 6a 12 03 3c
       -0.11843801 -0.0712216 0.012194415 0.007999996
000190 a8 27 68 be ce ad 8b bd 59 6a dd bd 9d a0 d1 3d
       -0.22671378 -0.0682026 -0.108113 0.10235713
0001a0 6c e1 53 3c 21 23 cd 3d e3 10 2e bd 3f 48 f0 3a
       0.012932163 0.10016466 -0.042496573 0.0018332078
0001b0 e8 c8 0f 3e 8c db 00 be d3 a5 c8 bd 20 96 32 be
       0.14041483 -0.1258375 -0.097972535 -0.1744008
0001c0 58 6d 25 3d 72 f3 b1 3d af 48 66 3c e8 db 23 3d
       0.04038748 0.08689012 0.014055415 0.04000464
0001d0 09 d7 3c bd 45 4f 20 3e 05 2b f9 3d 28 df d6 3d
       -0.04610351 0.15655239 0.121664084 0.104917824
0001e0 3d f3 73 3b f9 7d 05 3e 3a 4c d3 bd f2 44 7f bd
       0.0037223839 0.13036336 -0.103172734 -0.06232161
0001f0 06 f0 fb 3d d5 73 f4 3c e2 5b 1b be 76 99 1c bd
       0.1230164 0.02984039 -0.1517177 -0.03823229
000200 c1 75 66 3c 90 3c 90 bd 23 30 3a 3d 63 b4 9d bd
       0.014066161 -0.070428014 0.045456063 -0.07700422
000210 e6 fc 85 3d b2 a1 98 bd 5b 0b f7 3c 28 58 a6 3d
       0.06542377 -0.07452716 0.030156782 0.08122283
000220 83 00 ee bd 72 24 bc bd cc 80 e8 bd 38 20 df 3d
       -0.11621191 -0.09186639 -0.11352691 0.10894817
000230 ee 50 29 3c 7f 00 d3 bd 4b 18 05 3d 68 75 c0 3d
       0.010334237 -0.10302829 0.03249387 0.093973935
000240 9b 45 4d bd 68 96 a5 3d d9 92 17 3e a6 db c1 bd
       -0.05011521 0.08085328 0.14802112 -0.09465723
000250 58 ee 88 3c 70 da 8f bd e3 8d d0 3c 80 e0 4c bd
       0.016715214 -0.070240855 0.025458282 -0.050018787
000260 1b 39 b3 bd e7 ff 22 bd 02 f0 2a bd d5 f4 c7 bc
       -0.087511264 -0.03979483 -0.041732796 -0.024408737
000270 e3 7b f8 3c fd bf 31 3d 5a a1 3d bc eb 58 fc 3d
       0.030332511 0.043395985 -0.011574114 0.12321647
000280 f6 d5 f8 3d 78 9f 0e be 03 78 2c 3d 3f 6f 3d bd
       0.12150185 -0.1392802 0.04210664 -0.04624867
000290 09 07 46 3e 7d b7 14 3e b8 ad d1 3c 32 e9 ef 3d
       0.19338621 0.1452312 0.02559553 0.117144
0002a0 aa 8d a1 3b 4c 63 76 bd 7d 8f 06 be 74 67 de 3d
       0.0049302178 -0.06015329 -0.13140674 0.10859576
0002b0 2e 5c 8c bd bc ca f4 bc 0a 8b 04 bd 01 69 bb bd
       -0.068535194 -0.029881828 -0.03235916 -0.09150887
0002c0 c0 32 39 bd e0 92 b9 bd c3 b0 26 be 8e 81 80 bd
       -0.045214415 -0.09061217 -0.16278367 -0.062747106
0002d0 61 ec 8d 3d 4c 24 07 bc 68 df c5 bd 2c 94 44 bd
       0.06929851 -0.0082484 -0.09661752 -0.04799287
0002e0 54 24 4c be c3 15 f5 3c ed eb 56 3d 8b 7d 36 3c
       -0.19935733 0.029917603 0.05247109 0.01113833
0002f0 62 59 ba 3d 23 a2 61 bc 25 fd 02 3d b2 d5 49 bd
       0.0909908 -0.013771567 0.0319797 -0.04927606
000300 3f 7a 85 bc 3e ac 83 ba 58 ee 6a 3d f3 35 1d 3e
       -0.016293643 -0.0010045839 0.05735621 0.15352611
000310 b3 f4 8a bd 46 0c 56 bd be 80 b9 3c a5 4a a9 bd
       -0.06784954 -0.0522578 0.022644397 -0.082661904
000320 93 bb 92 bd d3 a9 38 bd e7 74 58 bc 6b 2c 1e 3e
       -0.07164683 -0.045083832 -0.013211465 0.15446632
000330 1c 0f 34 3c 9d 2f 5b 3d bb 0a ba bd 50 18 a5 bd
       0.0109899305 0.053512204 -0.09084078 -0.08061278
000340 a6 3d 0c 3d d2 52 23 bd b2 92 43 3d 20 96 02 3e
       0.03423848 -0.039873905 0.04774732 0.1275258
000350 aa 49 a9 bb aa 15 90 bd ff b6 1b be e7 5c a8 bd
       -0.005166252 -0.07035382 -0.15206526 -0.08220845
000360 cc af 0d 3e a4 88 bb 3d f6 bb 19 bd 38 66 2e be
       0.13836592 0.091569215 -0.03753277 -0.17031181
000370 38 01 d5 3c c2 7b 0c 3e 10 40 aa bd 47 6f 13 3e
       0.026001558 0.13719085 -0.08313 0.14397918
000380 12 46 0b be b2 a1 cc 3c 51 19 95 3d bb e7 dc bd
       -0.13600948 0.024979446 0.07280219 -0.107863866
000390 84 54 e2 3d b3 91 d8 bd 07 a4 32 3d 7a d7 ca 3d
       0.11051276 -0.10574665 0.04361346 0.0990438
0003a0 c2 74 18 bd 45 33 7e bd 63 74 9a 3d 6d 73 92 3d
       -0.037220724 -0.062060613 0.0754173 0.07150922
0003b0 1f 74 0e 3d ca f2 b4 3a d9 d5 2b bd 39 0e bc 3d
       0.03477871 0.0013805267 -0.041951988 0.091824
0003c0 3b d0 cf bd 98 1a ef bd cf bf 18 bd 4f d6 60 3d
       -0.10147139 -0.11674994 -0.037292298 0.05489188
0003d0 6e 8f 9c bd 17 97 f0 bd 62 76 67 3b ab 07 0b be
       -0.076445445 -0.11747568 0.0035318364 -0.13577144
0003e0 a1 9c 31 3c bf a4 bf 3d 85 8d b2 bd 0d 6e 92 bd
       0.010840566 0.09357595 -0.08718399 -0.07149897
0003f0 4b 2a dd bc 89 c8 10 be a6 21 0b 3d 28 bb 93 bd
       -0.026997706 -0.14138998 0.033967637 -0.072134316

input_layer.bias f4 [99]
000000 e2 e9 f2 3b 81 0c 01 be 71 b2 16 3e 36 e3 8e bc
       0.007413135 -0.12602426 0.14716507 -0.017442327
000010 c9 32 42 3e e1 58 fd bd 83 f1 e4 bd 17 97 1a 3d
       0.18964685 -0.12370468 -0.11178877 0.037741747
000020 e4 24 b4 bd 9e e7 15 3d e0 ae 09 be d4 d7 c7 3c
       -0.08796099 0.03659784 -0.13445616 0.024394907
000030 be 32 a0 bd b5 bc e7 3d f6 2c 35 bd e8 6b 2e 3d
       -0.07822178 0.1131529 -0.04423233 0.042583376
000040 4d 24 76 bc 13 2c fb bd 97 66 b6 bd 2a f4 ac 3d
       -0.015023303 -0.12264266 -0.08906286 0.08445008
000050 06 db 4e 3d 21 3b d2 3d 0e 95 d5 3d 63 45 c1 bd
       0.050501846 0.10265184 0.104288206 -0.094370626
000060 79 de d7 3d 34 61 10 3e df d0 be bd 99 c8 eb 3d
       0.1054048 0.1409958 -0.09317183 0.1151287
000070 37 38 c0 bc 62 67 9d bd e7 d7 d6 bd 0d 41 6f bc
       -0.023464305 -0.07685734 -0.10490399 -0.014602912
000080 a7 f9 0b bb 0e 02 ba bd c8 95 d1 3c 4a 89 fd 3d
       -0.0021358521 -0.09082423 0.025584117 0.123797014
000090 be 52 03 bd a4 af 9e bd a1 08 02 be 02 77 55 bd
       -0.03206133 -0.077483445 -0.12698604 -0.052115448
0000a0 1a 2d e2 bc 18 59 ec 3c d1 63 2e 3e dd 7a c3 bd
       -0.027609397 0.028851077 0.17030264 -0.09544919
0000b0 bd 3c 4a bd 77 53 a3 3d 4d 40 d9 3c 03 a4 e3 3d
       -0.04937433 0.07974904 0.026519919 0.11115267
0000c0 12 b0 ad 3d 77 39 be bc b1 b9 cf 3d a9 e0 f2 3d
       0.08480848 -0.02322076 0.1014284 0.11859257
0000d0 21 26 76 3d 2f 1a f1 bc 72 7a d6 bd be 77 fc bd
       0.060094956 -0.02943143 -0.10472573 -0.123275265
0000e0 c4 6c dc bd a2 80 e3 bd f1 c1 f9 bd 6c 3f 34 bd
       -0.10762933 -0.11108519 -0.121951945 -0.044005796
0000f0 fa cd f9 3c f3 7b 07 3e 7b 24 72 3c 72 ab d4 3d
       0.030493725 0.13230877 0.014779205 0.10384263
000100 f1 01 0e be d1 66 03 bd 41 5e eb bd e6 e2 00 be
       -0.13867928 -0.032080475 -0.11492587 -0.12586555
000110 45 7a 06 be 68 08 71 bd 18 e3 e3 bd 24 44 06 3e
       -0.1313258 -0.058845907 -0.11127299 0.13111931
000120 96 85 76 bd a0 24 ec 3d 57 23 c7 bd 4c 6c f3 bc
       -0.06018599 0.11530423 -0.097235374 -0.029714726
000130 2b a1 c4 bc 87 64 2a be 94 dc c9 3d f5 c3 83 bd
       -0.024002632 -0.1663991 0.09856525 -0.0643386
000140 7c b4 d5 3d b2 e5 cd bd 71 0c 08 be 48 31 02 3e
       0.10434815 -0.100535765 -0.13285996 0.12714112
000150 c1 73 f6 bd 64 ea 6b 3d 02 1f f5 bd ec aa 90 3d
       -0.12033797 0.05759658 -0.11968805 0.07063851
000160 61 c2 ee bd 74 75 26 3c 27 56 d2 3d 48 ef 22 3e
       -0.116581686 0.010159839 0.102703385 0.15911591
000170 44 75 94 3d 25 61 b9 bd 33 40 9e bc 67 60 08 3e
       0.07248929 -0.09051732 -0.019317722 0.13318025
000180 e2 60 c4 bd e1 f8 39 bc 5d ec ef bc
       -0.095887914 -0.011350841 -0.029287511

hidden.0.weight f4 [99, 99]
000000 83 2e 03 be ed 96 41 bd 75 85 1d 3c 63 38 ef bd
       -0.12810712 -0.047263075 0.009614338 -0.11680677
000010 b7 e1 9f 3d dd fa d6 bc 70 0e 08 3c a1 7f 99 3d
       0.078067236 -0.026242668 0.008304223 0.074950464
000020 de e9 b2 bc 1f 1d 56 3d 2a 66 a1 bb 21 3f 35 3d
       -0.021840032 0.052273866 -0.004925509 0.044249658
000030 0e 7b 66 3d 04 40 01 3d 42 7e 75 3d 9b e5 0c 3e
       0.056269698 0.03155519 0.059934862 0.13759463
000040 8d c2 dd bd 43 33 e3 3c e7 bb 57 bd 70 76 26 3c
       -0.10828123 0.027734404 -0.052669432 0.010160074
000050 32 34 b5 bd a1 d2 05 3d 99 ba ff 39 8b ae e6 3d
       -0.08847846 0.032671575 0.00048776416 0.1126376
000060 fe 02 bb 3d fb 1a 8d 3d e6 b9 5e bd 2b 02 1e bd
       0.0913143 0.06889912 -0.054376505 -0.038576286
000070 b1 1d af bd 8a c1 81 bd a6 fd 00 be bc dd e7 bc
       -0.08550585 -0.06335743 -0.12596759 -0.028303973
000080 c1 3e f7 bd 12 95 23 3d 00 d4 5a 3c c0 b2 a4 3d
       -0.12072516 0.039937086 0.013356209 0.08041906
000090 b6 4c 5e 3d d9 67 98 3d d6 5b 72 3d 55 db d3 3d
       0.054272376 0.07441682 0.059169613 0.10344569
0000a0 43 f6 1b 3e b9 00 12 3e d3 99 49 bd b7 09 04 3c
       0.1523066 0.14258088 -0.049218964 0.008058957
0000b0 5b 73 aa 3d 20 5b cc 3c 9b f0 88 bd 77 ee c0 bb
       0.083227836 0.024945796 -0.06686517 -0.005887802
0000c0 aa 55 84 bd fb 0d aa bd 0a db d6 bd d6 ea d7 3d
       -0.064616516 -0.08303448 -0.10490997 0.10542838
0000d0 98 a5 f7 bc 63 ef c6 3c 7e 39 f1 bd 48 92 f5 bc
       -0.030230328 0.02428407 -0.11778544 -0.029976979
0000e0 27 d4 57 3c 76 fb 62 3b 9e 71 2d 3d 42 0b d1 3c
       0.01317314 0.0034634746 0.042344682 0.025518063
0000f0 fd 3c 3a 3e 9a bb 0c 3e ba 5c 5a 3d 70 dd 10 3e
       0.18187328 0.1374344 0.053311087 0.14146972
000100 c1 78 75 bd 90 7c 3c bd 13 0a a6 3d a2 77 b7 3d
       -0.059929613 -0.04601723 0.0810739 0.08958365
000110 74 17 87 3d ca 17 f5 3c aa ff 06 3c 0b 90 db 3d
       0.0659627 0.02991857 0.008239666 0.107208334
000120 98 58 fa 3c e9 e6 99 bd 0c 1f d8 3b 87 31 bb 3c
       0.030559823 -0.07514746 0.006595498 0.022850765
000130 55 b9 a8 bd e4 c5 e7 bb 5f b8 dd 3d ef 7b 36 bd
       -0.08238474 -0.007073151 0.108261816 -0.044551786
000140 aa 27 0c bd cc 30 c2 bc 23 18 ae bc db 9c ab 3c
       -0.034217514 -0.023704909 -0.021251744 0.020948818
000150 0c fe f8 3d e5 5b 63 bd 17 d0 25 bd 8f 13 5e 3c
       0.121578306 -0.05550756 -0.040481653 0.013554468
000160 ab ef 66 bd 50 66 61 3d 2c d3 c9 3b 0a 0a c0 3d
       -0.05638091 0.055029213 0.006159207 0.09376915
000170 22 7f c9 bd af a4 7f 3d 24 b5 2c bd f1 b3 44 3d
       -0.09838702 0.062412914 -0.042164937 0.048023168
000180 4d ea df 3d 8b f5 dd 3d ce 0c 39 bd c5 87 29 3d
       0.10933361 0.10837849 -0.045178227 0.041389246
000190 84 40 31 3c 5c 0a 32 bd c6 aa b3 3d b2 8f 99 3c
       0.010818604 -0.04346691 0.08772807 0.018745277
0001a0 60 3d e8 3c 1e e6 90 3d 4e ee 58 3d 22 7f 02 3e
       0.028349578 0.07075141 0.05296164 0.1274381
0001b0 b9 1f 69 bd ca 5e 83 3d 9b 85 ee bd 9e 16 ce bc
       -0.05691502 0.06414564 -0.11646577 -0.02515727
0001c0 87 67 ea bd bc 8e 81 3d a7 35 11 bd 5c 23 2e bd
       -0.114455275 0.063260525 -0.035451557 -0.04251419
0001d0 93 be 80 3c 18 a0 b7 bd 29 89 a0 3c e4 2e 2d 3c
       0.015715873 -0.08966082 0.019596653 0.010570262
0001e0 a5 c6 c4 3c 3c 80 18 be 2e ab 49 bd d2 c9 77 bd
       0.024020502 -0.14892668 -0.049235515 -0.060495205
0001f0 89 d3 82 3c 81 bb 88 bd ac 25 ae bd 26 0c a2 bd
       0.015970008 -0.066763885 -0.08503279 -0.079124734
000200 d7 fc 86 3c 4f 60 3b 3d 69 88 d7 3d f8 df 79 bd
       0.016477985 0.045746144 0.10524065 -0.06100461
000210 10 a4 e4 bd d1 d9 2e bd 9d 86 73 bd c9 49 0c 3e
       -0.11164105 -0.042688195 -0.05945455 0.13700022
000220 ce 56 3e 3c a3 af 82 3d 3d 8c 24 bd 51 c2 00 3e
       0.011617376 0.06381156 -0.040172804 0.12574126
000230 c5 bb a9 bd 3f b0 62 3d 66 d2 88 3d 08 f4 87 ba
       -0.08287767 0.055343863 0.06680755 -0.001037241
000240 83 d4 8e bd 24 5d 89 bd 1d fb ee 3b 7f 7d 0b be
       -0.06974127 -0.06707218 0.0072931186 -0.13622092
000250 c0 63 5b bc db e9 50 3d 27 5d 3c 3d 7c 7d b0 3c
       -0.0133904815 0.051004272 0.045987274 0.02154421
000260 5a 6c 3d 3d 2f 63 be bd ca 6b 0d 3d 75 f5 ca 3c
       0.04624591 -0.092962615 0.034526624 0.024775246
000270 be a1 3b bd 94 0e bd bb a1 90 0f 3d 4d 3a 5f bd
       -0.045808546 -0.00576956 0.03505004 -0.05449896
000280 2f 1b c3 3c c3 14 5b bc 05 8e cf 3d 36 74 df bc
       0.023816673 -0.013371649 0.1013451 -0.027277093
000290 cb 52 47 3c 7b 7d 7f 3c 8f 5f c1 bd 45 1b 98 bd
       0.0121657355 0.015593882 -0.094420545 -0.07427076
0002a0 29 52 42 bd d6 9b d9 bd 7f 04 bb bd ba 3f 8c bc
       -0.047441635 -0.106254265 -0.09131717 -0.017120231
0002b0 17 da 8f 3b fc a7 ea bd 34 a5 bb bc 2f 93 35 3d
       0.004390012 -0.11457822 -0.022905923 0.04432982
0002c0 8d 57 c8 bd c9 f9 b8 3c 2c 09 73 bd 42 ab 88 bc
       -0.09782324 0.022580044 -0.05933492 -0.016683225
0002d0 4e 0d 03 be 07 fe d4 bd c8 75 c0 bc 11 69 dc 3d
       -0.12798044 -0.10400014 -0.023493662 0.10762227
0002e0 64 e5 41 bc 14 bb 5b 3d 07 c4 9f bd 0c 2f c4 3b
       -0.011834476 0.05364521 -0.07801061 0.0059870537
0002f0 bf 7e 85 bd 00 c6 39 bd 9f 80 1d 3d c5 74 a1 3d
       -0.065183155 -0.045354843 0.03845274 0.078836
000300 43 11 d0 3b c5 6c c9 bd bf 54 32 3d fd 68 55 3b
       0.006349714 -0.09835199 0.04353785 0.0032563799
000310 83 f9 56 3d d2 dc 77 bc b3 e0 7e bd b7 5c e7 3d
       0.052484047 -0.015128331 -0.06222601 0.11296981
000320 08 36 6b bd 70 d7 8e 3c 58 1b e9 bd e2 df 68 3d
       -0.057424575 0.017436713 -0.113821685 0.056854136
000330 7f 97 2c bd d5 21 51 3d 4b 8b 34 3d 4c 14 f5 bd
       -0.042136665 0.051057655 0.044078153 -0.11966762
000340 c6 21 c4 3d 9a 09 c5 3d cf 63 72 bd b7 89 ae bd
       0.09576754 0.09620972 -0.059177216 -0.08522361
000350 55 aa d7 3b 24 5a 15 3e f2 ac d6 bc 03 4a 9b bd
       0.0065815845 0.14585167 -0.026205514 -0.07582476
000360 aa 6b 19 3d e3 6b fd bb 47 11 6b bd d9 3c 86 3d
       0.037456192 -0.0077338084 -0.057389524 0.065545745
000370 2c f1 c6 3d 89 a0 82 3d 0a 29 64 bd bb 9d 51 3c
       0.09713969 0.06378276 -0.0557032 0.0127939535
000380 82 37 17 bc 8f e7 05 3d a4 c5 77 3c ef 17 95 bd
       -0.009229543 0.032691535 0.015122805 -0.072799556
000390 8c b7 ae bd 1b 0b 70 bd 26 c5 d4 3d 4a 61 31 bd
       -0.085311025 -0.05860434 0.103891656 -0.043305673
0003a0 68 37 65 3d 82 68 00 3e 59 2e 94 bd b5 31 10 be
       0.055961043 0.12539867 -0.072354026 -0.14081462
0003b0 9c 4f 9f bd 26 78 d5 3c f8 21 3c 3c ce 06 cb 3d
       -0.07778856 0.026058268 0.011482708 0.09913407
0003c0 57 04 7b 3c e5 84 01 bc c6 85 a2 bb 16 8a 8c bd
       0.015320859 -0.00790522 -0.0049597947 -0.06862275
0003d0 41 b0 95 bc d6 97 7b 3d 40 a5 d7 3d 12 33 2e bc
       -0.018272521 0.0614241 0.10529566 -0.010632293
0003e0 d1 99 a4 bd 03 95 c6 bd 31 af 90 3c 50 68 62 bd
       -0.08037151 -0.096963905 0.017661663 -0.05527526
0003f0 48 81 cc bd 67 9f 65 bd 56 1b dd bd cb 9b 18 bd
       -0.09985596 -0.05606022 -0.107962295 -0.03725795

hidden.0.bias f4 [99]
000000 60 09 17 bd 95 9f bf 3d 8e 3b b5 bd 91 c9 60 bd
       -0.036874175 0.0935661 -0.0884925 -0.05487973
000010 fe 0b 84 3d aa ed 97 bd 48 00 73 bd 77 36 40 bd
       0.064476 -0.07418378 -0.05932644 -0.04692694
000020 b4 2a 72 bd 8b 99 31 3d b5 94 cb 3d 12 8a 4f 3d
       -0.059122756 0.04335932 0.09940473 0.050668783
000030 a3 1a 9d bd 52 45 3a 3d 20 bd b4 3d 25 5d 0e bc
       -0.07671096 0.045476265 0.08825135 -0.0086892
000040 af 92 48 3d 39 52 80 3d 47 75 0b bd 23 2b 48 3b
       0.048968013 0.06265683 -0.03404739 0.003054329
000050 f6 60 9a bd 69 fd b5 3d 69 b2 2d bd 1b bf 69 bd
       -0.07538025 0.08886225 -0.042406473 -0.057067018
000060 be fb 46 bd 6a 3d ce 3c 97 cd de bd 22 d1 cb 3c
       -0.048579924 0.025175769 -0.10879057 0.024879996
000070 21 ca 1a bc 3b fb 9b 3d 0c 6b f9 3c 9f 9b 7e bd
       -0.009447605 0.07616278 0.030446552 -0.06216013
000080 8e 7c 8d bd 06 86 af bd 0b 8d 80 3c 77 3b ef bd
       -0.069085225 -0.08570485 0.015692255 -0.11681264
000090 72 24 17 3d 8a fd 6f 3c e6 ad 64 3d 75 ec 96 bd
       0.03689999 0.014647851 0.055829905 -0.07369319
0000a0 35 c0 a0 3d eb a6 4f 3d 31 9d a6 ba 75 41 c0 bd
       0.078491606 0.050696295 -0.0012711642 -0.09387485
0000b0 d8 7c 8b 3d 67 a8 a1 3c 22 f2 e1 bc 9c 51 9d bb
       0.068109214 0.01973362 -0.027581278 -0.0048009884
0000c0 3c e2 f9 bc 9f ac 12 3d a7 4a 6f 3d e3 06 b9 3d
       -0.030503385 0.035809156 0.058420803 0.09034517
0000d0 fe 61 55 bd 87 88 c1 bc ba b4 6f bc 84 09 5b 3d
       -0.052095406 -0.023624672 -0.014630491 0.05347587
0000e0 c5 11 8b 3d 94 b1 97 3d 30 16 11 bd 67 26 ff 3c
       0.06790499 0.07406917 -0.03542155 0.031146241
0000f0 5b 83 70 3d 8c 4b ed 3d 81 c5 a5 bd b8 57 59 3d
       0.05871902 0.11586675 -0.080943115 0.05306217
000100 9b 44 64 bd 9d f6 02 3d 77 b4 9b bd ab 7b c5 3d
       -0.05572949 0.03197347 -0.0760278 0.096427284
000110 88 4b aa 3c 41 2f 97 bd 90 7d c5 bd 40 f3 50 3c
       0.02078797 -0.0738206 -0.0964309 0.012753308
000120 a5 5f c9 3d d2 aa 84 3b 78 9e 86 bd 8b 06 27 3d
       0.09832696 0.0040486837 -0.06573194 0.040777724
000130 df 11 ae bc 56 8b 62 3d a1 22 19 bd 9c f9 f1 3d
       -0.021248756 0.055308662 -0.03738654 0.11815187
000140 22 a6 f1 3c 6c 93 b8 bd bd 50 52 bd ad 37 54 bd
       0.029498164 -0.090124935 -0.05134653 -0.05181091
000150 f5 12 13 bd 0d b9 cd bc 6c fb 9a 3b cc 76 7b bd
       -0.03590675 -0.025112653 0.004729679 -0.06139259
000160 eb 8b f4 3c 1f 63 a8 3d ad 17 09 bd f9 63 c1 bd
       0.029851874 0.08222031 -0.033469845 -0.094428964
000170 13 89 04 bd 84 3b 73 bd f9 8e 59 bc 58 bb 8c 3d
       -0.032357287 -0.05938293 -0.013278716 0.068716705
000180 a2 ca cb 3d 41 79 b5 bd b8 0c d2 3c
       0.099507585 -0.08861018 0.02564083

hidden.1.weight f4 [99, 99]
000000 2b b5 db ba 05 d1 bd bc b0 71 83 3d 89 c8 20 3e
       -0.0016762366 -0.023170957 0.064181685 0.15701498
000010 8c d0 b2 bd c9 d6 82 3d ce b6 eb 3d 25 03 d8 3d
       -0.087311834 0.06388623 0.115094766 0.10547475
000020 6b 36 89 bd bc ab 17 3c 2c d5 ef 3d a6 8f 4c bd
       -0.066998325 0.009257253 0.11710581 -0.04994168
000030 40 6d 06 be 02 65 6f bd 33 71 54 bd 23 11 26 be
       -0.13127613 -0.058445938 -0.051865768 -0.16217475
000040 ba 19 35 bd c6 46 09 bd 8e 8b 36 3b 20 ab 47 3d
       -0.044213988 -0.03351476 0.0027854177 0.048747182
000050 3d 10 d2 bd e2 c1 87 3d e8 be d9 3d a8 4c 1f bb
       -0.102570035 0.06628777 0.106321156 -0.0024307165
000060 a6 7d 26 3d 0e 77 37 3d 38 96 fd 3d a6 8a 6f 3d
       0.04064717 0.044791274 0.123821676 0.058481835
000070 1c e4 27 bd 46 4b 1f bd a3 01 a3 bd 6b d9 26 3e
       -0.040989026 -0.038890146 -0.079592966 0.16293876
000080 30 62 ad 3d 2d 7e 18 3e 7c 8b 7a 3c 83 39 48 bc
       0.084659934 0.14891882 0.015292045 -0.012220743
000090 ea 5f da 3c e0 05 b1 bd d0 f4 53 bd 61 8c 73 bd
       0.026657064 -0.08643699 -0.051747143 -0.059460048
0000a0 f4 52 1b 3c d8 cc b3 3d f1 40 ec bd f7 db 26 3d
       0.009480227 0.08779305 -0.11535824 0.04073712
0000b0 27 f5 92 3d a7 7b 19 3d bd 46 11 3b 80 5f c0 3d
       0.07175665 0.03747144 0.0022167407 0.09393215
0000c0 a4 5c fb bd ce 8a de bd a4 15 b6 3d 36 e1 06 3e
       -0.12273529 -0.10866319 0.08890846 0.13171849
0000d0 24 18 17 bc c3 15 13 bc 28 b1 6b bd 8e 10 5c bc
       -0.009222064 -0.008977356 -0.057541996 -0.013431681
0000e0 49 75 5d 3c 7b 89 e2 bd 71 d1 a5 bd 9e 93 1a bc
       0.0135167325 -0.110613786 -0.080965884 -0.009434609
0000f0 7a ac b4 bd 85 91 7c 3d d3 53 73 bd 0d 45 4b 3d
       -0.0882196 0.061662216 -0.059406113 0.0496264
000100 3d 4e 21 3d 13 53 15 bc d5 41 af 3d cc 91 32 be
       0.039381254 -0.009114045 0.08557478 -0.1743843
000110 7f 90 91 bd c3 07 42 bb 66 e2 24 3e c1 0c 1f 3d
       -0.071076386 -0.0029606677 0.16101989 0.038830522
000120 b5 81 10 3e 43 cc c3 bd d3 9a ba bd 74 57 08 3d
       0.1411198 -0.09560444 -0.091115616 0.033286527
000130 25 3d 64 3d e1 5a 1b 3c 0a ee a4 3d fe 0c 12 3c
       0.055722374 0.009482116 0.08053215 0.00891423
000140 ae eb cf bd fb 1a 15 3e 20 d8 49 3d ff 3b 10 3d
       -0.10152374 0.14561073 0.04927838 0.035213467
000150 3a c3 9c 3d 31 55 cf bd a1 ed 3b bd 1d b5 b9 3d
       0.07654424 -0.10123671 -0.045880917 0.09067748
000160 37 32 5a bd d8 34 5b 3d 72 aa 06 3e d8 4d 75 bd
       -0.053270545 0.053517193 0.13150957 -0.05988869
000170 f9 71 ea 3d 7b ed 01 be c0 30 97 bd 37 ed ba bc
       0.1144752 -0.12688248 -0.07382345 -0.022818191
000180 26 a1 e0 bd 88 19 31 3d 35 f5 56 3b 3e 9a b4 bd
       -0.109682366 0.04323724 0.0032799963 -0.08818482
000190 5d 1a 07 3e 8c 8c b7 3d 2c a1 e9 bd 29 4e 92 3c
       0.1319365 0.08962354 -0.11407694 0.017859535
0001a0 eb 8d 10 3e 56 e4 d4 bd 65 01 96 bd eb 32 f6 bc
       0.14116637 -0.10395114 -0.07324485 -0.030053576
0001b0 0c 54 9b bc 7c 3c ea bd cf 15 3f 3d 28 a2 ba b9
       -0.018960975 -0.11437318 0.046651658 -0.000355975
0001c0 04 e1 49 3c 16 17 bd bd c0 a9 f2 3c c5 75 aa 3d
       0.012321714 -0.09232919 0.029621959 0.08323244
0001d0 64 85 81 bd 04 63 55 bc 70 28 16 be 0d 81 c8 bd
       -0.0632427 -0.013024095 -0.14663863 -0.097902395
0001e0 ef 74 41 be 92 90 ae 3d 62 e2 12 bd dc 12 0e 3e
       -0.18892263 0.08523668 -0.035860427 0.13874382
0001f0 ba 8c 7e 3d 8e de ca bd 42 31 2a be 33 eb 88 3d
       0.062145926 -0.0990573 -0.16620353 0.06685486
000200 d9 2f 2e be df 7d fd bd 7e 24 dc bd d2 46 0a 3c
       -0.1701044 -0.12377524 -0.10749148 0.008439736
000210 de 3d 3c 3d 75 26 57 3d b0 8f 26 3e 15 82 4e bd
       0.04595744 0.05252691 0.1626575 -0.050417025
000220 f1 76 ba 3d be 63 33 ba 6d db 9e 3d 2a 01 44 bc
       0.091047175 -0.0006843171 0.07756696 -0.011963168
000230 7d c6 06 be 49 b3 42 bd 7a 18 76 3c d8 8b 97 bc
       -0.13161655 -0.04753426 0.015020484 -0.0184993
000240 07 b4 22 3e 85 01 59 3d f5 e1 93 bc 13 94 23 3d
       0.15888987 0.052979965 -0.01805208 0.039936136
000250 6b 93 71 bd 8f ca 97 3d a8 2b 6d bd ac 18 ce bd
       -0.05897848 0.07411682 -0.057902962 -0.100632995
000260 b2 0d 9a bd ba dc 48 3e e0 7d af 3d c0 b6 ef bd
       -0.075221434 0.1961545 0.085689306 -0.11704779
000270 03 67 85 3d 4f d8 3f bb 4c e3 61 3d 55 4c 8c bd
       0.065137886 -0.0029273217 0.055148408 -0.06850497
000280 ef ce 0a be c3 90 d6 3d 15 86 86 bd 8a f1 a1 3c
       -0.13555501 0.1047683 -0.06568543 0.019768495
000290 70 38 d0 3c e5 9d 1d bc 80 d0 64 3d 06 43 08 3d
       0.025417536 -0.0096201645 0.055862904 0.033267044
0002a0 17 46 b0 bc c6 91 d6 bd 0c 05 27 be b3 18 ed bd
       -0.021517796 -0.10477023 -0.16310519 -0.115769766
0002b0 f9 73 f9 3d 8c 07 05 bd a2 26 bc 3d 00 0d a0 bd
       0.12180323 -0.0324779 0.09187056 -0.078149796
0002c0 8b b3 96 bc e2 82 b0 3d 10 5d 21 be f3 10 17 be
       -0.01839616 0.08618714 -0.15758157 -0.1475256
0002d0 4d 16 7c 3d c7 8f a0 3d 61 13 39 bd 9a 3b d2 3c
       0.061544705 0.07839923 -0.045184497 0.025663186
0002e0 cc 59 c1 3d fb 1b af bd 9a ff 74 bd d4 01 eb bc
       0.094409555 -0.08550259 -0.059814073 -0.028687395
0002f0 76 a5 35 bc 2c dc be 3c 3e 59 a1 bd 81 2c ae bd
       -0.011086812 0.023298346 -0.0787835 -0.08504582
000300 fc 4c 3c 3d 32 8b d5 3c ff 83 69 bd 8e 0a 24 3d
       0.045971856 0.02606735 -0.057010647 0.04004913
000310 64 42 fa 3d e8 a6 80 bd 20 77 fb 3d e7 f2 ba 3d
       0.12219694 -0.06281835 0.12278581 0.09128361
000320 a7 f1 1f 3d d0 89 a4 bc b7 34 06 3c ab f6 b6 3d
       0.039048817 -0.020085245 0.008191279 0.08933767
000330 41 19 15 3b b0 c4 3e bd b2 ef c8 3d e6 39 0b 3e
       0.0022750648 -0.046574295 0.09811343 0.13596305
000340 9d d8 b4 3b da 17 f7 bd 52 80 d0 bc a5 8e 4a bd
       0.0055189864 -0.12065096 -0.025451813 -0.049452443
000350 ee 5d 73 3d fa 38 27 bd d0 6e 06 3e cb d7 87 3d
       0.05941575 -0.04082582 0.13128209 0.06632956
000360 db a4 91 3d d9 5d 10 be 5c 33 7f bd e4 2b a8 bd
       0.07111522 -0.140983 -0.06230484 -0.082114965
000370 bf ab 11 bd 8d a6 e9 bc 2d 4f bd 3d e7 f5 05 3d
       -0.03556418 -0.0285218 0.09243617 0.032705214
000380 86 56 77 3c e8 2b 79 bc 57 6e db 3c 88 de d7 3b
       0.015096312 -0.015208222 0.026786013 0.006587807
000390 f9 04 43 3d b5 1e f7 bc 09 da ca bd e4 3e 33 bd
       0.047612164 -0.03016601 -0.09904868 -0.04376115
0003a0 90 7d c8 3c 9d 20 be bd aa f4 fc bc 88 7f 50 bd
       0.024473935 -0.09283564 -0.030878384 -0.050902873
0003b0 de f1 ef bc c4 1a f6 bc fa b3 ea bd f3 30 1d 3c
       -0.029290136 -0.03004206 -0.11460109 0.00959419
0003c0 1b 24 90 3d 72 18 85 bd b0 dd 14 bd ae 3d 03 3d
       0.070381366 -0.06498803 -0.03634423 0.032041244
0003d0 e0 a0 08 bc 76 72 5e 3b ba 3b e1 bc fb a8 9d bd
       -0.008339137 0.0033942736 -0.0274943 -0.07698246
0003e0 29 bf b7 bd 4d 1d 9a 3c f1 75 7e 3c c9 d8 dd 3d
       -0.08972008 0.0188128 0.015531049 0.10832364
0003f0 df 0d 3c bc fe 32 4f 3c f9 36 c9 3d 55 10 d3 3d
       -0.0114779165 0.012646435 0.09824938 0.103058495

hidden.1.bias f4 [99]
000000 55 08 b3 bd 0b 0e 38 3d 07 c4 80 bd d1 fe 44 3d
       -0.087418236 0.044935267 -0.06287389 0.048094574
000010 73 44 e7 3c 9d ff 87 bd 63 88 14 bc c7 81 f0 39
       0.028230881 -0.06640551 -0.00906572 0.0004587306
000020 70 dd 0a bd d1 6e d9 bd e6 9c be bc 7e 57 e6 3a
       -0.033902586 -0.1061684 -0.023268174 0.0017573682
000030 51 21 a0 bd 9e 25 60 3d ce 5f 0c bd af 23 f4 bb
       -0.078188546 0.054723375 -0.034271054 -0.007450543
000040 28 3b 70 bd 1e 20 53 3d d7 07 ad bc b5 5b a4 bd
       -0.058650166 0.0515443 -0.021121902 -0.08025304
000050 61 32 8a bd f9 0b 52 3d 70 41 00 bd c1 b9 a6 bd
       -0.0674789 0.05128095 -0.031312406 -0.081408985
000060 bb 6d 7f bd c8 b9 6d bd d9 58 86 3d 94 35 b5 bd
       -0.062360507 -0.058038503 0.06559915 -0.0884811
000070 2c 3e 36 bd 19 8f 9b bb e8 0b ce 3d db 5d 92 3d
       -0.044492885 -0.004747283 0.10060865 0.07146808
000080 73 e5 d3 3d 5d 7f c7 bd 62 83 42 3d 9c 2d 92 bd
       0.10346498 -0.097410895 0.047488578 -0.071376055
000090 66 84 11 3d d6 88 c6 bd 8e a8 42 bc 1f f1 d3 bc
       0.035526656 -0.09694068 -0.011881007 -0.025871811
0000a0 f0 54 d7 bd a8 39 d6 3d eb 2a 51 bc a3 4d 86 bd
       -0.105142474 0.10460216 -0.01276658 -0.06557777
0000b0 8b 9b 61 bd f5 bc 22 bd cb f4 db bd 28 4b c1 3d
       -0.055079978 -0.039730985 -0.1074005 0.09438163
0000c0 48 9d 99 ba ab b4 aa bc ad 58 f9 ba bd 9f a9 3d
       -0.0011719847 -0.020838102 -0.001902362 0.08282421
0000d0 0c 89 82 bd 20 83 95 3d bd 1c aa bd 76 ff 16 bd
       -0.06373796 0.07300401 -0.08306263 -0.03686472
0000e0 8f 79 05 3d 70 79 1c 3d 20 71 02 3d a2 39 82 bd
       0.03258663 0.03820175 0.031846166 -0.06358649
0000f0 45 a1 c2 bc e6 21 da 3b e5 a1 b8 3c 66 a5 e5 3d
       -0.02375854 0.006656873 0.022538135 0.11213188
000100 b6 66 8a 3d e1 25 ad bc 90 39 16 3d 9c f4 b2 bc
       0.06757872 -0.021136226 0.03667599 -0.021845154
000110 cc cd d0 bd b6 8e 4f 3d 04 0f f9 3b 66 3c 20 3d
       -0.10195503 0.05067321 0.007600667 0.0391201
000120 dd d5 87 bd 1d f3 47 3c 45 aa 8e bd 64 0a 60 3d
       -0.06632588 0.012203959 -0.0696607 0.05469741
000130 e9 7b 72 3d 80 e2 ad bb 5e 4d bd 3d ce db 2b bd
       0.0592002 -0.005306542 0.09243272 -0.04195767
000140 1a 52 7c 3d cb c3 b7 3d 73 57 76 3d d2 12 e5 bd
       0.061601736 0.089728914 0.06014199 -0.1118523
000150 97 50 30 3d 07 e6 bc bd 87 f4 04 be d1 ca 9b bd
       0.043045606 -0.09223562 -0.12983905 -0.076070435
000160 11 7e a1 bc 79 c2 1b bd b2 0b 1c bd 88 84 9a b8
       -0.019713433 -0.03802726 -0.03809709 -7.367978e-05
000170 4a c6 a1 3d 98 3f 0f 3d 27 4d e5 3c 5f 11 bd bd
       0.07899149 0.034972757 0.02799089 -0.09231829
000180 29 c0 c9 bd 93 af 23 3d 61 7f 24 bd
       -0.09851105 0.039962362 -0.04016054

hidden.2.weight f4 [99, 99]
000000 7b 31 a6 3d 85 19 07 3e 55 ec b3 3d a7 4e 8e 3d
       0.081149064 0.13193329 0.08785311 0.069485955
000010 bf 46 e3 bc e6 a5 3a 3b 84 45 7c bd d7 0e ae bc
       -0.027743695 0.002848023 -0.061589733 -0.02124731
000020 a4 8c 1e be db f2 fb 3d 43 d1 36 3d 17 1c 41 3d
       -0.15483338 0.123021804 0.04463316 0.04714593
000030 0d 2b 43 bd 80 63 93 bc 70 9b bc 3d ba cc 22 3c
       -0.04764848 -0.017991781 0.09209335 0.009936506
000040 ad 56 16 be 2d 5f 19 3d 76 bb b0 3d 75 9c 67 bd
       -0.14681502 0.037444282 0.08629505 -0.056545693
000050 a8 83 04 3b 08 45 0b be 25 8c a5 bd e4 ba 73 bd
       0.0020220075 -0.13600552 -0.08083371 -0.059504405
000060 75 c2 7d 3d 83 58 83 3b 0d da fd bb 60 5e 60 bc
       0.061953027 0.004008354 -0.007746941 -0.013694376
000070 9b f7 df 3c 68 c5 e6 bd fa 65 74 bd 34 37 91 bb
       0.027339747 -0.11268121 -0.059667565 -0.0044316296
000080 8c 6e 05 bd 1b 3e 88 3d cd 73 7c 3d 0d 17 5e 3e
       -0.03257613 0.06652471 0.061633874 0.2168848
000090 7f 46 ec ba 06 e2 dc bd a2 65 b8 bc 64 60 0d be
       -0.001802638 -0.10785298 -0.0225094 -0.13806301
0000a0 96 8a b7 bc db 4f b4 bd d7 10 06 3e 35 16 6a 3d
       -0.02240495 -0.08804294 0.13092361 0.057150085
0000b0 e7 a3 c2 bc 63 52 48 3c a8 7f cb 3d 2b e1 66 bd
       -0.023759795 0.012226674 0.09936458 -0.05636708
0000c0 10 b1 ab 3d bb 99 ba 3d ea 35 8c bd 8c 78 32 bd
       0.08383381 0.09111353 -0.06846221 -0.043571994
0000d0 b4 9b 56 3d 2e a7 99 bd 04 82 be 3d b4 ed c0 bd
       0.052394584 -0.0750259 0.09302142 -0.09420338
0000e0 5f f1 12 bd e1 80 b2 3d 59 b4 b1 3d d9 85 ea bd
       -0.03587472 0.08715988 0.08676977 -0.11451311
0000f0 b4 f1 01 bd c6 eb 5e be 06 a1 73 3c da c1 3d 3d
       -0.031724647 -0.21769628 0.014869934 0.04632745
000100 5a a1 4b bd 7b a5 a6 3d ec 8f 15 3e 3d d6 e0 bc
       -0.049714424 0.08137032 0.14605683 -0.027445907
000110 46 6e 53 3e 0d 72 91 3d 98 42 5b 3d 6e 40 5d 3d
       0.20647535 0.071018316 0.053530306 0.054016523
000120 e6 16 17 bd 39 71 86 3c 7c 1b 72 3d a6 ec a5 bd
       -0.036887072 0.01641141 0.059108242 -0.08101778
000130 44 34 06 be 8e f9 77 bd 06 e1 b2 bd 73 ff 78 3d
       -0.13105875 -0.06054073 -0.08734326 0.06079049
000140 81 fa b1 bd e4 cf 22 be b9 98 bc bd 93 d4 00 3d
       -0.08690358 -0.15899616 -0.09208817 0.031452727
000150 2c c3 30 3d 38 59 55 3c 00 8b 82 bc 88 70 9c 3d
       0.04315488 0.01302176 -0.015935421 0.07638651
000160 85 4e 35 bd f8 68 15 bc f7 4d ac bd 2f 25 09 be
       -0.044264335 -0.009119265 -0.08413308 -0.1339309
000170 9b 98 00 3e 9e 70 86 3d 8f 51 d9 bd 8e 18 d4 bd
       0.12558214 0.06564449 -0.10611259 -0.10356246
000180 8e 9e 36 3d 27 e8 f2 bc e8 9f 65 3e 95 ec 9d 3d
       0.044584803 -0.029651714 0.2242428 0.0771114
000190 5a fd b0 bd 75 89 ac 3d 36 d3 c5 bc 86 83 da bd
       -0.08642073 0.08424655 -0.024148565 -0.10669617
0001a0 84 f6 7b 3c 2c 2a 26 bc f9 76 8e 3d 28 ac f5 3d
       0.015378598 -0.0101418905 0.06956286 0.11995727
0001b0 7c bb 06 bd a5 3b 52 bd 2f 86 f5 bd 4c 20 26 3d
       -0.032893643 -0.051326413 -0.11988484 0.040558144
0001c0 a7 49 9f 3c c2 52 9c 3d 59 12 0b bd 8a ee 29 bd
       0.0194443 0.07632972 -0.033953045 -0.041487254
0001d0 d3 4a 74 bd a6 e6 19 3e 36 f6 2d 3c 1f 8e 16 bd
       -0.05964167 0.15029392 0.010617783 -0.03675663
0001e0 02 2e a6 3d 4e b9 7a bc ca 5a 30 3e 10 4d e4 bc
       0.08114244 -0.015302969 0.17222133 -0.027868778
0001f0 63 f6 01 3e ea 4f 15 bc 02 5b 06 3e a4 d8 0f 3d
       0.12691645 -0.009113291 0.13120654 0.035118714
000200 9a ab aa bb 63 a0 45 3d d9 d6 fd 3d 9e 84 2c 3d
       -0.005208445 0.04824866 0.123944946 0.04211866
000210 78 4d a7 bd 93 8f dc bd d5 d6 4a 3d ec f9 8f bd
       -0.08169073 -0.10769572 0.049521286 -0.07030091
000220 9f 82 1d 3d 01 09 10 be 03 63 89 3d b3 fd 2d bc
       0.038454648 -0.14065935 0.06708338 -0.010619569
000230 c1 31 ce 3d 54 5d cd bd 87 4a 9b bc c7 a9 21 3e
       0.100680836 -0.100275666 -0.018956436 0.15787421
000240 c4 47 58 3d dc 98 98 3d b1 b6 df 3d ec 85 9f bd
       0.052802816 0.074510306 0.109235175 -0.077892154
000250 9f cc 1f 3d 7b f1 fa bb d2 07 3e be f2 e9 e3 bd
       0.0390135 -0.0076581812 -0.1855767 -0.11128606
000260 3f df b2 bd 2d 54 d2 bd fb 24 13 3d 07 74 91 3d
       -0.08733987 -0.102699615 0.03592394 0.071022086
000270 08 a4 e7 bd c8 91 07 bd 85 c2 37 3e c6 f1 23 3e
       -0.11310583 -0.033098012 0.17945297 0.16010198
000280 e0 1c 34 ba e4 4f 48 3d 77 ea 10 bd 83 ec 4b bc
       -0.0006870758 0.048904315 -0.035379853 -0.0124465255
000290 10 e9 33 3c 9d 32 27 3d 02 29 a6 bd 7e 0b 5d bd
       0.010980859 0.040819753 -0.0811329 -0.053966038
0002a0 1a 66 df bd 56 e1 aa 3c a9 6c 16 bc 71 74 54 bc
       -0.10908146 0.020859402 -0.00918118 -0.012967215
0002b0 93 b9 ec 3c b0 1b c7 bd 27 05 10 bd 05 dc 39 be
       0.028897082 -0.09722078 -0.035161164 -0.18150337
0002c0 35 31 ad bd 02 04 38 3d 7f 99 47 ba 8a fa eb bd
       -0.08456651 0.044925697 -0.000761412 -0.11522396
0002d0 43 8a 8d 3d bc ac cf bd 0d 39 1f 3e f6 7d 84 3d
       0.06911137 -0.10140368 0.15549107 0.06469338
0002e0 e2 95 b9 bd b3 44 e0 bd 65 c8 52 3c 11 5d a4 bd
       -0.09061791 -0.10950603 0.012865161 -0.080255635
0002f0 c8 ae b2 bd 16 9b 4b 3d 2b 5a 95 bd d0 8d 04 be
       -0.08724743 0.04970845 -0.07292589 -0.12944722
000300 ba 2b c9 3d fd bc 1d 3d 3d b0 9d 3d a0 ec 37 3d
       0.09822793 0.03851031 0.076996304 0.044903398
000310 19 be 3c bb a7 f7 54 bd 34 b9 8d bd ef f5 0a bd
       -0.002879983 -0.051993992 -0.0692009 -0.033925947
000320 72 ab e0 bc a6 a6 40 3d 6e 7f 6d bd df f2 f0 bc
       -0.027425501 0.04703393 -0.057982855 -0.029412685
000330 53 fd b1 bd 09 18 08 3d fe 49 00 3e 88 85 91 bc
       -0.08690896 0.033226047 0.12528226 -0.017763868
000340 1d 4b 1a 3e 62 54 83 bd 00 c7 0b be 2a 2a c3 bc
       0.15067716 -0.06412579 -0.13650131 -0.023823816
000350 19 44 01 be 5f 3f 03 3e b3 a1 b6 bd bc 4c b4 bd
       -0.12623633 0.12817143 -0.089175604 -0.088036984
000360 26 0d 84 3d 24 d2 f2 3b bb 18 5b bc 4f 12 fc 3d
       0.0644782 0.0074103046 -0.013372595 0.123081796
000370 75 01 ac bd bd 39 67 3d 5e 83 5a 3b 13 86 69 bd
       -0.083987154 0.056451548 0.003334246 -0.05701263
000380 42 9a 1b be 84 c5 4e 3d f2 52 b1 3c 88 58 16 bc
       -0.15195563 0.050481334 0.021645997 -0.009176381
000390 6b de 80 bd a6 29 36 bd 4e 73 5b ba 61 e4 a6 3d
       -0.06292423 -0.044473313 -0.0008371369 0.081490286
0003a0 2f 4d 09 bd f4 30 44 3c c7 49 00 be 77 1e d1 bc
       -0.033520874 0.011974562 -0.12528144 -0.025527222
0003b0 86 dd 11 3d cc 36 09 3e 98 77 86 bd 00 3b 21 bc
       0.03561165 0.1339981 -0.065657794 -0.009840727
0003c0 b1 49 cc 3d 0c ad c6 3d 63 42 22 bd 21 94 22 be
       0.09974993 0.09700975 -0.039614093 -0.15876819
0003d0 da 36 8d bc 63 35 53 3d e7 e4 12 bb 2e 47 22 3d
       -0.01723807 0.051564585 -0.0022414268 0.039618663
0003e0 bb d3 32 3e 64 cd 56 bd 95 d0 c4 3d 1d a1 9b 3c
       0.17463581 -0.05244197 0.09610096 0.018997723
0003f0 b7 89 38 bd c8 4b 84 3d fd 17 c7 3d 90 c1 58 3d
       -0.04505321 0.064597666 0.09721372 0.05291897

hidden.2.bias f4 [99]
000000 f2 c6 5d 3d 4d 8b 70 bd a3 8a 15 3d f4 fc 91 3c
       0.054144807 -0.058726598 0.036509167 0.017820813
000010 04 a5 ec bd bd c0 97 3d 9b 35 f3 bc 25 c4 13 bd
       -0.11554912 0.07409809 -0.029688647 -0.03607573
000020 55 2f a3 bd 7e 90 72 3d 8a 26 79 3d 76 ba f6 3d
       -0.07968012 0.05921983 0.06082777 0.12047283
000030 28 dd b1 bc 04 a9 e3 3c 8f 9f 82 3d 2b e3 aa 3d
       -0.0217119 0.027790554 0.0637809 0.0834411
000040 92 de 7a bd ea 18 bb 3c 38 98 a9 3d 06 82 78 3c
       -0.061247416 0.022839028 0.082809865 0.015167719
000050 aa c9 b5 3d da 0c b2 bc 43 c5 9d 3d 0f 21 ac 3d
       0.08876355 -0.021734644 0.0770364 0.08404743
000060 1f 6d 7d bd 9a 0e 86 3d ca 02 c6 3d ea 0f 05 bc
       -0.061871644 0.06545754 0.09668501 -0.00812147
000070 1a a2 61 bd 96 e5 01 3d d5 71 bc 3c b6 09 03 bd
       -0.055086233 0.03171309 0.023003498 -0.031991683
000080 fa c5 83 3d f6 e3 92 bd e8 99 84 3d 69 61 e3 bc
       0.064342454 -0.07172386 0.06474668 -0.02775641
000090 b6 38 7d bc 3f 97 bd bc 1a 4c 9f 3d 14 52 1c bd
       -0.0154554155 -0.023143409 0.07778187 -0.038164213
0000a0 04 e8 03 3e a0 95 67 3d 94 5c 97 3d 8b 0c 08 be
       0.12881476 0.056539178 0.07390705 -0.13286035
0000b0 a2 25 93 bc b4 3d c3 bd 63 53 d9 3d 56 30 a9 bd
       -0.01796228 -0.09533253 0.10611608 -0.082611725
0000c0 ce c0 de bc 37 7d a9 3d a6 79 ad 3c 97 91 3a 3d
       -0.027191546 0.08275836 0.02117617 0.045549
0000d0 65 47 35 bd f2 fb 9b 3b 25 cc ab 3d 99 27 66 3d
       -0.04425754 0.004760259 0.08388547 0.056190107
0000e0 64 9a ac bd 1d bf 2e bd 0d f4 bc bd 08 aa 80 bc
       -0.08427885 -0.04266273 -0.092262365 -0.015706077
0000f0 61 18 aa bd 44 7d 01 3e fc 06 ef 3c 0b 75 b3 3d
       -0.08305431 0.12645441 0.029178135 0.087625585
000100 e0 5b db bc 1e 02 9e bd 15 bd ad 3d 1b e5 12 bc
       -0.026777208 -0.077152476 0.0848333 -0.008965756
000110 1b 24 9f 3b 85 c2 a0 bc 83 c3 aa 3d ae ba ed 3d
       0.004856599 -0.019624004 0.08338072 0.11607872
000120 b5 c5 9b 3d dd 67 be 3d f7 7c e2 bd 70 96 d7 bd
       0.07606069 0.09297154 -0.110589914 -0.105267406
000130 1b 1a 83 3b f2 b4 bf bd 5d db 0d bd c3 35 64 3d
       0.0040009147 -0.093606845 -0.03463303 0.055715334
000140 ca b5 c0 3a ff 1d 93 3d 7b 35 b7 bd 1a a7 26 3c
       0.0014702615 0.07183456 -0.089457475 0.010171676
000150 d6 be f6 3d 11 74 c9 3d 28 c3 da bd d2 bb 38 3c
       0.12048118 0.09836591 -0.10681754 0.011275249
000160 af 7e 13 bd 72 fa bc 3d a6 00 d2 bb fa 0f 8e bb
       -0.036009487 0.09227456 -0.0064087687 -0.0043354006
000170 9e 49 3a 3d 4c d8 8d bd 76 93 a0 3b 27 d1 57 3c
       0.045480363 -0.06926021 0.004900391 0.013172424
000180 ea a5 26 3b c1 88 41 3d 61 05 22 bd
       0.0025428482 0.04724956 -0.03955591

hidden.3.weight f4 [99, 99]
000000 5b 74 df bc db d6 8d 3d 80 37 65 bd e6 9e 4a bb
       -0.027277162 0.06925746 -0.055961132 -0.0030917465
000010 27 49 98 3d 69 ac b9 3c 38 af 32 bd e7 9b dd 3d
       0.07435828 0.02266522 -0.043624133 0.10820752
000020 dc 3c ac bc 71 75 75 bd 71 1b 4f bd 23 a1 c0 3d
       -0.021025114 -0.059926454 -0.05056328 0.094057344
000030 41 8f 2f 3c 18 8b 8d bd 3c 73 13 3e 4c 11 e5 3d
       0.010715307 -0.06911296 0.14399427 0.1118494
000040 85 b7 b2 bd cf b7 0f be 24 e4 b0 3b f2 0f 70 3d
       -0.0872641 -0.14034961 0.00539829 0.058608957
000050 b2 ae e6 bd d6 42 98 3d 3d 2a 3a 3d dc ed 0d 3d
       -0.11263789 0.07434623 0.045450438 0.03465067
000060 5c 6a 0f 3d a5 70 e2 3d 90 46 3d be 00 4d b7 3c
       0.03501354 0.110566415 -0.18483949 0.022375584
000070 b4 71 06 bd 21 5c 75 bd d3 9f 61 bc 5c 67 44 3c
       -0.03282328 -0.059902314 -0.013771015 0.011987533
000080 f6 8f 79 3d 54 ae 41 bd 87 8f 16 be fa 1f b5 3c
       0.060928307 -0.047285393 -0.14703189 0.022109974
000090 e0 4e 1a be 8d 91 9e 3d b5 d7 4d 3d 92 8b 82 3d
       -0.15069151 0.07742605 0.050254542 0.06374277
0000a0 8e 87 9e bd 9d c0 34 be f0 18 30 3d ca ba cc 3d
       -0.07740699 -0.17651601 0.042992532 0.09996565
0000b0 d7 a2 d5 3d 8b 00 a6 3d ef 25 3d 3c fc 39 25 3e
       0.1043145 0.08105572 0.011544689 0.161354
0000c0 3c e8 4d 3d 9a 49 4d 3d 1a b3 45 3c 42 d4 98 bc
       0.050270304 0.05011902 0.012066627 -0.0186559
0000d0 ee 57 b3 bd 3e 4f 95 3c 31 33 ea bd d4 64 d4 bd
       -0.08757006 0.018226262 -0.11435545 -0.10370794
0000e0 72 51 9d bd cd 0a 87 bd fd 54 97 bc 14 e1 06 be
       -0.0768155 -0.06593857 -0.018473143 -0.13171798
0000f0 f1 5e 32 3c 67 a3 04 bc 44 98 aa 3d a6 47 d2 bd
       0.010886894 -0.008095599 0.083298236 -0.10267572
000100 b6 82 c1 bd 8c 8f af bc 60 97 0c be 02 58 01 be
       -0.09448759 -0.021430753 -0.1372962 -0.12631229
000110 ca 4a 17 bd 9f ce b1 3d 2e 1f aa 3d 4b 74 3a bd
       -0.03693656 0.08681988 0.08306728 -0.045521062
000120 13 d8 5b 3d 16 18 82 3d 61 4d ff bd 34 6a 7c 3d
       0.05367286 0.0635225 -0.12465931 0.06162472
000130 5d a6 a0 bd f5 ae c4 3c dd a1 ed 3d ee 0e b1 bd
       -0.07844231 0.024009207 0.116031386 -0.08645426
000140 ac 7e 23 bd 51 ee 57 3d 26 c9 22 be 4b 8e 3f bd
       -0.039915726 0.05271751 -0.15897045 -0.04676656
000150 88 3b 12 bd 9e cc 0a 3e d8 8a 3c 3d 72 96 0d 3e
       -0.035701305 0.13554618 0.04603085 0.13826922
000160 56 39 e6 bd 6e 55 ac 3d ce d3 53 3d cf 59 eb 3c
       -0.11241405 0.08414732 0.051715665 0.028729348
000170 db b3 c9 bc 6a 6f ab bd 9a 7b 02 3e 98 34 d6 3c
       -0.024621895 -0.0837086 0.12742463 0.026148126
000180 27 0a 95 3d fe c6 ef 3d a6 1b d5 3d 15 96 b5 bd
       0.07277327 0.117078766 0.10405664 -0.088665165
000190 b6 26 18 3e 76 14 2a be a6 59 d4 3a 09 94 a0 3c
       0.14858517 -0.16609368 0.0016201034 0.019601839
0001a0 f4 96 b5 3d 96 be 30 bd ec 87 8f 3d 03 b5 9b 3d
       0.08866683 -0.043150507 0.07008347 0.076028846
0001b0 3f 6c 46 3d 14 83 eb 3d 25 2d 57 bb 26 a0 44 3d
       0.048443075 0.114996105 -0.0032833305 0.048004292
0001c0 27 76 7d 3d f2 42 f7 bd 6d ff d1 3a a9 0b 1a 3e
       0.061880257 -0.12073316 0.0016021557 0.1504351
0001d0 3a 1a ed 3d b1 07 b0 3d b0 69 0b be ce 58 12 bd
       0.11577268 0.08595217 -0.13614535 -0.035729222
0001e0 97 e7 0f 3e 9d 30 21 3e 06 ab 7a bd 73 4a 68 3d
       0.14053188 0.15741201 -0.061198257 0.056711625
0001f0 a7 00 dc bd 68 ac 88 bd 93 84 67 3d 80 23 66 3e
       -0.10742312 -0.06673509 0.056522917 0.2247448
000200 ef c1 26 bd 8b e3 57 3d dd 23 98 3d 32 86 85 3d
       -0.040712293 0.052707236 0.074287154 0.06519736
000210 18 f8 d3 bc 22 4f a0 bd d3 b0 7f bc fc 85 a7 3d
       -0.025875136 -0.078275934 -0.015606123 0.08179852
000220 64 f1 0e bb 71 3a a0 bb e7 51 7b 3d b2 60 08 3e
       -0.002181136 -0.0048897793 0.061357405 0.13318136
000230 4c d6 a0 bd 6c 5b 51 3d 17 3d c4 bd 8a c1 a3 3d
       -0.07853374 0.051112577 -0.095819645 0.07995899
000240 70 9e fe 3c 4f 57 60 bd 39 fb 7e 3d 60 68 a3 3d
       0.031081408 -0.054770764 0.062251303 0.07978892
000250 bf e0 92 bd e3 9c c4 bc 50 e0 5a bd 62 fb 3d bd
       -0.07171773 -0.02400059 -0.053436577 -0.046382315
000260 25 39 25 be e3 2c be 3d bd 63 a1 3d 6e 24 ad 3c
       -0.1613508 0.09285905 0.07880352 0.021135535
000270 59 b0 2d 3e e0 82 eb bc 37 e1 b9 3d 9e 43 0c bd
       0.16961803 -0.02874893 0.090761594 -0.034244172
000280 2f 16 b4 bc be 2d 63 bd 7d 22 a9 bc ac dd f0 3d
       -0.021983234 -0.055463545 -0.020646328 0.117610306
000290 b7 a6 95 3d 6e 8a 6a be 6c b6 15 be 48 be 05 be
       0.07307189 -0.22904369 -0.1462037 -0.13060868
0002a0 d0 21 4d 3c 19 ee bd 3c 8e 99 b2 3d 96 f8 7e bc
       0.012520269 0.023184823 0.087206945 -0.015562197
0002b0 16 7a 1c bc 4e e8 54 bd b3 a3 15 bd c6 d6 9e bc
       -0.009550592 -0.051979356 -0.03653307 -0.019389521
0002c0 27 ac 22 be 5c d7 2a bc 92 1f 80 bd 58 49 d7 bd
       -0.15885983 -0.010427322 -0.062560216 -0.10512036
0002d0 d0 53 e5 bd b2 09 2c 3e ce 3e 77 bd 41 4a ab bc
       -0.111976266 0.16800573 -0.06036263 -0.02090943
0002e0 d2 cc 34 bc bd 4b 5a 3d 1d 30 8b 3b c8 1e 0b 3e
       -0.011035161 0.053294886 0.004247679 0.13585961
0002f0 cb e6 69 bd 2d 2c 96 3c 64 d3 6e bc dd 51 ab bb
       -0.057104867 0.018331612 -0.014576767 -0.0052282647
000300 03 94 66 3d f9 e5 12 3c 48 bc a7 bd 4f 86 a9 3d
       0.0562935 0.008965963 -0.08190209 0.082775705
000310 71 5d 54 3c 87 21 40 3c 76 39 15 bd 85 c5 e4 3d
       0.012961731 0.011726744 -0.036431752 0.11170486
000320 46 e3 b7 3c e7 9e 68 bc 64 a3 a2 3d 7f 9e d2 bb
       0.02244724 -0.0141980415 0.079413205 -0.0064275856
000330 ff 78 a0 bd fb 21 4c 3d 82 19 34 3d 28 df 8b 3a
       -0.07835578 0.049837094 0.04396964 0.0010671364
000340 f0 f3 01 bd 2a 5c 88 3d 0b 88 d5 3c 0a 9e f3 3d
       -0.031726778 0.06658204 0.026065847 0.11895378
000350 c6 33 8f bb 37 51 c8 bd b8 11 c1 3d 3e 83 72 bd
       -0.0043701855 -0.097811155 0.09427208 -0.059207194
000360 a9 87 0c be 11 48 13 bc 04 27 59 bd d5 29 c9 bd
       -0.13723625 -0.00898935 -0.053015724 -0.09822432
000370 6b 94 e4 bd 9f 98 3a 3e 21 69 0f bd 58 03 f0 3c
       -0.11161121 0.18222283 -0.035012368 0.02929847
000380 0b 4c 13 be 3e 67 9b bc 25 1f 1c bd 84 95 94 3c
       -0.14384477 -0.018970128 -0.03811564 0.0181377
000390 21 e3 82 bd af 38 f7 3d e2 0c 80 3d 16 18 ea bc
       -0.06390978 0.120713584 0.06252457 -0.028575938
0003a0 69 8b 13 3c 60 3e 32 be 24 37 3f be 49 4e 60 3d
       0.009005406 -0.17406607 -0.18673378 0.05476216
0003b0 d0 0e 82 3d 30 8e cb 3d db bf 0e be 27 ef e3 bc
       0.063504815 0.099392295 -0.13940375 -0.027823998
0003c0 51 aa b1 3d 83 f4 d4 bd e0 f8 b7 bc cf fe 55 3d
       0.086750634 -0.103981994 -0.02245754 0.052244958
0003d0 6b 22 23 bc bd 89 9e bd 41 51 60 bd c7 f8 28 be
       -0.009956936 -0.07741115 -0.05476499 -0.16501151
0003e0 f1 95 90 bd 4f 6a e3 3c 21 cf cc bc 1f 58 ec bd
       -0.07059849 0.027760653 -0.02500111 -0.11540245
0003f0 f8 ec c2 bd 35 b3 5a bd 4b b7 47 bd ed 2b 38 be
       -0.095178545 -0.05339356 -0.048758786 -0.17985506

hidden.3.bias f4 [99]
000000 26 23 6d 3d d0 77 97 bd 43 66 b1 3d 7f 9f 87 3d
       0.05789485 -0.07395899 0.08662083 0.06622218
000010 5d af a3 bd 5b 70 8a bd a2 bd eb bc 9c a8 f0 3d
       -0.07992432 -0.06759711 -0.028776947 0.1175091
000020 2a f4 95 3b 1e e8 00 bd 27 3e 48 3c d6 7b 98 bd
       0.0045762258 -0.031471364 0.0122218495 -0.07445495
000030 7b ef 68 3d ea 96 06 bd c6 2d ed bc 88 e3 91 bd
       0.05686901 -0.032858767 -0.02895249 -0.07123476
000040 de be 6b 3d 0b 29 17 bd 6b 95 19 3c ad 88 93 bd
       0.057555072 -0.036904376 0.009374003 -0.07203803
000050 1d d3 3c 3d b7 92 6f bc 8e f3 35 3d 44 e4 55 bd
       0.04609977 -0.014622382 0.044421725 -0.052219644
000060 73 40 a1 bd f3 d2 1e be 43 b9 de 3d 59 91 dd bd
       -0.07873621 -0.15510158 0.108751796 -0.108187385
000070 9f 41 3c bd 9c a4 df bc 2a db 55 bc d1 73 fb 3c
       -0.04596102 -0.027300172 -0.013052741 0.030694874
000080 8c 20 f1 3d a4 ed 94 3d 7d 74 51 bd a3 82 0c bd
       0.11773786 0.07271889 -0.051136483 -0.034304272
000090 83 7f 9e bc 82 d7 04 3d dc a8 cf 3a dd f1 eb 3d
       -0.019347912 0.032432087 0.0015843171 0.11520741
0000a0 3c ab 03 bb 06 c2 ba bc 18 48 71 bd 02 6e 95 bd
       -0.0020091077 -0.022797596 -0.058906645 -0.07296373
0000b0 c6 34 72 bb c3 67 cf bc b7 43 3a 3d c4 df be bd
       -0.0036957725 -0.025318032 0.045474734 -0.09320024
0000c0 4b 9f be 3d 7f ae c2 3d c5 62 44 3d bd c9 15 bb
       0.093077265 0.09505939 0.047945756 -0.002285584
0000d0 63 18 ad bd 0c 97 8b bd 3f 42 8e 3d ca a0 c9 bc
       -0.08451917 -0.06815919 0.06946229 -0.024612803
0000e0 9a 17 7a 3d 9c 10 a8 3d 51 cb 70 bb 0b 40 7c 3d
       0.061057664 0.08206293 -0.003674228 0.061584514
0000f0 aa 64 53 bd ed 67 9b 3d e6 53 3e 3c e8 b7 30 bd
       -0.051609673 0.07588182 0.011616683 -0.043144137
000100 1c b2 cf bd b2 08 71 bd 30 64 b0 3d 7c b0 8b 3d
       -0.101413935 -0.058846183 0.08612859 0.06820771
000110 c4 7f 42 bd e5 99 f4 3c 0c 8e 51 3d 32 7a b6 bd
       -0.047485128 0.029858539 0.051160857 -0.08910026
000120 a8 12 8c bc bf d1 a1 3c 2e 27 cc 3d db 4e e4 bd
       -0.01709874 0.019753335 0.099684104 -0.11147853
000130 34 42 1b 3d 16 a7 79 3b 67 f8 b0 bc 2b b3 70 bd
       0.037904933 0.0038093976 -0.021602822 -0.058764618
000140 ad 2e e3 bd af b1 0d bd 2b b6 c5 3c 83 d7 d9 bc
       -0.11092887 -0.03459328 0.024134716 -0.026592022
000150 94 c4 d0 3d 11 e6 5e bd b4 06 1a bd 28 52 87 3d
       0.10193744 -0.054418627 -0.03760405 0.06607467
000160 51 1a 78 bd 8d 79 2b bb 9c 5f b7 bc a4 f3 f3 bd
       -0.060571972 -0.002616498 -0.022384457 -0.11911705
000170 69 81 c9 3c 77 6d c1 bc ba 3d 91 3d 1d 93 38 3c
       0.02459784 -0.023611767 0.070918515 0.011265543
000180 04 76 46 3d 13 0d 98 3d 38 7b b2 bd
       0.048452392 0.07424369 -0.08714908
