models/7x7-4-99-tanh/230episodes.pth (torch, 202354 bytes, 12 tensors)

input_layer.weight f4 [99, 50]
0	0x3dacd298	0.08438605
1	0xbe5be322	-0.21473363
2	0xbdfb699a	-0.12276001
3	0xbe440c0c	-0.1914522
4	0xbe020690	-0.12697816
5	0xbdce20a8	-0.100648224
6	0xbe2c5b3f	-0.16831683
7	0x3d348098	0.04406795
8	0xbd0e095d	-0.0346769
9	0x3d479988	0.048730403
10	0x3cc9c752	0.024631176
11	0x3db9a6ac	0.09064993
12	0xbd8026d8	-0.06257409
13	0xbdf5cd26	-0.120020196
14	0xbd70c093	-0.058777403
15	0x3d7111c0	0.05885482
16	0x3d4e3202	0.05034066
17	0x3cc2ea3a	0.023793329
18	0x3e028741	0.12746908
19	0xbb9d0925	-0.00479235
20	0xbe20ae04	-0.15691382
21	0x3e36da40	0.17856693
22	0x3b055015	0.0020341922
23	0x3c98a93c	0.018635385
24	0x3cfcbca1	0.030851664
25	0x3df5bb84	0.119986564
26	0xbdc0c33a	-0.094122365
27	0xbe1b3526	-0.15156993
28	0xbe0b40e5	-0.13598974
29	0x3d6236bd	0.055227984
30	0xbe199e0f	-0.15001701
31	0xbdfdb423	-0.12387874
32	0x3bad85df	0.0052954997
33	0xbd6fd783	-0.058555137
34	0xbdb13f6d	-0.08654676
35	0xbc5d7c69	-0.013518431
36	0xbd2558d6	-0.040367924
37	0x3d876a6d	0.06612096
38	0xbe0fed9f	-0.14055489
39	0xbe264f60	-0.16241217
40	0x3db47f1c	0.08813307
41	0xbd1f583d	-0.03890251
42	0x3da018c7	0.07817226
43	0x3bf7e0af	0.007564626
44	0xbcc90221	-0.024537148
45	0x3e429c16	0.19004855
46	0x3cfae0e5	0.030624816
47	0xbe122b50	-0.14274335
48	0xbd9b740d	-0.07590494
49	0x3db31664	0.08744505
50	0x3db0b6e0	0.08628631
51	0xbe1acc46	-0.15116987
52	0x3d08903a	0.03334067
53	0xbdba02bb	-0.09082552
54	0xbd95f227	-0.073215775
55	0x3e11ad7a	0.14226332
56	0x3d93efe8	0.07223493
57	0x3dac388a	0.084092215
58	0xbde4fae6	-0.111806676
59	0x3b2b4915	0.002613609
60	0xbdac8935	-0.08424608
61	0xbdff9703	-0.12479975
62	0x3e23f44c	0.1601116
63	0xbde9607f	-0.11395358
64	0xbc9ab8d9	-0.01888697
65	0x3d6cdcfe	0.057827942
66	0xbd0d74b9	-0.034535144
67	0x3dde2e7f	0.10848712
68	0xbde78de6	-0.11306362
69	0x3ccf3231	0.025292488
70	0x3d65ebf2	0.056133218
71	0xbbcbf764	-0.0062245596
72	0xbd650593	-0.05591352
73	0x3cbe4faf	0.023231355
74	0xbdcf287f	-0.10115146
75	0xbd0af838	-0.033928126
76	0xbe4a6768	-0.19766009
77	0x3c4f98f8	0.012670748
78	0x3da177d1	0.07884181
79	0xbdfb07cc	-0.122573465
80	0x3c036f74	0.008022178
81	0x3d8adf7e	0.06780909
82	0x3da30484	0.07959846
83	0xbce3853e	-0.027773496
84	0xbd34a134	-0.044099048
85	0xbe3ce2fc	-0.18445963
86	0xbdd9c4d5	-0.10633246
87	0x3aefbe66	0.0018290996
88	0x3dc77455	0.097389854
89	0x3a7dbafa	0.0009679046
90	0xbdf49ba5	-0.11943749
91	0xbd047269	-0.032335673
92	0xbd0d36c7	-0.034476068
93	0xbcfe3e38	-0.031035528
94	0xbcf85d58	-0.030317947
95	0xbc2a80ba	-0.010406667
96	0xbdecad56	-0.11556499
97	0xbd8b1e15	-0.06792847
98	0x3c0e68f0	0.008692011
99	0x3c09fcaf	0.008422061
100	0xbe71e9b9	-0.23624314
101	0xbd9b43d8	-0.075812995
102	0xbde36bec	-0.11104569
103	0x3dcc993d	0.099901654
104	0x3c8d3ec6	0.017241847
105	0x3dd11c29	0.10210449
106	0xbd3a2ea7	-0.045454647
107	0x3c2999af	0.010351582
108	0x3e1309cd	0.14359207
109	0xbdfca60d	-0.12336359
110	0xbdcc9d9f	-0.09991001
111	0xbe34a4bd	-0.17640968
112	0x3d0f183d	0.034935225
113	0x3da73649	0.08164651
114	0x3c503c1b	0.012709643
115	0x3d0a49c2	0.033761747
116	0xbd36e301	-0.04465008
117	0x3e1bf869	0.1523148
118	0x3e0402aa	0.12891641
119	0x3dd81a77	0.10551923
120	0x3b279354	0.0025569992
121	0x3dfed8ea	0.12443717
122	0xbdca8d05	-0.098901786
123	0xbd74529d	-0.0596491
124	0x3e0264d7	0.1273378
125	0x3d05bd9b	0.032651525
126	0xbe1bbcaf	-0.15208696
127	0xbd209d8b	-0.039212745
128	0x3bfec1ee	0.007774583
129	0xbd9784cb	-0.07398375
130	0x3d436f8f	0.047713812
131	0xbda70b87	-0.081564955
132	0x3d819420	0.06327081
133	0xbd9094fa	-0.07059665
134	0x3d10888c	0.03528647
135	0x3da4e98c	0.08052358
136	0xbdf71b97	-0.12065809
137	0xbdc112d6	-0.09427421
138	0xbde3618d	-0.11102591
139	0x3dcead0d	0.100916006
140	0x3c0280c1	0.007965268
141	0xbdeaa47f	-0.114571564
142	0x3cd65548	0.026163712
143	0x3db53c1c	0.088493556
144	0xbd3cbc3c	-0.04607795
145	0x3da50bfb	0.08058926
146	0x3e142dff	0.14470671
147	0xbdc2ae85	-0.09505943
148	0x3c59b8c2	0.013288679
149	0xbd8b1539	-0.06791157
150	0x3d101f9b	0.03518639
151	0xbd56c2c9	-0.052431855
152	0xbdaf0817	-0.08546465
153	0xbd2148a0	-0.0393759
154	0xbd478250	-0.04870826
155	0xbce3c322	-0.027803008
156	0x3cc6e8f7	0.024281008
157	0x3d174dcd	0.03693943
158	0xbc3df8ba	-0.011594946
159	0x3e008bbe	0.12553307
160	0x3dfab661	0.12241817
161	0xbe10ff67	-0.14159928
162	0x3d3898b2	0.045067497
163	0xbd2d9546	-0.042378686
164	0x3e44d9f2	0.19223765
165	0x3e1597d8	0.14608705
166	0x3cda14a2	0.026621167
167	0x3df12855	0.11775271
168	0xbaf45f8a	-0.0018644196
169	0xbd7a6718	-0.061133474
170	0xbe04a5f8	-0.12953937
171	0x3ddee85a	0.10884161
172	0xbd98c2e1	-0.07459045
173	0xbcd7af99	-0.026328849
174	0xbd112500	-0.035435677
175	0xbdbb8c29	-0.09157593
176	0xbd374d6c	-0.04475157
177	0xbdbf1baf	-0.09331452
178	0xbe297baa	-0.1655108
179	0xbd8c2b84	-0.068442374
180	0x3d803ccc	0.06261596
181	0xbc0820cc	-0.008308601
182	0xbdc02573	-0.09382143
183	0xbd71f930	-0.059075534
184	0xbe46dd44	-0.19420344
185	0x3d1470b6	0.036240302
186	0x3d692efe	0.05692958
187	0x3c5f4c9f	0.013629108
188	0x3dc2bfdb	0.0950925
189	0xbc832b07	-0.016011728
190	0x3d2163c2	0.039401777
191	0xbd7c014e	-0.06152468
192	0xbc37045b	-0.011170472
193	0xb9e869a2	-0.0004432919
194	0x3d6cd02b	0.057815712
195	0x3e1ced14	0.15324813
196	0xbd96087e	-0.073258385
197	0xbd542ed2	-0.051802464
198	0x3ce52cd8	0.027975485
199	0xbda40fdf	-0.0801084
200	0xbd839a5c	-0.06425926
201	0xbd35ef43	-0.04441763
202	0xbc4c6c81	-0.012477041
203	0x3e247e16	0.16063723
204	0x3c33934e	0.010960413
205	0x3d6a822c	0.057253048
206	0xbdb9f667	-0.09080201
207	0xbdab14cf	-0.08353578
208	0x3cf3e9c7	0.02977456
209	0xbd2edf97	-0.0426937
210	0x3d4153df	0.047199126
211	0x3e0443d7	0.12916504
212	0xbbbebfa7	-0.0058211866
213	0xbd95e20d	-0.073185064
214	0xbe24e89d	-0.1610436
215	0xbda2d9b7	-0.07951682
216	0x3e110243	0.14161019
217	0x3dc213a0	0.094763994
218	0xbd17d40d	-0.03706746
219	0xbe2c233f	-0.1681032
220	0x3cbdefd5	0.02318565
221	0x3e0c480d	0.1369936
222	0xbda51ec1	-0.080625065
223	0x3e0cf676	0.13765892
224	0xbe08b3b1	-0.13349797
225	0x3cc4eee1	0.024039688
226	0x3d93cb54	0.07216516
227	0xbdd6a540	-0.10480738
228	0x3de5f98d	0.11229239
229	0xbdd9208d	-0.10601912
230	0x3d2d0f05	0.042250652
231	0x3dcf3469	0.10117418
232	0xbd18060a	-0.037115134
233	0xbd8b71bc	-0.068088025
234	0x3d97bb2f	0.07408749
235	0x3d9386ca	0.07203443
236	0x3d01a1c7	0.031648424
237	0x3afda117	0.0019350377
238	0xbd4e0611	-0.050298754
239	0x3dc1f514	0.09470573
240	0xbdc8a9a8	-0.09797984
241	0xbdf6a12e	-0.12042461
242	0xbd043541	-0.03227735
243	0x3d78048d	0.060551215
244	0xbd96b430	-0.07358587
245	0xbdf00fc0	-0.11721754
246	0x3b67919d	0.0035334595
247	0xbe16c77b	-0.14724533
248	0x3c5773d8	0.013150178
249	0x3db8e0ec	0.090272754
250	0xbdaaa07f	-0.083313935
251	0xbd8eaf4a	-0.069670275
252	0xbcd3f9c0	-0.025875926
253	0xbe16fbfa	-0.14744559
254	0x3d0e2e52	0.034712143
255	0xbd8a46e4	-0.067518026

input_layer.bias f4 [99]
0	0x3b8af988	0.004241172
1	0xbe0093c9	-0.12556376
2	0x3e13b8c3	0.1442595
3	0xbca880d2	-0.020569239
4	0x3e4a607c	0.19763368
5	0xbe01ab5c	-0.12663025
6	0xbdec0a86	-0.11525445
7	0x3d18aebd	0.03727602
8	0xbdb65cd1	-0.08904422
9	0x3d211e6e	0.03933566
10	0xbe0cd964	-0.13754803
11	0x3cc49646	0.023997437
12	0xbda923f4	-0.08258811
13	0x3dea9896	0.11454885
14	0xbd35be13	-0.044370722
15	0x3d2e1ece	0.042509846
16	0xbc6364fa	-0.013879055
17	0xbe01c86e	-0.12674114
18	0xbdb4dcf5	-0.08831207
19	0x3da88610	0.082286954
20	0x3d3ed9df	0.046594497
21	0x3dd2eefe	0.102994904
22	0x3ddbbbc2	0.10729171
23	0xbdc63fc6	-0.096801326
24	0x3dd8aff2	0.10580434
25	0x3e1661d5	0.14685757
26	0xbdbf5878	-0.09343046
27	0x3df47d58	0.1193797
28	0xbcbf8408	-0.023378387
29	0xbd9fb512	-0.07798208
30	0xbdd64ec5	-0.10464243
31	0xbc90ae25	-0.017661164
32	0xbb95b7bd	-0.0045690225
33	0xbdc06414	-0.093940884
34	0x3cd8f1e6	0.026482534
35	0x3dfb1050	0.12258971
36	0xbd0b62b3	-0.034029674
37	0xbd96fae0	-0.07372069
38	0xbe01e649	-0.12685503
39	0xbd4c7714	-0.04991825
40	0xbcf1e7c9	-0.02952947
41	0x3cd4a3ec	0.02595707
42	0x3e3185e2	0.17336228
43	0xbdc9b43c	-0.0984883
44	0xbd43983d	-0.047752608
45	0x3da9066c	0.08253178
46	0x3cc8697f	0.024464367
47	0x3dde5ffb	0.108581506
48	0x3da717ff	0.08158874
49	0xbcbcd3c9	-0.023050206
50	0x3dc737ef	0.09727465
51	0x3dedbda2	0.11608435
52	0x3d7a5e2f	0.061124977
53	0xbd0014a7	-0.031269696
54	0xbdc9fe8b	-0.09863003
55	0xbe05820d	-0.13037892
56	0xbddb5754	-0.10710016
57	0xbde171b5	-0.11008016
58	0xbdf80403	-0.1211014
59	0xbd34cf73	-0.04414315
60	0x3cfa4018	0.03054814
61	0x3e0b0323	0.13575415
62	0x3c7df084	0.015499238
63	0x3dd0eef7	0.10201829
64	0xbe0c9682	-0.13729289
65	0xbd0fc521	-0.035100106
66	0xbdf0d5a7	-0.11759501
67	0xbe0177e9	-0.12643398
68	0xbe075513	-0.13216047
69	0xbd688e35	-0.056776244
70	0xbde1e3d0	-0.1102978
71	0x3e076d7d	0.1322536
72	0xbd6caa61	-0.057779673
73	0x3de2ac6c	0.11068043
74	0xbdcab738	-0.098982275
75	0xbce41b0f	-0.027844934
76	0xbcbc476b	-0.022983273
77	0xbe2d02bb	-0.16895573
78	0x3dc8492b	0.09779581
79	0xbd87310a	-0.0660115
80	0x3de2736f	0.110571735
81	0xbdcc200a	-0.099670485
82	0xbe0c5368	-0.13703692
83	0x3e0520fe	0.13000867
84	0xbdfbc2bb	-0.12293001
85	0x3d620e2f	0.055189308
86	0xbe010014	-0.12597686
87	0x3d912939	0.07087941
88	0xbdebaca7	-0.1150754
89	0x3c75ab64	0.014994476
90	0x3dd47a4d	0.103748895
91	0x3e20c3de	0.15699717
92	0x3d97edc7	0.07418399
93	0xbdb75449	-0.08951623
94	0xbc141693	-0.009038585
95	0x3e0ae8d0	0.13565373
96	0xbdc70fe0	-0.09719825
97	0xbc39a20e	-0.011330141
98	0xbced8232	-0.028992746

hidden.0.weight f4 [99, 99]
0	0xbe040d67	-0.12895738
1	0xbd4b3427	-0.049610283
2	0x3c1f410f	0.009720101
3	0xbde67215	-0.11252228
4	0x3d9de1c2	0.077090755
5	0xbcbc9031	-0.023017975
6	0x3b0007ba	0.0019535855
7	0x3d9ef3f5	0.07761375
8	0xbcc8a2f9	-0.024491774
9	0x3d65dab5	0.05611678
10	0xbbfea50d	-0.0077711404
11	0x3d34fc61	0.044186
12	0x3d632cd5	0.055462677
13	0x3d17e3c2	0.03708244
14	0x3d80356d	0.0626019
15	0x3e130533	0.14357452
16	0xbde98483	-0.11402228
17	0x3d06eb64	0.03293933
18	0xbd403059	-0.046921108
19	0x3c6789f8	0.014132015
20	0xbdad1e7c	-0.0845308
21	0x3cf3dc80	0.029768229
22	0x3b8c4027	0.0042801085
23	0x3de0c1ee	0.10974489
24	0x3db909c4	0.09035066
25	0x3d918d4f	0.071070306
26	0xbd5eab59	-0.05436263
27	0xbd1bae8e	-0.038008265
28	0xbdab3079	-0.08358855
29	0xbd87de0c	-0.06634149
30	0xbdfd6a98	-0.12373847
31	0xbce293c9	-0.02765836
32	0xbdf72174	-0.120669276
33	0x3d22dfd0	0.039764225
34	0x3c57eda4	0.0131792165
35	0x3db0196f	0.08598601
36	0x3d60c0a7	0.054871228
37	0x3d9ce796	0.07661359
38	0x3d8da6e8	0.069166005
39	0x3dcf86a9	0.10133106
40	0x3e1c707f	0.15277289
41	0x3e1202dc	0.14258903
42	0xbd49dc18	-0.049282163
43	0x3c0a0234	0.008423377
44	0x3da7bb11	0.08189977
45	0x3d062043	0.03274561
46	0xbd9290d5	-0.07156531
47	0xbbd5e708	-0.006527785
48	0xbd81c429	-0.06336243
49	0xbdaee913	-0.08540549
50	0xbddf893b	-0.109148465
51	0x3dd2c59b	0.102915965
52	0xbcf41bcf	-0.029798416
53	0x3cadafb9	0.021201955
54	0xbdf70c64	-0.1206291
55	0xbcf84242	-0.030305032
56	0x3c5a1b9b	0.013312246
57	0x3afe31ef	0.0019393543
58	0x3d2ade61	0.041715983
59	0x3cd201ad	0.025635565
60	0x3e384100	0.17993546
61	0x3e0abd16	0.13548693
62	0x3d59dc25	0.05318846
63	0x3e12d7e4	0.14340168
64	0xbd725283	-0.05916072
65	0xbd49ae8d	-0.04923873
66	0x3da46f78	0.080290735
67	0x3db561f5	0.088565744
68	0x3d872391	0.06598581
69	0x3d0a1418	0.03371057
70	0xbb49bed0	-0.00307839
71	0x3dd211d6	0.10257308
72	0x3cec7b3d	0.028867358
73	0xbd959f05	-0.07305721
74	0x3c07f874	0.008298982
75	0x3cedd66e	0.029032912
76	0xbd9b83ba	-0.07593484
77	0xbc013777	-0.007886759
78	0x3dd7b725	0.10532979
79	0xbd3145b2	-0.043279357
80	0xbd011e36	-0.031522952
81	0xbca6e82e	-0.020374384
82	0xbca167a3	-0.019702738
83	0x3ca1ad29	0.01973589
84	0x3df9e004	0.12200931
85	0xbd637197	-0.05552825
86	0xbd0de2c9	-0.034640107
87	0x3c37a3c7	0.011208481
88	0xbd6a1360	-0.057147384
89	0x3d48f182	0.049058445
90	0x3b90696f	0.0044071
91	0x3dba83f8	0.09107202
92	0xbdc4802a	-0.09594758
93	0x3d81ee4d	0.063442804
94	0xbd479176	-0.048722707
95	0x3d5ad17d	0.05342244
96	0x3de01156	0.109408066
97	0x3de05465	0.10953597
98	0xbd2cfa20	-0.042230725
99	0x3d2d2e4f	0.04228049
100	0x3bfaa735	0.007649327
101	0xbd3e4b6b	-0.046458643
102	0x3db94048	0.09045464
103	0x3c8bd1e2	0.017067853
104	0x3cef99cc	0.02924814
105	0x3d897b86	0.06713013
106	0x3d569ec1	0.052397493
107	0x3e058d9c	0.13042301
108	0xbd4fe356	-0.050753914
109	0x3d7c4c44	0.06159617
110	0xbde9a9d1	-0.11409343
111	0xbcf6f4ab	-0.030145964
112	0xbdec347b	-0.11533447
113	0x3d8716ef	0.06596171
114	0xbd0d02ba	-0.03442643
115	0xbd1ccdf0	-0.038282335
116	0x3cc36513	0.023851907
117	0xbdb4294f	-0.087969415
118	0x3c9fb97b	0.019497624
119	0x3c0262d1	0.00795813
120	0x3c95f1b3	0.018303728
121	0xbe1780fd	-0.14795299
122	0xbd41b8be	-0.047295325
123	0xbd68f2ac	-0.056872055
124	0x3c99aa91	0.01875809
125	0xbd8f9923	-0.070116304
126	0xbda9c12a	-0.08288796
127	0xbd9c0a89	-0.07619197
128	0x3cce9beb	0.025220832
129	0x3d2e87cd	0.04260998
130	0x3dd03377	0.10166066
131	0xbd83243a	-0.06403394
132	0xbdd9c235	-0.10632745
133	0xbd2fd905	-0.042931575
134	0xbd851a40	-0.064991474
135	0x3e0b3445	0.13594158
136	0x3c5edba5	0.013602172
137	0x3d9379a9	0.07200939
138	0xbd253d5d	-0.040341724
139	0x3e03f364	0.12885815
140	0xbda04c26	-0.07827024
141	0x3d813ec0	0.06310797
142	0x3d8a842e	0.067634925
143	0xba0bf829	-0.0005339408
144	0xbd8dbbe9	-0.06920607
145	0xbd7f7f4f	-0.06237727
146	0x3ae06750	0.0017120633
147	0xbe08f07d	-0.13372989
148	0xbc884018	-0.016632125
149	0x3d46456f	0.04840606
150	0x3d29569a	0.041342355
151	0x3cb723e9	0.02235599
152	0x3d3636c5	0.044485826
153	0xbdcab68a	-0.09898098
154	0x3d20ef6d	0.039290834
155	0x3cc535d4	0.024073519
156	0xbd217794	-0.03942068
157	0xbb8a3cec	-0.0042186882
158	0x3d069cab	0.032864254
159	0xbd5093e0	-0.050922275
160	0x3cae8e65	0.021308133
161	0xbc799a9e	-0.0152346175
162	0x3dd178cc	0.10228118
163	0xbcc9fef7	-0.02465771
164	0x3c456cb9	0.012049847
165	0x3c699602	0.014256956
166	0xbdc0cc97	-0.094140224
167	0xbd93b1ca	-0.07211645
168	0xbd40b017	-0.047042932
169	0xbde038f2	-0.109483615
170	0xbdc49154	-0.09598032
171	0xbc8fd662	-0.01755828
172	0x39cce30f	0.00039079084
173	0xbdf0eec5	-0.11764292
174	0xbc8ede22	-0.017439906
175	0x3d4f0fb1	0.050552074
176	0xbdcff9c4	-0.10155061
177	0x3c8c2dc0	0.017111659
178	0xbd667c03	-0.05627061
179	0xbc81cacd	-0.015843773
180	0xbe0356df	-0.12826107
181	0xbdd8da2b	-0.10588487
182	0xbca9856c	-0.020693503
183	0x3ddbae8f	0.10726654
184	0xbcaa946d	-0.020822728
185	0x3d6444d8	0.055729717
186	0xbd9a48d7	-0.07533424
187	0x3bb143e1	0.005409703
188	0xbd89aa3a	-0.06721921
189	0xbd31eb46	-0.043437265
190	0x3d12d87a	0.03585098
191	0x3da5de75	0.08099071
192	0x3c036ccf	0.008021547
193	0xbdc2df55	-0.095152535
194	0x3d24aec5	0.040205736
195	0x3b1f79a3	0.0024333976
196	0x3d469c38	0.048488826
197	0xbca3a152	-0.019974384
198	0xbd76957d	-0.060201157
199	0x3ddc2e49	0.10751016
200	0xbd79d4d3	-0.06099398
201	0x3c3a6f27	0.01137904
202	0xbdef9a42	-0.11699344
203	0x3d5d669a	0.054052927
204	0xbd2d9b7a	-0.042384602
205	0x3d514de6	0.05109968
206	0x3d264483	0.04059268
207	0xbdf0c7ad	-0.11756835
208	0x3dc9d051	0.09854186
209	0x3dbfdd63	0.09368398
210	0xbd7a6928	-0.06113544
211	0xbdaedef8	-0.08538622
212	0x3c7cc3cb	0.01542754
213	0x3e17f7fa	0.1484069
214	0xbcc13c4e	-0.023588326
215	0xbd9c25c6	-0.07624392
216	0x3d1882f6	0.03723427
217	0xbc24a67c	-0.010049459
218	0xbd6d538d	-0.05794101
219	0x3d85e795	0.065383114
220	0x3dc73024	0.09725979
221	0x3d6dbed6	0.058043323
222	0xbd73b007	-0.059494045
223	0x3c4641d4	0.012100656
224	0xbc19a4f9	-0.009377711
225	0x3d087088	0.033310443
226	0x3c816704	0.015796192
227	0xbd94cbc3	-0.07265427
228	0xbda86dd4	-0.08224073
229	0xbd69d5fa	-0.05708883
230	0x3dd2a5e1	0.10285545
231	0xbd220f57	-0.03956541
232	0x3d781158	0.060563415
233	0x3e015165	0.12628706
234	0xbda5ec7e	-0.08101748
235	0xbe1052c7	-0.14094077
236	0xbda25943	-0.079271816
237	0x3cc9da54	0.02464024
238	0x3b342d61	0.0027492868
239	0x3dc27652	0.09495224
240	0x3c523d00	0.012831926
241	0xbb963f75	-0.0045852014
242	0xbb178433	-0.0023119568
243	0xbd871e79	-0.06597609
244	0xbca8362a	-0.02053364
245	0x3d7328ac	0.05936496
246	0x3dd6a527	0.10480719
247	0xbc8854ca	-0.016641993
248	0xbd9f2943	-0.07771542
249	0xbdcb1fbe	-0.09918164
250	0x3c7b5b87	0.015341646
251	0xbd54cb02	-0.051951416
252	0xbdd0d670	-0.10197151
253	0xbd6020ac	-0.05471866
254	0xbde321df	-0.11090445
255	0xbd1467db	-0.036231857

hidden.0.bias f4 [99]
0	0xbd0b8664	-0.03406371
1	0x3db73913	0.08946433
2	0xbdb9e6e2	-0.090772405
3	0xbd6c26fa	-0.05765436
4	0x3d83d54f	0.0643717
5	0xbd9e71a7	-0.07736521
6	0xbd72293a	-0.059121348
7	0xbd2f84aa	-0.042851128
8	0xbd6f9c13	-0.058498453
9	0x3d3cfd9a	0.04614029
10	0x3dcd205d	0.100159384
11	0x3d610783	0.054938804
12	0xbd9a3a53	-0.07530656
13	0x3d2fcc6e	0.04291957
14	0x3db4c597	0.0882675
15	0xbb772374	-0.003771034
16	0x3d50d2fa	0.050982453
17	0x3d89292e	0.066973075
18	0xbd021679	-0.031759713
19	0xbae333e1	-0.0017334187
20	0xbd9366b4	-0.071973234
21	0x3dc0d60c	0.09415826
22	0xbd238647	-0.03992298
23	0xbd555f69	-0.052092943
24	0xbd3d158a	-0.04616312
25	0x3cc6d447	0.024271144
26	0xbde40caf	-0.11135232
27	0x3cd7e5c1	0.026354672
28	0xbbff4068	-0.0077896602
29	0x3da53193	0.08066096
30	0x3d02929b	0.031878095
31	0xbd7d1a71	-0.061792795
32	0xbd8ede9e	-0.069760546
33	0xbdb0ef9b	-0.08639451
34	0x3c70e462	0.014702888
35	0xbdf1a2bc	-0.11798617
36	0x3d126078	0.03573653
37	0x3c1db416	0.009625455
38	0x3d62558b	0.05525736
39	0xbd9dfea9	-0.07714588
40	0x3da648a5	0.081193246
41	0x3d5e1709	0.054221187
42	0xbb49e33f	-0.0030805615
43	0xbdb525c7	-0.08845096
44	0x3d8bbbd5	0.068229355
45	0x3cb5a658	0.022174045
46	0xbce0a234	-0.027421094
47	0xbb3e5d73	-0.00290474
48	0xbd060703	-0.03272153
49	0x3d1a1313	0.037615847
50	0x3d66111a	0.056168653
51	0x3dc16b59	0.09444303
52	0xbd51c7df	-0.051216003
53	0xbcbb5fd3	-0.022872841
54	0xbc86fdff	-0.016478537
55	0x3d6424ce	0.055699162
56	0x3d945c6f	0.07244193
57	0x3d994c92	0.07485308
58	0xbd09bdf5	-0.033628423
59	0x3d093c4c	0.03350477
60	0x3d6a7252	0.05723793
61	0x3df43850	0.11924803
62	0xbdb2c36a	-0.087286785
63	0x3d6a4c69	0.057201777
64	0xbd79cfe6	-0.060989283
65	0x3cf0d9ff	0.029400824
66	0xbda21721	-0.07914568
67	0x3dc254c2	0.094888225
68	0x3cbf13a1	0.02332479
69	0xbd8d562f	-0.06901204
70	0xbdcaad7f	-0.09896373
71	0x3c38ce7e	0.0112797
72	0x3dc42299	0.095769115
73	0x3b8ba09b	0.004261089
74	0xbd7f1636	-0.06227704
75	0x3d2a0a00	0.041513443
76	0xbcac47b3	-0.021030283
77	0x3d70a0da	0.05874715
78	0xbd184e3f	-0.037183996
79	0x3dfed699	0.12443275
80	0x3d066571	0.032811586
81	0xbdba7441	-0.09104205
82	0xbd5881b8	-0.052858084
83	0xbd4ac240	-0.049501657
84	0xbd1f48fd	-0.038887966
85	0xbce31a93	-0.027722633
86	0x3c52c78b	0.012864958
87	0xbd7e2e66	-0.062055968
88	0x3d019544	0.03163649
89	0x3db3125a	0.08743735
90	0xbd08b9b1	-0.033380214
91	0xbdbae796	-0.09126203
92	0xbd12746d	-0.035755564
93	0xbd7a80a1	-0.061157826
94	0xbc34cab3	-0.011034655
95	0x3d90dc3e	0.07073258
96	0x3dc4aae0	0.09602904
97	0xbdbc7345	-0.092016734
98	0x3ccb332c	0.024804674

hidden.1.weight f4 [99, 99]
0	0xbb80a25c	-0.0039256047
1	0xbcdd6e3d	-0.027030105
2	0x3d86eb18	0.06587809
3	0x3e25bff1	0.16186501
4	0xbdb432b4	-0.08798733
5	0x3d81d7f0	0.06340015
6	0x3de0ad2e	0.109705314
7	0x3dd7d945	0.10539488
8	0xbd8ea0e9	-0.06964285
9	0x3c05bad3	0.008162218
10	0x3dfd79d6	0.12376754
11	0xbd4b09c6	-0.049569868
12	0xbe0c46e8	-0.13698924
13	0xbd8312a6	-0.06400041
14	0xbd628301	-0.055300716
15	0xbe253d61	-0.16136695
16	0xbd36c703	-0.044623386
17	0xbd054e66	-0.03254547
18	0x3aa8def1	0.0012883825
19	0x3d33a808	0.04386142
20	0xbddc00a1	-0.107423075
21	0x3d77de77	0.060514893
22	0x3dddc6a4	0.10828903
23	0xbb81bd48	-0.0039593317
24	0x3d100931	0.035165016
25	0x3d480c5c	0.04883991
26	0x3e03a7ad	0.12856932
27	0x3d841c21	0.06450678
28	0xbd3358b6	-0.043785773
29	0xbd1d6d0d	-0.038434077
30	0xbd981a44	-0.07426885
31	0x3e269bc6	0.1627036
32	0x3db2cebf	0.0873084
33	0x3e15fb25	0.14646585
34	0x3c7d74d7	0.015469751
35	0xbc417cec	-0.011809569
36	0x3cded56e	0.02720138
37	0xbdb825d9	-0.08991594
38	0xbd67d712	-0.05660159
39	0xbd6ddd17	-0.058072176
40	0x3b963c25	0.0045848065
41	0x3db785c8	0.089610636
42	0xbddf5223	-0.10904338
43	0x3d1f995b	0.03896461
44	0x3d9e8c37	0.077415876
45	0x3d25698c	0.04038386
46	0xbb89edd1	-0.004209258
47	0x3dc54d64	0.09633902
48	0xbdf5a4b3	-0.119943045
49	0xbde04766	-0.10951118
50	0x3db187ca	0.08668478
51	0x3e09896d	0.1343133
52	0xbc1dadb7	-0.009623936
53	0xbc447631	-0.01199107
54	0xbd618a4d	-0.055063535
55	0xbc9ea99a	-0.019367982
56	0x3c4c445b	0.012467469
57	0xbde784f4	-0.11304656
58	0xbd9a967c	-0.07548234
59	0xbbeaae2d	-0.0071618767
60	0xbdb5f3bd	-0.0888438
61	0x3d8645bb	0.06556269
62	0xbd741a54	-0.05959542
63	0x3d544b24	0.051829472
64	0x3d2ade84	0.041716114
65	0xbc0fad12	-0.0087692905
66	0x3da9afda	0.08285494
67	0xbe32ee32	-0.17473677
68	0xbd900242	-0.07031681
69	0xbb2bdc87	-0.0026223974
70	0x3e259225	0.16169031
71	0x3d31980a	0.043357886
72	0x3e0cc4d7	0.13746963
73	0xbdc217cc	-0.09477195
74	0xbdba59f7	-0.09099191
75	0x3d1a767b	0.037710648
76	0x3d64a695	0.055822928
77	0x3c061a66	0.008185005
78	0x3da247fc	0.07923886
79	0x3ac2b86e	0.001485599
80	0xbdca60b9	-0.0988173
81	0x3e160cd6	0.14653334
82	0x3d3fcbe8	0.04682532
83	0x3d086358	0.033297867
84	0x3d9c7298	0.076390445
85	0xbdd6d546	-0.104898974
86	0xbd698bf4	-0.057018235
87	0x3dc029d8	0.09382981
88	0xbd717360	-0.05894792
89	0x3d4c4db3	0.049878787
90	0x3e0a04db	0.13478415
91	0xbd766c79	-0.06016204
92	0x3de79248	0.11307198
93	0xbe06acf8	-0.1315192
94	0xbd985630	-0.07438314
95	0xbca81602	-0.020518307
96	0xbde8e83f	-0.113724224
97	0x3d3d30fc	0.046189293
98	0xbb569c61	-0.0032747018
99	0xbdb3a8d9	-0.087724395
100	0x3e087fa1	0.13329937
101	0x3db2f44c	0.08738002
102	0xbde94b46	-0.113913104
103	0x3c7e5512	0.015523212
104	0x3e104cf8	0.14091861
105	0xbddf7763	-0.10911443
106	0xbd9aeeb8	-0.07565063
107	0xbcdc0589	-0.026858108
108	0xbc856d2b	-0.016287407
109	0xbde8c83c	-0.11366317
110	0x3d3f1a37	0.04665586
111	0x3b220f62	0.0024728407
112	0x3c6a31f8	0.01429414
113	0xbdb7318e	-0.08944999
114	0x3cf3b105	0.029747495
115	0x3da8f421	0.08249689
116	0xbd822c4c	-0.06356105
117	0xbc4cf725	-0.012510096
118	0xbe13a180	-0.14417076
119	0xbdc261c2	-0.09491302
120	0xbe42f9fd	-0.19040675
121	0x3db4bd8c	0.08825216
122	0xbd07f488	-0.033192188
123	0x3e0e4e9b	0.13897173
124	0x3d7120c7	0.05886915
125	0xbdc45bc6	-0.09587817
126	0xbe26126f	-0.1621797
127	0x3d83f979	0.064440675
128	0xbe31054a	-0.17287174
129	0xbe010024	-0.1259771
130	0xbde0dd94	-0.10979763
131	0x3c0e6652	0.008691387
132	0x3d48ea3f	0.04905152
133	0x3d4b1bac	0.049586937
134	0x3e27bf50	0.16381574
135	0xbd659976	-0.056054555
136	0x3db40b50	0.0879122
137	0x3bd9cb5e	0.0066465577
138	0x3d9f9dff	0.07793807
139	0xbc69d464	-0.014271829
140	0xbe0c6e65	-0.13713987
141	0xbd4faae0	-0.05070007
142	0x3c9522f0	0.018205136
143	0xbc9c79f6	-0.019101124
144	0x3e293932	0.16525725
145	0x3d4fdf77	0.050750222
146	0xbc13f54c	-0.009030651
147	0x3d250019	0.040283296
148	0xbd6c41df	-0.057680007
149	0x3d85ff75	0.06542865
150	0xbd677671	-0.05650944
151	0xbdc5ed19	-0.096643634
152	0xbd8d73f8	-0.06906885
153	0x3e49f482	0.19722179
154	0x3da98442	0.08277179
155	0xbdf224fb	-0.1182346
156	0x3d75fd94	0.060056284
157	0x3b11e7fe	0.0022263522
158	0x3d5f1162	0.054459937
159	0xbd937104	-0.071992904
160	0xbe0b84cf	-0.13624881
161	0x3ddf0198	0.10888976
162	0xbd92cddc	-0.07168171
163	0x3ca2229c	0.019791894
164	0x3ce2b503	0.027674204
165	0xbbdcdb8a	-0.0067400383
166	0x3d4b336c	0.049609587
167	0x3d20bbbd	0.03924154
168	0xbc6af03c	-0.014339503
169	0xbdde7c58	-0.108635604
170	0xbe2a558f	-0.166342
171	0xbded82ba	-0.115972
172	0x3df95f52	0.12176384
173	0xbd19c1c4	-0.037538305
174	0x3dc4bda4	0.096064836
175	0xbda17034	-0.07882729
176	0xbc9dfe5d	-0.019286329
177	0x3dbd854e	0.092539415
178	0xbe1da0bd	-0.15393348
179	0xbe1b4312	-0.15162304
180	0x3d7b9b03	0.061427128
181	0x3dabb33d	0.08383796
182	0xbd296fc2	-0.041366346
183	0x3c90d484	0.01767946
184	0x3db6b3d3	0.089210175
185	0xbda9128f	-0.08255493
186	0xbd6fa037	-0.058502402
187	0xbcbb2ea0	-0.022849381
188	0xbbf53b8e	-0.007483906
189	0x3cce2d55	0.0251681
190	0xbd8db0d4	-0.06918493
191	0xbdb40c10	-0.08791363
192	0x3d3dd64f	0.04634696
193	0x3d0dd2e0	0.034624934
194	0xbd543731	-0.051810447
195	0x3d231210	0.039812148
196	0x3e02215e	0.12708041
197	0xbd750c24	-0.05982603
198	0x3df38bb3	0.1189188
199	0x3db48cf2	0.08815946
200	0x3d09473e	0.033515207
201	0xbc6b01c4	-0.014343683
202	0x3afc6d38	0.0019258624
203	0x3db82952	0.08992256
204	0x3c20ab0b	0.009806405
205	0xbd407363	-0.04698504
206	0x3dd0b8c3	0.101914905
207	0x3e0adc37	0.13560568
208	0x3af9aab7	0.0019048069
209	0xbdf8970e	-0.121381864
210	0xbcb23470	-0.02175352
211	0xbd3e2fc9	-0.04643229
212	0x3d66ec4e	0.0563777
213	0xbd10b183	-0.03532554
214	0x3e02b7cc	0.12765425
215	0x3d9abac5	0.07555155
216	0x3d9dcd4b	0.07705172
217	0xbe105a4e	-0.14096949
218	0xbd611a3d	-0.054956663
219	0xbda246f6	-0.07923691
220	0xbd157395	-0.03648718
221	0xbcba5b16	-0.022748511
222	0x3dc55956	0.0963618
223	0x3ceb6205	0.028733263
224	0x3c5e9f90	0.013587847
225	0xbc0629b8	-0.008188657
226	0x3ccd9aa6	0.025098156
227	0x3c749bea	0.014929751
228	0x3d38da07	0.045129802
229	0xbccc015f	-0.024902998
230	0xbdcbd142	-0.09952022
231	0xbd32b627	-0.043630745
232	0x3d026805	0.031837482
233	0xbdcb0315	-0.09912697
234	0xbd091b91	-0.033473555
235	0xbd5651b2	-0.052324004
236	0xbceb19d9	-0.028698849
237	0xbd071a9c	-0.03298436
238	0xbdecbcf3	-0.11559477
239	0x3c8a0f5b	0.016853025
240	0x3d8970fb	0.067110024
241	0xbd80ea72	-0.06294717
242	0xbd1b3ca4	-0.03789963
243	0x3cf6adeb	0.030112227
244	0xbb05a245	-0.002039091
245	0x3bbc80af	0.005752645
246	0xbccd646f	-0.025072305
247	0xbd97d73a	-0.07414098
248	0xbdb717cd	-0.089400865
249	0x3caab818	0.020839736
250	0x3c5dc932	0.013536738
251	0x3de7d48b	0.11319836
252	0xbc8c2d5f	-0.017111478
253	0x3c83d779	0.016093956
254	0x3dc7b9f3	0.09752264
255	0x3dd479c1	0.10374785

hidden.1.bias f4 [99]
0	0xbdaf65c0	-0.08564329
1	0x3d32f2e5	0.043688674
2	0xbd77abc5	-0.060466547
3	0x3d43ecd3	0.047833275
4	0x3cfdf1c6	0.030999076
5	0xbd811c02	-0.0630417
6	0xbc183239	-0.009289318
7	0x3a9ad629	0.0011813092
8	0xbd092a1a	-0.033487417
9	0xbddca6ff	-0.107740395
10	0xbcac4e2c	-0.021033369
11	0xbb06ef3a	-0.0020589367
12	0xbda27cd8	-0.07933968
13	0x3d53cca8	0.051708847
14	0xbd04eb8c	-0.032451198
15	0xbc13aff0	-0.009014115
16	0xbd6386f8	-0.055548638
17	0x3d3c7921	0.046013955
18	0xbc99c1e9	-0.018769221
19	0xbd99c312	-0.0750791
20	0xbd83c5f6	-0.064342424
21	0x3d6594ca	0.0560501
22	0xbd01bc6a	-0.031673826
23	0xbd9f1f74	-0.07769671
24	0xbd81dafb	-0.06340595
25	0xbd7d304a	-0.06181363
26	0x3d836c8e	0.064171895
27	0xbdaad7a4	-0.083419114
28	0xbd4a90e5	-0.04945459
29	0xbb9f7c19	-0.0048670885
30	0x3dda893a	0.10670705
31	0x3d975739	0.07389683
32	0x3dd8b860	0.10582042
33	0xbdccdbc7	-0.10002857
34	0x3d36837e	0.044558994
35	0xbd99ebe1	-0.075156935
36	0x3d0a9377	0.03383204
37	0xbdcc8101	-0.09985543
38	0xbc5cec87	-0.013484127
39	0xbcf17431	-0.02947435
40	0xbddd98c6	-0.10820155
41	0x3ddc6e72	0.10763253
42	0xbc2b9039	-0.010471397
43	0xbd85f869	-0.06541521
44	0xbd6b9564	-0.057515517
45	0xbd1546c4	-0.03644444
46	0xbde14fff	-0.11001586
47	0x3dc4f9d5	0.09617964
48	0xbbe05e2e	-0.0068471646
49	0xbc8acef2	-0.016944382
50	0xb8ef6aa7	-0.000114162736
51	0x3da9b68c	0.08286771
52	0xbd813f92	-0.06310953
53	0x3da380a8	0.079835236
54	0xbdb21ff7	-0.08697503
55	0xbd15ae1d	-0.036543
56	0x3d124583	0.035710823
57	0x3d1c1630	0.038107097
58	0x3d06ea30	0.032938182
59	0xbd7bf7a5	-0.06151547
60	0xbcb35a0f	-0.02189353
61	0x3c20206d	0.009773356
62	0x3ce89e52	0.028395806
63	0x3ddf4195	0.10901181
64	0x3d8abc72	0.06774224
65	0xbc9d2907	-0.019184602
66	0x3d13e85f	0.03611028
67	0xbcb5b122	-0.02217919
68	0xbdd93884	-0.106064826
69	0x3d4beaa6	0.049784325
70	0x3c04218f	0.008064642
71	0x3d1f86f8	0.038947076
72	0xbd884bab	-0.066550575
73	0x3c12f581	0.0089696655
74	0xbd9eaa03	-0.07747271
75	0x3d71a91c	0.058999166
76	0x3d78dafe	0.060755722
77	0xbbdac6b3	-0.006676519
78	0x3dbfffc9	0.09374959
79	0xbd2c38ed	-0.042046476
80	0x3d762595	0.060094435
81	0x3dbdf4fa	0.09275241
82	0x3d597beb	0.053096693
83	0xbddfe937	-0.10933154
84	0x3d38d0d8	0.045121044
85	0xbdc494fb	-0.09598728
86	0xbe044aa6	-0.12919101
87	0xbd9dbb20	-0.07701707
88	0xbcb53c9b	-0.022123626
89	0xbd25646c	-0.040378973
90	0xbd251683	-0.040304672
91	0x397ae3f3	0.00023926776
92	0x3d99df79	0.07513327
93	0x3d048199	0.032350156
94	0x3cbbb78c	0.02291467
95	0xbdc45264	-0.09586027
96	0xbdd630f6	-0.10458557
97	0x3d22fe87	0.039793517
98	0xbd1d737d	-0.038440216

hidden.2.weight f4 [99, 99]
0	0x3d9d4ebd	0.07681034
1	0x3e059422	0.1304479
2	0x3dbefe87	0.09325891
3	0x3d83042c	0.0639728
4	0xbd212ddd	-0.03935038
5	0xbb0405c6	-0.0020145043
6	0xbd830ea8	-0.0639928
7	0xbcbe68b2	-0.023243282
8	0xbe1e85a3	-0.15480666
9	0x3df172b9	0.1178946
10	0x3d361da3	0.044461858
11	0x3d4f69ee	0.05063813
12	0xbd2ba41a	-0.041904546
13	0xbc907ddb	-0.017638138
14	0x3dc9c1cf	0.09851419
15	0x3bd5252a	0.0065046744
16	0xbe1682e7	-0.14698373
17	0x3d1b62b2	0.03793592
18	0x3db769d6	0.089557335
19	0xbd70003b	-0.05859397
20	0xbb467db8	-0.0030287337
21	0xbe060faa	-0.13091913
22	0xbda60997	-0.08107298
23	0xbd82e94c	-0.06392154
24	0x3d7cafdf	0.06169116
25	0xba256219	-0.0006308868
26	0xbc2135d4	-0.009839494
27	0xbbf290e6	-0.007402527
28	0x3cdcf56d	0.026972497
29	0xbded0ef0	-0.11575115
30	0xbd5b27f2	-0.05350489
31	0xbbcc585e	-0.00623612
32	0xbd010c18	-0.031505674
33	0x3d83d405	0.06436924
34	0x3d6f8d78	0.058484524
35	0x3e617215	0.22016175
36	0xbc29ed5e	-0.010371534
37	0xbde5134d	-0.11185322
38	0xbd01822b	-0.03161828
39	0xbe16b50b	-0.147175
40	0xbcba48ed	-0.022739852
41	0xbdabc01f	-0.083862536
42	0x3e051164	0.12994915
43	0x3d839fa5	0.06426934
44	0xbce7bd76	-0.028288584
45	0x3c57c522	0.013169559
46	0x3dc64dd8	0.09682816
47	0xbd78fd69	-0.060788546
48	0x3da7bc26	0.08190183
49	0x3dbac333	0.091192625
50	0xbd8ecdc4	-0.069728404
51	0xbd46367f	-0.048391815
52	0x3d47bb4c	0.048762605
53	0xbd9fb307	-0.07797819
54	0x3db6f76f	0.08933913
55	0xbdc186da	-0.09449549
56	0xbd1698d7	-0.036766853
57	0x3daa616d	0.08319364
58	0x3db3abba	0.087729886
59	0xbdef3906	-0.11680798
60	0xbd032ba0	-0.032024026
61	0xbe617a36	-0.22019276
62	0x3c729b05	0.014807467
63	0x3d4436c4	0.04790379
64	0xbd471965	-0.048608202
65	0x3da5d8f9	0.08098025
66	0x3e1fdb29	0.15610947
67	0xbcda74c7	-0.026667012
68	0x3e5a16bc	0.21297735
69	0x3d8d3346	0.06894545
70	0x3d4f3923	0.0505916
71	0x3d5e3a88	0.05425504
72	0xbd15f6dd	-0.03661238
73	0x3c89207d	0.016739124
74	0x3d7c24ca	0.061558522
75	0xbda3885f	-0.07984995
76	0xbe076c22	-0.13224843
77	0xbd808788	-0.062758505
78	0xbdcb4bd5	-0.09926573
79	0x3d688c59	0.05677447
80	0xbdb44dd5	-0.08803908
81	0xbe27c2a4	-0.16382843
82	0xbdc29901	-0.095018394
83	0x3d04688f	0.032326277
84	0x3d3ef4fe	0.04662036
85	0x3beab905	0.0071631693
86	0xbc85d299	-0.016335772
87	0x3da50c06	0.08058934
88	0xbd36851c	-0.044560537
89	0xbb87949c	-0.0041375887
90	0xbdb24c89	-0.08706004
91	0xbe069617	-0.13143192
92	0x3df3d8ce	0.119065866
93	0x3d91518c	0.07095632
94	0xbde09bb2	-0.109671965
95	0xbdd09521	-0.10184694
96	0x3d2640a5	0.040588994
97	0xbd0b6c7d	-0.03403901
98	0x3e6c1f2d	0.23058768
99	0x3d994759	0.074843116
100	0xbdb05b05	-0.086111106
101	0x3db4fa4d	0.088368036
102	0xbccba412	-0.024858508
103	0xbdc90f09	-0.09817321
104	0x3c8b08aa	0.016971905
105	0xbaaf952b	-0.0013395896
106	0x3d859452	0.065224305
107	0x3dfbec1a	0.12300892
108	0xbd162d56	-0.03666433
109	0xbd58284e	-0.052772813
110	0xbdfc3acc	-0.12315902
111	0x3d381105	0.044938106
112	0x3c859d0a	0.016310234
113	0x3d9730a4	0.07382324
114	0xbd23cd17	-0.03999051
115	0xbd3c424c	-0.045961663
116	0xbd75f5e8	-0.060048968
117	0x3e1c49fe	0.15262601
118	0x3c108d18	0.008822702
119	0xbd15072d	-0.036383796
120	0x3da01366	0.078162
121	0xbcb1fcff	-0.021727083
122	0x3e2ccec6	0.16875753
123	0xbcd467b8	-0.025928363
124	0x3e088ce8	0.13335001
125	0xbba8468a	-0.005135362
126	0x3e012987	0.12613498
127	0x3d04ed2c	0.032452747
128	0xba91fd6e	-0.001113815
129	0x3d62a5d2	0.05533392
130	0x3e040c3b	0.1289529
131	0x3d182a3c	0.037149653
132	0xbdb3dd1f	-0.0878241
133	0xbdd8adb7	-0.105800085
134	0x3d3d0a87	0.046152618
135	0xbd8fcd1a	-0.07021542
136	0x3d07ab7a	0.033122517
137	0xbe0b5c05	-0.13609321
138	0x3d8f181c	0.069870204
139	0xbc5bc05b	-0.01341256
140	0x3dd57d54	0.10424295
141	0xbdd8f9d9	-0.1059453
142	0xbcb9f810	-0.022701293
143	0x3e22a800	0.158844
144	0x3d4fdf24	0.050749913
145	0x3d89ca43	0.067280315
146	0x3de5fe7b	0.11230179
147	0xbda77f4a	-0.08178575
148	0x3d11a20f	0.03555494
149	0xbc5002d8	-0.0126959905
150	0xbe3a682a	-0.18203798
151	0xbdd96136	-0.10614245
152	0xbda792a7	-0.081822686
153	0xbdd38bd9	-0.10329408
154	0x3d192080	0.03738451
155	0x3d970680	0.07374287
156	0xbded285b	-0.11579963
157	0xbd077473	-0.03307004
158	0x3e3288e8	0.17435038
159	0x3e283b19	0.16428794
160	0x3b948f02	0.0045336494
161	0x3d40e55e	0.04709374
162	0xbd2670cb	-0.04063491
163	0xbc12cdc9	-0.008960196
164	0x3c10a6b5	0.008828809
165	0x3d1bf13d	0.03807186
166	0xbda674b0	-0.08127725
167	0xbd66f675	-0.056387383
168	0xbddfd6e8	-0.10929662
169	0x3ce2a084	0.02766443
170	0xbc4e6510	-0.012597337
171	0xbc1c9eaa	-0.009559313
172	0x3cc6d0ba	0.02426945
173	0xbdccde05	-0.10003284
174	0xbd07622b	-0.033052605
175	0xbe38fc72	-0.1806505
176	0xbdb3cfaf	-0.08779847
177	0x3d5154b1	0.05110616
178	0xba0bbe36	-0.0005330773
179	0xbde69140	-0.11258173
180	0x3d9642f5	0.0733699
181	0xbdcd3c73	-0.100212954
182	0x3e1b9d1e	0.15196654
183	0x3d89b6b6	0.067243025
184	0xbdbf4234	-0.09338799
185	0xbde08124	-0.109621316
186	0x3c231155	0.009952863
187	0xbdb4230b	-0.087957464
188	0xbdb9f996	-0.09080808
189	0x3d721d44	0.05910994
190	0xbd973aac	-0.07384238
191	0xbe06d5a7	-0.1316744
192	0x3dd1444b	0.10218104
193	0x3d269826	0.040672444
194	0x3d8f915a	0.070101455
195	0x3d2a7905	0.04161932
196	0xbb9edd41	-0.004848153
197	0xbd502188	-0.050813228
198	0xbd92c97b	-0.071673356
199	0xbd191001	-0.03736878
200	0xbcdc6b3a	-0.026906598
201	0x3d4f680e	0.050636344
202	0xbd6044a6	-0.05475297
203	0xbd15d027	-0.036575463
204	0xbdadef58	-0.08492917
205	0x3cfd91c1	0.03095329
206	0x3dff0729	0.124525376
207	0xbca3dfb6	-0.020004135
208	0x3e1b75d1	0.15181662
209	0xbd8b10b6	-0.06790297
210	0xbe0a3eb6	-0.13500485
211	0xbcc96890	-0.024585992
212	0xbe02ec96	-0.12785563
213	0x3e06f39f	0.13178872
214	0xbdb1dacd	-0.08684311
215	0xbdc18aca	-0.094503
216	0x3d7d73c7	0.061877992
217	0x3c033818	0.008008979
218	0xbc4d706c	-0.0125390105
219	0x3dfcfbaf	0.12352692
220	0xbdaeaf35	-0.08529512
221	0x3d76c5b7	0.06024715
222	0x3b961e12	0.0045812214
223	0xbd6a8096	-0.057251535
224	0xbe1890ee	-0.14899036
225	0x3d651718	0.055930227
226	0x3ce7255e	0.02821606
227	0xbbe5bf49	-0.0070113284
228	0xbd86c1ab	-0.06579908
229	0xbd481ba3	-0.04885448
230	0xbaea2376	-0.0017863351
231	0x3d9c30ae	0.076264724
232	0xbd0b6ceb	-0.03403942
233	0x3c52ac6c	0.012858491
234	0xbdfcfdd7	-0.123531036
235	0xbcd0266b	-0.025408944
236	0x3d0b468c	0.034002826
237	0x3e0867be	0.13320825
238	0xbd86f8cc	-0.06590423
239	0xbbe73bd8	-0.0070566945
240	0x3dcf19f1	0.1011237
241	0x3dd69acd	0.10478745
242	0xbd264d3c	-0.040601
243	0xbe22d8f4	-0.15903074
244	0xbc8b2dfd	-0.016989702
245	0x3d5a39ea	0.053277887
246	0x3a30d3d0	0.000674543
247	0x3d1ab0f5	0.037766416
248	0x3e2f22e5	0.17103155
249	0xbd5a3301	-0.053271297
250	0x3dcb9a81	0.09941579
251	0x3c9e81de	0.019349035
252	0xbd2b79fb	-0.041864377
253	0x3d884ca7	0.06655245
254	0x3dcd2e9e	0.10018657
255	0x3d5976a9	0.05309168

hidden.2.bias f4 [99]
0	0x3d4fd944	0.05074431
1	0xbd60161d	-0.05470859
2	0x3d18270b	0.03714661
3	0x3c8a2d37	0.016867263
4	0xbde582af	-0.112065665
5	0x3d9e3f7a	0.07726951
6	0xbcd3a0d2	-0.025833521
7	0xbd0e157f	-0.03468847
8	0xbd964bfa	-0.0733871
9	0x3d75bcfb	0.05999468
10	0x3d860378	0.0654363
11	0x3df7309b	0.12069818
12	0xbcc9c73a	-0.024631131
13	0x3ce8d143	0.028420096
14	0x3d8575d9	0.06516618
15	0x3dad7115	0.08468834
16	0xbd824c5c	-0.06362221
17	0x3ca857cd	0.02054968
18	0x3da8882d	0.082290985
19	0x3c11db9b	0.008902456
20	0x3db57fa7	0.088622384
21	0xbca94991	-0.020664962
22	0x3d98479a	0.07435532
23	0x3dac4001	0.08410645
24	0xbd643e7e	-0.05572366
25	0x3d80cbee	0.062888965
26	0x3dc92b10	0.09822667
27	0xbc80b3ef	-0.015710799
28	0xbd4fdab3	-0.050745677
29	0x3d07b7d4	0.033134297
30	0x3c875e14	0.016524352
31	0xbd0e0a43	-0.034677755
32	0x3d84283f	0.06452989
33	0xbd98b7b1	-0.07456911
34	0x3d890556	0.06690471
35	0xbcdb2c38	-0.026754484
36	0xbc7f564a	-0.015584538
37	0xbcb8dc26	-0.022565912
38	0x3d956644	0.07294896
39	0xbd270dce	-0.04078465
40	0x3e08fa63	0.13376765
41	0x3d6f0882	0.058357723
42	0x3d9f06a7	0.07764941
43	0xbe07859c	-0.13234562
44	0xbc9ae1ec	-0.018906556
45	0xbdc2d579	-0.09513373
46	0x3debbc48	0.11510521
47	0xbda194c1	-0.07889701
48	0xbcdd5e2d	-0.027022446
49	0x3dae7ba5	0.08519677
50	0x3c989872	0.01862738
51	0x3d510026	0.051025532
52	0xbd205824	-0.039146557
53	0xb9fe5947	-0.00048513172
54	0x3da562aa	0.08075459
55	0x3d5bd897	0.053673353
56	0xbdb0f63a	-0.08640714
57	0xbd34b51b	-0.044118028
58	0xbdbcd922	-0.09221102
59	0xbbf2ca00	-0.007409334
60	0xbdabf028	-0.083954155
61	0x3e04f1e4	0.12982899
62	0x3cdb9ba6	0.026807617
63	0x3dae3eb0	0.085080504
64	0xbcdd4b7e	-0.027013537
65	0xbd9d07c8	-0.076675
66	0x3dadd0d8	0.084870994
67	0xbc5fb539	-0.013654047
68	0x3b70d13d	0.003674581
69	0xbcb433f7	-0.021997435
70	0x3db1444d	0.086556055
71	0x3dfe8bdd	0.124290206
72	0x3dac6fb0	0.0841974
73	0x3db2e139	0.08734364
74	0xbde39c0d	-0.11113749
75	0xbdde1cd3	-0.108453415
76	0x3c190310	0.009339109
77	0xbdcab707	-0.09898191
78	0xbd0afdc9	-0.033933435
79	0x3d54e076	0.051971875
80	0x3ba61142	0.0050679753
81	0x3d8b9514	0.06815544
82	0xbdb750bd	-0.089509465
83	0x3bea8a32	0.0071575874
84	0x3dfc80e4	0.123292714
85	0x3dc0b4f8	0.09409517
86	0xbde124f1	-0.10993374
87	0x3c35d8cf	0.0110990545
88	0xbd1e3562	-0.03862513
89	0x3dc0a996	0.09407346
90	0xbc0f36f1	-0.008741126
91	0xbb980cd9	-0.0046402034
92	0x3d3b912c	0.045792744
93	0xbd8e09a0	-0.069354296
94	0x3c4cd52c	0.012501996
95	0x3c43ecc0	0.011958301
96	0x3b8c3319	0.0042785523
97	0x3d452e32	0.04813976
98	0xbd347b85	-0.04406311

hidden.3.weight f4 [99, 99]
0	0xbd01b317	-0.031664934
1	0x3d8c036e	0.06836592
2	0xbd52d2df	-0.051470634
3	0xbb3e9c30	-0.0029084794
4	0x3d9c8015	0.07641617
5	0x3c8ddf18	0.017318293
6	0xbd24ee82	-0.04026652
7	0x3dd1798f	0.102282636
8	0xbc91c8b0	-0.01779589
9	0xbd82b949	-0.063829966
10	0xbd5205f6	-0.051275216
11	0x3dc7a185	0.09747604
12	0x3c5fbe65	0.013656233
13	0xbd96f1e1	-0.073703535
14	0x3e174ed4	0.14776164
15	0x3df819ee	0.12114321
16	0xbdbde01e	-0.092712626
17	0xbe1107ef	-0.14163183
18	0x3b9eaa82	0.0048421035
19	0x3d83ce03	0.06435778
20	0xbde51a8a	-0.111867025
21	0x3d956a7f	0.07295703
22	0x3d54c2ad	0.05194347
23	0x3d1a7da8	0.03771749
24	0x3d19088f	0.037361678
25	0x3dde06d9	0.1084115
26	0xbe3fa85b	-0.18716566
27	0x3cd04f6f	0.025428502
28	0xbd13a308	-0.03604415
29	0xbd6b3fd4	-0.057433918
30	0xbbf2af69	-0.0074061644
31	0x3baf9388	0.0053581633
32	0x3d907b87	0.07054811
33	0xbd41b8c7	-0.047295358
34	0xbe1cdbd3	-0.15318231
35	0x3cc85fa9	0.024459677
36	0xbe188c72	-0.14897326
37	0x3da59e2a	0.08086808
38	0x3d66f419	0.056385133
39	0x3d8369aa	0.06416638
40	0xbd9bccf8	-0.07607454
41	0xbe3b5efe	-0.18297955
42	0x3d32ade8	0.04362288
43	0x3dbeb116	0.0931112
44	0x3dc36588	0.0954085
45	0x3dbad879	0.0912332
46	0x3c16c497	0.009202144
47	0x3e260efa	0.1621665
48	0x3d5f38a2	0.05449737
49	0x3d4e2708	0.05033019
50	0x3c36a4f4	0.011147726
51	0xbcb7413a	-0.02236997
52	0xbdc4a24f	-0.096012704
53	0x3c89fba1	0.016843619
54	0xbded542a	-0.11588319
55	0xbdd4d656	-0.10392444
56	0xbdb22d69	-0.087000675
57	0xbd8a2ea5	-0.06747178
58	0xbc878111	-0.016541036
59	0xbe07b9fe	-0.13254544
60	0x3b9a697e	0.0047122827
61	0xbc806e9e	-0.015677746
62	0x3db16195	0.086611904
63	0xbdd3fca0	-0.10350919
64	0xbdcebce1	-0.100946195
65	0xbcc24f28	-0.023719385
66	0xbe0ef399	-0.13960113
67	0xbdf69872	-0.120407954
68	0xbd0d2a2f	-0.034464058
69	0x3dac798d	0.084216215
70	0x3dad71eb	0.08468994
71	0xbd2dd255	-0.042436916
72	0x3d7d86ea	0.061896242
73	0x3d88c993	0.06679072
74	0xbe0399c6	-0.12851629
75	0x3d82132f	0.06351315
76	0xbd9ad5b7	-0.07560294
77	0x3c9fc69c	0.019503884
78	0x3dfcc750	0.12342703
79	0xbdaa0910	-0.0830251
80	0xbd042df2	-0.03227038
81	0x3d74b3de	0.059741847
82	0xbe29b1e1	-0.16571762
83	0xbd4251a6	-0.047441147
84	0xbd2a0100	-0.04150486
85	0x3e10d82e	0.14144966
86	0x3d3d0a19	0.046152208
87	0x3e0cc3d1	0.13746573
88	0xbdf483fb	-0.11939236
89	0x3da5863c	0.08082244
90	0x3d6b5ed4	0.057463482
91	0x3ce9021e	0.028443392
92	0xbcf0edf5	-0.029410342
93	0xbdb23255	-0.08701006
94	0x3e092fc5	0.13397129
95	0x3c9cd7d9	0.019145893
96	0x3da2dead	0.07952628
97	0x3deb3481	0.11484624
98	0x3dd0589c	0.10173151
99	0xbdbb12e8	-0.091344655
100	0x3e16ea8a	0.14737907
101	0xbe296160	-0.16541052
102	0x3b34bb79	0.0027577563
103	0x3cb3c22d	0.021943176
104	0x3db128b1	0.086503394
105	0xbd485518	-0.048909277
106	0x3d9a9d72	0.075495616
107	0x3da3012f	0.0795921
108	0x3d3804d0	0.044926465
109	0x3de81991	0.113330014
110	0x3b2fb3e5	0.0026810106
111	0x3d381e95	0.04495104
112	0x3d72ff3e	0.05932545
113	0xbdf3a481	-0.11896611
114	0x3a2932ba	0.0006454397
115	0x3e20892e	0.1567733
116	0x3dee8e06	0.116481826
117	0x3da6e091	0.081483014
118	0xbe0beaab	-0.13663737
119	0xbd296003	-0.04135133
120	0x3e0e227a	0.1388034
121	0x3e2155bd	0.15755363
122	0xbd6a6ce8	-0.057232767
123	0x3d47d920	0.04879105
124	0xbdd31357	-0.10306423
125	0xbd8ef0e1	-0.06979538
126	0x3d6caa2d	0.05777948
127	0x3e63672e	0.22207329
128	0xbd137441	-0.03599954
129	0x3d54029d	0.051760305
130	0x3d9799ca	0.0740238
131	0x3d859626	0.06522779
132	0xbcf18c20	-0.029485762
133	0xbdaccbff	-0.08437347
134	0xbc926476	-0.01787017
135	0x3da373ba	0.079810575
136	0x394674eb	0.00018926307
137	0xbbe69ac5	-0.007037493
138	0x3d892f24	0.066984445
139	0x3e061088	0.13092244
140	0xbd9ccdb5	-0.07656423
141	0x3d5d2af1	0.05399603
142	0xbdc0221f	-0.09381508
143	0x3da9a1f9	0.08282847
144	0x3ced7b5b	0.028989485
145	0xbd706f64	-0.05869998
146	0x3d79b19b	0.060960393
147	0x3da247db	0.079238616
148	0xbd97ac62	-0.07405926
149	0xbcd95367	-0.026529027
150	0xbd6feeef	-0.058577474
151	0xbd498510	-0.049199164
152	0xbe2831ed	-0.16425295
153	0x3dbe09ad	0.09279189
154	0x3d9eff87	0.07763582
155	0x3ca08c31	0.019598098
156	0x3e2777c1	0.16354276
157	0xbd16a59b	-0.036779027
158	0x3dbfc6b9	0.09364075
159	0xbcea9720	-0.028636515
160	0xbcaa7f62	-0.020812694
161	0xbd6a67a0	-0.05722773
162	0xbca6e274	-0.020371653
163	0x3def9cc4	0.116998225
164	0x3d93df56	0.07220332
165	0xbe73486e	-0.23758098
166	0xbe1c42a6	-0.152598
167	0xbe062a62	-0.13102105
168	0x3c553fde	0.013015715
169	0x3c8c6e00	0.017142296
170	0x3daf2d53	0.08553567
171	0xbcb56166	-0.02214117
172	0xbc64ef6f	-0.013973101
173	0xbd5e559d	-0.054280866
174	0xbcfbddbf	-0.030745385
175	0xbcb3a43b	-0.021928897
176	0xbe203c76	-0.15648064
177	0xbc0a063e	-0.00842434
178	0xbd87594a	-0.066088274
179	0xbdc6e997	-0.097125225
180	0xbde5f3bb	-0.112281285
181	0x3e28a962	0.16470864
182	0xbd693a07	-0.056940105
183	0xbc9f5768	-0.019450858
184	0xbc489e0c	-0.012244713
185	0x3d58d5f8	0.05293843
186	0x3c37989c	0.0112058185
187	0x3e008466	0.12550506
188	0xbd812529	-0.06305916
189	0x3c924276	0.017853957
190	0xbc354693	-0.0110641895
191	0xbb963a5f	-0.004584595
192	0x3d76a0d9	0.06021199
193	0x3c313fa5	0.010818397
194	0xbda72fff	-0.081634514
195	0x3dae16b4	0.08500424
196	0x3c4a24c5	0.012337868
197	0x3c514864	0.012773607
198	0xbd01812f	-0.03161734
199	0x3ddd413c	0.10803458
200	0x3c9d6027	0.019210888
201	0xbc62c74a	-0.0138414595
202	0x3d972b86	0.07381348
203	0xbc000df3	-0.007815826
204	0xbdae584a	-0.085129336
205	0x3d3b8cf2	0.045788713
206	0x3d3a12a1	0.045427922
207	0x3aaf5c89	0.0013379018
208	0xbccf49a8	-0.025303677
209	0x3d816151	0.0631739
210	0x3d03f558	0.0322164
211	0x3df59920	0.11992097
212	0xbc15d6ab	-0.009145419
213	0xbdc69d3a	-0.09697957
214	0x3db94ae1	0.09047485
215	0xbd750c9b	-0.059826475
216	0xbe0ef19a	-0.13959351
217	0xbba26c0b	-0.0049567274
218	0xbd4dc190	-0.050233424
219	0xbdce07ff	-0.10060119
220	0xbde6cc20	-0.112694025
221	0x3e39f8f7	0.18161379
222	0xbd15fff1	-0.036621038
223	0x3cd4a3bd	0.025956983
224	0xbe13dd7a	-0.14439955
225	0xbc9f58ac	-0.019451462
226	0xbd2e7dba	-0.04260037
227	0x3c8ca50f	0.01716855
228	0xbd95a1e6	-0.0730627
229	0x3df6ad81	0.12044812
230	0x3d6f7177	0.058457818
231	0xbd012f08	-0.031538993
232	0x3c35f267	0.0111051565
233	0xbe3627a4	-0.17788559
234	0xbe42f8b5	-0.19040187
235	0x3d5d5d4c	0.054044053
236	0x3d8416dd	0.06449673
237	0x3dd11a01	0.10210038
238	0xbe0ac0d5	-0.13550122
239	0xbceef20a	-0.029168148
240	0x3daa4c9c	0.08315393
241	0xbdcd277b	-0.10017296
242	0xbcb914ea	-0.02259298
243	0x3d630179	0.055421326
244	0xbbb5308a	-0.005529468
245	0xbd9b32ca	-0.075780466
246	0xbd56e87a	-0.0524678
247	0xbe2dae30	-0.16960979
248	0xbd925f4a	-0.07147081
249	0x3d01f22a	0.031725086
250	0xbca1c380	-0.019746542
251	0xbde5c238	-0.11218685
252	0xbdcbb968	-0.09947473
253	0xbd61798a	-0.05504755
254	0xbd47dde6	-0.048795603
255	0xbe3bc3b7	-0.18336378

hidden.3.bias f4 [99]
0	0x3d79761d	0.060903657
1	0xbd981e1a	-0.074276164
2	0x3db438e9	0.08799917
3	0x3d842f74	0.064543635
4	0xbd96e1b5	-0.07367269
5	0xbd959860	-0.07304454
6	0xbceb62d7	-0.028733654
7	0x3df1b113	0.11801352
8	0x3adde0a0	0.0016927905
9	0xbd0ec0e0	-0.03485191
10	0x3b9c24f0	0.0047651455
11	0xbd97a704	-0.074049026
12	0x3d688499	0.05676708
13	0xbd0e9a90	-0.03481537
14	0xbcd2b8a3	-0.025722807
15	0xbd902773	-0.07038774
16	0x3d65bf4d	0.05609064
17	0xbd167a7d	-0.036737908
18	0x3bd09d92	0.00636644
19	0xbd9a1814	-0.07524124
20	0x3d4d72dc	0.050158367
21	0xbc6c4abe	-0.014422117
22	0x3d368b36	0.044566356
23	0xbd69f041	-0.05711389
24	0xbda12d29	-0.07869942
25	0xbe23b566	-0.15987167
26	0x3de4829c	0.11157724
27	0xbdec1463	-0.11527326
28	0xbd485d2d	-0.048916984
29	0xbc7a3517	-0.015271447
30	0xbc1cd595	-0.009572406
31	0x3cf3e530	0.029772371
32	0x3dfc6592	0.123240605
33	0x3d9bc225	0.076053895
34	0xbd45c4d5	-0.048283417
35	0xbd0d601c	-0.034515485
36	0xbcd11d92	-0.025526796
37	0x3d10d3fa	0.035358407
38	0x3b131956	0.0022445521
39	0x3de6ae1f	0.1126368
40	0x3c06d6ee	0.008229954
41	0xbc995e5b	-0.01872175
42	0xbd5a81cf	-0.05334645
43	0xbd8fc399	-0.07019729
44	0xbb974e24	-0.0046174694
45	0xbcedb246	-0.029015671
46	0x3d1840eb	0.037171286
47	0xbdb65148	-0.08902222
48	0x3db89643	0.09013035
49	0x3dc89d10	0.09795582
50	0x3d5062c1	0.05087543
51	0x3b4b444c	0.003101605
52	0xbda10897	-0.078629665
53	0xbd906b26	-0.07051687
54	0x3d89cb07	0.067281775
55	0xbc64af85	-0.013957863
56	0x3d6a2c1e	0.05717098
57	0x3daad231	0.08340872
58	0xbc0bbf88	-0.008529551
59	0x3d835569	0.06412775
60	0xbd3eea6a	-0.046610273
61	0x3d9566e4	0.072950155
62	0x3c6dcefd	0.014514682
63	0xbd285a62	-0.04110182
64	0xbdcf85ab	-0.10132917
65	0xbd7f8f7e	-0.062392704
66	0x3db5f87c	0.08885285
67	0x3d8c2af1	0.06844128
68	0xbd415112	-0.047196455
69	0x3cea2480	0.028581858
70	0x3d479114	0.04872234
71	0xbdb9fb87	-0.09081178
72	0xbca41604	-0.02003003
73	0x3ca81bc1	0.020521047
74	0x3dcd540d	0.10025797
75	0xbdf1e13d	-0.11810539
76	0x3d3293dd	0.043598045
77	0x3b898282	0.004196466
78	0xbc979bba	-0.018506873
79	0xbd648fed	-0.05580132
80	0xbde183ca	-0.11011465
81	0xbd09d14a	-0.03364686
82	0x3cd7afd7	0.026328964
83	0xbce32b61	-0.027730646
84	0x3dd239ab	0.102649055
85	0xbd4eb74e	-0.05046778
86	0xbd26cf0f	-0.04072481
87	0x3d8cd823	0.06877162
88	0xbd78f0f9	-0.060776684
89	0xbb1d7255	-0.0024024446
90	0xbc9b98a4	-0.018993683
91	0xbde99434	-0.11405221
92	0x3caff591	0.0214794
93	0xbca1a4d4	-0.019731916
94	0x3d8ed66c	0.069744915
95	0x3c36c102	0.011154415
96	0x3d5346c8	0.051581174
97	0x3d9e161e	0.07719062
98	0xbdb2fbb0	-0.08739412
