models/7x7-4-99-tanh/235episodes.pth (torch, 202354 bytes, 12 tensors)

input_layer.weight f4 [99, 50]
0	0x3daf83ff	0.08570098
1	0xbe605c0f	-0.21910118
2	0xbdf2b5eb	-0.11851104
3	0xbe424761	-0.18972541
4	0xbe000b6c	-0.12504357
5	0xbdcc208b	-0.099671446
6	0xbe2848c1	-0.16434003
7	0x3d147d90	0.03625256
8	0xbd08ca90	-0.033396304
9	0x3d3e94aa	0.046528496
10	0x3ca58553	0.020205176
11	0x3dbcba04	0.09215167
12	0xbd7d9455	-0.06190904
13	0xbdf3e263	-0.11908414
14	0xbd7980b3	-0.060913753
15	0x3d7e9a4c	0.062158868
16	0x3d5ef2cb	0.054430764
17	0x3cb7dfa5	0.02244551
18	0x3e03e8fa	0.12881842
19	0xbbc4fa36	-0.006011273
20	0xbe228301	-0.15870287
21	0x3e39ff80	0.18163872
22	0x3a047315	0.0005052549
23	0x3ca3f707	0.020015253
24	0x3ceeac06	0.029134762
25	0x3df2a84f	0.118485086
26	0xbdc392ab	-0.09549459
27	0xbe1cebe8	-0.15324366
28	0xbe09d047	-0.13458358
29	0x3d59d6ca	0.053183354
30	0xbe17e4c8	-0.14833367
31	0xbdfe5170	-0.12417877
32	0x3b86a4d6	0.0041090054
33	0xbd74d054	-0.05976899
34	0xbdaa786d	-0.08323751
35	0xbc406735	-0.0117433565
36	0xbd371865	-0.044701
37	0x3d8ff9af	0.07030045
38	0xbe1391c1	-0.1441107
39	0xbe27bcc7	-0.16380607
40	0x3dab1925	0.08354405
41	0xbd2faff1	-0.0428924
42	0x3d9f36a4	0.07774094
43	0x3bc4d491	0.006006785
44	0xbcb56b78	-0.022145972
45	0x3e43aaf8	0.19108188
46	0x3cef3c43	0.02920354
47	0xbe0cabac	-0.13737363
48	0xbd938bcb	-0.07204398
49	0x3db1f62a	0.0868953
50	0x3dae04dc	0.084970206
51	0xbe1d7220	-0.15375566
52	0x3d016b40	0.031596422
53	0xbdb77ac7	-0.08958965
54	0xbd86a622	-0.06574656
55	0x3e133363	0.14375071
56	0x3d938fcc	0.072051615
57	0x3dafd2fe	0.085851654
58	0xbde7a42a	-0.11310609
59	0x3ac1f2ba	0.001479707
60	0xbdb57a5b	-0.08861228
61	0xbe020ed5	-0.1270097
62	0x3e216d3d	0.15764327
63	0xbde622e0	-0.11237121
64	0xbca8bdd5	-0.020598331
65	0x3d716e0b	0.058942836
66	0xbd138e78	-0.03602454
67	0x3de40033	0.111328505
68	0xbde41c96	-0.11138265
69	0x3cc2fa9d	0.023801142
70	0x3d7bf669	0.061514292
71	0xbbe9270d	-0.007115251
72	0xbd6a2377	-0.05716273
73	0x3cb1e891	0.021717342
74	0xbdd21f70	-0.102599025
75	0xbd109d78	-0.035306424
76	0xbe48e6bd	-0.1961927
77	0x3c65b260	0.014019579
78	0x3daba6ef	0.083814494
79	0xbdf25f8c	-0.1183463
80	0x3c45f965	0.012083386
81	0x3d87a94d	0.066240884
82	0x3dab60d2	0.083680764
83	0xbcd32fcc	-0.025779627
84	0xbd233868	-0.039848715
85	0xbe385f96	-0.18005213
86	0xbdd4f1f0	-0.103977084
87	0xbb32ef55	-0.0027303298
88	0x3dc2ba0d	0.095081426
89	0xb9144f2e	-0.00014143877
90	0xbdf74f21	-0.120756395
91	0xbd010047	-0.031494405
92	0xbd20def9	-0.039275143
93	0xbcf2ed09	-0.029654043
94	0xbcd8c98b	-0.02646329
95	0xbc3e6529	-0.011620798
96	0xbdf52d77	-0.11971562
97	0xbd938ae7	-0.07204228
98	0x3abea2ea	0.0014544402
99	0x3c26b97e	0.010176061
100	0xbe730912	-0.23733929
101	0xbda44dc0	-0.08022642
102	0xbddf5490	-0.10904801
103	0x3dcfe16f	0.1015042
104	0x3c65b744	0.014020745
105	0x3dcd5b0b	0.10027131
106	0xbd3ea303	-0.04654218
107	0x3c777261	0.015102954
108	0x3e13de54	0.1444028
109	0xbdf42137	-0.11920398
110	0xbdc9bac9	-0.098500796
111	0xbe30129e	-0.17194602
112	0x3d190d42	0.03736616
113	0x3daca674	0.08430186
114	0x3c899cdf	0.016798435
115	0x3cf8c205	0.030365953
116	0xbd3efb24	-0.046626225
117	0x3e173c23	0.14769034
118	0x3e05b442	0.13057044
119	0x3dd56687	0.10419946
120	0x3b933d82	0.0044934163
121	0x3dfc5147	0.1232019
122	0xbdcf109e	-0.10110591
123	0xbd7a8138	-0.06115839
124	0x3e01378d	0.12618847
125	0x3d09fc12	0.03368766
126	0xbe1faadc	-0.15592521
127	0xbd1561e8	-0.036470324
128	0x3bf6efdd	0.007535918
129	0xbda0013c	-0.078127354
130	0x3d3f0580	0.046636105
131	0xbd9eed8a	-0.07760151
132	0x3d8b78c5	0.06810144
133	0xbd959d8e	-0.07305442
134	0x3d1472cb	0.036242288
135	0x3da18839	0.078873105
136	0xbdf60f80	-0.12014675
137	0xbdcbd084	-0.099518806
138	0xbde0c530	-0.109751105
139	0x3dd33da6	0.10314493
140	0x3c1b649e	0.009484438
141	0xbde3744c	-0.11106166
142	0x3d00a0fc	0.031403527
143	0x3dad08dc	0.084489554
144	0xbd34993a	-0.04409144
145	0x3dacdfe3	0.084411405
146	0x3e19b2df	0.1500964
147	0xbdc020f1	-0.09381283
148	0x3c2f1907	0.010687119
149	0xbd8dcf77	-0.069243364
150	0x3cf4fa36	0.029904466
151	0xbd500952	-0.05079014
152	0xbdbc4206	-0.091922805
153	0xbd33193c	-0.043725237
154	0xbd4c5334	-0.049884036
155	0xbd03f082	-0.032211788
156	0x3cf97d14	0.03045515
157	0x3d0fa00b	0.03506474
158	0xbbf20fd6	-0.0073871417
159	0x3df6f319	0.12058086
160	0x3df7c862	0.12098767
161	0xbe1246b0	-0.14284778
162	0x3d46b740	0.048514605
163	0xbd32211a	-0.0434886
164	0x3e4827d8	0.19546449
165	0x3e1422b9	0.1446637
166	0x3ce690de	0.02814525
167	0x3de26d7e	0.1105604
168	0xbaa2cec8	-0.0012421245
169	0xbd68753f	-0.05675244
170	0xbe08dae9	-0.13364758
171	0x3de866d6	0.113477394
172	0xbd9ab737	-0.07554477
173	0xbcf9cb6a	-0.030492503
174	0xbd0ad6c7	-0.033896234
175	0xbdbeaa82	-0.093098655
176	0xbd3ba66e	-0.045813017
177	0xbdc2cb84	-0.09511474
178	0xbe27d0a1	-0.1638818
179	0xbd8f1948	-0.06987244
180	0x3d84b7ce	0.064803705
181	0xbc5aeca9	-0.013362088
182	0xbdbd0fb4	-0.09231511
183	0xbd7756ce	-0.060385518
184	0xbe477c62	-0.19481042
185	0x3d1b4e79	0.037916634
186	0x3d6312b2	0.05543775
187	0x3c83457e	0.016024347
188	0x3dbf9f62	0.09356572
189	0xbc4f78dd	-0.012663093
190	0x3d1a6ed2	0.037703343
191	0xbd7dc33e	-0.061953776
192	0xbc55d6b3	-0.013051677
193	0xbba4eb42	-0.0050329277
194	0x3d66c86d	0.056343485
195	0x3e1e857e	0.1548061
196	0xbd8deb8e	-0.06929694
197	0xbd397005	-0.045272846
198	0x3d05008f	0.032471236
199	0xbdabe8f1	-0.083940394
200	0xbd876f78	-0.06613058
201	0xbd24c40b	-0.040226024
202	0xbc4f9e32	-0.012671994
203	0x3e234d4e	0.15947458
204	0x3c1efb9e	0.009703545
205	0x3d6ba7c1	0.05753303
206	0xbdb3d5b2	-0.087809935
207	0xbdaaff7c	-0.08349511
208	0x3d0941cb	0.03351001
209	0xbd3549ad	-0.044259716
210	0x3d4651ab	0.04841773
211	0x3e007385	0.12544067
212	0xbc131624	-0.008977447
213	0xbd9a65bd	-0.07538936
214	0xbe2646a7	-0.16237889
215	0xbd9f4e33	-0.07778587
216	0x3e15b319	0.14619102
217	0x3dc096d3	0.094037674
218	0xbd243a5e	-0.040094726
219	0xbe2e21ff	-0.17005156
220	0x3cbadb5e	0.02280968
221	0x3e10b80a	0.14132705
222	0xbda8083d	-0.08204696
223	0x3e0dfbdc	0.13865608
224	0xbe06758d	-0.1313078
225	0x3cbc767d	0.023005718
226	0x3d96a40a	0.07355507
227	0xbdd8eaf5	-0.105916895
228	0x3de44392	0.111457005
229	0xbdd37d8a	-0.10326679
230	0x3d30471d	0.04303657
231	0x3dc78bcd	0.09743462
232	0xbd1f660c	-0.03891568
233	0xbd88de8e	-0.06683074
234	0x3d99026f	0.07471167
235	0x3d95669d	0.072949626
236	0x3d0775ea	0.033071436
237	0x3bae6f16	0.005323301
238	0xbd5beb36	-0.05369111
239	0x3dcbef78	0.099577844
240	0xbdcb6f57	-0.09933346
241	0xbdf2c80a	-0.11854561
242	0xbcf617fb	-0.030040732
243	0x3d7c23a9	0.061557446
244	0xbd97a594	-0.074046284
245	0xbdf2a028	-0.11846954
246	0xba12b2bc	-0.00055960915
247	0xbe17deb5	-0.1483105
248	0x3c6a4ca4	0.014300499
249	0x3dbef18e	0.09323417
250	0xbdab3f2f	-0.08361661
251	0xbd8c06f9	-0.068372674
252	0xbcf638b0	-0.030056328
253	0xbe1858f7	-0.14877687
254	0x3d13687a	0.03598831
255	0xbd8d212f	-0.06891095

input_layer.bias f4 [99]
0	0x3b360f9d	0.0027780302
1	0xbe0275e3	-0.12740283
2	0x3e0f82ad	0.14014693
3	0xbc9c00c9	-0.019043343
4	0x3e4d1e51	0.20031096
5	0xbe0054ac	-0.125323
6	0xbde5f653	-0.11228623
7	0x3d1ff7dd	0.03905474
8	0xbdb528cc	-0.08845672
9	0x3d21c12d	0.039490867
10	0xbe0eb24c	-0.13935202
11	0x3cb53c81	0.022123577
12	0xbdb26c80	-0.08712101
13	0x3ded4c0e	0.11586772
14	0xbd38f56f	-0.04515594
15	0x3d2d3678	0.042288274
16	0xbc6e0b62	-0.014529081
17	0xbe02045d	-0.12696977
18	0xbdb82d82	-0.08993055
19	0x3dab85a3	0.083750986
20	0x3d44bebb	0.048033457
21	0x3dcfaee2	0.10140778
22	0x3dde11e6	0.108432576
23	0xbdc8e3f1	-0.098091014
24	0x3ddacff4	0.10684195
25	0x3e17f008	0.14837658
26	0xbdc1e763	-0.09467962
27	0x3df77d66	0.12084465
28	0xbcb48215	-0.022034684
29	0xbda25468	-0.079262555
30	0xbdda6fd8	-0.10665864
31	0xbc9caa6c	-0.019124232
32	0xbb7f5e57	-0.0038966143
33	0xbdc2670b	-0.0949231
34	0x3ce204aa	0.027590115
35	0x3dfa723d	0.122288205
36	0xbd0c57bd	-0.03426336
37	0xbd93fbb9	-0.07225747
38	0xbdfc38ef	-0.12315547
39	0xbd4e5705	-0.050375957
40	0xbcd9e885	-0.026600132
41	0x3cd1a577	0.025591595
42	0x3e35b9f1	0.17746712
43	0xbdcc12e8	-0.099645436
44	0xbd45f513	-0.048329424
45	0x3da5e4a4	0.0810025
46	0x3cbdad9b	0.02315407
47	0x3dd8b520	0.10581422
48	0x3d9f1e0e	0.07769404
49	0xbcc8189f	-0.024425803
50	0x3dc6e64e	0.09711896
51	0x3deb7124	0.11496189
52	0x3d844f39	0.06460423
53	0xbd056071	-0.032562677
54	0xbdc6eaa8	-0.09712726
55	0xbe09a4e4	-0.13441807
56	0xbdd87761	-0.10569645
57	0xbddc644f	-0.1076132
58	0xbdfe57d4	-0.12419096
59	0xbd3b4adf	-0.0457257
60	0x3d06d78f	0.032920416
61	0x3e0bd862	0.13656762
62	0x3c722c93	0.014781135
63	0x3dd05d00	0.10173988
64	0xbe0babad	-0.13639708
65	0xbd08cc4b	-0.033397954
66	0xbde89c1f	-0.11357903
67	0xbe0326bf	-0.12807749
68	0xbe084bda	-0.13310185
69	0xbd733b1f	-0.059382554
70	0xbde09523	-0.109659456
71	0x3e05f59e	0.13081977
72	0xbd67baa6	-0.056574486
73	0x3de5b2b8	0.112157285
74	0xbdc80b47	-0.09767776
75	0xbcdee879	-0.027210461
76	0xbcb1acd4	-0.021688856
77	0xbe2e5ccd	-0.17027588
78	0x3dc9e85c	0.09858772
79	0xbd8ac24e	-0.06775342
80	0x3de4f830	0.111801505
81	0xbdd014bb	-0.10160204
82	0xbe0b3b48	-0.13596833
83	0x3e043832	0.12912062
84	0xbdfb05d9	-0.12256975
85	0x3d673586	0.05644753
86	0xbe04d226	-0.1297079
87	0x3d9324ea	0.07184775
88	0xbdf4d5da	-0.119548514
89	0x3c4da5ca	0.012551734
90	0x3dd1a675	0.10236827
91	0x3e1fe3b4	0.15614206
92	0x3d9a6e2b	0.07540544
93	0xbdb67f5d	-0.08911011
94	0xbc597120	-0.0132716
95	0x3e0af1bc	0.13568777
96	0xbdce01ff	-0.100589745
97	0xbc5d7430	-0.013516471
98	0xbcedc1cf	-0.02902308

hidden.0.weight f4 [99, 99]
0	0xbe052949	-0.1300403
1	0xbd460ed2	-0.048353978
2	0x3bbaa182	0.0056955228
3	0xbde969c3	-0.113971256
4	0x3d9a68c4	0.07539514
5	0xbcccced6	-0.02500097
6	0x3b81af4b	0.003957664
7	0x3da2735c	0.07932159
8	0xbcc14371	-0.023591729
9	0x3d614206	0.054994605
10	0xbb8e2083	-0.004337372
11	0x3d467f6a	0.048461355
12	0x3d689e47	0.05679157
13	0x3d14b629	0.036306534
14	0x3d7ca2c1	0.06167865
15	0x3e11a998	0.14224851
16	0xbded34b1	-0.11582316
17	0x3d0b5aa2	0.03402198
18	0xbd3d3fb5	-0.046203334
19	0x3c269b2d	0.010168833
20	0xbda89bdb	-0.08232852
21	0x3cfd4337	0.03091584
22	0x3bd4d2eb	0.00649487
23	0x3de33b6f	0.110953204
24	0x3db1f1b2	0.08688678
25	0x3d88e164	0.06683615
26	0xbd645061	-0.055740718
27	0xbd26fe59	-0.04076991
28	0xbda31144	-0.079622775
29	0xbd8d7aa6	-0.06908159
30	0xbdfb6ac7	-0.122762255
31	0xbce51a19	-0.027966546
32	0xbdedb0c6	-0.116059825
33	0x3d320b33	0.04346771
34	0x3c43841b	0.011933352
35	0x3db2fc1a	0.08739491
36	0x3d65ec8e	0.0561338
37	0x3da0f99c	0.07860109
38	0x3d8ab58f	0.06772911
39	0x3dd89861	0.10575939
40	0x3e1bbd64	0.15208966
41	0x3e0df0a3	0.13861327
42	0xbd40d2c3	-0.047075998
43	0x3c4b62ba	0.012413675
44	0x3da9f7d9	0.08299226
45	0x3d05169e	0.032492273
46	0xbd905f72	-0.07049455
47	0xbbe64b37	-0.0070280093
48	0xbd811a1e	-0.063038096
49	0xbda7f87c	-0.082016915
50	0xbdd0fed5	-0.10204855
51	0x3ddbb47e	0.107277855
52	0xbcea0a1b	-0.028569272
53	0x3ccf39f1	0.025296183
54	0xbde90694	-0.11378208
55	0xbd063a83	-0.032770645
56	0x3c3f8dbf	0.01169151
57	0x3bc78ac3	0.0060895397
58	0x3d327639	0.043569777
59	0x3cc6a815	0.02425007
60	0x3e34320b	0.17597215
61	0x3e091557	0.13387047
62	0x3d55bba3	0.052180897
63	0x3e0c54c3	0.13704209
64	0xbd6e09ae	-0.0581147
65	0xbd42fb61	-0.047603015
66	0x3da9b589	0.08286578
67	0x3dbdca97	0.092671566
68	0x3d89cb1b	0.067281924
69	0x3d03d0d5	0.03218158
70	0xbadb06c9	-0.0016710396
71	0x3ddb34f9	0.10703463
72	0x3ce16dff	0.02751827
73	0xbd930469	-0.071785755
74	0x3bf9e797	0.0076264846
75	0x3cdf61b0	0.02726826
76	0xbd900942	-0.07033016
77	0xbbde0525	-0.0067755156
78	0x3de09181	0.10965253
79	0xbd2a530b	-0.041583102
80	0xbd03b3ed	-0.032154012
81	0xbccaad19	-0.024740743
82	0xbc969dcf	-0.018385796
83	0x3ca06a75	0.019582013
84	0x3dfc9115	0.1233236
85	0xbd7217c7	-0.059104707
86	0xbd1f0843	-0.03882624
87	0x3be2e5a2	0.006924347
88	0xbd6c4c0b	-0.057689708
89	0x3d3baa83	0.04581691
90	0x3bbb599d	0.00571747
91	0x3db6c28a	0.08923824
92	0xbdcc404f	-0.099732034
93	0x3d7f834e	0.06238108
94	0xbd4aa1ad	-0.049470592
95	0x3d602556	0.054723106
96	0x3de4dd81	0.11175061
97	0x3de96f60	0.11398196
98	0xbd30c4d3	-0.043156456
99	0x3d2492d7	0.0401791
100	0x3bd1028d	0.006378478
101	0xbd371873	-0.04470105
102	0x3db2536a	0.08707316
103	0x3c935ef9	0.017989622
104	0x3cdb5d24	0.026777811
105	0x3d908bbb	0.070579015
106	0x3d62edd0	0.055402577
107	0x3e01d436	0.12678608
108	0xbd4c5339	-0.049884055
109	0x3d7359e3	0.059411895
110	0xbde7273f	-0.112867825
111	0xbce97741	-0.028499248
112	0xbde8d986	-0.11369614
113	0x3d7f47b5	0.062324245
114	0xbd11c6a6	-0.035589837
115	0xbd0d3a0d	-0.03447919
116	0x3ccdbf88	0.025115743
117	0xbdb88b91	-0.09010995
118	0x3c9a0eef	0.018805949
119	0x3c20be32	0.009810971
120	0x3c996857	0.01872651
121	0xbe167c73	-0.14695911
122	0xbd3a9f6b	-0.04556219
123	0xbd63effa	-0.05564878
124	0x3ca56e1e	0.02019411
125	0xbd92f705	-0.071760215
126	0xbdacb73d	-0.084333874
127	0xbd9002c8	-0.070317805
128	0x3ccf99ba	0.025341857
129	0x3d1948cc	0.03742294
130	0x3dcdb965	0.10045127
131	0xbd7533a5	-0.059863705
132	0xbdde17ac	-0.10844359
133	0xbd26bdf6	-0.040708505
134	0xbd881240	-0.06644106
135	0x3e0ad0ee	0.13556263
136	0x3c6a5cfd	0.014304397
137	0x3d904cfe	0.07045935
138	0xbd21c35b	-0.039492946
139	0x3e05f497	0.13081585
140	0xbd9d91c2	-0.07693817
141	0x3d89af7a	0.067229226
142	0x3d81c6a8	0.06336719
143	0xbb0529bd	-0.0020319067
144	0xbd85c9df	-0.065326445
145	0xbd83b23f	-0.06430482
146	0x3a72bf47	0.000926007
147	0xbe07e2ec	-0.13270158
148	0xbc837ef3	-0.016051745
149	0x3d4d769b	0.05016194
150	0x3d3a7ced	0.045529295
151	0x3cd7bf4f	0.02633634
152	0x3d47bb1f	0.048762437
153	0xbdcec985	-0.100970306
154	0x3d0d985a	0.034569122
155	0x3cd537d6	0.026027601
156	0xbd179100	-0.037003517
157	0xbba95214	-0.005167255
158	0x3d04cf45	0.03242423
159	0xbd4bea1c	-0.04978381
160	0x3ca457e2	0.020061437
161	0xbc5b5e82	-0.013389232
162	0x3dd4752a	0.1037391
163	0xbccf5239	-0.025307762
164	0x3c2b9853	0.010473329
165	0x3c851dd6	0.016249578
166	0xbdc698d1	-0.09697116
167	0xbd988ef2	-0.0744914
168	0xbd54859a	-0.051885225
169	0xbddf7d5d	-0.10912583
170	0xbdbf7fdd	-0.0935056
171	0xbc9ed188	-0.019387022
172	0x3b91e3cf	0.0044522057
173	0xbdf4c599	-0.11951751
174	0xbc8146bc	-0.0157808
175	0x3d3d6387	0.046237495
176	0xbdd302df	-0.10303282
177	0x3c81fe2a	0.015868265
178	0xbd555dba	-0.052091338
179	0xbc86fb25	-0.016477177
180	0xbe081548	-0.13289368
181	0xbdd3dd6d	-0.10344968
182	0xbcb4c8ba	-0.02206837
183	0x3dd36e99	0.10323829
184	0xbcb71c1d	-0.022352273
185	0x3d5bfd5c	0.05370842
186	0xbd96b8b1	-0.07359446
187	0x3ba73096	0.0051022274
188	0xbd8c30be	-0.06845234
189	0xbd2c2f36	-0.04203721
190	0x3d19868c	0.03748183
191	0x3da84b42	0.08217479
192	0x3c132e59	0.008983218
193	0xbdd1b338	-0.102392614
194	0x3d22ac21	0.039714936
195	0x3bc72351	0.006077208
196	0x3d45386d	0.048149515
197	0xbca9d7fc	-0.020732872
198	0xbd853382	-0.06503965
199	0x3dd90d17	0.105982
200	0xbd8028b5	-0.06257764
201	0x3c1fdb25	0.009756838
202	0xbdf6768b	-0.12034329
203	0x3d622a5c	0.05521618
204	0xbd264346	-0.0405915
205	0x3d527ffd	0.05139159
206	0x3d1fe7fb	0.039039593
207	0xbdeda152	-0.11603035
208	0x3dd26285	0.10272697
209	0x3dbdd078	0.09268278
210	0xbd80d753	-0.0629107
211	0xbdba6134	-0.09100571
212	0x3c8ce4e6	0.017198991
213	0x3e176af3	0.14786892
214	0xbcba6bb4	-0.022756435
215	0xbd9a2d0b	-0.075281225
216	0x3d28a118	0.041169256
217	0xbc3932d9	-0.011303627
218	0xbd64ba48	-0.055841714
219	0x3d832893	0.06404223
220	0x3dcb1b0c	0.09917268
221	0x3d6eb259	0.058275554
222	0xbd7a2448	-0.061069757
223	0x3c29b592	0.010358231
224	0xbc045cf0	-0.008078799
225	0x3d02be9b	0.031920057
226	0x3c8e3378	0.017358527
227	0xbd97ff99	-0.07421798
228	0xbda523e2	-0.08063485
229	0xbd77e1ae	-0.06051796
230	0x3dd75d97	0.10515898
231	0xbd19d096	-0.03755244
232	0x3d7d3cc1	0.061825518
233	0x3e05c0ca	0.13061824
234	0xbd9bc04e	-0.076050386
235	0xbe14d3ed	-0.14533968
236	0xbda5dae7	-0.08098393
237	0x3cd894a4	0.026438065
238	0x3b3e4d46	0.0029037758
239	0x3dbf4a3c	0.09340331
240	0x3c49886a	0.01230059
241	0xbb46ff98	-0.0030364748
242	0xbaa95a26	-0.0012920543
243	0xbd83eecd	-0.06442032
244	0xbc8ba57c	-0.017046683
245	0x3d739b1b	0.059474092
246	0x3dd29966	0.10283165
247	0xbc93d4ae	-0.01804575
248	0xbda2463a	-0.07923551
249	0xbdc25c18	-0.09490222
250	0x3c9c02d8	0.019044325
251	0xbd5b49ec	-0.053537294
252	0xbdcb85da	-0.099376395
253	0xbd5e7364	-0.054309264
254	0xbde201f4	-0.11035529
255	0xbd198a10	-0.037485182

hidden.0.bias f4 [99]
0	0xbd101cd3	-0.03518374
1	0x3dc01689	0.09379298
2	0xbdbd3eb6	-0.09240477
3	0xbd725c57	-0.059170093
4	0x3d810e26	0.06301527
5	0xbd9b2156	-0.07574718
6	0xbd815d80	-0.06316662
7	0xbd2c3ff2	-0.04205317
8	0xbd690c86	-0.05689671
9	0x3d3d827d	0.04626702
10	0x3dd06a68	0.101765454
11	0x3d597b49	0.05309609
12	0xbd9526c6	-0.07282786
13	0x3d2bd274	0.04194875
14	0x3db7c393	0.0897285
15	0xbb357964	-0.0027690763
16	0x3d50a6f0	0.050940454
17	0x3d880bf1	0.06642903
18	0xbd028444	-0.03186442
19	0xbb3b6372	-0.002859321
20	0xbd900213	-0.070316456
21	0x3dc39b69	0.095511265
22	0xbd282657	-0.04105219
23	0xbd5af003	-0.05345155
24	0xbd42fc77	-0.04760405
25	0x3cce4dd7	0.025183601
26	0xbdebd5f5	-0.115154184
27	0x3cdf492d	0.027256573
28	0xbc1182d7	-0.008881292
29	0x3da7b657	0.081890754
30	0x3d06cbd5	0.032909233
31	0xbd836cca	-0.06417234
32	0xbd97340f	-0.07382976
33	0xbdb3e99b	-0.08784791
34	0x3c70b2ba	0.014691049
35	0xbdee5cdd	-0.11638806
36	0x3d1951a3	0.03743137
37	0x3bccaae8	0.0062459596
38	0x3d5f5588	0.05452493
39	0xbda4531c	-0.08023664
40	0x3da17e65	0.07885436
41	0x3d5fe154	0.05465825
42	0xba4cd0f6	-0.000781312
43	0xbdb7050b	-0.08936509
44	0x3d89cb96	0.06728284
45	0x3cbf4e01	0.023352625
46	0xbccfa661	-0.02534789
47	0xbbd972c8	-0.0066359974
48	0xbd05d829	-0.03267685
49	0x3d2f2a7d	0.04276513
50	0x3d698103	0.0570078
51	0x3dc31306	0.09525113
52	0xbd6200c7	-0.055176523
53	0xbcb0b59f	-0.021570979
54	0xbc93dc86	-0.01804949
55	0x3d6e2c21	0.058147553
56	0x3d910877	0.07081693
57	0x3da784a6	0.081795976
58	0xbd07783f	-0.03307366
59	0x3d0a6b23	0.03379358
60	0x3d6fc6d6	0.058539234
61	0x3df1bff9	0.11804194
62	0xbdb4cd01	-0.08828164
63	0x3d649670	0.05580753
64	0xbd750960	-0.059823394
65	0x3ce4c4fe	0.027925964
66	0xbda251c4	-0.07925752
67	0x3dc1958b	0.09452351
68	0x3cb39ce4	0.021925397
69	0xbd8ebbfa	-0.069694474
70	0xbdcd3680	-0.10020161
71	0x3c1a1292	0.009403842
72	0x3dc15214	0.09439483
73	0x3b64d6b7	0.003491802
74	0xbd7ffe25	-0.06249823
75	0x3d2fc8a2	0.042915948
76	0xbc961a6b	-0.018323144
77	0x3d6b33f1	0.057422582
78	0xbd1de12b	-0.038544815
79	0x3e009d09	0.12559904
80	0x3cf1e20e	0.029526737
81	0xbdba09be	-0.090838894
82	0xbd527124	-0.05137743
83	0xbd5021c6	-0.05081346
84	0xbd0fd01a	-0.03511057
85	0xbcd93f32	-0.026519392
86	0x3c58d649	0.013234683
87	0xbd7a748c	-0.061146304
88	0x3d02786d	0.03185313
89	0x3db30726	0.08741598
90	0xbcfdf82a	-0.031002123
91	0xbdbccede	-0.09219144
92	0xbd155cee	-0.036465578
93	0xbd762937	-0.0600979
94	0xbc1e5577	-0.009663931
95	0x3d911dc5	0.07085756
96	0x3dc68052	0.09692444
97	0xbdc13bec	-0.09435257
98	0x3cad0d5a	0.02112453

hidden.1.weight f4 [99, 99]
0	0xba8de615	-0.0010826016
1	0xbd0451c3	-0.032304537
2	0x3d850a04	0.06496051
3	0x3e26577a	0.16244307
4	0xbdb0904b	-0.08621272
5	0x3d89aeee	0.06722818
6	0x3de93b94	0.11388317
7	0x3ddf3d73	0.109003924
8	0xbd96fe03	-0.07372668
9	0x3bd7b804	0.0065832157
10	0x3dfb0277	0.122563295
11	0xbd68288d	-0.056679297
12	0xbe09f30f	-0.13471626
13	0xbd834d48	-0.064112246
14	0xbd757665	-0.059927363
15	0xbe2697d2	-0.16268852
16	0xbd49e826	-0.04929366
17	0xbce8b30c	-0.028405689
18	0x3b595434	0.0033161761
19	0x3d1f51fb	0.038896542
20	0xbdda0fe1	-0.1064756
21	0x3d74d6b4	0.05977507
22	0x3dd5ad23	0.10433414
23	0xbb1f4087	-0.0024299936
24	0x3d0e9a24	0.03481497
25	0x3d501e6f	0.050810274
26	0x3e02666b	0.12734382
27	0x3d8d022a	0.068851784
28	0xbd36d3a7	-0.04463544
29	0xbd222e97	-0.039595213
30	0xbd953b7b	-0.072867356
31	0x3e2c9cde	0.16856715
32	0x3dbb9b9d	0.0916054
33	0x3e1b0294	0.15137702
34	0x3c899da5	0.016798804
35	0xbc44e7cd	-0.012018156
36	0x3ccaa65c	0.02473753
37	0xbdb62af9	-0.08894915
38	0xbd4e08c5	-0.050301332
39	0xbd5c7d1f	-0.053830262
40	0x3b21bfe9	0.0024681038
41	0x3db8645c	0.09003517
42	0xbddd7c5a	-0.10814734
43	0x3d32f0f0	0.043686807
44	0x3d9c1388	0.07620913
45	0x3d29d6b5	0.041464526
46	0xbba6173b	-0.0050686873
47	0x3dce6b65	0.10079078
48	0xbdf26b22	-0.1183684
49	0xbde22a2f	-0.11043202
50	0x3db2c771	0.08729447
51	0x3e07a9e7	0.13248406
52	0xbc3933f6	-0.011303892
53	0xbc4d4b58	-0.01253017
54	0xbd693e0a	-0.05694393
55	0xbc936e54	-0.017996944
56	0x3c8592e9	0.016305404
57	0xbdef7a2c	-0.11693224
58	0xbd8b0a7e	-0.067891106
59	0xbc081a92	-0.008307116
60	0xbdb1068d	-0.086438276
61	0x3d82767f	0.063702576
62	0xbd654a81	-0.055979256
63	0x3d45379d	0.04814874
64	0x3d1c1e64	0.03811492
65	0xbbeb2fd1	-0.007177331
66	0x3dac758f	0.0842086
67	0xbe354f07	-0.17705928
68	0xbd9283c0	-0.071540356
69	0x3904e36e	0.00012673225
70	0x3e26f9d3	0.16306238
71	0x3d2ef27e	0.042711727
72	0x3e0fe0a8	0.14050543
73	0xbdbd8fb9	-0.092559285
74	0xbdbf66e2	-0.09345795
75	0x3d2e889a	0.042610742
76	0x3d73d9cf	0.05953389
77	0x3c24fda7	0.010070241
78	0x3da9b461	0.08286358
79	0xb7fb06b6	-2.9924657e-05
80	0xbdcb2b00	-0.09920311
81	0x3e17a357	0.14808403
82	0x3d41913e	0.047257654
83	0x3d0f811e	0.035035245
84	0x3d9e39f1	0.07725895
85	0xbdd93026	-0.10604887
86	0xbd58d701	-0.05293942
87	0x3dbdd4c4	0.092690974
88	0xbd68daed	-0.05684941
89	0x3d4a4da0	0.049390435
90	0x3e08c7d3	0.13357477
91	0xbd623e5c	-0.05523525
92	0x3decdffa	0.11566158
93	0xbdfe8aa0	-0.12428784
94	0xbd9a3c3c	-0.0753102
95	0xbcad798e	-0.021176126
96	0xbdead21f	-0.11465859
97	0x3d29613d	0.0413525
98	0xbaec8c89	-0.0018047254
99	0xbda4a29a	-0.08038826
100	0x3e09eb20	0.134686
101	0x3db62a34	0.08894768
102	0xbdf0d4dc	-0.1175935
103	0x3c63cf1a	0.013904357
104	0x3e11dd02	0.14244464
105	0xbde25c2c	-0.11052737
106	0xbd986992	-0.07442011
107	0xbce36303	-0.027757173
108	0xbc3d681c	-0.011560466
109	0xbde87482	-0.11350347
110	0x3d34955b	0.04408775
111	0x3b155d8e	0.0022791359
112	0x3c526f2b	0.012843887
113	0xbdad8339	-0.08472294
114	0x3ce6fdc5	0.028197179
115	0x3da4d995	0.08049313
116	0xbd856d71	-0.06515015
117	0xbc6f2b30	-0.014597699
118	0xbe0eda19	-0.13950385
119	0xbdbf176d	-0.0933064
120	0xbe448d2c	-0.19194478
121	0x3db7dfdb	0.08978244
122	0xbd0e89a5	-0.034799237
123	0x3e0d5a91	0.1380408
124	0x3d767340	0.060168505
125	0xbdc69f3a	-0.09698339
126	0xbe2a92de	-0.16657588
127	0x3d80e0f9	0.0629291
128	0xbe30ab14	-0.17252761
129	0xbe026deb	-0.12737243
130	0xbde5b285	-0.112156905
131	0x3c1bd3d3	0.009510952
132	0x3d500e82	0.050795086
133	0x3d468cf3	0.048474263
134	0x3e295c74	0.16539174
135	0xbd5e4712	-0.054266997
136	0x3db1083a	0.08644147
137	0x3bfd4548	0.0077292062
138	0x3d95a82c	0.07307467
139	0xbc615c0b	-0.013754855
140	0xbe0f4e2a	-0.13994661
141	0xbd54a0c6	-0.051911138
142	0x3c5c8bc9	0.013461062
143	0xbcaad984	-0.020855673
144	0x3e28f932	0.1650131
145	0x3d3daaf4	0.04630561
146	0xbc2bbc84	-0.010481957
147	0x3d1e733a	0.038684107
148	0xbd7e7cc0	-0.06213069
149	0x3d8182c9	0.063237734
150	0xbd698c1a	-0.057018377
151	0xbdc27b11	-0.09496129
152	0xbd8af566	-0.06785087
153	0x3e4c6cca	0.19963375
154	0x3da74ab6	0.08168547
155	0xbdf55906	-0.119798705
156	0x3d70dff6	0.058807336
157	0xbaccf48d	-0.0015636847
158	0x3d6497c0	0.055808783
159	0xbd8baa81	-0.068196304
160	0xbe0d6929	-0.13809647
161	0x3ddc2eb1	0.10751093
162	0xbd8ee4b5	-0.06977216
163	0x3c960fc7	0.01831807
164	0x3cd50671	0.026004048
165	0xbc06dd4a	-0.00823147
166	0x3d4f05ea	0.05054275
167	0x3d257edd	0.04040419
168	0xbc7d0f4f	-0.015445544
169	0xbde831d4	-0.11337629
170	0xbe2ea1c3	-0.17053895
171	0xbdf0a1c2	-0.11749603
172	0x3dfb52ba	0.12271638
173	0xbd1f6826	-0.038917683
174	0x3dc0ca5c	0.09413597
175	0xbda43173	-0.08017244
176	0xbcc1d060	-0.023658931
177	0x3dbb4f3d	0.09145973
178	0xbe1b22a6	-0.15149936
179	0xbe22b0ab	-0.15887706
180	0x3d7a175a	0.061057426
181	0x3db4725c	0.08810875
182	0xbd3af8c6	-0.045647405
183	0x3c963511	0.01833585
184	0x3db070c5	0.08615259
185	0xbdb3fb04	-0.08788112
186	0xbd5c2c5d	-0.053753246
187	0xbce30fe7	-0.027717544
188	0xbc462fea	-0.012096385
189	0x3ce79d28	0.02827318
190	0xbd964d91	-0.07339013
191	0xbdb71812	-0.08940138
192	0x3d2a5a62	0.041590102
193	0x3d14fd09	0.036374126
194	0xbd432212	-0.047639914
195	0x3d233c11	0.039852206
196	0x3e08c9d7	0.13358246
197	0xbd7aadd1	-0.06120092
198	0x3df53203	0.119724296
199	0x3db831a4	0.08993843
200	0x3d037582	0.032094486
201	0xbc49a650	-0.012307718
202	0x3bd10acc	0.006379461
203	0x3db0480f	0.08607494
204	0x3bb92c61	0.0056510423
205	0xbd3a49ca	-0.045480527
206	0x3dd46bd8	0.10372132
207	0x3e099491	0.1343558
208	0x3a5df52d	0.0008467015
209	0xbdf5ea49	-0.12007577
210	0xbc916f80	-0.017753363
211	0xbd4f199b	-0.05056153
212	0x3d6d7dc2	0.05798126
213	0xbd2231f6	-0.039598428
214	0x3e043408	0.12910473
215	0x3d90e1b6	0.07074301
216	0x3d9b598f	0.07585441
217	0xbe0fcb3d	-0.14042373
218	0xbd5c4a4d	-0.053781796
219	0xbdac981b	-0.08427449
220	0xbd1b5b10	-0.03792864
221	0xbcb0619d	-0.02153092
222	0x3dc9cb52	0.098532334
223	0x3cf8daff	0.030377863
224	0x3c83c159	0.016083406
225	0xbc45472f	-0.012040897
226	0x3ce5e226	0.028061938
227	0x3c55f97e	0.013059972
228	0x3d3e58e6	0.0464715
229	0xbcc0106c	-0.02344533
230	0xbdc490d2	-0.09597935
231	0xbd2c0f6a	-0.042006887
232	0x3ce51dbc	0.02796828
233	0xbdcd61e2	-0.10028435
234	0xbcf4671f	-0.029834328
235	0xbd602ce6	-0.05473032
236	0xbcd704c5	-0.026247391
237	0xbd0e9a7e	-0.034815304
238	0xbdf18c9f	-0.117943995
239	0x3c4e1f77	0.012580744
240	0x3d874f29	0.066068955
241	0xbd8a4c23	-0.06752803
242	0xbd151758	-0.036399215
243	0x3d0b3ba4	0.033992425
244	0xbc18d8fc	-0.009329077
245	0x3abbf048	0.0014338577
246	0xbcf1a642	-0.029498223
247	0xbd95889f	-0.07301449
248	0xbdb3f24e	-0.0878645
249	0x3cb555fc	0.022135727
250	0x3c6e2aa6	0.014536535
251	0x3ddd1476	0.10794918
252	0xbc93b0bc	-0.01802861
253	0x3c42994f	0.011877372
254	0x3dcac007	0.098999076
255	0x3dcbbe84	0.09948447

hidden.1.bias f4 [99]
0	0xbdbb170e	-0.09135257
1	0x3d37c185	0.04486229
2	0xbd6b7f7e	-0.057494633
3	0x3d3d6fa4	0.046249047
4	0x3cf47699	0.029841708
5	0xbd7c1f06	-0.061553024
6	0xbbc21061	-0.0059223627
7	0xbb3e202d	-0.0029010877
8	0xbcf1f40a	-0.029535312
9	0xbde0e4ba	-0.10981126
10	0xbcb6aad2	-0.02229825
11	0x3b34adf7	0.0027569511
12	0xbda73971	-0.08165253
13	0x3d4ef1e4	0.050523654
14	0xbcf97cc4	-0.030455
15	0xbc4c4773	-0.012468207
16	0xbd6aff0e	-0.057372145
17	0x3d442824	0.047889844
18	0xbc8d8051	-0.0172731
19	0xbd9ce0cf	-0.07660066
20	0xbd879ff4	-0.066223055
21	0x3d5fdf30	0.054656208
22	0xbcf8be63	-0.030364221
23	0xbd9bab47	-0.07601028
24	0xbd73d4dd	-0.059529174
25	0xbd81ea73	-0.06343546
26	0x3d82559f	0.06363987
27	0xbdab0fad	-0.08352599
28	0xbd3fe62b	-0.046850365
29	0xbb9d1d0a	-0.0047947215
30	0x3de2cfb9	0.11074776
31	0x3d9e4cd8	0.077295005
32	0x3de52610	0.111889005
33	0xbdd07f17	-0.101804905
34	0x3d2ff0f2	0.042954393
35	0xbd9b8225	-0.075931825
36	0x3d104b58	0.035228103
37	0xbdd562ad	-0.104192115
38	0xbc2833c1	-0.010266245
39	0xbcd515af	-0.026011316
40	0xbde0178b	-0.109419905
41	0x3ddc1249	0.10745675
42	0xbc0c78aa	-0.00857369
43	0xbd8c8800	-0.068618774
44	0xbd69150c	-0.056904837
45	0xbd107d99	-0.03527603
46	0xbddf1a4d	-0.10893688
47	0x3dc6f5a3	0.0971482
48	0xbbb2d6d5	-0.005457739
49	0xbcab96ed	-0.02094599
50	0xbaaae40a	-0.0013037932
51	0x3dace811	0.08442701
52	0xbd7dd166	-0.061967276
53	0x3da1a608	0.07892996
54	0xbdb47044	-0.088104755
55	0xbd159b90	-0.03652531
56	0x3d0c7e97	0.034300413
57	0x3d22d1c2	0.039750822
58	0x3d042b0d	0.03226762
59	0xbd86480c	-0.065567106
60	0xbca8f327	-0.020623757
61	0x3c2665c4	0.010156099
62	0x3cf13728	0.029445246
63	0x3de16117	0.110048465
64	0x3d920fc2	0.07131912
65	0xbc9cd536	-0.019144636
66	0x3d19ab1a	0.03751669
67	0xbcc947c3	-0.024570351
68	0xbddc4276	-0.10754864
69	0x3d464e1d	0.04841434
70	0x3bd90747	0.006623182
71	0x3d21daac	0.039515182
72	0xbd80a2f4	-0.06281081
73	0x3c57451a	0.013139034
74	0xbd9c0c87	-0.07619577
75	0x3d796c72	0.060894437
76	0x3d793b25	0.06084742
77	0xbc022b35	-0.007944872
78	0x3dc24fa7	0.09487849
79	0xbd2f9b9d	-0.042873014
80	0x3d806898	0.0626995
81	0x3dbdb53e	0.09263085
82	0x3d53eb62	0.05173815
83	0xbde22c66	-0.110436246
84	0x3d49c5fc	0.04926108
85	0xbdc7bd34	-0.097528845
86	0xbe057716	-0.13033709
87	0xbd9aefc8	-0.07565266
88	0xbcceb663	-0.025233453
89	0xbd2a6777	-0.041602578
90	0xbd299702	-0.041403778
91	0x3accbfbb	0.0015621105
92	0x3da2b0b9	0.079438634
93	0x3cfe4358	0.031037971
94	0x3cb549cd	0.022129918
95	0xbdc1ecfd	-0.0946903
96	0xbdd9edce	-0.10641061
97	0x3d1aeb50	0.037822068
98	0xbd245ef0	-0.040129602

hidden.2.weight f4 [99, 99]
0	0x3d96aec5	0.073575534
1	0x3e07593c	0.13217634
2	0x3db6163a	0.08890958
3	0x3d85b9e0	0.065295935
4	0xbd10f163	-0.035386454
5	0xba5d7fdd	-0.0008449534
6	0xbd8688ba	-0.06569047
7	0xbcbdee62	-0.023184959
8	0xbe233f5b	-0.15942137
9	0x3df362fe	0.11884116
10	0x3d2ea89e	0.042641275
11	0x3d4c71d5	0.049913246
12	0xbd336211	-0.043794695
13	0xbc4bca1d	-0.012438324
14	0x3dceb450	0.10092986
15	0x3ac3656a	0.0014907543
16	0xbe1b129f	-0.15143822
17	0x3d22b940	0.03972745
18	0x3dafd130	0.08584821
19	0xbd7a7466	-0.061146162
20	0xbbb198a6	-0.0054198084
21	0xbe04a0cd	-0.12951966
22	0xbdb58c89	-0.088646956
23	0xbd7e310f	-0.062058505
24	0x3d775fb9	0.060394023
25	0x39bcf805	0.00036042943
26	0xbbab87e3	-0.005234705
27	0xbc1c614e	-0.009544684
28	0x3cb8626b	0.022507867
29	0xbdf5f615	-0.12009827
30	0xbd6a83d3	-0.057254624
31	0xbb938429	-0.0045018387
32	0xbd0797ed	-0.033103872
33	0x3d863a2e	0.06554066
34	0x3d69f7d1	0.0571211
35	0x3e633cd2	0.2219117
36	0xbbbbc079	-0.0057297316
37	0xbde2686d	-0.11055074
38	0xbcfae55c	-0.030626945
39	0xbe187a17	-0.14890324
40	0xbcadb323	-0.021203583
41	0xbda6c477	-0.081429414
42	0x3e0693ea	0.13142362
43	0x3d801e9d	0.06255839
44	0xbcf672ae	-0.03008398
45	0x3c1f892a	0.009737292
46	0x3dc943d6	0.09827392
47	0xbd7fdcea	-0.06246654
48	0x3daa6caa	0.08321507
49	0x3dc4b258	0.09604329
50	0xbd923109	-0.07138259
51	0xbd49fb53	-0.049311947
52	0x3d4ea19b	0.050447088
53	0xbd9bc7f4	-0.076064974
54	0x3dc1782e	0.094467506
55	0xbdc47ea3	-0.095944665
56	0xbd27c680	-0.04096079
57	0x3db4e0dd	0.08831952
58	0x3dbcf270	0.09225929
59	0xbdf8d5b5	-0.121501364
60	0xbd1d923f	-0.03846955
61	0xbe632222	-0.2218099
62	0x3c5c259c	0.013436701
63	0x3d4b14ec	0.0495805
64	0xbd4314ff	-0.047627445
65	0x3da8fde4	0.08251551
66	0x3e2147d1	0.15750052
67	0xbcb331c7	-0.021874322
68	0x3e5bc5a4	0.21462113
69	0x3d90d76f	0.07072341
70	0x3d47664c	0.048681542
71	0x3d632583	0.055455696
72	0xbd20adf6	-0.039228402
73	0x3c961c51	0.01832405
74	0x3d77777e	0.06041669
75	0xbda63aca	-0.08116682
76	0xbe068da5	-0.1313997
77	0xbd8b5b27	-0.06804495
78	0xbdc2ef50	-0.095183015
79	0x3d6e679f	0.05820429
80	0xbdab61ec	-0.083682865
81	0xbe29f2cf	-0.1659653
82	0xbdbf5087	-0.09341531
83	0x3cfab65e	0.030604538
84	0x3d47c4dd	0.048771728
85	0x3c647b1a	0.013945365
86	0xbc7db98b	-0.015486131
87	0x3da435bb	0.08018061
88	0xbd326464	-0.04355277
89	0xbb81fccf	-0.0039669047
90	0xbdb7c74a	-0.08973558
91	0xbe054e68	-0.13018191
92	0x3df71833	0.120651625
93	0x3d8cbf78	0.06872457
94	0xbdd9181a	-0.106003
95	0xbdce2d1f	-0.100672
96	0x3d1ff8e7	0.03905573
97	0xbd05764e	-0.032583527
98	0x3e6ec7e9	0.23318447
99	0x3d9f44e7	0.07776814
100	0xbdbd9f17	-0.092588596
101	0x3db11d9c	0.08648226
102	0xbcc34a35	-0.023839096
103	0xbdc7fe4e	-0.09765302
104	0x3c747640	0.014920771
105	0x3b58800a	0.0033035302
106	0x3d8d859f	0.06910252
107	0x3e027f0d	0.12743779
108	0xbd02daf6	-0.0319471
109	0xbd61affd	-0.055099476
110	0xbdff5439	-0.12467236
111	0x3d44cc23	0.048046242
112	0x3c986874	0.018604495
113	0x3d8ea198	0.06964415
114	0xbd1a5160	-0.03767526
115	0xbd25d717	-0.04048833
116	0xbd79f8a9	-0.061028156
117	0x3e1e98fd	0.15488048
118	0x3c2ca896	0.010538241
119	0xbd07ba60	-0.033136725
120	0x3daa4774	0.0831441
121	0xbcb8e014	-0.022567786
122	0x3e2f4c5e	0.17118976
123	0xbce0f2e0	-0.027459562
124	0x3e0d538d	0.13801403
125	0xbc1d8301	-0.009613753
126	0x3e022671	0.12709977
127	0x3cfb0b17	0.030644936
128	0xbb13fc3d	-0.0022580766
129	0x3d6fbc03	0.05852891
130	0x3e089885	0.13339432
131	0x3d186430	0.03720492
132	0xbdb2372b	-0.08701929
133	0xbdd04c15	-0.101707615
134	0x3d40951f	0.047017213
135	0xbd92b013	-0.0716249
136	0x3d00373f	0.031302687
137	0xbe09f1f8	-0.1347121
138	0x3d9326cd	0.07185135
139	0xbc691eb5	-0.0142285125
140	0x3dd84426	0.10559873
141	0xbdd4b5d1	-0.10386241
142	0xbce089a5	-0.027409384
143	0x3e226b57	0.1586126
144	0x3d5c4d9a	0.053784944
145	0x3d8bdf24	0.0682967
146	0x3de3057d	0.11085031
147	0xbd9e7065	-0.07736281
148	0x3cfc48a5	0.030796358
149	0xbc437bb7	-0.011931351
150	0xbe3e79f2	-0.18601206
151	0xbddb9777	-0.10722249
152	0xbda5dcd8	-0.08098763
153	0xbdde5f02	-0.10857965
154	0x3d2906ad	0.041266132
155	0x3d9b99cb	0.07597693
156	0xbdf1efe9	-0.11813337
157	0xbcfe9aff	-0.031079767
158	0x3e37347b	0.17891113
159	0x3e2e7edf	0.17040585
160	0x3bb9e39e	0.005672886
161	0x3d530e57	0.051527347
162	0xbd218c79	-0.039440606
163	0xbbf58d45	-0.0074936473
164	0x3be40677	0.0069587785
165	0x3d1447f5	0.036201436
166	0xbda89f63	-0.082335256
167	0xbd702eb1	-0.05863828
168	0xbde7799a	-0.113024905
169	0x3d03086f	0.031990465
170	0xbc8533f8	-0.016260132
171	0xbc1bad37	-0.009501747
172	0x3cd64502	0.026155952
173	0xbdcfd33a	-0.1014771
174	0xbd0e1769	-0.034690294
175	0xbe3f4534	-0.18678743
176	0xbdb458a1	-0.08805967
177	0x3d4b41a0	0.04962313
178	0xbb8f4d71	-0.0043732454
179	0xbde87e44	-0.11352208
180	0x3d99371a	0.07481213
181	0xbddb5787	-0.10710054
182	0x3e207ebd	0.15673347
183	0x3d8e7299	0.069554515
184	0xbdc1a5f1	-0.09455479
185	0xbddd9fc4	-0.108214885
186	0x3bcb2905	0.0061999583
187	0xbdb4c690	-0.08826935
188	0xbdbd6899	-0.09248466
189	0x3d6ec2ac	0.058291122
190	0xbd93809e	-0.07202266
191	0xbe0bb0f6	-0.13641724
192	0x3dc9a22c	0.09845385
193	0x3d1675b1	0.036733333
194	0x3d890c4e	0.066918
195	0x3d35c88a	0.044380702
196	0xbb813bfd	-0.0039439187
197	0xbd49fd73	-0.049313974
198	0xbd9b4fd5	-0.07583586
199	0xbd241cff	-0.040066715
200	0xbce9445f	-0.028474985
201	0x3d559405	0.052143116
202	0xbd666626	-0.05624976
203	0xbd114f74	-0.035476163
204	0xbdb4dcb4	-0.08831158
205	0x3cf62aca	0.0300497
206	0x3df5911f	0.1199057
207	0xbcae4e9d	-0.02127772
208	0x3e1e7fb5	0.15478404
209	0xbd8e4e41	-0.069485195
210	0xbe0bfa0b	-0.13669603
211	0xbcbc0fd3	-0.022956764
212	0xbdff7f8a	-0.12475498
213	0x3e081bcb	0.13291852
214	0xbdb1d1e4	-0.086826116
215	0xbdbfa460	-0.09357524
216	0x3d806fa9	0.062712975
217	0x3c1d4fb0	0.0096015185
218	0xbc669bc9	-0.014075228
219	0x3e0056d0	0.12533116
220	0xbdab756b	-0.08372005
221	0x3d6ed84d	0.05831175
222	0x3aa11025	0.0012288137
223	0xbd71f2d0	-0.059069455
224	0xbe1807e8	-0.14846766
225	0x3d6017f5	0.054710347
226	0x3ce94f35	0.028480152
227	0xbbf8ea6e	-0.0075963056
228	0xbd8af067	-0.06784134
229	0xbd4e206a	-0.05032388
230	0xbaf4ff27	-0.0018691764
231	0x3d99153d	0.07474754
232	0xbd1236fa	-0.03569696
233	0x3c456247	0.012047357
234	0xbdfaae3d	-0.122402646
235	0xbcdd2d74	-0.026999213
236	0x3d05afe3	0.03263844
237	0x3e06d9de	0.13169047
238	0xbd85d10c	-0.06534013
239	0xbc09f9ec	-0.008421402
240	0x3dcc7dbc	0.099849194
241	0x3dda9e4d	0.10674725
242	0xbd30d931	-0.04317588
243	0xbe296d4d	-0.16545601
244	0xbc997e1e	-0.018736895
245	0x3d5bb582	0.053639896
246	0x394d42f9	0.00019575273
247	0x3d23dc64	0.040005103
248	0x3e3049c9	0.17215647
249	0xbd541dc1	-0.051786188
250	0x3dd01fe1	0.101623304
251	0x3cad90cb	0.021187207
252	0xbd246419	-0.040134523
253	0x3d89ff1e	0.06738113
254	0x3dc91e81	0.09820271
255	0x3d6074b6	0.054798804

hidden.2.bias f4 [99]
0	0x3d568c78	0.052380055
1	0xbd4f5753	-0.05062039
2	0x3d1aaad3	0.037760567
3	0x3cac2d96	0.02101783
4	0xbde7dce4	-0.113214284
5	0x3d994f71	0.07485855
6	0xbcdb7247	-0.02678789
7	0xbd0acaa3	-0.033884656
8	0xbd9ed307	-0.07755094
9	0x3d6f3bbe	0.058406584
10	0x3d8b6aed	0.06807504
11	0x3df446b0	0.11927545
12	0xbca76bf5	-0.02043722
13	0x3ceea7fd	0.029132837
14	0x3d888016	0.066650555
15	0x3db0c857	0.08631962
16	0xbd734bd3	-0.059398483
17	0x3c9bca4a	0.019017357
18	0x3da69767	0.081343465
19	0x3c0ab2ec	0.00846551
20	0x3db8b1f0	0.09018314
21	0xbc9b5b11	-0.018964322
22	0x3d9ad86a	0.07560809
23	0x3db4edaf	0.08834397
24	0xbd5e5e6f	-0.054289278
25	0x3d716689	0.058935676
26	0x3dc60518	0.0966894
27	0xbc8b9c5f	-0.017042337
28	0xbd3f3704	-0.046683326
29	0x3d12c32a	0.035830654
30	0x3c909c0d	0.017652536
31	0xbcf6d74a	-0.030131955
32	0x3d80c013	0.06286635
33	0xbd960080	-0.07324314
34	0x3d8fe1bc	0.07025477
35	0xbce53066	-0.02797718
36	0xbc44dee4	-0.012016032
37	0xbcc58cd6	-0.024115007
38	0x3d8d0e99	0.0688755
39	0xbd217e64	-0.039427176
40	0x3e0c2e70	0.1368959
41	0x3d6a33f2	0.057178445
42	0x3d9f873d	0.077894665
43	0xbe0f0252	-0.13965729
44	0xbc9a4802	-0.018833164
45	0xbdcb077f	-0.09913539
46	0x3decb9df	0.115588896
47	0xbd9ea31b	-0.07745954
48	0xbcf059e6	-0.029339742
49	0x3daf35ad	0.0855516
50	0x3cb01fdf	0.021499572
51	0x3d4b9ba8	0.049708992
52	0xbd24af07	-0.04020598
53	0x3b8bd3d1	0.004267194
54	0x3dab9a2c	0.08379015
55	0x3d496a91	0.049173895
56	0xbdadfbdf	-0.08495306
57	0xbd4589b9	-0.048227046
58	0xbdbe3fa2	-0.09289481
59	0xbc3a0290	-0.01135315
60	0xbdae8eca	-0.085233286
61	0x3e006201	0.12537386
62	0x3cd15d75	0.02555726
63	0x3dbcae58	0.09212941
64	0xbcc89c4b	-0.024488589
65	0xbda0d13c	-0.07852408
66	0x3daf603b	0.085632764
67	0xbc4e0325	-0.012573992
68	0x3ba4f424	0.0050339866
69	0xbc92b3ba	-0.017907966
70	0x3da958a1	0.08268858
71	0x3e00f707	0.12594233
72	0x3dae0165	0.0849636
73	0x3db01915	0.08598534
74	0xbde6ce5f	-0.11269831
75	0xbddbe4e2	-0.10737015
76	0x3bfb4861	0.0076685403
77	0xbdc81c21	-0.0977099
78	0xbd0f7e2f	-0.035032447
79	0x3d49e074	0.04928632
80	0x3b66d56a	0.003522242
81	0x3d94394a	0.072374895
82	0xbdbe5339	-0.09293217
83	0x3c09dc39	0.008414322
84	0x3dfeb45a	0.12436743
85	0x3dc3c99a	0.09559937
86	0xbde30792	-0.11085428
87	0x3c6cb293	0.014446872
88	0xbd1a79ba	-0.037713744
89	0x3dc33259	0.095310874
90	0xbc2d0719	-0.010560774
91	0xbb85fb53	-0.004088798
92	0x3d2d483c	0.042305216
93	0xbd8b22a9	-0.0679372
94	0x3c227df8	0.009917729
95	0x3c37008f	0.011169567
96	0x3b3be3a5	0.0028669622
97	0x3d4d2f20	0.05009377
98	0xbd2fe4b2	-0.04294271

hidden.3.weight f4 [99, 99]
0	0xbd091589	-0.033467803
1	0x3d93fcc3	0.07225945
2	0xbd4cdcdd	-0.05001532
3	0xba9631b2	-0.0011458902
4	0x3d9cd1d9	0.07657213
5	0x3c888a14	0.016667403
6	0xbd2c7333	-0.04210205
7	0x3dcbb7c6	0.099471614
8	0xbc86dc63	-0.01646251
9	0xbd7cd865	-0.061729807
10	0xbd415f8a	-0.047210254
11	0x3dcaf368	0.09909707
12	0x3cace670	0.021105975
13	0xbda5eadf	-0.08101439
14	0x3e1091ed	0.14118166
15	0x3dfb9a87	0.12285333
16	0xbdc3328a	-0.09531124
17	0xbe0c502b	-0.13702457
18	0x3aff0592	0.0019456616
19	0x3d82489c	0.063615054
20	0xbde6ffbf	-0.112792484
21	0x3d90d4e0	0.07071853
22	0x3d444fe9	0.04792777
23	0x3d225558	0.03963217
24	0x3d22bb6d	0.039729524
25	0x3ddbbfae	0.107299194
26	0xbe3a0815	-0.18167146
27	0x3c96af7a	0.01839422
28	0xbd10c744	-0.035346285
29	0xbd60fa69	-0.05492631
30	0xbc173b9e	-0.009230522
31	0x3c1ebbd5	0.009688337
32	0x3d8dafb3	0.069182776
33	0xbd2ef250	-0.042711556
34	0xbe19decc	-0.15026397
35	0x3cb54965	0.022129724
36	0xbe16dc6c	-0.14732522
37	0x3db1f6af	0.08689629
38	0x3d654c30	0.05598086
39	0x3d8c8a0c	0.06862268
40	0xbd9d1ab8	-0.07671112
41	0xbe4115da	-0.18855992
42	0x3d3b7611	0.045766894
43	0x3dbf7b6e	0.09349714
44	0x3dc7bcd0	0.0975281
45	0x3daf2e67	0.085537724
46	0x3c2df2d3	0.010616976
47	0x3e21484c	0.15750235
48	0x3d4ee6b8	0.050513
49	0x3d356911	0.044289652
50	0x3c740e29	0.014895954
51	0xbc9405c6	-0.01806916
52	0xbdc87fe2	-0.09790017
53	0x3c8f8908	0.017521396
54	0xbdf496dd	-0.119428374
55	0xbddc41df	-0.107547514
56	0xbdafc8b5	-0.08583204
57	0xbd8c87de	-0.06861852
58	0xbc93341b	-0.017969182
59	0xbe0956b7	-0.13411985
60	0x3c45c487	0.012070782
61	0xbc173695	-0.009229322
62	0x3db4db44	0.08830884
63	0xbdceffe1	-0.10107399
64	0xbdd1054b	-0.10206088
65	0xbca8ec97	-0.020620627
66	0xbe0a7507	-0.13521205
67	0xbdf39939	-0.11894459
68	0xbd059155	-0.032609303
69	0x3dafc605	0.08582691
70	0x3dabd3ce	0.08390008
71	0xbd3278e2	-0.043572314
72	0x3d834fc0	0.064116955
73	0x3d807176	0.06271641
74	0xbe097612	-0.13423946
75	0x3d860b30	0.065451026
76	0xbd913785	-0.07090668
77	0x3cb8cf47	0.022559775
78	0x3e03bab9	0.12864198
79	0xbda9c656	-0.08289783
80	0xbd1405c1	-0.0361383
81	0x3d846a44	0.06465581
82	0xbe2a969b	-0.16659014
83	0xbd3e27c0	-0.046424627
84	0xbd11d817	-0.03560647
85	0x3e0fcd7e	0.14043233
86	0x3d348329	0.044070397
87	0x3e0bbc32	0.1364601
88	0xbdec4ff7	-0.115386896
89	0x3dae609b	0.0851452
90	0x3d6116d9	0.05495343
91	0x3cd8ff47	0.026488913
92	0xbce72d32	-0.028219793
93	0xbdb26c75	-0.08712093
94	0x3e078a92	0.13236454
95	0x3caebe05	0.021330843
96	0x3d95e755	0.07319514
97	0x3de75013	0.1129457
98	0x3dc165bf	0.09443235
99	0xbdbe89de	-0.0930364
100	0x3e158d68	0.14604723
101	0xbe292cc1	-0.16520979
102	0x3af205ac	0.0018464825
103	0x3c903727	0.017604424
104	0x3db71846	0.08940177
105	0xbd416f3b	-0.04722522
106	0x3d9777b7	0.07395881
107	0x3d9f5e46	0.07781653
108	0x3d4c7c71	0.049923364
109	0x3de64567	0.11243706
110	0x3abe2993	0.001450824
111	0x3d4a0f0e	0.049330764
112	0x3d6bffce	0.057617
113	0xbdf163bb	-0.117866
114	0xbb446006	-0.002996446
115	0x3e227372	0.15864351
116	0x3df1731d	0.11789534
117	0x3da3a700	0.07990837
118	0xbe0a6a5e	-0.13517138
119	0xbd3027dc	-0.043006763
120	0x3e0cf9c3	0.13767152
121	0x3e23970c	0.15975589
122	0xbd5c20bd	-0.05374216
123	0x3d4e068b	0.05029921
124	0xbdd73af2	-0.1050929
125	0xbd8abd04	-0.06774333
126	0x3d67f43c	0.056629404
127	0x3e62218c	0.2208311
128	0xbd1d4b13	-0.038401674
129	0x3d4512d3	0.048113655
130	0x3da169f5	0.07881538
131	0x3d887a8c	0.06663999
132	0xbcec7a72	-0.02886698
133	0xbda2fc8f	-0.07958328
134	0xbcbc3fee	-0.022979703
135	0x3da81c11	0.08208478
136	0x3aeff47d	0.0018307116
137	0xbc0c8a8e	-0.008577956
138	0x3d8667bd	0.06562755
139	0x3e0829fb	0.13297264
140	0xbd9a0db6	-0.075221464
141	0x3d629cc8	0.0553253
142	0xbdc3a058	-0.095520675
143	0x3dac0bae	0.08400665
144	0x3cf8abc8	0.03035535
145	0xbd760e24	-0.06007208
146	0x3d68c119	0.056824777
147	0x3da47cbd	0.080316044
148	0xbd9a66ea	-0.075391605
149	0xbcd773b3	-0.026300287
150	0xbd7683e6	-0.060184382
151	0xbd5068fe	-0.05088138
152	0xbe2cdeba	-0.16881838
153	0x3dc1084f	0.09425413
154	0x3da282bd	0.079350926
155	0x3cb02ad3	0.021504795
156	0x3e2a271f	0.16616486
157	0xbd147aa0	-0.036249757
158	0x3dbe3b39	0.092886396
159	0xbcec21d9	-0.028824734
160	0xbccd70ab	-0.025078138
161	0xbd801a22	-0.062549844
162	0xbc9ae81b	-0.018909505
163	0x3df52833	0.11970558
164	0x3d8f9b15	0.070120014
165	0xbe745014	-0.23858672
166	0xbe1ad751	-0.15121199
167	0xbe0691b0	-0.13141513
168	0x3c1ad969	0.009451249
169	0x3c65eb55	0.014033158
170	0x3db2cf8c	0.08730993
171	0xbcc30853	-0.02380768
172	0xbc96a0e3	-0.018387264
173	0xbd5d8fca	-0.054092206
174	0xbcf74565	-0.030184457
175	0xbca48242	-0.020081643
176	0xbe216bbf	-0.15763758
177	0xbbe2d5d1	-0.0069224616
178	0xbd84a236	-0.06476252
179	0xbdc58fcd	-0.096465684
180	0xbde7f7c4	-0.113265544
181	0x3e276854	0.16348392
182	0xbd692d4d	-0.056927968
183	0xbcb15bbb	-0.021650186
184	0xbc646652	-0.013940411
185	0x3d53ea77	0.051737275
186	0x3c431c40	0.011908591
187	0x3e009d78	0.1256007
188	0xbd7f2e7e	-0.062300198
189	0x3c9ff537	0.019526107
190	0xbc0ab8d7	-0.008466921
191	0xbbd0c7bf	-0.006371468
192	0x3d781e45	0.060575742
193	0x3c15c4f6	0.009141197
194	0xbdb19cdd	-0.086724974
195	0x3db0c60c	0.086315244
196	0x3c36472c	0.011125367
197	0x3c3b9dd6	0.011451205
198	0xbced63f2	-0.028978322
199	0x3dddd234	0.10831109
200	0x3cc23f53	0.023711836
201	0xbc7f4418	-0.0155802
202	0x3d940e4b	0.07229289
203	0xbc009ab4	-0.007849384
204	0xbdabce2b	-0.08388933
205	0x3d418446	0.047245286
206	0x3d2b0667	0.041754153
207	0xbb33aff9	-0.002741812
208	0xbcd2f91d	-0.025753552
209	0x3d6ee9d3	0.05832846
210	0x3d14f141	0.03636289
211	0x3df8e16f	0.12152373
212	0xbc0e84cc	-0.008698653
213	0xbdc22ed5	-0.09481589
214	0x3dc081db	0.09399768
215	0xbd6b6733	-0.057471465
216	0xbe0aaed3	-0.13543253
217	0xbc3fd770	-0.011709079
218	0xbd536c92	-0.051617213
219	0xbdd2cb5e	-0.102926955
220	0xbdea60d2	-0.11444248
221	0x3e32dd86	0.17467317
222	0xbd1285e2	-0.03577221
223	0x3caff51d	0.021479184
224	0xbe146ca8	-0.14494574
225	0xbca8db2a	-0.020612318
226	0xbd41f22a	-0.047350086
227	0x3c95fbfd	0.018308634
228	0xbd9f3375	-0.077734865
229	0x3df8ee4b	0.12154826
230	0x3d51c133	0.05120964
231	0xbd061d1d	-0.03274261
232	0x3c4cf1d3	0.012508827
233	0xbe351424	-0.17683464
234	0xbe41906f	-0.18902753
235	0x3d64dce3	0.055874716
236	0x3d872fbb	0.06600901
237	0x3ddb29c8	0.107013285
238	0xbe0c33a2	-0.13691571
239	0xbcd43388	-0.025903478
240	0x3da127d5	0.078689255
241	0xbdc551cc	-0.09634742
242	0xbc9d9a76	-0.019238692
243	0x3d5213bf	0.051288363
244	0xbb7e019f	-0.003875829
245	0xbd9a5503	-0.07535746
246	0xbd5fb9ae	-0.054620437
247	0xbe2cb28a	-0.16864982
248	0xbd9bc15c	-0.0760524
249	0x3d1690f7	0.036759343
250	0xbc750df2	-0.014956938
251	0xbdd79675	-0.10526744
252	0xbdda40a8	-0.106568635
253	0xbd5b7dbe	-0.053586714
254	0xbd396093	-0.045258116
255	0xbe3adf75	-0.18249305

hidden.3.bias f4 [99]
0	0x3d74a160	0.05972421
1	0xbd94a8d1	-0.07258762
2	0x3db09b68	0.086233914
3	0x3d87723a	0.06613584
4	0xbd992f8c	-0.07479772
5	0xbd980fa2	-0.07424857
6	0xbd09ea71	-0.033670846
7	0x3df58406	0.11988072
8	0xbac524e6	-0.0015040904
9	0xbd0d84a7	-0.034550335
10	0x3a836b4d	0.0010026485
11	0xbd925508	-0.07145125
12	0x3d58d4a9	0.052937184
13	0xbd1bdfec	-0.038055345
14	0xbce18c0e	-0.027532604
15	0xbd92b954	-0.07164255
16	0x3d60aee9	0.054854307
17	0xbd28b540	-0.04118848
18	0x3bfe0ca9	0.007752974
19	0xbd9d6c4e	-0.07686673
20	0x3d5f4691	0.054510657
21	0xbc8755a5	-0.01652033
22	0x3d216eea	0.039412417
23	0xbd67ddaf	-0.0566079
24	0xbd9ecd78	-0.07754034
25	0xbe283ef4	-0.16430265
26	0x3de8cc42	0.11367084
27	0xbdf4cc2e	-0.11953007
28	0xbd4385fd	-0.047735203
29	0xbc62e7d0	-0.013849214
30	0xbc017fad	-0.007903975
31	0x3ce7af2f	0.028281776
32	0x3df9fe18	0.12206668
33	0x3d98fad2	0.07469715
34	0xbd329ffd	-0.043609608
35	0xbcf98c15	-0.030462304
36	0xbcafc7f4	-0.02145765
37	0x3d196326	0.03744807
38	0x3bbb117d	0.005708872
39	0x3de6eecf	0.11276018
40	0x3c1541dc	0.00910994
41	0xbca467fb	-0.020069113
42	0xbd609105	-0.0548258
43	0xbd92b011	-0.07162488
44	0xbbcdc761	-0.0062798713
45	0xbd097d75	-0.03356691
46	0x3d381bed	0.044948507
47	0xbdb31e35	-0.08745996
48	0x3db0623f	0.08612489
49	0x3dc50e33	0.09621849
50	0x3d6920cf	0.056916054
51	0x3b1ac965	0.0023618576
52	0xbdaa1444	-0.083046466
53	0xbd93c671	-0.07215584
54	0x3d931ea7	0.07183581
55	0xbc501ab6	-0.012701681
56	0x3d5bf9bd	0.053704966
57	0x3da7ec54	0.08199373
58	0xbc1a9c85	-0.009436731
59	0x3d80bab2	0.06285609
60	0xbd4bd84b	-0.04976682
61	0x3d9ed908	0.07756239
62	0x3c599fe9	0.013282754
63	0xbd367388	-0.044543773
64	0xbddf355c	-0.10898849
65	0xbd7f3b1d	-0.062312234
66	0x3db6096f	0.08888518
67	0x3d8e5b3f	0.069509976
68	0xbd24bb11	-0.040217463
69	0x3cf3ecaa	0.029775936
70	0x3d44b645	0.04802539
71	0xbdb07796	-0.08616559
72	0xbcb55d08	-0.022139087
73	0x3c85c635	0.016329864
74	0x3dcad3b3	0.0990366
75	0xbdf4a9eb	-0.11946472
76	0x3d436e58	0.047712654
77	0x3b1d4361	0.002399646
78	0xbcb5b8ea	-0.0221829
79	0xbd75f236	-0.060045443
80	0xbddf3421	-0.10898615
81	0xbd1a87a3	-0.03772701
82	0x3cb48fd2	0.022041235
83	0xbcdf40bb	-0.027252546
84	0x3dd5a7ce	0.10432397
85	0xbd6152f7	-0.055010762
86	0xbd31bc9f	-0.043392774
87	0x3d80980f	0.06279003
88	0xbd862705	-0.06550411
89	0xbb696c0c	-0.003561738
90	0xbca7bef3	-0.020476794
91	0xbde6cf78	-0.1127004
92	0x3c9ee27e	0.01939511
93	0xbc930d24	-0.017950602
94	0x3d926ef1	0.07150067
95	0x3b920a12	0.004456767
96	0x3d57937d	0.05263089
97	0x3da560a0	0.080750704
98	0xbdafaf4b	-0.08578356
