models/7x7-4-99-tanh/285episodes.pth (torch, 202354 bytes, 12 tensors)

input_layer.weight f4 [99, 50]
00000000: f7ff b13d 5b3a 61be b4cb 05be 4c37 3cbe
00000010: 17f1 f9bd 27bd fabd a11e 1ebe a537 863c
00000020: dc9e c4bc 72fe 713d 1ff2 973c 4ee9 da3d
00000030: b9f6 7bbd ad4b f1bd 0ae9 48bd 460f 833d
00000040: 5eac 553d 2068 173d 110c e03d bce3 0dbc
00000050: 6229 2abe a173 433e 64f9 c73b 8bea 813c
00000060: 5780 0f3d 9374 cd3d 613d c2bd 7aaa 24be
00000070: b8f1 19be c48f 5c3d ebe1 1abe b7dd 01be
00000080: 777e 713a 33a7 50bd 982a 98bd 2ab6 a2bc
00000090: 130a 5ebd 9f5c 613d c2ee 0ebe 5aa5 29be
000000a0: 3722 b83d 3516 25bd 58c6 a53d 5f44 40bb
000000b0: 3e2d 98bc 46e0 4f3e a1ad a63c ae07 0ebe
000000c0: 1751 9abd 8c79 cc3d 5930 db3d 1863 16be
000000d0: 36f4 233d c96b acbd 7498 89bd 3b3c 113e
000000e0: 4d72 5d3d 86eb db3d 4d67 fcbd 3012 613b
000000f0: a53c e3bd f02b 08be c5d4 1e3e 2845 e7bd
00000100: ae66 78bc 8ff8 813d 00ce 1fbd ef45 023e
00000110: 5c23 e9bd 044f 6f3c 1802 8e3d 09ff aebb
00000120: 7993 67bd b360 d83c afb8 d7bd 7bd3 f6bc
00000130: 91fb 41be 61d7 763c f057 d53d 5bc3 00be
00000140: 76e7 f63b 4d29 923d a8c8 b23d 2e98 12bd
00000150: 0abe ecbc ca41 3fbe 1515 bcbd 22c8 b5bb
00000160: de80 c43d d0b2 98bb f903 e7bd 746b 54bd
00000170: 510c 02bd 3dff 88bc eb18 41bd 1891 8ebc
00000180: c309 f7bd 43cf 97bd bf9d 82bc af50 093c
00000190: 1056 82be 36ae a1bd 5a39 eebd 1107 e73d
000001a0: 5463 b23b a2d9 da3d 9b33 3cbd 3be5 0b3b
000001b0: 5a5b 163e 040c fdbd 2aad c2bd aa4c 36be
000001c0: 11b9 6c3d 8bda ca3d 6254 ad3b fe3b 293d
000001d0: 3efc 3cbd ca14 113e cb92 0a3e ebc7 d23d
000001e0: 9803 dd3a a7aa ff3d ea04 e5bd 3db3 91bd
000001f0: de81 033e a337 1b3d 5d6f 1fbe d394 7ebd
00000200: 0b60 1039 07e1 bcbd 9b4a 453d fa85 a4bd
00000210: fa3a a33d ad4e 93bd a770 103d c204 a93d
00000220: d5dc 01be 7bb9 debd eb80 ecbd 3525 ca3d
00000230: c284 42bc 8817 cabd 0e0d 073d 3f8c ac3d
00000240: 4942 00bd a5f8 bb3d 7519 173e b07e b0bd
00000250: 30fb f73b 5813 8ebd f91e 823c 8da6 2fbd
00000260: df41 f5bd 1954 7ebd 289b 66bd 3c98 24bd
00000270: 3c4e 3f3d 7f24 dc3c 18fd bcbb cbbd 143e
00000280: 28ba 003e 2e78 1abe 3b3b 2b3d 7c16 1cbd
00000290: 2d72 613e e510 133e e5e5 d83c c134 f33d
000002a0: ae58 9d3b 7371 67bd 45db 12be 95c4 d53d
000002b0: 55dd 94bd c35b b3bc 32d5 f6bc ab63 cabd
000002c0: e88c 46bd d985 acbd 3ba8 25be 43f2 82bd
000002d0: cd3b 7b3d dbbd 14bc 6206 dcbd b90c 67bd
000002e0: efbf 48be 9753 153d 3f96 793d 45d3 2d3c
000002f0: cec7 d23d 93ba e3bb f0f6 fd3c edbd 76bd
00000300: 24c2 84bc ae1c 01bc b49d 3a3d cded 243e
00000310: a122 88bd b47b 1abd e731 1f3d 2d10 c2bd
00000320: 099c 56bd 89e9 51bd 919a 2f3a fd54 1f3e
00000330: 821f e63b dcf5 853d 518d 97bd d25b a5bd
00000340: 9648 223d 5c12 08bd 8879 433d 93a9 0c3e
00000350: f347 04bc 9b2b 9cbd f026 1fbe 4762 a3bd
00000360: a573 1e3e 54cb bb3d 30be 54bd 621d 26be
00000370: 5c25 023d a94b 0b3e 4464 95bd e21c 0b3e
00000380: 93ef 0cbe 247f d83c 24ee 5b3d 08a5 eabd
00000390: 5b1a ea3d 28f0 ccbd e15f 463d 4475 cb3d
000003a0: 459c 09bd e8c4 95bd e2c4 903d f210 a03d
000003b0: c1b4 1e3d e733 cb3b d8e8 4dbd 9490 b23d
000003c0: f9f6 b5bd 6e19 ecbd 1c3e 0bbd 0a5d 503d
000003d0: 1019 93bd 4eae 06be cc89 66bc 429a 24be
000003e0: f196 e6b9 3dde c33d fec7 9dbd 5ddc 92bd
000003f0: 3c0b 1fbd 2acf 16be 6491 433d 3788 8bbd
0.086913995 -0.21994917 -0.13065988 -0.18380469 -0.12204187 -0.12243109 -0.15441372 0.016383955
-0.024001531 0.05908055 0.01854807 0.106890306 -0.06151459 -0.11782012 -0.04905037 0.063993976
0.052166335 0.036964536 0.109398015 -0.008660253 -0.16617349 0.19087078 0.0061027277 0.01585891
0.035034504 0.100320004 -0.09484363 -0.16080657 -0.15033615 0.053848043 -0.15125243 -0.12682234
0.0009212265 -0.050940704 -0.07429999 -0.019862253 -0.054208826 0.05501997 -0.13958266 -0.16566983
0.08990901 -0.04030438 0.08094472 -0.0029337627 -0.01857626 0.20300397 0.020346465 -0.13870117
-0.07534998 0.09984121 0.10702581 -0.14686239 0.04002782 -0.08418996 -0.06718531 0.14183132
0.054064084 0.10738282 -0.123243906 0.0034343116 -0.110955514 -0.13298011 0.15510853 -0.112924874
-0.0151611995 0.06346237 -0.039014816 0.1272199 -0.113836974 0.014606241 0.06933993 -0.005340461
-0.056537125 0.026413297 -0.105332725 -0.030130139 -0.18943621 0.015065999 0.10417163 -0.12574522
0.0075349165 0.07136784 0.087296784 -0.03578966 -0.028899211 -0.1867744 -0.091837086 -0.0055475393
0.09594892 -0.004659988 -0.112800546 -0.051860288 -0.031750027 -0.01672327 -0.047142904 -0.01740317
-0.12062409 -0.07412579 -0.01594436 0.008381053 -0.25456285 -0.07894556 -0.11632033 0.11280645
0.0054439697 0.106860414 -0.045947652 0.0021346349 0.14683285 -0.123558074 -0.09505685 -0.17802683
0.05779368 0.09904965 0.0052896 0.04131698 -0.046138994 0.14168087 0.1353256 0.102920376
0.0016862033 0.12483721 -0.11182578 -0.07114265 0.12842509 0.037894856 -0.15569825 -0.06215365
0.00013768689 -0.09222608 0.048166852 -0.080333665 0.07970233 -0.071927406 0.035263684 0.082528606
-0.12681897 -0.10875221 -0.11548027 0.09870378 -0.011872472 -0.098677695 0.032971434 0.08425187
-0.031313214 0.091782846 0.14755805 -0.08617914 0.0075677857 -0.06937283 0.01588391 -0.042883445
-0.119754545 -0.06209192 -0.056300312 -0.040184245 0.04670547 0.026872871 -0.005767476 0.14525525
0.12571013 -0.15084907 0.041804533 -0.03810738 0.22016211 0.14361914 0.02647681 0.118752964
0.004801831 -0.056504678 -0.14341457 0.10437886 -0.07268778 -0.021894341 -0.030130956 -0.098822914
-0.048474222 -0.08423967 -0.16177456 -0.06393864 0.061336327 -0.009078468 -0.10743405 -0.056408618
-0.19604467 0.03645667 0.0609343 0.010609453 0.10292016 -0.0069497316 0.031001538 -0.06023972
-0.016205855 -0.007880373 0.045560554 0.16106339 -0.0664723 -0.03771563 0.03886595 -0.094757415
-0.0523949 -0.051248107 0.00066987524 0.15559764 0.007022799 0.065410346 -0.07400001 -0.08074154
0.039620005 -0.033220634 0.047723323 0.13736562 -0.008073795 -0.076255046 -0.15542197 -0.07977729
0.15473802 0.09169641 -0.05193919 -0.16222146 0.03177391 0.13603081 -0.07294515 0.13585237
-0.13763265 0.026427813 0.053693905 -0.114572585 0.11430808 -0.10006744 0.04843128 0.09934476
-0.033596296 -0.073129475 0.070688024 0.07815732 0.0387466 0.0062012556 -0.050270885 0.08718982
-0.08884997 -0.11528288 -0.03399478 0.05086998 -0.07182515 -0.1315243 -0.014070939 -0.1607447
-0.0004398148 0.09563873 -0.07704161 -0.07170937 -0.038829073 -0.14727464 0.047746077 -0.0681309

input_layer.bias f4 [99]
00000000: 295b 51bc ac06 11be 257a 113e 1b03 95bc
00000010: 7fec 503e 29b4 01be 8063 e6bd e47a 293d
00000020: 9050 bebd f9f0 233d b87b 14be 8481 9a3c
00000030: e256 bcbd 6672 ee3d 63a4 2cbd c948 453d
00000040: 7177 64bc 9950 01be e153 c3bd b3a2 aa3d
00000050: 2876 403d b10b cc3d e0b0 de3d dfde ccbd
00000060: 3bea e43d 704f 1b3e 9695 c4bd 57fe 023e
00000070: 500a 9cbc 7950 9ebd 3a7a d7bd b482 95bc
00000080: f554 b4bb 6d7c cfbd 2aba df3c 64d2 f13d
00000090: 9eba 26bd 642e a6bd 0809 f9bd 8f09 3ebd
000000a0: 9ebf ddbc c884 eb3c da37 363e 68e3 cdbd
000000b0: d15c 48bd 0bba 963d d622 503c d998 db3d
000000c0: 2811 9f3d 92ff 05bd 28c0 e03d 2314 eb3d
000000d0: 2aa0 843d d761 36bd 8088 d8bd e686 0fbe
000000e0: b1dd d8bd dc90 efbd fe7d 00be 0d06 42bd
000000f0: 5690 0c3d d98d 063e dd2f d63b 6e38 c53d
00000100: 31b6 07be 373f dcbc 1776 d9bd f083 07be
00000110: 8cc5 0cbe 050d 7ebd e10f dcbd 5f58 003e
00000120: 1684 7bbd f039 f03d c544 d6bd 0ede e3bc
00000130: efd6 69bc 5d9c 38be a30b cf3d 5ce1 8dbd
00000140: a0b0 f43d fd46 d7bd 957c 08be e80c 0b3e
00000150: cc3f fcbd 448e 863d 2d2b 0bbe 1542 903d
00000160: 6a6f 07be 8dc7 1d3c c7d5 d93d 0089 1e3e
00000170: e4ce a93d 131e adbd 48c3 22bc cde9 0a3e
00000180: 8d81 d3bd 0d6a 91bc 2d29 f3bc
-0.012778082 -0.14162701 0.1420675 -0.018189957 0.20402716 -0.12666382 -0.11249447 0.041376963
-0.0929271 0.04002473 -0.1450032 0.018860586 -0.09196259 0.116429135 -0.04214896 0.048165116
-0.013944493 -0.12628402 -0.09537483 0.08331814 0.046987683 0.099631675 0.1087358 -0.10003447
0.111774884 0.15167022 -0.09598844 0.12792335 -0.019047886 -0.07730193 -0.1052136 -0.0182508
-0.0055032917 -0.10131154 0.02731045 0.11807707 -0.040705316 -0.08114317 -0.12159926 -0.046395835
-0.02706891 0.028749838 0.17794743 -0.1005314 -0.04891664 0.07359704 0.012703618 0.10722513
0.07766944 -0.032714434 0.10974151 0.1147845 0.06475861 -0.0445269 -0.1057291 -0.14016303
-0.10589159 -0.116975516 -0.12548062 -0.04736905 0.034317337 0.13140048 0.0065364675 0.09629904
-0.13253094 -0.026885612 -0.10618227 -0.13233924 -0.13747233 -0.062024135 -0.10745216 0.12533711
-0.061405264 0.11729801 -0.104623355 -0.027815845 -0.014272436 -0.18028398 0.101096414 -0.069277495
0.11947751 -0.10511587 -0.13328774 0.13579142 -0.12316856 0.06570104 -0.13590689 0.07043854
-0.13226095 0.009630096 0.10636478 0.15481949 0.082914144 -0.08453002 -0.009934254 0.1356575
-0.10327444 -0.017750764 -0.02968272

hidden.0.weight f4 [99, 99]
00000000: 2e92 08be bb5b 48bd 2c4c 4039 de80 ffbd
00000010: 9695 a53d dc19 3dbc 3de7 cb3b 6d21 ac3d
00000020: 132e babc e5f9 5e3d 2504 033c 6efd 523d
00000030: 0f0a 523d f50c 403d f622 883d f7a6 0d3e
00000040: 3f89 f9bd 2a33 3d3d 4256 5fbd 4069 de3b
00000050: f18c 9dbd 3b9a 093d dada 603c b715 d43d
00000060: 122f a43d 8baf 663d 31ef 6fbd 4a98 67bd
00000070: 9250 7cbd ec4e 84bd a623 01be 01ca fbbc
00000080: 948f e3bd 7f91 273d ee95 343c 1f19 b53d
00000090: 762c 633d cf0c 943d 08fd 963d 3d6a cb3d
000000a0: c37a 213e 3596 0c3e 9872 4dbd b218 af3b
000000b0: fa6d 943d 023a ce3c a773 a0bd 1349 42b9
000000c0: 390f 75bd 1508 acbd 0524 b9bd 1333 e93d
000000d0: bbb7 dfbc 0b15 cf3c 2bae f2bd c32e 81bc
000000e0: b510 8a3c 0eec 2b3b aec2 493d 1e41 f33c
000000f0: 75b6 313e ad61 073e e8bb 643d dead 0b3e
00000100: cfdf 88bd dc2c 24bd b6e1 bd3d d29c ce3d
00000110: d80c 983d 302d f23c 9f37 38bc d7cc e93d
00000120: 1400 ac3c c4b3 9bbd c20e 8f3c 5bc1 943c
00000130: 3592 85bd f0e2 afba dec0 de3d 2fc1 06bd
00000140: 35cc d7bc fb4b 01bd febd 97bc 882e ca3c
00000150: 8655 093e 275a 51bd c09d 35bd 9d47 043c
00000160: 2d7b 70bd b873 1c3d 18e6 91bb 3cd1 bb3d
00000170: 8179 c0bd 0da7 8c3d 2227 3cbd 951f 813d
00000180: ebf7 f23d 15e4 da3d d1e1 39bd ebd2 493d
00000190: 57bc a73b 28d7 18bd c387 b53d 49f7 4d3c
000001a0: 684b 033d 4e8f 893d f76e 6f3d 90d5 fe3d
000001b0: 875b 98bd 1e91 803d afae d4bd f276 06bd
000001c0: 4912 dfbd a1b0 8d3d 43f2 20bd 1432 f2bc
000001d0: 83a6 cc3c 7e27 bbbd c118 223c 4842 ffba
000001e0: 79a4 cc3c 14bd 1dbe e9bc 16bd 6a12 36bd
000001f0: 7e1c 953c ce3a 83bd 1bf9 acbd eaa8 82bd
00000200: 6bab bc3c 5bbf a33c 25e6 cf3d 6974 56bd
00000210: 1c52 eabd a8b3 3fbd 72ab 8abd 60b3 0b3e
00000220: 5e3d da3b 31c6 513d 5fcb 43bd cfd7 033e
00000230: 4852 96bd 4400 8e3d a28d 6f3d 45b0 aebb
00000240: d6a1 7fbd 504b 91bd 156a 193c 2a97 0abe
00000250: b2d0 b6bb 81fd 523d c4a3 4c3d e11f fb3b
00000260: f95a 2d3d 8ef0 cfbd 9b30 f83c 2371 c53c
00000270: b5b2 1cbd a176 8c3a cc1b c03c c4c8 6bbd
00000280: 8b0e 903c f2a0 efbc 8c9b d53d e5d6 93bc
00000290: b078 363c 736b 023d 263a b1bd f58c a4bd
000002a0: b5b8 53bd d766 d7bd eed6 bfbd 52a7 86bc
000002b0: edd0 22bc 5e09 efbd 96d0 77bc 5f54 0d3d
000002c0: c18d d6bd 543e ae3c 2389 33bd 8606 14bb
000002d0: eba1 08be f0d7 debd d784 cabb 112e c43d
000002e0: f4c1 9ebc 2c27 5a3d 16ed 9bbd b152 0e3b
000002f0: 84c9 6ebd e19c 39bd 360e 263d 8075 a43d
00000300: 2037 753b 9939 e0bd 545d 3c3d 1064 1e3c
00000310: 6bfe 2e3d 3baa c3bc 88c2 6ebd 9f4a ce3d
00000320: a84c 6fbd 59a5 843c 0b32 00be dbcd 6d3d
00000330: d6da e7bc ff23 7b3d cd7d 223d 1f10 eebd
00000340: 035a d43d 2d80 c73d 5feb 5fbd e7f7 d8bd
00000350: 6403 9e3c b29d 223e 71a7 7ebc c734 aebd
00000360: eacd 253d 2d05 de3b 0422 a4bd b00c 773d
00000370: 95e8 d83d 6bc5 513d 4be9 83bd 2bf3 183c
00000380: e309 2fbc 93e8 a73c 4b6e ac3c 9acc a5bd
00000390: 7021 a4bd 9cb2 63bd 17a1 d73d 1092 3dbd
000003a0: c24a 4f3d 00e7 0b3e c425 b7bd 46da 15be
000003b0: 6d33 c0bd c81f ea3c a7da c939 9cfb 8d3d
000003c0: 961e df3a 9bdf bc3a 6ad6 4cbc 2472 9ebd
000003d0: 3b6e 76bc e0b3 563d db76 dd3d 2f53 59bc
000003e0: 1943 b3bd b15b cebd 0c7d 7c3c b8f1 8bbd
000003f0: 7418 b2bd 20dd 59bd 8d2e dcbd 2fbd 25bd
-0.13337013 -0.048915606 0.00018338923 -0.12475751 0.08085172 -0.01154181 0.006222634 0.08404813
-0.022727048 0.054437537 0.007996594 0.05151122 0.051279124 0.046887357 0.06647293 0.13833223
-0.12184381 0.046191372 -0.05452562 0.006787449 -0.07692898 0.03359435 0.013724053 0.10355704
0.080167904 0.056319755 -0.05857772 -0.05654172 -0.061600275 -0.06460366 -0.12611255 -0.030735971
-0.1111137 0.04091024 0.011022074 0.08842682 0.055462323 0.072290055 0.07372481 0.09932373
0.15769486 0.13729174 -0.050158113 0.00534352 0.07247539 0.025174145 -0.07834559 -0.00018528504
-0.05982897 -0.08399979 -0.09040073 0.11386695 -0.02730929 0.025278589 -0.11849626 -0.015769368
0.01685367 0.002623323 0.049257927 0.029694136 0.17354758 0.13220854 0.055843264 0.13640544
-0.06683313 -0.040081844 0.092715666 0.10088505 0.07424325 0.029562563 -0.01124373 0.11416023
0.020996131 -0.07602647 0.017463092 0.018158605 -0.065220274 -0.0013419073 0.1087663 -0.032899078
-0.02634249 -0.0315666 -0.018523213 0.024680391 0.13411531 -0.051111367 -0.044339895 0.008073715
-0.05871122 0.038196295 -0.004452478 0.09170768 -0.09398175 0.068678 -0.045935757 0.06304852
0.11863693 0.106880344 -0.04538137 0.049273413 0.0051188874 -0.037314564 0.08863785 0.012571164
0.032054335 0.06716786 0.058455434 0.124430776 -0.074393325 0.06277679 -0.10384881 -0.03282828
-0.108921595 0.06918455 -0.03929354 -0.029564895 0.024981743 -0.09138392 0.009893597 -0.0019474709
0.02498077 -0.15404159 -0.036801253 -0.044451155 0.018202063 -0.064077005 -0.084459506 -0.06379874
0.023030957 0.019988706 0.101513185 -0.05235711 -0.11441442 -0.046802193 -0.06770982 0.13642645
0.0066601476 0.0512144 -0.04780137 0.12875293 -0.07339913 0.069336444 0.05848468 -0.0053310716
-0.0624102 -0.07094443 0.009363671 -0.13534227 -0.0055790776 0.05151129 0.049960867 0.0076637124
0.042323086 -0.10153304 0.030296614 0.0241018 -0.038256366 0.0010716507 0.023450755 -0.057564512
0.01758506 -0.02925155 0.10430059 -0.018046806 0.011137173 0.031840753 -0.08653669 -0.08034698
-0.051689822 -0.10517662 -0.093671665 -0.016437206 -0.009937507 -0.116717085 -0.015125414 0.03450429
-0.10476256 0.021269955 -0.043831956 -0.0022586896 -0.13343017 -0.108810306 -0.0061803865 0.09579099
-0.019379593 0.053260013 -0.0761358 0.0021716768 -0.05829765 -0.045315627 0.040540896 0.08030224
0.003741689 -0.10948486 0.045987442 0.009667411 0.0427231 -0.023884883 -0.05829099 0.100728266
-0.058422714 0.016192125 -0.1251909 0.058057647 -0.028302591 0.061313625 0.039670754 -0.116241686
0.10368731 0.097412445 -0.054667827 -0.105941586 0.019288726 0.15880468 -0.015542851 -0.0850616
0.040479578 0.0067755193 -0.080143005 0.060314834 0.105912365 0.051213663 -0.064409815 0.0093353195
-0.0106835095 0.020496642 0.021048686 -0.08095665 -0.0801419 -0.055590257 0.10528772 -0.046281874
0.050608404 0.13662338 -0.0894275 -0.14634046 -0.09384809 0.028579608 0.00038500616 0.06932756
0.0017022665 0.0014409901 -0.012502292 -0.07736614 -0.015040929 0.052417636 0.108136855 -0.013264461
-0.08753032 -0.100760825 0.015410673 -0.068332136 -0.0869607 -0.053189397 -0.10751066 -0.040463623

hidden.0.bias f4 [99]
00000000: abd1 36bd 685a cf3d 4b69 bfbd 7d54 8bbd
00000010: 1aab 973d c61d 9ebd e467 8cbd a7d2 1dbd
00000020: 09e6 58bd 0115 633d f79e d33d 2701 673d
00000030: f6de 96bd 27d8 243d b8f8 c53d 25a1 09bb
00000040: 6514 353d c270 9e3d 9223 28bd 4815 82bb
00000050: 8a4f a1bd a2a2 bb3d d630 0abd 4e54 4fbd
00000060: f879 3cbd 9052 b63c d261 04be 5d52 ed3c
00000070: a3d9 5abc 5226 a03d 6f82 043d 8b21 8cbd
00000080: c7e2 a9bd a1ec a9bd 35e3 8c3b 8273 fabd
00000090: 6249 293d 8bf1 c9b9 b23c 5d3d 0db3 aebd
000000a0: 34b8 b43d 03d2 563d ea3a 263c ebd7 b0bd
000000b0: 5ca5 943d 0e82 fd3c 98f5 e1bc 74a3 8abc
000000c0: 5ad0 4ebd 986e 263d c4c7 7b3d f7ab d93d
000000d0: 2ff3 70bd 4462 94bc 144a 8fbc b073 783d
000000e0: b9f0 953d dc6f ab3d 7521 05bd 3f40 263d
000000f0: 6eb1 553d 4519 eb3d d877 c6bd 2f96 713d
00000100: 426f 79bd d5b0 123d 190c a0bd 4901 d03d
00000110: 7b45 cc3c 0539 8bbd 447c e2bd ebf6 123c
00000120: 3281 ca3d 486d 3d3b fd0c 70bd 33f3 543d
00000130: ea7d cebc c402 3b3d 8796 20bd 79dd 0a3e
00000140: 0d85 e53c bcd7 b3bd b0d3 45bd 5102 6ebd
00000150: 637b e2bc b3c5 bfbc 4b1a 3f3c 76c1 61bd
00000160: e753 013d aa3c b03d 7f5f 06bd b2d7 cebd
00000170: 7a2d 2abd 800f 7fbd 86cd eeba 599d 983d
00000180: 4f25 c63d e59e b7bd 7405 483c
-0.04463355 0.101246655 -0.09346255 -0.06803224 0.07405682 -0.077205226 -0.06855753 -0.03853097
-0.052953754 0.055439953 0.103330545 0.056397583 -0.07366745 0.0402452 0.0966658 -0.002100059
0.044208903 0.077363506 -0.041049547 -0.003969822 -0.07876499 0.09161879 -0.03373798 -0.05061751
-0.046014756 0.022256166 -0.1292794 0.028969938 -0.013357553 0.07819809 0.032350954 -0.06842335
-0.082952075 -0.082970865 0.004299546 -0.122290626 0.04132975 -0.0003851767 0.05401296 -0.08530245
0.088241965 0.052446377 0.010145882 -0.08634933 0.07258102 0.030945804 -0.027582929 -0.016923644
-0.05049167 0.040632814 0.06146981 0.10628503 -0.058825668 -0.018113263 -0.017491378 0.060657203
0.07321305 0.08370945 -0.03250261 0.040588614 0.052171163 0.11479429 -0.09690827 0.058981117
-0.06089712 0.03581317 -0.078148074 0.10156495 0.024935475 -0.06797985 -0.11058858 0.008970003
0.09887923 0.0028904248 -0.058606137 0.051989745 -0.025206525 0.045656934 -0.039206054 0.13561048
0.028017545 -0.087813824 -0.048297584 -0.058107678 -0.027646726 -0.0234097 0.011663984 -0.05511614
0.031574156 0.08605321 -0.032805916 -0.10099734 -0.041547276 -0.06227064 -0.001821921 0.07451887
0.09675085 -0.089658536 0.012208331

hidden.1.weight f4 [99, 99]
00000000: 8e4f 043c b4ac fdbc 2126 a43d 5ff4 273e
00000010: 8642 bdbd dbc0 933d c974 fb3d f2c8 cd3d
00000020: 59dd 87bd 216a 783c 4fb3 dc3d 4ee0 85bd
00000030: 5034 0bbe a330 71bd af65 94bd 85ae 2fbe
00000040: da0f 2bbd aff0 edbc ef19 d03b 76fa 1e3d
00000050: d68f d4bd 559e 933d 1a2c e33d 66e2 3abc
00000060: 8852 1f3d 4bde 403d 22ca 083e af6a 923d
00000070: 7c84 52bd 1ea4 21bd 8309 9fbd e533 343e
00000080: 5754 bf3d 87ba 293e a605 dc3c 0472 50bc
00000090: 3bfc e63c 97de a1bd 023c 43bd 6d48 80bd
000000a0: 017b 873b 8e82 b03d 5ab2 d7bd f042 353d
000000b0: b65e a23d 842e ee3c deec 92b9 ad83 de3d
000000c0: 9cf5 e6bd 7422 e6bd 377b ac3d 8d9c 0f3e
000000d0: f281 363a e43f cdbc 2340 6bbd 66de d2bc
000000e0: 8783 8e3c 1818 f6bd 7e27 93bd bc5c c4bb
000000f0: 89b4 b2bd 9cde 703d 6e44 76bd 1055 503d
00000100: 645a 203d 5556 46bb 1d52 c83d 940b 53be
00000110: 2b0c a1bd fed4 d0ba aea7 2a3e 4ee9 253d
00000120: 83e7 153e a091 b0bd 6b99 bebd 3f8c 543d
00000130: cfe0 893d 6925 793b 47cf a93d 37ad 73bb
00000140: b354 dfbd 42c9 233e a162 6d3d a3c6 0a3d
00000150: a675 983d 57d9 e7bd 4276 65bd c157 cd3d
00000160: 13df 57bd 7841 603d 2338 0f3e 45cb 76bd
00000170: 408f e53d 2a7d febd 16eb 7bbd c3f4 babc
00000180: d891 00be a230 113d 7018 ad3b 6176 b3bd
00000190: 980e 043e bb29 bc3d 9132 f4bd fdde 7e3c
000001a0: c594 183e cfff e5bd ac00 9dbd b5cc f4bc
000001b0: 8de4 8abc 4969 05be e16b 093d f792 4dbb
000001c0: ac0f 183c ecf9 b5bd 9b5a 9b3c 20a8 b43d
000001d0: 3df9 76bd 82fc 0cbd 3dd2 09be ee8c d1bd
000001e0: aa3f 5cbe 6ef2 c43d 24a3 44bd d51c 133e
000001f0: 6d14 503d 6261 bbbd 80bd 2bbe 8320 743d
00000200: 68ed 35be be7c 0cbe 39da e1bd 95c8 a13b
00000210: a5ba 5b3d c3ac 713d 496b 253e bac1 5bbd
00000220: 1128 b33d 2a0f 513c 7f51 b63d 06c7 67b8
00000230: d97a 1bbe daf8 63bd 214a 8a3c 1fc4 bdbc
00000240: de6a 373e 72c0 573d 5480 983a 3520 243d
00000250: b7f0 81bd 20d3 613d 8f2b 93bd 60aa b9bd
00000260: e596 96bd a03b 473e 3687 c63d 402b 01be
00000270: b332 613d 1475 9cbc 0305 823d cb99 9abd
00000280: 1bd3 10be 444a ff3d b141 a1bd c6ac 523c
00000290: 1e77 0f3d ffd1 76bc 9228 263d a842 313d
000002a0: 4ea4 5abc f3f3 e5bd e3cf 34be 82ba e9bd
000002b0: bf0e ff3d 7107 37bd 5ff2 d43d fff0 aabd
000002c0: 0e2c babc d8bd bb3d 33bd 1fbe 071b 2ebe
000002d0: 7190 893d 1021 a03d 5a52 27bd 7140 fb3c
000002e0: c62a ba3d 25f4 bfbd 2543 82bd ef02 07bd
000002f0: ff44 6bbc 9f04 b73c 7dd5 8bbd b2ea bebd
00000300: 98ff 3c3d ef61 2a3d cf0d 65bd 276c 2d3d
00000310: e6f9 0c3e 3378 6cbd 2b55 e63d fafc bd3d
00000320: 7300 f63c 94b4 1dbc e77b 983c dee1 b93d
00000330: b5f2 cf3b 470e 02bd 7a94 fe3d 9730 173e
00000340: 8f41 343c 941e fbbd 417a 8dbb 0cab 55bd
00000350: b849 853d 290f 0bbd 1748 0e3e 20fe 793d
00000360: 189c a33d 8986 17be d813 95bd b35f 9cbd
00000370: dc48 41bd 6a73 dcbc 0d55 c93d 2c7f d33c
00000380: 6188 a83b 8954 91bb e451 a43c 3e85 953c
00000390: a723 283d d3f7 e5bc ba59 e5bd 55c9 25bd
000003a0: 9822 1b3d f272 c4bd 57f5 2bbd d03b 9bbd
000003b0: cb66 9ebc 6f3f 03bd 2e6f 02be 136a 463c
000003c0: bbd4 9e3d be9e 9abd 358f 23bd f73c e83c
000003d0: d578 16bb 172c 3cbb 663b 06bd e9ad 86bd
000003e0: e72f afbd 9d52 d03c 898f 913c 5154 f53d
000003f0: 5a3e b4bc 0619 233b b070 c73d fa5e db3d
0.008075608 -0.03096614 0.08015085 0.16401814 -0.09241204 0.07214519 0.122781344 0.10048093
-0.066340156 0.015162022 0.10776388 -0.06536923 -0.13594174 -0.058884274 -0.07245957 -0.17156418
-0.041763164 -0.029045431 0.006350748 0.038813077 -0.10378997 0.07207934 0.11092396 -0.011406517
0.038897067 0.047086995 0.13358358 0.071492545 -0.05139588 -0.039463155 -0.07765486 0.17597921
0.093422584 0.16575061 0.026858162 -0.012722496 0.028196445 -0.07903784 -0.04766465 -0.06263814
0.0041345363 0.08618651 -0.10532065 0.04425329 0.07928221 0.029074915 -0.0002802377 0.10864959
-0.11277315 -0.1123704 0.08421939 0.14024563 0.00069621124 -0.02505488 -0.057434212 -0.025740813
0.017396701 -0.12016314 -0.07185267 -0.0059925 -0.087258406 0.058806047 -0.060123853 0.050862372
0.039148703 -0.003026386 0.09781287 -0.20609885 -0.07863649 -0.0015932617 0.16665527 0.0405057
0.14639096 -0.08621526 -0.09306606 0.05189156 0.06732332 0.0038016683 0.08291488 -0.0037182102
-0.10904827 0.15994743 0.057955388 0.03388084 0.07444315 -0.11320751 -0.056020983 0.10026503
-0.052702975 0.054749936 0.13986258 -0.060252447 0.112089634 -0.12426217 -0.061503492 -0.02282179
-0.12555635 0.03544677 0.005282454 -0.08762813 0.12896192 0.09187647 -0.11923707 0.015556094
0.14900501 -0.11230432 -0.07666144 -0.029882768 -0.016954685 -0.13028444 0.033550147 -0.0031368115
0.00928108 -0.088855594 0.018964102 0.0882113 -0.060296286 -0.034420498 -0.13459106 -0.10231958
-0.21508661 0.09616552 -0.048007146 0.14366467 0.05080073 -0.09149434 -0.16771507 0.059601318
-0.17766345 -0.1371946 -0.11027951 0.0049372413 0.053644795 0.05900265 0.16154207 -0.05365155
0.087478764 0.012759963 0.08902263 -5.5260047e-05 -0.15183581 -0.055657245 0.01688105 -0.023164807
0.1791186 0.052673765 0.0011634924 0.040069778 -0.06344741 0.055132985 -0.071860425 -0.090656996
-0.073529996 0.19456339 0.09693758 -0.12614155 0.05497999 -0.019098796 0.06348612 -0.07548865
-0.1414303 0.12465337 -0.07873858 0.012858575 0.03502571 -0.015064715 0.040566035 0.04327646
-0.013344837 -0.1122817 -0.17657427 -0.11412527 0.124539845 -0.04468483 0.10397791 -0.083467476
-0.022726085 0.09167069 -0.15599518 -0.17002498 0.06717003 0.07818806 -0.04085002 0.030670376
0.0909019 -0.09372739 -0.06360463 -0.032961782 -0.014359712 0.02234107 -0.06827829 -0.09322108
0.04614219 0.041597303 -0.055921372 0.04233947 0.13767204 -0.05773182 0.11246713 0.09276767
0.030029511 -0.009625573 0.018613769 0.09076284 0.0063460716 -0.031751897 0.124306634 0.1476463
0.0110019585 -0.12261692 -0.0043175523 -0.052165076 0.06508201 -0.033950005 0.13894688 0.061033368
0.07988757 -0.14797415 -0.072791755 -0.07635441 -0.047188625 -0.026910502 0.09830675 0.025817476
0.0051432108 -0.004435126 0.02005858 0.018252011 0.041049626 -0.028072273 -0.111987546 -0.04047521
0.037874788 -0.095922366 -0.04198202 -0.07579768 -0.019336125 -0.032042917 -0.12737724 0.012110251
0.07755419 -0.07549809 -0.039931495 0.028349383 -0.0022960205 -0.0028712803 -0.03277149 -0.065761395
-0.085540585 0.025430018 0.017768638 0.11978973 -0.022002388 0.0024886741 0.0973829 0.10711475

hidden.1.bias f4 [99]
00000000: f43b bbbd 52d2 143d 6b0b 57bd ae5a 333d
00000010: 1587 fc3c 9cd9 73bd 0e1d c3bb 3d9f 6ebb
00000020: f395 d8bc f301 e5bd c65d aabc 67d7 763c
00000030: 1a13 acbd 5654 2a3d 3a2f bebc 398e 6ebc
00000040: 503b 87bd 7c18 563d 128d 98bc a4d5 9ebd
00000050: 4106 7fbd 1463 533d 6256 12bd 42d2 9ebd
00000060: 1f49 7abd a7ac 70bd 3aff 873d ec65 c1bd
00000070: f6f7 31bd c5ac 51bc 2f65 ee3d 38d7 ab3d
00000080: 7a9b f93d 43af ddbd cce1 443d 4ce7 9bbd
00000090: f95c 273d 4872 debd 2bea 5cbc 7a20 e1bc
000000a0: 4b21 f4bd 44b0 d23d 1eec eb3a 49d1 a2bd
000000b0: a1c7 7ebd ae12 f8bc 1781 01be 4779 ea3d
000000c0: 6a49 3cbc 0f8a 8dbc 2c6c cfbb 9cb1 ab3d
000000d0: 4b1a 87bd ea78 923d e565 b3bd 6815 0abd
000000e0: e195 e83c c2d3 253d 7a8c fe3c e3cc 8fbd
000000f0: ee48 c6bc 8df6 113c 95b6 de3c fbaf f83d
00000100: 4580 8f3d 089a 8fbc 1829 363d 5ba9 b0bc
00000110: 9a41 d1bd 2d42 5b3d 95e0 833c 53ce 243d
00000120: a8ee 81bd 18ed 153c 933f 96bd 41e6 8f3d
00000130: 9b31 723d bf8a 31bc 45b6 bf3d f81f 33bd
00000140: 66df 8b3d 80e4 c83d b9f0 533d e865 e6bd
00000150: 0483 3e3d 7196 dbbd 49db 08be 157b afbd
00000160: 8a0f d3bc b812 3ebd 95f8 2ebd f5ca 10bc
00000170: b37e c03d b284 b63c 01e4 b13c 15af d1bd
00000180: 9a50 e0bd 7fcb f43c eb68 e1bc
-0.091422945 0.03633339 -0.052501123 0.04378765 0.03082613 -0.0595337 -0.0059543913 -0.0036410831
-0.026438689 -0.111820124 -0.020796668 0.015066004 -0.08402081 0.041584335 -0.023215879 -0.014560276
-0.0660311 0.052269444 -0.018621955 -0.077555925 -0.062261824 0.05160816 -0.035726912 -0.07754947
-0.06110489 -0.058758404 0.066404775 -0.09443268 -0.043449365 -0.012797539 0.11640393 0.08390659
0.12187858 -0.10824444 0.0480669 -0.07612476 0.04086015 -0.10861641 -0.013483564 -0.027481306
-0.11920413 0.10287526 0.0017999446 -0.07950074 -0.0622021 -0.030282345 -0.126469 0.11448913
-0.011492113 -0.017277746 -0.0063300338 0.08383486 -0.06596812 0.07151969 -0.08759669 -0.03371182
0.02839178 0.04048515 0.031072844 -0.07021501 -0.024204697 0.00890888 0.027186671 0.121429406
0.07006887 -0.017529503 0.044472784 -0.02156513 -0.10217591 0.053529907 0.0160983 0.04023583
-0.06344348 0.009150766 -0.073363446 0.07026339 0.05912934 -0.010836302 0.09360937 -0.04373166
0.06829719 0.09809208 0.051743243 -0.11249906 0.046511665 -0.10722054 -0.133649 -0.08568398
-0.025764246 -0.04640457 -0.042717535 -0.008837451 0.09399166 0.02228007 0.021715166 -0.10238472
-0.109528735 0.02988219 -0.02751585

hidden.2.weight f4 [99, 99]
00000000: 52b6 6e3d 08b0 153e ffdd af3d 20df 763d
00000010: 4626 07bd 31c8 a8bb f333 94bd 13a0 c6bc
00000020: af01 2dbe d48d f53d ddc0 473d 4828 403d
00000030: eab9 34bd 52d7 01bb e221 da3d f25b f63b
00000040: 433c 37be 2e96 493d bd40 af3d ea58 82bd
00000050: 6232 96bc 1fd6 fabd c0f6 c4bd c8d0 8cbd
00000060: 58ab 7b3d 3ddf 25bb 04ea 61ba dd7d 1cbc
00000070: 8685 2a3c c927 11be bb2b 76bd 6d89 043c
00000080: 4ec1 09bd 828e 943d 4dcf 5d3d 1e45 683e
00000090: 96de adbb 0ecf 06be c9b4 cdbc b296 22be
000000a0: 4adb 27bd 3174 acbd c1b1 0c3e 2de6 4e3d
000000b0: c83e 12bd 787f 193a d0eb bc3d fa7d 7dbd
000000c0: f102 bb3d aa24 e43d da1f 8abd 3ed4 18bd
000000d0: a3ff 483d 567d a0bd 2426 c63d 5942 d4bd
000000e0: a526 3bbd ca6a c33d efa3 e33d abcc 12be
000000f0: c83c 50bd cb34 6fbe 0269 933b 1727 773d
00000100: 0fd8 47bd 86ec b23d edb5 3e3e c5dd 9cbc
00000110: f6b3 743e 5fda 8c3d 9828 663d ee9d 813d
00000120: 5b03 3dbd 0e3a 9e3c d539 603d 65dd a3bd
00000130: 5b90 19be 631c a2bd abf1 bebd cf3b 433d
00000140: 0174 b2bd 85df 3ebe 3069 d1bd d337 f53c
00000150: 4551 873d 3509 3b3c b3e8 8ebc 3446 ba3d
00000160: 7a81 4cbd 9eea 12bc 2a4c cdbd d81c f1bd
00000170: 194f ff3d 58fc 663d 23bc d3bd 83d6 e0bd
00000180: 426c 133d 694e e3bc ac15 843e e579 b03d
00000190: 3f19 b3bd 997e ca3d 73ec a8bc e87f d7bd
000001a0: 9970 6a3b 6e0b d63b bb99 803d eaf1 0b3e
000001b0: 6969 27bd d341 74bd d7b0 0abe 4206 6a3d
000001c0: d43a d43c 1adf 9d3d 92ba 35bd f96f 2ebd
000001d0: 46ea 7fbd a630 2b3e e455 193c 6c95 ecbc
000001e0: 8506 a53d ea9b a5bc 5f07 363e d450 d3bc
000001f0: 8e5b 1b3e 3c53 47bc b158 043e c204 153d
00000200: 22dc 06ba ba71 533d 9306 103e da56 e93c
00000210: 79af b9bd 63b2 cabd e8d4 463d 02aa 97bd
00000220: 01e9 b33c 670c 16be 97b4 983d 4cfb eabb
00000230: 153c dc3d 19ff febd 6494 1fbd abe3 2c3e
00000240: 6915 5d3d 6a31 923d 75fe e43d d1c2 b0bd
00000250: ad32 f53c 1630 8bbc 46a7 4abe f287 c9bd
00000260: 31d3 b3bd f568 ebbd 2ac1 2f3d 4434 8d3d
00000270: 63ac 05be 63b9 cbbc 983b 3e3e 6184 353e
00000280: df98 343b d7fa 553d 19cf 29bd 2ff2 37bc
00000290: 630d 34bb 46c9 3c3d d219 a5bd 4017 6ebd
000002a0: e1b0 ecbd 7d1d 113d 38b8 b7bb e690 c53b
000002b0: 7872 1a3d 11fb b0bd 7361 15bd cd8a 53be
000002c0: 72e4 d7bd e055 593d 3711 2dbc b7ee f3bd
000002d0: 7afc 923d bbe4 bdbd 3d22 353e 2124 903d
000002e0: 54af c1bd 15ba e1bd 3041 73bb 995c cbbd
000002f0: 2bce bcbd 7149 513d 638b 6fbd 6a0c 16be
00000300: 2999 e63d c5f2 1d3d 4d31 823d 3dbf 613d
00000310: ec08 89bc 77e2 1dbd 4dca a2bd 3dc6 0cbd
00000320: f736 ffbc 170f 823d efcc 4abd ab89 3cbd
00000330: 05e4 adbd 4013 143d 992d f73d 7efd b9bc
00000340: 4c68 293e c175 a1bd acf1 0bbe fcb3 90bc
00000350: ee6a 06be 0b2a 0b3e d982 b3bd a8d3 cdbd
00000360: 1f60 8c3d 67b5 9b3c 6fb9 c4bc 51e1 053e
00000370: 83d7 adbd cd24 5d3d 5d51 19bb 4813 87bd
00000380: 6dc6 1cbe 865f 503d b2bf cc3c 546e 40bc
00000390: 34fc 9cbd 04a3 55bd f602 e2bb de12 983d
000003a0: 3600 0cbd d25e 713c 5011 07be 0cbb 3bbc
000003b0: c71f 083d 58e8 083e 4626 a1bd 0223 133b
000003c0: c37a d03d cc2b dc3d 002b 58bd e44a 31be
000003d0: ed5d 00bd 6908 873d 0b54 bdbb 97b4 443d
000003e0: 2bf9 383e bff6 4ebd 457b cf3d 94b2 da3c
000003f0: 43be 17bd 45d5 9f3d 7ce8 cb3d e048 7b3d
0.058279343 0.14617932 0.08587264 0.060271382 -0.032995485 -0.005150818 -0.07236471 -0.024246251
-0.16895173 0.11989942 0.048767913 0.046913415 -0.044122614 -0.0019812179 0.10650994 0.007518285
-0.17894082 0.049215488 0.0855727 -0.06364615 -0.018334571 -0.122478716 -0.09617376 -0.06875759
0.061442703 -0.0025310062 -0.000861794 -0.0095514925 0.010407811 -0.14175333 -0.0601003 0.0080894055
-0.033631615 0.07253744 0.054152776 0.22682616 -0.0053060753 -0.13164923 -0.02511062 -0.15877798
-0.040980615 -0.08420599 0.13739683 0.05051248 -0.035704404 0.0005855481 0.09224665 -0.06188772
0.091314204 0.111398056 -0.067443565 -0.037311785 0.04907192 -0.07836406 0.096752435 -0.10364217
-0.04569115 0.09541853 0.11115252 -0.14335887 -0.050839216 -0.23359983 0.004498602 0.060340013
-0.048790034 0.087365195 0.18624087 -0.019148717 0.23896775 0.068775885 0.056191057 0.06328951
-0.04614578 0.019314792 0.054742653 -0.08001212 -0.14996473 -0.079155706 -0.09323438 0.04766446
-0.08713532 -0.18639953 -0.10225141 0.029933846 0.06607298 0.011415769 -0.017444944 0.090954214
-0.049928166 -0.00896707 -0.10024293 -0.1177308 0.124662586 0.056392998 -0.103386186 -0.10978415
0.035991915 -0.02774735 0.25797784 0.086169995 -0.0874505 0.09887428 -0.02062056 -0.10522443
0.003577268 0.0065321242 0.06279322 0.13666502 -0.04087201 -0.059633087 -0.13544022 0.057134874
0.025906958 0.07708569 -0.04436738 -0.042587254 -0.06247928 0.16717777 0.009358857 -0.028879844
0.08057884 -0.020215947 0.1777625 -0.025795378 0.15171644 -0.012165841 0.12924458 0.03638149
-0.00051444967 0.05162213 0.14065008 0.028483797 -0.09066672 -0.09897306 0.048542887 -0.07405473
0.02196169 -0.14653169 0.0745632 -0.00717107 0.10753647 -0.12451 -0.038959876 0.16883723
0.053975496 0.07138331 0.11181346 -0.08630908 0.02993139 -0.016990703 -0.19790372 -0.09840383
-0.08780516 -0.11494628 0.042908825 0.068947345 -0.13054042 -0.024868673 0.1857742 0.1772628
0.0027556939 0.052241173 -0.04145727 -0.011227175 -0.00274738 0.046090387 -0.080615655 -0.05812764
-0.115571745 0.035428513 -0.0056066774 0.006029236 0.037706822 -0.08641637 -0.036469888 -0.20658417
-0.10541619 0.053060412 -0.010563186 -0.119107656 0.07177062 -0.092721425 0.17688842 0.07038141
-0.09457269 -0.110218205 -0.0037117712 -0.09929771 -0.09219011 0.05109543 -0.05848254 -0.14653173
0.11259682 0.0385616 0.0635706 0.05511402 -0.016727887 -0.03854605 -0.07948742 -0.034368742
-0.031154139 0.063505344 -0.049511846 -0.046029728 -0.08490757 0.03615117 0.12069244 -0.022703882
0.16543692 -0.07883788 -0.13666409 -0.017663948 -0.13126728 0.13590257 -0.087651916 -0.10050136
0.06854271 0.019007398 -0.024014203 0.13074233 -0.08488371 0.053990174 -0.0023394444 -0.065954745
-0.15310068 0.05087235 0.024993751 -0.011745054 -0.076652914 -0.052157417 -0.0068973256 0.07425474
-0.03417989 0.01473208 -0.13190198 -0.01145817 0.03323343 0.13369882 -0.07868628 0.0022451286
0.10179665 0.10750541 -0.052775383 -0.17313725 -0.031339575 0.06593401 -0.005777841 0.048023786
0.180638 -0.050528284 0.10130934 0.02669648 -0.037046682 0.0780435 0.09956452 0.061348796

hidden.2.bias f4 [99]
00000000: 0e5f 9d3d 08e3 51bd c1c1 063d b5e2 d43c
00000010: 2880 f4bd 0f5c ab3d 28b6 e1bc 0e02 2fbd
00000020: 7cf2 c7bd 76fc 8a3d e52d 833d 91eb 063e
00000030: 80e4 97bc 2cc0 b13c f558 823d 2e1c c93d
00000040: 2604 4cbd 588d b83c 0b16 a93d 2a39 8ebb
00000050: f27f ba3d f753 6bbc a41f b23d 4ad5 b73d
00000060: a6fd 50bd bf86 513d 3b6c b93d 1728 5dbc
00000070: 5a73 32bd d755 2f3d 8e87 483c 9fdb d2bc
00000080: df99 6c3d 5e66 97bd 63e7 a33d bcd8 95bc
00000090: 91a1 4f3b bb60 a0bc 567e 9a3d 70a2 34bd
000000a0: e81c 123e f246 983d 0ff2 b23d 7620 15be
000000b0: 5bd8 d1bc 9d6d cabd 68e8 e73d a331 aebd
000000c0: bb92 49bc a3ed 983d f43d ce3c 39ae 4b3d
000000d0: 65c9 30bd 67ba 0e3c e5a7 b13d 60d2 443d
000000e0: ae32 aabd 1bec 5fbd 0173 b3bd 44c0 58bc
000000f0: a4ff b3bd 6499 ed3d 62c9 a73c e786 ea3d
00000100: c854 3abc 738f d0bd 944f b53d 3cf4 aebc
00000110: 676d 3b3c 8e81 95bc a63e a03d 166d 043e
00000120: 0a11 a03d 431e a73d adea f8bd 1a05 f5bd
00000130: 105a dcba 6a84 f4bd c957 27bd 858a 3d3d
00000140: d984 2fbb cf93 983d 9719 d5bd a745 973a
00000150: b818 153e c5a0 c93d 5cfb eabd c4f1 893c
00000160: c539 15bd f730 cf3d b22a b5bc 6fc7 f3b9
00000170: fe90 583d 050d 9ebd bae6 8bba 4834 723b
00000180: df0a 683c c580 4e3d 8ca4 23bd
0.07684146 -0.051241904 0.032899622 0.025987009 -0.11938506 0.08367168 -0.02755268 -0.04272657
-0.09763047 0.06786434 0.06405238 0.13175799 -0.018541574 0.02169808 0.063646235 0.09819828
-0.049808644 0.022528335 0.082561575 -0.0043403106 0.09106435 -0.0143632805 0.08697441 0.089762285
-0.051023148 0.051153895 0.090538464 -0.013498328 -0.04356704 0.042806473 0.01223935 -0.02573949
0.05776393 -0.07392572 0.08003118 -0.018291824 0.0031681994 -0.019577375 0.07543628 -0.044100225
0.1426884 0.07435407 0.08737575 -0.14563164 -0.025615862 -0.09884188 0.11323625 -0.08505561
-0.01230305 0.074672006 0.025176026 0.0497267 -0.043160815 0.008711434 0.086746015 0.04805219
-0.08310448 -0.054668527 -0.0876217 -0.013229433 -0.08788994 0.116015226 0.020481769 0.11451512
-0.0113727525 -0.10183611 0.08853069 -0.021356694 0.011439658 -0.018250253 0.07824449 0.12932238
0.0781575 0.08160069 -0.12154136 -0.11963864 -0.0016811509 -0.119393185 -0.040855203 0.04627468
-0.0026782064 0.07450067 -0.104052715 0.0011541144 0.1456021 0.098451175 -0.11473724 0.016838916
-0.036432046 0.10116761 -0.022115085 -0.0004649716 0.05287265 -0.07717327 -0.001067362 0.0036957432
0.014162748 0.050415773 -0.039951846

hidden.3.weight f4 [99, 99]
00000000: 33be 1ebd daca 9c3d 7698 42bd 7673 133c
00000010: 1868 8e3d 0159 4d3c 9d44 d2bc 92b9 e23d
00000020: 7256 7fbc 0d7b 4fbd 690a 73bd 1409 bf3d
00000030: 3200 ff3c 0310 9bbd 750e 143e a123 063e
00000040: c371 aebd e309 12be 5e3c f0ba 94b6 763d
00000050: 8a51 f0bd 148d a03d 1c6f 4f3d ed0d 3f3d
00000060: 41d6 203d ca07 f63d 2ef3 2dbe be77 4e3c
00000070: a6f5 59bd 1694 8dbd 0fec b8bc be21 103c
00000080: e921 a83d 4142 56bd e3f2 20be 48bc e43c
00000090: 8bb9 21be 4f91 a63d 3e1f 8a3d aa8b a03d
000000a0: 1deb adbd ed0b 41be 939a 803d 3878 c53d
000000b0: 67b1 b33d 2f5e 9b3d 64f9 ba3c 47a2 233e
000000c0: b2aa 763d 08f9 333d 4d50 b83c d9f3 0cbc
000000d0: 9dd0 dcbd de35 c53c 0f0d 02be b3a1 d5bd
000000e0: a6e2 c9bd e8a4 81bd 7dea 0fbd 0459 f2bd
000000f0: a688 0b3c 932e 82bb c3c8 c13d bd97 bcbd
00000100: 375a e3bd 1a8b cfbc 73af 11be bada f7bd
00000110: 7979 dcbc c0e3 ad3d 7e6b b33d 6070 22bd
00000120: fd0b a13d 7f28 873d 862e 16be fca1 543d
00000130: 3191 98bd 33d3 b63c 9d42 163e dc49 b3bd
00000140: 658a 3cbd 0259 963d d3a6 2fbe 002d 80bd
00000150: e64f ebbc 7745 083e 5c01 6d3d c991 133e
00000160: 277a dabd a7aa c03d aebb 633d 41eb 173d
00000170: 259e d3bc 7a17 cebd 1d54 0f3e 62be cc3c
00000180: df76 a43d bc32 0b3e 90e1 8e3d 03b9 d8bd
00000190: df5e 303e 6ee8 34be 37a8 b0bb 94b4 153c
000001a0: 7943 cb3d b46f 5cbd 5c41 a73d 47e3 b13d
000001b0: 59a4 8d3d 3778 e73d f086 24bc 4a24 603d
000001c0: c76c 733d 258d eebd be9c 7ebb aa60 2b3e
000001d0: 6dbb fa3d fc64 903d 6285 23be 319e 72bd
000001e0: d3ff 263e c751 313e 7fab 49bd 2b65 9a3d
000001f0: e8bc cabd 7bff 7fbd 664e 5e3d a754 693e
00000200: d482 3ebd 625b 573d 2c7f b83d b1a5 8f3d
00000210: 1f38 e8bc 29ec 8fbd 0378 13bd b176 aa3d
00000220: 2ce8 423c a156 15bc ac5b 883d d117 0d3e
00000230: 4bce 92bd e926 753d 2e53 b1bd fe17 a83d
00000240: 6baf 0f3d 85bf a5bd 63ce 753d 113b c43d
00000250: 9743 afbd d851 71bb e080 5fbd cf9f 44bd
00000260: 7218 3fbe e665 b43d 9f14 983d 2db7 0b3d
00000270: 2dc5 3b3e 8bd1 e6bc b90c c23d 328b 07bd
00000280: 19be 1fbd 4f9c a8bd fdab a8bc 35aa 0f3e
00000290: 86f1 773d 5a71 81be 3138 18be 798d 10be
000002a0: d136 1abc c244 053c 742a c53d 1545 debc
000002b0: 20a9 f6bc 03cd 58bd e59c 2bbd 8e9e b9bc
000002c0: 0db5 25be 6b12 f9bb adc4 a0bd 6b1c d1bd
000002d0: ba36 d5bd a7a3 373e 827a 7abd 5a08 67bc
000002e0: 7a58 eabc 7cda 333d 0b43 743c dd9a 0a3e
000002f0: ae1e 8cbd 499d f43c ad34 963c a53d cfbb
00000300: c153 473d bed9 4e3c 900c c9bd 466f e13d
00000310: d626 2c3c 7f3a 383b 6c80 6dbd f4b7 dc3d
00000320: e749 e53c 4319 58bb 565c 903d c0d2 2d3c
00000330: 626a a8bd 3ef6 2a3d 4e54 483d d5ab 3dbc
00000340: 0ad1 99bc 1f5e 533d 0336 3c3d 0a00 0f3e
00000350: 8c13 263c 5037 dbbd ce8f b13d f4b7 97bd
00000360: ccd8 18be 9f18 823b 4ae3 38bd de94 d0bd
00000370: 00da 03be b92b 443e cfcb 0fbd 1683 903c
00000380: b0ee 16be 6de2 02bd 85c0 83bd 6123 6f3b
00000390: da8d e4bd 74cb 0a3e aca7 313d fad8 2bbd
000003a0: cc9c 833c a987 48be 1b69 42be 7279 6b3d
000003b0: 05c6 733d 76a0 043e ed66 0dbe 5ead dcbc
000003c0: fb29 c53d b0af c1bd 4e72 9abb 888e 8f3d
000003d0: 6453 993c ed06 9dbd c1ae 81bd e291 2bbe
000003e0: 5558 abbd dadd 253d 8097 12bc 8482 b7bd
000003f0: c406 dbbd fac8 4bbd 1222 69bd 7ae4 47be
-0.038755607 0.07655878 -0.04750868 0.008999696 0.06953448 0.012533427 -0.025667483 0.11070551
-0.015584575 -0.05065446 -0.0593361 0.093279034 0.031128023 -0.07571413 0.1445864 0.13099529
-0.08517792 -0.14261584 -0.0018328538 0.060232714 -0.11734302 0.078394085 0.05064307 0.04664414
0.03926683 0.120132044 -0.16987297 0.012601791 -0.053212784 -0.06913011 -0.022573499 0.008797107
0.08209593 -0.05230928 -0.15717654 0.02792181 -0.15793435 0.08133184 0.0674424 0.07839139
-0.0849211 -0.18852206 0.06279483 0.096420705 0.08774071 0.075863235 0.022823997 0.15979873
0.06022138 0.043938667 0.022499228 -0.00860306 -0.10781977 0.024073537 -0.12700294 -0.10431232
-0.09857683 -0.063302815 -0.035135735 -0.11833385 0.008516466 -0.0039728372 0.094621204 -0.09208629
-0.111011915 -0.025334883 -0.14227085 -0.12102266 -0.026913391 0.084907055 0.08760737 -0.03965795
0.07863615 0.06599521 -0.14666185 0.051912293 -0.07449568 0.022317505 0.14673848 -0.08754322
-0.04603042 0.07341196 -0.17153482 -0.06258583 -0.028724622 0.13307749 0.057862625 0.14411081
-0.1066783 0.09407549 0.055598907 0.03708959 -0.025832245 -0.100630715 0.1399693 0.024993125
0.08030485 0.13593572 0.069766164 -0.10582163 0.1722369 -0.1766679 -0.0053911465 0.009137291
0.09924979 -0.053817466 0.08166763 0.08685928 0.069161125 0.11302226 -0.010041937 0.054722108
0.05942991 -0.11648015 -0.003885075 0.16736093 0.1224278 0.07050511 -0.1596885 -0.059232894
0.16308527 0.17316352 -0.049235817 0.075388275 -0.09899312 -0.062499505 0.054273985 0.22786199
-0.046511486 0.052577384 0.09008631 0.07014025 -0.028347073 -0.07027466 -0.036003124 0.0832342
0.011896174 -0.009114892 0.0665811 0.13778616 -0.071682535 0.05985156 -0.086584434 0.08207701
0.0350794 -0.0809317 0.06001128 0.095815785 -0.085578136 -0.0036822464 -0.054566264 -0.048003968
-0.18661669 0.08808498 0.07425808 0.034110237 0.18336935 -0.02817609 0.09475083 -0.03309173
-0.03899965 -0.082329385 -0.020589823 0.14029773 0.06053307 -0.25281793 -0.14865185 -0.14116468
-0.009412483 0.008134069 0.09627238 -0.02713255 -0.030109942 -0.05292989 -0.041897673 -0.022658613
-0.16182347 -0.0076010725 -0.07850013 -0.102104984 -0.10410829 0.17933522 -0.06115199 -0.014101112
-0.028606642 0.043909535 0.014908562 0.13535638 -0.06841789 0.029860156 0.018335665 -0.0063244873
0.04866386 0.012625156 -0.09816849 0.11007552 0.010507306 0.0028111038 -0.0579838 0.10777274
0.027989341 -0.0032974042 0.07048862 0.010609329 -0.08223416 0.04173874 0.048908524 -0.0115766125
-0.018776435 0.051603433 0.045949947 0.13964859 0.010136496 -0.107039094 0.08670007 -0.07408133
-0.14926451 0.00397022 -0.045138635 -0.10184644 -0.12876129 0.19157304 -0.035106476 0.017640632
-0.1473949 -0.031954218 -0.064332046 0.0036489593 -0.111598685 0.13554174 0.043372795 -0.04195497
0.016065978 -0.19583 -0.18985407 0.057488866 0.059515018 0.12951836 -0.13808794 -0.026938137
0.09627148 -0.09457338 -0.004713333 0.070096076 0.018716522 -0.076673366 -0.0633216 -0.16754869
-0.083664574 0.040494777 -0.008947253 -0.08960441 -0.1069465 -0.049752213 -0.056917258 -0.1952075

hidden.3.bias f4 [99]
00000000: ccbf 9b3d bb19 afbd ef82 b43d c0d7 563d
00000010: 80cc 8abd 18da 97bd 5236 2ebd 2e1a ed3d
00000020: 885b b43c 0c38 ffbc 8705 35bc 3767 99bd
00000030: a709 603d f6fa 2bbd 40e2 1dbc 1ff9 60bd
00000040: cfac 343d 7635 25bd 2aad 823b 5741 aabd
00000050: 6a9f 713d 24eb b8bc 0872 193d 307e 59bd
00000060: f277 9abd d0da 3abe 1022 023e 0b72 17be
00000070: ff96 32bd a874 9dbb 4e1b cabb e216 bd3c
00000080: a94a ec3d c6d9 953d a6d3 1cbd cbb9 12bd
00000090: 5289 ddbc ad68 203d a140 1a3b ae73 e53d
000000a0: a779 083c 0873 bbbc 2a0f 69bd 021c 7dbd
000000b0: ec42 debc 1c42 32bd bd82 833d 28b1 86bd
000000c0: a83f 953d c5dc a83d 3a10 5f3d 1b97 123b
000000d0: 0a68 a9bd 4a56 a5bd 6e05 a83d 5ca0 6dbc
000000e0: 247f 2a3d cb35 9b3d aa4b 61bb b40d 8e3d
000000f0: 979a 96bd 700f ad3d d0ff 9b3c 3ad2 2fbd
00000100: 3dcd ffbd b932 4cbd 8a56 ab3d 2ac5 803d
00000110: fc59 1fbd c012 da3c e7aa 6f3d 74d3 a1bd
00000120: 488c b6bc a40d 0c3c d5e0 ac3d 540c f2bd
00000130: 3b57 313d ec83 e7bc 362b 15bd 2655 91bd
00000140: 41aa fdbd 78d0 35bd faaf fc3b ffca 0cbd
00000150: 40f6 dd3d 3475 37bd 2a0f 82bd 0f64 853d
00000160: fbaa 92bd 419a efbb 1ffa efbc a734 f2bd
00000170: 51b2 6a3c d068 83bc f648 483d c384 fbba
00000180: 7a86 a43d 44d3 9f3d b4cd 98bd
0.07604942 -0.085498296 0.08814036 0.05245185 -0.067772865 -0.07414645 -0.042532273 0.11577259
0.022016302 -0.031154655 -0.011048681 -0.0749039 0.054696705 -0.041987382 -0.009636462 -0.05492508
0.044110116 -0.040334187 0.003987928 -0.08313244 0.05898992 -0.022573061 0.037462264 -0.053098857
-0.07542409 -0.18247533 0.12708306 -0.14789598 -0.043601032 -0.0048051663 -0.0061678058 0.0230822
0.11537678 0.073169276 -0.03828778 -0.035821717 -0.027043018 0.039162327 0.0023537057 0.11203705
0.008329785 -0.022882 -0.056899227 -0.06179429 -0.02713152 -0.043520078 0.06421421 -0.065767586
0.07287532 0.082452334 0.054458834 0.0022367898 -0.08271797 -0.08073099 0.08204161 -0.014503565
0.041625157 0.075786196 -0.0034377375 0.069362074 -0.073537044 0.0845021 0.01904288 -0.042925097
-0.12490318 -0.04985306 0.083661154 0.06287606 -0.038904175 0.026620269 0.058512595 -0.079016596
-0.022283688 0.008548174 0.08441321 -0.11818758 0.04329608 -0.028261147 -0.036418162 -0.07096319
-0.12385989 -0.044388264 0.0077114077 -0.03437328 0.10837984 -0.044789508 -0.063505486 0.06513225
-0.07161518 -0.0073120897 -0.029294072 -0.11826449 0.0143247405 -0.01604119 0.048897706 -0.0019189346
0.08033462 0.078039676 -0.0746111

output_layer.weight f4 [49, 99]
00000000: 5bfd a7bc 1b4e 783d d0c0 1fbd 3cc7 9cbd
00000010: 6398 943c fea9 6bbc f980 0dbd 5028 ee3d
00000020: d64a 523d d685 60bd 41b2 d2bd 3a81 2a3b
00000030: 47c9 80bd 17f1 2abc 7b80 ec3d f334 bf3d
00000040: 8db5 85bd a913 58ba 63d1 cf3b cf76 bbbc
00000050: 1f1f a7bd 42e9 0abe 8e83 bc3c cba2 a53c
00000060: b239 733d 1e5e 993d 24c8 0fbe 2d5c cd3c
00000070: 4b9f a5bc 12df bfbd f6f9 903d ba27 ff3d
00000080: 58f5 493d 5565 3a3d 5381 0b3e a913 103d
00000090: 1a3a 173d 7eb8 823b a4c6 903d b71e b93b
000000a0: 8be4 733d bf57 42bd a99e cc3c 22da 1bbd
000000b0: 8d60 543d 5678 223c 77a2 c83d 84ef e63c
000000c0: 8867 28bd 124e 50bd 5693 643d eec3 d73d
000000d0: 1aed 07bd 5732 963b 33c0 d1bd aa0c 0abc
000000e0: 6bb1 f0bc cc8d bbbc baf9 b83d 0448 653d
000000f0: 01a5 8b3d dddf 39bd c5fa 64bd 9a8a 37bb
00000100: 2495 b63d c168 a3bd 7098 a0bd 61df 8d3c
00000110: 16bb 103d 650f 7abd 5ca4 3dbb 19f7 6cbc
00000120: 5d53 033d 335d e1bc ce53 3fbd 46d1 bc3d
00000130: b49b e93c 9adf edbc f683 9b3b 8e4b 73bd
00000140: 5ba0 05bb 06ad df3d 2174 bb3a 1747 f13d
00000150: edee 973d 3225 43bd 2532 d6bb c9ff 08bd
00000160: 762a aabd 9d97 98bc 1057 763c 5375 033d
00000170: ee7d 0fbc 1d71 2ebd 21c6 f63d bddf 36bd
00000180: 5689 27bd 4026 8ebc ca9e d23c 8e8c 8e3d
00000190: 119d 02bb 7f27 b3bd dadf 03bd 464e 88bd
000001a0: 9f24 c23d ea05 c2bc 6a94 d3bc 0081 bebc
000001b0: f9d3 c2bc 796d 9cba 1af1 1e3d b689 c4bc
000001c0: cba5 65bc 2a0b 993d ebd0 b13d ace1 ddbd
000001d0: 7144 70bc c97c 0dbd a81b 233d 6467 97bd
000001e0: 3829 a1bd 5c35 22bd fe9e fe3d b9b0 b23c
000001f0: 23ac c03d b283 483d f911 cebc 1a2e 833d
00000200: 793c f7bd 1b08 febd 3317 afbd ca47 25bd
00000210: 175a abba de90 1ebc 21fd dcbb af2c bdbc
00000220: b033 76bd dea4 d7bd 7ba5 aebd f423 febb
00000230: 19fc 333d ff06 083e 8f89 223d ed67 74bd
00000240: cf60 47bd 11e9 ab3c 89aa 693c 2a78 afbd
00000250: 1532 56bd 8827 35bc 4f53 793d 88a0 013d
00000260: 806e ecbd 095b 0b3d 7e21 a5b8 2932 b6bd
00000270: 944e 843d 4412 e73c 771b 9abd 16fd 7e3d
00000280: 76fd 3f3d cd54 dcbc b435 a73d a473 87bd
00000290: 9e33 4bbb cd8c 3b3d 8bb8 43bd c15a 0dbd
000002a0: 2454 adbd b0d1 02bd 14c3 083d aa79 3bbd
000002b0: 1e39 bc3d ab17 9e3d 1149 d23d 31ae b8bd
000002c0: 54c3 dbbd 4fcc 49bd 87a9 04be ad80 aebc
000002d0: 7728 7d3c 36c8 363d 8be6 fe3c 5a51 cbbc
000002e0: db3c 033e b263 be3d e512 22bc 7529 ca3c
000002f0: 7c84 d83c 3efd 76bd 4aee 25bd 24d3 f9bd
00000300: ed18 4fbc 0b43 a03d 84e3 803d af1a 7dbd
00000310: f9c7 babd ba9a 013e d295 26bd 975f 843c
00000320: 48bd 03bd 06f3 a9bd 5389 b03d 7957 62bd
00000330: 6336 f9bd 87b7 923d b2d8 093d d0a3 15bc
00000340: 2988 e0bd b473 713c 040a 5a3c b977 183d
00000350: e117 bfbd c4a8 523d 1bfa 61bd be7f 27bd
00000360: 890a 4f3d 6b5e 07bd 1ade 933d 66f5 a63d
00000370: 2fa6 a4bd ace9 22bd 6c60 11bd d621 e238
00000380: 357b dcbc a7c7 94bd ee5d e8bc 22d3 923d
00000390: afd7 9f3d 773e a5bc 66bb 96bd 7e5d 33bd
000003a0: cde5 503d 6500 d3bc a218 903c b8ee be3c
000003b0: 8d6a 6c3d 240d a8bd ed0e 32bc b832 a03c
000003c0: 6e0f 833d 9b70 d83d 005b 143d 40bc 1c3d
000003d0: aafc 40bd c463 3c3d f91c 06be df47 c33c
000003e0: 8a03 903c f7c9 df3d 2164 6c3c 73f5 4abb
000003f0: d588 733c 677f a93b 5ce9 1dbd a78e c3bd
-0.020506551 0.060621362 -0.03900224 -0.076551884 0.01813907 -0.014383791 -0.034546826 0.11628783
0.0513409 -0.054815136 -0.102879055 0.0026016966 -0.062883906 -0.010433457 0.11547943 0.09336271
-0.06528769 -0.00082426757 0.0063420995 -0.0228838 -0.08160233 -0.13565543 0.023011949 0.020219227
0.059381194 0.074886546 -0.14041191 0.025068367 -0.020217558 -0.09368719 0.07078926 0.12458749
0.049306244 0.045506794 0.13623552 0.035175 0.036920644 0.0039892783 0.07069138 0.0056494134
0.059544127 -0.047446962 0.024977999 -0.038049825 0.05184989 0.009916386 0.09796613 0.028190382
-0.04111436 -0.050855704 0.055804573 0.105354175 -0.033185102 0.0045836377 -0.10241737 -0.008425871
-0.029381474 -0.022894762 0.090320066 0.055976883 0.06818581 -0.04537951 -0.055903215 -0.0028006197
0.08915165 -0.079789646 -0.07841575 0.01731843 0.03533467 -0.061049838 -0.0028937077 -0.01446321
0.032061923 -0.027510261 -0.04671078 0.09219603 0.028516628 -0.029037286 0.0047459556 -0.059398226
-0.0020389769 0.109216735 0.0014301577 0.117811374 0.07418618 -0.047642894 -0.0065367394 -0.03344706
-0.0830888 -0.018626982 0.015035406 0.03209431 -0.008758051 -0.042588342 0.12049509 -0.044646967
-0.040902458 -0.017352223 0.025710482 0.069604024 -0.0019930045 -0.08747768 -0.032195903 -0.066555545
0.09479641 -0.02368446 -0.025827605 -0.023254871 -0.023782717 -0.0011934481 0.03880415 -0.023991447
-0.014016579 0.074728325 0.08682426 -0.10834059 -0.014664755 -0.034542833 0.039821297 -0.07392767
-0.0786919 -0.03960167 0.12432669 0.021812784 0.094078325 0.04895372 -0.025155054 0.064052776
-0.12072081 -0.1240389 -0.08549347 -0.040351667 -0.0013073114 -0.009678094 -0.0067440425 -0.023092596
-0.060107887 -0.10529493 -0.08527657 -0.007755751 0.04394159 0.13283919 0.039681967 -0.059669424
-0.04867631 0.020985158 0.01426185 -0.08567841 -0.052293856 -0.011056788 0.060870465 0.031647235
-0.11544514 0.034022365 -7.8740515e-05 -0.08896286 0.064603 0.028206952 -0.0752477 0.06225308
0.04687258 -0.026895905 0.0816454 -0.066138536 -0.0031006108 0.045788575 -0.047783416 -0.034510378
-0.08463314 -0.031938255 0.033389166 -0.045770325 0.09190582 0.07719358 0.102678426 -0.090175994
-0.10730615 -0.04926711 -0.12955295 -0.021301592 0.015451542 0.04462453 0.03111579 -0.024819065
0.12816183 0.09296359 -0.0098922 0.024677971 0.026430361 -0.060300104 -0.040510453 -0.12198475
-0.01264022 0.078252874 0.06293395 -0.061793026 -0.09120173 0.1265668 -0.040670224 0.016158862
-0.032162935 -0.08298306 0.086199425 -0.0552592 -0.121685766 0.07163911 0.033653922 -0.009133294
-0.109634705 0.014737058 0.013308052 0.03722355 -0.093307264 0.05143048 -0.05517016 -0.04089331
0.050547156 -0.03304903 0.07220097 0.08152275 -0.080395095 -0.039773628 -0.035492346 0.00010782822
-0.026914218 -0.07264643 -0.028365102 0.07169177 0.0780481 -0.020171387 -0.07359962 -0.043790333
0.051000405 -0.025757024 0.01758987 0.02330719 0.057718802 -0.082056314 -0.010867816 0.019555435
0.06399427 0.10568353 0.036219597 0.038265467 -0.04711596 0.04599358 -0.1309699 0.023837982
0.017579813 0.109271936 0.0144281695 -0.0030969053 0.014864166 0.0051726582 -0.038552627 -0.09548693
