models/7x7-4-99-tanh/315episodes.pth (torch, 202354 bytes, 12 tensors)

input_layer.weight f4 [99, 50]
0.076195374 -0.22728695 -0.13418204 -0.17683773 -0.115174785 -0.12430814 -0.16090336 0.024629176
-0.026043827 0.057018775 0.020106569 0.10830662 -0.061010547 -0.10498731 -0.036302418 0.06114497
0.04476256 0.030649964 0.112149514 -0.011547806 -0.17428347 0.20382965 -0.0077322945 0.019690523
0.040292796 0.10194127 -0.09910819 -0.15874894 -0.15873446 0.057613358 -0.15673558 -0.1289225
-0.007611074 -0.04961521 -0.064372115 -0.022770783 -0.05300269 0.051605146 -0.14308931 -0.15580742
0.09444256 -0.043545794 0.08582055 0.0044654612 -0.016564386 0.20341332 0.037127044 -0.13615456
-0.08299909 0.099457696 0.119366996 -0.13569959 0.03626621 -0.086590946 -0.062328007 0.12893987
0.05762802 0.12192856 -0.11291627 -0.00630051 -0.11385062 -0.13349222 0.16602415 -0.11718383
-0.0054580024 0.05619308 -0.039338022 0.11693173 -0.10768194 0.012234238 0.06481597 -0.007768894
-0.054814953 0.028253203 -0.10689962 -0.024459032 -0.18788947 0.01159676 0.112466015 -0.12615193
0.0059891692 0.073411025 0.09703165 -0.027476748 -0.029689353 -0.19340308 -0.08710058 -0.010818081
0.094587825 0.0027056132 -0.11650009 -0.050331533 -0.02831782 -0.011088019 -0.04267712 -0.03231338
-0.13352078 -0.09472015 -0.020445608 0.0067718136 -0.27111986 -0.08527705 -0.119660534 0.10064919
0.004025464 0.110094875 -0.04956958 0.0124277305 0.15430981 -0.119943455 -0.0952695 -0.17534319
0.04886539 0.09737381 -0.010599923 0.047010086 -0.037264906 0.14714587 0.13554212 0.11096433
0.00942447 0.1281189 -0.112244435 -0.06943483 0.12897223 0.040123824 -0.14982729 -0.058616903
0.00032075605 -0.08654188 0.05389839 -0.084049724 0.0831643 -0.07020374 0.043449476 0.08148594
-0.124779575 -0.10967958 -0.12551798 0.096514605 -0.011589798 -0.09733654 0.027873665 0.08599029
-0.026943525 0.08486348 0.15113394 -0.083051056 0.020375527 -0.07232261 0.01475844 -0.04863196
-0.12359038 -0.06306905 -0.05185013 -0.040328138 0.05494673 0.019776927 0.0004307808 0.14240997
0.1264775 -0.15573256 0.046553213 -0.03326699 0.21735537 0.1465661 0.025986247 0.12223337
0.0068430495 -0.06276749 -0.13968953 0.10946985 -0.06893185 -0.015273283 -0.020883925 -0.10129146
-0.04549094 -0.08523361 -0.16947266 -0.06858788 0.06459731 -0.01426269 -0.101046346 -0.05501944
-0.19357605 0.045001812 0.059166275 0.014622079 0.09421935 -0.0067336424 0.038472366 -0.063316636
-0.012710174 -0.006264739 0.035244804 0.16721147 -0.061484955 -0.024252618 0.038844068 -0.09296815
-0.06454832 -0.05553984 0.006191156 0.1762369 0.020539066 0.07263683 -0.07319171 -0.08107055
0.03686433 -0.03789368 0.05102694 0.14305322 -0.008213059 -0.07284304 -0.1481836 -0.075437464
0.15305002 0.086607285 -0.055426966 -0.1738347 0.02902575 0.13166314 -0.061668206 0.1373747
-0.14685732 0.032352183 0.054132838 -0.11533782 0.1055694 -0.097620934 0.051175434 0.09273156
-0.034642044 -0.076555446 0.07698204 0.07596558 0.039681394 0.009708207 -0.043812305 0.079992965
-0.09235265 -0.12345959 -0.041837037 0.039947003 -0.07066165 -0.13010715 -0.011746055 -0.15753114
-0.007773648 0.09997893 -0.07871868 -0.073776945 -0.042962503 -0.16143191 0.048966374 -0.069039784
00000000: 520c 9c3d e9bd 68be 0467 09be f314 35be
00000010: c2e0 ebbd 4495 febd dac3 24be 20c3 c93c
00000020: dd59 d5bc 858c 693d 88b6 a43c dccf dd3d
00000030: 32e6 79bd 9603 d7bd d8b1 14bd 2673 7a3d
00000040: f258 373d a215 fb3c a5ae e53d 0233 3dbc
00000050: 5e77 32be b8b8 503e 305f fdbb 054e a13c
00000060: 0f0a 253d 96c6 d03d 3cf9 cabd 158f 22be
00000070: 498b 22be fcfb 6b3d 4b7f 20be 4304 04be
00000080: 5166 f9bb 5239 4bbd 87d5 83bd cb89 babc
00000090: 5919 59bd eb5f 533d 0186 12be fb8b 1fbe
000000a0: 1a6b c13d 135d 32bd afc2 af3d 0153 923b
000000b0: 09b2 87bc 954b 503e 8712 183d 1a6c 0bbe
000000c0: 6dfb a9bd 7ab0 cb3d af76 f43d d5f4 0abe
000000d0: e18b 143d 9856 b1bd a74b 7fbd d008 043e
000000e0: 5c0b 6c3d aeb5 f93d a540 e7bd 8274 cebb
000000f0: 842a e9bd 2fb2 08be 3c02 2a3e 13fe efbd
00000100: 0bd9 b2bb b72a 663d e820 21bd e779 ef3d
00000110: 5988 dcbd 1d72 483c 3cbe 843d 3592 febb
00000120: a585 60bd 4373 e73c 30ee dabd 4f5e c8bc
00000130: 1966 40be 5600 3e3c 9554 e63d f92d 01be
00000140: cb40 c43b 8558 963d 88b8 c63d eb16 e1bc
00000150: 1637 f3bc 750b 46be ca61 b2bd 523e 31bc
00000160: 43b7 c13d a850 313b 9997 eebd 7028 4ebd
00000170: c6fa e7bc 86aa 35bc 34ce 2ebd 095b 04bd
00000180: acb9 08be a3fc c1bd 8c7d a7bc 17e6 dd3b
00000190: 39d0 8abe bca5 aebd 9510 f5bd 2a21 ce3d
000001a0: 0ae8 833b 6c79 e13d 7909 4bbd ae9d 4b3c
000001b0: 6403 1e3e eaa4 f5bd a81c c3bd 2a8d 33be
000001c0: 1327 483d ec6b c73d 4dab 2dbc a68d 403d
000001d0: 16a3 18bd 68ad 163e 8ecb 0a3e 4441 e33d
000001e0: 1869 1a3c 9a31 033e 69e0 e5bd d933 8ebd
000001f0: 4c11 043e e158 243d 536c 19be 4718 70bd
00000200: 262b a839 df3c b1bd 8fc4 5c3d 4322 acbd
00000210: 0b52 aa3d fac6 8fbd 14f8 313d 1ae2 a63d
00000220: 6f8c ffbd b09f e0bd c987 00be 73a9 c53d
00000230: 23e3 3dbc 6158 c7bd 5057 e43c ad1b b03d
00000240: abb8 dcbc e7cc ad3d dbc2 1a3e ac16 aabd
00000250: 94ea a63c e01d 94bd 62cd 713c 4e32 47bd
00000260: f41c fdbd 592a 81bd cd60 54bd 1e2f 25bd
00000270: d30f 613d 3903 a23c 6cda e139 ebd3 113e
00000280: 5183 013e 5b78 1fbe 95ae 3e3d f842 08bd
00000290: 6892 5e3e 6c15 163e 1ce1 d43c 7d55 fa3d
000002a0: a93b e03b 3e8c 80bd c60a 0fbe bb31 e03d
000002b0: 242c 8dbd cb3c 7abc c414 abbc e671 cfbd
000002c0: b554 3abd f58e aebd 3e8a 2dbe cd77 8cbd
000002d0: 984b 843d 0fae 69bc 63f1 cebd 105c 61bd
000002e0: cd38 46be d253 383d 5658 723d 7291 6f3c
000002f0: 13f6 c03d e3a5 dcbb 3395 1d3d 27ac 81bd
00000300: 553e 50bc 7148 cdbb db5c 103d 7c39 2b3e
00000310: a6d7 7bbd 6dad c6bc f51a 1f3d 1666 bebd
00000320: e931 84bd be7d 63bd 2edf ca3b 7277 343e
00000330: 8b41 a83c 9ec2 943d 89e5 95bd 5108 a6bd
00000340: 0dff 163d 6736 1bbd a001 513d 8b7c 123e
00000350: 1190 06bc bb2e 95bd 71bd 17be f57e 9abd
00000360: 25b9 1c3e 295f b13d 6307 63bd b901 32be
00000370: 69c7 ed3c b4d2 063e cd97 7cbd f4ab 0c3e
00000380: c461 16be b983 043d 65ba 5d3d 3c36 ecbd
00000390: c534 d83d 7ced c7bd 559d 513d 0bea bd3d
000003a0: d1e4 0dbd 1ac9 9cbd c3a8 9d3d d893 9b3d
000003b0: f588 223d 2c0f 1f3c 8874 33bd 5ad3 a33d
000003c0: 6323 bdbd 62d8 fcbd 505d 2bbd 789f 233d
000003d0: 0eb7 90bd cf3a 05be 8772 40bc d84f 21be
000003e0: 16ba febb c1c1 cc3d 4237 a1bd 5e18 97bd
000003f0: 73f9 2fbd 684e 25be f790 483d bb64 8dbd

input_layer.bias f4 [99]
-0.018799469 -0.14341193 0.14449985 -0.025305381 0.20648919 -0.12530985 -0.1097818 0.049742732
-0.09586738 0.04224425 -0.15340301 0.022535708 -0.09973907 0.11447686 -0.042085875 0.043765508
-0.013381351 -0.13499734 -0.10183833 0.088191815 0.047265228 0.102024384 0.106047906 -0.10777165
0.11312542 0.15051566 -0.09911361 0.13089263 -0.016889729 -0.07552386 -0.10787968 -0.016896095
-0.0066306526 -0.09767257 0.033406015 0.11878218 -0.039874993 -0.085842706 -0.11674775 -0.042431932
-0.026539067 0.026950577 0.18471634 -0.099433325 -0.051841844 0.079327926 0.008225107 0.10449674
0.07343124 -0.037856743 0.10536841 0.109227344 0.06319467 -0.04036661 -0.10487905 -0.14797918
-0.10660659 -0.121421926 -0.1265878 -0.052676473 0.030984934 0.13716307 0.0054703224 0.09394859
-0.13719878 -0.026209231 -0.10785623 -0.13834427 -0.13663839 -0.06783661 -0.10860701 0.13197565
-0.06605939 0.12466471 -0.10458302 -0.03357267 -0.014788862 -0.19052623 0.10668489 -0.0729979
0.115037054 -0.1019067 -0.13321315 0.13817321 -0.12748374 0.064180695 -0.1443398 0.06969186
-0.13299015 0.008554239 0.10594093 0.15587182 0.08731677 -0.087846495 -0.0070398003 0.13820422
-0.103547044 -0.018981766 -0.032871824
00000000: 5801 9abc 94da 12be c5f7 133e 3b4d cfbc
00000010: e771 533e 3a51 00be 48d5 e0bd 09bf 4b3d
00000020: 1e56 c4bd 4f08 2d3d ae15 1dbe ce9c b83c
00000030: ff43 ccbd d872 ea3d 3d62 2cbd 7643 333d
00000040: 743d 5bbc be3c 0abe 9d90 d0bd e99d b43d
00000050: 2f99 413d 29f2 d03d a52f d93d 62b7 dcbd
00000060: 4dae e73d c720 1a3e 14fc cabd b808 063e
00000070: 545c 8abc 41ac 9abd 06f0 dcbd ae69 8abc
00000080: f245 d9bb 8e08 c8bd bfd4 083d 1244 f33d
00000090: f653 23bd 4dce afbd 7219 efbd 1bcd 2dbd
000000a0: 7568 d9bc 75c7 dc3c 4826 3d3e b3a3 cbbd
000000b0: 1d58 54bd ae76 a23d 99c2 063c 6302 d63d
000000c0: 1e63 963d ac0f 1bbd 65cb d73d 96b2 df3d
000000d0: 356c 813d 7557 25bd d4ca d6bd db87 17be
000000e0: 8e54 dabd 0fac f8bd 3ba0 01be 49c3 57bd
000000f0: 1ed4 fd3c 7a74 0c3e 6440 b33b 1e68 c03d
00000100: d67d 0cbe beb4 d6bc bae3 dcbd 1faa 0dbe
00000110: efea 0bbe eced 8abd 5a6d debd a024 073e
00000120: 254a 87bd 3650 ff3d 9f2f d6bd 7f83 09bd
00000130: fc4c 72bc 4f19 43be 9c7d da3d ec7f 95bd
00000140: 8c98 eb3d 76b4 d0bd 0769 08be 477d 0d3e
00000150: 198b 02be 2b71 833d d0cd 13be 9bba 8e3d
00000160: 922e 08be 1427 0c3c 8ff7 d83d dd9c 1f3e
00000170: 22d3 b23d dde8 b3bd 20ae e6bb 6885 0d3e
00000180: 7910 d4bd a67f 9bbc 9ba4 06bd

hidden.0.weight f4 [99, 99]
-0.12845759 -0.031877663 -0.005643199 -0.12384635 0.08388249 -0.01817923 0.0078946315 0.09488872
-0.01558447 0.062641814 0.00549731 0.048437066 0.048497114 0.05283897 0.077292964 0.1418158
-0.12133354 0.040393807 -0.05862049 0.006675437 -0.079398274 0.03446582 0.015312819 0.105406396
0.086552255 0.054199688 -0.061989177 -0.065221354 -0.05583165 -0.067748174 -0.12400341 -0.028468167
-0.11420585 0.046376817 -0.0014514249 0.09785147 0.05684433 0.070984185 0.08237198 0.091817744
0.14964032 0.14163037 -0.052260954 0.0108360015 0.0796714 0.023144668 -0.07696798 0.00549458
-0.053851165 -0.07755498 -0.085669346 0.11842582 -0.028053548 0.009634968 -0.11176629 -0.015187741
0.00836151 0.0062283464 0.04561195 0.030797973 0.1709936 0.13631925 0.048427563 0.13505064
-0.07621266 -0.038762286 0.10556867 0.10101073 0.06942405 0.024250133 -0.009339363 0.111759156
0.020782713 -0.07390746 0.02798213 0.02091215 -0.052218184 0.0049557583 0.11306375 -0.026452446
-0.014285192 -0.029227996 -0.011893228 0.02999289 0.13339809 -0.046139605 -0.045500435 0.0052493126
-0.05908428 0.029186247 -0.0023617607 0.093204536 -0.095537476 0.05849 -0.047717977 0.06332121
0.11442051 0.1117821 -0.045187104 0.053111877 0.0034324115 -0.036901046 0.09576833 0.004834722
0.034965 0.059823263 0.06586121 0.115772784 -0.06571696 0.06445021 -0.10011266 -0.049262512
-0.106475934 0.078911945 -0.032253288 -0.030372433 0.027796565 -0.09299655 0.0045690923 -0.0014143985
0.015241542 -0.14296874 -0.039583866 -0.03796003 0.023222936 -0.064972 -0.08938359 -0.06590446
0.031630415 0.025439179 0.104814954 -0.052830163 -0.12053801 -0.044430025 -0.066179685 0.13246676
-0.004674207 0.056487102 -0.053795476 0.12913129 -0.08751167 0.074402794 0.055009156 -0.005778457
-0.07107903 -0.07235085 0.008376748 -0.12841998 0.002898926 0.04931334 0.050779298 0.0031043238
0.032787677 -0.1012509 0.0270772 0.023386072 -0.029646723 0.0036070847 0.023493048 -0.048949
0.01831545 -0.021859962 0.103897154 -0.014154014 0.0036290034 0.026947787 -0.08250929 -0.08540357
-0.049116272 -0.11032084 -0.092461094 -0.02171482 -0.002307122 -0.12752296 -0.0060698437 0.032052297
-0.110374324 0.026708277 -0.037610505 0.0032764904 -0.13764976 -0.10604671 -0.010445501 0.09447336
-0.024763532 0.054652546 -0.07969455 -0.007945431 -0.057137858 -0.051200416 0.05573818 0.09205636
0.008157937 -0.11778504 0.060439717 0.00034898298 0.03327886 -0.015659861 -0.05998317 0.104088806
-0.06563147 0.01656159 -0.116400875 0.05362513 -0.02675897 0.06318343 0.03997304 -0.11763855
0.10820458 0.09230871 -0.048442867 -0.110179335 0.031180425 0.16238695 -0.017093286 -0.08559429
0.043456852 0.0021639024 -0.07616302 0.055992506 0.1071809 0.048792068 -0.060806327 0.0036292085
-0.015797446 0.02423057 0.023146357 -0.08200913 -0.07972 -0.05563022 0.10252382 -0.04441941
0.053050134 0.14074072 -0.08182822 -0.1461771 -0.09697971 0.038240172 -0.0105797015 0.072538495
-0.019497506 0.012859852 -0.0035883142 -0.070031725 -0.01868964 0.04935734 0.10958531 -0.01438123
-0.08526439 -0.100336686 0.023915196 -0.080844045 -0.07428407 -0.049024474 -0.11238666 -0.045351274
00000000: 638a 03be 2792 02bd 96ea b8bb 28a3 fdbd
00000010: 95ca ab3d 9cec 94bc 7c58 013c 0455 c23d
00000020: 0156 7fbc 5a4a 803d c722 b43b f265 463d
00000030: e9a4 463d ad6d 583d c64b 9e3d 2938 113e
00000040: b87d f8bd fa73 253d 0a1c 70bd a0bd da3b
00000050: 909b a2bd 082c 0d3d 9ee2 7a3c 4fdf d73d
00000060: 4f42 b13d 7e00 5e3d 5de8 7dbd c692 85bd
00000070: baaf 64bd 8ebf 8abd 80f5 fdbd 1336 e9bc
00000080: c2e4 e9bd 9ef5 3d3d bd3d beba 5a66 c83d
00000090: 9ad5 683d 2860 913d a4b2 a83d f10a bc3d
000000a0: 503b 193e 8d07 113e 950f 56bd 7c89 313c
000000b0: c22a a33d e399 bd3c 63a1 9dbd e10b b43b
000000c0: 0a93 5cbd 25d5 9ebd 6973 afbd 3c89 f23d
000000d0: 8ed0 e5bc fcdb 1d3c bae5 e4bd 01d6 78bc
000000e0: b7fe 083c 2817 cc3b 99d3 3a3d 084c fc3c
000000f0: f218 2f3e 4697 0b3e fb5b 463d b74a 0a3e
00000100: 6215 9cbd 34c5 1ebd 6334 d83d b7de ce3d
00000110: 322e 8e3d 37a8 c63c 2104 19bc fce1 e43d
00000120: 8240 aa3c cb5c 97bd c83a e53c f54f ab3c
00000130: bce2 55bd ea63 a23b f88d e73d cdb2 d8bc
00000140: 700c 6abc 8d6f efbc d0db 42bc a6b3 f53c
00000150: 8299 083e e2fc 3cbd aa5e 3abd 6d02 ac3b
00000160: 5c02 72bd ff17 ef3c c5c7 1abb 05e2 be3d
00000170: 27a9 c3bd 3693 6f3d ed73 43bd 8dae 813d
00000180: 4d55 ea3d 03ee e43d 1d16 39bd d78b 593d
00000190: 4ff2 603b 8d25 17bd 3022 c43d 966c 9e3b
000001a0: 7637 0f3d 3d09 753d 3ee2 863d 481a ed3d
000001b0: 9d96 86bd 79fe 833d de07 cdbd 7dc7 49bd
000001c0: 0e10 dabd 969c a13d 061c 04bd 9ccf f8bc
000001d0: 9fb5 e33c fa74 bebd 53b8 953b 5763 b9ba
000001e0: a9b7 793c 6666 12be b122 22bd fa7b 1bbd
000001f0: 073e be3c 0a10 85bd be0e b7bd ebf8 86bd
00000200: e58e 013d d365 d03c 39a9 d63d 7164 58bd
00000210: a2dc f6bd 42fc 35bd 3789 87bd 5ea5 073e
00000220: 172a 99bb 055f 673d a558 5cbd fe3a 043e
00000230: 5239 b3bd 7e60 983d 4851 613d 3659 bdbb
00000240: e291 91bd af2c 94bd a13e 093c 8780 03be
00000250: e8fb 3d3b c9fc 493d f4fd 4f3d e971 4b3b
00000260: 5f4c 063d a25c cfbd 01d1 dd3c 2694 bf3c
00000270: afdd f2bc d764 6c3b 7e74 c03c bf7e 48bd
00000280: 480a 963c aa13 b3bc 08c8 d43d 3de6 67bc
00000290: 93d4 6d3b 9bc1 dc3c a1fa a8bd 11e8 aebd
000002a0: 252e 49bd e4ef e1bd 3e5c bdbd 47e3 b1bc
000002b0: 1633 17bb 6195 02be 8ae5 c6bb 4549 033d
000002c0: ef0b e2bd 51cb da3c 790d 1abd 63ba 563b
000002d0: 0ff4 0cbe 042f d9bd 9b23 2bbc 407b c13d
000002e0: e4dc cabc 59db 5f3d e536 a3bd 8e2d 02bc
000002f0: 6309 6abd 87b7 51bd b84d 643d 0b88 bc3d
00000300: dea8 053c 4839 f1bd a38f 773d b4f7 b639
00000310: 6a4f 083d 1c49 80bc eab0 75bd 832c d53d
00000320: cb69 86bd 2cac 873c 9563 eebd 06a6 5b3d
00000330: a135 dbbc 5066 813d c5ba 233d 7bec f0bd
00000340: 5d9a dd3d 590c bd3d 076c 46bd b4a5 e1bd
00000350: 176e ff3c c448 263e 3807 8cbc 0f4c afbd
00000360: d0ff 313d 42d0 0d3b 5cfb 9bbd 6658 653d
00000370: a981 db3d 31da 473d 0e10 79bd 04d8 6d3b
00000380: a569 81bc 307f c63c 6e9d bd3c 67f4 a7bd
00000390: 3d44 a3bd 83dc 63bd 02f8 d13d 21f1 35bd
000003a0: 194b 593d 561e 103e 8e95 a7bd 73af 15be
000003b0: 4c9d c6bd baa1 1c3d 7c56 2dbc 108f 943d
000003c0: 3cb9 9fbc 21b2 523c ec29 6bbb cb6c 8fbd
000003d0: 041b 99bc ec2a 4a3d 436e e03d 409f 6bbc
000003e0: 199f aebd 527d cdbd cde9 c33c 9091 a5bd
000003f0: 3f22 98bd e3cd 48bd fa2a e6bd 42c2 39bd

hidden.0.bias f4 [99]
-0.03947898 0.109432876 -0.08907517 -0.06638199 0.08236092 -0.078150086 -0.075178064 -0.040753648
-0.054881044 0.06480128 0.101102434 0.056738857 -0.07185356 0.04429578 0.10113532 -0.0030014478
0.040497303 0.07539028 -0.042161454 -0.0069513274 -0.07992764 0.09559408 -0.032984212 -0.05439363
-0.0464549 0.022820184 -0.13597593 0.028827637 -0.01618031 0.08338095 0.037872482 -0.08032014
-0.08885582 -0.09072482 0.00076978386 -0.121421814 0.042497054 -0.0072028227 0.052999366 -0.09355434
0.087796 0.058850046 0.019458802 -0.076579094 0.072433636 0.03339509 -0.02338898 -0.016556824
-0.045764875 0.041728392 0.06259892 0.11003332 -0.061347164 -0.017421756 -0.020751286 0.06631568
0.0721041 0.08439382 -0.037389755 0.044157885 0.052184016 0.11424263 -0.108269855 0.052053988
-0.057478324 0.035887506 -0.09035603 0.10160267 0.027705215 -0.07265226 -0.11844653 0.0053792307
0.09839479 0.0017906115 -0.061004538 0.058912925 -0.02400533 0.05087008 -0.041401472 0.1384891
0.028191296 -0.089042775 -0.04810116 -0.060248762 -0.02953362 -0.018946499 0.004898942 -0.051473003
0.038160574 0.081841566 -0.034637067 -0.103559405 -0.03691847 -0.060856767 -0.0006625625 0.07763234
0.10345467 -0.09341666 0.003611121
00000000: b6b4 21bd 581e e03d 0b6d b6bd 48f3 87bd
00000010: d8ac a83d 270d a0bd f5f6 99bd 4ced 26bd
00000020: f2ca 60bd 89b6 843d cb0e cf3d 0167 683d
00000030: f627 93bd 7e6f 353d 0920 cf3d f0b3 44bb
00000040: 80e0 253d 3866 9a3d 7db1 2cbd f6c7 e3bb
00000050: 1ab1 a3bd d4c6 c33d 741a 07bd dbcb 5ebd
00000060: 7e47 3ebd 65f1 ba3c 463d 0bbe f027 ec3c
00000070: 928c 84bc a2c3 aa3d 2d20 1b3d e37e a4bd
00000080: 0afa b5bd efcd b9bd 52cb 493a 00ac f8bd
00000090: 6411 2e3d a805 ecbb dd15 593d 6b99 bfbd
000000a0: 64ce b33d bf0c 713d 1168 9f3c 80d5 9cbd
000000b0: 1658 943d 4ac9 083d 3f9a bfbc 2da2 87bc
000000c0: f373 3bbd 64eb 2a3d dd33 803d 2659 e13d
000000d0: 2a47 7bbd 12b8 8ebc 9afe a9bc 84d0 873d
000000e0: 50ab 933d abd6 ac3d 0026 19bd e6de 343d
000000f0: e8be 553d 0af8 e93d 96bc ddbd 9036 553d
00000100: 646e 6bbd c7fe 123d 950c b9bd 1015 d03d
00000110: 0cf6 e23c b5ca 94bd 1894 f2bd 4244 b03b
00000120: 3583 c93d f4b2 ea3a e5df 79bd ae4e 713d
00000130: d3a6 c4bc 255d 503d 9794 29bd 16d0 0d3e
00000140: 6ff1 e63c 0f5c b6bd b905 45bd 68c7 76bd
00000150: 7ef0 f1bc b035 9bbc 4e87 a03b 5bd5 52bd
00000160: 434e 1c3d 8d9c a73d 99df 0dbd f416 d4bd
00000170: d237 17bd f244 79bd d1af 2dba b4fd 9e3d
00000180: 0be0 d33d 3c51 bfbd 8fa8 6c3b

hidden.1.weight f4 [99, 99]
0.012691058 -0.025298037 0.086744055 0.16554348 -0.09647272 0.07458895 0.13244827 0.104649805
-0.06330454 0.010267999 0.108151324 -0.07237953 -0.14805341 -0.061588533 -0.068822324 -0.18078424
-0.03692798 -0.029431468 0.015572916 0.03380213 -0.10281238 0.07186835 0.10320894 -0.014959353
0.041845363 0.04196637 0.1365259 0.071170785 -0.06296218 -0.04509184 -0.06885367 0.18340872
0.09788532 0.17002532 0.029096201 -0.020071305 0.036834233 -0.083141655 -0.051241133 -0.067209
0.0060738963 0.084741235 -0.106497765 0.046042908 0.08270798 0.03429403 0.004572646 0.11522477
-0.1075932 -0.12767722 0.07676743 0.13638195 0.0049535288 -0.028424228 -0.051189445 -0.015866227
0.017406816 -0.12447423 -0.069226995 -0.004533237 -0.09139543 0.059587613 -0.056941 0.04624076
0.03744114 -0.0019993894 0.09411086 -0.20768297 -0.0864826 0.001085255 0.1652071 0.03727046
0.14041957 -0.08903066 -0.09475683 0.061634768 0.0708141 -0.0015050371 0.08374094 -0.008041969
-0.10610888 0.16122346 0.061637092 0.031584967 0.06677411 -0.109085016 -0.06020062 0.09521442
-0.053891882 0.059621304 0.1464419 -0.058986288 0.12318091 -0.12564093 -0.069994144 -0.01891778
-0.11903219 0.044947226 0.007861664 -0.09068903 0.12696992 0.09389366 -0.12723175 0.016528659
0.14887588 -0.11670069 -0.08128312 -0.032581616 -0.006807222 -0.1289499 0.03286185 -0.0031331917
0.014141692 -0.09957621 0.011705222 0.089522004 -0.06250762 -0.03445011 -0.13727088 -0.10313469
-0.21628606 0.10649726 -0.059741475 0.14860879 0.047053963 -0.08675843 -0.16288526 0.064421326
-0.17811891 -0.1394429 -0.10513777 0.0026195473 0.062095173 0.06503468 0.16616695 -0.0493274
0.10074889 0.009809341 0.07866589 0.0044473307 -0.1509598 -0.058365542 0.026416134 -0.025014302
0.17906123 0.05607807 0.005288112 0.03709329 -0.067554474 0.05742421 -0.08191049 -0.07766187
-0.066431575 0.2006765 0.106405914 -0.13068464 0.0504937 -0.021020219 0.061979964 -0.061080933
-0.15198937 0.12853298 -0.07532559 0.003697207 0.034498144 -0.010024866 0.029669894 0.037938938
-0.012577407 -0.107872136 -0.18954512 -0.10742058 0.11957897 -0.04121381 0.112600684 -0.08248838
-0.033140305 0.08374359 -0.16045688 -0.17926745 0.082985975 0.07959278 -0.040116716 0.029629594
0.08672888 -0.08335051 -0.062011894 -0.026543967 -0.028357543 0.025759295 -0.06346712 -0.10693116
0.05315403 0.045552466 -0.049401786 0.043021467 0.13623479 -0.060145337 0.111143835 0.08750497
0.01949394 -0.0037619187 0.015741257 0.09319085 0.002666806 -0.036964398 0.12548992 0.14705911
0.0056785033 -0.12412729 -0.014411268 -0.048819683 0.055459112 -0.030397398 0.134902 0.06383373
0.075235344 -0.15726985 -0.08184259 -0.08451652 -0.0473655 -0.027718866 0.099553935 0.029838756
0.0076735453 0.010054393 0.022652898 0.0075430805 0.033698447 -0.01942708 -0.119359896 -0.034372605
0.04236968 -0.101547554 -0.04653663 -0.08097591 -0.02132586 -0.04112588 -0.13575637 0.015071856
0.08700366 -0.07409603 -0.051723167 0.025817929 -0.005838217 -0.0017371045 -0.033208735 -0.05886468
-0.08497633 0.04134257 0.011014035 0.12566288 -0.011349099 0.0050962213 0.097273186 0.10801211
00000000: 28ee 4f3c d43d cfbc dea6 b13d 3b84 293e
00000010: 7d93 c5bd 17c2 983d 85a0 073e a352 d63d
00000020: d0a5 81bd 1c3b 283c 717e dd3d b83b 94bd
00000030: 509b 17be 4244 7cbd b8f2 8cbd 811f 39be
00000040: cb41 17bd 431a f1bc 8b25 7f3c 1a74 0a3d
00000050: 4c8f d2bd b72f 933d 355f d33d 1318 75bc
00000060: 0b66 2b3d eee4 2b3d 72cd 0b3e fdc1 913d
00000070: 51f2 80bd 39b2 38bd 2703 8dbd 7fcf 3b3e
00000080: 1978 c83d 1e1b 2e3e 285b ee3c 946c a4bc
00000090: 7edf 163d 2c46 aabd 39e2 51bd dfa4 89bd
000000a0: 8907 c73b d08c ad3d 801b dabd 7d97 3c3d
000000b0: cd62 a93d e677 0c3d 23d6 953b f7fa eb3d
000000c0: d359 dcbd d1bd 02be 3e38 9d3d b6a7 0b3e
000000d0: 3651 a23b edd9 e8bc 06ac 51bd e4f9 81bc
000000e0: bd98 8e3c 58ec febd e2c6 8dbd 8c8b 94bb
000000f0: 872d bbbd 2412 743d f73a 69bd f366 3d3d
00000100: e15b 193d 3008 03bb 32bd c03d d8aa 54be
00000110: ca1d b1bd 1d3f 8e3a 0d2c 293e e9a8 183d
00000120: 26ca 0f3e b555 b6bd de0f c2bd bd74 7c3d
00000130: fc06 913d aa44 c5ba 5f80 ab3d 76c2 03bc
00000140: 9d4f d9bd c317 253e 2d77 7c3d 3d5f 013d
00000150: ddc0 883d f767 dfbd ed94 76bd c7ff c23d
00000160: bcbd 5cbd 7835 743d def4 153e 9b9b 71bd
00000170: 4646 fc3d 04a8 00be 1759 8fbd 76f9 9abc
00000180: 26c7 f3bd 951a 383d 35ce 003c 2cbb b9bd
00000190: 6704 023e 524b c03d 0a49 02be 1c67 873c
000001a0: eb72 183e c500 efbd c477 a6bd 4d74 05bd
000001b0: 1e0f dfbb 710b 04be 269a 063d 3c56 4dbb
000001c0: 8eb2 673c 9dee cbbd 42c7 3f3c 5057 b73d
000001d0: ff03 80bd 8f1b 0dbd bd90 0cbe 4838 d3bd
000001e0: 187a 5dbe 3c1b da3d 7ab3 74bd e72c 183e
000001f0: a8bb 403d 67ae b1bd 65cb 26be 54ef 833d
00000200: ce64 36be 1fca 0ebe 7952 d7bd b6ac 2b3b
00000210: 8257 7e3d e730 853d ab27 2a3e 870b 4abd
00000220: 6f55 ce3d 5cb7 203c 951b a13d eaba 913b
00000230: 3595 1abe b510 6fbd a666 d83c cbea ccbc
00000240: d45b 373e 1eb2 653d e647 ad3b 22ef 173d
00000250: 005a 8abd a635 6b3d b0c0 a7bd 300d 9fbd
00000260: 470d 88bd 247e 4d3e 58eb d93d 32d2 05be
00000270: 7bd2 4e3d 9832 acbc b4de 7d3d 0030 7abd
00000280: 1aa3 1bbe 269e 033e 4e44 9abd d74c 723b
00000290: ed4d 0d3d 563f 24bc 470e f33c dc65 1b3d
000002a0: 7811 4ebc 11ec dcbd 1e18 42be 52ff dbbd
000002b0: d2e5 f43d d0cf 28bd 309b e63d abef a8bd
000002c0: 21be 07bd c281 ab3d cf4e 24be e391 37be
000002d0: 8df4 a93d 8a01 a33d 6d51 24bd c3b9 f23c
000002e0: e99e b13d acb3 aabd 2f00 7ebd bc72 d9bc
000002f0: 144e e8bc 2805 d33c 0dfb 81bd b9fe dabd
00000300: 0ab8 593d 3995 3a3d 8759 4abd 4737 303d
00000310: 2281 0b3e f55a 76bd 619f e33d ce35 b33d
00000320: c1b1 9f3c 868a 76bb cff3 803c d8da be3d
00000330: 95c5 2e3b fb67 17bd 6e80 003e aa96 163e
00000340: bd12 ba3b 7336 febd 3d1d 6cbc 26f7 47bd
00000350: 1829 633d f703 f9bc c023 0a3e 42bb 823d
00000360: fd14 9a3d 590b 21be 169d a7bd ff16 adbd
00000370: 5402 42bd ad12 e3bc efe2 cb3d 6870 f43c
00000380: 5d72 fb3b 2ebb 243c 9292 b93c f22b f73b
00000390: 6207 0a3d 8a25 9fbc f672 f4bd 4aca 0cbd
000003a0: d48b 2d3d 2af8 cfbd 319d 3ebd b3d6 a5bd
000003b0: 92b3 aebc 9c73 28bd b803 0bbe f2ef 763c
000003c0: fa2e b23d a9bf 97bd acdb 53bd 1f80 d33c
000003d0: 844e bfbb 8eaf e3ba e205 08bd 171c 71bd
000003e0: 1208 aebd d456 293d 3674 343c c5ad 003e
000003f0: 92f1 39bc 34fe a63b 2a37 c73d 7435 dd3d

hidden.1.bias f4 [99]
-0.0952657 0.030058734 -0.050742567 0.037597816 0.028325778 -0.0508232 -0.0054151784 -0.008319427
-0.025887737 -0.11719413 -0.025615545 0.012729806 -0.08733641 0.039791677 -0.023438875 -0.01814632
-0.06597358 0.062332213 -0.021412423 -0.077927455 -0.06364164 0.046834994 -0.03564392 -0.07359767
-0.058394324 -0.06827518 0.07058327 -0.0977403 -0.045019142 -0.011351811 0.12039409 0.086294904
0.13151349 -0.10587036 0.045088325 -0.07149055 0.042770706 -0.106607355 -0.015681246 -0.027176034
-0.12248159 0.10245805 0.0015829611 -0.08765337 -0.07053711 -0.021157466 -0.13029082 0.11371818
-0.01096873 -0.014830887 -0.005268225 0.08578402 -0.06478947 0.078487 -0.08911535 -0.03266145
0.02771054 0.041952156 0.03024984 -0.068388425 -0.019084483 0.0064221537 0.032452423 0.12430808
0.07291167 -0.016071148 0.032553107 -0.017875215 -0.10413275 0.04961148 0.012619745 0.042411853
-0.06219444 0.007454438 -0.068096206 0.06581354 0.064382754 -0.009849347 0.09274993 -0.04585427
0.06949339 0.09789297 0.055315815 -0.11103704 0.051643036 -0.10596418 -0.13144332 -0.08620683
-0.03042671 -0.050732397 -0.040634666 -0.006697286 0.10103729 0.017509343 0.020205379 -0.10174263
-0.113330506 0.035954393 -0.021413079
00000000: aa1a c3bd bc3d f63c 70d7 4fbd 2b00 1a3d
00000010: 760b e83c fd2b 50bd cf71 b1bb 354e 08bc
00000020: 8512 d4bc 7a03 f0bd b1d7 d1bc ad90 503c
00000030: 6fdd b2bd 99fc 223d e202 c0bc 97a7 94bc
00000040: 281d 87bd 1050 7f3d 1b69 afbc 6e98 9fbd
00000050: 8c56 82bd 0dd6 3f3d 5cff 11bd 60ba 96bd
00000060: e32e 6fbd dcd3 8bbd f68d 903d 112c c8bd
00000070: fe65 38bd f2fc 39bc 2d91 f63d 62bb b03d
00000080: 79ab 063e 8fd2 d8bd 89ae 383d a369 92bd
00000090: 5630 2f3d f554 dabd f575 80bc 46a0 debc
000000a0: a1d7 fabd 87d5 d13d 5c7b cf3a 9c83 b3bd
000000b0: c375 90bd 6c52 adbc f56a 05be 14e5 e83d
000000c0: 30b6 33bc 40fd 72bc 13a1 acbb 88af af3d
000000d0: 57b0 84bd cbbd a03d 1c82 b6bd 03c8 05bd
000000e0: 3701 e33c 06d6 2b3d 83ce f73c 3b0f 8cbd
000000f0: 1057 9cbc ee70 d23b d5ec 043d 3c95 fe3d
00000100: b752 953d a4a7 83bc 6856 053d 0b6f 92bc
00000110: 8d43 d5bd 6835 4b3d 0cc3 4e3c 0db8 2d3d
00000120: 99bf 7ebd 5c44 f43b 0676 8bbd 40c9 863d
00000130: 1bdb 833d 285f 21bc adf3 bd3d b0d1 3bbd
00000140: 8d52 8e3d 1c7c c83d d692 623d 6367 e3bd
00000150: a687 533d bf03 d9bd 1499 06be 358d b0bd
00000160: 7041 f9bc c6cc 4fbd 8970 26bd e874 dbbb
00000170: a4ec ce3d c16f 8f3c c085 a53c 715e d0bd
00000180: d319 e8bd ea44 133d 7b6a afbc

hidden.2.weight f4 [99, 99]
0.05511535 0.14789985 0.08382743 0.05162773 -0.053522516 -0.0020789003 -0.0778574 -0.019332135
-0.16883919 0.12736353 0.037687644 0.05041882 -0.042534065 0.010612611 0.110143974 0.010943224
-0.17571084 0.047805086 0.08866652 -0.0739834 -0.019457754 -0.11817358 -0.08310695 -0.08145009
0.06302384 -0.008458336 -0.0027518317 -0.0067680944 0.01316468 -0.14004612 -0.060076877 0.0067377384
-0.03624012 0.06991385 0.060840573 0.23307376 0.0037472027 -0.13281476 -0.030573197 -0.1586265
-0.048143033 -0.10740993 0.13286112 0.05081458 -0.035646886 -0.008210993 0.099541 -0.069970824
0.09727433 0.10869096 -0.06534211 -0.03346061 0.055962786 -0.07747917 0.09705126 -0.099418506
-0.05178834 0.09926593 0.11031513 -0.14617822 -0.036556162 -0.25064185 0.008790564 0.0767033
-0.046178445 0.08547216 0.19168305 -0.01061454 0.24789022 0.060101286 0.06462255 0.07307845
-0.03818326 0.020959904 0.050964728 -0.07914033 -0.15326785 -0.0795243 -0.11172117 0.042221647
-0.09321128 -0.20471606 -0.10845808 0.021973107 0.06544083 0.019035047 -0.016061315 0.09352889
-0.042981725 0.0002882667 -0.107492425 -0.11011385 0.12599576 0.052092068 -0.103574656 -0.103761725
0.025961744 -0.0208881 0.26006547 0.08802251 -0.07811506 0.10674067 -0.020614125 -0.09631365
0.0072736153 0.016903276 0.0504018 0.13796267 -0.04547652 -0.063628756 -0.12477794 0.05385768
0.023933217 0.07175868 -0.056408 -0.04794937 -0.06134178 0.17066468 0.0048238435 -0.028624417
0.089736916 -0.02629603 0.18072586 -0.030968258 0.15058391 -0.007166286 0.12129989 0.03907824
0.011327821 0.049639836 0.14394611 0.032804254 -0.09334204 -0.09675529 0.051334206 -0.06646238
0.023483828 -0.15526672 0.074165866 -8.633113e-05 0.113198854 -0.1257462 -0.053134587 0.17603584
0.048488345 0.07376676 0.10504346 -0.0980525 0.03727394 -0.019244298 -0.19931616 -0.10167111
-0.08164479 -0.11909616 0.049366534 0.06872275 -0.14656822 -0.024254486 0.18962143 0.16721542
0.01080743 0.041696902 -0.042499118 -0.00914435 0.0025887713 0.04140006 -0.08387383 -0.048944134
-0.11070458 0.027030524 -0.024445886 0.017630197 0.040918022 -0.09501322 -0.04283031 -0.20311801
-0.11285863 0.05188117 -0.0016135733 -0.11788899 0.07247107 -0.08037761 0.18416342 0.06986155
-0.090349115 -0.101508446 -0.009668121 -0.0988511 -0.099315114 0.060267936 -0.06203283 -0.15101181
0.11151487 0.04336949 0.06535639 0.054505173 -0.008109218 -0.03940558 -0.080235176 -0.028629381
-0.024021754 0.07069935 -0.04619283 -0.048899893 -0.07098984 0.038237754 0.13111582 -0.02831174
0.18004389 -0.081702985 -0.14503546 -0.022544216 -0.1398117 0.13797407 -0.09462323 -0.10573532
0.06741988 0.030382482 -0.015996885 0.13413273 -0.08847106 0.053020027 -0.0036629431 -0.071239986
-0.14451337 0.060578037 0.019006664 -0.017073134 -0.07822 -0.058496613 -0.0046809884 0.06957727
-0.043408476 0.021744773 -0.14062423 -0.0051547918 0.039774656 0.1408972 -0.06979591 -0.0010912787
0.11306201 0.10720141 -0.045459185 -0.18119343 -0.028480127 0.051286504 -0.01806241 0.0482733
0.18195589 -0.050518554 0.10761374 0.023285229 -0.02614526 0.08439182 0.09685916 0.043458045
00000000: a2c0 613d 0f73 173e b7ad ab3d 9977 533d
00000010: 6d3a 5bbd 293e 08bb b373 9fbd 6d5e 9ebc
00000020: 2ee4 2cbe 966b 023e 5c5e 1a3d f783 4e3d
00000030: 3338 2ebd 84e0 2d3c 2a93 e13d 354b 333c
00000040: 8bed 33be 44cf 433d cb96 b53d 9c84 97bd
00000050: de65 9fbc fd04 f2bd fa33 aabd 4ecf a6bd
00000060: a512 813d d594 0abc 1358 34bb e4c6 ddbb
00000070: acb0 573c 4068 0fbe 2c13 76bd 3fc8 dc3b
00000080: 8570 14bd fe2e 8f3d f733 793d e3aa 6e3e
00000090: a193 753b 9800 08be a474 fabc fc6e 22be
000000a0: a131 45bd bdf9 dbbd bf0c 083e f322 503d
000000b0: 7802 12bd 6787 06bc 27dc cb3d dd4c 8fbd
000000c0: c437 c73d 5e99 de3d 16d2 85bd fe0d 09bd
000000d0: 3c39 653d 66ad 9ebd d0c2 c63d ee9b cbbd
000000e0: 0320 54bd f04b cb3d e6ec e13d beaf 15be
000000f0: eabb 15bd 2154 80be 4c06 103c 9f16 9d3d
00000100: 9c25 3dbd 070c af3d 9048 443e 9ce8 2dbc
00000110: efd6 7d3e c42c 763d d458 843d 28aa 953d
00000120: 0d66 1cbd 1bb4 ab3c 64c0 503d 5314 a2bd
00000130: 3ff2 1cbe a3dd a2bd 12ce e4bd 9bf0 2c3d
00000140: 8ee5 bebd 16a1 51be 451f debd f200 b43c
00000150: d805 863d 63ef 9b3c 0593 83bc 138c bf3d
00000160: 9b0d 30bd 8022 9739 fd24 dcbd 5f83 e1bd
00000170: 0805 013e 7e5e 553d f31e d4bd 0781 d4bd
00000180: b9ad d43c 851d abbc 4d27 853e 2545 b43d
00000190: cafa 9fbd da9a da3d f4de a8bc 1740 c5bd
000001a0: 8257 ee3b bd78 8a3c 1e72 4e3d 1646 0d3e
000001b0: 9645 3abd cb4f 82bd 948b ffbd df99 5c3d
000001c0: 980f c43c 37f6 923d 130c 67bd 8f66 44bd
000001d0: 8541 7bbd b9c2 2e3e 5511 9e3b c17d eabc
000001e0: fdc7 b73d c66a d7bc 3310 393e 25b1 fdbc
000001f0: ab32 1a3e 2ad3 eabb 146c f83d 8110 203d
00000200: 5398 393c 2453 4b3d 9c66 133e c15d 063d
00000210: 1d2a bfbd a327 c6bd d143 523d 6e1d 88bd
00000220: 2861 c03c 3dfe 1ebe 46e4 973d ac0c b5b8
00000230: cdd4 e73d 9dc3 00be a7a3 59bd bd42 343e
00000240: b79b 463d 0713 973d 0721 d73d c0cf c8bd
00000250: 8fac 183d 38a6 9dbc 8919 4cbe f138 d0bd
00000260: 6235 a7bd b0e8 f3bd 9034 4a3d 83be 8c3d
00000270: fb15 16be 58b1 c6bc 1f2c 423e 853a 2b3e
00000280: a611 313c 5fca 2a3d 8e13 2ebd 2fd2 15bc
00000290: 60a8 293b 1c93 293d 0bc6 abbd a579 48bd
000002a0: 15b9 e2bd 1e6f dd3c bd42 c8bc 346d 903c
000002b0: a899 273d 4b96 c2bd d66e 2fbd 2bfe 4fbe
000002c0: 6d22 e7bd 5a81 543d 897e d3ba c86f f1bd
000002d0: b66b 943d 049d a4bd 5695 3c3e 9313 8f3d
000002e0: f508 b9bd a9e3 cfbd 0a67 1ebc 7272 cabd
000002f0: b965 cbbd 83db 763d 2316 7ebd d7a2 1abe
00000300: e861 e43d 35a4 313d 92d9 853d d140 5f3d
00000310: 87dc 04bc bf67 21bd 5752 a4bd 2a88 eabc
00000320: 45c9 c4bc d2ca 903d b134 3dbd 414b 48bd
00000330: 1f63 91bd 319f 1c3d 3a43 063e 06ee e7bc
00000340: 6d5d 383e e553 a7bd 2d84 14be a6ae b8bc
00000350: cc2a 0fbe 1349 0d3e d3c9 c1bd c28b d8bd
00000360: 6f13 8a3d afe4 f83c e60b 83bc 175a 093e
00000370: 5130 b5bd 872b 593d fd0d 70bb 45e6 91bd
00000380: 50fb 13be ad20 783d ddb3 9b3c f5dc 8bbc
00000390: cf31 a0bd 259a 6fbd fa62 99bb 877e 8e3d
000003a0: 16cd 31bd 1822 b23c ccff 0fbe 87e9 a8bb
000003b0: c0ea 223d 5b47 103e 28f1 8ebd 3d09 8fba
000003c0: 0e8d e73d 6a8c db3d 6933 3abd c58a 39be
000003d0: 284f e9bc cc11 523d 9ff7 93bc 39ba 453d
000003e0: a552 3a3e 8bec 4ebd 9864 dc3d aac0 be3c
000003f0: 962e d6bc 9ed5 ac3d 185e c63d 1001 323d

hidden.2.bias f4 [99]
0.08033785 -0.059953038 0.017001493 0.018829366 -0.12908301 0.0856588 -0.023197373 -0.047728185
-0.1033089 0.070513785 0.069766626 0.13599406 -0.019722363 0.026984433 0.06954255 0.098569736
-0.04768533 0.017591884 0.08087113 -0.0074830586 0.09604719 -0.009316153 0.09103836 0.08594881
-0.05285821 0.041177765 0.0957574 -0.017700916 -0.037299458 0.04478564 0.00056747906 -0.027014941
0.05440181 -0.079605214 0.087440535 -0.021887861 -0.00035312632 -0.025907489 0.06797912 -0.05314498
0.15070318 0.07481451 0.09224257 -0.1457498 -0.016086286 -0.090164274 0.12397675 -0.091441855
-0.012107528 0.075106345 0.02374076 0.047409724 -0.042690534 0.016963227 0.08645213 0.03978906
-0.073361285 -0.052407585 -0.08384898 -0.012244592 -0.08849184 0.12267655 0.017193424 0.11037152
0.0012134408 -0.10865009 0.092076 -0.03302789 0.011159117 -0.014070567 0.087496504 0.11507897
0.0850917 0.07251368 -0.120160475 -0.1230283 -0.010289974 -0.12474051 -0.037504926 0.04896893
0.0005595131 0.07389479 -0.109674364 0.0052804304 0.1544126 0.090742975 -0.11230089 0.008593211
-0.037312772 0.108387955 -0.03202057 -0.00037088798 0.053418476 -0.07398803 -0.011972981 0.0011841616
0.016668363 0.04970469 -0.0385184
00000000: 2c88 a43d 5191 75bd b746 8b3c 0b40 9a3c
00000010: 562e 04be e26d af3d 6b08 bebc a17e 43bd
00000020: 9e93 d3bd 8869 903d cee1 8e3d 0742 0b3e
00000030: cb90 a1bc 750e dd3c 536c 8e3d eede c93d
00000040: b151 43bd db1c 903c c39f a53d 7234 f5bb
00000050: 64b4 c43d c7a2 18bc 5272 ba3d ee05 b03d
00000060: da81 58bd 04aa 283d 751c c43d 8301 91bc
00000070: 51c7 18bd 2671 373d e0c2 143a 704e ddbc
00000080: 6fd4 5e3d 0f08 a3bd 0614 b33d 2c4e b3bc
00000090: d023 b9b9 f13b d4bc a338 8b3d 8dae 59bd
000000a0: ef51 1a3e 5a38 993d ace9 bc3d 703f 15be
000000b0: 63c7 83bc 0ca8 b8bd 86e7 fd3d de45 bbbd
000000c0: a75e 46bc 5bd1 993d fb7b c23c b330 423d
000000d0: 45dc 2ebd 77f6 8a3c d00d b13d daf9 223d
000000e0: 713e 96bd 56a9 56bd 04b9 abbd 8b9d 48bc
000000f0: 363b b5bd d83d fb3d 39d9 8c3c 770a e23d
00000100: 510c 9f3a f083 debd 5892 bc3d 4148 07bd
00000110: bbd4 363c 3c88 66bc 5e31 b33d 86ae eb3d
00000120: 8f44 ae3d 0d82 943d b216 f6bd 43f6 fbbd
00000130: 4797 28bc f477 ffbd c49e 19bd a593 483d
00000140: 4aac 123a 2756 973d f49c e0bd 7607 ad3b
00000150: 561e 1e3e 74d7 b93d 02fe e5bd 8aca 0c3c
00000160: 47d5 18bd 81fa dd3d 0028 03bd be73 c2b9
00000170: 55cd 5a3d 0987 97bd 522a 44bc df35 9b3a
00000180: 178c 883c 2597 4b3d 78c5 1dbd

hidden.3.weight f4 [99, 99]
-0.047263194 0.06886238 -0.03757395 0.010293462 0.07238306 0.008369382 -0.031705976 0.11202775
-0.022634398 -0.05386047 -0.062583335 0.091853194 0.037481584 -0.08344863 0.14730766 0.131205
-0.092476115 -0.15242752 -0.0026571457 0.075358085 -0.12623276 0.078010604 0.046588797 0.04678954
0.04103081 0.12297008 -0.1670693 0.01848808 -0.069156244 -0.06998832 -0.019221194 0.012837101
0.09500985 -0.05961727 -0.16337003 0.026586462 -0.1604145 0.085628666 0.0620532 0.08598359
-0.08057872 -0.20307873 0.06964483 0.089829214 0.08602529 0.072455935 0.021544136 0.16249472
0.050964247 0.05061796 0.027589617 -0.009128893 -0.116079874 0.020464893 -0.12557201 -0.104546815
-0.10223691 -0.06396848 -0.032504816 -0.11138923 0.0060522333 0.00060856907 0.11125854 -0.08244521
-0.116132185 -0.008031714 -0.15294762 -0.12028131 -0.021821802 0.08569838 0.08267393 -0.04692475
0.08207589 0.07346683 -0.15452059 0.06400387 -0.07389456 0.029236697 0.15492693 -0.08855261
-0.041718174 0.060728937 -0.18404305 -0.07070994 -0.033272784 0.13028374 0.07095631 0.14656498
-0.10859683 0.097265586 0.049636 0.036986247 -0.021351721 -0.09957673 0.14037862 0.033384245
0.077203676 0.14509508 0.06869845 -0.106263086 0.17778003 -0.18739414 -0.003817436 0.007666116
0.10357953 -0.057301007 0.092804335 0.0885086 0.086643174 0.12000363 -0.021611113 0.059379265
0.06711945 -0.12660852 0.0014079643 0.16948992 0.12526882 0.06971748 -0.16382456 -0.07285261
0.1720853 0.17938408 -0.055598862 0.07711655 -0.10836614 -0.074856475 0.05255901 0.22828111
-0.050998297 0.060159784 0.09501576 0.058580622 -0.028281474 -0.074268594 -0.0343097 0.083475016
0.011925678 -0.009129256 0.06719558 0.13882166 -0.06921924 0.055690773 -0.08296262 0.08497259
0.023250379 -0.090203956 0.053035647 0.096307926 -0.08438155 0.012145217 -0.044977415 -0.040935136
-0.2000739 0.08501699 0.07601288 0.03477412 0.18811986 -0.03768559 0.10734213 -0.029570365
-0.02842402 -0.08897175 -0.01737383 0.15259145 0.06935223 -0.2674546 -0.16323356 -0.14293972
-0.008218795 0.013296198 0.104604475 -0.03618037 -0.033957336 -0.054790575 -0.049090907 -0.02876936
-0.16820176 -0.019341815 -0.08105306 -0.1046239 -0.10078093 0.17811313 -0.072681494 -0.0039509987
-0.03850602 0.048291538 0.011293576 0.13696492 -0.06249983 0.022907903 0.03580211 0.006221286
0.04044186 0.009656732 -0.10320542 0.11553767 0.0124123795 0.0008882274 -0.062390767 0.11243357
0.023549687 0.00443342 0.07439718 0.020489573 -0.08304319 0.037000675 0.052431453 -0.016014164
-0.020948274 0.051641654 0.035472717 0.14037564 0.018233774 -0.10368703 0.08959017 -0.080483034
-0.17609754 0.011380753 -0.046283644 -0.10652467 -0.13696392 0.19562377 -0.04014502 0.021320404
-0.14288604 -0.03100468 -0.08014484 -0.0063900873 -0.12639168 0.13080293 0.045496993 -0.053236347
0.024966573 -0.21070865 -0.1945538 0.06745353 0.06505595 0.14519702 -0.14593165 -0.032680914
0.09580601 -0.09588846 0.0042128526 0.06483515 0.029459395 -0.07774573 -0.07351049 -0.17239861
-0.09022661 0.033839107 -0.018788414 -0.082482375 -0.11181111 -0.04999485 -0.058893446 -0.21797208
00000000: 0d97 41bd b807 8d3d 24e7 19bd e9a5 283c
00000010: 923d 943d bb1f 093c 20de 01bd ce6e e53d
00000020: c66b b9bc cc9c 5cbd b12b 80bd 871d bc3d
00000030: 4a86 193d 1ee7 aabd d2d7 163e 9b5a 063e
00000040: 1e64 bdbd f615 1cbe 8223 2ebb 5755 9a3d
00000050: 2943 01be 06c4 9f3d e5d3 3e3d 64a6 3f3d
00000060: ec0f 283d bdd7 fb3d 3714 2bbe 5074 973c
00000070: caa1 8dbd 0956 8fbd c475 9dbc b452 523c
00000080: 8694 c23d 3d31 74bd 794a 27be dacb d93c
00000090: b343 24be 155e af3d 7f2b 7e3d 2a18 b03d
000000a0: 7506 a5bd dff3 4fbe f3a1 8e3d 61f8 b73d
000000b0: 072e b03d c763 943d 547d b03c 0465 263e
000000c0: e3bf 503d c754 4f3d 9f03 e23c 5a91 15bc
000000d0: 49bb edbd fea5 a73c f395 00be a41c d6bd
000000e0: 9661 d1bd e801 83bd c523 05bd 0920 e4bd
000000f0: d051 c63b 6188 1f3a 84db e33d 09d9 a8bd
00000100: b6d6 edbd 7397 03bc 4d9e 1cbe 0c56 f6bd
00000110: a3c3 b2bc a282 af3d f350 a93d 2b34 40bd
00000120: 6717 a83d c775 963d a53a 1ebe 7614 833d
00000130: 0856 97bd cc81 ef3c 2aa5 1e3e 125b b5bd
00000140: ade0 2abd e8be 783d c875 3cbe 5fd0 90bd
00000150: 0b49 08bd 1a69 053e 8b51 913d 2115 163e
00000160: 0468 debd 2e33 c73d 1e4f 4b3d e47e 173d
00000170: cee9 aebc e2ee cbbd 6abf 0f3e ebbd 083d
00000180: f61c 9e3d ce93 143e c6b1 8c3d 76a0 d9bd
00000190: f80b 363e 40e4 3fbe f32d 7abb 0b34 fb3b
000001a0: 8121 d43d 76b4 6abd 3310 be3d ff43 b53d
000001b0: fa71 b13d 77c4 f53d ca09 b1bc ac37 733d
000001c0: ec75 893d aaa5 01be 718b b83a c48e 2d3e
000001d0: 7846 003e 0ac8 8e3d a0c1 27be c033 95bd
000001e0: 2137 303e 76b0 373e a2bb 63bd 48ef 9d3d
000001f0: 11ef ddbd 5a4e 99bd 1e48 573d 86c2 693e
00000200: 97e3 50bd 1b6a 763d 9f97 c23d 3cf2 6f3d
00000210: 8dae e7bc 221a 98bd 5488 0cbd f3f4 aa3d
00000220: eb63 433c e092 15bc d69d 893d 4427 0e3e
00000230: d1c2 8dbd 021c 643d 4ee8 a9bd 1c06 ae3d
00000240: 9477 be3c dabc b8bd e83b 593d 173d c53d
00000250: 3cd0 acbd bbfc 463c 3d3a 38bd 9aab 27bd
00000260: 2ce0 4cbe 631d ae3d a4ac 9b3d 4f6f 0e3d
00000270: 7ea2 403e 355c 1abd 31d6 db3d 8d3d f2bc
00000280: 7ed9 e8bc d236 b6bd 9053 8ebc ef40 1c3e
00000290: 8b08 8e3d cfef 88be b326 27be ca5e 12be
000002a0: 20a8 06bc 4cd8 593c df3a d63d de31 14bd
000002b0: d916 0bbd 156c 60bd 8c13 49bd b9ad ebbc
000002c0: 153d 2cbe ba72 9ebc 26ff a5bd 0e45 d6bd
000002d0: 3b66 cebd 4a63 363e 09da 94bd 6177 81bb
000002e0: 7db8 1dbd 59cd 453d b108 393c 8840 0c3e
000002f0: d2ff 7fbd 5ba9 bb3c 3ca5 123d eedb cb3b
00000300: 5da6 253d 4537 1e3c 5d5d d3bd 049f ec3d
00000310: 4b5d 4b3c efd7 683a 768d 7fbd 9243 e63d
00000320: 46eb c03c 3946 913b 8c5d 983d c0d9 a73c
00000330: 8c12 aabd 058e 173d 5dc2 563d 2330 83bc
00000340: b79b abbc 3386 533d d74b 113d a2be 0f3e
00000350: ff5e 953c de59 d4bd 0d7b b73d 4ad4 a4bd
00000360: ea52 34be 5676 3a3c eb93 3dbd 9b29 dabd
00000370: 4540 0cbe 9951 483e 1b6f 24bd 21a8 ae3c
00000380: b850 12be 87fd fdbc fa22 a4bd f063 d1bb
00000390: d26c 01be 34f1 053e 0e5b 3a3d 5b0e 5abd
000003a0: b386 cc3c 02c4 57be 1d39 47be 1425 8a3d
000003b0: 0e3c 853d 87ae 143e 1b6f 15be 6cdc 05bd
000003c0: f135 c43d 2b61 c4bd f80b 8a3b 4bc8 843d
000003d0: d454 f13c 2739 9fbd ab8c 96bd 4389 30be
000003e0: bbc8 b8bd e09a 0a3d 29ea 99bc 85ec a8bd
000003f0: 39fd e4bd 66c7 4cbd 413a 71bd 1334 5fbe

hidden.3.bias f4 [99]
0.08482911 -0.08555004 0.090488136 0.042244136 -0.069105715 -0.077162124 -0.049117997 0.11515239
0.026098402 -0.04450569 -0.032191772 -0.08555472 0.05266193 -0.04514736 -0.013572692 -0.04206668
0.047625154 -0.029909303 1.47794e-05 -0.093037166 0.06467483 -0.04074705 0.04840427 -0.058497194
-0.07229734 -0.19454813 0.12413301 -0.14929383 -0.05110485 0.0018631396 -0.004238287 0.022409422
0.119197905 0.08054233 -0.03333917 -0.024365487 -0.032828145 0.032027416 0.003701875 0.10701398
0.0066542793 -0.017770523 -0.055384677 -0.060240973 -0.033538036 -0.051145136 0.066550404 -0.05770263
0.06700134 0.08261796 0.05352023 0.0048170653 -0.0875413 -0.09076458 0.075667754 -0.012898603
0.036258623 0.06832581 -0.004973304 0.07944514 -0.08108791 0.0871122 0.01820598 -0.045737687
-0.12225309 -0.05517972 0.0840802 0.06340408 -0.028777791 0.027988931 0.05071029 -0.07306761
-0.017669177 0.005262973 0.07564418 -0.12471015 0.037917357 -0.028010694 -0.047345545 -0.076423295
-0.11914227 -0.044281956 0.007423601 -0.048355907 0.11115315 -0.03971102 -0.0644424 0.073121786
-0.08290567 -0.009379132 -0.025713919 -0.10766987 -0.0017729835 -0.026029393 0.055370305 -0.0023545772
0.0796314 0.08594134 -0.06426067
00000000: e2ba ad3d dc34 afbd d851 b93d 3008 2d3d
00000010: 4c87 8dbd 2d07 9ebd f42f 49bd 04d5 eb3d
00000020: 51cc d53c 994b 36bd 85db 03bd 5037 afbd
00000030: 09b4 573d 70ec 38bd ff5f 5ebc 1c4e 2cbd
00000040: 9812 433d 5b04 f5bc 0af5 7737 458a bebd
00000050: 3d74 843d 61e6 26bd 8e43 463d c19a 6fbd
00000060: a110 94bd a037 47be 7339 fe3d 7be0 18be
00000070: 5253 51bd 9734 f43a 54e1 8abb f793 b73c
00000080: 081e f43d 61f3 a43d a78e 08bd 219a c7bc
00000090: ce76 06bd 2e2f 033d 289b 723b 252a db3d
000000a0: 240c da3b 7d93 91bc 0bdb 62bd 3dbf 76bd
000000b0: 2e5f 09bd 907d 51bd 944b 883d 9859 6cbd
000000c0: 0038 893d 9b33 a93d 0738 5b3d 79d8 9d3b
000000d0: da48 b3bd c8e2 b9bd b2f7 9a3d aa54 53bc
000000e0: ec83 143d 67ee 8b3d 19f7 a2bb 22b4 a23d
000000f0: 6b11 a6bd e267 b23d b524 953c 7157 3bbd
00000100: d45f fabd 2104 62bd 3d32 ac3d 00da 813d
00000110: 67bf ebbc 0b49 e53c 98b5 4f3d 79a4 95bd
00000120: f3be 90bc 0475 ac3b 56eb 9a3d 0968 ffbd
00000130: 3b4f 1b3d af76 e5bc 67ed 41bd d183 9cbd
00000140: dd00 f4bd ff60 35bd ae41 f33b d810 46bd
00000150: 43a4 e33d 06a8 22bd 61fa 83bd e0c0 953d
00000160: 73ca a9bd eeaa 19bc ffa5 d2bc 0582 dcbd
00000170: 7463 e8ba 983b d5bc f9cb 623d 404f 1abb
00000180: ca15 a33d 0302 b03d 199b 83bd

output_layer.weight f4 [49, 99]
-0.013754659 0.0640074 -0.036915213 -0.06270381 0.016287064 -0.016453385 -0.03298775 0.12386841
0.055439815 -0.05210054 -0.10294526 0.004646858 -0.06071273 -0.006128313 0.107709154 0.09504383
-0.065533586 0.007027595 0.010085257 -0.020487525 -0.07746546 -0.13820978 0.01381166 0.011482396
0.03977294 0.08012244 -0.14617392 0.021836407 -0.016633406 -0.09463523 0.06580263 0.13013475
0.05541601 0.045814514 0.13865711 0.034528617 0.03272262 0.0290205 0.07133607 0.003045283
0.05445137 -0.04327159 0.026483255 -0.035908 0.052798506 0.01103879 0.10154502 0.03660536
-0.04478599 -0.053698584 0.046291143 0.10562235 -0.030608153 0.004444356 -0.08843781 -0.015195244
-0.029700086 -0.015726471 0.07864544 0.056667387 0.069677636 -0.05037997 -0.059431214 -0.0028634018
0.08903783 -0.0728815 -0.07871756 0.018068843 0.040747654 -0.05925788 0.0001409455 -0.019106923
0.031526223 -0.031765185 -0.0487867 0.09305634 0.035401393 -0.014413138 1.8358402e-05 -0.059310492
-0.0050132 0.10188346 0.0028371224 0.124237075 0.07625732 -0.06301425 -0.007730549 -0.03533183
-0.08987087 -0.012380323 0.016423572 0.037887722 -0.007773908 -0.039061747 0.12480041 -0.049356803
-0.045120243 -0.017058054 0.027281068 0.077644855 -0.0032554185 -0.07607059 -0.039580666 -0.059831187
0.09399523 -0.008291875 -0.036030628 -0.030728508 -0.018423326 -0.002736072 0.02685104 -0.02017353
-0.0065011075 0.07204693 0.080354065 -0.09394728 -0.0056639244 -0.027230643 0.038058 -0.084073626
-0.078669064 -0.052972298 0.11765955 0.020239772 0.09548754 0.045056555 -0.015182531 0.071669325
-0.123373516 -0.106253885 -0.07814565 -0.040825482 -2.726537e-05 -0.0013833365 -0.001314089 -0.017235385
-0.050883964 -0.10374869 -0.10867799 -0.017049575 0.04250257 0.14419594 0.02561152 -0.05416621
-0.05065231 0.018106306 0.00676153 -0.08045136 -0.051810186 -0.010805493 0.07030952 0.05025404
-0.12504633 0.03507389 0.020551972 -0.08842166 0.06434565 0.017593374 -0.0770092 0.060447633
0.034116812 -0.014540678 0.074486926 -0.048012063 -0.00232786 0.038047887 -0.051884886 -0.031719286
-0.078855745 -0.031142645 0.03203019 -0.04352024 0.09518647 0.066430554 0.1105337 -0.097859666
-0.09639736 -0.051435374 -0.124851204 -0.025537001 0.030440751 0.033562426 0.032157727 -0.0348857
0.1387984 0.08572599 -0.0014878439 0.018299563 0.028139245 -0.041227564 -0.03537728 -0.11151343
-0.008416138 0.08342004 0.07506408 -0.071166985 -0.09848409 0.13337828 -0.044620417 0.013463299
-0.039917577 -0.07448384 0.09117468 -0.062155206 -0.12482899 0.071446314 0.046533745 -0.0117284525
-0.10608841 0.023263084 -8.131021e-05 0.027859937 -0.109648116 0.05445705 -0.07027148 -0.05002314
0.04769432 -0.036735583 0.0701814 0.07919981 -0.08408728 -0.029664021 -0.029648177 0.0033209722
-0.015297659 -0.08235181 -0.042076778 0.08073665 0.08459349 -0.033981558 -0.06584056 -0.041082412
0.036222983 -0.025416551 0.02117383 0.018079352 0.06539297 -0.0840188 -0.009846605 0.029002395
0.07483954 0.11559939 0.024024472 0.038478084 -0.05455442 0.049263593 -0.13813347 0.027042387
0.017737351 0.124592364 0.014851505 -0.0007433263 0.009930804 -0.00054814667 -0.041491404 -0.08669259
00000000: 395b 61bc 5016 833d 6834 17bd db6a 80bd
00000010: 736c 853c 40c9 86bc 2a1e 07bd b9ae fd3d
00000020: dc14 633d 6067 55bd f7d4 d2bd ac44 983b
00000030: e9ad 78bd 04d0 c8bb 9e96 dc3d 57a6 c23d
00000040: 7936 86bd bd47 e63b a23c 253c 74d5 a7bc
00000050: 36a6 9ebd dd86 0dbe 4d4a 623c a920 3c3c
00000060: f3e8 223d 3c17 a43d 9eae 15be 44e2 b23c
00000070: c842 88bc 1ed0 c1bd 87c3 863d 0b42 053e
00000080: e6fb 623d 00a8 3b3d 21fc 0d3e e16d 0d3d
00000090: 2708 063d 66bc ed3c a518 923d 5f93 473b
000000a0: 6608 5f3d 8d3d 31bd 69f3 d83c 4414 13bd
000000b0: 3f43 583d 0bdc 343c d6f6 cf3d 81ef 153d
000000c0: 8471 37bd 0cf3 5bbd c89b 3d3d 8850 d83d
000000d0: f3bd fabc f6a1 913b e21e b5bd 79f5 78bc
000000e0: 984d f3bc cdd4 80bc dc10 a13d 101c 683d
000000f0: 26b3 8e3d 3a5b 4ebd 256e 73bd e9a7 3bbb
00000100: 7759 b63d e542 95bd ac36 a1bd 1c05 943c
00000110: 03e7 263d 64b8 72bd c5ca 1339 1f86 9cbc
00000120: a421 013d 361c 02bd 90d4 47bd 5394 be3d
00000130: 0d01 113d 1525 6cbc 5e00 9a37 8fef 72bd
00000140: c545 a4bb 47a8 d03d 04ef 393b 0270 fe3d
00000150: cc2c 9c3d 9d0d 81bd 8c50 fdbb 1cb8 10bd
00000160: 380e b8bd d7d6 4abc ba8a 863c 2830 1b3d
00000170: 44bc febb 36ff 1fbd 5b97 ff3d 5c2a 4abd
00000180: 01d0 38bd 55bd 8bbc 8c7c df3c 4404 9f3d
00000190: dc58 55bb e6ca 9bbd 561f 22bd 8c11 75bd
000001a0: 9280 c03d a5da 07bc da94 13bd 5aba fbbc
000001b0: 84ec 96bc ac4f 33bb b6f6 db3c f542 a5bc
000001c0: 3e07 d5bb 578d 933d ac90 a43d 6e67 c0bd
000001d0: 7198 b9bb cc12 dfbc b5e2 1b3d cb2e acbd
000001e0: 3f1d a1bd 7bf9 58bd 7df7 f03d e1cd a53c
000001f0: f98e c33d 398d 383d 27c0 78bc 5ec7 923d
00000200: 41ab fcbd a39b d9bd d40a a0bd 9f38 27bd
00000210: f0b7 e4b7 1251 b5ba 833d acba 3931 8dbc
00000220: b46b 50bd 317a d4bd 9192 debd 8dab 8bbc
00000230: 2d17 2e3d 1aa8 133e 40cf d13c 63dd 5dbd
00000240: cc78 4fbd ad53 943c d38f dd3b afc3 a4bd
00000250: eb36 54bd 8609 31bc 70fe 8f3d 2ed7 4d3d
00000260: 250c 00be a4a9 0f3d 9c5c a83c 6a16 b5bd
00000270: a7c7 833d fb1f 903c 00b7 9dbd f097 773d
00000280: 12be 0b3d 063c 6ebc 9a8c 983d 4ca8 44bd
00000290: 038f 18bb 1ad8 1b3d 3f85 54bd 15ec 01bd
000002a0: 1f7f a1bd dc1e ffbc 1732 033d 4742 32bd
000002b0: 20f1 c23d be0c 883d 7e5f e23d a66a c8bd
000002c0: fb6b c5bd e6ad 52bd fdb1 ffbd f932 d1bc
000002d0: e25e f93c c178 093d d2b7 033d 4fe4 0ebd
000002e0: 2b21 0e3e 1c91 af3d c203 c3ba f7e8 953c
000002f0: 4684 e63c 3cde 28bd c4e7 10bd 2761 e4bd
00000300: d7e3 09bc 20d8 aa3d 32bb 993d ffbf 91bd
00000310: 07b2 c9bd 5194 083e e6c3 36bd 2b95 5c3c
00000320: 9d80 23bd fc8a 98bd cab9 ba3d 7596 7ebd
00000330: 57a6 ffbd 7252 923d 2b9a 3e3d b228 40bc
00000340: e144 d9bd 3992 be3c 1685 aab8 863a e43c
00000350: 318f e0bd 5b0e 5f3d 7eea 8fbd 10e5 4cbd
00000360: 1f5b 433d 0d78 16bd 44bb 8f3d 8333 a23d
00000370: f435 acbd f601 f3bc bce0 f2bc aba4 593b
00000380: 08a3 7abc 11a8 a8bd b358 2cbd 4259 a53d
00000390: 5a3f ad3d 3f30 0bbd 6ad7 86bd 0846 28bd
000003a0: 8d5e 143d 5f36 d0bc bd74 ad3c 261b 943c
000003b0: c0ec 853d 0c12 acbd a853 21bc 6e96 ed3c
000003c0: 7945 993d 5fbf ec3d f8ce c43c 329b 1d3d
000003d0: 7574 5fbd 9fc8 493d dc72 0dbe ff87 dd3c
000003e0: ec4d 913c 482a ff3d ba53 733c c9db 42ba
000003f0: d0b4 223c 80b1 0fba e4f2 29bd e28b b1bd
