models/7x7-4-99-tanh/65episodes.pth (torch, 202338 bytes, 12 tensors)

input_layer.weight f4 [99, 50]
00000000: 39ad ed3d ff2d 27be 081d efbd bf9a 27be
00000010: d1d2 1ebe 7a26 dbbd df01 12be 349f 983d
00000020: c9e9 54bd f4f4 1b3d b5cb 8f3c cdd1 de3d
00000030: d81f 2fbd 0586 03be e5f9 a9bd 9a17 753d
00000040: 4834 033d 30e5 d83c 5e7b 003e 3971 fa3c
00000050: a2e3 25be 91ff 303e fe52 c63a 2a79 3b3c
00000060: f86b a63c 1550 063e f00d cfbd 5d0f 15be
00000070: 278f 02be a058 863d d2f5 e3bd 624e e5bd
00000080: 3dd8 87bc a56b 4dbd 62d0 edbd 7907 8dbb
00000090: 717d f2bc 40a1 863d d33a d7bd ca80 12be
000000a0: 2371 8d3d 9d8d 91bc 0713 443d 5b39 903c
000000b0: d7c0 aabd 3bd7 173e 7046 c23c ca18 0ebe
000000c0: eada 88bc ba57 be3d 7101 193d 0587 05be
000000d0: b13d 3c3d 098f d5bd 4c5b 58bd f877 043e
000000e0: 0720 ba3d 6c11 aa3d cc09 e4bd f30a 74bb
000000f0: 4e41 9ebd f3fc d9bd d606 183e ad2b d1bd
00000100: a532 003d cc2f ca3c 1ce8 f2bc 8dc2 003e
00000110: a5a8 e3bd 250f 443c 0fb2 6e3d 44f0 43bd
00000120: c6cc 83bd 26e1 0abc 6f30 9ebd 4e70 2bbd
00000130: 5825 23be c788 ea3c 5db9 9e3d b987 13be
00000140: 1658 4a3b 91e8 8a3d 5654 6d3d 05c0 fcbc
00000150: 5e9a 98bd dbc9 3cbe b0f5 d6bd 17f8 cfba
00000160: 0b2e b53d 188a 613c 3543 eabd 8f72 a0bd
00000170: 5008 49bd 6657 e2bc 6ba8 7b3b c8bd 333a
00000180: afb0 2fbd fc5c 7fbd b5f3 e73c dad9 bebb
00000190: 3436 0abe 5dbb 30bd 1b3c cabd 02bb a43d
000001a0: 0fd4 ea3c 379c e33d cec3 51bd 8203 393b
000001b0: e8ec 233e 5e1c edbd 70f8 c1bd 3024 29be
000001c0: 53ff 0c3d e9b0 a33d 15b8 d6bc e0e4 923d
000001d0: 21da 80bd bce5 043e bfd0 0b3e ccab ca3d
000001e0: 5a2e c4bb 4f0e 0e3e e0b3 8fbd fe71 80bd
000001f0: bc2e e43d c4b8 d13c 2711 2fbe a2d5 81bd
00000200: 69f0 333d 0e35 68bd bfef 663d 907c 7fbd
00000210: 18b9 4b3d 542c 82bd cd32 a93b 437d c73d
00000220: c622 f3bd 2c7c d4bd 4aea e1bd 33b5 d93d
00000230: cd8c 75ba a61e ddbd 5ff4 073d f9ce d43d
00000240: 1897 7fbd 30fd 3b3d 25c1 d83d a1dc bcbd
00000250: e827 f83c 2ab1 93bd 11a7 7c3c 0ad7 6abd
00000260: 3abb d8bd 3e5e 3d3c 2cb4 6ebd 99cf d2bc
00000270: 41e5 f83b deb5 793d ee26 60bd e579 ef3d
00000280: 3ba5 0a3e 0f80 e5bd 99cb 7f3d 298b 08bd
00000290: 8694 123e 419d 073e da9a bc3c 5404 043e
000002a0: 8d62 e23b 6dc6 41bd 3b38 21be 0904 fa3d
000002b0: 4b60 5fbd 4ee0 3ebd ec1c 5bbc 3e46 b0bd
000002c0: 301f 7abd 6fbe 22bd 1970 28be fd89 6fbd
000002d0: 4bfe 9f3d 77c3 77bc d7e2 dfbd fa5d 67bd
000002e0: 45ec fcbd 6381 5a3d 1336 963d 12b5 5cbc
000002f0: 4724 fa3d 3371 5dbc 043d 193d b251 3e3c
00000300: 026f a3bb 3216 31bd 7fc7 3d3c 91ef c93d
00000310: 1f3e 97bd 802d 5abd 467f 5c3d c0a9 a2bd
00000320: 6cb0 ffbd 8eee c1bd 1c6d 5cbc 50f0 cc3d
00000330: a71e 133d 2e75 843d 5622 c8bd 6077 a6bd
00000340: b357 e23c e859 23bd b2c0 d53c 203d d73d
00000350: 5751 85bc 9e61 19bd 4e6a 06be 530c 82bd
00000360: 471f 043e a3e8 d13d 9c35 60bd 55b2 29be
00000370: 3308 203b e985 ff3d 905e afbd 1309 123e
00000380: 1edf edbd 6a7f e73c b0e6 a23d d0a5 acbd
00000390: ff2e bd3d ab4b fabd 5250 023c 48a2 eb3d
000003a0: cd2a a8bc 500d dabc 5852 d13d 00e7 4c3d
000003b0: 6c04 143d c4ab be3b fb91 52bd 2e13 963d
000003c0: b261 babd f7ed a3bd 1121 8abc 73e3 883d
000003d0: b33b 23bd 0575 a2bd ac06 833c 5578 0fbe
000003e0: a67b d0bc 43bd 9d3d eb52 9dbd 85b9 b3bd
000003f0: 54b5 3abd 6a55 c8bd 2551 803c 4d6a 93bd
0.11605305 -0.1632614 -0.11675459 -0.16367625 -0.15510108 -0.10700698 -0.14258526 0.074522406
-0.051980767 0.038075402 0.01755319 0.1087986 -0.042754978 -0.12844093 -0.08299617 0.05983696
0.03203228 0.026476473 0.12547061 0.030571567 -0.16200116 0.17284991 0.0015130935 0.011442462
0.020315155 0.13116486 -0.1011008 -0.14556642 -0.12749921 0.065598726 -0.11130871 -0.11196591
-0.016582603 -0.050151486 -0.116120115 -0.0043038693 -0.02960083 0.06573725 -0.10509267 -0.14306942
0.06906345 -0.017767722 0.04786971 0.017605474 -0.083375625 0.14828198 0.023715228 -0.13876644
-0.016705949 0.09294076 0.03735489 -0.13039787 0.04595727 -0.104276724 -0.052821442 0.1293639
0.0908814 0.08304104 -0.11134681 -0.0037237972 -0.077273 -0.10643949 0.14846358 -0.102134086
0.0312983 0.024680994 -0.029651694 0.12574215 -0.11116151 0.011966501 0.05827528 -0.047836557
-0.06435542 -0.008476531 -0.07724082 -0.04185515 -0.15932214 0.028629674 0.07750199 -0.14407243
0.0030875257 0.0678264 0.057941757 -0.03085328 -0.07451318 -0.18436377 -0.1049608 -0.0015866783
0.088466726 0.013765834 -0.114386 -0.0783435 -0.049080193 -0.027629565 0.0038399945 0.0006856588
-0.042893108 -0.062344536 0.02831445 -0.00582431 -0.1349724 -0.043147434 -0.098747455 0.080434814
0.02866557 0.1111378 -0.051212125 0.002823085 0.16008341 -0.11577676 -0.09471214 -0.1651771
0.034423184 0.07992727 -0.026210824 0.07172561 -0.06291605 0.12978262 0.13653849 0.09896049
-0.005986971 0.13872646 -0.0701673 -0.06271742 0.111417264 0.025600798 -0.17096387 -0.06339575
0.043930445 -0.056691222 0.056380983 -0.06237465 0.049737066 -0.06356111 0.0051635266 0.09740689
-0.11871867 -0.103752464 -0.11031015 0.10630264 -0.0009366989 -0.10796861 0.033192035 0.103910394
-0.062399954 0.045895755 0.105837144 -0.09221769 0.030292466 -0.07211526 0.015420691 -0.057333983
-0.10582586 0.011558114 -0.058277294 -0.025733756 0.0075956886 0.060964458 -0.054724626 0.116931714
0.13539593 -0.11206066 0.062450025 -0.03333584 0.1431447 0.13243581 0.023023058 0.12892276
0.006908721 -0.047308374 -0.15744106 0.12207801 -0.05453519 -0.046600632 -0.013373595 -0.08607148
-0.0610649 -0.039732393 -0.16449012 -0.058481205 0.078121744 -0.015122286 -0.10931938 -0.056486107
-0.12349752 0.05334605 0.073345326 -0.013470905 0.122139506 -0.013515758 0.037411705 0.011616157
-0.0049875984 -0.043234058 0.011583208 0.09860147 -0.073848955 -0.05326605 0.053832315 -0.079425335
-0.12484822 -0.09469329 -0.013453748 0.100067735 0.035917904 0.06467663 -0.09772174 -0.08128238
0.027629709 -0.039880663 0.02609286 0.105097055 -0.016274137 -0.03744661 -0.1312649 -0.06350007
0.12902556 0.1024945 -0.054738626 -0.16571935 0.002441895 0.12476713 -0.08562958 0.14261274
-0.11614822 0.028258998 0.079541564 -0.08430064 0.092374794 -0.12221464 0.00795372 0.11505562
-0.020528222 -0.026617676 0.10220784 0.050024986 0.03613703 0.005818816 -0.05140875 0.07327877
-0.09100665 -0.080043726 -0.01686147 0.066840075 -0.039851855 -0.07932476 0.015994392 -0.14010747
-0.025449585 0.077021144 -0.07681831 -0.087756194 -0.045583084 -0.097819164 0.015663693 -0.0719801

input_layer.bias f4 [99]
00000000: 84d7 463c 1082 ddbd c025 063e a9e9 29bc
00000010: 2f94 223e e376 c9bd 8cfd b0bd 59ba 053d
00000020: a39b b2bd eeb3 d33c aa08 08be 54bc 8a3c
00000030: 0cbe a2bd c6ca c23d 2d58 25bd fef9 4f3d
00000040: 549a a0bc 03e2 cabd 79db a9bd e00a 943d
00000050: 3dc3 553d e290 c73d c9a1 fa3d da57 c7bd
00000060: 0a55 cc3d 7bab 083e ab92 8cbd e664 e83d
00000070: 0d14 1cbd c471 87bd a760 b0bd 5c3f 71b9
00000080: 1ee8 9c3c 12c2 a8bd 99b2 c83c 20f5 da3d
00000090: d73d 27bd 64ff afbd b90f 09be 5ac0 6fbd
000000a0: cb23 e2bc b0fa ba3c 8b77 0b3e fb3c b5bd
000000b0: 9465 60bd ad97 9c3d d41d 773c 17b9 ba3d
000000c0: 32e7 c43d e580 55bc 9504 ca3d bf13 df3d
000000d0: c7f1 3a3d d1ee bbbc 5995 b8bd b6ec e0bd
000000e0: 7ea5 e2bd 9bdc e1bd aedf ddbd 45d3 15bd
000000f0: 4deb c83c 4160 c43d 5fbe b53c 15e6 ca3d
00000100: 9259 febd 3afb 08bd f9a3 cebd 64f8 fdbd
00000110: 0af5 00be ae73 00bd 046a cabd e041 043e
00000120: 22e2 3fbd 6e5e ce3d 57a9 cbbd fcfa 7abc
00000130: 6f30 b5bc 46d7 20be 833b bc3d aca5 86bd
00000140: 16da c63d 3186 d9bd cd56 f0bd 30bf fd3d
00000150: 3d85 f8bd f709 493d e990 dfbd f5d7 843d
00000160: a154 dbbd 662a 923c 733f ed3d 2a37 083e
00000170: ebd3 5f3d c0c2 bdbd e09c 83bb 879f f43d
00000180: a576 aabd ded0 f1bb 234a 8bbc
0.012136344 -0.10815823 0.13100338 -0.01037065 0.1587684 -0.09837129 -0.0864211 0.032648418
-0.087210916 0.025842633 -0.13284555 0.016935505 -0.07946405 0.09511332 -0.040367294 0.05077552
-0.01960484 -0.099063896 -0.08293814 0.07228637 0.052188147 0.09744431 0.12237889 -0.09733553
0.099771574 0.13346665 -0.06863912 0.1134737 -0.03810506 -0.06613496 -0.08612185 -0.00023007154
0.01915365 -0.08240141 0.024499224 0.10691285 -0.04083046 -0.08593634 -0.13384904 -0.05853305
-0.027604958 0.022824615 0.13619821 -0.08849522 -0.054784372 0.07646117 0.015082795 0.09117334
0.096144095 -0.013031219 0.09864155 0.10892438 0.045640733 -0.022941025 -0.09012861 -0.10982649
-0.110667214 -0.11028405 -0.10833679 -0.036578435 0.024526263 0.095886715 0.022185503 0.09907166
-0.12419428 -0.033442713 -0.10089869 -0.124008924 -0.12593475 -0.03136032 -0.09883502 0.12915754
-0.046846516 0.10076605 -0.099444084 -0.015318628 -0.022117821 -0.1570712 0.091910385 -0.06574568
0.09709565 -0.10621298 -0.11735306 0.12389982 -0.12134788 0.04908177 -0.10916311 0.06486503
-0.10709501 0.017842483 0.115843676 0.13302293 0.05464546 -0.09265661 -0.0040165037 0.1194449
-0.08323411 -0.0073796352 -0.017003125

hidden.0.weight f4 [99, 99]
00000000: 9521 febd c55f 7fbd ede3 203b 4050 cebd
00000010: 4b60 bb3d 71b5 e6bc 5a72 ed3c 72bd 493d
00000020: 3f05 19bd a969 903d 38e3 0f3c f332 b23c
00000030: a6ee 453d 3684 f53c f72e ce3b 39f7 d53d
00000040: 6fc0 d4bd 65d3 163c 0ca2 61bd 3a13 943c
00000050: 74d2 aebd ed99 e03c 3022 e33c 731c e03d
00000060: ccb3 cb3d ddd6 6b3d 9613 37bd a7f2 9fbc
00000070: 58fb bdbd dbe5 8dbd d445 d7bd ca13 5cbb
00000080: 1647 c4bd a14a 043d caab 323d e83c bc3d
00000090: 5de6 4c3d 2915 843d 5da0 a53c 9674 d83d
000000a0: d47f 0c3e 4bd5 043e 5756 1cbd cc83 423c
000000b0: fa9a 9e3d 2dcd 343d 1968 4dbd 4bc9 2bbb
000000c0: b550 0dbd 01a0 a5bd 6457 b0bd 018b a93d
000000d0: 5144 14bc 92bc 3d3d 488c e6bd eb61 2ebd
000000e0: cc11 5a3c 13a1 05bc 6f6a 4a3d 5f4c 8d3d
000000f0: e872 083e 33da d43d 3908 893d b1fe f63d
00000100: 08e0 86bd 41d1 61bd 72b0 8b3d d5ae bf3d
00000110: f639 883d 6d19 793d f484 deb9 a513 fb3d
00000120: f2f3 d13c 8bb6 87bd 2b11 743b 45da 073d
00000130: 03e1 abbd 9e1f dabc 27a4 c73d 1e12 d1bc
00000140: 8b51 4fbd 4b8b 9dbc 6f41 c6bc 0d2f ba3c
00000150: d7a4 cc3d e2fb 8bbd 2384 1abd 8dac 133c
00000160: 310c 93bd 6719 2c3d fc4b 123c 105d 8a3d
00000170: e1c1 8bbd 6d0e 643d e017 88bc 2f48 683d
00000180: 3e1e cf3d d568 e43d 094c 1cbd 4ade 403d
00000190: 7acf 463d d3c7 1fbd 6515 703d b5e3 293d
000001a0: fd93 9f3c 1634 833d 85cd 5f3d 380e f53d
000001b0: 8cf4 b2bc 3d78 c43d 43d0 d3bd 2b65 04bd
000001c0: b444 f0bd 0c80 4c3d 3caf 3ebd eace 22bd
000001d0: 6a04 323c 18b6 b3bd a8ef c43c 7e37 93bb
000001e0: 174a 5a3d b025 fdbd af96 88bc ab2d 7ebd
000001f0: e2cb e73c 9cca 08bd a335 a2bd c5de b7bd
00000200: 7388 513b cce7 9f3d 2361 dd3d 8a86 9ebd
00000210: 290b 9cbd b3f8 2fbd d5bc 84bd 1d2e f83d
00000220: 9ee7 683c d0a9 a13d cb3a b9bc 2dbe cc3d
00000230: e1e3 8fbd 5630 493d 5ed1 ae3d 2616 abbc
00000240: ed3e 53bd f663 b3bd 9309 96ba f60e edbd
00000250: 65b1 10bd 7804 373d 749e 553d 2d8a 203d
00000260: 76d7 9e3b 8902 84bd b1db ce3c 3839 2a3c
00000270: feb4 2bbd da05 8e3c 4674 873d ac55 76bd
00000280: ef0d 283d 6a8d c1bb 3b15 863d e88a adbc
00000290: a1ce 0b3d 6095 b03b 3f70 efbd f695 10bd
000002a0: c25c 4bbd 1aaf 94bd 1053 c2bd d756 98bb
000002b0: 34a5 39bb cad2 b0bd 4b3b b9bc 8a3a 983d
000002c0: ee66 d9bd 7910 d73c 254a 63bd 2d5c 4fbc
000002d0: b1bd dfbd c737 aebd 4f9b e8bc 60e1 c93d
000002e0: 1288 573b 7fbe af3d 9e9c b0bd eb96 05bc
000002f0: ae44 93bd d159 23bd 3a47 ff3b e887 963d
00000300: 38e1 82bc a215 c8bd de92 093d e060 443b
00000310: 6d59 b03d 02c4 913c 81d4 9cbd 2a46 bd3d
00000320: 1421 7cbd b840 adbb 8d77 a4bd 3200 883d
00000330: 0887 4dbd f792 013d 085f 483d bb3e 04be
00000340: 44f8 063e ea66 c53d b032 4fbd cf58 90bd
00000350: 410d dcbc b400 083e 8be7 8fbd 00e1 3ebd
00000360: 355f 6c3d 11e0 263c 41d9 2ebd 8613 7a3d
00000370: 8a1d 9f3d 59bc 973d 19b4 55bd 07e2 b73c
00000380: 908f 4fbc 4e57 e93c 4db2 d43c d642 8abd
00000390: ec36 adbd de0e 95bd 23a3 c43d ef16 39bd
000003a0: c01c 293d 7372 e53d 44a4 9ebd 8a0d e8bd
000003b0: 12f6 a2bd 6f18 923b 68ac 54bc 8bf7 ce3d
000003c0: 1b64 023d 226c 08bd bde1 c5bb 4c27 76bd
000003d0: 5884 15bc 57f7 333d 99c5 bc3d 2373 cfbc
000003e0: da1a a0bd 3d6b acbd f1b9 b33c bff4 26bd
000003f0: cd9c b5bd 794f 59bd b946 bcbd 8da0 38bd
-0.12408749 -0.062347192 0.0024549917 -0.100739 0.09149226 -0.02816269 0.028985191 0.049252935
-0.03735852 0.07051403 0.0087822005 0.02175281 0.048323296 0.02997027 0.0062922197 0.104475446
-0.10388266 0.009205674 -0.05508618 0.018075574 -0.085362345 0.027417148 0.027726263 0.10942926
0.09946403 0.057577956 -0.044696413 -0.019524885 -0.09276456 -0.06928607 -0.105113655 -0.003358113
-0.09583871 0.032297734 0.043620862 0.091913044 0.05002438 0.064493485 0.020218069 0.10569112
0.13720638 0.1297199 -0.038168278 0.011872243 0.07744403 0.044140983 -0.050148103 -0.002621251
-0.034500796 -0.08087159 -0.086104184 0.08278466 -0.009049491 0.046322413 -0.11257225 -0.04257385
0.013309907 -0.008156079 0.04941791 0.06899332 0.13325083 0.10393181 0.066910215 0.12060297
-0.06585699 -0.0551312 0.06820764 0.093595184 0.0665168 0.060815264 -0.00042442197 0.12259606
0.025629018 -0.06626614 0.0037241678 0.033167142 -0.08392527 -0.026626404 0.097481064 -0.025521334
-0.050614875 -0.01923146 -0.024201123 0.022727514 0.09992378 -0.06835152 -0.03772367 0.009013307
-0.0718006 0.042016413 0.008929249 0.067560315 -0.06824089 0.05567782 -0.016612947 0.056709465
0.1011319 0.111528076 -0.03815845 0.04708699 0.04853771 -0.039008927 0.058614153 0.041476924
0.019479746 0.06406419 0.054639358 0.11965603 -0.021845125 0.09593246 -0.10342457 -0.032323044
-0.11731854 0.049926803 -0.046553835 -0.03974811 0.01086531 -0.08774966 0.024040058 -0.004492699
0.053293314 -0.12360704 -0.016673414 -0.06205527 0.028295461 -0.03339635 -0.07920387 -0.08978037
0.00319722 0.078078836 0.10809543 -0.07740505 -0.07619316 -0.042961787 -0.06481329 0.121181704
0.014215378 0.07893717 -0.022611042 0.09997211 -0.07025886 0.049118362 0.08536027 -0.020884585
-0.051573683 -0.087593004 -0.0011446945 -0.11575119 -0.035325427 0.044681996 0.052153066 0.039194275
0.0048474623 -0.06445796 0.025251241 0.010389619 -0.041920654 0.017336775 0.06613974 -0.060140297
0.041028913 -0.0059067504 0.06547018 -0.0211844 0.034132604 0.0053889006 -0.11691331 -0.035299264
-0.049649008 -0.072599605 -0.09488499 -0.004649024 -0.0028327229 -0.08633955 -0.02261128 0.074330404
-0.106153354 0.026252972 -0.05549063 -0.012656254 -0.10924853 -0.085067324 -0.02839437 0.0985744
0.00328875 0.08581256 -0.08623622 -0.008153657 -0.07190834 -0.039880577 0.0077904733 0.07350141
-0.015976533 -0.09769751 0.03358733 0.0029964969 0.086108066 0.01779366 -0.076577194 0.09241898
-0.061554983 -0.005287256 -0.08030615 0.06640662 -0.050177604 0.031634297 0.048918754 -0.12914555
0.13180643 0.0963877 -0.05058545 -0.07048189 -0.026861789 0.13281518 -0.07026585 -0.046601295
0.057707984 0.0101852575 -0.04268766 0.061053775 0.07769306 0.07408971 -0.052173708 0.022446645
-0.012668505 0.028484013 0.025963927 -0.06751029 -0.08457741 -0.07278226 0.09601428 -0.045187887
0.041287184 0.1120347 -0.07746175 -0.11330707 -0.079570904 0.004458479 -0.012980558 0.10105809
0.03183375 -0.03330625 -0.006038873 -0.06009607 -0.0091257915 0.043937054 0.09217376 -0.025323456
-0.078176215 -0.084188916 0.02193925 -0.04076075 -0.08867798 -0.053054307 -0.09193177 -0.04507499

hidden.0.bias f4 [99]
00000000: 1975 2bbd 4c1f ab3d dae4 b2bd a1a7 7fbd
00000010: cdd8 3f3d 1bd3 9ebd 49bb 81bd 963a 3abd
00000020: 1693 59bd 075d 383d 54b2 c23d 7d4b 493d
00000030: 374a a7bd 85a5 a03c 9630 af3d 4a45 6fbc
00000040: 80c3 2a3d 5882 1c3d d8c1 22bd 5de2 5c3c
00000050: da1d a5bd e707 913d 977d 0bbd 5d1c 85bd
00000060: c7a1 b5bc f5c7 2f3d d6e8 c8bd d14f 533d
00000070: 14b6 1bbb 02c5 7d3d a495 073d 1fe6 81bd
00000080: a607 73bd bf67 5ebd 3e46 2e3d df27 e1bd
00000090: c54d e63c e2c0 103c 1267 393d 9ed2 82bd
000000a0: 0417 7e3d 1c6d 3e3d 2caf edbb 38fb b8bd
000000b0: f6bb 863d bb2b e93c bc56 b7bc d821 8a3b
000000c0: de44 01bd 8925 c03c ba0e 6d3d 3eaf a63d
000000d0: eba9 3abd 50e2 5bbc 41d0 46bc 9f51 733d
000000e0: 75dd 943d 3d8e 813d d54d d1bc 86c7 923c
000000f0: 870b 473d d2d0 c43d 5a44 6fbd c1f0 843d
00000100: a92e 80bd 3a8a 133d bcec b9bd 1ac8 bb3d
00000110: b7cd 123d c71d 6ebd 8f35 b9bd cbd1 983b
00000120: b455 b63d 31b9 b63b fc23 94bd 1560 563d
00000130: 274d b0bc 83c2 4f3d 3b97 a6bc 8148 c33d
00000140: b745 d83c 4987 abbd ff68 80bd f198 89bd
00000150: c294 1dbc 626c eabb 2a78 0c3d 3a6f 78bd
00000160: bcbc 533c 2f84 af3d bfbd fcbc e17d b1bd
00000170: 72a3 f5bc 7bf4 8cbd af2d a1bc 4727 e23c
00000180: a8ec 9e3d 922e 88bd 4d32 cd3c
-0.04185972 0.08355579 -0.08735056 -0.062415723 0.046837617 -0.07755109 -0.0633455 -0.04546603
-0.053118788 0.045010593 0.0950667 0.049144257 -0.08168452 0.019610176 0.08554189 -0.014603922
0.04169035 0.038210243 -0.039735645 0.013481704 -0.08062334 0.070815854 -0.03405532 -0.064995505
-0.022171868 0.042915303 -0.09810035 0.05158979 -0.002375965 0.06195546 0.033101693 -0.0634272
-0.059333466 -0.05429816 0.042547457 -0.10993933 0.028113255 0.008835049 0.04526431 -0.06387828
0.06203367 0.046490774 -0.007253548 -0.09032291 0.065788195 0.028463235 -0.022380225 0.0042154603
-0.031559817 0.023455398 0.057875372 0.081388935 -0.045572203 -0.013420656 -0.012134613 0.05940401
0.07268802 0.06325958 -0.025549809 0.017917406 0.048594978 0.09610142 -0.058414795 0.06491233
-0.062589 0.036020495 -0.090783566 0.09169026 0.035840716 -0.058133867 -0.090434186 0.004663681
0.08903065 0.0055762758 -0.07233426 0.052337725 -0.021521164 0.05072261 -0.020335784 0.095353134
0.02640043 -0.08375413 -0.062700264 -0.067186244 -0.009617986 -0.0071540335 0.034294285 -0.06065295
0.012923416 0.08570134 -0.030852197 -0.086665876 -0.029985163 -0.068825684 -0.019675104 0.02760662
0.07759982 -0.066495076 0.0250484

hidden.1.weight f4 [99, 99]
00000000: 00c7 a6bc 8660 543c 442a 2d3d 1367 143e
00000010: 833f abbd 1622 933d 101d 8f3d aecc dc3d
00000020: 5f87 99bd 1c2f cf3b c22d c03d a333 1cbd
00000030: 1182 e9bd 02e4 61bd 651b aabc 10e1 18be
00000040: 8c97 71bd 02b0 b5bc 82a6 e3bb e6b0 2b3d
00000050: ae50 d4bd 7c26 993d 42d4 903d 5d02 35bc
00000060: f31d 3f3d 9d6d 273d 4f4c e83d 4b49 443d
00000070: 0423 5bbd 2865 0cbd 0522 bebd 0aa3 023e
00000080: a49c dc3d 2f1e fb3d 4b60 4cbc 35a1 b1bc
00000090: f098 0f3d 5797 dfbd b69d d9bc f994 42bd
000000a0: c23d e7bc a660 af3d a2d3 b3bd 528e 8f3c
000000b0: 57d9 8a3d dced 7b3d 49fd 13bd bcb7 4a3d
000000c0: a2cc d8bd 2924 b5bd c87f 923d 9eec 033e
000000d0: aaed dabc 489e 4d3c 6ff2 83bd 42b0 11bd
000000e0: 27c0 7b3c f918 9fbd e08e afbd 8708 b2bc
000000f0: e2d8 a2bd 0e9f 543d 0a92 41bd dd8a 1e3d
00000100: 0ee3 523d 698b df3c 6d8c 963d 7431 d8bd
00000110: fcf6 91bd 3c49 d2bc eb9e da3d faa4 313d
00000120: f3dd 063e e27a b3bd 7c5c d1bd 3a5a 063d
00000130: f95a bf3c 19b0 9a3c 612c e53c 296f ef3c
00000140: 67da 43bd 6254 043e 7ad6 353d 3200 043d
00000150: aac5 483d 51a7 c1bd beee 15bd 4dac de3d
00000160: ee45 35bd dae3 693d 0197 033e 0216 afbd
00000170: d5f3 a53d c2c9 bebd 0a18 bfbd 1323 ecbb
00000180: e214 d1bd 14dd 063d 41e6 5c3b d7dc 7ebd
00000190: d514 e43d 9a0d ba3d 13dd f0bd a3a2 cb3c
000001a0: 832d a03d 6b9a aebd b969 4fbd b891 d9bc
000001b0: ebf9 87bc a9df d4bd 7500 8e3d 8765 27bc
000001c0: 9906 743c 2aec 94bd 2819 8a3d e299 a03d
000001d0: 69b9 89bd 8215 5abc fd76 19be fcd5 e1bd
000001e0: 1915 12be de26 793d d71d e4bc 1f02 d53d
000001f0: 9fce 3c3d d77b d4bd ab4c 21be 5efb 523d
00000200: e8a3 09be 078b e5bd f805 e5bd 12f1 863b
00000210: 9184 123d 7669 5c3d 01b1 003e b749 50bd
00000220: edc4 823d fb67 0dbc 4f9a 8b3d 56c0 b93b
00000230: 09a9 06be 87ad 32bd 881e c33c 80dd 5dbc
00000240: 2fe3 1e3e b335 9a3d d7d6 243b beab 293d
00000250: 3e4c 50bd 5c32 4e3d a590 88bd cf98 cbbd
00000260: e57e 61bd b0b9 093e 7699 a63d f73f 82bd
00000270: acc3 703d e275 d43b 753b 643d 0b62 6ebd
00000280: c1be 08be 65bd aa3d 21a8 76bd bbce 203d
00000290: 89d6 093c 95e4 31bc 5bfe 933d 4dad eb3c
000002a0: c30c e3bc dbd7 a9bd bf63 01be ec72 ddbd
000002b0: 1f53 ea3d 87f7 2fbd 7d3b a73d 56d5 4bbd
000002c0: 0c07 ae3b 8749 9d3d a147 f9bd aa63 e1bd
000002d0: 7d5e 9b3d f799 983d 9925 55bd 95f5 88bb
000002e0: b45c 023e 4cd8 81bd de0f 26bd d679 d8bc
000002f0: f6de b03b 6861 2f3d 0748 a5bd da13 afbd
00000300: fd24 3abc 82e6 7f3c a7bd f4bc 59d3 edbb
00000310: f88c b03d 4734 5cbd 7c1d d63d 2a85 a93d
00000320: 95a0 1d3d 7759 d5bc fdba 643d d5c7 a93d
00000330: 1e8e 34bc cdd2 40bd 9e90 763d 9d10 f53d
00000340: fe47 ebbc 1d51 91bd 6c39 32bd 7483 30bd
00000350: 4a77 b73d c0dd 8abd 5c54 e13d c230 463d
00000360: c8b6 033d a652 e9bd e0c6 f1bc c28e 90bd
00000370: 2323 87bc 1c26 1bbd 686e b93d a8dc 263d
00000380: 71be 423d 1251 cebc 4607 3d3d 4967 3e3c
00000390: 51d3 133d dadc e6bc 00ba a4bd 9daa 4bbd
000003a0: 51ae c13c 0939 89bd 601b febc bed2 28bd
000003b0: bd75 32bd 38ea 19bd 4ae7 b1bd 7aa0 61bc
000003c0: e721 7c3d 628b 62bd f3d4 25bd 9f1f 153a
000003d0: 88de 363b 3cc0 ebbb 7ca8 16bd 12d9 b6bd
000003e0: 6654 c7bd e8a4 f83b b61c e93b 4674 a53d
000003f0: 8d42 b8bc d86a 093d 57ea d13d 32e3 cc3d
-0.020358562 0.012962466 0.042276636 0.14492445 -0.08361723 0.07184236 0.06987965 0.10781227
-0.07496523 0.0063227545 0.093837276 -0.038135182 -0.11401761 -0.055149086 -0.020765016 -0.14929605
-0.058982417 -0.022178654 -0.0069473395 0.04191675 -0.10366951 0.074780434 0.07071735 -0.011047927
0.04665942 0.04087602 0.1134268 0.04792146 -0.05350019 -0.034276158 -0.092838325 0.12757507
0.10772064 0.122616164 -0.01247413 -0.021683315 0.035057962 -0.10917538 -0.02656446 -0.047505353
-0.02822769 0.08563356 -0.087806 0.017523918 0.067797355 0.061506137 -0.036130223 0.04949163
-0.105859056 -0.088447876 0.071532786 0.12883231 -0.026724655 0.012549944 -0.06442725 -0.035568483
0.015365637 -0.07768435 -0.08572173 -0.021732582 -0.07951523 0.0519095 -0.047258414 0.03870665
0.051486067 0.027288156 0.07351003 -0.105563074 -0.07127187 -0.025669686 0.106748424 0.043370225
0.13170604 -0.087636724 -0.10222718 0.03280089 0.023358809 0.018882798 0.027975263 0.02922781
-0.047815707 0.12922814 0.044393994 0.03222675 0.049016632 -0.09455741 -0.036604635 0.108727075
-0.044256143 0.05710206 0.12850572 -0.085491195 0.08103148 -0.09315826 -0.09330757 -0.0072063296
-0.10209061 0.03292568 0.0033706578 -0.062222328 0.11136786 0.090846255 -0.117609166 0.024857825
0.07821181 -0.08525547 -0.050637934 -0.026558742 -0.016598662 -0.10394222 0.06933681 -0.010217077
0.014894151 -0.07271607 0.067430794 0.07841851 -0.06724817 -0.013310792 -0.14986797 -0.110271424
-0.1426586 0.060828082 -0.02784626 0.10400795 0.046095487 -0.10375183 -0.15751903 0.051509254
-0.13441432 -0.11208158 -0.11182779 0.0041180933 0.035770956 0.053811513 0.12567522 -0.05085155
0.06385217 -0.008630748 0.068165414 0.00566868 -0.1315042 -0.04362252 0.02381827 -0.013541579
0.15516351 0.075297736 0.0025152469 0.04142355 -0.05085396 0.050340995 -0.06668214 -0.09941255
-0.055052657 0.1344974 0.08134739 -0.063598566 0.058780357 0.0064837793 0.055720765 -0.05819897
-0.13354017 0.083369054 -0.060218934 0.039259654 0.008412966 -0.010857721 0.07226249 0.02876916
-0.027716046 -0.08293124 -0.12635706 -0.10812935 0.11441635 -0.04296067 0.08165643 -0.049764
0.0053108986 0.0768004 -0.12171865 -0.110053375 0.075863816 0.074512415 -0.05203781 -0.0041796663
0.12730676 -0.063400835 -0.040542476 -0.026425283 0.0053976728 0.042817503 -0.08070379 -0.08548708
-0.011361358 0.015618922 -0.02987559 -0.0072578606 0.08620638 -0.053760793 0.104548424 0.08277352
0.03848322 -0.026043637 0.05584239 0.08290068 -0.0110202115 -0.047076035 0.06019651 0.11966059
-0.028720852 -0.07095549 -0.043511793 -0.043094113 0.089582995 -0.06780577 0.110024184 0.048386343
0.032156736 -0.11392717 -0.029513776 -0.07058479 -0.016496247 -0.03787814 0.090542614 0.040737778
0.0475449 -0.025185142 0.046149515 0.011621305 0.0360902 -0.028181482 -0.08043289 -0.049723256
0.02364269 -0.06700332 -0.031018913 -0.041216604 -0.043569315 -0.037576884 -0.08686693 -0.013771171
0.06155577 -0.055308707 -0.040486287 0.0005688611 0.0027903635 -0.007194547 -0.036781773 -0.089281216
-0.097328946 0.0075880177 0.0071140183 0.08078818 -0.022492671 0.03354916 0.10249775 0.100042716

hidden.1.bias f4 [99]
00000000: 3a78 afbd 9728 603d 58a2 67bd ab69 853d
00000010: 71b8 9f3c f241 9ebd 79ee eebb a04a 083c
00000020: 2a0f 6fbd 6e00 babd 64c2 28bc 9d88 3eba
00000030: 7426 9cbd a7e5 593d 8fa5 42bd 7886 00bc
00000040: 9fcf 79bd e2cc 073d 807e 27bd 80d3 9fbd
00000050: 33b8 9ebd b2a6 683d 16ca 1bbc a110 afbd
00000060: f2d7 42bd def7 69bd 8b42 853d b0b3 9cbd
00000070: b391 42bd 4bc5 b1bc cb0d 7d3d 0a30 723d
00000080: 0cbc b63d 9ec7 b5bd c52f 863d 5df1 73bd
00000090: 40fb 583c aa46 8bbd 9106 e6bb 8ee1 30bb
000000a0: 8636 c4bd b895 df3d dd6e 0abd 267f 79bd
000000b0: 8964 91bd 9294 8abd 8a58 a7bd 1cb6 833d
000000c0: b94a 9c3c 02e5 23bd 620d 94bb bd17 9f3d
000000d0: 7873 9dbd 5af8 a13d 8910 c0bd ad2e 21bd
000000e0: 0b16 c13c 5a15 3a3d 182f b73c f38f 7bbd
000000f0: 3cb7 f0bc 8d08 ac3c a071 b83c 1388 d83d
00000100: 4127 543d d2e2 33bd c9ed ab3c 3710 d13a
00000110: eced bbbd 670a 443d fc17 343c 7f18 243d
00000120: 358d 8abd a4ac fc3a 51c7 71bd eb7d 443d
00000130: a531 9e3d eb30 603a dbd6 923d 5055 eabc
00000140: 16fd 563d a584 c03d 355d 233d f942 c5bd
00000150: 9baa ef3c 8576 6cbd 2c5c d4bd 2293 95bd
00000160: 3dbb b5bb c936 d7bc c2a0 52bd fce1 f53b
00000170: e481 4b3d daac 0a3d 6a58 b83c 8beb c8bd
00000180: 1cd3 a7bd 39e3 383d 88a6 e2bc
-0.08567853 0.05472621 -0.056551307 0.06514295 0.019497128 -0.07727422 -0.0072916117 0.008318573
-0.05836407 -0.09082113 -0.010300253 -0.0007268282 -0.07624522 0.05319753 -0.04752117 -0.00784456
-0.06098902 0.033154376 -0.040892124 -0.07804012 -0.07749977 0.056799598 -0.00950863 -0.085480936
-0.047569223 -0.05712115 0.06506833 -0.0765146 -0.04750223 -0.021700522 0.061780732 0.059127845
0.08922586 -0.088759646 0.0655208 -0.059556354 0.013243496 -0.068005875 -0.0070198257 -0.002698991
-0.09580712 0.109172285 -0.033797134 -0.060912274 -0.07099254 -0.06766619 -0.08171184 0.06431219
0.0190786 -0.04001332 -0.004518197 0.077681996 -0.076880395 0.079086974 -0.09378154 -0.039351154
0.023570081 0.04543052 0.022361323 -0.061416578 -0.029384248 0.021000171 0.022515118 0.10572829
0.051795248 -0.043917485 0.020987408 0.0015950267 -0.09176239 0.047861483 0.010992046 0.040062424
-0.06765214 0.0019277525 -0.059027974 0.047971647 0.07724313 0.0008552211 0.07169887 -0.028605133
0.052487455 0.094003 0.03988381 -0.09631915 0.029256156 -0.057730217 -0.10369143 -0.07303454
-0.005546002 -0.02627124 -0.05142284 0.007503746 0.04968442 0.03385625 0.022503097 -0.09810551
-0.08194563 0.04513857 -0.027667299

hidden.2.weight f4 [99, 99]
00000000: 3e1c 9f3d 340d bc3d 0ef8 c53d 7195 ba3d
00000010: 34e5 75bc 7451 bd3c 78d1 83bc 3fcd b1bc
00000020: 794c c9bd da6d b43d b523 123d 77cf 153d
00000030: 835c 18bd 456a 9bbc 1265 203d 7818 4fbc
00000040: 4283 f1bd 88fa 6e3d 9fc4 563d c6bd 58bd
00000050: d202 33bc 644a d7bd 73a3 cfbd 3bac 19bd
00000060: 432f 023d 09f3 123c 2b59 e5bc b140 a2bb
00000070: 1bcc 3e3c a64d 92bd 4f9e 54bd 2c49 51bb
00000080: 6913 073d c5e2 3e3d a708 4b3d 48bc 213e
00000090: f1f3 9dbc f282 83bd 72e6 c1bc f9a1 b2bd
000000a0: 00e1 e5bc 7048 a1bd 0dd9 a73d 5599 893b
000000b0: 3618 32bc e1cf 603d 8d20 223d 3a50 81bc
000000c0: 2bd2 f23c 07a4 b13d 5891 b0bd 8827 2dbd
000000d0: 5f07 c43c 8cf1 4fbd 1408 8d3d eadc 8abd
000000e0: 7eb3 9fbc 456d 263d ed30 a63d 121e a7bd
000000f0: c098 d8bc 70be 31be 9568 b0bc ae10 193d
00000100: f7c5 e5bc 12fd 2b3d 7d2c e03d 5a37 b1bd
00000110: 7690 e33d 0412 963d 1105 6a3c 6311 0b3d
00000120: 78e7 1e36 fe8c 88bc cca9 5f3c 4d5c 24bd
00000130: 87ed bebd 006d 43bd 96e9 ccbd 4e2b 913d
00000140: c9bf 4cbd 497b c4bd 92b2 90bd 3625 b83c
00000150: 2d3c 1d3d 2120 0dbc 13cf 113c 398e 3b3d
00000160: 0039 aebc b53f ddbc 1e18 a8bd 8e4d ffbd
00000170: 7458 d83d 9b59 963d 7fc3 b6bd 38d2 b8bd
00000180: 8588 a73b 35b3 f3bb afa5 273e c34c 363d
00000190: 6eac a4bd 6231 243d 0358 8cbc 43a9 67bd
000001a0: 65e3 663d 9060 8dbc c6fb 463d 3417 c53d
000001b0: 007c 0ebd 9395 16bd f29a b4bd a557 153d
000001c0: 5cac 18bb ab53 a43d b4dd f4ba 3001 16bd
000001d0: e054 3cbd 8c70 ee3d 76d1 a63b 475f cbbc
000001e0: 8b3e 823d 11ce 60bc 8992 063e b7fa 4abb
000001f0: 9101 b63d f7e0 113d 2d8a d13d 90c3 423d
00000200: b687 493b a307 373d 0c1f e63d 9a06 b23c
00000210: fd8c 9bbd 9897 cbbd 95b9 db3c bc6a 8abd
00000220: b4cd 2b3d 90ea f9bd fb8d 543d 9172 00bb
00000230: 67ec c43d 6195 2abd ac5d bdbb ea05 0f3e
00000240: 7aa0 003d 7d94 2f3d ab3d b03d f885 98bd
00000250: 0df0 253d 82bf 83bb ff21 0cbe feac d6bd
00000260: 43cf 80bd b8f2 b7bd fe89 e83b baf8 583d
00000270: 8d67 8abd 40d6 13bd e8aa 123e 8e5c fc3d
00000280: 5a04 f23c 7531 8a3c 1feb 71bd 56b5 7c3c
00000290: cf5c 0d3d 9258 78bb ed93 1cbd 1771 0abd
000002a0: 936f acbd e4e0 6b3c 6cc6 d7bc 3f5c 0bbd
000002b0: 83c8 05bb 8765 dabd 9fea a6bc 8657 16be
000002c0: de4d abbd 559d 3a3d 8175 1cbc 118a aabd
000002d0: 0b4b 263d 69a9 eebd cd29 f63d 830a cc3c
000002e0: fd1e 9fbd e378 bebd 93f1 4e3d f475 8ebd
000002f0: 228f 9dbd 505f d13d eb83 98bd a4f2 9dbd
00000300: 8d35 753d 6f69 883d bc4b a83d ebf7 e53c
00000310: 689b 093d d7a9 b0bd 0393 93bd 6492 24bc
00000320: e143 f8bc 9bc0 323d 9e62 a9bd de6d a1ba
00000330: bd0c c5bd a6c5 b6bb b77d a13d 0874 e03b
00000340: 47cc 073e 85e0 2fbd 2eb4 09be f88f b13a
00000350: ac48 ebbd 641f ff3d c5a7 bdbd ac26 78bd
00000360: e646 ae3d 0742 ba3b 34c0 eabc 8ea8 9b3d
00000370: 0350 b6bd 13a4 683d 23b3 173c 49a4 85bd
00000380: 32ff f6bd 9e78 3b3d 6d93 b53c fca4 cc3c
00000390: 1bbe 83bd 6f13 16bd 25a6 47bb d3d5 c23d
000003a0: 9aa1 16bd 3ee5 093d be91 bebd ef83 d3bc
000003b0: 4331 193d 73ff bc3d 8dab 1dbd ccd3 42bd
000003c0: 47c1 dc3d dae6 a83d 3ef0 1bbd f42f 0fbe
000003d0: e2a3 2b3c 57ca 1d3d 0b5c 383a 9ff0 bf3c
000003e0: 2667 183e b26e 21bd 4c1c c43d df30 b33b
000003f0: 222b 6ebc e70d 8c3d b73f 7b3d 9489 933d
0.07769059 0.09182206 0.09666453 0.09110535 -0.01500826 0.023110129 -0.016091093 -0.021704314
-0.09829039 0.08810015 0.035678584 0.036574807 -0.0371976 -0.018971572 0.03915889 -0.012640111
-0.117926136 0.058344394 0.052433606 -0.052915357 -0.010925965 -0.10512236 -0.10138597 -0.037517767
0.031783354 0.008969077 -0.02799662 -0.0049515595 0.011645342 -0.071437165 -0.051908787 -0.0031934483
0.032977495 0.046602983 0.0495688 0.1579448 -0.01928136 -0.0642146 -0.023669455 -0.087223
-0.02806139 -0.078751445 0.08195696 0.004199187 -0.01087003 0.05488575 0.039581824 -0.015785325
0.029641232 0.08673864 -0.08621472 -0.042274028 0.023929296 -0.050767466 0.068863064 -0.06780417
-0.019494768 0.04063155 0.081148006 -0.08160032 -0.026440024 -0.17357802 -0.021534244 0.037369423
-0.028048499 0.041989394 0.109459855 -0.086531356 0.11111538 0.07327655 0.0142834345 0.03395213
2.3678567e-06 -0.016668793 0.013651323 -0.040127087 -0.093226485 -0.047711372 -0.100054905 0.07088338
-0.049987588 -0.09593827 -0.070653096 0.022478681 0.038387466 -0.008613617 0.008899468 0.04578993
-0.021267414 -0.027007917 -0.08207725 -0.12465964 0.10563746 0.0734131 -0.08924007 -0.09024471
0.00511271 -0.0074371346 0.16371797 0.0445068 -0.08040701 0.040086158 -0.017131811 -0.056557905
0.056369204 -0.017257959 0.048579954 0.09623566 -0.034786224 -0.03676374 -0.08818616 0.036460537
-0.0023296094 0.08023771 -0.0018681795 -0.036622226 -0.04597938 0.1164256 0.0050908877 -0.024825705
0.063595854 -0.013721005 0.13141836 -0.0030972192 0.088870175 0.035614934 0.10231433 0.047549784
0.0030751056 0.044685017 0.112363905 0.021731663 -0.07595251 -0.099410236 0.02682189 -0.06758639
0.04194422 -0.12202942 0.051893216 -0.0019599537 0.09615403 -0.041646365 -0.005778989 0.139671
0.031403042 0.04286622 0.08605512 -0.074474275 0.040512133 -0.0040206322 -0.13684843 -0.104822144
-0.06289532 -0.08981842 0.007096528 0.05297158 -0.06758032 -0.036092997 0.14323008 0.12322341
0.02954309 0.016869286 -0.05906212 0.015424093 0.034512337 -0.003789459 -0.03822701 -0.033799257
-0.084197186 0.01439688 -0.026339732 -0.03402352 -0.0020413704 -0.10663896 -0.020375548 -0.14681825
-0.08364461 0.0455602 -0.0095494995 -0.08327115 0.04059891 -0.11653406 0.120196916 0.024907356
-0.077695824 -0.09300401 0.050523352 -0.069560915 -0.07693316 0.102232575 -0.07447036 -0.07712296
0.059865523 0.06660735 0.0821757 0.028072318 0.033595473 -0.086261444 -0.07205775 -0.010044668
-0.030305805 0.043640714 -0.08270763 -0.0012316068 -0.0962157 -0.0055777607 0.07885306 0.0068497695
0.1326152 -0.042938728 -0.1344764 0.0013546934 -0.114884704 0.12457159 -0.09260515 -0.060583755
0.085096166 0.0056841406 -0.028656103 0.07600509 -0.0890198 0.0567971 0.009259018 -0.065254755
-0.120603934 0.045769326 0.022165025 0.024981014 -0.06432744 -0.036639627 -0.003046402 0.0951344
-0.03677521 0.033665888 -0.09305142 -0.025819747 0.037400495 0.092284106 -0.03849368 -0.047565266
0.10779052 0.082471564 -0.03807091 -0.13983136 0.010476084 0.038523044 0.00070327584 0.023430167
0.14883098 -0.039412208 0.0957571 0.0054684724 -0.014536651 0.06838589 0.06134006 0.07203975

hidden.2.bias f4 [99]
00000000: 9550 673d a370 6abd 45c5 6a3d 7dc4 013d
00000010: ab90 a4bd f4b1 463d bc15 d1bc c124 3ebd
00000020: 725d 57bd 6a9c 743d 9a52 323d 9eb2 c03d
00000030: 561f 11bd 7b19 3d3d 9178 933d 61fe b93d
00000040: 6a94 60bd b02b fb3c d61c a03d 0ebd 903b
00000050: a3a3 a83d 956a 1dbd 1f8f 543d e48f 9c3d
00000060: f8d4 88bd d015 e03d ae35 bf3d 751d 3a3c
00000070: 6206 3ebd ad41 e13c 509d c03c 40de 9bbc
00000080: c62b 9f3d 6119 7bbd 455f 1a3d a014 2bbd
00000090: 92f0 43bd cacd 26bd 30cd 733d 248b 05bd
000000a0: 49ee cd3d 3bf1 3b3d 1927 4c3d d319 d2bd
000000b0: 90ed e2bb 3984 b2bd 2e2c 9e3d cbb4 6dbd
000000c0: b81b 2dbd e9e1 9e3d c1c2 4e3b e937 633d
000000d0: 81b4 16bd 163c 133c ba90 a03d d13f 9b3d
000000e0: 7b82 89bd 876c 04bd 1383 c4bd bc00 1bbd
000000f0: a43f 55bd cc5a f83d b71a 973c 8b64 703d
00000100: e32d 28bd f68b a0bd e011 b13d 0559 3c3c
00000110: ab76 9ebb 5ba6 edbc f7c9 9f3d 1fba d13d
00000120: 4e9b a63d f5fb a83d 3597 afbd 263d aabd
00000130: 53a7 f4ba 9e2f bebc 27e8 a8bc 9c68 9d3d
00000140: 0784 9fbc 6a83 763d 8040 58bd bbc4 c03c
00000150: d5a4 ad3d 5fe4 933d c081 c2bd a644 663c
00000160: a58d 49bd bead 543d 1915 7c3c 6e4f bf3c
00000170: db16 1e3d 0603 91bd 52b2 4dbc 75fc 653d
00000180: 25ca aabb 7572 a23d 62b4 13bd
0.056473333 -0.057236325 0.057317037 0.031681526 -0.08035406 0.048509553 -0.02552306 -0.04642177
-0.05257935 0.05971948 0.043535806 0.094090685 -0.035430275 0.04616688 0.072007306 0.09081722
-0.05482904 0.03066048 0.07818 0.0044170683 0.08234336 -0.038431723 0.051894303 0.076446325
-0.066812456 0.109416604 0.093364105 0.011359562 -0.046392806 0.027497137 0.023512512 -0.019026875
0.07772021 -0.0613035 0.037688512 -0.041767716 -0.047836848 -0.0407236 0.059521854 -0.032603398
0.10055215 0.045884352 0.049841974 -0.10258832 -0.0069252923 -0.08716626 0.0772327 -0.058033746
-0.042262763 0.07757933 0.0031549188 0.055473242 -0.036793236 0.008986494 0.078401044 0.075805314
-0.0671434 -0.032330062 -0.09595313 -0.037842497 -0.052062646 0.12126693 0.018445356 0.058689635
-0.041059386 -0.078391954 0.086459875 0.011495833 -0.0048359237 -0.029009989 0.078021936 0.10240578
0.08135091 0.08251182 -0.08573762 -0.083124444 -0.0018665589 -0.023216065 -0.020618511 0.07685968
-0.019472135 0.06018392 -0.052795887 0.023531308 0.08478705 0.07221293 -0.09497404 0.014054453
-0.04920735 0.051923506 0.015385889 0.023353305 0.038596015 -0.07080655 -0.012554722 0.056148965
-0.005212086 0.07931987 -0.0360607

hidden.3.weight f4 [99, 99]
00000000: 38bb 8dbc 97c6 6c3d 4b94 78bd e85b 9f3b
00000010: d94d 853d a316 933c 8b68 82bd ed2b aa3d
00000020: f3f3 16bd 7e81 5abd 4ca9 b5bc 4862 df3d
00000030: 17a8 a53c dc79 b3bd e270 f03d ec2f cc3d
00000040: 7e9d 93bd 48e9 ccbd 91af 033d 014f 953c
00000050: ef57 bcbd 999b 343d 86ba 083d f10c cb3c
00000060: c724 4c3c 822c a83d d603 15be f51d 0c3d
00000070: de89 9fbc 6a23 d7bc 6cde 06bd 77e3 e83c
00000080: 1719 323d 8c15 0bbd 560f ffbd 6bd2 3e3c
00000090: 575f 15be 41f8 ad3d 49a8 f13c 0936 303d
000000a0: 9c51 8bbd 95f2 12be 29ab da3c f6f7 c83d
000000b0: be5e c13d 770a 363d 8dda 203d 863d f03d
000000c0: 2122 983c 359b 6c3d f802 95bb 226c d4ba
000000d0: d5a8 a8bd 3897 783b d5ef bebd 30bc a4bd
000000e0: 245d 37bd bab9 5bbd 2cbf 97ba 839b e5bd
000000f0: f778 7a3d 93a1 2bbc 13e7 483d 57ff 88bd
00000100: d016 3dbd 77de b6bc 5385 b8bd 80b5 d2bd
00000110: bdc4 70bd feee aa3d b33d a03d 5c3c e8bc
00000120: d51d 0d3d 9686 373d 5b63 a0bd 70fe 843d
00000130: 6954 57bd fc71 ab3c af40 c73d 2c40 92bd
00000140: b303 05bd 4006 2e3d de5c e2bd e5da eebc
00000150: bd76 253c 4a58 b13d 506b 473d 880d fd3d
00000160: 4e83 81bd 98a4 913d 87d7 8a3d b50b 373c
00000170: 8031 d9bb 21ea b0bd 6bb2 cd3d 93a2 703c
00000180: 30a6 8d3d 59d0 d23d 06a4 bd3d 3731 a1bd
00000190: d627 ff3d 293e 17be f0f1 323c bc7d a33c
000001a0: 7938 a93d 32ff e6bc 5f4d 533d 8e74 c23d
000001b0: 9ebd 853c 042b d43d 8fcb fb3c 6d9a cf3c
000001c0: d084 3d3d 9167 d0bd 8993 aa3b 9b3a 133e
000001d0: e4b7 9f3d 736b a63d 7143 b9bd 8d99 3ebc
000001e0: a073 073e 0558 083e 7702 05bd aa7c b93c
000001f0: 1acb babd 29f8 47bd 1a01 603d 7cc3 213e
00000200: 6dd8 40bd 01fe 343d 7b34 563d c8ee 823d
00000210: 0f66 e5bc 2c36 43bd 0edd 2cbd c171 6f3d
00000220: 35be 1d3c 35ae 0abc 3698 6e3d 1d75 e83d
00000230: 4d0e 6ebd 40ca 343d 1fce d5bd 02da 9f3d
00000240: 86d6 073d 306d 8dbc 48d6 5d3d 2146 773d
00000250: 9d42 a6bd f0e8 6cbd 5ca4 6fbd e555 5cbd
00000260: 52e1 03be 43fc d93d 9132 ad3d 9089 48bc
00000270: 8efc cd3d 7c82 36bd 7266 933d d589 30bd
00000280: 34c6 b8bc 96bc 2dbd 63a7 00bd eab4 b33d
00000290: b800 7f3d d3bc 2fbe 0c4a 0bbe 51fd 16be
000002a0: 9558 233d 8f41 c83c 93f3 453d ee9b 203a
000002b0: 932b a0bb 39cc aabd 77e9 9abc b23b b5bc
000002c0: 8577 06be 1fe1 29bc 53fb 2dbd 5332 c0bd
000002d0: 0db7 95bd c51c e93d d74f cabc e407 67bc
000002e0: bb85 1abb 5ed6 453d e2a9 a438 1512 f23d
000002f0: 26f1 6bbd 0dd5 2f3d 30ed 3fbd 6e8a c3bc
00000300: a909 213d 51e0 a83b a779 8dbd d949 543d
00000310: ad7a 2c3c 3ed0 a3ba b329 e8bb 54ec e13d
00000320: 63c6 4cbc a286 983c 84c5 773d 245d 24bd
00000330: 1729 d3bd cc41 8c3d 84f7 95bc a003 b63c
00000340: a7dc 5d3b a9a7 7f3d ca9e 1a3d 322b a03d
00000350: f4e1 6ebd 4ef0 b6bd e133 c23d e653 fdbc
00000360: abe3 b3bd 49ef 00bd 1a8c acbc ca5e 92bd
00000370: ed8e a5bd 6cfd 053e e0c3 0dbd dff9 8abc
00000380: b4df bebd 13ec 7ebc a5ca 5fbc 6fd6 853d
00000390: 4997 abbc 0ec2 b73d 0a26 2c3d cf97 eb3b
000003a0: de87 fd3c 694b debd e1b1 f3bd 82d5 ed3c
000003b0: e0a8 1a3d 625a 423d 0325 f7bd 270b 10bd
000003c0: 2b5e bc3d 0688 bebd 61bc 32bd d6c3 973c
000003d0: 50b7 b1bc d4e9 06bd e743 a8bc 8221 0fbe
000003e0: de98 f5bc fbb2 bd3c c7d9 0cbb f44b b2bd
000003f0: 99d5 90bd 94e7 99bd bb5a 8dbc c96b d8bd
-0.017301187 0.057806578 -0.0606883 0.004863251 0.06508989 0.01795513 -0.06367596 0.083091594
-0.03685374 -0.05334615 -0.022175454 0.109074175 0.020221753 -0.08763477 0.11740281 0.09970078
-0.072077736 -0.10005432 0.032149855 0.018226149 -0.091964595 0.044093702 0.033381008 0.024786444
0.01245994 0.08211614 -0.14552245 0.034208257 -0.01947492 -0.026262004 -0.03292696 0.028428776
0.04348096 -0.033956096 -0.12454097 0.011646847 -0.1458715 0.08494616 0.02949919 0.043020282
-0.06802675 -0.1435035 0.026692944 0.0981292 0.09441899 0.044443574 0.039270926 0.11730485
0.018570961 0.057765204 -0.004547473 -0.0016206542 -0.08235327 0.003793193 -0.09323088 -0.080437064
-0.04476656 -0.05364392 -0.0011577359 -0.11211302 0.061150517 -0.010475534 0.049048495 -0.06689327
-0.046164334 -0.022322876 -0.090098046 -0.10288525 -0.058781374 0.083463654 0.07824268 -0.028349094
0.03445228 0.044806086 -0.078314506 0.064938426 -0.052570734 0.020928375 0.09729134 -0.07141146
-0.03247423 0.04248643 -0.11052869 -0.029157111 0.01009911 0.08659418 0.048686326 0.123560965
-0.063238725 0.07111472 0.0677939 0.011172225 -0.0066282153 -0.086384065 0.10043796 0.014687198
0.069164634 0.102936454 0.092598006 -0.07870715 0.1245877 -0.14769806 0.01092194 0.019957416
0.082627244 -0.028197858 0.05158746 0.09494887 0.016325768 0.10359767 0.030736713 0.02534219
0.046269238 -0.10176004 0.005205576 0.14377825 0.07798746 0.08125963 -0.090460666 -0.011633289
0.13227701 0.13314827 -0.032473054 0.022642452 -0.0912077 -0.04882065 0.05468855 0.15797228
-0.0470814 0.04418755 0.052296143 0.063932 -0.028002767 -0.047659084 -0.042203 0.058458094
0.009627868 -0.008464386 0.05825063 0.113504626 -0.058119107 0.044138193 -0.10439705 0.078052536
0.03316357 -0.017263979 0.054159433 0.060369615 -0.08118174 -0.057839334 -0.058506355 -0.053792853
-0.12878922 0.10643818 0.084569104 -0.012239829 0.100579366 -0.044558033 0.07197274 -0.043100197
-0.022555448 -0.042416178 -0.031409632 0.08774741 0.062256545 -0.17161874 -0.13602465 -0.1474507
0.0398794 0.024445323 0.048327994 0.0006126751 -0.004888007 -0.08339734 -0.018910153 -0.022123192
-0.1313153 -0.010368614 -0.04247601 -0.093845986 -0.07310305 0.113824405 -0.024696274 -0.014101002
-0.0023578245 0.04830014 7.8517725e-05 0.11819855 -0.057603024 0.04292779 -0.04685706 -0.02386972
0.039315853 0.0051536937 -0.06907969 0.05182824 0.010527295 -0.0012497974 -0.007085049 0.11031404
-0.012498471 0.018618885 0.0604911 -0.04012789 -0.10310572 0.06848487 -0.018306501 0.022218525
0.0033853443 0.062415753 0.03774909 0.07820739 -0.058320954 -0.08932553 0.09482551 -0.030923795
-0.087836586 -0.0314782 -0.0210629 -0.07146986 -0.080839016 0.13084954 -0.03461063 -0.016964851
-0.09320012 -0.015559214 -0.013659154 0.065350406 -0.020946162 0.0897256 0.042028464 0.007189728
0.030948576 -0.10854227 -0.11899162 0.029032473 0.037758708 0.047449477 -0.12067606 -0.035166886
0.091976486 -0.09303288 -0.043636683 0.018525999 -0.021693856 -0.03293784 -0.02054019 -0.13977626
-0.02998012 0.023156634 -0.002149211 -0.08705893 -0.070719905 -0.07514873 -0.017255178 -0.105674334

hidden.3.bias f4 [99]
00000000: ba1f 783d 5e81 4fbd c682 573d 5248 ae3d
00000010: 9835 76bd dc5b f8bc 9e77 5fbb d58e be3d
00000020: 1318 96bc 75e7 81bd bd15 533d 872e 66bd
00000030: a878 7f3d 28b8 04bd d3fc 63bd 001e e4bd
00000040: 13b1 b13d a87e 503c b304 f83c 1d4b b9bd
00000050: 9460 763d bc57 5b3c dc74 1a3d 1ea1 63bd
00000060: a359 84bd ad40 c2bd 0ad5 a33d 92c6 88bd
00000070: 0ccd 55bd 0c24 aabd 987b 7d3c ce98 423d
00000080: ecfc de3d bd6b 483d 1dc7 71bd e02d 10bd
00000090: 3288 243c 03a8 c53c da95 8fbc bc6c ef3d
000000a0: 198d 58bc 326a 00bd aaee dfbc 4eb4 d7bd
000000b0: a8e2 613d b504 52bd 7507 3f3c e695 b4bd
000000c0: 9995 bb3d f140 aa3d 568e 263d 497f 40bd
000000d0: 9409 a2bd b4c9 63bd 8b5b 433d 863b 923b
000000e0: fc1f 8a3d 1d05 8b3d 42c4 043c f103 433d
000000f0: 887c f6bc e18e 293d 211c 823d 9ba6 67bc
00000100: 5af0 8ebd a484 64bd d697 aa3d 8176 513d
00000110: 6b89 87bd 2b7f 283d 3285 8b3d fb95 b7bd
00000120: bef1 06bd 42fa cd3c 7445 b93d 81c8 bcbd
00000130: 47cf 633d 03d2 f93c 5a17 5cbc de18 0dbd
00000140: d261 b7bd 8f22 1ebd afb8 0a3d 1bff 1f3c
00000150: e4cc b33d 53a7 55bd c206 9cbb 7942 8e3d
00000160: d055 bdbd af72 5fbd a23f aabc db12 0fbe
00000170: 16f0 b43c 2ce4 1bbc 03fd 443d fbf0 bf3c
00000180: 149e 233d 2371 973d 2c4f c3bd
0.06057713 -0.050660484 0.05261495 0.08509888 -0.060109705 -0.03031724 -0.0034098397 0.09304587
-0.018322026 -0.06342975 0.051534403 -0.056196716 0.062370926 -0.032402188 -0.055661034 -0.111385345
0.08676352 0.01272551 0.030275678 -0.0904753 0.060150698 0.013387617 0.037709102 -0.055573575
-0.06462409 -0.09484992 0.07999618 -0.06678499 -0.0521975 -0.08307657 0.015471362 0.047509007
0.10888085 0.048930872 -0.05902778 -0.0352 0.010042237 0.024127966 -0.01752751 0.11690661
-0.013217234 -0.031351276 -0.027335484 -0.10532437 0.055147797 -0.05127402 0.011659493 -0.08817653
0.09159393 0.08313168 0.040663086 -0.04699639 -0.07911983 -0.05561228 0.047694724 0.004462662
0.06744382 0.06788085 0.008103432 0.04761118 -0.030088678 0.041396026 0.063530214 -0.014138843
-0.06979437 -0.05579056 0.08329742 0.051138405 -0.06618007 0.0411369 0.06812514 -0.089641534
-0.032945387 0.025143746 0.0904645 -0.092179306 0.055617597 0.03049565 -0.013433302 -0.034447543
-0.089542046 -0.038607176 0.033867534 0.009765412 0.08779314 -0.052161526 -0.004761548 0.069462724
-0.09244883 -0.05455273 -0.020782296 -0.13972037 0.022087138 -0.00951485 0.048092853 0.023430338
0.039945677 0.07394626 -0.09536585

output_layer.weight f4 [49, 99]
00000000: e3bf a6bd 3c3d 05bc 3607 02bd 1c8d a0bd
00000010: 00ec eb3c 1f8f 89bd 2e8c bcbd 6f5f b13d
00000020: 4d7a d73d f3ee a2bd d983 48bd ca51 d53b
00000030: 3556 a8bd b8ca b3bd e4c2 a53d 8f51 cb3d
00000040: 3c64 00bc 8590 393d 01aa 9f3c 0ad4 babd
00000050: 9969 cabd 3cb6 8bbd bb6a 863c aeba 433c
00000060: 99f4 853d 1036 6d3d f46e c2bd 10ca 573c
00000070: a5e6 dc3c fc66 1abd 7ff6 e73c 215d 0a3d
00000080: ea67 b13d 3164 e73c e02d b33d 48c0 813d
00000090: 25f6 9f3d f6c8 4a3d 9a68 a83d 3180 a33d
000000a0: 6b3f ce3d a530 94bc a313 64bd fb3e 30bd
000000b0: 41aa 333c 5eee 393d 840f be3d 3143 71bc
000000c0: 74ee 893d 92b1 80bd 85f9 d4bc 0f1c 203e
000000d0: 6008 bbbd 2e36 9a3d 02f3 b9bd 3f82 5c3c
000000e0: dbb2 da3c 5570 5cbc 7c1d 18bc 87dc 943c
000000f0: 29d7 013d aab0 b43c e9be 72bd 121c 873d
00000100: 708d 443c 4a2a 3ebd ca7f 1cbd 17e8 b93d
00000110: 5857 833d 3265 0ebe b167 593c 01a7 adbd
00000120: be13 343d e91d 54bd ff12 afbd 320f f53d
00000130: 94e0 733d b7ec 8dbd 1a2a 7f3d 775e 04bc
00000140: 5197 423c 29a3 513d 93a2 3cbd d5fb 033e
00000150: 64c1 013e fbb1 79bd a53b bcbd 1d9a a6bd
00000160: 1613 adbd 26bd 81bc fb0c 473d cf93 803d
00000170: 0e83 823d cb1a 8ebd 2685 b73d 5067 a5bd
00000180: 8604 59bd 71f5 adbd 4e2c a03c 9345 883d
00000190: 0d68 a7bb 8fed c0bd 7df3 18bc 6bc6 afbd
000001a0: 86a8 983d 26d4 5cbd 48af 2bbd 6d63 77bc
000001b0: 7ce6 00bd dfb2 243d 2e3d 813d 24e5 32bd
000001c0: 50c0 6fbd 00c3 893d 3c3e e23d 86f5 d4bd
000001d0: ff39 c5bb b4ef 963c 9b9c 9e3c 3ba8 cabd
000001e0: 3f83 5ebd 3818 eeba 8569 c33d c75a 123c
000001f0: e3fd 3a3d 0ee6 7d3d 1d1f 26bd 1fab 363d
00000200: 1b1f 92bd 7144 d4bd a6be 05be 7395 873c
00000210: ff32 33bd 5ac8 8bbd 059b 913c 5bc5 9cbb
00000220: 12b0 41bd ab55 b0bd 0486 bbbd 5521 17bd
00000230: c9c3 a63d 86e3 d03d 61b9 903d b8f9 4abd
00000240: 95c2 16bd 3d36 9dbb d9c1 88bb 766e 7cbd
00000250: 3bf8 b7bd 5fa0 8cbc c346 ae3d e269 93bc
00000260: 0bf6 cfbd c7bd 203d d883 823c 5631 63bd
00000270: dc2c 943d 9539 023c 2819 9bbd 3315 423d
00000280: 9787 bb3d 4377 92bd f23a ff3d b040 b4bd
00000290: a3d5 a7bc 3543 a83d 3c37 85bc 1b10 b9bc
000002a0: 5fdf f7bd d749 9dbc 5841 2abc 7252 05bd
000002b0: ad3f c03d bb67 af3d 2810 bd3d 56cc 16bd
000002c0: 2830 a2bd e619 9dbb e8cf bbbd b719 9ebb
000002d0: 3eaf 10bd fb6e 8fbc e878 093d 8418 23bc
000002e0: 02d9 b93d 387e 863d a185 ad3c 5006 d23b
000002f0: af37 8f3d 79d1 ecbc 373b 8ebc 0fef a0bd
00000300: d190 53bd f110 cc3d c68a 833d 24e9 4cbd
00000310: 6b30 dcbd 93e9 de3d 3317 5bbd d83e 343c
00000320: b796 66bd 0cc0 a3bd 985b e73d 894e 64bd
00000330: 0b14 ebbd 2614 9c3d 6f7f 5e3d dd3a dabb
00000340: fe6e bfbd 7b90 963c 8a22 b13c 3669 b93c
00000350: 0c0f a0bd 9f53 963d f3ab 5ebd f525 60bb
00000360: febd 063d 165e b2bc 04aa 863d 9d92 6f3d
00000370: 3791 f3bd 887f 66bc e543 1bbd ae96 8f3c
00000380: e51e 4dbc bc07 abbd a420 aabc e12d 993d
00000390: fbf5 0d3d a637 b6bb 386c 84bd 5210 a3bc
000003a0: f7a6 803d 8237 f13c d1f8 653b a968 163d
000003b0: 5b2e 563d 7a46 42bd 2fce 96bc d738 9a3c
000003c0: 4527 b73d ccd6 e23d d19b ab3c ea34 243d
000003d0: 7f85 37bd 108a 5e3d 8c1c d1bd dda8 04bd
000003e0: 3d8b af3c a332 e43d 22a7 e63a 7657 3d3c
000003f0: 3ebb 303d 4b94 273d 1019 8aba e19e 21bd
-0.08142068 -0.008132275 -0.031745158 -0.078394145 0.028799057 -0.06716751 -0.09206425 0.08660781
0.10521374 -0.07955732 -0.048953865 0.006509994 -0.08219568 -0.087789 0.08093813 0.099276654
-0.007836398 0.04530384 0.019490244 -0.091224745 -0.098834224 -0.06821868 0.016408315 0.011946363
0.06540794 0.057912886 -0.09493819 0.013170734 0.026965449 -0.03769587 0.02831578 0.03378022
0.08662398 0.028246017 0.08748984 0.06335503 0.0781062 0.049508058 0.08223076 0.07983435
0.1007069 -0.018089602 -0.05568279 -0.043028813 0.010965885 0.04539334 0.09280303 -0.014725492
0.067349344 -0.06283869 -0.025997886 0.15635704 -0.09132457 0.07529865 -0.09079553 0.013458787
0.026696613 -0.013454516 -0.009284373 0.018171562 0.031699333 0.022056896 -0.059264097 0.06597151
0.011996612 -0.04642705 -0.038207807 0.09077471 0.06413144 -0.1390579 0.013269351 -0.08479119
0.04396414 -0.051786337 -0.08548545 0.11965789 0.059540346 -0.069299154 0.06229601 -0.008079163
0.011876897 0.051180992 -0.04605348 0.12889035 0.12671429 -0.06096075 -0.09191064 -0.081348635
-0.08450906 -0.015837263 0.048596364 0.06278192 0.06372653 -0.06938704 0.08960943 -0.08076346
-0.05298283 -0.0849408 0.019552376 0.06653895 -0.0051088394 -0.09420311 -0.009335396 -0.08582767
0.07454018 -0.053913258 -0.041915208 -0.015099389 -0.031469807 0.040209647 0.06310497 -0.043675557
-0.058533013 0.067266464 0.110470265 -0.103983924 -0.0060188766 0.018424846 0.019361785 -0.09895369
-0.054324385 -0.0018165177 0.09541611 0.008932776 0.04565228 0.061986975 -0.040557016 0.044596788
-0.07134839 -0.10364617 -0.13061008 0.016550755 -0.043749806 -0.068253234 0.017774114 -0.004784269
-0.047287054 -0.0861009 -0.09156421 -0.036897022 0.08142812 0.10199647 0.07066608 -0.049554557
-0.03680666 -0.0047977255 -0.004173499 -0.06162878 -0.08982893 -0.017166315 0.085095905 -0.017994825
-0.10154351 0.039243486 0.015932009 -0.055466972 0.07235119 0.007948299 -0.075731575 0.0473835
0.09156721 -0.071516536 0.12462415 -0.08801401 -0.020487612 0.08215944 -0.01626169 -0.022590687
-0.121031515 -0.019200249 -0.010391556 -0.03254933 0.09387145 0.08564707 0.09231597 -0.036815964
-0.07919341 -0.004794347 -0.09170514 -0.004824843 -0.035323374 -0.017508974 0.03356257 -0.009954575
0.09074594 0.06567043 0.021181883 0.006409444 0.06993043 -0.028908478 -0.01736222 -0.07858097
-0.05165178 0.09964169 0.06422953 -0.050027028 -0.107514225 0.108843945 -0.05348892 0.011001311
-0.056296077 -0.079956144 0.11296767 -0.05573896 -0.11478432 0.076210305 0.05432075 -0.006659849
-0.09347342 0.01837944 0.021622915 0.022633176 -0.0781537 0.07340168 -0.054363202 -0.0034202312
0.032896034 -0.02177338 0.06575397 0.05848943 -0.11892932 -0.014068492 -0.037906546 0.017527904
-0.012519573 -0.083510846 -0.020767517 0.07479454 0.034658413 -0.005560833 -0.064659536 -0.019905243
0.06281846 0.029445414 0.0035090933 0.036720905 0.0522903 -0.047430493 -0.018408863 0.018825931
0.08943037 0.110761255 0.020948322 0.040089525 -0.044805046 0.054330885 -0.10210523 -0.032387603
0.021428699 0.11142471 0.0017597417 0.011556497 0.043147318 0.040912908 -0.0010536034 -0.03945816
