models/2600episodes/1250episodes.pth (torch, 43836 bytes, 8 tensors)

input_layer.weight f4 [50, 50]
00000000: 7d86 a640 30de 19c0 6755 0d40 5adf fa3f
00000010: d123 993f accc c23e 2e88 8f3f 7131 b2bf
00000020: 27f8 45bf c17e 8040 f5dc 42bf 785b 863f
00000030: 5377 aec0 4c5f 0041 7a15 d440 079a 4ec0
00000040: 1aea f23f a4ae 61c0 91fc 86c0 03d4 b0c0
00000050: 541a 4dc0 eff8 0140 92f0 5a3e 6bad 7fc0
00000060: b60f 45c1 c6da a8c0 e433 4640 769a 3b3e
00000070: 0509 04c1 603c 7ec0 9b8d 5940 7a5f 15c0
00000080: 3e48 0040 5b9c 8540 45c7 6440 6c7f 18c0
00000090: 3e55 6bc0 8e8b 2741 0a97 3dc0 d1e7 bcbf
000000a0: a9ad 9f40 32ca e1bf b715 b9bf 447d f5c0
000000b0: c880 a0be e958 9140 a096 443f dc76 c3bf
000000c0: b6fa e3c0 4e94 80bf c0e3 86c0 9eb5 47c0
000000d0: 555c 39c1 cbbe 9640 9ad0 e7c0 ede4 a7c0
000000e0: d1b3 bc3f d4f4 14bf c716 4040 a82a 4cc0
000000f0: b9fc aac0 6c40 ab3f 992f 2b40 f4b3 24c0
00000100: 0231 c53f 257d dcbe 5c9b 6d40 7260 ad40
00000110: 6a41 4340 bc47 87c0 b223 e740 d736 e740
00000120: 283f b83f a825 9d3f 87f7 0c40 cc04 1441
00000130: dd6e b1bf db83 c7c0 5e54 e6ba 5468 3940
00000140: f1d7 c9c0 7ad0 3440 cc33 66c1 b278 4ec0
00000150: 3f70 8740 fc05 65bf fc91 6e3f 860d e040
00000160: cec1 f03e 435b 82bf d5cf 1fc0 fd73 81bf
00000170: c70d 21c1 c3ee b440 88a2 333e 4596 1e40
00000180: 37aa b0c0 2023 5cbf f99f c040 003f 13c0
00000190: 9922 b2be 5c76 e8be 939d 4941 8de3 ea40
000001a0: f496 6440 5ef4 e13f d419 aebf 7c84 b3c0
000001b0: 246c f7be 9349 8b40 e85d 0f40 20bb f540
000001c0: d7cf ca40 7018 9ec0 1b44 22c0 b1b2 2d40
000001d0: ff06 06bf 83d1 b540 e1ac abbf 0155 1941
000001e0: 8a30 683e 96ac e740 aa2d 393f 711a 00c1
000001f0: aa50 33c1 eeb5 b3c0 61ca 6dc1 e368 d2c0
00000200: 09ef 6540 d495 afbf 2a8f 07c0 e265 86c0
00000210: b83b 95c0 199d 7640 6a50 593f 8e28 1540
00000220: b3fb cdbf b314 5e3f 5d62 62c0 78d3 963f
00000230: 7109 c740 8c8d 5040 c0e7 8740 128c 3a40
00000240: abac 86bf ffff 0340 a0f8 cbbf 662e f8c0
00000250: 3049 f840 10db c540 de3e 773f 6861 9e3e
00000260: 9953 823f 4433 0b41 227c be3e f12f cc3f
00000270: f173 1340 811e 23c0 be1b c63d 149b 1840
00000280: efa5 8cc0 0e82 b940 832b b4c0 5904 0940
00000290: 74e9 debf ce10 6140 4680 843f b46b 9bbf
000002a0: a57e a63f 7cd7 e140 c2a3 8e40 57d7 2540
000002b0: e3ee 81c0 7da9 ee3f 20d2 47c0 fe02 0cc0
000002c0: a312 0341 5d2e 78c0 3733 66c0 ac27 70c0
000002d0: ab9e 66c0 0915 b3bf 1875 a6bf 6a3f 033f
000002e0: 027d e13f ffbd 1240 47d6 55c1 b784 7d40
000002f0: 70c7 953f 93dd 4940 baeb 1ac0 53d8 6040
00000300: 1ef8 303f a587 9e40 006d 5fc0 1365 babf
00000310: 020f 523e 1c89 1141 778d 3f41 3679 3140
00000320: ceea ee40 174e dc3e abf1 6a40 5fc1 d6bf
00000330: beaf 5d40 1b41 10bf 7382 b8bf deb2 0a41
00000340: 83fc 8f3f 6722 ce3f c475 8abe ea5e a5be
00000350: 008a be40 07fb 44c0 bf67 4dbf b233 8640
00000360: 460f 0340 a24a 2ac0 d705 fdc0 c8d3 0ac1
00000370: 61db debf e52e 9840 92a9 4dbf 3ef6 1a40
00000380: 09f4 51c0 f30b 2bc0 6a36 a140 66f8 e040
00000390: b2d2 0c40 ea93 203f ff73 d140 7202 8bbe
000003a0: 51d0 35bf d5ce 8fc0 d105 42c1 1934 8840
000003b0: 8b67 e23f 1e6f 70c1 a26e 5ac0 ef32 8a3f
000003c0: 8e50 9abe 07ac 983f fb02 883e 12d4 3b3f
000003d0: 5291 1241 dea6 e83f 51f0 df40 7f23 813e
000003e0: e62d 91c0 d072 14c0 60a6 34c0 df30 603f
000003f0: d828 92c0 c599 95c0 0180 8540 fc1d 5940
5.203917 -2.4041862 2.2083375 1.9599411 1.1964055 0.38046777 1.1213434 -1.3921338
-0.77331775 4.015473 -0.76118404 1.0496664 -5.452066 8.023266 6.6276217 -3.228151
1.8977692 -3.5262842 -4.218331 -5.5258803 -3.204732 2.0308187 0.21380833 -3.9949596
-12.316336 -5.2767057 3.0969172 0.18320641 -8.252202 -3.972435 3.399268 -2.3339524
2.0044093 4.1753364 3.5746624 -2.3827772 -3.6770778 10.471571 -2.9623437 -1.4758245
4.9899487 -1.763983 -1.4459752 -7.671541 -0.31348252 4.5421033 0.76792336 -1.5270648
-7.1243544 -1.0045259 -4.2153015 -3.12046 -11.585042 4.71079 -7.244214 -5.246695
1.4742376 -0.5818608 3.0013902 -3.1901035 -5.34335 1.3379035 2.6747801 -2.5734835
1.5405581 -0.43064228 3.7126074 5.418023 3.0508676 -4.2275066 7.2231073 7.2254443
1.4394274 1.2277117 2.2026079 9.251171 -1.3861958 -6.2348456 -0.0017572751 2.8969927
-6.30761 2.8252244 -14.387646 -3.2261167 4.232452 -0.89462256 0.93191504 7.001651
0.4702286 -1.0184101 -2.49706 -1.0113522 -10.065864 5.6541457 0.1754247 2.4779217
-5.520778 -0.85991096 6.019528 -2.3007202 -0.3479202 -0.454028 12.60097 7.340277
3.5717134 1.76527 -1.3601632 -5.6099224 -0.48324692 4.352731 2.2401066 7.6790924
6.337871 -4.940483 -2.5354068 2.7140315 -0.52354425 5.681825 -1.3412133 9.583253
0.22674766 7.2398176 0.723353 -8.006455 -11.207193 -5.615958 -14.861909 -6.5753036
3.5927145 -1.3717599 -2.118113 -4.199937 -4.66354 3.8533385 0.8488833 2.3306003
-1.6092438 0.86750335 -3.5372536 1.1783285 6.2199025 3.2586393 4.24704 2.9147992
-1.0521444 2.0624998 -1.5935249 -7.755664 7.758934 6.182991 0.965803 0.3093369
1.0181762 8.700016 0.3720408 1.595213 2.3039515 -2.5487368 0.0967326 2.3844652
-4.3952556 5.797126 -5.6303115 2.1408904 -1.7414994 3.5166507 1.0351646 -1.2142243
1.3007399 7.0575542 4.45749 2.5912683 -4.060411 1.8645474 -3.1222 -2.1876826
8.19205 -3.8778298 -3.596876 -3.7524214 -3.6034343 -1.3990794 -1.3004484 0.5126864
1.7616274 2.2928464 -13.364814 3.9612253 1.1701488 3.1541488 -2.4206376 3.5132034
0.69128597 4.954058 -3.4910278 -1.4562095 0.20513538 9.095974 11.972037 2.7730231
7.4661627 0.43028328 3.6710002 -1.6777762 3.4638515 -0.56349343 -1.441481 8.668669
1.1248935 1.6104249 -0.27042973 -0.32298976 5.9543457 -3.0778215 -0.8023643 4.1938105
2.0478072 -2.6608052 -7.906963 -8.676704 -1.7410699 4.7557244 -0.8033687 2.4212794
-3.2805197 -2.6726043 5.0378923 7.030322 2.2003598 0.627257 6.5454097 -0.27150303
-0.7102099 -4.493998 -12.12642 4.2563596 1.7687849 -15.027128 -3.4130025 1.0796794
-0.30139583 1.1927499 0.26564774 0.7337047 9.160479 1.8175924 6.9980855 0.25222394
-4.536853 -2.3195076 -2.8226547 0.8757457 -4.567486 -4.6750207 4.1718755 3.392455

input_layer.bias f4 [50]
00000000: 3761 d1bf 7709 e8c0 65d6 3440 5c08 b0c0
00000010: 9a9d 0641 4126 8740 0976 a4c0 5d14 0241
00000020: 0583 7cc0 3e32 ea40 1d09 2241 5891 04c0
00000030: 9958 f140 bbee 96c0 2fb4 3641 85fb da3f
00000040: a275 af3f 5709 52c0 6449 64c0 5d0d 09bf
00000050: ab05 82c0 ff65 7ac1 3da3 1141 9fc6 3cc1
00000060: 4ebd 70bf d86d 6e40 5c76 9ac0 e5c3 5440
00000070: 5f31 2741 1b1e 813f b30b d240 9f3d 99c0
00000080: 73be 3140 5ef3 953e 7d05 17c1 0be9 dd40
00000090: 8d01 8641 19a4 2340 6de2 d2bf a7c0 6e41
000000a0: ed43 33c0 a1e2 2341 f632 2abf d33c cec0
000000b0: eddf 3640 0659 bdc0 1a0b a2c0 e03c 11c1
000000c0: 6a4f 1b40 d0ff fb3f
-1.6357793 -7.2511554 2.8255856 -5.5010204 8.413477 4.2234197 -5.1394086 8.1299715
-3.9454968 7.318633 10.127225 -2.071371 7.542065 -4.716642 11.41899 1.7108008
1.3707774 -3.28182 -3.5669794 -0.53536016 -4.063192 -15.649901 9.102353 -11.7984915
-0.94038856 3.7254543 -4.826948 3.3244565 10.4495535 1.0087312 6.563928 -4.788772
2.777249 0.29287237 -9.43884 6.9346976 16.750757 2.5568907 -1.647535 14.922034
-2.8010209 10.242829 -0.6648401 -6.444925 2.8574173 -5.917117 -5.063855 -9.077362
2.426722 1.9687443

hidden.0.weight f4 [50, 50]
00000000: ad93 1741 cd9c 0941 44ed c9c0 932f 5e40
00000010: 7cc7 27c1 d214 d8c0 5bef 6340 489f 74c0
00000020: 93c6 ff40 e51f 70c0 6dd5 a0bf d773 48be
00000030: 93b9 c6bf 26ea 863f 3366 5740 166c 8540
00000040: 288d 2941 577e 01c0 afd6 ccc0 65e1 4040
00000050: 728b 86c0 750c b8c0 c44a 2bc1 56a9 1e41
00000060: 089d b7bf 157c 69c0 61bc 0a40 3216 5bc0
00000070: 02d8 94c0 378e c840 36dc 833e 97a1 91bf
00000080: fc9d d6c0 8506 803f cc01 083f 6b5d 84bf
00000090: b392 b9be 2954 a1c0 f8f9 82bf 0578 2d40
000000a0: e4b6 45c0 6549 abc0 db5c 6bc0 ee7b 25c0
000000b0: b90e 6840 de49 95be 229c cc40 13bd 1940
000000c0: f257 f43f 8744 5ac0 5af4 b6c0 cfa7 5dbf
000000d0: 43a5 1241 5ec9 5c40 3f78 56c0 6f28 92c0
000000e0: 6fa6 6d3d 8f72 09c0 4f23 aec0 7e37 3ac0
000000f0: 6a51 bac0 257f 1c40 1f7b a6c0 dcec f43e
00000100: 05e9 b0c0 446f 91c0 3a38 62c0 e6c7 82c0
00000110: a551 6340 444e a5bf ea7e 5840 10cc e440
00000120: 6143 e640 3813 2cc0 b9e8 0f41 cdf2 0bc0
00000130: 1e3a 7c40 27f0 4e3e 3cab 8840 6a2e ebbf
00000140: ec09 b9c0 c6f2 b23f 71e5 8ac0 2de5 843f
00000150: d27f c1c0 5096 f3c0 4e85 44c0 477e 2840
00000160: 6074 1841 c402 d5c0 e680 813f be3b 0b41
00000170: e55b 00c1 1ab5 9e40 9884 2bc0 0271 9d3f
00000180: dc49 9dc0 500f f43f 7c02 cc40 44bd fc3f
00000190: 929d 17c1 c11f cb3d 8def b9c0 3a67 4e40
000001a0: 59e5 8940 f23a 52c1 4b49 8e40 7902 6440
000001b0: 2488 293f c377 9bc0 d281 b0c0 ad2b 5f3f
000001c0: ea74 8bc0 97e8 b13f e6a0 96c0 69c3 f0bf
000001d0: f4d2 173f 5c07 13c1 fb43 c740 070a 23c0
000001e0: 2437 0540 b480 9640 9953 8dbf 50ef 2540
000001f0: 1c89 94c0 8199 c4bf e695 4e41 cae8 963f
00000200: 049d adbf 6519 ab40 9055 a1bf b766 9f40
00000210: 6823 463f 4d3c a8c0 3601 50c0 9c61 13c0
00000220: ea71 ccc0 0b7f 05be 0ded 5240 5c60 02c1
00000230: 50c3 8240 55bc 2abe f5b3 a9c0 50d4 cc3f
00000240: f918 c440 1ee5 3140 49ae 3bc0 e36b 85c0
00000250: 963d 07bf 700b 76c0 4c5a b140 15c8 82c0
00000260: 394c a840 cfac 8cc0 6c75 dfc0 95c3 8a40
00000270: b1e7 00c0 fb02 7cc1 2077 e73f ae64 62c0
00000280: 211f 99bf b6fe 5dc0 78dd 5cc0 f03d 44c0
00000290: 7843 bdc0 492b 31c1 35e9 96c0 b84e f3bf
000002a0: 4409 80c0 b90c f9bf 763c 91c0 43cc 3941
000002b0: 2577 233f ee30 66c0 c90f 1d40 dbb6 f1c0
000002c0: 78c4 acbf d9ee 85c0 5e53 03c0 9a45 dbc0
000002d0: 69a9 d43f bf60 0841 7c46 e6c0 26e7 26c0
000002e0: fe14 f43f d861 61c0 c418 b0c0 1ee5 d4bf
000002f0: c01f 6bc0 7199 69c0 d57a 813f dd70 16c1
00000300: bf7b 3d3f 8fd3 e240 4818 9e3e dd85 ba3f
00000310: 7939 2d40 f3d4 883e 9a0c 2740 44b9 16c0
00000320: 933b 1540 e305 41c0 0e58 d6bf e952 e040
00000330: afba e1bf a2c3 e4c0 a8b2 0341 93b0 14c1
00000340: 4cef 3cbe a8b5 96c0 9e51 cf3e a366 9ac0
00000350: d39f 3fc0 436d 863f 58d2 8240 eb6e 0740
00000360: ee41 7dc0 01d1 0441 08b6 3340 092f 4440
00000370: 970b 23c1 f172 cb40 6850 663f 098e 8740
00000380: b936 e0bf 364c 9cbe f51d c3c0 e542 61c0
00000390: 47af 1dc0 7f4f 01c0 67d6 c8bc dd8b d640
000003a0: ce2d 6040 b6f5 4e40 4b56 8140 b240 f3bf
000003b0: 96ea 4fc0 3e01 0941 d1a6 b8bf 383e 96c0
000003c0: 3458 3dbf 1396 d23f 9268 80c0 02af 4441
000003d0: 3869 1640 2398 6340 96c8 3241 2de2 53c0
000003e0: b3ea 70c0 df79 74bf 0637 8640 fd57 9ac1
000003f0: 1bff a83f ed08 20c0 c373 e63f 8b3e 9b40
9.473554 8.600781 -6.310213 3.4716537 -10.486202 -6.7525415 3.561484 -3.8222218
7.99299 -3.7519467 -1.2565132 -0.1957544 -1.5525383 1.0540206 3.3656127 4.169444
10.596962 -2.0233362 -6.4012065 3.013757 -4.204522 -5.7515206 -10.705753 9.916342
-1.4344797 -3.6481984 2.1677477 -3.4232297 -4.651368 6.26736 0.25753945 -1.1377438
-6.706785 1.000199 0.5312774 -1.0341009 -0.36244735 -5.0415235 -1.0232534 2.7104504
-3.0892878 -5.3527093 -3.6775424 -2.585689 3.6258986 -0.2915792 6.394059 2.4021652
1.9089339 -3.4104326 -5.717328 -0.8658418 9.165347 3.4497905 -3.3510892 -4.5674357
0.05802005 -2.147617 -5.44181 -2.909637 -5.8224382 2.4452603 -5.2025294 0.4783696
-5.528445 -4.544832 -3.5346818 -4.0869017 3.5518582 -1.291451 3.3827462 7.14991
7.195725 -2.688673 8.994317 -2.1866944 3.9410472 0.20208798 4.2709026 -1.837354
-5.782461 1.3980339 -4.340508 1.0382439 -6.046853 -7.6120987 -3.0706363 2.6327074
9.528412 -6.6565876 1.0117462 8.7020855 -8.022435 4.959607 -2.6799679 1.2300112
-4.915266 1.9067173 6.3753033 1.9745259 -9.475969 0.09918166 -5.810492 3.2250504
4.3092465 -13.139391 4.446447 3.562651 0.6622336 -4.8583694 -5.515847 0.8717602
-4.3580217 1.3899106 -4.707141 -1.8809634 0.59306264 -9.189297 6.2270484 -2.547487
2.0814905 4.703211 -1.1041137 2.5927315 -4.641737 -1.5359346 12.911596 1.1789792
-1.3563542 5.34685 -1.2604237 4.9812884 0.77397776 -5.257361 -3.250074 -2.3028326
-6.3889055 -0.13036744 3.2957184 -8.148525 4.086342 -0.16673405 -5.3032174 1.6002293
6.1280484 2.7796092 -2.9325125 -4.16942 -0.5282835 -3.844448 5.5422726 -4.086924
5.2593045 -4.396095 -6.9830837 4.3363748 -2.0141413 -15.750728 1.8083229 -3.537395
-1.1962625 -3.4686713 -3.4510174 -3.0662804 -5.914486 -11.073068 -4.7159677 -1.9008398
-4.001131 -1.9457008 -4.5386305 11.612369 0.63853675 -3.5967364 2.4540884 -7.553571
-1.3497458 -4.185406 -2.0519633 -6.8522463 1.66142 8.52362 -7.196104 -2.6078582
1.9068906 -3.521597 -5.503023 -1.6632421 -3.6738129 -3.6499903 1.011561 -9.4025545
0.74016947 7.088325 0.308779 1.4572102 2.7066329 0.26724967 2.6101441 -2.3550577
2.3317611 -3.0159843 -1.6745622 7.010121 -1.7635096 -7.148881 8.231117 -9.293109
-0.1845066 -4.709675 0.40491956 -4.825029 -2.99413 1.0502094 4.0881767 2.116145
-3.957149 8.301026 2.8079853 3.0653708 -10.19033 6.357781 0.8996644 4.2360883
-1.75167 -0.30526894 -6.097407 -3.519708 -2.463823 -2.020477 -0.024516298 6.704573
3.5027957 3.233747 4.041784 -1.9004118 -3.248693 8.562803 -1.4425908 -4.695095
-0.7396271 1.6452049 -4.012765 12.2927265 2.350172 3.5561607 11.173971 -3.3106797
-3.764325 -0.9549846 4.1942167 -19.292963 1.3202852 -2.5005448 1.8004078 4.8513846

hidden.0.bias f4 [50]
00000000: b9ad e4c0 7611 92c0 f30c 58c1 ff04 b8c0
00000010: 6667 16c1 2de2 a040 fe52 4640 39fb 3ebf
00000020: 3206 05c0 9b98 62c0 34e4 4a41 1f82 a140
00000030: d800 34c0 afa1 62c0 0b48 1fc0 81fa 4841
00000040: b797 2140 8439 b740 801b 72c0 6075 b0c0
00000050: 986f dfc0 724b aebe 213b 5640 c668 4c41
00000060: bc64 ba40 109a 70c1 b792 5f41 2aef c440
00000070: 444a 2c40 a7ac 0bc1 dff8 4240 ff22 e540
00000080: 5265 8740 b06f 2ac1 2277 cbbf 49e8 55c1
00000090: 050c 2fc0 f096 5041 7253 3e41 8a0a 5e40
000000a0: c9dd d540 ee1b a33f 1431 5e40 aebf f43f
000000b0: afe8 68c1 322d a541 f7c3 4e41 4cc5 dd40
000000c0: c935 d9c0 646a d140
-7.1462064 -4.5646315 -13.503161 -5.75061 -9.400244 5.0276093 3.0988154 -0.74602085
-2.0785031 -3.5405643 12.680714 5.047134 -2.8125515 -3.5411184 -2.4887722 12.561158
2.524885 5.725771 -3.7829285 -5.514328 -6.9823723 -0.34041935 3.347359 12.775579
5.8247967 -15.037613 13.973319 6.154195 2.6920328 -8.729651 3.04644 7.160522
4.231118 -10.652267 -1.5895731 -13.36921 -2.7351086 13.03685 11.895372 3.4693933
6.6833234 1.2742898 3.4717455 1.9120996 -14.5568075 20.647068 12.922843 6.930334
-6.7878156 6.544237

hidden.1.weight f4 [50, 50]
00000000: 6b8b 5a41 b03c e1c1 1179 65c1 2f0f 1fc0
00000010: 8303 4dbf 16d3 97c0 d5f2 e2c0 cc30 b9c0
00000020: 2480 cd40 6c25 40c1 5ab2 55c1 9463 cd40
00000030: f300 6240 fa04 cd3f 2442 be40 27c1 083f
00000040: 40b5 e440 ac03 8cc1 7322 be41 d238 55c1
00000050: 9398 7a41 2116 2941 8fda 7341 6eab 2841
00000060: c4e6 7a40 00a7 fcbf 9cc1 31c0 2b6d 3e41
00000070: 8d6b 77c1 1753 ca40 3fb6 8d41 3a69 6040
00000080: 8b26 fec0 f6a8 2a41 28c6 53c1 ed09 19c0
00000090: 6c6f b0bf 989a bd3e f586 9ec0 0d06 8340
000000a0: 965a 83c0 39fe dcc0 aeb3 91c0 c1d1 243f
000000b0: 96db ed3f bc1f ac40 1c9b 52c0 b429 0441
000000c0: 552e c741 39b1 a041 95cb b53e 0f9f e7bf
000000d0: aad1 8041 a39a 2dc1 2552 a0bf 6cc3 9a40
000000e0: 8d4d acc0 222d ffbe 34f6 1541 6e0a cebf
000000f0: 45cb 42c0 7d59 9040 4c71 1141 8e3d 9bc0
00000100: 1792 4941 0bf4 7dc0 46a5 75c0 f582 edbe
00000110: 2ec5 fbc0 8ee6 5c3d 79a1 45bf 5c3a 0bc1
00000120: 5061 c0c0 4294 83c0 cdde 0841 e348 8fc0
00000130: 0965 32c2 5f80 7f3f 985b 26bd d26a c640
00000140: 814b dac0 9a26 01c0 3a91 a6c0 1c8f 1241
00000150: d385 8040 7931 d040 d80f db41 f595 0f41
00000160: dfde 8cc0 3abb 43c0 0b95 0bc2 aea2 a2c1
00000170: 06cd bb40 5099 a8c0 e3c9 2041 7bd7 1ac1
00000180: 635f 83c0 f0ee ef40 13d1 0f41 882f 0240
00000190: 0075 aac0 1374 f3c0 7163 3e41 bd87 7ec1
000001a0: d430 5d41 97fa 12c1 f963 7ec1 50ee 0fbf
000001b0: c0d6 f13f 1712 6341 df97 b5c0 9fd3 0b41
000001c0: c277 363f b323 5841 21c0 1b40 ba03 33c2
000001d0: 835f eebf da16 0941 e292 e23f 64d0 db40
000001e0: 407f e13f 67eb a0c0 2c25 1f41 20b7 9dc0
000001f0: e868 4641 dae6 5a3f 03ba dcc1 2840 bb3f
00000200: eea4 0b41 60d6 e7c0 efdd 4b40 55c7 b840
00000210: ac19 07c0 e79a ac3c 07bd bf40 da64 3641
00000220: 95c3 10c0 a100 ecc0 5f26 6040 10d8 cf40
00000230: fde1 9a41 2f36 4a41 7e76 0040 9247 0dc0
00000240: cdf8 d640 72e3 34c1 2bd4 ca3d 16e7 09c1
00000250: 6ccf b9c0 cd94 81c0 6bca 0d3f 6799 c13e
00000260: aba5 45c1 6bc4 5d3f f393 2241 f794 37c0
00000270: 3128 57c0 5016 8f3e 26f6 29c1 bba3 2ac0
00000280: d9cf 99c0 e58b acc0 97df e3c0 ef1a 40c1
00000290: 3103 b13f 90ab f140 f7d0 2140 5276 94c1
000002a0: a407 55c0 6317 a1bc 8f79 27bf 70fb 1441
000002b0: e3e3 8440 079d 0542 cf8e 6fc0 dfc6 6c3f
000002c0: 9d61 82bf 60b0 cf3f 27b1 21c1 81c8 6840
000002d0: 7c73 58c0 3ae2 0941 5eca 9740 2304 52c0
000002e0: 3dab f2c0 3b4a b6c1 effe 5240 bcf4 fd40
000002f0: fe8c 92c1 5d5b bd3e 045d 8f40 8be8 dfc0
00000300: 620a 1abe 26a3 1d41 ea4f afc0 dd68 39bf
00000310: 3125 8140 f59f 2e41 4856 e5c0 49fe afc0
00000320: 6e4f e640 d8e5 66c1 7fd9 1bc1 5232 88c1
00000330: ffd2 0541 8a76 a33f 3363 a7c1 fa1e f93f
00000340: 630b fec0 8418 2840 3bb0 6741 6703 9640
00000350: aced 9cbf ec77 ec3c 1c30 2c42 9094 3c40
00000360: a945 3ac1 1e62 47c0 e094 eac0 1db0 e43f
00000370: 1f4f 31c0 a386 a241 e984 40c1 b212 0840
00000380: 376c eb40 8702 12c1 51c2 ba3f 5fda a141
00000390: 24f6 0340 8554 4bc0 d1f9 a640 4eca 90bf
000003a0: e3ae c640 f0a0 0a41 8472 2dc1 0c64 4b3f
000003b0: 7ed1 d540 e32e b2c0 4a3b c641 8057 e440
000003c0: 8b2d 46bf ffcc a4c0 c7c8 3e41 2025 10c0
000003d0: 3217 79c0 460c 01c1 73ed 48c1 e000 2ac1
000003e0: 3d95 95c0 879f 58bf 2080 10c0 d863 9940
000003f0: b482 8040 b38d 0f3f 2b67 d040 d40f 2540
13.659038 -28.154633 -14.342057 -2.4853017 -0.80083483 -4.7445173 -7.0921426 -5.7872066
6.421892 -12.009136 -13.356043 6.4184055 3.531308 1.6017144 5.945574 0.5341973
7.1471252 -17.501793 23.76682 -13.326372 15.66225 10.567903 15.240859 10.541853
3.9203348 -1.9738464 -2.777442 11.901652 -15.4637575 6.322643 17.713987 3.5064225
-7.942205 10.66625 -13.235878 -2.3912308 -1.3784003 0.37032008 -4.9539742 4.0944886
-4.104808 -6.906033 -4.5531836 0.6438256 1.8582637 5.378874 -3.2907171 8.260181
24.897623 20.086535 0.35506883 -1.8095416 16.102375 -10.850253 -1.2525069 4.836355
-5.3844666 -0.4983912 9.372608 -1.6096933 -3.0436566 4.510924 9.09016 -4.851264
12.598166 -3.9680202 -3.8382125 -0.46388975 -7.86782 0.05393081 -0.7719951 -8.701748
-6.011879 -4.111848 8.554395 -4.4776473 -44.598667 0.99805254 -0.040614694 6.2005396
-6.821717 -2.017981 -5.205228 9.159939 4.016336 6.506039 27.382736 8.974111
-4.402206 -3.0583024 -34.89555 -20.329433 5.8687773 -5.268715 10.049289 -9.677608
-4.105394 7.497917 8.9885435 2.034151 -5.326782 -7.607919 11.899278 -15.908139
13.824421 -9.186179 -15.899407 -0.5622301 1.8893661 14.191916 -5.674789 8.739165
0.71276486 13.508716 2.4336016 -44.75364 -1.8622898 8.568079 1.7701075 6.8691883
1.7616959 -5.0287356 9.946575 -4.928604 12.400612 0.855085 -27.590826 1.4628954
8.727766 -7.244919 3.1854208 5.7743325 -2.110942 0.021069957 5.9918246 11.399622
-2.2619374 -7.375077 3.502342 6.495125 19.360346 12.638228 2.0072322 -2.2074933
6.717871 -11.305529 0.09903749 -8.618917 -5.80657 -4.049414 0.5538699 0.3781235
-12.352946 0.86627835 10.16112 -2.868467 -3.361828 0.2794671 -10.622595 -2.6662433
-4.806622 -5.392077 -7.1210437 -12.006576 1.3829099 7.5521927 2.5283792 -18.557774
-3.3285913 -0.019664472 -0.6541986 9.311386 4.152818 33.403347 -3.7430913 0.92490953
-1.0186039 1.62257 -10.10575 3.6372378 -3.3820486 8.617731 4.743453 -3.2815025
-7.583403 -22.786245 3.29681 7.936125 -18.318844 0.36983767 4.4801044 -6.9971366
-0.15043023 9.852331 -5.478505 -0.72425634 4.03579 10.914052 -7.1667824 -5.4997907
7.197196 -14.431114 -9.7406 -17.02457 8.364013 1.277055 -20.923437 1.9462578
-7.93889 2.6264963 14.480525 4.6879153 -1.2260032 0.028865777 43.04698 2.9465675
-11.642007 -3.1153636 -7.330673 1.7866246 -2.7704542 20.31574 -12.032449 2.126141
7.35696 -9.125617 1.4590551 20.231627 2.0618982 -3.1770337 5.217995 -1.1311738
6.2088485 8.664291 -10.840458 0.79449534 6.681823 -5.5682235 24.77895 7.135681
-0.77413243 -5.150024 11.924018 -2.252266 -3.8920407 -8.065496 -12.557971 -10.625214
-4.6744676 -0.8461842 -2.2578201 4.793438 4.015955 0.5607559 6.5125937 2.579091

hidden.1.bias f4 [50]
00000000: 9df0 5841 e85a c6c0 5946 6041 1ceb 4642
00000010: 7580 9840 4013 47c2 6151 9641 4732 1442
00000020: dccf f5c0 b0d3 51c2 7f33 26c2 ccea 67c1
00000030: b39f 08c0 3ba3 0541 71db 3942 6c5e 3842
00000040: 51ab 61c1 4129 19c2 908a 56c0 a1b7 0342
00000050: 56f2 02c0 d773 8c41 1297 a1bf 1dec 7541
00000060: cc87 5340 f2d2 18c0 3e46 53c2 1e4f ebc1
00000070: a69e 2cc2 0ad1 acc0 1656 d2c1 5b11 85c1
00000080: 2571 2840 f6f4 3fc2 7c6d 4ec2 bf7a 7441
00000090: 7d57 2342 4ee2 6cc2 8df4 e43e 355a f440
000000a0: 7c13 5942 b63f b941 8b6f 5fc1 bf27 bb41
000000b0: 0a21 4dc2 17fd bfc0 0fe5 d4c1 81b4 9c3f
000000c0: df27 6141 6a4c 3d42
13.5587435 -6.198597 14.017175 49.7296 4.765681 -49.7688 18.789736 37.0491
-7.6816235 -52.456726 -41.55029 -14.494823 -2.1347473 8.352351 46.4643 46.09221
-14.104325 -38.290287 -3.3522072 32.929325 -2.046041 17.556562 -1.2624228 15.370145
3.3051634 -2.387875 -52.818596 -29.413631 -43.15493 -5.4005175 -26.292034 -16.633474
2.6319058 -47.98922 -51.60692 15.279967 40.835438 -59.221 0.44717827 7.6360116
54.269028 23.156109 -13.964732 23.394407 -51.282265 -5.9996448 -26.611845 1.2242585
14.072234 47.324623

output_layer.weight f4 [49, 50]
00000000: eb63 bebe b2aa 9bbf 02fb 9ebf c36e 2d3f
00000010: 969b 793f a214 4bbf 2f93 bf3f 84f2 b43f
00000020: d941 b6bf 9e64 25bf 139f 7ebf 9a07 b3bf
00000030: 9411 583f fa68 a83f 901d 343f e829 af3f
00000040: 37ce 183f ab6d 61be 198a b9be 0a54 b53f
00000050: 118d 15be 33dd ba3e 2a68 aabd ae07 983f
00000060: e403 ee3e ac66 9cbf e1ce b4bf 04d7 623f
00000070: 633c bd3f ad37 483e 4c24 ccbf 7fa9 75bf
00000080: fa56 463f ffa9 ad3f 30f9 62bf 9aab a23f
00000090: 7049 c53f e5b8 73bf d812 443f b668 89be
000000a0: ca23 fdbf 48b4 983f 56e5 023f 1edc 973f
000000b0: ff75 bebf fd89 17bf ad5a af3d 1e8c bf3d
000000c0: d8ce b4be dc36 8a3f a754 97bd 287c a8bf
000000d0: 97d2 a8bf db8b 093f 0713 813f 5296 51bf
000000e0: 87c1 0240 93ef 7c3f 035c c9bf 8b29 30bf
000000f0: a945 74bf fde3 b5bf cd60 683f ed4f 9f3f
00000100: ab26 053f ce8f a53f e69e 1f3f 23fe 3cbe
00000110: 5251 a2be 09b9 af3f 0070 cebc cee4 9b3e
00000120: 0c2a 06bb 3177 903f 2f1b be3e 55b7 90bf
00000130: 326b bcbf ba71 573f 5ecd cc3f 1b45 cf3d
00000140: a12d c1bf bb6a 8cbf 5340 633f 4614 bb3f
00000150: 504b a3bf c2f5 973f 80a3 b33f 71a5 8fbf
00000160: 1c42 463f 493c 3dbe 4700 f1bf c202 ad3f
00000170: c5ca 2c3e 8ac1 9a3f 83bc 80bf ff44 14bf
00000180: a864 d03d bf42 213e 5a1c 8fbf 676c 923f
00000190: 3114 2cbe 8e6c a7bf c8a8 afbf d956 213f
000001a0: 62cc 7a3f fc42 67bf 26de ab3f b213 ab3f
000001b0: 30b0 a4bf 5452 45bf 43df bcbf 87ac adbf
000001c0: 4ff6 7f3f 0e7f bd3f 02fc 453f 4eb9 9e3f
000001d0: ee3c 2a3f 537f 19be 2cdf d4be 0eff a93f
000001e0: 47eb 8cbe aa80 9f3e 1361 38bd 8618 8e3f
000001f0: 77e5 f73e 7fb0 09c0 3844 c3bf ed5d 513f
00000200: 2cf8 be3f 63d1 7c3e adea 00bf 5442 70bf
00000210: 1752 2e3f 3b27 af3f 734b 53bf 2d5f a63f
00000220: a20c 9b3f 07dd 8abf 5bd4 3d3f e55f a1be
00000230: a798 f6bf 855b 973f df56 653f ef18 9c3f
00000240: 1aa3 89bf 8af8 10bf 9e69 103e 643a c13d
00000250: a19e 09be 1670 883f ec57 cbbe f10d 97bf
00000260: 81f8 acbf 4470 193f bb87 7c3f 4ae5 6fbf
00000270: 765d c93f 55a4 a93f 79ca 98bf 6997 5dbf
00000280: 0d57 81bf 0744 b4bf 0800 633f cae7 bf3f
00000290: 7a03 143f 3a08 a93f 00be 263f 8388 56be
000002a0: ecd9 c2be d0a8 ae3f 7706 4abe 1087 6f3e
000002b0: dd92 47bd ad00 903f 3d4e 013f 3573 8dbf
000002c0: 4ab3 87bf 69a6 6a3f f619 bc3f b865 8c3e
000002d0: 5028 d7bf bc78 6dbf 8a8b 3a3f a6f2 b43f
000002e0: a8e9 80bf fb9c a83f ae8b a53f 36d1 82bf
000002f0: 1033 533f 5f4d 99be 3378 f3bf e8ee 893f
00000300: 78ab e03e c087 9b3f c22b 2ebf 8e95 1abf
00000310: cf7e 933d fc53 273e ef6a a2be 14dd 8c3f
00000320: d73f b43f 9c4a 9fbf 5668 bfbf eccb dd3e
00000330: b789 793f a0f2 39bf aafe b63f e157 9b3f
00000340: 9a6e b7bf 4d38 63bf 4c02 d7bf 66b7 bbbf
00000350: d219 523f c2dc aa3f 11d9 763f 8b92 a23f
00000360: b558 3c3f 1dd8 cabe a023 eabe e2b3 a53f
00000370: 8f8b 83be e8c7 833e 0ae0 d93f 521e 803f
00000380: 6e4f 8e3e a2cd 10bf 42a0 f8bf 81a8 483f
00000390: 85c8 bf3f d6f3 683e 7491 0dc0 6f45 71bf
000003a0: 1e67 453f 9a01 ad3f ec7b 26bf 9539 ae3f
000003b0: 9139 a63f df8a 8bbf bb49 543f 504e 8ebe
000003c0: 15d2 fcbf 8ed9 8b3f 1b1d a73f fb41 993f
000003d0: 35f7 6cbf 48de 27bf 3903 343e 6f2b f53f
000003e0: a71f afbf 7efa 963f e9c9 9dbe 0962 9ebf
000003f0: e87b b1bf a472 e93e 9038 873f bd49 8dbf
-0.37185606 -1.2161467 -1.2420352 0.67747134 0.9750303 -0.7932836 1.4966792 1.413651
-1.4238845 -0.64606655 -0.9946148 -1.3986695 0.8440182 1.3157036 0.7035761 1.3684664
0.5968966 -0.22014491 -0.36238173 1.4166272 -0.14604594 0.36496887 -0.08320649 1.1877344
0.46487343 -1.2218833 -1.4125634 0.8860934 1.4784054 0.19552489 -1.5948577 -0.95961756
0.77476466 1.3567504 -0.8866148 1.2708619 1.5413036 -0.95204 0.76591253 -0.268377
-1.9776547 1.1930017 0.5113119 1.186405 -1.487976 -0.5919493 0.08562217 0.09352897
-0.3531406 1.0797992 -0.07389193 -1.316289 -1.3189267 0.5372903 1.0083932 -0.81869996
2.043062 0.9880306 -1.5731205 -0.6881339 -0.9541879 -1.4210202 0.90772706 1.2446266
0.5201213 1.2934511 0.62351835 -0.1845632 -0.31702667 1.3728343 -0.02519989 0.30448002
-0.002047184 1.1286374 0.37130114 -1.1305948 -1.4720213 0.8415791 1.6000173 0.10120603
-1.509205 -1.0970072 0.88770026 1.4615562 -1.2757359 1.1871874 1.4034271 -1.1222364
0.77444625 -0.18480028 -1.882821 1.3516467 0.16874225 1.2090313 -1.0057529 -0.5791778
0.10175449 0.15748118 -1.1180527 1.1439332 -0.16804577 -1.3080003 -1.3723383 0.63023144
0.97968113 -0.90336585 1.3427169 1.3365386 -1.2866268 -0.7707875 -1.4755634 -1.3568276
0.9998521 1.4804399 0.7733766 1.24003 0.6649922 -0.14989977 -0.41576517 1.3280962
-0.27523252 0.3115285 -0.045014452 1.1101234 0.48417255 -2.1513975 -1.5255194 0.81783944
1.4919486 0.2468925 -0.50358087 -0.9385121 0.6809401 1.3683847 -0.82537 1.2997795
1.211323 -1.0848702 0.74152154 -0.31518474 -1.9265336 1.1824805 0.8958568 1.2195109
-1.07529 -0.5662924 0.1410279 0.09434965 -0.13439418 1.0659206 -0.39715517 -1.180113
-1.3513337 0.5993693 0.9864461 -0.9370924 1.5731647 1.3253275 -1.193679 -0.8655916
-1.0104691 -1.408326 0.8867192 1.4992611 0.57817805 1.3205636 0.65133667 -0.20950513
-0.38056886 1.3645267 -0.19729029 0.23391366 -0.048724044 1.1250206 0.5051001 -1.1050783
-1.060159 0.9166017 1.4695423 0.27421355 -1.6809177 -0.9276235 0.7286917 1.413655
-1.0071306 1.3172907 1.2933252 -1.0220096 0.8249979 -0.29941842 -1.9021057 1.0776033
0.4388082 1.2150803 -0.6803552 -0.6038445 0.07201921 0.16340631 -0.3172221 1.1004968
1.4081982 -1.2444644 -1.4953716 0.43319643 0.9747576 -0.7263584 1.4296467 1.2136194
-1.4330628 -0.88757783 -1.6797576 -1.4665344 0.8207065 1.334862 0.9642497 1.2700971
0.73572856 -0.39618006 -0.45730305 1.2945521 -0.25692412 0.25738454 1.7021496 1.0009253
0.27794975 -0.5656377 -1.9423907 0.78382117 1.4983069 0.22749266 -2.2120028 -0.9424657
0.7711047 1.3516114 -0.6503284 1.3611323 1.2986318 -1.0901755 0.82925004 -0.27794123
-1.9751612 1.0925767 1.3055757 1.1973261 -0.9256471 -0.6557355 0.17579354 1.915388
-1.3681535 1.1795194 -0.30818108 -1.2373668 -1.3865938 0.45595276 1.0564137 -1.1038128

output_layer.bias f4 [49]
00000000: ca3f b03f 9d87 d03f 8f38 cf3f ca2a 2840
00000010: 35e9 a03f 88b5 6e3b 75a8 a23f 605d be3f
00000020: d549 ec3e 6727 c73f e435 1e3e 12d7 b13f
00000030: eb26 053f 41cf e23e c800 c73f b574 033f
00000040: 312c 8e3f 0989 a63f 399d 863f 07c8 9bbd
00000050: 9921 cc3e 46f4 0440 03b7 d33f b1d8 8e3f
00000060: 8bbb 123f 1bc8 843f b544 93be 15a1 9b3f
00000070: e9f7 0a3f 16da 5d3d 8aeb 09bd a468 ab3f
00000080: e1ef c63e 442c 423f f146 ec3f aaa1 603f
00000090: 3539 363f bc91 babf 9468 983f 0530 a83f
000000a0: 7a2f 853f 9046 e63f e350 093f c379 a440
000000b0: 590c 1c40 ae81 3140 c1fd 913f 3d41 f53f
000000c0: 3945 1940
1.3769467 1.6291386 1.6189135 2.6276116 1.2571169 0.003642412 1.2707659 1.4872246
0.4615008 1.55589 0.15450245 1.3893759 0.5201251 0.44298747 1.5547113 0.51349956
1.1107236 1.301057 1.051673 -0.076065116 0.39869383 2.0774093 1.6540226 1.1159879
0.5731742 1.0373567 -0.28763357 1.2158533 0.5428453 0.05416306 -0.033671893 1.3391309
0.38854888 0.75848794 1.845915 0.8774668 0.7118104 -1.4575725 1.1906915 1.3139654
1.0405114 1.7990284 0.5363905 5.1398635 2.4382536 2.77354 1.1405565 1.9160534
2.39485
