models/2600episodes/1800episodes.pth (torch, 43836 bytes, 8 tensors)

input_layer.weight f4 [50, 50]
000000 5c 23 03 41 82 64 5f 3e b3 9d 44 bf 9d 6b 96 c0
       8.196133 0.21815684 -0.7680313 -4.7006364
000010 44 c7 0c 41 c5 ca 5d c0 2f fe d3 3f b5 61 0d be
       8.798649 -3.465501 1.6561946 -0.13806804
000020 40 e1 0f c0 4b f1 3e bf fe c0 83 c0 1d 7f 28 40
       -2.2481232 -0.74586934 -4.1173086 2.6327584
000030 b1 90 2c c0 65 8b 1f 41 b1 6b a6 40 c1 41 1d c0
       -2.6963313 9.971532 5.200646 -2.4571383
000040 84 dd 06 3f bc dd 6c c0 4f 81 23 bf 3e 74 e4 c0
       0.52681756 -3.7010336 -0.63869184 -7.1391897
000050 5e ab 49 c0 e9 dc 01 bf c6 ee 00 40 b8 c0 d1 c0
       -3.1510844 -0.5072771 2.0145736 -6.554775
000060 49 46 3f c1 b8 32 30 c1 98 20 99 40 ca a7 c1 3e
       -11.954659 -11.0123825 4.7852287 0.37823325
000070 d5 01 03 c1 6f d6 52 c0 1c 51 a0 40 82 2c 95 3f
       -8.187947 -3.294338 5.009901 1.1654208
000080 54 49 0e 3e 8d bf 0b 41 24 b1 16 41 e2 ee 1b c0
       0.1389516 8.734265 9.418247 -2.4364552
000090 85 e3 11 c0 bf 63 5b 41 a3 78 a1 bf 74 11 87 bf
       -2.2795117 13.711852 -1.261494 -1.0552201
0000a0 37 bd db 40 05 db 0b c1 61 9f af c0 a1 b7 d9 c0
       6.8668475 -8.740972 -5.4882054 -6.8036656
0000b0 0c db 84 40 2b d4 69 3f eb d4 04 40 25 63 67 c0
       4.151739 0.9133937 2.0754955 -3.6154263
0000c0 35 91 cd c0 79 1d 10 bf d2 0b ec bf ed b4 c2 c0
       -6.4239755 -0.5629497 -1.8441107 -6.0845857
0000d0 08 8b e5 c0 f4 ed 37 40 f1 e7 d6 c0 70 17 a5 c0
       -7.1732216 2.8738985 -6.715813 -5.159111
0000e0 17 ca b3 c0 3b c9 2c c0 e5 98 14 41 af 30 cc bf
       -5.618419 -2.6997821 9.287328 -1.5952357
0000f0 fa 4a fe c0 6e 3f e7 40 a5 57 59 3d 1d 27 ab c0
       -7.9466524 7.226493 0.0530621 -5.3485246
000100 5b 7d 1e 41 90 9c a0 40 c8 80 81 bf aa 99 bb 40
       9.905604 5.0191116 -1.0117426 5.862508
000110 f5 41 9b 40 fd fd ce c0 55 fa db 40 f1 e2 1b 40
       4.8518014 -6.4685044 6.874308 2.4357264
000120 27 ae 20 40 71 55 23 40 dc ac 81 be b3 b2 08 41
       2.5106294 2.55209 -0.25327194 8.543628
000130 ce 98 8b c0 37 f7 f6 bf 0f 27 65 3f 25 2d 8c 40
       -4.362403 -1.9294194 0.89512724 4.380511
000140 2a 4f ab c0 b7 aa fa 3f 58 31 f2 c0 08 f1 82 c0
       -5.3534136 1.9583348 -7.5685234 -4.0919228
000150 98 3b 66 c0 d9 6b 89 c0 9f 4a 37 40 c5 80 13 41
       -3.5973873 -4.294415 2.8639295 9.218938
000160 f7 a1 8b 3f 19 cc ca c0 95 eb 75 c0 ad fc 6b 40
       1.0908803 -6.3374143 -3.8425038 3.687297
000170 a9 1a f1 c0 c4 51 f9 3f c5 78 0a 3e 8f 2f 10 41
       -7.5345044 1.9478078 0.13522632 9.011611
000180 51 1c 12 c0 c3 54 e8 bf 64 94 c7 40 14 50 e1 c0
       -2.2829783 -1.8150867 6.236864 -7.041025
000190 7d 0f 04 c0 bc 50 14 40 1f 2e 2b 41 6a aa 2e 41
       -2.0634453 2.3174276 10.69876 10.916605
0001a0 e8 f9 29 40 1f 75 0b 40 38 2c 4a c0 29 50 1e c1
       2.655878 2.1790235 -3.158949 -9.89457
0001b0 3c 04 e8 40 e8 af 96 40 fd 4a 31 40 1e 57 42 3f
       7.250517 4.708973 2.770202 0.7591418
0001c0 2e 4f bc 40 31 8c e7 c0 a2 ea 85 c0 a5 a2 45 40
       5.8846655 -7.235863 -4.1848917 3.088052
0001d0 b7 ea 73 c0 05 42 cb 40 e4 04 0c 40 8f 92 2d 40
       -3.8112009 6.351809 2.1877985 2.7120702
0001e0 9e 6e 19 3f 12 b6 ca 40 0c f3 ca 40 59 43 c6 c0
       0.59934413 6.3347254 6.342169 -6.195721
0001f0 d9 c7 5a c1 dd 0d 1a c0 25 e4 88 c1 a5 b9 5a c1
       -13.673791 -2.4070961 -17.111399 -13.670323
000200 0a ce 93 40 07 46 39 3e 02 07 8e bf 3b d0 d9 c0
       4.6189013 0.1809312 -1.1095889 -6.8066688
000210 3a 08 e2 c0 1a 47 58 40 06 67 3f c0 27 ba d6 40
       -7.063504 3.3793397 -2.990663 6.7102237
000220 e1 b1 47 c0 b6 9e 4f bf a6 64 f7 bf 4e 0c 89 3f
       -3.1202319 -0.8110155 -1.932759 1.070688
000230 0b 5f 61 40 3b 0c 41 40 c2 9d 0f 40 61 5a c7 40
       3.521426 3.0163715 2.2440038 6.2297826
000240 7a ca 04 40 73 c5 81 40 cc e9 22 c0 f1 98 98 c0
       2.0748582 4.0553527 -2.5455198 -4.7686696
000250 78 b5 81 40 1a fc 67 41 41 e3 84 40 79 a9 90 3e
       4.053402 14.499048 4.152741 0.28254297
000260 4b 64 0e 40 17 22 4c 41 c8 2b 62 40 d3 96 8d 3f
       2.2248714 12.758323 3.5339222 1.1061653
000270 85 b5 01 3f 0b 56 4d c0 7e 20 d5 3e 5b 17 8c 3d
       0.506676 -3.2083766 0.41626352 0.06840392
000280 b8 68 c3 c0 69 42 c7 40 2f 16 f1 c0 41 f8 0d be
       -6.106533 6.2268567 -7.533958 -0.13864233
000290 fa 72 76 c0 79 18 05 c0 bc ef d8 3f 9d 46 90 3f
       -3.8507676 -2.0796187 1.6948161 1.127155
0002a0 74 44 07 41 5c a2 47 41 ba 44 86 40 68 6d 71 bf
       8.454212 12.4771385 4.1958895 -0.94307566
0002b0 75 91 02 c0 49 47 30 40 a6 a7 91 c0 7d 31 4e c0
       -2.040128 2.754351 -4.551715 -3.2217705
0002c0 09 2e 09 41 75 fd 9f c0 ff 5b b9 c0 40 43 d7 bf
       8.573739 -4.9996896 -5.79248 -1.6817398
0002d0 59 4c c5 c0 6f 9b 60 bf b5 00 db bc ea b3 23 40
       -6.16557 -0.8773717 -0.026733736 2.557856
0002e0 a6 7a a6 c0 2a e1 e3 40 d8 59 83 c1 a3 81 c3 40
       -5.2024717 7.121236 -16.418869 6.109575
0002f0 0f 80 50 c0 91 f1 07 40 a2 c2 4d c0 ef 1b 9c 40
       -3.257816 2.124119 -3.2150044 4.87841
000300 27 f4 44 c0 b4 f7 76 40 19 8e 25 c0 fb cc b2 bf
       -3.0774019 3.8588686 -2.586798 -1.3968805
000310 97 2d 12 c0 0a 07 52 41 48 32 f2 40 a1 e7 dd 40
       -2.2840326 13.1267185 7.568638 6.934525
000320 17 3d c0 40 3b 3e d0 3f 6c fb a5 bf 3d ab 7f c0
       6.0074573 1.6268991 -1.2967353 -3.9948266
000330 ee 69 ac 3f 59 51 6b 40 24 bb a3 3f 1a 7c e5 40
       1.3469827 3.67684 1.2791486 7.171399
000340 6f ef fc bf 37 e3 7e 40 50 32 ac 3f 59 3c 79 40
       -1.9760569 3.982618 1.3452854 3.8943083
000350 2c d9 8f 40 bd 9c 2c c0 db bb 8c bd fa aa f2 40
       4.4952602 -2.6970665 -0.06871768 7.583371
000360 88 81 8c bf 10 f3 ef bf d1 ab 3e c1 54 de 8a c0
       -1.097703 -1.8746052 -11.916947 -4.3396397
000370 66 29 a2 c0 8a f4 f6 40 1e cf 8f bf 70 80 8f 3f
       -5.0675535 7.717351 -1.1235082 1.1211071
000380 9e 25 57 c0 ed 8c 86 3e 65 2c cc 40 18 d5 08 41
       -3.361671 0.26279393 6.3804193 8.552025
000390 5f 87 bb 3f e6 a2 2f c0 01 a4 ea 40 5b 0e 57 bf
       1.4650687 -2.7443175 7.33252 -0.8400628
0003a0 00 3f 2f c0 25 d3 92 c0 18 af bf c0 80 fb 64 be
       -2.7382202 -4.5882745 -5.9901237 -0.22361565
0003b0 83 d6 9d bf 46 68 b4 c1 c0 92 20 40 77 99 eb 40
       -1.2331089 -22.550915 2.508957 7.3624835
0003c0 27 3a a9 3e 18 ec 00 3f c8 ae 24 be c0 0d 4e 40
       0.3305218 0.5036025 -0.16082299 3.2195892
0003d0 99 fc 17 41 a0 69 be bf 69 5d e1 40 96 2f 8f c0
       9.499169 -1.4875984 7.0426526 -4.474559
0003e0 e7 63 4d c0 36 7e 8c c0 a1 8c ae bf b8 8f b5 40
       -3.2092226 -4.3904066 -1.3636667 5.673794
0003f0 23 ed 87 c0 77 df bb bf dc aa 20 40 94 ff 9c 40
       -4.2476974 -1.4677571 2.5104284 4.9061985

input_layer.bias f4 [50]
000000 09 7f a0 c0 ec 58 0b c1 c4 19 69 40 49 32 23 c1
       -5.015507 -8.709209 3.6421976 -10.199777
000010 1b 26 18 41 36 62 9e 40 3f 87 b5 c0 ce 36 02 41
       9.509303 4.9494886 -5.6727595 8.13838
000020 24 12 fd c0 93 bf cb 40 40 8c 19 41 f8 c9 06 c0
       -7.9084644 6.3671355 9.596741 -2.1060772
000030 78 3b 38 40 53 0b ad c0 0e 78 e2 40 77 24 be 3f
       2.8786297 -5.4076324 7.077155 1.4854878
000040 46 65 09 c1 76 6f 80 c0 6b 9b 07 c1 9e 87 af bf
       -8.587225 -4.013606 -8.475444 -1.3713262
000050 54 66 67 bf 32 c5 42 c1 7b ae d3 40 d7 90 46 c1
       -0.90390515 -12.173143 6.615049 -12.410361
000060 ee 78 b4 3e 10 fd ca 40 38 7c 28 c0 ab a6 9f bf
       0.35248512 6.3433914 -2.6325817 -1.2472738
000070 81 5a c9 40 70 a8 16 c0 9f 98 0b 41 cd b4 b4 c0
       6.292298 -2.3540306 8.724761 -5.6470704
000080 e4 c2 07 41 9d 42 8e 40 14 6e 1c c1 33 09 52 40
       8.485081 4.4456315 -9.776875 3.2818115
000090 d9 58 80 41 87 b6 fa 3e 0e 4c 45 40 0b 1a 31 41
       16.043383 0.48967382 3.082767 11.068858
0000a0 8b 64 1e c1 bb 70 60 41 07 f7 45 c0 5e cb f4 c0
       -9.899547 14.027522 -3.0932024 -7.649825
0000b0 04 be 52 40 df bf 6a c0 d4 2e 8c c0 87 42 d3 c0
       3.2928476 -3.667961 -4.3807163 -6.601871
0000c0 57 52 ed 3f 9d ff 24 40
       1.8540753 2.5781014

hidden.0.weight f4 [50, 50]
000000 b9 8a 09 41 aa 1e a5 40 51 33 04 c1 49 0d b1 40
       8.596368 5.159993 -8.262528 5.5328717
000010 9c 64 ca c0 4e fc 2c c1 37 1a f6 40 60 e5 af c0
       -6.3247814 -10.811598 7.6907 -5.49675
000020 50 58 19 41 b5 21 b9 c0 d4 9e 47 c0 8e 3e 92 bf
       9.584061 -5.7853646 -3.119069 -1.142534
000030 7b 8d ab 3f fe e2 b6 3f d9 d0 8e 40 1a 83 61 40
       1.3402551 1.4288023 4.462994 3.5236268
000040 85 e7 55 41 5e fb 2a be a0 58 e3 c0 1b c1 a2 c0
       13.369023 -0.16697451 -7.1045685 -5.0860724
000050 6d 49 a9 c0 c2 24 a4 3e f5 8e 21 c1 74 96 38 41
       -5.290213 0.32059294 -10.097402 11.536732
000060 90 23 83 c0 91 4b 84 c0 a2 18 1f bf d3 06 9a c0
       -4.098091 -4.1342244 -0.6214696 -4.813333
000070 13 17 f3 c0 55 fa b4 40 92 d3 02 c0 d6 b9 88 bf
       -7.5965667 5.655558 -2.0441632 -1.0681713
000080 81 d8 b5 c0 21 ff 90 c0 b0 6e 58 40 ee 4d 0c 40
       -5.6826787 -4.5311437 3.3817558 2.1922565
000090 50 a9 72 c0 49 da f7 c0 7f 88 97 3d b1 d9 66 be
       -3.791584 -7.745396 0.073990814 -0.2254398
0000a0 95 af 24 c0 6e 32 17 c1 02 11 87 3f 18 91 11 c0
       -2.5732167 -9.449812 1.0552065 -2.2744808
0000b0 a6 cb ac 3f d1 08 49 40 9b fd 36 41 0e 4e e5 3f
       1.3499649 3.141163 11.436915 1.7914445
0000c0 c3 d5 20 c0 f8 ed 80 bf ee 1d 79 c1 de 5e 08 40
       -2.513047 -1.0072622 -15.569807 2.1307902
0000d0 ef ae 20 41 58 b8 ce c0 23 62 ee 40 26 5f fa c0
       10.042708 -6.460003 7.4494796 -7.824115
0000e0 52 56 46 c0 81 0a a6 3f 77 32 48 c1 31 4c 1d bf
       -3.0990186 1.2971956 -12.5123205 -0.61444384
0000f0 2d e8 0d 3f bb 4b 08 41 af 31 4a bd a2 69 44 c0
       0.554324 8.518489 -0.04936379 -3.0689473
000100 aa 04 d4 c0 04 60 17 c1 d6 de 23 c1 14 2c 99 c0
       -6.6255693 -9.460941 -10.241903 -4.7866306
000110 9b 2d ca 3e d9 01 18 40 b6 33 0b 40 ff a1 95 40
       0.3948792 2.3751128 2.1750312 4.676025
000120 14 11 d0 40 1e d4 e7 c0 f5 3b e7 40 6c 9c 0f 40
       6.5020847 -7.244643 7.226069 2.2439222
000130 ac 71 91 40 48 1b 13 bf 11 b3 2a 3f 87 33 77 c0
       4.545126 -0.574635 0.66679484 -3.86252
000140 4a 6c 2e bf 40 a1 98 40 09 5f e7 bf f4 4f f5 3f
       -0.68133986 4.769684 -1.8075877 1.9165025
000150 ab 09 c9 c0 69 79 04 c1 70 6d 86 3f 95 ad dd 40
       -6.28243 -8.279641 1.0502148 6.927439
000160 72 49 4e 41 f0 da 08 c1 ca f8 2c c0 f5 af 1a 41
       12.892931 -8.553452 -2.7026849 9.667958
000170 0e 70 0e c0 fa 7c 5d 40 95 96 43 c0 09 21 57 40
       -2.2255893 3.460753 -3.0560658 3.3613913
000180 35 4c 04 c1 85 4e 49 3c 51 99 c9 40 d0 7b 50 40
       -8.268605 0.012286787 6.2999654 3.257557
000190 e3 ae 19 c1 11 82 87 c0 f1 3f e8 c0 b9 47 a1 40
       -9.605197 -4.2346272 -7.2578053 5.040005
0001a0 b0 07 c7 40 ae 3a 7c c1 70 71 cf 40 14 03 95 40
       6.2196884 -15.764326 6.4825974 4.6566257
0001b0 48 88 ac 3f 2e 47 b6 c0 6a d2 53 c0 ea 62 89 3f
       1.347909 -5.696189 -3.3097177 1.0733311
0001c0 a1 35 dc bf 13 b9 31 3d 38 3a 8e bf 82 e0 63 bf
       -1.7203866 0.04338939 -1.1111517 -0.89014447
0001d0 80 f3 6b 40 72 b2 fe c0 eb 81 d5 40 32 e0 1a c0
       3.686737 -7.959283 6.672109 -2.4199338
0001e0 cb 7b 0e 40 73 b2 79 40 e0 56 f2 bf e2 59 e6 bf
       2.2263057 3.9015167 -1.8932762 -1.799618
0001f0 24 71 6f c0 43 b4 36 3f c1 3d 6d 41 e0 a2 34 be
       -3.7412806 0.7136881 14.827577 -0.17640257
000200 bb 58 17 bf 36 13 2a 41 f8 c3 67 c0 98 75 9f 40
       -0.59119767 10.62969 -3.621336 4.9831047
000210 4d 0d 59 40 76 4f eb c0 97 61 f6 c0 b4 40 80 c0
       3.3914368 -7.35345 -7.699413 -4.0078983
000220 7c bf f5 c0 76 fc d7 3f 3c 1c dd 40 ce 77 5f c1
       -7.6796246 1.687392 6.9096966 -13.966749
000230 af e9 16 40 8c e9 02 3e 33 aa 3c c0 ca 56 61 40
       2.358013 0.12784404 -2.9478881 3.5209222
000240 4c d3 e2 40 1a 67 8b 40 56 4d 1c 3f 84 12 ee c0
       7.088293 4.3563356 0.61055505 -7.43976
000250 b4 0e 81 40 72 68 56 c0 d2 2a 20 41 f8 19 e2 bf
       4.033045 -3.3501248 10.010454 -1.7664175
000260 f0 a3 ac 40 eb 89 4d c0 91 fd 4b c1 13 9c cd 40
       5.395012 -3.2115428 -12.749406 6.425302
000270 07 58 98 c0 9f f4 1a c1 7e 9c 47 bf 91 4c fa c0
       -4.7607455 -9.684722 -0.77973163 -7.8218465
000280 e2 0f 8a be cb a2 7b 40 0f be c7 c0 af 90 eb c0
       -0.26965243 3.931811 -6.2419505 -7.3614116
000290 38 32 dd c0 f5 b3 54 c1 72 30 d8 c0 97 2b 6d 40
       -6.91238 -13.293935 -6.7559137 3.7057855
0002a0 4e 03 aa c0 1d d5 93 3f ef 9e 3d c0 e7 92 00 41
       -5.3129034 1.1549412 -2.9628255 8.035865
0002b0 4d 3f 5d 40 87 2d 82 c0 77 2c ee 40 1b f0 21 c1
       3.4569886 -4.0680575 7.442928 -10.1211195
0002c0 ab e6 93 3f 94 ad 95 c0 ba 9a 06 c1 73 81 f5 c0
       1.1554769 -4.6774387 -8.412775 -7.672052
0002d0 cf 55 4b be 21 dd 04 41 d1 08 2c c1 07 66 0b 40
       -0.19856952 8.303987 -10.752152 2.1781023
0002e0 31 70 18 40 5c 81 55 3f a6 c5 6e c0 82 c9 ec c0
       2.3818476 0.8340051 -3.7308135 -7.399598
0002f0 94 86 9e bf 78 27 15 c0 f0 36 d0 bf a3 b8 28 c1
       -1.238482 -2.330534 -1.6266766 -10.545077
000300 d5 92 83 3f 2b 89 5b 41 42 bd ff 3f 5c 0a 3c c0
       1.0279185 13.720988 1.9979632 -2.9381323
000310 2c 6f c8 40 42 fb 19 bf 11 a1 18 40 b5 2b 9a 3f
       6.263571 -0.60149014 2.3848307 1.2044588
000320 22 d5 07 40 bb 75 31 3e d2 6d b7 c0 60 9d 25 41
       2.1223836 0.17330067 -5.732156 10.350922
000330 63 33 5a c0 ed fb 50 c0 a4 05 ba 40 dd 0e 52 c1
       -3.4093864 -3.2653763 5.8131886 -13.128629
000340 0f 4d 37 3f dc 84 8d 3e 95 72 9d 40 96 45 88 c0
       0.7160196 0.27640426 4.920237 -4.2584944
000350 d4 83 73 c0 5b 5c 83 bd 35 95 89 40 41 ac a4 40
       -3.8049212 -0.064141 4.2994637 5.146027
000360 80 6d 33 c0 ba 32 9b 40 10 72 cb 40 79 b6 b7 3f
       -2.8035583 4.849942 6.3576736 1.4352561
000370 8a a2 3d c1 9e 4c b1 40 ce 25 1e 40 04 f1 56 40
       -11.852182 5.5406027 2.4710574 3.3584604
000380 d5 ff b8 40 c9 61 07 c0 19 1a d0 c0 06 f7 00 c1
       5.7812295 -2.1153433 -6.5031857 -8.060308
000390 8b 0a c7 c0 de 62 ec bf 29 11 79 3f 77 96 d6 40
       -6.220037 -1.8467672 0.9729181 6.7058673
0003a0 27 aa c8 40 32 d8 65 3f 0c 66 0c 41 82 0c 74 c0
       6.2707705 0.8978301 8.774914 -3.8132634
0003b0 c3 87 d4 c0 5d 3b 69 3f a9 fb 41 bf 16 dc 13 c1
       -6.6415725 0.91106206 -0.7577463 -9.241232
0003c0 90 9f b3 3f 42 42 0e c0 56 78 a6 c0 13 bd 83 41
       1.403307 -2.222794 -5.2021894 16.467321
0003d0 c2 56 7e 40 67 49 f4 40 91 27 2f 41 b7 2d 8a c0
       3.9740453 7.6339602 10.94716 -4.3180804
0003e0 cd 64 c5 3f 85 26 8a bf 8d a9 b7 40 af 8d cf c1
       1.5421387 -1.0793005 5.739447 -25.944181
0003f0 b2 f8 a8 40 b1 4c 47 c0 7e 54 07 40 56 08 90 40
       5.2803583 -3.1140559 2.114532 4.5010176

hidden.0.bias f4 [50]
000000 1a 12 3c c1 1a 59 75 3f 51 f4 6a c1 5c 71 ef c0
       -11.754419 0.95839083 -14.684648 -7.482588
000010 e0 0f 64 c1 5f ea 0a 41 29 d9 0b 40 9c 3c de 3f
       -14.253876 8.6822195 2.1851294 1.7362247
000020 52 ff 2f c0 6a d1 f6 c0 b9 86 7c 41 c2 aa ca 40
       -2.7499585 -7.7130632 15.782891 6.3333445
000030 84 be 41 c0 b9 94 6e 3f 35 03 91 c0 1b b0 37 41
       -3.0272532 0.9319568 -4.5316415 11.4804945
000040 d3 3d 78 bf b4 3a ff 40 15 eb e4 3e ef 5e dd c0
       -0.96969336 7.975916 0.44710603 -6.9178386
000050 06 ba 45 c0 60 6b cd c0 13 b0 fc 3e 69 88 56 41
       -3.089479 -6.4193573 0.49353084 13.408303
000060 37 b1 af 40 16 56 9d c1 2f f2 62 41 53 a9 e2 40
       5.4903827 -19.667034 14.184127 7.0831695
000070 8a 60 89 be 6c 6d 52 c1 cd a0 87 40 4c 0b d6 40
       -0.26831466 -13.151714 4.238379 6.688879
000080 7f db 2d 41 26 87 77 c1 88 66 63 bf a0 4a 89 c1
       10.866088 -15.470495 -0.88828325 -17.161438
000090 46 ec a3 bf 31 7a 70 41 9a 70 84 41 66 02 35 3e
       -1.280648 15.029832 16.554981 0.17676696
0000a0 f5 8f c0 40 69 cf 0d c0 c5 e1 a3 40 f6 d1 49 40
       6.017573 -2.2157843 5.1213098 3.15344
0000b0 81 ea 97 c1 8c dc cf 41 dc 10 49 41 c6 da f6 40
       -18.989504 25.982689 12.566616 7.7142057
0000c0 4b e7 e3 c0 33 89 8a 40
       -7.121984 4.329248

hidden.1.weight f4 [50, 50]
000000 be fd 5d 41 0a 9b d6 c1 76 2f 81 c1 83 0e f5 bf
       13.874449 -26.825703 -16.148174 -1.9145054
000010 4c 53 c8 3f 54 53 e9 bf 96 c9 ea 3e e3 d4 81 c0
       1.565042 -1.8228555 0.45856923 -4.057237
000020 5b b4 ee 40 2f 73 5d c1 af 4d 45 c1 77 ec 07 3f
       7.459516 -13.840621 -12.331466 0.5309519
000030 b5 bf fe 40 27 ef 48 bf 3b 8d ab 3f 35 7e 85 c0
       7.9609017 -0.7848992 1.3402475 -4.171656
000040 50 2c 42 41 bb bf 94 c1 0c 1f be 41 f0 59 2a c1
       12.1358185 -18.593618 23.76516 -10.646957
000050 9d 60 79 41 96 50 48 41 20 d1 91 41 61 41 58 41
       15.586087 12.519674 18.227112 13.515962
000060 4f 46 7e 40 c2 d7 fc bf 05 bf a2 c0 9c 4d 62 41
       3.9730413 -1.9753344 -5.085818 14.143948
000070 2f d1 8a c1 6a 11 83 40 08 20 9d 41 99 77 b7 40
       -17.35214 4.0958757 19.64064 5.7333493
000080 2b e1 db c0 c0 74 47 41 1a 83 6f c1 a6 62 20 c0
       -6.8712363 12.466003 -14.969507 -2.506021
000090 32 63 9a bf bd 06 81 40 7e 97 b0 c0 b6 40 f6 40
       -1.2061522 4.0320725 -5.5184927 7.6953993
0000a0 3a d4 1e c0 26 1f 1c c1 22 2f ed c0 b7 c3 f2 3f
       -2.4817033 -9.757605 -7.4120035 1.8965977
0000b0 d3 67 80 bf be 1c f1 40 2f 25 7a be ee 4b 04 41
       -1.0031685 7.5347586 -0.24428247 8.2685375
0000c0 ec 46 dd 41 af 49 b5 41 4d 64 9d c0 cf af 55 c0
       27.65963 22.660978 -4.9184937 -3.3388555
0000d0 b6 b0 94 40 ff ff 2c c1 b5 11 10 bf 87 36 58 40
       4.646571 -10.812499 -0.5627702 3.378328
0000e0 43 5f 9a 40 e8 76 0a 41 6d 75 86 c0 e9 f4 f0 be
       4.8241286 8.65403 -4.201834 -0.47061852
0000f0 87 a1 d5 40 52 95 24 40 42 4f c7 40 0a b2 52 c0
       6.6759677 2.5716138 6.228425 -3.2921166
000100 e1 42 33 41 40 71 a8 c0 f7 6c e2 40 fe 39 53 40
       11.203828 -5.2638245 7.0758014 3.3004146
000110 e5 30 6a c0 ae c3 48 c0 86 7d d8 c0 f0 26 cb 40
       -3.6592343 -3.1369433 -6.7653227 6.348503
000120 04 7a cf 40 16 6c 63 bf 33 98 42 40 71 3e 18 c1
       6.4836445 -0.888368 3.0405395 -9.5152445
000130 b8 5f b0 c2 13 a5 8b 40 a4 90 da bf 52 1c 1f 40
       -88.18695 4.3639007 -1.7075391 2.4861035
000140 4d 02 46 40 99 19 ae c0 84 fe 59 40 59 e6 59 be
       3.0938904 -5.4406247 3.4061594 -0.21279277
000150 a0 fb fa 40 66 e1 fd 40 6d f5 0f 41 d2 c2 3c 40
       7.843216 7.9337645 8.997418 2.949391
000160 2c 64 88 3e 12 ad 25 c0 f2 f6 2e c1 35 91 b0 c0
       0.26638925 -2.5886884 -10.935289 -5.5177255
000170 35 45 1c c0 63 75 14 c0 a9 81 d3 40 b5 5b 8c c0
       -2.441724 -2.3196647 6.6095777 -4.3861947
000180 11 07 0e c1 13 3f 14 41 f4 d0 aa 40 ad 70 9a c0
       -8.876725 9.265399 5.338007 -4.8262544
000190 b1 6f d3 3f 87 05 36 c0 24 8c f6 40 06 3f d3 c0
       1.651846 -2.8440874 7.704607 -6.6014433
0001a0 f3 a2 9a 41 f4 dc ad 40 e7 db 8c c0 63 8d 3e c1
       19.329565 5.433222 -4.4018435 -11.909518
0001b0 ea c6 2f be fe 64 c5 40 d2 f7 e1 3f ed 54 74 41
       -0.17165723 6.168578 1.7653754 15.270734
0001c0 a1 ee a6 c0 47 00 f9 40 9f 7e 81 3f 11 aa 66 c2
       -5.2166295 7.781284 1.0116767 -57.66608
0001d0 07 d3 38 41 20 8c b6 40 11 9b 86 c0 6a db 7f 41
       11.55152 5.704605 -4.206429 15.991068
0001e0 8f 51 32 be 33 12 b0 c0 44 c4 fb 3f f3 79 59 c0
       -0.17413925 -5.5022216 1.966927 -3.3980682
0001f0 56 2a 6c 41 03 54 be be df 4d 8c 41 78 9c 90 c1
       14.760336 -0.3717347 17.538023 -18.0764
000200 b7 f0 83 bf 59 a5 c8 c0 05 58 08 40 d0 aa 5d bf
       -1.0307835 -6.270184 2.1303723 -0.86588764
000210 2b 95 f0 c0 5e 53 8b 40 cf 7c 15 41 d3 28 c4 3f
       -7.518209 4.3539267 9.342971 1.5324959
000220 8e e8 28 bf 7d 77 6c c1 3b aa a2 c0 b9 0e 88 41
       -0.6597985 -14.779172 -5.08328 17.007189
000230 f8 16 a9 41 f4 96 5c 41 cf 2a ef 40 b9 83 69 40
       21.136215 13.786854 7.4739757 3.6486647
000240 16 72 2d 41 aa 60 98 c1 d2 f9 65 be 7b 45 34 c1
       10.840353 -19.0472 -0.2245858 -11.266963
000250 32 26 e2 c0 23 44 e3 bf 75 c8 1a 3f 42 f4 54 c1
       -7.0671625 -1.7755169 0.60462123 -13.309633
000260 f3 98 b1 c1 91 24 0a c1 20 cc 1f 40 78 e3 34 40
       -22.199682 -8.633927 2.4968338 2.8263836
000270 13 8d 57 3f e6 18 1c bf 99 fc f1 c0 eb e7 e4 40
       0.8419964 -0.6097549 -7.5620847 7.1533103
000280 b0 aa 91 40 83 68 63 c1 42 fb bd c0 0d b8 a2 c0
       4.552086 -14.213016 -5.936921 -5.084967
000290 2f e5 50 3f 81 49 58 41 13 8a 18 3f 35 d2 c4 c0
       0.81599706 13.517945 0.59585685 -6.15066
0002a0 c4 c1 41 40 e9 9c a5 c0 6e c6 f0 be 63 26 e5 40
       3.0274515 -5.175404 -0.4702639 7.160936
0002b0 3d 3f e7 40 15 e9 eb 41 d2 93 eb 40 93 1b 7c c0
       7.2264695 29.48881 7.3617945 -3.939183
0002c0 a3 98 d7 bf 67 08 4b 41 bc d3 67 40 73 f0 6c 3f
       -1.6843456 12.689551 3.6222982 0.92554396
0002d0 d3 59 29 c0 c8 bb e4 bd 82 20 1d 40 68 5d 6d c0
       -2.6461074 -0.11168629 2.4551091 -3.708826
0002e0 ac e1 fd 40 6c 51 b4 c1 6e 2f a1 3f bf 05 23 c1
       7.933798 -22.539757 1.2592599 -10.188903
0002f0 34 75 30 c1 59 91 4c c1 84 cc a8 41 d3 a0 01 c1
       -11.028614 -12.785485 21.099861 -8.101764
000300 98 ca dd c0 14 21 72 41 83 0d dc c0 30 0e 82 c0
       -6.9309807 15.133076 -6.8766494 -4.064232
000310 72 fc b3 40 be 4b 22 41 68 18 36 c0 5a 5f 90 3f
       5.624566 10.143492 -2.8452396 1.1279099
000320 77 f0 91 41 e3 67 28 c2 3c d3 63 c0 eb 78 4d c1
       18.242414 -42.10145 -3.5597677 -12.842021
000330 93 0f f6 40 e7 ee 78 41 17 7b c5 c1 bb 5a 5d c1
       7.689401 15.558326 -24.685102 -13.834651
000340 c5 bb 16 41 fa ee df c0 0c 17 a2 41 1b 2d 44 40
       9.420842 -6.997922 20.261253 3.065253
000350 37 bf 9c bf 30 c3 a7 40 81 40 2b 42 de ab 55 c0
       -1.2245854 5.2425766 42.812992 -3.338615
000360 1e 12 97 c1 e7 9c 89 c1 23 de b7 40 01 9f 9f c0
       -18.883846 -17.201612 5.7458663 -4.9881597
000370 0e 10 6d 40 e5 4f 24 41 c6 53 71 40 48 3c f9 40
       3.704105 10.2695055 3.7707381 7.7886086
000380 68 8f 7e 40 d7 53 d5 be ac b4 79 c0 50 69 4b 41
       3.9775028 -0.41665527 -3.9016523 12.713211
000390 0f 5b 9d bf a4 76 a5 c1 72 c4 13 c1 3e cd 6b 41
       -1.2293414 -20.68293 -9.23546 14.737608
0003a0 e7 35 24 c1 a8 89 1e c1 93 7f 75 c1 a9 bc 3b 41
       -10.26316 -9.9086075 -15.343646 11.73356
0003b0 06 11 b9 3f c7 46 50 c1 ef 5a 91 41 92 0f 6a 3f
       1.445832 -13.01728 18.169401 0.9143001
0003c0 88 1a 8e be f0 cc 0c c1 6a 72 3f 41 af f2 09 c1
       -0.27754617 -8.800034 11.965433 -8.621749
0003d0 2d d4 4e 3f 2d 29 8a c0 98 5d 72 3f 20 e1 46 c1
       0.80792505 -4.3175263 0.9467406 -12.429962
0003e0 d5 f7 20 c1 d8 30 1f 41 3d 3e d8 bf fd ad 82 40
       -10.060506 9.949425 -1.6893994 4.083739
0003f0 77 56 83 40 88 d7 8c be 9c c2 b4 40 e6 7e c8 3f
       4.104305 -0.27508187 5.648756 1.5663726

hidden.1.bias f4 [50]
000000 fc ae 52 41 ad 15 df 40 68 3b 9d c1 eb be 88 42
       13.167721 6.971396 -19.654007 68.37289
000010 a2 ba 07 41 71 56 54 c2 81 a7 04 42 c4 86 6a 42
       8.483065 -53.084415 33.163578 58.631607
000020 95 2d e1 c0 ad b0 6b c2 2c d3 57 c2 72 4f ec c1
       -7.036814 -58.922535 -53.956223 -29.538792
000030 a6 5b e4 41 ba 5e e3 40 47 da 74 42 41 85 47 42
       28.54475 7.1053133 61.21316 49.88013
000040 0c 99 4b c1 70 f2 04 c2 95 2a 6e c0 d3 40 02 42
       -12.724865 -33.236755 -3.721349 32.563305
000050 51 95 30 c0 35 38 e9 41 b4 c3 0f 40 ed d6 50 41
       -2.7591136 29.152445 2.2463198 13.052472
000060 19 4a 3c c1 f0 79 ea c0 52 bb 80 c2 6d 76 18 c2
       -11.76809 -7.327385 -64.36586 -38.11565
000070 14 73 15 c2 45 af d3 c0 e5 86 8f c1 4d 74 e8 c1
       -37.36238 -6.615145 -17.940866 -29.056787
000080 8e 17 fb 3f 7f 29 83 c2 f5 d7 54 c2 86 6a 1d 40
       1.9616563 -65.58105 -53.210896 2.4596267
000090 d7 e9 75 42 03 4d 86 c2 13 41 0d 41 0c 7a 23 c0
       61.47836 -67.15041 8.828387 -2.5543242
0000a0 05 89 89 42 7c 74 92 41 da 84 40 c1 0d d2 09 42
       68.76762 18.306877 -12.032434 34.455128
0000b0 80 b6 50 c2 cb 34 d5 bf 86 82 20 c2 05 a6 b2 bf
       -52.178223 -1.6656736 -40.127464 -1.3956915
0000c0 b8 31 3e 41 ae e8 51 42
       11.887138 52.477226

output_layer.weight f4 [49, 50]
000000 92 47 93 be 83 98 21 c0 c3 5c e4 bf 4f 75 7e 3f
       -0.2876554 -2.5249336 -1.7840809 0.9939775
000010 11 4c df 3f e8 b9 d7 bf f6 37 d4 3f 2e 9a fa 3e
       1.7445089 -1.6853609 1.6579578 0.48945755
000020 01 a1 14 c0 7b 17 99 bf 30 7a 9f bf 65 d3 e4 bf
       -2.322327 -1.1960291 -1.2459164 -1.7877012
000030 f4 33 8b 3f 97 bc 14 40 b3 a6 8d 3f 49 08 d7 3f
       1.087523 2.3240106 1.1066498 1.6799403
000040 9b 6b cc 3e c3 0f 51 3e 0e 04 d5 be 0f 34 e3 3f
       0.39925846 0.20416169 -0.41604656 1.7750262
000050 2b 83 dc be ae 57 97 3e 62 73 0a be 03 e1 c7 3f
       -0.43068823 0.29559082 -0.13520578 1.5615543
000060 f3 cb da 3e e6 29 f0 bf e8 ca bc bf d0 21 6b 3f
       0.42733726 -1.8762786 -1.4749422 0.9184847
000070 ff a6 0b 40 96 bf 94 3e 3f c7 1e c0 de a2 40 bf
       2.1820676 0.29052418 -2.480911 -0.75248516
000080 51 d6 7f 3f e6 4d 20 40 86 bc e1 bf 16 dc fb 3f
       0.99936396 2.5047545 -1.7635658 1.967654
000090 45 0f c8 3f 26 0c b8 bf 52 e0 a5 3f 18 d5 65 3e
       1.562966 -1.4378707 1.2959082 0.2244457
0000a0 ab e8 3a c0 08 68 98 3f 93 d3 86 3f 5f b4 cf 3f
       -2.920451 1.1906748 1.0533317 1.622692
0000b0 a2 67 13 c0 77 11 c2 bf 87 fb c7 3f c9 80 4b 3e
       -2.3032002 -1.516158 1.5623635 0.19873346
0000c0 24 be d6 be 9f 8b c4 3f b9 a3 07 bf 34 07 07 c0
       -0.4194194 1.5355109 -0.52984196 -2.1098146
0000d0 7a e8 e2 bf cb b9 64 3f 3f ce e7 3f 20 5c b9 bf
       -1.7727196 0.89346 1.8109816 -1.4481239
0000e0 c0 20 e6 3f 46 cd 0f 40 18 a7 10 c0 f2 2a a3 bf
       1.7978745 2.246904 -2.2601986 -1.2747481
0000f0 08 5f dd bf 47 1d e3 bf 7b 17 4e 3f f8 4e 15 40
       -1.7294626 -1.774331 0.8050458 2.3329449
000100 4c 71 c5 be 1d 7c d7 3f 6f 3c f7 3e 15 e1 93 3e
       -0.38563 1.6834751 0.48288295 0.2888266
000110 fb 32 e7 be f9 77 e4 3f eb 4b 92 3e 6d bf 8d 3e
       -0.45156083 1.7849113 0.28573546 0.2768511
000120 ec c5 ff bd 49 49 bd 3f 92 2b 04 3f d4 13 a7 3d
       -0.124889225 1.478799 0.51628983 0.08158079
000130 57 83 b0 bf e4 df 69 3f 3b 60 08 40 bb 28 0e 3e
       -1.3790082 0.91357255 2.1308734 0.13882725
000140 47 c1 98 c0 63 e5 22 bf 31 cf dc 3f d1 64 2b 40
       -4.7735934 -0.63631266 1.725073 2.6780283
000150 37 17 e9 bf 21 de fc 3f 30 9d e5 3f 66 a4 bd bf
       -1.821021 1.9755288 1.7938595 -1.4815795
000160 52 95 a2 3f 91 6a 96 3d 15 f9 31 c0 ff 06 8d 3f
       1.2701819 0.07344545 -2.7808278 1.101776
000170 aa 74 22 3f b5 19 cd 3f d7 4f e9 bf 47 2b bc bf
       0.63459265 1.602347 -1.822749 -1.4700707
000180 f4 05 c4 3f ad d3 e7 3d c3 2e 11 bf f1 c8 ca 3f
       1.5314317 0.11319671 -0.5671198 1.5842572
000190 68 d2 2e 3f 9b 35 0f c0 9b c5 db bf 96 da 8e 3f
       0.68289804 -2.2376468 -1.7169679 1.1160457
0001a0 f5 fe d7 3f ff 6a a7 bf d2 64 ec 3f 7c f2 fb 3f
       1.6874682 -1.3079528 1.8468268 1.9683375
0001b0 49 e0 47 c0 ac 0f 8e bf 2c b1 dd bf 36 7b f2 bf
       -3.1230643 -1.1098533 -1.7319694 -1.8943851
0001c0 13 73 8c 3f a6 07 bc 3f e2 c9 6a 3f 21 e4 ef 3f
       1.0972618 1.4689834 0.917143 1.8741494
0001d0 85 8d c7 3e 9b c8 66 3e 7f 2a 7c be 4e 08 e5 3f
       0.38975158 0.22537462 -0.24625586 1.7893159
0001e0 f9 8f 03 bf 36 29 7e 3e c5 51 d6 be ca 1a c8 3f
       -0.5139156 0.24820408 -0.4185926 1.5633175
0001f0 39 8f 0a 3f d2 fb 2e c0 a4 ec ad bf 34 49 6f 3f
       0.5412479 -2.73412 -1.3587842 0.93471074
000200 e7 63 02 40 47 7d 23 3e 32 a7 f2 bf 06 f6 2e bf
       2.0373476 0.15965758 -1.8957274 -0.6834415
000210 43 ab 50 3f 15 46 22 40 eb c7 93 bf 2a d4 f1 3f
       0.81511325 2.5355275 -1.1545385 1.8892872
000220 47 bd e1 3f 94 10 ca bf 5a aa 91 3f bd 1f 8b 3d
       1.7635888 -1.5786309 1.1380112 0.06793163
000230 75 82 39 c0 78 9c a3 3f 1c 7e 89 3f 13 bb cc 3f
       -2.8985875 1.2782125 1.074161 1.599459
000240 da aa b9 bf 13 f0 c1 bf 85 a5 c0 3f ce 55 e0 3c
       -1.4505265 -1.515139 1.5050513 0.027384665
000250 c1 2e b3 bf 5f 6d bf 3f 06 8d 18 bf ed 2c 67 c0
       -1.3998643 1.4955252 -0.59590185 -3.612117
000260 da 0d ee bf c9 09 7c 3f 54 9b e8 3f 0e 9f b0 bf
       -1.8597977 0.9845243 1.8172402 -1.379854
000270 08 b8 ea 3f 08 96 63 3f b5 5c 54 c0 73 89 98 bf
       1.8337412 0.88900805 -3.3181584 -1.1916946
000280 68 d5 ac bf 64 f5 ed bf e9 77 98 3f b4 75 9f 3f
       -1.3502626 -1.8590512 1.1911594 1.2457795
000290 59 97 35 3f 0b 04 d6 3f 4d b5 dd 3e ae 19 8c 3e
       0.70934063 1.6719984 0.43302384 0.27363342
0002a0 ee d7 95 be 23 01 dd 3f f0 5f e1 be 95 04 91 3e
       -0.29266304 1.7265972 -0.44018507 0.28323808
0002b0 cd 34 4b 3e b2 d5 bb 3f 6d a7 ee 3e 4a 0e a6 bf
       0.1984436 1.467459 0.4661211 -1.2973111
0002c0 df 8b f7 bf 9e d2 5e 3f 21 f5 08 40 6d 80 75 3e
       -1.933956 0.87040126 2.1399615 0.23974772
0002d0 77 f5 fc bf 66 83 2b bf 69 0f 65 3f dc 9d 26 40
       -1.976241 -0.66997373 0.8947664 2.603385
0002e0 d2 31 b6 bf 85 2f fc 3f 70 e5 c6 3f f1 3d c7 bf
       -1.4233954 1.9702002 1.5538769 -1.5565778
0002f0 cb 5d 91 3f 71 23 46 3d e4 67 37 c0 52 0f 93 3f
       1.1356748 0.048373643 -2.865716 1.148905
000300 ee 5e 33 3f 5a a5 c1 3f fe 4d af bf 9f f5 b9 bf
       0.70066726 1.5128586 -1.3695676 -1.4528083
000310 87 28 b7 3f 7a fd 23 3f 43 c1 19 bf 00 91 c5 3f
       1.4309243 0.6405865 -0.6006052 1.5434875
000320 9e 5a f4 be 53 c0 e7 bf 74 05 e1 bf 4d 37 8c 3f
       -0.47725385 -1.8105568 -1.7579789 1.0954376
000330 df 3b e3 3f d1 9b 82 bf 20 70 00 40 dc 9c 18 40
       1.7752646 -1.0203801 2.0068436 2.384574
000340 23 fd 53 c0 e4 78 a9 bf 62 00 02 c0 b4 72 f1 bf
       -3.3123252 -1.3240018 -2.0312734 -1.886313
000350 81 12 ab 3f 15 0d aa 3f ab f1 bc 3f bb af dc 3f
       1.3365022 1.3285242 1.4761251 1.7241129
000360 e8 9a ee 3e 48 bf 85 3e 04 2a c2 be 2c a4 e4 3f
       0.4660256 0.261225 -0.3792268 1.7862601
000370 bd 30 cd be 7e 9a 49 3e af 8d 10 be 6b 8a b1 3f
       -0.40076247 0.1968784 -0.14116548 1.3870367
000380 e3 48 f1 3e a5 3d f7 bf 03 b9 61 bf e8 00 4d 3f
       0.4712592 -1.9315687 -0.8817293 0.8007951
000390 82 4f 01 40 5f 4f 2a 3e ae 8c 4b c0 e6 da 1c bf
       2.0204778 0.1663184 -3.1804614 -0.6127151
0003a0 eb c8 65 3f 81 f9 28 40 18 b8 69 bf 9c 70 fc 3f
       0.897597 2.6402285 -0.9129653 1.9721866
0003b0 3c 03 d3 3f 36 e4 cd bf eb 1d 9e 3f ab 1d 93 3e
       1.6485362 -1.608527 1.235288 0.28733572
0003c0 34 05 3a c0 48 f9 8b 3f 4f 11 1b 3f 49 1a c1 3f
       -2.9065676 1.093545 0.60573286 1.5086147
0003d0 10 fe a8 bf b2 ba c2 bf 82 6d c1 3f 51 ad 4f 3e
       -1.3202534 -1.5213225 1.5111544 0.20280959
0003e0 35 28 1e bf 74 12 be 3f 56 98 e2 bf 7b 2b 1b c0
       -0.617801 1.4849381 -1.7702739 -2.4245288
0003f0 1f 7f d2 bf 9b 42 8a 3f f9 01 dd 3f 63 3f b8 bf
       -1.6445044 1.0801576 1.7266227 -1.4394344

output_layer.bias f4 [49]
000000 56 bc 0e 40 a3 c2 0a 40 9d 8c f6 3f 64 2d 43 40
       2.230245 2.1681297 1.9261662 3.0496454
000010 02 ed c0 3f 7c 20 c0 3e e7 26 b9 3f 43 18 f6 3f
       1.5072329 0.37524784 1.4464997 1.9226154
000020 fa bd 73 3f f9 d1 db 3f aa 23 f4 3e 51 0c cf 3f
       0.95211756 1.7173454 0.4768346 1.6175634
000030 de b0 87 3f 0e ba bf 3f 8a 71 df 3f 38 4a 05 3f
       1.060085 1.4978654 1.7456524 0.52066374
000040 28 ce b9 3f b5 65 e9 3f a3 35 87 3f 84 43 7a 3d
       1.4516039 1.8234164 1.0563244 0.061099544
000050 79 04 32 3f ad 31 1a 40 5e f3 de 3f c1 c1 b3 3f
       0.69538075 2.409282 1.741802 1.4043504
000060 65 76 a3 3f 17 b7 90 3f a5 b8 87 3e ed c5 d6 3f
       1.2770506 1.1305875 0.2650806 1.6779152
000070 f8 0d 12 3f 39 b0 c0 bd d1 e7 29 3f a7 12 b3 3f
       0.57052565 -0.09408612 0.6636935 1.3990067
000080 30 d9 6f 3f 88 58 6f 3f d8 8c 1c 40 14 8e 99 3f
       0.93690777 0.9349446 2.4460964 1.1996484
000090 f4 09 8f 3f 93 23 56 bf 91 e7 cd 3f 17 63 ac 3f
       1.1174912 -0.8364803 1.6086293 1.346774
0000a0 fd 6f d9 3f 14 9a 0a 40 c3 19 36 3f 60 f1 a3 40
       1.6987301 2.1656542 0.7113306 5.1232147
0000b0 cd 53 28 40 73 a7 47 40 a4 c0 d5 3f 56 61 22 40
       2.6301148 3.1195953 1.6699414 2.537191
0000c0 be 33 3a 40
       2.909408
