models/2600episodes/2050episodes.pth (torch, 43836 bytes, 8 tensors)

input_layer.weight f4 [50, 50]
000000 cc a4 2a 41 27 bf 3c 3f d1 b9 5f be 4a 53 8c c0
       10.665234 0.73729175 -0.21848227 -4.385167
000010 bf df d3 40 e0 f2 be bf f2 bf dd bf 64 e9 30 40
       6.6210628 -1.491787 -1.7324202 2.764245
000020 69 82 9b bf 23 b7 8c c0 db 08 45 bf b2 13 32 40
       -1.2149173 -4.3973556 -0.7696664 2.782452
000030 f0 90 3e c0 d2 1b ed 40 9a 2d 09 41 ac 17 92 c0
       -2.9775963 7.409646 8.573633 -4.5653896
000040 09 c9 53 40 f0 8e d4 c0 11 22 6f 3f 6a 30 1e c1
       3.3091452 -6.6424484 0.93411356 -9.88682
000050 1c 71 24 c0 a6 2d 34 c0 88 50 61 3f eb 14 ab c0
       -2.5694036 -2.8152862 0.88013506 -5.3463035
000060 6e d6 51 c1 96 ff 3f c1 90 0c c5 40 13 b0 4f c0
       -13.114851 -11.999899 6.1577835 -3.2451217
000070 4c bd 23 c1 7d d9 29 c0 72 1d b4 40 c3 07 5e 40
       -10.233715 -2.6538994 5.6285944 3.4692237
000080 3d ef 09 40 94 73 de 40 99 d2 16 41 47 6e b8 c0
       2.155227 6.9516087 9.426415 -5.7634616
000090 90 04 59 c0 5c a1 4e 41 b0 ae c6 bf b9 48 62 bf
       -3.3909035 12.914394 -1.552206 -0.88392216
0000a0 12 6b cf 40 97 62 0f c1 93 83 51 c0 46 f5 e6 bf
       6.48182 -8.96157 -3.2736557 -1.8043602
0000b0 0e 18 cc 3f 85 ee a1 3f 64 53 42 40 df 3a 9d c0
       1.5944841 1.2650915 3.0363398 -4.9134364
0000c0 ef 0b 09 c1 82 db 1a 3e 4e be b3 c0 1d 36 16 c1
       -8.565413 0.15122798 -5.6169806 -9.388211
0000d0 05 77 38 c0 f4 fb 2a 3e 2f 81 28 c1 b8 48 af c0
       -2.8822644 0.16697675 -10.531539 -5.477627
0000e0 76 9f a3 c0 5b b9 7d c0 71 5e 0d 41 af e8 3d be
       -5.1132154 -3.9644382 8.835557 -0.18545793
0000f0 e5 42 c4 c0 0e 5f 0b 41 ad da 41 c0 a1 22 92 c0
       -6.133166 8.710707 -3.028972 -4.566727
000100 2b 99 22 41 e6 71 9e 40 bd f2 9e c0 c6 e0 f8 40
       10.162395 4.9514036 -4.967131 7.777438
000110 24 c8 1a 41 23 9b d1 c0 b9 45 54 40 1c df 90 40
       9.673862 -6.5501876 3.3167555 4.527235
000120 95 9b 12 40 b5 f7 9b 3f 93 97 4b 3f 68 4d f2 40
       2.290746 1.2184969 0.7952816 7.571949
000130 86 12 c8 c0 07 85 9a c0 a4 13 8e 3f cf 3c db 40
       -6.252261 -4.8287387 1.1099744 6.851173
000140 b5 3c 92 c0 a5 b3 0d 3e f1 63 04 c1 69 e3 ab c0
       -4.5699105 0.1383806 -8.2744 -5.37151
000150 cf 0a c6 c0 5f e5 99 be f6 92 7e 40 26 a4 10 41
       -6.1888194 -0.3005781 3.9777198 9.040075
000160 4b 8e 0c 40 f5 3f e5 c0 ef 07 87 c0 ef bb b1 40
       2.1961849 -7.1640573 -4.2197185 5.554191
000170 89 0a 0b c1 de d1 57 3f ef 81 d4 3e 5b 8b 22 41
       -8.690072 0.84304607 0.4150538 10.159022
000180 7b e5 b4 bf 46 48 00 c0 6e e3 d8 40 93 8c a9 c0
       -1.4132532 -2.0044112 6.7777624 -5.29841
000190 04 7e 98 bd e4 f5 ef 3f af 5b 42 41 a4 5f 64 41
       -0.074459106 1.8746915 12.147384 14.27335
0001a0 21 94 92 40 aa e4 2c 3f 34 5c 2b c0 6a 95 1a c1
       4.580582 0.67536414 -2.6775026 -9.661478
0001b0 85 d0 ea 40 f5 83 f0 40 34 d9 4f 40 04 dd 85 bf
       7.337954 7.516108 3.247632 -1.0458074
0001c0 81 96 fc 40 51 4c ff c0 72 45 60 c0 98 d4 dd 3d
       7.893372 -7.978066 -3.5042386 0.10831565
0001d0 06 15 a4 c0 a8 b4 c9 40 77 eb e5 3f 78 f2 85 40
       -5.1275663 6.303303 1.7962483 4.185848
0001e0 37 1d 17 be 5b 42 27 40 7f c7 03 41 2e df dd c0
       -0.14757238 2.613425 8.236205 -6.9334936
0001f0 b7 a1 57 c1 15 a9 25 bf 2f 99 79 c1 dc a4 33 c1
       -13.476981 -0.64711124 -15.599898 -11.227749
000200 e4 21 ec 40 0e 87 0e c0 d6 fc e1 bf 29 88 a5 c0
       7.379137 -2.226993 -1.7655284 -5.172871
000210 2a 2a 10 c1 e6 57 f5 3f 66 f7 90 c0 b5 52 b1 40
       -9.010294 1.916745 -4.5302 5.541346
000220 af 9e 88 bd 2a 38 1f bd 58 f7 ef bf 95 c9 94 3f
       -0.066708915 -0.03887192 -1.8747358 1.1624018
000230 30 9e ee 3f 1e 5c 9d 3f fe ea 3d 40 f9 77 af 40
       1.8642025 1.2293737 2.9674678 5.483395
000240 34 7d 37 3e 9a e8 a7 40 e8 44 8e bf ac 53 85 c0
       0.17918855 5.2471437 -1.1114779 -4.166464
000250 94 19 49 40 73 e9 5b 41 e7 21 3d 40 05 1d 66 3f
       3.1421862 13.744494 2.9551942 0.8988803
000260 5f 9a 6f 3f f5 89 61 41 3f 6c 45 40 c9 e4 34 40
       0.93594927 14.096181 3.0847318 2.826464
000270 c8 cd c6 3e bb 7d ac c0 d9 ec 95 3f 50 86 23 40
       0.38828874 -5.390348 1.1712905 2.5550728
000280 c7 e4 9b c0 80 c8 ed 40 44 bd 0e c1 1b bd 4a c0
       -4.871677 7.430725 -8.921207 -3.167792
000290 c8 15 8a c0 bb 7a 50 bf 73 51 87 40 00 ce 93 40
       -4.315159 -0.8143727 4.2286925 4.6188965
0002a0 72 50 03 41 c7 c6 6d 41 55 38 ea 3f f6 e6 98 bf
       8.20714 14.86103 1.8298441 -1.1945484
0002b0 70 d6 72 c0 a8 43 10 40 cd 25 f4 c0 ed 95 a8 c0
       -3.7943382 2.2541294 -7.6296144 -5.2683015
0002c0 d4 4b 3b 41 ae aa 0d c1 2b 8c f4 c0 99 5f 70 bf
       11.706013 -8.85417 -7.6421103 -0.9389587
0002d0 8f b2 05 c1 35 dc 16 40 af 42 af c0 47 d3 78 40
       -8.356093 2.3571904 -5.47689 3.8878953
0002e0 63 b9 a0 c0 b1 4a c3 40 d6 b1 92 c1 74 e0 3f 40
       -5.02263 6.1028676 -18.336834 2.9980745
0002f0 e4 d6 89 3f d3 1b 86 40 32 d2 e8 c0 26 84 1c 40
       1.0768704 4.1908965 -7.2756586 2.4455657
000300 a3 39 99 c0 ee 0d e9 40 f3 30 37 bf 78 d7 e2 3f
       -4.7882857 7.2829504 -0.71559066 1.7722006
000310 b6 52 7e be 6f 5c 54 41 ec 20 11 41 dc f3 07 41
       -0.24836239 13.272567 9.070538 8.497036
000320 71 95 54 40 fa 7a 05 40 c0 96 f6 bf e0 97 7b c0
       3.3216212 2.085631 -1.9264755 -3.9311447
000330 5a ae 83 40 0b 0b 6e 40 81 69 10 40 98 41 f1 40
       4.115033 3.719424 2.2564394 7.539257
000340 dd 74 77 c0 18 43 e0 40 b4 31 22 3f c2 ea 3f 40
       -3.8665078 7.00819 0.6335709 2.9987035
000350 d6 a5 f3 40 fb 55 3b c0 07 0c 18 40 29 40 17 41
       7.6139936 -2.9271228 2.375734 9.453164
000360 b8 2c ba be 0e 8f 94 c0 7e 7c 89 c1 89 bb f2 c0
       -0.36362243 -4.6424627 -17.185787 -7.5853925
000370 c5 b2 60 c0 df a1 f7 40 57 e2 e7 bf d7 a6 30 40
       -3.5109112 7.7385097 -1.8115948 2.760183
000380 d4 57 a3 bf 4e ef 4b 3e 31 b4 b3 40 42 90 33 41
       -1.2761178 0.19915506 5.615746 11.222719
000390 e7 cd 42 40 08 cf 6c c0 f9 de 24 41 d1 65 53 c0
       3.0438173 -3.7001362 10.304437 -3.3030894
0003a0 e3 42 ec bf e2 be b6 c0 70 c9 e4 c0 6c 19 e3 bf
       -1.8457912 -5.710801 -7.1495895 -1.7742133
0003b0 d3 41 e2 bf 36 46 ac c1 69 e8 51 40 5a 3d 50 40
       -1.7676338 -21.534283 3.2798102 3.2537446
0003c0 1d 1a 94 40 51 5a 93 bf e6 92 a8 3f 2c 29 19 3f
       4.6281877 -1.1511937 1.316983 0.5982845
0003d0 23 60 e2 40 40 8d 17 c0 b4 b7 d0 40 c4 9a 84 c0
       7.0742354 -2.3679962 6.5224247 -4.1438923
0003e0 87 59 37 c0 25 5c fb c0 19 72 5d 40 11 c1 58 40
       -2.8648393 -7.854998 3.460089 3.3867838
0003f0 93 2b a3 be b9 65 70 c0 35 77 da 3f f4 85 6b 40
       -0.31869182 -3.7562087 1.7067629 3.6800508

input_layer.bias f4 [50]
000000 35 08 da c0 5f 80 03 c1 2b c1 94 40 27 6d 81 c1
       -6.813502 -8.218841 4.64858 -16.178297
000010 a2 e7 62 41 1c 0e 2e 40 c0 35 a5 bf 0f 13 0d 41
       14.181551 2.7196112 -1.2907028 8.817153
000020 4c 51 59 c1 a5 4b 7f 40 f6 f9 0e 41 55 da e8 3d
       -13.582348 3.988992 8.936026 0.113697685
000030 2e e6 b6 3f 17 a4 02 c1 0f 6d 2d 40 3a 7d 6f 40
       1.4288995 -8.165061 2.7097814 3.7420182
000040 0a 41 4d c1 d0 60 be be dd 32 2d c1 9c 5e f4 3f
       -12.828379 -0.37183237 -10.824918 1.9091372
000050 40 65 54 40 e5 17 0b c1 70 13 79 40 11 2a 0a c1
       3.3186798 -8.693334 3.8918114 -8.63527
000060 68 b3 71 c0 b4 c9 32 41 e3 68 03 be c1 00 29 40
       -3.776575 11.174244 -0.1283298 2.640671
000070 0e bd 0e 40 23 07 09 c1 41 85 3f 41 73 bf dc be
       2.230289 -8.564242 11.970033 -0.43114814
000080 10 4f 36 41 f9 53 e3 40 48 f6 47 c1 fc 8b b7 be
       11.394302 7.1040006 -12.497627 -0.35848987
000090 0d af 4e 41 a5 89 d6 40 1d 4a 82 40 d5 ae 28 41
       12.917737 6.7043023 4.071547 10.542684
0000a0 8a 50 3f c1 bb d3 86 41 d0 d1 3f bd 25 1b 4e c0
       -11.957163 16.853384 -0.046830952 -3.2204068
0000b0 7d 69 14 c0 b5 3e 9c c0 04 5c 33 c0 1d 8e 52 c0
       -2.3189385 -4.8826547 -2.8024912 -3.289924
0000c0 06 f1 83 bf a4 37 d4 40
       -1.030793 6.631792

hidden.0.weight f4 [50, 50]
000000 2c 62 0f 41 83 e0 05 41 91 cd b2 c0 e9 e2 fb 40
       8.961468 8.367312 -5.5875936 7.871449
000010 de 9a 19 c1 19 8f 38 c1 c9 5e 9e 40 a2 f8 aa c0
       -9.600309 -11.534936 4.9490705 -5.3428507
000020 d2 c4 9c 40 3f 47 1e c1 8b 4b 22 bf 56 cc 90 40
       4.899026 -9.892394 -0.6339652 4.5249434
000030 c0 24 97 bf 16 97 ea 3f 7a 8c a0 40 b1 c7 a1 40
       -1.180809 1.8327358 5.017148 5.0556264
000040 11 2f 1e 41 13 bf 83 3f a3 cc ad c0 5d a0 5e c0
       9.886491 1.0292686 -5.43123 -3.4785378
000050 a7 12 0e c1 cb 41 eb 3f a2 82 f5 c0 72 ec 1a 41
       -8.879554 1.8379453 -7.6721964 9.682726
000060 05 49 86 c0 b2 21 de c0 9e 3f 1b c0 55 db 9f c0
       -4.1964135 -6.941613 -2.425758 -4.995524
000070 90 19 02 c1 95 09 ab 40 f4 9d 42 c0 8a bc 4a c0
       -8.131241 5.3449197 -3.0408907 -3.1677575
000080 d9 6e d6 c0 ad d2 96 c0 b5 ad 4d 40 6c 44 4a 3f
       -6.701031 -4.7132173 3.2137272 0.79010653
000090 7b 79 54 c0 2c b8 b8 c0 39 49 30 40 94 25 ff be
       -3.3199146 -5.772482 2.7544692 -0.49833357
0000a0 c6 43 02 3e 26 b9 44 c1 24 18 fb be 72 90 bc bf
       0.12721166 -12.295202 -0.49041855 -1.4731581
0000b0 f3 cc 44 40 62 a6 a1 40 07 18 5e 41 ee b7 8e 40
       3.075009 5.0515604 13.880866 4.4599524
0000c0 64 51 fe bf 1c f5 25 40 29 36 53 c1 95 7f 54 40
       -1.9868588 2.5930853 -13.200723 3.320287
0000d0 68 4a 52 41 e9 35 05 c1 81 23 6a 40 65 e6 d1 c0
       13.143166 -8.325662 3.658417 -6.5593743
0000e0 f5 cc 77 c0 80 46 6e bf 40 63 29 c1 e5 8c c1 bf
       -3.8718846 -0.93076324 -10.586731 -1.5121123
0000f0 8c c4 6b bf 3a bb ee 40 c9 3a 40 bf b2 0b 1e c0
       -0.9209678 7.460355 -0.750897 -2.4694638
000100 34 05 c0 c0 e9 fe 36 c1 0f 55 46 c1 f5 e6 ba c0
       -6.000635 -11.437234 -12.395766 -5.840693
000110 d0 6d bf bf 88 e9 a1 3f a4 18 40 40 6c c9 e8 40
       -1.4955387 1.2649393 3.001504 7.2745876
000120 ec 63 a8 40 13 91 ee c0 f2 d7 09 41 e6 d1 14 c0
       5.2621975 -7.4552093 8.615221 -2.3253112
000130 de 85 41 40 28 1c aa bf f3 83 48 c0 41 35 33 c1
       3.0237956 -1.3289843 -3.1330535 -11.200501
000140 b4 2a 96 c0 9d b8 fa 40 37 b7 c7 c0 67 d2 69 bf
       -4.692713 7.835036 -6.241115 -0.91336673
000150 dc b4 ad c0 b7 16 1a c1 f2 17 44 bd 99 eb bf 40
       -5.4283276 -9.630546 -0.0478744 5.9975095
000160 0e 3a 4d 41 9e a7 f1 c0 f3 04 6e c0 eb 83 cd 40
       12.8266735 -7.551711 -3.719052 6.4223533
000170 d6 ef 23 c0 2d 52 1c 41 03 c0 77 c0 92 3c 0b 40
       -2.5615134 9.770062 -3.8710945 2.175572
000180 ee e5 0d c1 0f 9d ac 3e c4 a9 f5 40 0d 57 c4 40
       -8.868635 0.33713576 7.6769733 6.1356263
000190 50 78 c6 c0 8a 44 ba c0 af 75 04 c1 b9 23 bc 40
       -6.2021866 -5.8208666 -8.278731 5.8793607
0001a0 ef f5 ba 40 9d 99 71 c1 4e d3 2f 41 19 cb 5e 40
       5.842521 -15.100003 10.989088 3.481146
0001b0 6a 02 8e 3f 2b b8 32 c1 ba 26 95 c0 80 d2 6c c0
       1.1094487 -11.169963 -4.6609774 -3.700348
0001c0 23 ef 58 c0 80 c4 83 3f 80 f3 a5 bf ea d3 95 bf
       -3.3895957 1.0294342 -1.2964935 -1.1705296
0001d0 45 46 93 40 a2 70 08 c1 75 e7 c9 40 79 a5 94 c0
       4.602328 -8.527498 6.309504 -4.6451993
0001e0 6a 44 92 40 18 04 ae 40 49 7f 4e c0 98 90 22 be
       4.5708513 5.4379997 -3.2265189 -0.1587547
0001f0 55 b9 8d c0 b3 89 0b 40 f4 22 81 41 cd dd 2a bf
       -4.4288735 2.1802795 16.142067 -0.6674469
000200 a9 9c 23 40 8d 1d 2c 41 a2 6d 82 c0 7b e6 90 40
       2.5564368 10.757215 -4.075883 4.528135
000210 81 c3 54 40 70 65 bd c0 c8 0e f2 c0 94 b6 33 bf
       3.3244326 -5.9186325 -7.5643044 -0.7020047
000220 f7 84 4e c1 b1 b3 0f bf 27 13 b8 40 9e 38 66 c1
       -12.907462 -0.5613356 5.752338 -14.388823
000230 bd 6a 90 40 18 ea c0 bf a2 71 bc c0 40 19 50 3f
       4.5130296 -1.507144 -5.888871 0.8128853
000240 d7 7b e9 40 d4 b8 ed 3f 19 d8 06 c0 23 77 a0 c0
       7.296367 1.857203 -2.1069396 -5.014543
000250 26 0f 5f 40 40 c3 63 c0 45 c3 f4 40 18 a2 88 c0
       3.4852996 -3.558792 7.6488366 -4.269787
000260 64 4c 03 40 fb c3 70 c0 b6 3c 76 c1 3d d2 9b 40
       2.0515375 -3.7619617 -15.389822 4.869414
000270 c1 e0 8c c0 86 ef 13 c1 6f d3 4d c0 a1 7f 0b c1
       -4.402436 -9.245977 -3.21603 -8.718659
000280 70 16 53 c0 d9 a6 6d 40 ce 37 95 c0 e7 78 ea c0
       -3.2982445 3.7133086 -4.663062 -7.3272586
000290 5a fe 02 c1 35 52 56 c1 d5 f9 f0 c0 70 d4 89 40
       -8.187098 -13.39507 -7.530497 4.3071823
0002a0 0c a0 56 c0 ff 45 6e 40 e2 f1 c3 c0 d0 5d e9 40
       -3.3535185 3.7230222 -6.1232767 7.2927017
0002b0 b8 ee 7d 40 31 bd 0d c0 c9 b2 22 41 52 9f 10 c1
       3.9676952 -2.2146723 10.168649 -9.038897
0002c0 f7 99 87 40 35 58 c6 c0 0b 1c 0a c1 15 88 91 c0
       4.2375445 -6.1982675 -8.631846 -4.5478616
0002d0 e7 00 b3 bf 7f fc 20 41 29 15 02 c1 6c 3b 09 3f
       -1.398465 10.061645 -8.130166 0.53606296
0002e0 b0 1f e4 3f c0 25 9c 3f 65 96 9a c0 f2 62 e2 c0
       1.782217 1.219902 -4.8308587 -7.0745783
0002f0 f5 8c 93 c0 bc 9e 8e c0 66 48 f0 3d 70 33 2e c1
       -4.6109567 -4.4568768 0.11732559 -10.887558
000300 ee 3b 90 bf 94 5d 75 41 2f 96 87 40 fa c4 43 c0
       -1.1268289 15.335346 4.237083 -3.0588975
000310 44 d4 ed 40 01 07 c0 bf 22 6a 7e 40 a9 ea 05 c0
       7.4321613 -1.5002137 3.9752278 -2.0924475
000320 5f 47 bf 40 69 e0 87 bf 54 ea b2 bd aa 1b 3f 41
       5.9774623 -1.061536 -0.08736101 11.944254
000330 d1 11 51 c0 d5 5f 51 c0 8e 29 dc 40 bb 79 76 c1
       -3.2667124 -3.2714741 6.8800726 -15.404719
000340 7e 81 15 bf 9e 9d 3d bf 79 0d ca 40 55 4c 29 be
       -0.58400714 -0.7406863 6.3141446 -0.16533025
000350 be d4 04 bf 4e ff 17 bf 56 4d 98 40 62 c1 53 40
       -0.5188712 -0.5937394 4.7594404 3.3086782
000360 45 a2 1f c0 d5 0a 14 41 ab 8a 68 40 f6 8b a3 40
       -2.4942791 9.252645 3.6334636 5.110835
000370 3c 49 30 c1 f8 43 02 41 79 b3 aa 3f 9b 5e a8 40
       -11.0178795 8.141594 1.3336021 5.2615485
000380 65 d4 a0 40 c4 6a 07 bf 14 71 11 c1 98 57 02 c1
       5.025927 -0.52897286 -9.090107 -8.146385
000390 cb 20 03 c1 62 44 80 c0 dd 0d 55 40 66 1c 0b 41
       -8.195506 -4.0083475 3.3289711 8.694433
0003a0 b0 3b c9 40 05 03 20 c0 80 6f 0b 41 d4 42 18 c0
       6.288536 -2.5001843 8.714722 -2.3790789
0003b0 d9 b1 cb c0 12 90 d6 3f 25 4e a5 c0 6d 4b 0c c1
       -6.36546 1.6762717 -5.165789 -8.7684145
0003c0 ed 74 10 c0 18 00 6a c0 de 54 0b c0 99 32 92 41
       -2.2571366 -3.6562557 -2.177055 18.274706
0003d0 55 7e 33 40 e8 66 98 40 f7 a8 6a 41 c6 38 dc bf
       2.8045857 4.762562 14.666251 -1.7204826
0003e0 df e3 98 be d1 d8 d6 3e 79 14 04 41 38 be e6 c1
       -0.29861352 0.41962293 8.254998 -28.84288
0003f0 a6 79 38 bf 41 7d f1 bf ea a5 44 40 0b d9 9c 40
       -0.7206062 -1.886635 3.0726266 4.9014945

hidden.0.bias f4 [50]
000000 da 91 4e c1 3b d5 a7 bf 70 c9 73 c1 6e 00 15 c1
       -12.910608 -1.3111948 -15.236679 -9.312605
000010 03 76 65 c1 32 7c 18 41 77 49 61 40 81 38 5b 40
       -14.341311 9.530321 3.520109 3.4253237
000020 d4 e7 4f c0 41 69 1a c1 6f 77 84 41 f0 35 b6 40
       -3.2485247 -9.650697 16.558317 5.694084
000030 55 50 e3 bf 7f f8 ed 3f a7 9d 6e c0 97 ca 6f 41
       -1.775889 1.859146 -3.7283723 14.98696
000040 b6 67 67 3e e9 ac 1b 41 de d8 c8 3f ef e1 bf c0
       0.22598156 9.729714 1.5691183 -5.99633
000050 d4 c2 20 c0 0f ba b5 c0 50 b5 55 3d 21 ce 62 41
       -2.5118914 -5.678962 0.052174866 14.175324
000060 86 1f 29 41 d7 c9 be c1 e9 85 1f 41 09 7d cd 40
       10.570196 -23.848555 9.970193 6.421513
000070 cf d7 97 3f f3 a2 68 c1 06 e2 2f 41 23 f0 c8 40
       1.1862735 -14.539783 10.9926815 6.2793136
000080 d5 d6 35 41 fa 59 5c c1 0f 94 19 c0 0d 7d a6 c1
       11.364949 -13.771967 -2.3996618 -20.81106
000090 ba 49 f5 bd 6f a9 62 41 f6 70 9e 41 83 6f d3 be
       -0.11976953 14.166366 19.805157 -0.41296014
0000a0 7a 8c c6 40 78 46 e4 bb e8 66 99 40 ca 25 c7 40
       6.204648 -0.0069664083 4.793812 6.223363
0000b0 af 7a b3 c1 94 b0 de 41 3a 09 2e 41 55 ec 99 40
       -22.434904 27.83622 10.877253 4.810099
0000c0 ff e6 da c0 e5 3c 96 40
       -6.840698 4.6949334

hidden.1.weight f4 [50, 50]
000000 02 0e 7a 41 0e 7a e3 c1 c7 a3 73 c1 77 e1 33 bf
       15.62842 -28.434597 -15.227485 -0.7026591
000010 42 28 be be 72 02 5c c0 5b 77 b4 bf dd 8b ca 3e
       -0.3714009 -3.4376493 -1.4098924 0.39559832
000020 17 5a c3 40 0c bd 5d c1 98 7a 47 c1 f1 7c 71 bf
       6.1047473 -13.858654 -12.46743 -0.9433127
000030 37 a3 0e 41 d1 f4 dd 3f 45 f9 a9 3c 08 f8 a5 c0
       8.914847 1.7340337 0.020748744 -5.1865273
000040 e6 ce 54 41 fc 79 8b c1 f1 e5 c7 41 51 70 24 c1
       13.300512 -17.434563 24.987276 -10.277421
000050 28 5c 84 41 ad 24 64 41 02 08 95 41 c1 ee 68 41
       16.544998 14.258954 18.62891 14.55829
000060 1a 59 ee bd 27 db 53 c0 30 5d 01 c1 b0 c4 71 41
       -0.116380885 -3.310251 -8.085251 15.110519
000070 97 91 8f c1 d1 dd 71 40 60 86 9f 41 f3 34 a8 40
       -17.946089 3.7791636 19.940613 5.2564635
000080 ad 8f 81 c0 ff a6 34 41 89 f9 6a c1 43 b3 38 c0
       -4.0487885 11.290771 -14.685922 -2.8859413
000090 96 44 22 c0 84 13 89 40 92 0d e2 c0 9d 42 fd 40
       -2.5354362 4.2836323 -7.0641565 7.9143815
0000a0 fc 56 e0 bf 87 9b 2a c1 57 40 c9 c0 c7 c5 13 40
       -1.7526546 -10.662971 -6.289104 2.3089464
0000b0 54 40 28 3f b6 a5 27 41 aa 2d ab 3f 8b e7 cb 40
       0.65723157 10.477957 1.337331 6.3720145
0000c0 4a b6 d7 41 e9 bf b6 41 e8 cb ac c0 18 7a 74 3f
       26.964008 22.843706 -5.399891 0.954988
0000d0 14 4c 97 40 08 75 13 c1 05 92 bd bf 7e c0 6e bf
       4.728037 -9.216072 -1.4810187 -0.9326247
0000e0 ea f9 07 40 74 a2 b7 40 f5 d3 c4 bf 05 44 00 c0
       2.1246285 5.7385807 -1.5377184 -2.0041516
0000f0 01 07 98 40 94 d8 64 3f db b5 88 40 8c e9 06 bf
       4.750855 0.8939297 4.272199 -0.52700114
000100 25 58 d0 40 e7 4d 04 c0 ea 5a 9c 40 ec 9e 0d 40
       6.51076 -2.0672548 4.886098 2.2128248
000110 f4 d0 c5 bf dc 1b b3 3f 17 70 b8 c0 47 43 ef 3f
       -1.5454392 1.3992877 -5.763683 1.8692406
000120 0c fb 93 40 34 88 a8 3e cb 56 2b bf 12 0b e5 c0
       4.6243954 0.32916415 -0.6692931 -7.1576014
000130 19 bd be c2 e6 de c8 3f bd 9e 8d bf b2 11 83 40
       -95.36933 1.5693023 -1.1064068 4.09591
000140 99 20 e8 3f 31 d5 fc bf 6c 51 6a 40 05 00 8e 3f
       1.8134948 -1.9752561 3.6612196 1.1093756
000150 62 f1 2c 40 57 42 bf 40 33 13 c9 40 73 27 e9 bd
       2.7022328 5.976848 6.2835937 -0.113844775
000160 f1 b5 b4 bf 80 e6 c5 c0 a1 bd 2a c1 cf 7a 9b c0
       -1.4118024 -6.184387 -10.671296 -4.8587413
000170 eb 85 32 bf 07 41 8c c0 23 2c 95 40 4e 7d 9b c0
       -0.6973559 -4.382938 4.661638 -4.859046
000180 cb ba c6 c0 09 c8 c9 40 40 97 88 40 d8 cb a4 bf
       -6.210302 6.3056684 4.268463 -1.2874708
000190 9c ba 6b be 1f e1 c0 bf ac 03 07 41 73 5f c7 c0
       -0.23020405 -1.5068702 8.438396 -6.2304015
0001a0 5a 92 71 41 b7 3f d3 40 f6 a8 5f 3f 8f 30 28 c0
       15.09823 6.6015277 0.8736719 -2.6279638
0001b0 54 43 f1 bf 11 a9 7b 3f b3 78 ac 40 5c 02 22 41
       -1.8848672 0.9830485 5.389734 10.125576
0001c0 7e 17 b0 c0 03 cc 44 41 56 cc 17 40 78 6c 8a c2
       -5.5028677 12.299808 2.3718467 -69.21185
0001d0 6c 71 ec 40 27 7a 89 bd 32 be 9c 3f 98 3c 63 41
       7.3888454 -0.06712752 1.2245543 14.202293
0001e0 fa 71 db 3f 4d 44 62 c0 4f f4 0f 40 dd 6f 00 c0
       1.7144158 -3.5354187 2.2492864 -2.0068276
0001f0 b3 61 c7 40 49 04 2a 40 8a d9 43 41 6e d5 0d c1
       6.230676 2.6565115 12.24061 -8.864607
000200 59 87 73 bf 1b 3a d8 c0 2f d4 ff 3f 5f 18 cf c0
       -0.951284 -6.757093 1.9986628 -6.471725
000210 0e 2c 2b c0 81 50 a5 be d5 03 5f 40 f1 1d 20 3e
       -2.674564 -0.32287982 3.484609 0.15636422
000220 54 89 9c bf b8 f3 3d c1 5d d6 07 c1 60 6a df 40
       -1.2229409 -11.872002 -8.489835 6.981735
000230 ba b2 b6 41 bf 30 5f 41 64 5a 05 41 ac 2b 27 c0
       22.837269 13.949401 8.334568 -2.6120405
000240 db c5 33 41 2a 60 4b c1 af 5d a2 bf 60 45 95 c0
       11.235805 -12.710978 -1.268484 -4.6647186
000250 88 2c ef c0 76 54 3d 40 b9 cf ce 40 a8 6c 76 c1
       -7.474186 2.95828 6.462857 -15.401527
000260 02 28 2b c1 b2 d4 59 40 06 e8 e8 40 52 49 b4 c0
       -10.697268 3.403607 7.278323 -5.63395
000270 fa 5c 92 3f 1f ea ee 3e 78 f5 42 3f a2 d4 47 41
       1.1434624 0.46662995 0.76155806 12.489412
000280 95 19 be be 5e 7d 39 c1 50 3a b1 c0 15 3e 65 c1
       -0.37128893 -11.593107 -5.538368 -14.327657
000290 fa 2a bd c0 96 d0 72 41 79 d6 97 3f 5a 14 1b c0
       -5.911496 15.175924 1.1862327 -2.4231172
0002a0 b3 79 a6 c0 6a 32 95 c0 d1 3c 06 41 19 a9 fa 3d
       -5.202356 -4.662404 8.389848 0.12239284
0002b0 54 d4 e8 3f 16 a7 79 41 7b e0 61 41 1a 1e 29 c1
       1.8189797 15.603292 14.117305 -10.569849
0002c0 3f 58 ac 3e 91 20 c4 41 c1 f2 b2 3e 9b e2 c4 3f
       0.33661076 24.515902 0.34950832 1.5381655
0002d0 9f de 52 c0 44 03 ec bf 34 04 50 40 fc bf 89 c0
       -3.2948377 -1.8438497 3.2502565 -4.3046856
0002e0 9c dc c9 40 f8 78 df c1 2e 59 f0 3f 34 a0 50 3f
       6.30818 -27.934067 1.8777215 0.8149445
0002f0 33 35 1b c0 b7 9b 88 c1 aa 7e bf 41 cb 0c fc c0
       -2.425122 -17.076033 23.936848 -7.8765616
000300 0f 9e ad bf 39 a9 90 41 5b 8f d0 c0 11 21 2c c0
       -1.3563861 18.082628 -6.5174994 -2.6895182
000310 d6 50 52 41 87 1c 8e 40 ce c9 8a 3e e5 e6 99 be
       13.144735 4.4409823 0.2710709 -0.3005897
000320 7d 32 09 41 4c df 23 c2 9a 28 a6 c0 86 e6 94 c1
       8.574826 -40.968063 -5.1924562 -18.61256
000330 ee 9b 42 40 ee e1 fb 3e 59 54 14 c2 b6 8d 25 c1
       3.0407672 0.49195808 -37.08237 -10.347097
000340 53 f0 5a 41 c7 6d d9 bd a9 35 4a 41 fc 19 be c0
       13.683673 -0.106166415 12.638101 -5.940672
000350 58 37 a4 c0 71 4b fa 40 36 41 21 42 61 8f ba c0
       -5.131756 7.821709 40.313683 -5.8300023
000360 95 d1 b0 c1 cf ff 1e c1 95 57 93 40 08 c5 6a 3f
       -22.102335 -9.937453 4.604441 0.91706896
000370 8e 31 28 41 31 0e 74 c0 8e d6 07 c1 40 91 9f 40
       10.512098 -3.8133662 -8.4898815 4.9864807
000380 23 45 81 3f 8d 3a 0c c1 51 0a e7 c0 e1 ba 16 41
       1.0099224 -8.764295 -7.2200093 9.420625
000390 9d ed dd 40 ed db 52 c1 13 6f 94 c1 da fb 60 41
       6.9352555 -13.178693 -18.554235 14.061487
0003a0 e2 2d bc c0 61 0d 9b c1 07 a2 ad c1 00 d8 76 41
       -5.880601 -19.381533 -21.704115 15.427734
0003b0 ee 01 0e 41 12 ba 95 c1 f0 69 8a 41 cb 64 ea 3f
       8.875471 -18.715855 17.301727 1.831201
0003c0 59 c3 25 c1 0a e1 09 c1 7a 4d ed 3f fe a3 b1 c1
       -10.360192 -8.617441 1.8539269 -22.205074
0003d0 7e 0a b2 40 5a 3e a2 c0 a0 d6 5a c1 94 28 97 c1
       5.563781 -5.0701113 -13.677399 -18.894814
0003e0 e8 5a 97 3e 4c ee ea 3f 3c c4 b3 bf 85 7b 88 40
       0.29561543 1.8353972 -1.4044261 4.265078
0003f0 75 42 8c 40 49 37 4e be 88 6b b1 40 98 6b a6 3f
       4.3831124 -0.20138277 5.5443764 1.3001585

hidden.1.bias f4 [50]
000000 08 7c 52 41 f4 ee 82 40 01 5f f4 c1 02 27 95 42
       13.155281 4.091669 -30.546389 74.57619
000010 08 08 34 41 1e 10 55 c2 c2 35 0e 42 14 e0 7a 42
       11.251961 -53.26574 35.552498 62.718826
000020 83 6f f1 c0 d2 88 6c c2 db 64 65 c2 bf 78 26 c2
       -7.5448623 -59.133614 -57.34849 -41.617916
000030 6d 25 1d 42 90 27 07 41 e1 33 86 42 71 0e 44 42
       39.28655 8.447159 67.101326 49.014103
000040 33 a8 9a c1 ed c7 e5 c1 e6 07 48 40 16 82 26 42
       -19.332129 -28.72262 3.125482 41.627037
000050 9f 6c 24 c0 38 23 c3 41 45 1e 47 40 72 e7 ec 41
       -2.5691297 24.392197 3.1112225 29.61301
000060 2c aa b1 c1 97 95 df c0 0f 07 86 c2 e5 30 07 c2
       -22.208092 -6.9870105 -67.01379 -33.79775
000070 d3 c4 f3 c1 8e 5b 92 bf 02 97 76 c1 2e 13 06 c2
       -30.471106 -1.143419 -15.411867 -33.51873
000080 8b d0 fe 3f c0 84 94 c2 57 ba 54 c2 0c c0 fe 40
       1.9907392 -74.25928 -53.181973 7.960943
000090 3e 9a 80 42 57 d3 89 c2 86 9d 4d 41 62 18 2b c0
       64.301254 -68.91277 12.850958 -2.6733632
0000a0 28 a9 9f 42 2a b6 05 41 f4 be 45 c1 11 51 39 42
       79.83038 8.356974 -12.359119 46.329166
0000b0 90 76 5a c2 6a 26 98 c0 03 0f 4c c2 30 16 01 c0
       -54.615784 -4.754689 -51.01466 -2.0169792
0000c0 0c 33 4d 41 14 2a 73 42
       12.824963 60.791092

output_layer.weight f4 [49, 50]
000000 5f 30 58 bf eb a5 01 c0 da 7d fe bf 3e af 8e 3f
       -0.8444881 -2.0257518 -1.9882157 1.114723
000010 d0 56 d7 3f f2 d8 e4 bf 9c 7c de 3f f8 ad 7d 3f
       1.6823368 -1.7878706 1.7381778 0.9909358
000020 89 ab 32 c0 83 06 b1 bf 92 91 a1 bf ea e9 fe bf
       -2.7917197 -1.3830112 -1.262255 -1.9915135
000030 d0 03 bc 3f ef fc 29 40 8b 88 58 3f 60 20 fd 3f
       1.4688663 2.6560628 0.8458335 1.9775505
000040 1c 30 e9 3e 1b 12 1f 3f 1c 6b 09 bf 8d 28 01 40
       0.45544517 0.62137 -0.5367906 2.0181
000050 e0 c8 58 3e 10 6a 2f 3e 59 5f 53 3f 1c 84 eb 3f
       0.21170378 0.17130303 0.82567364 1.8399692
000060 dc 51 93 3e 65 bf e7 bf 81 46 a4 bf 3f 5d 33 3f
       0.2877339 -1.8105284 -1.2834016 0.7006416
000070 a5 8a 22 40 cc 24 04 3f 3b 90 11 c0 f4 92 f3 be
       2.5397122 0.5161865 -2.2744281 -0.47573054
000080 0b b7 f2 3f 36 c1 51 40 8f e0 ee bf 05 b6 01 40
       1.896211 3.2774177 -1.866228 2.0267346
000090 e7 52 f3 3f 7b a2 e1 bf f0 76 ba 3f cf 38 b6 3e
       1.9009675 -1.762771 1.4567547 0.35590217
0000a0 60 e7 44 c0 a8 c1 9d 3f 70 e0 3b 3f 69 f6 e3 3f
       -3.076622 1.2324724 0.7338934 1.7809573
0000b0 7e ab 13 c0 45 1b f5 bf dd 29 09 40 fb d4 1d 3f
       -2.307342 -1.9148947 2.1431801 0.6165311
0000c0 66 4d 32 bf d6 2b de 3f d1 17 15 bf 42 cd 23 c0
       -0.6964935 1.7357128 -0.58239466 -2.559403
0000d0 5e 97 fd bf df 7f aa 3f 4d b8 e2 3f 36 d0 ae bf
       -1.9811819 1.3320273 1.7712494 -1.3657291
0000e0 3a d9 c1 3f 6d 67 fd 3f 1c 6f 2a c0 95 f7 b9 bf
       1.5144417 1.9797188 -2.6630316 -1.4528681
0000f0 93 e4 0e c0 39 d5 00 c0 88 17 e5 3f 7f 28 33 40
       -2.232701 -2.013014 1.7897806 2.7993467
000100 5d c2 f2 bd 07 83 00 40 c3 12 00 3f 1e 12 42 3f
       -0.11853478 2.0079973 0.5002863 0.75808895
000110 7e 92 09 bf 7f d1 ff 3f 68 30 1e bf 1e 87 bd 3e
       -0.53739154 1.9985808 -0.6179261 0.3701715
000120 8d 31 93 3f b5 62 bf 3f f4 5d 11 3f 3e 1b a5 be
       1.1499497 1.4951998 0.56783986 -0.32247347
000130 f4 d4 d7 bf c3 06 2d 3f 7f 9c 1f 40 cb 79 d9 3e
       -1.6861863 0.6758844 2.4939268 0.42475733
000140 14 1d 55 c0 d0 0c 04 bf 16 28 8b 3f 02 03 53 40
       -3.3298998 -0.5158205 1.0871608 3.2970586
000150 5b 7a de bf 0b b7 01 40 9f 1c ea 3f aa c4 e6 bf
       -1.738109 2.026797 1.8289984 -1.8028767
000160 93 fb ba 3f 50 76 95 3e fa 1c 43 c0 bb 30 9a 3f
       1.4608024 0.29191828 -3.0486436 1.2046121
000170 d0 13 83 3f 36 1c dd 3f 5e be f5 bf 81 8c fa bf
       1.0240421 1.7274234 -1.919872 -1.9574128
000180 12 84 09 40 5c 3b 79 3f 94 a4 10 bf 66 68 dc 3f
       2.148686 0.973562 -0.56501126 1.721936
000190 02 37 20 bf 42 b4 10 c0 c6 81 f4 bf 81 60 a9 3f
       -0.62583935 -2.261002 -1.9102104 1.3232576
0001a0 0d 4e d5 3f 3d cb b5 bf f4 d6 c3 3f 43 6d f4 3f
       1.6664444 -1.4202648 1.5299973 1.9095844
0001b0 29 f5 38 c0 7c bc af bf 46 a3 09 c0 fb 02 00 c0
       -2.8899634 -1.3729396 -2.1505904 -2.000182
0001c0 2b 5d 40 3f 4e 4b 20 40 0c c7 59 3f a8 f1 0a 40
       0.75142163 2.5045962 0.85069346 2.1709995
0001d0 3b 2e 14 3f 37 82 25 3f f3 50 1c bf aa 8b 04 40
       0.5788304 0.6465182 -0.6106102 2.0710244
0001e0 9e 93 ec be 64 f4 a9 3e 7c 5d 19 bb 5b 4c 09 40
       -0.46206373 0.33194268 -0.0023401668 2.1452854
0001f0 b5 38 f3 3e 48 1f 0e c0 66 f3 dc bf 5a 7d 3e 3f
       0.47504202 -2.2206593 -1.7261779 0.7441002
000200 d3 05 1a 40 b7 b3 c2 3e 1b e6 d3 bf e7 18 d9 be
       2.4066055 0.38027737 -1.6554598 -0.4240181
000210 cc 12 a5 3f 1c d9 4e 40 ef 34 a2 bf 5a 10 fd 3f
       1.2896361 3.2320013 -1.2672404 1.9770615
000220 ff 98 17 40 74 2d d3 bf a4 92 bb 3f 35 bd c5 3e
       2.3687131 -1.6498246 1.4654126 0.38620916
000230 9a 98 4b c0 88 b3 9d 3f 03 20 76 3f 4c c3 dc 3f
       -3.181189 1.2320414 0.96142596 1.72471
000240 f3 dd c9 bf 05 47 f7 bf 50 8b 04 40 20 69 54 be
       -1.5770859 -1.9318548 2.071003 -0.20743227
000250 90 a4 1f bf 22 87 cf 3f 25 cb 46 bf 5c f1 43 c0
       -0.6236048 1.6213114 -0.77653724 -3.0616064
000260 b4 85 f9 bf be fb 90 3f 7f 0b da 3f 4e f1 a4 bf
       -1.9493928 1.1326826 1.7034758 -1.288614
000270 3a d3 15 40 8a 37 66 3f 54 62 2e c0 9e df ae bf
       2.3410172 0.89928496 -2.7247515 -1.3661993
000280 56 03 e9 bf c1 15 f1 bf 8c 26 24 3f 68 bf 34 40
       -1.8204143 -1.8834764 0.6412132 2.8241825
000290 bb 00 6f 3f b1 fb f3 3f 68 0f fe 3e 9d b1 1b 3f
       0.9336049 1.9061185 0.4962113 0.6081789
0002a0 fa 2a 09 bf c0 61 fc 3f 96 d6 13 bf 66 48 9c 3d
       -0.535812 1.9717331 -0.5774931 0.076309964
0002b0 d9 49 d5 3d ae 4a fa 3f 9c bc 54 3e a4 f2 9e bf
       0.10414476 1.955404 0.20775074 -1.2417798
0002c0 52 23 fe bf 62 ba 38 3f 90 72 21 40 24 27 95 3e
       -1.9854529 0.721594 2.5226173 0.29131424
0002d0 92 80 eb bf 69 40 04 bf 1a 75 96 3f 4a c4 51 40
       -1.8398612 -0.5166078 1.1754487 3.2776055
0002e0 13 80 aa bf a8 9e 09 40 d5 0d 10 40 2f 65 e2 bf
       -1.3320335 2.1503086 2.2508442 -1.7687129
0002f0 2c ea b7 3f 2d 87 c6 3e 1c d2 46 c0 8b 65 a0 3f
       1.4368339 0.38775006 -3.106574 1.2530988
000300 a0 90 47 3f 44 7b e5 3f d1 14 ae bf 5b 32 f8 bf
       0.77955055 1.7928243 -1.3600103 -1.9390367
000310 48 d7 05 40 93 b7 ec bd 55 cb 38 bf 95 53 e1 3f
       2.0912647 -0.115584515 -0.7218526 1.7603632
000320 f5 97 4a bf 3a 6e e9 bf de 79 ef bf 65 6f b0 3f
       -0.7913812 -1.8236763 -1.8709066 1.3783995
000330 9c be d5 3f 47 28 80 bf 07 ca 39 40 b2 81 12 40
       1.6698794 -1.0012292 2.9029558 2.289166
000340 c1 b8 81 c0 de be a6 bf 11 99 ff bf 3c 0b 04 c0
       -4.053803 -1.3026998 -1.9968587 -2.0631857
000350 b0 3d d1 3e d4 c8 ae 3f 75 e7 e5 3f 59 ad fd 3f
       0.40867376 1.3655038 1.796126 1.9818527
000360 12 9d f8 3e c8 a1 26 3f ea 56 ea be 49 11 01 40
       0.48557335 0.6509061 -0.45769435 2.01668
000370 df 37 5f bf e0 d4 37 bf fe a7 42 3e b3 ab eb 3f
       -0.8719463 -0.71809196 0.19009396 1.8411773
000380 65 b9 1a bf bd 4b da bf d8 52 94 bf 3e 68 1d 3f
       -0.6043914 -1.7054363 -1.1587782 0.61487186
000390 7e 16 23 40 e2 80 ca 3e 38 65 22 c0 e3 a1 f4 be
       2.5482478 0.39551455 -2.537428 -0.4777976
0003a0 e6 a7 40 3f 60 dd 58 40 d3 c3 64 bf de 1b 09 40
       0.7525619 3.3885117 -0.89361304 2.1423259
0003b0 2f dd 17 40 e5 0a d2 bf ed 3a c6 3f 96 36 ac 3e
       2.372875 -1.6409575 1.5486733 0.33635396
0003c0 81 d6 43 c0 d1 c3 98 3f 69 ef 1b 3f bf 99 ea 3f
       -3.0599673 1.1934758 0.60912186 1.832817
0003d0 05 13 aa bf e4 78 fe bf 1a 1f 0c 40 78 b4 44 bd
       -1.3287054 -1.9880643 2.1893983 -0.04802367
0003e0 5f b4 65 bf 4e 40 d5 3f b9 1a ee bf 28 bd 01 c0
       -0.8972835 1.6660249 -1.8601905 -2.0271702
0003f0 2c 35 fa bf 79 63 8c 3f 16 b4 e1 3f d6 06 cb bf
       -1.9547477 1.0967857 1.7633083 -1.5861461

output_layer.bias f4 [49]
000000 eb 4d 15 40 21 73 05 40 58 7a 02 40 66 53 3d 40
       2.3328807 2.085152 2.0387173 2.9582152
000010 8c 71 be 3f 63 94 05 3f 98 d0 e7 3f d2 e1 05 40
       1.4878402 0.52179545 1.8110533 2.091908
000020 ff f9 51 3f 16 d8 ea 3f 45 7b f1 3e 03 3f e5 3f
       0.8202209 1.8347194 0.4716436 1.7909855
000030 30 a7 b2 3f 99 27 b0 3f 59 fd e7 3f 1a 36 11 3f
       1.3957272 1.3762084 1.812419 0.5672318
000040 ee b4 c5 3f d1 42 d5 3f 59 cb 99 3f 45 a1 20 3e
       1.544584 1.6661016 1.2015182 0.1568652
000050 f4 7d 37 3f 12 43 25 40 6d 9f fe 3f 87 f3 cb 3f
       0.71676564 2.5822186 1.9892403 1.5933694
000060 76 87 8b 3f 64 2a a4 3f 15 78 c5 3e d8 9e f0 3f
       1.0900714 1.2825437 0.38568178 1.8798475
000070 37 35 10 3f 4c 3a a5 3d 81 77 02 3f 0e f9 ae 3f
       0.563312 0.0806776 0.509636 1.3669755
000080 e4 d5 9f 3f dd 36 6e 3f ba 8b 2a 40 aa 39 a9 3f
       1.2487149 0.93052465 2.6647782 1.3220723
000090 06 19 8b 3f b2 fb 15 bf 1e 64 09 40 7d 28 c0 3f
       1.0867012 -0.5858718 2.1467357 1.5012356
0000a0 43 57 f0 3f ae 0a 16 40 7c 18 72 3f 0a 50 a5 40
       1.877663 2.3444018 0.9456861 5.1660204
0000b0 91 45 56 40 f0 f7 4d 40 12 73 e5 3f 71 36 26 40
       3.347996 3.218258 1.7925742 2.5970728
0000c0 01 60 47 40
       3.1152346
