models/2600episodes/2350episodes.pth (torch, 43836 bytes, 8 tensors)

input_layer.weight f4 [50, 50]
8.076892 4.0975432 -2.7410674 1.4983318 5.167751 -5.036548 -4.9244184 4.0154057
0.31001374 -7.5923457 -0.7904445 4.677954 -4.2623987 5.7298203 8.440371 -3.1586745
4.6663923 -5.816428 1.9579908 -10.928166 -1.8324637 -1.908425 1.0288188 -4.838683
-13.77866 -10.242514 8.341465 -2.1901658 -13.421404 -4.581846 8.038493 -0.7139268
6.2129717 8.142347 10.378247 -5.785996 -4.0100827 14.731017 -0.7986498 1.2580267
11.660995 -8.278243 -4.3227015 -0.50344527 4.253712 -1.4450201 -0.069707304 -6.7712045
-8.795238 -2.4900181 -7.445415 -10.38218 2.2068067 5.3211465 -10.007712 -3.7003963
-3.0144815 -2.5901706 4.231548 -3.2574787 -3.066381 7.8906536 -5.551563 -4.9543495
6.9633393 4.6072965 -9.2775955 9.170161 6.115798 -7.9552517 3.7196226 6.6844406
3.1324458 4.40448 0.97289056 8.622507 -5.4959893 -2.8843794 0.7292289 2.4253004
-5.9349346 -0.06804368 -9.295202 -4.786133 -4.0089083 1.6348497 8.096758 10.385498
2.1103227 -7.074466 -5.861348 1.8919122 -12.982137 0.61123586 -2.2295613 14.424461
-1.5804769 0.22888936 5.4032826 -5.539527 1.6981359 0.9488116 12.546662 8.792947
2.4125395 -0.08137358 -5.7804027 -11.597562 9.071239 8.294944 4.9745674 -2.596037
6.4740043 -7.0882177 -0.68186635 -0.62493706 -2.7270799 3.7098312 1.8164676 0.47339112
0.36507234 3.7671359 5.9017835 -9.290963 -10.631121 3.6212084 -17.500721 -10.265564
5.660258 -2.429703 -1.6575824 -2.2770016 -8.9881735 -0.14296353 -0.86980194 7.1076784
-0.82342607 -1.1665761 -4.3432617 2.088228 0.17271551 1.889273 3.6009142 -0.022300564
3.947519 7.1038227 -2.3743286 -1.7125424 1.1077989 15.403469 3.1830049 1.4734135
0.7128091 14.9631815 0.34793052 3.8545444 -1.044545 -6.5357265 1.818337 0.958017
-3.8191423 -0.28858894 -13.759631 -3.8801877 -1.4962927 0.37498406 5.9100366 6.7136874
10.806121 16.169815 -0.108438045 -2.8658938 -2.6789198 0.7426204 -11.79189 -4.3963127
17.55935 -4.305647 -9.812261 1.9258437 -10.514318 0.24375153 -4.626429 4.7208157
-4.0082817 6.6408186 -17.904737 2.0533926 1.8694202 7.1751943 -5.6963363 3.1561255
-4.8417783 9.498789 0.9164749 -4.5197163 -1.7625842 12.020018 13.466858 7.5875063
3.368151 1.4990468 -2.3394666 -0.8295575 5.5232954 5.6797843 5.630086 5.647342
-1.9354823 8.513003 -0.95005345 5.542212 8.6541 -1.564598 0.42143068 6.7743464
-4.3689623 -7.908139 -17.736338 -10.084344 -4.719726 10.78756 -2.092179 1.972546
1.8483751 -0.974687 1.6917753 10.571913 3.0768497 -1.7278774 12.744981 -3.235535
-0.5426472 -6.440448 -7.3357844 -3.25781 -3.061027 -18.298098 -1.5019025 -0.4238654
4.603386 0.16786855 5.749758 -2.0884097 7.656528 2.173643 8.239584 -2.3720777
-5.145878 -7.5203843 2.266766 4.303475 -3.2837567 -2.7135365 4.319048 3.8756247
00000000: f33a 0141 131f 8340 a66d 2fc0 56c9 bf3f
00000010: 375e a540 672b a1c0 d694 9dc0 347e 8040
00000020: 1fba 9e3e 7ff4 f2c0 925a 4abf cdb1 9540
00000030: 9265 88c0 b05a b740 c20b 0741 b927 4ac0
00000040: 1653 9540 2e20 bac0 719f fa3f c5d9 2ec1
00000050: 2c8e eabf 4547 f4bf 56b0 833f 7ed6 9ac0
00000060: 6475 5cc1 56e1 23c1 a476 0541 ad2b 0cc0
00000070: 12be 56c1 7c9e 92c0 ab9d 0041 e8c3 36bf
00000080: aad0 c640 0e47 0241 4d0d 2641 e126 b9c0
00000090: 9952 80c0 3fb2 6b41 5074 4cbf 0507 a13f
000000a0: 6f93 3a41 af73 04c1 9253 8ac0 cae1 00bf
000000b0: 691e 8840 6bf6 b8bf b4c2 8ebd b5ad d8c0
000000c0: 4bb9 0cc1 755c 1fc0 d740 eec0 691d 26c1
000000d0: 523c 0d40 d546 aa40 971f 20c1 4bd3 6cc0
000000e0: 44ed 40c0 5bc5 25c0 d768 8740 887a 50c0
000000f0: 963f 44c0 3c80 fc40 67a6 b1c0 088a 9ec0
00000100: add3 de40 f96e 9340 0871 14c1 fbb8 1241
00000110: 9eb4 c340 6c91 fec0 4c0e 6e40 f0e6 d540
00000120: fe79 4840 80f1 8c40 5b0f 793f caf5 0941
00000130: 25df afc0 ac99 38c0 bfae 3a3f 1f38 1b40
00000140: fcea bdc0 7c5a 8bbd 26b9 14c1 0028 99c0
00000150: fa48 80c0 c142 d13f 528c 0141 002b 2641
00000160: 870f 0740 0762 e2c0 2a90 bbc0 2e2a f23f
00000170: d5b6 4fc1 f479 1c3f 22b1 0ec0 98ca 6641
00000180: 114d cabf f961 6a3e b1e7 ac40 ce43 b1c0
00000190: 845c d93f 51e5 723f 21bf 4841 e9af 0c41
000001a0: 0c67 1a40 31a7 a6bd 0ff9 b8c0 9d8f 39c1
000001b0: cc23 1141 17b8 0441 a82f 9f40 7825 26c0
000001c0: 0b2b cf40 aed2 e2c0 cb8e 2ebf e0fb 1fbf
000001d0: 7a88 2ec0 e06d 6d40 0382 e83f 5260 f23e
000001e0: c3ea ba3e c118 7140 69db bc40 c9a7 14c1
000001f0: 1219 2ac1 e1c1 6740 7a01 8cc1 c03f 24c1
00000200: d520 b540 4180 1bc0 a92b d4bf 65ba 11c0
00000210: 8fcf 0fc1 0865 12be 57ab 5ebf 1a72 e340
00000220: 0dcc 52bf 5e52 95bf 00fc 8ac0 87a5 0540
00000230: 56dc 303e b3d3 f13f 6175 6640 acaf b6bc
00000240: 27a4 7c40 8452 e340 00f5 17c0 9734 dbbf
00000250: 5bcc 8d3f 9c74 7641 5ab6 4b40 d098 bc3f
00000260: a87a 363f 3169 6f41 f323 b23e dbb0 7640
00000270: a7b3 85bf ac24 d1c0 44bf e83f 9a40 753f
00000280: d46c 74c0 eec1 93be 7327 5cc1 ff54 78c0
00000290: 8586 bfbf e9fd bf3e 051f bd40 87d6 d640
000002a0: dfe5 2c41 c85b 8141 c414 debd ce6a 37c0
000002b0: 6c73 2bc0 5f1c 3e3f 95ab 3cc1 98ae 8cc0
000002c0: 8c79 8c41 dcc7 89c0 05ff 1cc1 0c82 f63f
000002d0: a63a 28c1 009a 793e b50b 94c0 ec10 9740
000002e0: d843 80c0 9681 d440 e73c 8fc1 c96a 0340
000002f0: 2949 ef3f 319b e540 6348 b6c0 f6fd 4940
00000300: d9ef 9ac0 0afb 1741 199e 6a3f 84a1 90c0
00000310: 5c9c e1bf fe51 4041 4078 5741 dacc f240
00000320: c98f 5740 c4e0 bf3f d2b9 15c0 e15d 54bf
00000330: d6be b040 cbc0 b540 aa29 b440 07b7 b440
00000340: e2bd f7bf 4335 0841 b436 73bf cd59 b140
00000350: 3277 0a41 bf44 c8bf c3c5 d73e 72c7 d840
00000360: 8ace 8bc0 7a0f fdc0 05e4 8dc1 7959 21c1
00000370: ff07 97c0 d999 2c41 43e6 05c0 637c fc3f
00000380: 8e97 ec3f 1685 79bf 188c d83f 8e26 2941
00000390: 1beb 4440 162b ddbf 71eb 4b41 0113 4fc0
000003a0: edea 0abf 2618 cec0 bfbe eac0 f67f 50c0
000003b0: dee7 43c0 8162 92c1 573e c0bf e304 d9be
000003c0: f04e 9340 bce5 2b3e 04fe b740 81a8 05c0
000003d0: 4702 f540 f81c 0b40 56d5 0341 1fd0 17c0
000003e0: 08ab a4c0 fda6 f0c0 b212 1140 11b6 8940
000003f0: 1229 52c0 95aa 2dc0 a435 8a40 3c0a 7840

input_layer.bias f4 [50]
-6.616907 -7.758236 5.5504084 -19.870632 14.819879 6.0816283 -0.3750384 8.256208
-16.144361 7.5772758 10.727657 0.21216488 -0.37151968 -8.157682 3.2268791 9.218571
-16.975056 3.3564098 -12.275168 4.565159 0.71447057 -8.575471 3.6992762 -10.290696
-4.6663294 11.156082 -2.0471046 -0.7438797 0.95033264 -11.453173 14.277611 0.03407227
12.315038 9.502523 -12.464429 2.1393213 16.603123 5.658634 7.028736 12.234122
-15.991622 16.921682 -0.354994 -2.0836084 -2.5933058 -3.9296186 0.9938226 -1.4398003
-3.1332626 7.8596797
00000000: b4bd d3c0 7843 f8c0 f29c b140 0ef7 9ec1
00000010: 391e 6d41 b39c c240 0805 c0be 6e19 0441
00000020: a727 81c1 0b79 f240 7ca4 2b41 c041 593e
00000030: d437 bebe de85 02c1 3085 4e40 447f 1341
00000040: eacc 87c1 6bcf 5640 1767 44c1 c815 9240
00000050: 8be7 363f 2135 09c1 f1c0 6c40 b1a6 24c1
00000060: 9252 95c0 507f 3241 c303 03c0 e66e 3ebf
00000070: 0049 733f 3240 37c1 1871 6441 5d8f 0b3d
00000080: 650a 4541 560a 1841 4d6e 47c1 a4ea 0840
00000090: 32d3 8441 8813 b540 68eb e040 f7be 4341
000000a0: afdd 7fc1 9b5f 8741 c6c1 b5be d759 05c0
000000b0: b9f8 25c0 df7e 7bc0 286b 7e3f 604b b8bf
000000c0: 6087 48c0 7f82 fb40

hidden.0.weight f4 [50, 50]
9.346755 15.134385 -3.7192485 3.9147453 -9.542475 -11.56111 8.1422205 -2.6715598
7.3764744 -10.21734 -0.68745923 -0.819196 -2.720118 1.8613576 3.0528295 4.7281284
10.178288 -2.6283817 -8.578814 -5.9380555 -7.6308384 -1.9688146 -6.834993 12.827063
-6.0694337 -13.115411 -3.4435682 -2.997524 -11.587546 1.4937265 -7.0761614 -3.1985936
-7.929877 -0.46561635 1.1743793 -1.6947132 -0.47622204 -6.0505595 4.747308 1.0844324
0.18013366 -7.5829916 1.6424756 -2.1185396 2.8533592 4.579288 12.917676 7.231613
-5.9776864 5.078779 -13.588397 6.4217277 13.210648 -11.895199 4.5299563 -6.865292
-3.6284773 0.9520109 -11.660249 -1.1320633 -4.774105 7.8894086 -5.631357 0.56331545
-9.747851 -13.002262 -10.428638 -10.361164 -2.4225483 1.6619122 4.258828 9.691756
2.9803128 -5.6722765 6.2538896 -3.7421336 4.043536 1.1891823 -3.6656182 -9.085332
-8.704146 7.969741 -5.3800993 1.7356381 -5.6561837 -11.052163 0.3800837 7.881676
11.075938 -4.790141 0.61222684 2.5972679 -2.4492106 8.883878 -2.6485407 3.9339585
-10.036647 3.1599114 2.6017945 8.223623 -8.611724 -4.053703 -6.5913734 8.051285
3.49078 -14.866005 9.139923 2.2007782 0.54743624 -9.504452 -5.913671 -2.2420962
-3.7964818 3.4424176 -3.3891995 -1.1163207 5.3259516 -10.751122 8.82547 -4.7498007
6.335855 6.9190245 0.90048176 -0.985549 -2.8024268 1.0152425 16.992792 0.5569173
3.8652565 8.95178 -5.895168 6.4169016 1.2132059 -7.5860586 -7.685756 -1.8675035
-15.105431 -2.69781 5.2089343 -16.141321 8.027345 -3.3297582 -5.9504576 3.2164307
5.5402937 1.5542026 -5.8478837 -5.653802 4.9595428 -2.2998009 8.298785 -1.9883747
0.12301213 -3.1382596 -17.65978 4.359538 -4.994356 -9.579086 -4.2093368 -8.155933
-3.5159154 5.159683 -6.378282 -8.606547 -5.48025 -12.115858 -9.159886 5.7821445
-2.6546884 3.2236564 -8.586121 4.821855 5.878962 -0.23910184 13.329536 -9.186862
3.6777928 -5.5625024 -7.442892 -5.384509 -1.6516324 8.840034 -11.091586 2.0277836
6.064266 0.009049057 -5.429728 -8.492182 -4.6781645 -4.929874 -0.7031844 -7.5834765
-0.96390945 14.908587 8.09018 -1.3711467 10.35213 -4.1640277 2.7983754 -0.5161658
6.3914394 -0.91491 2.558557 11.924896 -1.4057494 -2.214374 11.169243 -19.87249
0.55496204 -3.9635775 7.98415 0.27306032 3.0331469 -0.2602028 5.255749 4.091037
-2.5016887 7.636383 2.8634717 6.98935 -9.114447 12.711029 1.1729192 9.6336155
3.926074 0.20673874 -9.070368 -7.6752415 -7.432412 -2.7604365 4.8449974 8.470244
4.6511245 -5.6462092 7.536487 -2.985615 -7.025147 1.841798 -5.087234 -8.551078
-3.1568437 -7.4007177 -0.17007881 17.621695 0.97176784 3.7882376 13.942992 2.1757526
-3.2696626 3.6535275 7.8738766 -28.990984 -2.641072 -5.701466 6.2741375 5.8167367
00000000: 4f8c 1541 7126 7241 2b08 6ec0 308b 7a40
00000010: faad 18c1 4efa 38c1 8946 0241 d6fa 2ac0
00000020: 140c ec40 3a7a 23c1 54fd 2fbf d4b6 51bf
00000030: 6a16 2ec0 f740 ee3f 8f61 4340 d44c 9740
00000040: 45da 2241 6837 28c0 d242 09c1 8d04 bec0
00000050: d42f f4c0 1e02 fcbf 43b8 dac0 a63b 4d41
00000060: cd38 c2c0 b9d8 51c1 6c63 5cc0 6fd7 3fc0
00000070: 9766 39c1 6e32 bf3f ea6f e2c0 c2b5 4cc0
00000080: 8dc1 fdc0 4465 eebe 1052 963f 5dec d8bf
00000090: 60d3 f3be 2f9e c1c0 f2e9 9740 aece 8a3f
000000a0: f574 383e dea7 f2c0 a43c d23f 2796 07c0
000000b0: 709d 3640 8789 9240 cdae 4e41 6069 e740
000000c0: 3549 bfc0 5c85 a240 136a 59c1 cb7e cd40
000000d0: d05e 5341 bc52 3ec1 67f5 9040 79b0 dbc0
000000e0: f938 68c0 fdb6 733f 6190 3ac1 73e7 90bf
000000f0: 78c5 98c0 0976 fc40 1434 b4c0 7135 103f
00000100: 33f7 1bc1 4409 50c1 b4db 26c1 54c7 25c1
00000110: 080b 1bc0 8ab9 d43f 5248 8840 6f11 1b41
00000120: 72bd 3e40 4a83 b5c0 dd1f c840 1e7f 6fc0
00000130: a664 8140 2037 983f 7d99 6ac0 855d 11c1
00000140: 2f44 0bc1 1e08 ff40 c629 acc0 6429 de3f
00000150: 75ff b4c0 a9d5 30c1 559a c23e b136 fc40
00000160: 0b37 3141 d648 99c0 e6ba 1c3f a339 2640
00000170: debf 1cc0 5d24 0e41 b181 29c0 fac5 7b40
00000180: 1b96 20c1 fd3b 4a40 cd83 2640 f693 0341
00000190: 9fc9 09c1 efb7 81c0 88ec d2c0 10d2 0041
000001a0: f168 5f40 28db 6dc1 203d 1241 8dd9 0c40
000001b0: c824 0c3f 3c12 18c1 cb3c bdc0 817e 0fc0
000001c0: 8ff9 72c0 9250 5c40 a5e8 58c0 99e3 8ebf
000001d0: 326e aa40 9904 2cc1 2035 0d41 5efe 97c0
000001e0: 53bf ca40 a668 dd40 f985 663f f04c 7cbf
000001f0: f65a 33c0 77f3 813f 3df1 8741 2292 0e3f
00000200: 5d60 7740 7e3a 0f41 37a5 bcc0 4257 cd40
00000210: 554a 9b3f fec0 f2c0 b7f1 f5c0 5b0a efbf
00000220: d8af 71c1 eba8 2cc0 97af a640 6d21 81c1
00000230: 0170 0041 c21a 55c0 266a bec0 00da 4d40
00000240: 164a b140 1cf0 c63f dd21 bbc0 f2eb b4c0
00000250: 93b4 9e40 f02f 13c0 d3c7 0441 1083 febf
00000260: c9ed fb3d 3fd9 48c0 3b47 8dc1 5681 8b40
00000270: c4d1 9fc0 f043 19c1 e3b2 86c0 b47e 02c1
00000280: c204 61c0 201c a540 e31a ccc0 6bb4 09c1
00000290: 355e afc0 8eda 41c1 e58e 12c1 5407 b940
000002a0: 6ae6 29c0 6350 4e40 c060 09c1 a34c 9a40
000002b0: 7520 bc40 1dd7 74be c845 5541 63fd 12c1
000002c0: f560 6b40 0500 b2c0 2c2c eec0 e64d acc0
000002d0: b168 d3bf c770 0d41 2377 31c1 35c7 0140
000002e0: 780e c240 7f42 143c 55c0 adc0 fadf 07c1
000002f0: 86b3 95c0 87c1 9dc0 e503 34bf d7ab f2c0
00000300: c5c2 76bf 9389 6e41 6171 0141 bc81 afbf
00000310: 53a2 2541 b73f 85c0 9518 3340 7123 04bf
00000320: ac86 cc40 8b37 6abf 66bf 2340 60cc 3e41
00000330: 99ef b3bf 4eb8 0dc0 38b5 3241 dcfa 9ec1
00000340: fe11 0e3f 41ab 7dc0 287e ff40 90ce 8b3e
00000350: 141f 4240 4d39 85be 192f a840 c6e9 8240
00000360: ab1b 20c0 405d f440 1f43 3740 c1a8 df40
00000370: c6d4 11c1 6060 4b41 3722 963f 4a23 1a41
00000380: cc44 7b40 52b3 533e 3a20 11c1 949b f5c0
00000390: 52d6 edc0 feaa 30c0 380a 9b40 1f86 0741
000003a0: 03d6 9440 bfad b4c0 e72a f140 5114 3fc0
000003b0: 01ce e0c0 09c0 eb3f 9fca a2c0 37d1 08c1
000003c0: ba09 4ac0 aed2 ecc0 2429 2ebe 3bf9 8c41
000003d0: c7c5 783f 7c72 7240 7f16 5f41 883f 0b40
000003e0: 2742 51c0 65d3 6940 ccf6 fb40 89ed e7c1
000003f0: 5307 29c0 6972 b6c0 bcc5 c840 b522 ba40

hidden.0.bias f4 [50]
-13.443745 -2.2957487 -18.629963 -9.674292 -14.817418 11.103403 2.813694 -0.3144671
0.6520521 -4.978041 16.331308 2.5070117 -2.439965 3.2551777 -4.103462 15.277482
1.3394918 9.685047 -2.3468904 -6.1642604 -0.046512708 -7.268299 0.84462446 12.476807
11.034075 -23.013445 9.628045 7.219155 0.5001097 -16.36101 13.329248 7.3786144
10.615016 -14.610246 -2.159237 -23.424974 -2.8177335 14.951137 21.580568 1.970193
6.7572494 -1.0244821 7.290331 5.387385 -24.21001 26.818933 11.640863 4.0428343
-9.249466 7.1263647
00000000: 9419 57c1 8ced 12c0 2a0a 95c1 e6c9 1ac1
00000010: 2514 6dc1 8aa7 3141 9013 3440 d501 a1be
00000020: e3ec 263f 1d4c 9fc0 85a6 8241 e172 2040
00000030: 6328 1cc0 d554 5040 904f 83c0 9170 7441
00000040: 7874 ab3f f4f5 1a41 7433 16c0 9f41 c5c0
00000050: 1c84 3ebd e895 e8c0 4f39 583f 00a1 4741
00000060: 928b 3041 891b b8c1 790c 1a41 5103 e740
00000070: 3007 003f 59e3 82c1 9a44 5541 9c1d ec40
00000080: 1bd7 2941 91c3 69c1 f030 0ac0 5966 bbc1
00000090: bf55 34c0 db37 6f41 01a5 ac41 492f fc3f
000000a0: 633b d840 3b22 83bf 644a e940 7565 ac40
000000b0: 1aae c1c1 2d8d d641 fa40 3a41 e65e 8140
000000c0: d0fd 13c1 2e0b e440

hidden.1.weight f4 [50, 50]
16.183506 -29.172285 -17.066767 0.47065014 -0.0784507 -2.833413 1.8164595 -2.9012496
5.983311 -13.39066 -12.045074 -1.5134645 12.116348 1.1472641 0.7946315 -5.3576713
11.560135 -14.969139 25.065271 -12.482362 16.756817 19.879728 23.24059 15.956603
-1.4508563 -4.584454 -8.418124 15.799638 -15.706228 0.8300994 19.131702 6.362981
-3.081694 10.779411 -11.783998 -3.3330395 -1.1839628 5.661157 -8.299535 7.635427
1.6476034 -11.074731 -5.5484734 5.0909066 0.17773165 9.494248 -0.7595226 8.557767
29.73134 23.993435 1.1816089 -0.62901974 6.288915 -8.855813 -2.479852 -2.2763696
4.513127 3.3140965 -0.8967447 -3.7924325 6.1562047 4.180365 -2.0212648 -2.3963337
2.057909 6.508613 5.3344955 1.1041483 -1.5865184 4.2986393 -5.5884557 0.93367916
1.0104767 -2.1118262 -1.9637821 -6.4501305 -96.3944 -0.4421215 0.50067276 5.437664
1.5833977 -2.6890826 1.065248 -0.5685391 3.5070128 1.5783745 4.821503 -1.1237861
-2.9339383 -3.9376223 -10.802894 -6.325328 -2.0153227 -4.346466 4.135346 -5.577083
3.274328 8.328278 6.254462 -0.9480587 -0.49425316 3.6616042 5.164661 -8.970181
11.439675 9.902224 4.136653 -5.9800673 -5.102803 -2.619518 11.968324 5.539035
-9.442246 11.461634 -0.7677977 -67.88005 -3.6658342 5.8249536 0.64536095 5.5191355
9.514518 -6.560255 8.542775 -2.7236397 9.973963 -2.1553893 0.80893975 -13.95917
-3.7460566 -15.753112 -7.972438 -4.0923915 -9.801044 -3.3671315 3.5673304 3.9655252
0.6286398 -13.028712 -7.14364 1.0023777 13.289834 6.6413507 2.0655792 2.7769046
7.803509 -3.8062634 -4.6455045 -7.223907 -6.814469 -0.52740633 -0.49991786 -12.335044
-3.988127 -10.589591 2.6490393 -1.923626 -0.0794335 1.5811082 -3.1707063 4.1592665
2.8073556 -11.890238 -3.216971 7.2493086 -5.023649 21.426342 -1.6038669 -9.629082
0.32260522 -4.4329047 13.617257 0.008346824 0.9080455 15.530212 16.535824 -12.079377
-0.42796922 12.26363 -3.445759 5.941956 3.1896288 4.6999526 10.175549 -12.800957
-9.514088 -32.443253 3.6718554 9.902992 6.041088 -7.958624 15.143776 -6.325282
1.4036324 17.269827 -10.63092 1.8099238 6.7283106 2.3127563 -3.9789672 0.9933508
11.955751 -44.45167 -11.028759 -23.770447 -5.4185486 -7.504017 -30.216105 -13.355129
0.7303006 2.7158375 9.865821 -1.8790282 -4.665767 23.363316 33.652256 4.937061
-23.085293 -0.3934893 0.74362785 -2.0387535 23.197615 -5.8516912 -1.866331 0.7180995
-1.4558804 -7.9497375 -4.6501093 15.523474 3.0940921 -26.026375 -17.227795 8.772575
-10.301639 -20.372297 -24.35185 4.023295 13.83225 -16.836475 21.318253 0.3882051
-3.4737303 -9.956794 4.9975295 -17.299812 5.3982773 -5.7600756 -29.088638 -18.548815
8.338536 2.591172 -1.0105597 4.614608 5.2038426 -0.123015754 4.298724 0.9796739
00000000: d277 8141 d760 e9c1 bd88 88c1 0ef9 f03e
00000010: c3aa a0bd a356 35c0 bf81 e83f 13ae 39c0
00000020: 4977 bf40 2540 56c1 a0b8 40c1 34b9 c1bf
00000030: 90dc 4141 8dd9 923f f86c 4b3f 0b72 abc0
00000040: 50f6 3841 9881 6fc1 ad85 c841 c1b7 47c1
00000050: f60d 8641 af09 9f41 baec b941 3f4e 7f41
00000060: a9b5 b9bf d9b3 92c0 a3b0 06c1 51cb 7c41
00000070: b64c 7bc1 6581 543f ba0d 9941 8a9d cb40
00000080: 793a 45c0 7878 2c41 418b 3cc1 8550 55c0
00000090: 188c 97bf 3328 b540 e5ca 04c1 6b55 f440
000000a0: abe4 d23f 1932 31c1 188d b1c0 b5e8 a240
000000b0: 49ff 353e 71e8 1741 1370 42bf 9dec 0841
000000c0: c9d9 ed41 8ef2 bf41 f63e 973f 7007 21bf
000000d0: cb3e c940 69b1 0dc1 e5b5 1ec0 0ab0 11c0
000000e0: 896b 9040 281a 5440 1091 65bf 37b7 72c0
000000f0: a1ff c440 8dc5 8540 675c 01c0 885d 19c0
00000100: c8b4 0340 8f46 d040 30b4 aa40 bb54 8d3f
00000110: 0913 cbbf 748e 8940 a1d4 b2c0 9905 6f3f
00000120: 4d57 813f 2928 07c0 365d fbbf 7867 cec0
00000130: efc9 c0c2 c05d e2be 172c 003f 5801 ae40
00000140: c7ac ca3f ee19 2cc0 0c5a 883f c78b 11bf
00000150: e672 6040 2d08 ca3f c149 9a40 39d8 8fbf
00000160: a5c5 3bc0 0102 7cc0 a7d8 2cc1 1669 cac0
00000170: 0cfb 00c0 4016 8bc0 c154 8440 7777 b2c0
00000180: 978e 5140 a040 0541 8d24 c840 fab3 72bf
00000190: c00e fdbe b957 6a40 e744 a540 dd85 0fc1
000001a0: e908 3741 826f 1e41 765f 8440 b65c bfc0
000001b0: 2a4a a3c0 2fa6 27c0 417e 3f41 c63f b140
000001c0: 7113 17c1 da62 3741 648e 44bf 96c2 87c2
000001d0: 079d 6ac0 0566 ba40 6036 253f c29c b040
000001e0: 773b 1841 9ced d1c0 35af 0841 1d50 2ec0
000001f0: 5a95 1f41 e6f1 09c0 ad16 4f3f c358 5fc1
00000200: 64bf 6fc0 bf0c 7cc1 361e ffc0 dff4 82c0
00000210: 14d1 1cc1 157f 57c0 244f 6440 2acb 7d40
00000220: 8aee 203f 9b75 50c1 b398 e4c0 ea4d 803f
00000230: 29a3 5441 f285 d440 7332 0440 ceb8 3140
00000240: 59b6 f940 d299 73c0 f9a7 94c0 3f2a e7c0
00000250: 2110 dac0 1a04 07bf 3cf5 ffbe 575c 45c1
00000260: 793d 7fc0 f76e 29c1 dc89 2940 6039 f6bf
00000270: 08ae a2bd c161 ca3f daec 4ac0 b618 8540
00000280: b7ab 3340 6a3e 3ec1 dae2 4dc0 56fa e740
00000290: bcc1 a0c0 2669 ab41 834b cdbf b810 1ac1
000002a0: 832c a53e 5bda 8dc0 49e0 5941 1ec1 083c
000002b0: ab75 683f c07b 7841 5e49 8441 2145 41c1
000002c0: c81e dbbe d437 4441 5187 5cc0 8124 be40
000002d0: e122 4c40 0366 9640 0ccf 2241 b8d0 4cc1
000002e0: b439 18c1 e4c5 01c2 aeff 6a40 a872 1e41
000002f0: 9850 c140 0cad fec0 e84c 7241 b668 cac0
00000300: 3aaa b33f 9b28 8a41 4018 2ac1 95ab e73f
00000310: 524e d740 3304 1440 66a7 7ec0 3d4c 7e3f
00000320: c24a 3f41 83ce 31c2 cc75 30c1 e029 bec1
00000330: c064 adc0 e820 f0c0 95ba f1c1 9cae 55c1
00000340: fbf4 3a3f 48d0 2d40 67da 1d41 ff83 f0bf
00000350: f74d 95c0 12e8 ba41 e99b 0642 67fc 9d40
00000360: aeae b8c1 6e77 c9be 655e 3e3f f07a 02c0
00000370: b794 b941 0e41 bbc0 efe3 eebf 5ed5 373f
00000380: 4a5a babf 4064 fec0 b2cd 94c0 2660 7841
00000390: 9b05 4640 0436 d0c1 86d2 89c1 785c 0c41
000003a0: 83d3 24c1 77fa a2c1 97d0 c2c1 d5be 8040
000003b0: e550 5d41 1ab1 86c1 c88b aa41 d2c2 c63e
000003c0: 9951 5ec0 074f 1fc1 c3eb 9f40 0466 8ac1
000003d0: b0be ac40 8a52 b8c0 88b5 e8c1 f963 94c1
000003e0: a56a 0541 c3d5 2540 055a 81bf deaa 9340
000003f0: e185 a640 afef fbbd 268f 8940 e9cb 7a3f

hidden.1.bias f4 [50]
12.479224 0.9782027 -42.966347 82.02251 12.270903 -54.765152 45.53889 64.77666
-8.234101 -64.81815 -62.686825 -44.398655 47.316532 9.492946 73.26045 51.749256
-21.49337 -30.119923 -1.5414388 49.302895 -1.3290703 22.027386 1.9413233 37.72531
-21.844015 -7.683902 -69.80189 -42.83724 -36.274105 5.5314465 -14.852946 -38.423096
1.307925 -70.641235 -53.277523 18.340895 66.62757 -74.748924 18.859058 -0.47134477
93.00806 11.835206 -12.177554 55.388573 -55.130768 -4.4426064 -56.940876 -2.1604552
11.361709 61.62343
00000000: e7aa 4741 7e6b 7a3f 8add 2bc2 860b a442
00000010: 9e55 4441 840f 5bc2 d327 3642 a68d 8142
00000020: e1be 03c1 e5a2 81c2 4fbf 7ac2 3998 31c2
00000030: 2144 3d42 1be3 1741 5a85 9242 3dff 4e42
00000040: 6cf2 abc1 9af5 f0c1 de4d c5bf 2a36 4542
00000050: fa1e aabf 1638 b041 487d f83f b8e6 1642
00000060: 8bc0 aec1 86e2 f5c0 919a 8bc2 5559 2bc2
00000070: af18 11c2 9c01 b140 aba5 6dc1 40b1 19c2
00000080: 166a a73f 5048 8dc2 2f1c 55c2 27ba 9241
00000090: 5141 8542 737f 95c2 5adf 9641 1a54 f1be
000000a0: 2004 ba42 015d 3d41 43d7 42c1 e68d 5d42
000000b0: e885 5cc2 d529 8ec0 75c3 63c2 e644 0ac0
000000c0: 8fc9 3541 647e 7642

output_layer.weight f4 [49, 50]
-0.98265266 -2.011812 -2.2167437 1.3267372 1.7940451 -1.9316607 2.228168 1.5818558
-3.3774998 -1.7139664 -1.1804792 -2.252788 1.5489199 3.7250636 1.093305 2.3286352
-0.07028513 0.51874727 -0.5338234 2.4424696 -1.1435076 0.43974188 0.868621 1.8868991
0.108961284 -1.2263229 -1.4833864 0.6332335 2.755178 0.9936517 -1.635136 0.19958505
1.3453678 3.511106 -2.0084426 2.205528 2.2212083 -1.9877979 1.4310483 0.28100172
-3.248193 1.0781115 0.97224075 2.0372689 -2.450996 -2.4514346 2.8746617 -0.9195925
-1.317112 2.0767236 -1.0532557 -1.7384561 -2.1209817 1.7279181 1.8271693 -1.5415826
2.0329893 2.142086 -3.2160008 -1.7107083 -2.663398 -2.2909005 1.1488551 3.893643
-0.10533671 2.3608735 -0.09930373 0.6201616 -0.46649975 2.3642156 -1.0665717 0.20421472
1.3536922 1.7625738 -0.093158774 -0.79997015 -2.368269 0.61340517 2.6891694 0.9288989
-2.3194563 0.24296492 1.4765486 3.574843 -1.9175835 2.111863 2.155826 -1.980972
1.460943 0.2120304 -3.2151625 1.0110227 1.1029339 2.0451343 -2.127399 -2.4861283
2.8470445 -0.40772718 -1.0622228 2.0850534 -0.026796622 -1.1040167 -2.2328334 1.3003114
1.6593791 -1.5867944 2.0021794 1.9156672 -3.3698246 -1.6225315 -2.4886189 -2.2595482
0.9701139 3.6366768 1.8022087 2.3514683 -0.1257502 0.5513264 -0.42084536 2.277162
-0.860941 0.71196455 1.1604236 1.968672 0.4457085 -2.0925534 -2.3080401 0.65237826
2.6806128 0.9688136 -1.508153 0.28400245 1.4938464 3.469866 -1.4312046 2.2040415
2.1431522 -1.9750228 1.4483306 0.2379787 -3.3651125 1.0534068 0.73395556 1.998543
-1.7608529 -2.377288 2.7976742 -0.6095494 -2.5546246 2.034619 -0.8989041 -2.234065
-2.3467007 1.5904355 1.9461757 -1.4249847 2.296216 1.2339329 -2.6733632 -1.8455652
-2.1304545 -2.1832864 1.2444758 4.3351645 1.45878 2.2004318 0.04438498 0.5984699
-0.53082156 2.4143333 -1.8307633 -1.585997 1.186552 1.8797666 -1.832186 -1.1506759
-2.1059952 0.6680997 2.7367978 0.72727144 -1.516641 0.24115078 0.74651843 3.5269938
-1.4723582 2.2402668 2.3887117 -1.8471849 1.5089176 0.4127064 -3.217435 1.0133718
1.2323012 2.0183256 -1.4947293 -2.4088192 2.7671232 -0.5683756 -1.1952354 1.9917502
-0.9721985 -2.0719798 -2.1261146 0.63077354 1.7643248 -1.383613 2.726193 2.5042193
-4.8272853 -1.644257 -2.4696183 -2.1046453 1.2819846 2.2062707 1.6460091 2.254
-0.032695614 0.4952985 -0.49323216 2.4469151 -1.1529427 -0.7803147 0.059467304 1.8308992
-1.0039679 -1.1112249 -1.8533057 0.7119098 2.6419287 0.87026805 -1.6605957 0.24470283
1.4251813 3.5644994 -1.2726562 2.2431674 2.7413235 -1.8404925 1.5765867 0.28424165
-3.2816887 1.0945147 1.3584523 2.0296423 -1.707798 -2.5250363 2.8992712 -1.7125077
-0.91128355 2.035445 -0.7241005 -1.0903022 -2.060759 1.4141669 1.7915834 -1.8362802
00000000: 208f 7bbf 87c1 00c0 21df 0dc0 86d2 a93f
00000010: 45a3 e53f a840 f7bf 4e9a 0e40 407a ca3f
00000020: f528 58c0 4063 dbbf f119 97bf ae2d 10c0
00000030: 0243 c63f 7167 6e40 6bf1 8b3f 5c08 1540
00000040: a6f1 8fbd 9fcc 043f a6a8 08bf 6c51 1c40
00000050: 755e 92bf d925 e13e f25d 5e3f e985 f13f
00000060: 1827 df3d 26f8 9cbf 9bdf bdbf 971b 223f
00000070: d654 3040 f55f 7e3f 234c d1bf 0660 4c3e
00000080: 0335 ac3f f6b5 6040 538a 00c0 5f27 0d40
00000090: 4728 0e40 2970 febf 972c b73f 75df 8f3e
000000a0: 65e2 4fc0 8fff 893f c5e4 783f 9d62 0240
000000b0: 1edd 1cc0 4ee4 1cc0 75fa 3740 6a6a 6bbf
000000c0: 2097 a8bf 0ae9 0440 15d1 86bf bb85 debf
000000d0: 2abe 07c0 6c2c dd3f afe0 e93f 9452 c5bf
000000e0: 7f1c 0240 f017 0940 f5d2 4dc0 7df8 dabf
000000f0: 1d75 2ac0 1d9e 12c0 af0d 933f 7231 7940
00000100: c6ba d7bd 8d18 1740 c15f cbbd e9c2 1e3f
00000110: 0ed9 eebe 4f4f 1740 6c85 88bf aa1d 513e
00000120: c945 ad3f 059c e13f 07ca bebd d8ca 4cbf
00000130: b891 17c0 1f08 1d3f 5a1b 2c40 51cc 6d3f
00000140: f971 14c0 cccb 783e 8bff bc3f 3aca 6440
00000150: 6073 f5bf c328 0740 0ef9 0940 7e90 fdbf
00000160: 2e00 bb3f 7f1e 593e 39c5 4dc0 3169 813f
00000170: f02c 8d3f 7be3 0240 4e27 08c0 ba1c 1fc0
00000180: fa35 3640 9ec1 d0be ebf6 87bf 8471 0540
00000190: 9784 dbbc 6b50 8dbf bee6 0ec0 9b70 a63f
000001a0: 8966 d43f 141c cbbf b523 0040 9534 f53f
000001b0: 35ab 57c0 1daf cfbf 8845 1fc0 709c 10c0
000001c0: 6259 783f 50bf 6840 c6ae e63f 757e 1640
000001d0: a9c4 00be ba23 0d3f 0b79 d7be 06bd 1140
000001e0: a166 5cbf 4f43 363f c388 943f 72fd fb3f
000001f0: e833 e43e 65ec 05c0 eeb6 13c0 4302 273f
00000200: 298f 2b40 2b04 783f 280b c1bf c568 913e
00000210: 5c36 bf3f 4912 5e40 b631 b7bf 040f 0d40
00000220: 6829 0940 8ccd fcbf e662 b93f b0b0 733e
00000230: 015e 57c0 09d6 863f 83e4 3b3f 42d0 ff3f
00000240: a163 e1bf 7d25 18c0 180d 3340 6e0b 1cbf
00000250: f87e 23c0 3337 0240 941e 66bf ecfa 0ec0
00000260: 5830 16c0 6493 cb3f 491c f93f e665 b6bf
00000270: 34f5 1240 83f1 9d3f 6218 2bc0 7b3b ecbf
00000280: 5e59 08c0 f7ba 0bc0 fc4a 9f3f abb9 8a40
00000290: 4eb9 ba3f e0d3 0c40 06cd 353d 5335 193f
000002a0: ece3 07bf 7084 1a40 7456 eabf f301 cbbf
000002b0: f0e0 973f 319c f03f 1285 eabf 5949 93bf
000002c0: a0c8 06c0 9508 2b3f b227 2f40 762e 3a3f
000002d0: 4b21 c2bf 3bf0 763e d51b 3f3f 44ba 6140
000002e0: 3c76 bcbf 8860 0f40 a7e0 1840 8e70 ecbf
000002f0: 3624 c13f 414e d33e 74ea 4dc0 2bb6 813f
00000300: 0cbc 9d3f 3f2c 0140 4a53 bfbf 182a 1ac0
00000310: 8c18 3140 1081 11bf 79fd 98bf acf1 fe3f
00000320: 00e2 78bf 519b 04c0 4312 08c0 607a 213f
00000330: 65d5 e13f 3b1a b1bf f279 2e40 2145 2040
00000340: 1f79 9ac0 0377 d2bf 3a0e 1ec0 82b2 06c0
00000350: 1218 a43f 8a33 0d40 6db0 d23f 8941 1040
00000360: d6eb 05bd c497 fd3e ed88 fcbe 429a 1c40
00000370: a093 93bf b4c2 47bf fd93 733d e85a ea3f
00000380: 0582 80bf 9e3c 8ebf 1f39 edbf b83f 363f
00000390: 5c15 2940 e3c9 5e3f 668e d4bf 6193 7a3e
000003a0: 576c b63f c220 6440 66e6 a2bf 0e90 0f40
000003b0: d871 2f40 4295 ebbf 98cd c93f 1f88 913e
000003c0: 3007 52c0 0f19 8c3f c4e1 ad3f a9e5 0140
000003d0: 2099 dabf 329a 21c0 a98d 3940 7433 dbbf
000003e0: e149 69bf bb44 0240 a65e 39bf 068f 8bbf
000003f0: 7ae3 03c0 6c03 b53f 9b52 e53f 3b0b ebbf

output_layer.bias f4 [49]
2.4747093 2.2645295 2.2024932 3.098173 1.8664889 0.7709446 2.0765817 2.3897412
0.9144737 1.9198918 0.8317531 2.0421731 1.6592005 1.5363863 2.4048576 1.1263453
1.6189222 2.0727744 1.545775 0.3420729 0.9296619 2.727174 2.252859 1.7103479
1.154166 1.4383199 0.63262385 2.1816807 0.59972274 0.1261854 0.63460916 1.668118
1.6988175 1.0961703 2.9297507 1.23746 1.5913037 -0.438194 2.1607368 2.0137348
2.1142416 2.7167733 1.0225534 5.2077885 3.6168137 3.5817742 2.1487274 2.7244625
3.2433724
00000000: a361 1e40 0dee 1040 a6f5 0c40 7748 4640
00000010: 1ce9 ee3f a05c 453f b7e6 0440 85f1 1840
00000020: f31a 6a3f 04bf f53f c5ed 543f f7b2 0240
00000030: af60 d43f 4ea8 c43f 30e9 1940 152c 903f
00000040: d838 cf3f 56a8 0440 f5db c53f 2e24 af3e
00000050: 53fe 6d3f 058a 2e40 d82e 1040 aeec da3f
00000060: b6bb 933f de1a b83f a3f3 213f a8a0 0b40
00000070: 6e87 193f bf36 013e bf75 223f e484 d53f
00000080: da72 d93f 4f4f 8c3f 0981 3b40 1765 9e3f
00000090: d7af cb3f f75a e0be 8349 0a40 08e1 0040
000000a0: bc4f 0740 9ddf 2d40 08e3 823f 34a6 a640
000000b0: e079 6740 ca3b 6540 c084 0940 985d 2e40
000000c0: 6a93 4f40
