models/2600episodes/250episodes.pth (torch, 43824 bytes, 8 tensors)

input_layer.weight f4 [50, 50]
00000000: 2146 6c40 2013 b83f 5f03 4bc0 18db 243f
00000010: 5bd9 1840 577d ae3f 431d 91be 7bbe 063f
00000020: ad1d 0640 e023 a73e 2fd9 27c0 f4e4 0040
00000030: 508f 4c3e 2def 7a3f e543 d53d 4e45 95bf
00000040: ca6c bcbe b142 00c0 bb51 32c0 f26a 10c0
00000050: 09db 01c0 19f6 7e3d f709 80bf a1ec 4c3f
00000060: 73d8 63c0 6f85 593e bfe7 1040 3673 94bf
00000070: a1b1 d8bf dec5 223f fc17 4d3f 4541 bbbf
00000080: a9d5 dbbf 18bc e93f f8d4 0dbf ce62 a1bf
00000090: f08d f6bf 336b c83f 0060 43bf 1989 20c0
000000a0: dd29 0abd dd62 5f3f 3670 a43e c5d4 53c0
000000b0: 096c 933f 6384 2ebf 8bd9 36c0 4441 453f
000000c0: 7970 81c0 0dbe 8bbf a57c f53e a38d f13f
000000d0: d773 93c0 3df2 e73f 5f9d 58bf 381b 66c0
000000e0: 989e 1d3e f515 e13f 108a a13e a96a e3bf
000000f0: 52a3 9fbe 4ae7 693e 22d4 2dbc b525 5bc0
00000100: 63ad 07c0 aeee 143e 7f93 643e ac6f fc3f
00000110: 2df8 2540 07b6 a7bf 97b1 f83f 03a6 5e3f
00000120: 40d0 5a3f 157b 133f edf9 bb3f 794f 3a40
00000130: 1900 8bbf 06cb fabf b715 6cbf cc5f ea3f
00000140: c79d 69bf 06fb 65bd 2f6e e5bf 6c18 44c0
00000150: 4986 123f dccc c23f 3298 93bf a9bc 2140
00000160: 1516 0c3f f171 cc3e 4c43 17c0 7e7e 0f40
00000170: be7d 2ac0 9ae4 b8bd 81a8 dbbf 8313 8340
00000180: 1f5c eabf bb8c ed3e ca3e 15c0 7d79 0dbe
00000190: 8864 d23f 1e5d eabf 4631 1e40 3f5a db3f
000001a0: 0298 af3f 470e a03f 9e9b 813f 885f 0fc0
000001b0: e5a6 a23f 4313 6d40 6e8b 0fbf e7bc 1a40
000001c0: 687f ea3f 5048 2bbf 0a61 ccbe 9666 5b3f
000001d0: 1062 a1bf 4fd6 0740 9dc7 6e3f 81a2 b03f
000001e0: 7c01 d83f 16e7 f73f 26c5 d43e 6605 0ec0
000001f0: 270b 7ac0 1e3f 77c0 9f05 52c0 ef01 b6bf
00000200: 167b 4940 1af0 623f 79bc 033e 1e8f 4abe
00000210: be36 82bf 0632 ee3f dc62 9ebf 67d6 1d3f
00000220: 597b 1c3f 27da 193f b553 093f 3ec6 923e
00000230: 5d1c 843f 38f3 123f f4d7 233f 05f1 653e
00000240: dbb9 f9bf f66b 6640 8803 223f ae95 04c0
00000250: f600 fb3e 6a7c 923f 9363 4abf a11d c5bf
00000260: eb35 f33f e166 c43f aeb6 71be c5c7 0140
00000270: 6727 6ebf efbc 8a3e 7ecf acbf 61d9 933e
00000280: d10c dcbd 962a 623e 64b3 afbf 903f ebbf
00000290: 9f70 63bf 6539 9d3f 12ef 71bf aca0 0440
000002a0: e9c5 a43e 4c5b 2f40 73a9 043f fd10 71be
000002b0: 76fb 89bf c2c8 8a3d 29cd 583f fa39 24c0
000002c0: 99a6 8040 4665 d5bb ff12 453e 7791 a1bf
000002d0: 6a6e 84be 648d 2bbf fe46 75be 4c47 5dbf
000002e0: 4ebe 0e3f e153 1640 08ad 1bbf 7d6e 383e
000002f0: 5b51 85bf de49 0d40 6fbe 43bd f74d 2d40
00000300: b082 de3f cd83 1c40 c74c a4bf 5422 da3f
00000310: c975 8a3f 0352 aa40 3a30 7340 c415 923f
00000320: a74e ae3e 6900 29bf bf5a de3f 019e 1840
00000330: 3062 9fbe 5b53 a53f 962a c43f e6e1 9940
00000340: be70 36be 53e2 1540 c4e5 973f 5307 33c0
00000350: fa18 643f 735d 91bd 76d1 9e3f f47e 0b40
00000360: a7ef a43f ec4e 433f 6df3 07c0 32a4 9c3e
00000370: adef 60c0 c9b3 9440 a352 293f 1f85 e33f
00000380: bab0 323d 4ee0 73bc 0564 ae3f 6882 9440
00000390: 5766 8e3f 641c 9b3f d48c ef3e c9c1 1dbf
000003a0: 5d57 9b3e e931 4ac0 8c7f cbbf 9876 95bf
000003b0: 12d4 213f 1c3a 1fc0 9c88 a0bf 8863 943f
000003c0: dedb 11be 31a7 3ec0 312d e8bf 1c96 88be
000003d0: 6bd3 8040 eed8 aa3e 98ed f63f 7f78 223f
000003e0: 4dc8 f0be 0a78 7bbf 0230 0ebd 9299 2c3f
000003f0: 85e5 85c0 1f2e 0bc0 4ce6 3140 c351 89bf
3.6917803 1.4380836 -3.1720808 0.6439681 2.3882663 1.3632001 -0.28342637 0.526344
2.0955613 0.32644558 -2.6226308 2.0139742 0.19976544 0.98021203 0.104133405 -1.1661775
-0.3680175 -2.0040705 -2.7862384 -2.2565274 -2.0289938 0.062246416 -1.0003041 0.8004857
-3.560086 0.21242307 2.2641447 -1.159766 -1.6929208 0.6358317 0.8011472 -1.4629294
-1.7174579 1.8260527 -0.5540309 -1.2608278 -1.9262066 1.5657715 -0.7631836 -2.5083678
-0.03373133 0.8726023 0.3211686 -3.3098614 1.1517345 -0.68170756 -2.8570278 0.7705271
-4.0449796 -1.0917374 0.4794666 1.8871349 -4.6078906 1.81208 -0.8461513 -3.5954113
0.1539253 1.7584826 0.31550646 -1.7766925 -0.3117929 0.22842136 -0.010609658 -3.4241765
-2.1199577 0.14544174 0.2232189 1.972158 2.5932724 -1.3102425 1.9429196 0.86972064
0.85474014 0.57609683 1.4685646 2.9111006 -1.0859405 -1.9593208 -0.92220634 1.8310485
-0.91256374 -0.056147598 -1.792425 -3.0639906 0.5723615 1.5218768 -1.1530821 2.52714
0.54721195 0.3993068 -2.3634825 2.2420955 -2.6639247 -0.09027977 -1.7160798 4.096132
-1.8309363 0.4639643 -2.3319573 -0.13815875 1.643693 -1.8309667 2.4717574 1.7136916
1.3718264 1.2504357 1.0125616 -2.2402058 1.2707182 3.7043006 -0.5607213 2.4177797
1.8320131 -0.66907215 -0.39917785 0.8570341 -1.2608051 2.1224554 0.93273336 1.3799592
1.6875453 1.9367397 0.41556662 -2.2190795 -3.9069307 -3.8632274 -3.281593 -1.421934
3.1481376 0.88647616 0.12864865 -0.19781157 -1.0172956 1.8609016 -1.237392 0.61655277
0.61125714 0.600985 0.5364335 0.28666872 1.0321156 0.5740237 0.64001393 0.22455223
-1.9509844 3.6003394 0.6328664 -2.0716357 0.4902417 1.1444218 -0.7905819 -1.5399667
1.900083 1.5343896 -0.23604843 2.027818 -0.93028873 0.2709727 -1.3500822 0.28876784
-0.10744632 0.22086558 -1.3726621 -1.8378773 -0.8884372 1.228314 -0.9450542 2.0723066
0.32182243 2.7399473 0.5182106 -0.23541637 -1.0779865 0.06776573 0.8468805 -2.5660386
4.0203366 -0.006512317 0.19245528 -1.2622517 -0.2586549 -0.6701262 -0.23952863 -0.86436915
0.5575913 2.3488696 -0.608109 0.18010898 -1.0415453 2.2076335 -0.047789034 2.7078836
1.7383633 2.4455445 -1.283593 1.7041726 1.0817195 5.322511 3.7998185 1.1412892
0.34044382 -0.6601625 1.7371444 2.3846438 -0.311296 1.2916063 1.5325496 4.8088255
-0.17816445 2.3419387 1.1866994 -2.797322 0.8910061 -0.07097902 1.2407672 2.1796236
1.2885636 0.762923 -2.1242325 0.3059402 -3.5146286 4.6469464 0.6614172 1.7775
0.04362557 -0.014885021 1.3624274 4.6409187 1.1124982 1.2118039 0.4678713 -0.6162382
0.3034009 -3.1592963 -1.5898299 -1.1676817 0.6321422 -2.4879217 -1.254169 1.1592875
-0.14244029 -2.9789546 -1.8138791 -0.26677024 4.025808 0.3336863 1.9291258 0.6346511
-0.47027817 -0.9823004 -0.034713753 0.6742183 -4.1842675 -2.17469 2.7796812 -1.0728077

input_layer.bias f4 [50]
00000000: 8ba3 443f e21c e3bf ecfc e5be 776a 92be
00000010: 4aeb 103e 41cd 9a3f 6756 103d 5b73 ec3e
00000020: 265a 443e a795 f33e 9708 b53f 6e6e 76bf
00000030: d9ad 783c c477 13be 2fe8 d33f f1d0 923f
00000040: c676 c8bd d532 87bf eef5 1dbb 2813 543f
00000050: ca4c 33bf 9342 a1bf 861b ae3f 902b 63bf
00000060: be12 0cbf ee7b 0c3f b45a b9bf 261a 31bf
00000070: 3151 bb3f 6395 a3bf b4b4 8b3f 5370 69bf
00000080: c136 81bd ccb5 7a3e 7c05 92be a8a6 db3e
00000090: 3c50 1240 0b91 21bf a135 9b3f c31c f43f
000000a0: 5b1e d0be 4659 cf3f ce5f 54bd 4061 24bf
000000b0: e55d 0abf 20e5 30be 3208 7fbe 50f5 28bf
000000c0: cb60 d33e 0364 9c3e
0.76812047 -1.7743189 -0.44919527 -0.2859685 0.14152256 1.2093889 0.03523865 0.4618176
0.19175014 0.47575113 1.4143246 -0.9626225 0.015178167 -0.14401156 1.6555232 1.1470014
-0.09788279 -1.0562388 -0.0024102884 0.8284173 -0.70039046 -1.2598442 1.360215 -0.88738346
-0.547161 0.548766 -1.4480805 -0.69180524 1.4634153 -1.2779964 1.0914521 -0.9118702
-0.063092716 0.24483413 -0.2851981 0.42900586 2.286147 -0.63111943 1.2125741 1.9071277
-0.4064816 1.6199119 -0.05184918 -0.6421089 -0.5404952 -0.17274904 -0.2490547 -0.6599932
0.41284785 0.30545053

hidden.0.weight f4 [50, 50]
00000000: 0a49 0140 0df5 3d40 7eed 6abe 4c3a 98bf
00000010: 4d50 f0bf c501 fbbe 44a3 44bf 59ba 2bc0
00000020: 713f 2640 ddcc 5b3e 38c0 3fbf baf2 14bf
00000030: 81d7 5e3f 94a7 1240 ff9f 1a40 e4db 2240
00000040: e8d5 0040 364c 0f40 02bf 71c0 b5f0 3a40
00000050: 0373 17c0 4f83 82bf 738f 31c0 4cc7 3740
00000060: 7cb0 d03f bd90 05bd 4c3c e63c 36e9 14c0
00000070: 3561 38be f897 613e 3f99 57bf 938a 19bf
00000080: 31eb 8fc0 2203 863e a3ee 1e3e 9fc5 1e40
00000090: 28da 85bf 9a19 303f 2628 adbf ab8a ce3f
000000a0: 96a9 9cbf e1e1 13bf da35 25c0 58ad 5c3f
000000b0: 35c2 983f 99a6 06c0 cc14 5740 7559 ddbf
000000c0: 9f7f e0bf 5ed9 aebf 44a6 0d3f d84b da3f
000000d0: 59d7 0740 764a 223f 886a 3bbf 0b87 48c0
000000e0: 2dba 8b3f 9734 06c0 a6fc edbf 953a afbe
000000f0: 0a8b 0a3f 2824 bbbf 0f59 df3d f47b 64bf
00000100: fd83 92be c8a0 373f 6220 0bbf f0ce 51bf
00000110: 0abc 11bf 85c5 fdbf 3ac0 803d 0a4c 353f
00000120: 6bd7 a6bf f26e 04c0 a901 ee3f 6341 3abe
00000130: 4d69 38be 4209 de3e 6343 1240 8e22 debf
00000140: 27de 15c0 7b70 57bf 8a3f 9d3e a838 a3bf
00000150: adf2 67c0 87ca 00c0 80ee a8be 9db1 c93f
00000160: c3a6 4a40 c988 0c3f 309d 3640 17aa d240
00000170: cd04 e4bf 440f 673f abcd b9bf ddec d03f
00000180: 360f 02c0 4e0d 09c0 709d 093f fcc2 6040
00000190: 2e89 59c0 64d8 20bf 3fe0 0740 589f 853f
000001a0: d3c0 1640 35c1 43c0 e4d3 573f e3b7 183f
000001b0: ace9 1940 e912 2440 7cb7 5c3f e536 2d3f
000001c0: 9610 25be 20ff e13f be83 3ac0 cd91 1fbf
000001d0: 7ec7 ac3f 3e71 19c0 3c5b 0ec0 d927 1cbe
000001e0: 272e 1c40 64fb 1a40 5bf4 a8bf cab8 80bf
000001f0: 915f c6bf 75f5 1f3f 96e1 ff3f e0f4 0040
00000200: 882c 99bf e6dd e93e c43e e93e 2367 24be
00000210: fc80 4a40 8147 00c0 8462 d8bf 2557 8cbe
00000220: 898b cabf 5638 a23f 85ff 8abf 491f acbf
00000230: f9be 723f 8ae7 cfbf ecb8 3c3d 6fb4 8bbf
00000240: 9d4e e03f 98db ea3e 1c23 2fc0 8b61 07c0
00000250: 8aa8 f7bf 74c9 90bf f8b8 6440 3ddd 52bd
00000260: b1d7 2b3e b09b 15c0 53c8 b1be e022 f83f
00000270: 2cac cabf f72b a6c0 00ad 7e3e 9b25 17c0
00000280: 1f6e ee3d bafb 033e 2d95 2f3f 7f74 98bf
00000290: 3326 21bf c600 38c0 0362 a0bf 3f26 abbe
000002a0: bcd7 71c0 6c0a 913e f2fb ba3f 7bc2 6240
000002b0: 6c43 c53f 6554 b7bf f73b c23f 926f a1bf
000002c0: aaed a03d bdec 86c0 2f2b 29bb 62a1 8ebf
000002d0: dce1 bc3f 9f3c 3b40 054e 27be aa0b cbbe
000002e0: 5d2d 22bf e13e b8bf d7b7 0b3f e1eb 06c0
000002f0: f39b 21bf 09f4 853d 736f 0cc0 ed1d 23c0
00000300: f2ff 993f 8414 0e40 0b7c 8bbf a4d6 3440
00000310: 46bc a53d 94ce e43e deac aa3f c8ee 3dc0
00000320: 21a0 78bf b4d4 21c0 e1c9 643e ab73 0d40
00000330: bfa0 253f ca72 3fc0 43de df3e 4f71 07c0
00000340: 8b77 bbbf 5a59 1cbf d830 9dbe e971 09c0
00000350: 95d1 25c0 eef8 e63f cd79 213f 0fe0 ed3f
00000360: e45b 54bf 220a a63f b403 c43f 7e1a 5fbf
00000370: e2a9 99c0 cf8f 8040 0f4c b83f a799 f0be
00000380: 4848 edbf 11a4 87bf fadb 0dc0 62b3 6dbf
00000390: 53b2 c53e 5deb 993f e31f 00c0 139d cd3f
000003a0: 8711 9abf 9e84 a9bf 7357 023f cc79 4abf
000003b0: 1646 83bf abcd 333f 5b2d 2cbf 1057 bebf
000003c0: c674 4e3f ee4a 57be 2617 87bf acde a5bd
000003d0: 79a5 d03e 0495 d43f 03d7 8240 8efd fabe
000003e0: 8e91 1d40 ecc4 1dc0 1e9d 5940 ace4 8fc0
000003f0: e4c1 c93f 5560 36bf ddaa 23c0 39d7 bd3f
2.020083 2.9680817 -0.22942159 -1.1892791 -1.8774506 -0.49024788 -0.76811624 -2.6832488
2.5976222 0.21464868 -0.7490268 -0.5818287 0.8704758 2.2914782 2.4160154 2.544671
2.0130558 2.2390265 -3.7772832 2.9209416 -2.3663948 -1.0196322 -2.7743804 2.871539
1.6303859 -0.032608736 0.028104924 -2.326734 -0.18005832 0.22030628 -0.8421821 -0.5997707
-4.49746 0.26174265 0.1552072 2.4808118 -1.0457201 0.68789065 -1.3527877 1.6136068
-1.2239254 -0.5776654 -2.5814118 0.86202 1.1934267 -2.1039183 3.3606443 -1.7292925
-1.7538947 -1.3660085 0.55331826 1.7054396 2.1225188 0.6339487 -0.7320943 -3.1332424
1.0916191 -2.0969598 -1.8592727 -0.34224382 0.54118407 -1.4620409 0.109056585 -0.8925164
-0.28616324 0.7172971 -0.5434629 -0.81956387 -0.5692755 -1.9825903 0.06286664 0.7081915
-1.303449 -2.0692716 1.8594257 -0.18189006 -0.18008919 0.43366438 2.285363 -1.7354295
-2.341684 -0.84156007 0.3071254 -1.2751665 -3.6241868 -2.0123613 -0.3299446 1.5757328
3.1664283 0.5489622 2.853344 6.583263 -1.7813965 0.9025767 -1.451589 1.6322285
-2.0321784 -2.141437 0.53755856 3.511901 -3.3989978 -0.62830186 2.123062 1.0439253
2.355519 -3.0586674 0.84307694 0.5965559 2.4048872 2.5636542 0.86217475 0.6766189
-0.16119608 1.7655983 -2.914291 -0.6233185 1.349838 -2.3975368 -2.2243185 -0.15249576
2.440317 2.4215937 -1.3199571 -1.0056393 -1.5497915 0.6248391 1.9990718 2.014946
-1.1966715 0.45677108 0.455557 -0.16054969 3.1641226 -2.0043643 -1.6905065 -0.27410236
-1.5823833 1.2673442 -1.0859228 -1.3447047 0.9482265 -1.6242535 0.046074793 -1.0914439
1.7523991 0.45870662 -2.736518 -2.1153286 -1.9348309 -1.1311479 3.5737896 -0.05148052
0.16781498 -2.3376274 -0.34723148 1.9385643 -1.5833793 -5.192867 0.24870682 -2.3616703
0.11642098 0.12888995 0.68587 -1.1910552 -0.6294891 -2.8750472 -1.2529911 -0.33427617
-3.7787924 0.28328264 1.4608138 3.5431201 1.54112 -1.432263 1.517455 -1.2612174
0.07857831 -4.2163987 -0.0025813093 -1.1143 1.4756427 2.925575 -0.16338356 -0.39657336
-0.6335047 -1.4394189 0.5457739 -2.108147 -0.63128585 0.06540687 -2.1943023 -2.5487015
1.2031233 2.2200022 -1.089723 2.8256006 0.08092551 0.44688857 1.3334005 -2.967699
-0.9711934 -2.5286074 0.22342636 2.2101848 0.64698404 -2.9913812 0.4372426 -2.1162908
-1.4645857 -0.6107384 -0.30701327 -2.1475775 -2.5909169 1.8044717 0.6307648 1.8584002
-0.82952714 1.2971842 1.531363 -0.871498 -4.8019876 4.0175548 1.4398211 -0.46992227
-1.8537683 -1.0596944 -2.2165513 -0.9285184 0.38612613 1.2024952 -2.0019462 1.606356
-1.2036599 -1.3243597 0.50914687 -0.790921 -1.0255764 0.702357 -0.67256707 -1.4870319
0.8064693 -0.21024677 -1.0553939 -0.08099112 0.40751246 1.6607976 4.0887465 -0.49021572
2.462009 -2.4651442 3.4002147 -4.496664 1.5762296 -0.7124074 -2.5573037 1.4831306

hidden.0.bias f4 [50]
00000000: fd10 22c0 a271 0ebe bb01 b5c0 9e01 06c0
00000010: 268b 3340 a3aa 0740 0ef7 4e40 1a71 85bf
00000020: 9e6d ed3f 792e 80bf a158 1d40 3817 3c3f
00000030: 04a1 83bf 5155 1dc0 c3f5 77be a7f4 833f
00000040: 34a4 acbe 1eac cd3f 8590 62c0 42dc 6abf
00000050: 21bd 27bf 34ef 50c0 7e63 bbbd e558 b640
00000060: 23c3 8940 09ed 4ac0 1b61 7640 aa32 48bf
00000070: 0a4e 84bc 782b 0ac0 c90a 2ac0 939c 993f
00000080: 4084 d83f f054 63bf 899b c5bf eae1 83bd
00000090: 410a 013e f3a8 0d40 ff5e 5140 2fbc cabf
000000a0: b112 a63f da40 8240 3a60 dbbc a0e5 273e
000000b0: 61c0 23c0 2f11 ed40 4b12 3d40 1859 7240
000000c0: 5b2c b4bf 2df2 413f
-2.532287 -0.13910535 -5.6564612 -2.0938487 2.805368 2.1197898 3.233829 -1.0425141
1.8549078 -1.0014182 2.4585345 0.7347293 -1.0283513 -2.4583323 -0.24214844 1.0309037
-0.33719027 1.6068151 -3.5400708 -0.91742337 -0.6552296 -3.2645998 -0.09149836 5.6983514
4.3050704 -3.1707175 3.8496768 -0.7820231 -0.016150493 -2.1589031 -2.6569083 1.2000908
1.691536 -0.8880148 -1.543809 -0.06439574 0.12601568 2.2134368 3.271423 -1.5838679
1.2974454 4.0704165 -0.026779283 0.16396189 -2.5586169 7.4083476 2.9542415 3.7866879
-1.4076036 0.75760156

hidden.1.weight f4 [50, 50]
00000000: b8c7 b540 929e ffbf eed8 c1c0 bf74 22c0
00000010: 9acc 53c0 84c8 a640 3a02 3ec0 19d1 aac0
00000020: a7f3 c8bf 0440 1640 6aac 11c1 930b 9a40
00000030: cff6 1a40 7884 0041 9d65 12c0 f0a5 c840
00000040: 14fc 4bbf 9feb 6e40 e79a 2cbf 9187 e23e
00000050: e2cd 11c0 042f 1841 ef23 d540 d29d bfc0
00000060: 2c61 4cc0 8301 1a40 24cb a3c0 1069 8abf
00000070: dbb8 2ac1 ba75 a340 6721 d940 8be9 74bf
00000080: e94c c93f 31a3 9a3d 81c1 3440 ef92 98bf
00000090: ebc6 b6c0 47f7 a2be ec8a babf 42ef ac3f
000000a0: d46c f4bf 1174 a03f 3bfc 1e3f b3f0 94be
000000b0: 7768 0d40 03bc c440 696f f03e 09f0 aa3f
000000c0: 1667 9140 8650 9e40 7ee5 bec0 7399 a0c0
000000d0: 06c3 4140 74d5 3ac0 7d24 2b40 8692 c23f
000000e0: a283 afc0 a0eb 4440 bff3 25c0 b67d 5d3d
000000f0: 179b 9b40 85a0 6e40 8bc0 c93d b23a f23e
00000100: 6246 30c0 9236 67c0 8591 6bc0 9b07 0ebe
00000110: 33c8 543f 84fb 2640 63cd c440 a87c 65c0
00000120: cf9e 3840 6bb5 6340 694d b940 8f33 4cc0
00000130: 7e36 4e3f 2c8d 62c0 4b8f b3c0 7567 3f41
00000140: b1ae 0bc0 4978 47bf 6f44 3ebf 8f7e d340
00000150: 274b a1c0 cf3b c8bd ea6b 7f40 8135 71bf
00000160: 0e44 5e40 cf0f b940 19b5 9bc0 3150 e4c0
00000170: e24a 70bf e0b3 debf 03a4 1b40 3e1d 21c1
00000180: 0b90 8440 9473 26c0 1e77 0540 5aaa 39c0
00000190: 5baf 0040 b16f 8040 2233 f540 614d 18be
000001a0: 0338 3abf 372f 23c0 4a49 1540 f7c2 78c0
000001b0: b960 4640 5676 9d40 18d2 b440 990b 5a40
000001c0: 53cb 9a3f 6960 5740 1418 5340 fdf5 c93f
000001d0: ba7d cb40 d60d 71c0 5b6e 9340 0775 0ec0
000001e0: 51b5 d3c0 5c7b 1240 dd4f dc40 06b8 13c1
000001f0: 4f4d 78c0 2924 6d40 8e07 09c1 5b47 a4c0
00000200: dd68 bbc0 c5f2 85bf f5d5 c03f 7d10 5dc0
00000210: c2a4 bbc0 5133 a6c0 36c6 c440 3208 da40
00000220: 1cd7 07c0 0275 cfc0 d159 a53f e330 a440
00000230: fbc3 dc3e 78d7 a740 0cbc 70c0 38a9 5340
00000240: 056e b0bf 2993 5740 3fc0 373f e85d 57c0
00000250: 4494 a240 1493 b8c0 3fbe e03f cb16 d840
00000260: 4be1 efbd 7f8b 16bf cc97 2b40 0106 66c0
00000270: 5358 94c0 2a83 9e40 276e f7bf 196a c3c0
00000280: e473 8940 24f4 313f b82d d03f fb57 3c41
00000290: 6594 ee40 be05 ccc0 a0fc 1f40 0d8d 9bbf
000002a0: c719 9d3f 1685 d13f ffa9 5f3f 9039 1840
000002b0: 0df3 74bf 3762 1841 cb32 5c3d 052f 0ac1
000002c0: fc7c 9fc0 9539 2340 83f9 0140 4182 d640
000002d0: 8191 6b40 a3fc 063f 9597 7e3f ec13 4940
000002e0: cb3e 7140 dd9c 97c0 3528 90bd 2c5b e73d
000002f0: 62b7 09c1 576b d73f 9371 a040 8929 1bc1
00000300: ff52 d53d f538 d3bf 9618 f540 ea4f c93f
00000310: fe8d d440 43b7 b1bf 9cf4 3bbf b2d9 0bc0
00000320: 9ee1 2a40 c7f2 2fbe e6c3 8fbe 68d7 a7bf
00000330: 74b0 97c0 74ac edc0 33a0 a7c0 0d32 a43f
00000340: 106a 90c0 db70 993f 2cb4 0b40 a800 b8be
00000350: 1b6f 1b40 4e66 fe3f 0c3e 1d41 33b2 94be
00000360: 01db 57c0 7527 9dc0 7ef6 8fc0 3a61 22bf
00000370: 05f5 cb3f fc12 9b3e 8db5 8dbf c7bc 0741
00000380: e8af 6940 074e 3bc0 eaa4 29c0 f5de 0241
00000390: 28d1 d840 fe52 bd3f 30ca 95c0 470f c2bf
000003a0: 59d1 e2bf c7c3 5d40 004e 4bc0 5b92 d2bf
000003b0: 1926 f23f ecc6 7140 c714 e840 b0ed d6c0
000003c0: a074 27c0 5fb5 4ac1 803f aec0 0213 34bf
000003d0: c445 f940 ac8a cf40 1f1c 74bf 6449 4dc0
000003e0: fb42 dcbf f680 babe 5dc2 0740 5302 d53e
000003f0: 2322 9340 ebfd ad40 fa6d d4bf c64b b4bf
5.6806297 -1.9970267 -6.0577307 -2.5383756 -3.309363 5.211977 -2.968886 -5.3380246
-1.5699357 2.3476572 -9.104593 4.813913 2.421314 8.032341 -2.287452 6.270256
-0.79681516 3.7331312 -0.6742386 0.44244054 -2.278191 9.511478 6.6606364 -5.988015
-3.193431 2.4063423 -5.1185474 -1.0813313 -10.670131 5.108121 6.7853274 -0.9566886
1.5726596 0.075506575 2.8243105 -1.191984 -5.711782 -0.31829283 -1.4573646 1.3510516
-1.9095712 1.2535421 0.62103623 -0.2908989 2.209501 6.1479506 0.4696 1.3354503
4.5438337 4.9473295 -5.965514 -5.0187316 3.0275283 -2.9192781 2.674102 1.5200965
-5.4848185 3.0768814 -2.593002 0.054074965 4.862682 3.7285473 0.09851178 0.47310406
-2.7542958 -3.6127057 -3.6807568 -0.13870089 0.8311798 2.6091013 6.1500716 -3.5857334
2.884693 3.5579479 5.7906995 -3.190647 0.805519 -3.5398664 -5.611242 11.962758
-2.1825373 -0.77917916 -0.7432317 6.609199 -5.040424 -0.097770326 3.9909616 -0.94222265
3.4729037 5.7831798 -4.8658566 -7.134789 -0.9386426 -1.7398643 2.4318855 -10.069639
4.1425834 -2.6008043 2.0853953 -2.9010224 2.0107028 4.013634 7.662492 -0.14873268
-0.7274172 -2.5497568 2.3325982 -3.8868997 3.0996535 4.9206953 5.650646 3.4069579
1.20933 3.3652594 3.2983446 1.5778195 6.3590975 -3.7664695 4.607221 -2.2258928
-6.6158834 2.2887793 6.884749 -9.232428 -3.8797185 3.705332 -8.564344 -5.1337104
-5.8565507 -1.0464712 1.5065295 -3.4541314 -5.863862 -5.193764 6.1491957 6.8135004
-2.1225042 -6.483033 1.2918035 5.1309676 0.4311827 5.2450523 -3.7614775 3.3072033
-1.3783575 3.368357 0.7177772 -3.3651066 5.080599 -5.767954 1.7558059 6.7527823
-0.11712893 -0.58806604 2.68114 -3.5941164 -4.635782 4.953511 -1.9330491 -6.1067014
4.295397 0.69513154 1.6263952 11.77148 7.4556146 -6.375701 2.499794 -1.215242
1.2273492 1.636874 0.8736877 2.3785133 -0.95683366 9.523978 0.053759377 -8.636479
-4.984007 2.5503895 2.030854 6.7034 3.6807559 0.52729243 0.99450046 3.141841
3.7694576 -4.7378983 -0.07038919 0.112966865 -8.607271 1.6829633 5.013864 -9.69764
0.10416221 -1.6501757 7.659251 1.5727513 6.642333 -1.3884052 -0.7342012 -2.185162
2.6700206 -0.17182456 -0.28079146 -1.3112612 -4.7402897 -7.4273014 -5.2383056 1.2827774
-4.512947 1.1987566 2.1828718 -0.35938 2.4286563 1.9874971 9.827648 -0.29042205
-3.372742 -4.9110665 -4.4988394 -0.63429606 1.5934149 0.3028792 -1.107103 8.483588
3.6513615 -2.9266374 -2.6506906 8.179433 6.775532 1.4790952 -4.680931 -1.5160912
-1.7720138 3.4650743 -3.1766357 -1.6450914 1.8917876 3.7777662 7.2525363 -6.7165146
-2.6164932 -12.66928 -5.4452515 -0.70341504 7.7897663 6.4856777 -0.9535541 -3.2076044
-1.7207941 -0.36426514 2.121238 0.41603336 4.597917 5.437246 -1.6596062 -1.4085624

hidden.1.bias f4 [50]
00000000: 8f64 ea3f 5444 9c3f 5aad 2040 e02f dc40
00000010: e0f8 12c0 2ced 7ac0 7dea 22c0 086b 6fc0
00000020: ca49 12c0 9ea0 f6c0 e2dd 963f ef5a 9640
00000030: dad5 99c0 8504 1540 ccb1 5140 7461 cb40
00000040: 79ba bcbf aa8d c4c0 067d 05c0 eb06 f63f
00000050: d45e 923f 8e30 c13f 6325 8cc0 511c b640
00000060: 0778 4240 f938 3abd 2b48 3fc1 38db 16c1
00000070: 642a 5540 a36a 81c0 ee05 2bc1 69c0 35c0
00000080: 5847 ff3e 7a2d 1040 3e44 87c0 df0e 8e40
00000090: 8fc7 1abf b554 ccc0 ca0c 8a40 19e5 7940
000000a0: d2ca 34c0 160a 5741 ecab e3c0 583e 8b40
000000b0: 9821 da3f c692 97c0 8ea3 6ec0 8056 b840
000000c0: a28d 0e40 8971 8540
1.8311938 1.2208352 2.5105805 6.880844 -2.2964401 -3.9207258 -2.545562 -3.7409077
-2.2857537 -7.7071066 1.1786463 4.6986003 -4.807355 2.3284009 3.2764769 6.355646
-1.4744407 -6.142293 -2.0857558 1.9220861 1.1435189 1.5092943 -4.379564 5.6909566
3.038576 -0.04546449 -11.955119 -9.42852 3.3307123 -4.044267 -10.688948 -2.8398688
0.49859118 2.2527757 -4.2270803 4.4393153 -0.6046075 -6.38534 4.314061 3.904608
-2.8248792 13.439962 -7.1147366 4.3513603 1.7041502 -4.7366667 -3.7287326 5.760559
2.2273946 4.1701093

output_layer.weight f4 [49, 50]
00000000: d019 3abe 7bf6 a9bc 0037 16bd 0386 6dbd
00000010: 3424 6abd 081c 8fbc fdb9 043e 9e11 223d
00000020: 97fa 79be c3de b13a 5692 c9bd da82 8ebe
00000030: bc96 2c3e f5ba 3bbe f331 8ebd e37f 543e
00000040: 12c8 95bb 3ab6 57bd 59bd 96bd 6568 383d
00000050: dc68 b5bd 8600 0b3b 3603 f8bb d45e 883d
00000060: c243 093e 6e40 58be 9c1c 7fbe 06a8 9dbd
00000070: 49df 973d 6940 1cbc d7bb 41be 7600 07be
00000080: 199c ce3d 7a97 ddbd 4892 22be d1ff 933d
00000090: af47 063e 778c 773d cf0f cbbb a21c 45bd
000000a0: 7971 52be 0a01 5d3c 7fa1 20be dca5 073e
000000b0: d6a5 19be ff99 ba3d 1087 8cbc d815 3bbe
000000c0: 089b bbbd cb85 c3bc 4f49 88be a40b 81bd
000000d0: 9292 0ebe c64f a0bd cb08 24be d8cf 6d3c
000000e0: 3a5b 253e 95cd 5d3d c280 6a3e 4ffd 7b3c
000000f0: 4c84 26be 5381 ffbd b3f9 e43d 62ab af3e
00000100: 406f 14be 4dd0 543e bc01 973d 94b4 68bc
00000110: 401f cfbd 6df1 823d ab3c eebd f3e1 bcbd
00000120: ff8e 5c3b 762a 02bd 19b7 9e3d d456 72be
00000130: e796 84be 9ece 94bd 223c a0bc 23fe 733d
00000140: 1ec0 eebd 6f1f 17bd 75cd e03d 6c99 38be
00000150: b8f3 cebd 344b dd3c 5097 8a3c d03f cf3d
00000160: aafd 56bd 0f23 ebbd 76ef 7fbe dbc0 0dbd
00000170: c7f7 48be 0e24 ff3d ea1b b0be a1ca b83d
00000180: 766e f4bd 5c6a 61be 6ee8 243d 1af1 6cbd
00000190: 5a38 1cbe 003d 23be 08c6 31be 9d6b 58be
000001a0: 2b9d 48bd c737 9d3d a873 513e 37e4 393e
000001b0: ff52 bdbd 58e7 42bd f49e 34bd ad80 33be
000001c0: f0f4 023d f84e c93c b142 d3bd 2501 983d
000001d0: 1770 6a3d 16d3 233e 201d a83c 4e66 91bd
000001e0: 5af0 bcbc b1a6 023e 6003 5e3e e50e d8bc
000001f0: c7b6 d83d d67f 5b3c d0cd aebe f354 0cbe
00000200: 394d e6bd 5b63 b13d 04c5 aabc e677 08be
00000210: ac98 dabc fc9e 8fbe 7d03 f0bd 21b2 263e
00000220: 482c 3e3e e11a dc3d ff33 1cbe 30df f0bd
00000230: 8169 99be e7a1 02be 9938 d6bd 4d21 433e
00000240: 38f1 96be 0233 c23b 89bc c2bb 881a e8bd
00000250: 39c6 ae3d fead 983d c175 8ebd 6fff d6bb
00000260: 7af8 14be 28c3 23be 6aad cdbc 2682 1b3e
00000270: 5c3a 5d3e 340b 513d 489b a3bf 5c51 943d
00000280: 0429 7dbd 1581 9bbe 33e9 573e 50d4 89bf
00000290: 1e92 2cbd dc0d 8d3e 4eff ffbc 6092 2cbe
000002a0: 02b5 c7bd 886f 5d3e d8cf 95be 7d5f 2c3d
000002b0: bbda dfbc ca83 9e3d 7689 f83d 6054 efbd
000002c0: 8ef9 d4bd 58d9 43be 91fc 713e efb4 bfbc
000002d0: d66b 11bd 6c6f 0dbe d529 133e 92d0 29be
000002e0: e262 14bd f936 963d 117a 983c c0fe e2bd
000002f0: ddb8 463d 2236 3cbe 03c8 8ebe 04c3 74bd
00000300: b6f2 c2bd 3fb9 683e 2df5 8cbe 0344 06bd
00000310: 6381 11bc 064e 21bc 4634 64bd 35b4 0ebe
00000320: 4c80 83bc 5e17 db3c 67fe 02bd eafd b0bd
00000330: 8c67 51be d3ed 83bd fca4 4c3e fd98 4cbd
00000340: 86e7 313f 4c16 ba3d d724 d0bd d65f 35be
00000350: 85c8 c53d 8251 403f b81f f5bd 87f9 d13d
00000360: e6e0 8c3e 71e3 d0bd c767 46be 36e3 923d
00000370: 1947 d8bc 9f70 dc3d 011b 1a3e 7ceb 433e
00000380: e9a8 813d 2721 7bbe 1f54 85be d1d8 59bd
00000390: 7b71 e73d 979a 70bd 89fe 06be b2a2 03be
000003a0: a705 65bc 6b8c 21be 8662 a7bd 8403 533e
000003b0: 04aa 173e fac3 af3d fe06 11be b699 09bd
000003c0: 733a 71be 3b6a efbd 3ceb 6fbc 09aa 8f3d
000003d0: 5a5e fabd 70de 163d 3daf 79bd b614 04be
000003e0: edaa 663c 6ddc 2d3d bed1 d5bc 8d4e 003d
000003f0: 04d2 59be 6d01 f4bd c52b dc3d ae26 763d
-0.18173909 -0.020747414 -0.036673546 -0.05798913 -0.057163432 -0.017469421 0.12961574 0.039567582
-0.24411999 0.0013570416 -0.098423645 -0.27834207 0.16854376 -0.18333037 -0.06943121 0.2075191
-0.0045709694 -0.05266402 -0.07360334 0.045021433 -0.08857891 0.0021210029 -0.007568742 0.06658712
0.13404754 -0.21118328 -0.24913257 -0.076980636 0.07415635 -0.009536841 -0.18919311 -0.1318377
0.10088367 -0.108199075 -0.15876114 0.072265275 0.13113283 0.060436692 -0.006196953 -0.04812301
-0.20551099 0.013489017 -0.15686606 0.13246864 -0.15004668 0.09111404 -0.017154247 -0.18270051
-0.09160429 -0.023867508 -0.2661843 -0.063010484 -0.139231 -0.078277156 -0.16018979 0.014514886
0.16148081 0.054151136 0.2290068 0.015380218 -0.16261405 -0.124758385 0.11180439 0.34310442
-0.14495564 0.20782585 0.07373378 -0.014203209 -0.10113382 0.063937046 -0.11632665 -0.09222784
0.0033654568 -0.031778775 0.07749767 -0.23665935 -0.2589638 -0.072659716 -0.019559924 0.059568536
-0.11657737 -0.03689521 0.10976688 -0.18027276 -0.101050794 0.027013399 0.016917855 0.10119593
-0.052488007 -0.11481296 -0.24993691 -0.03460775 -0.1962577 0.12458049 -0.34396297 0.090230234
-0.11935131 -0.22013229 0.040260725 -0.05784712 -0.15255871 -0.15941238 -0.17360699 -0.21134801
-0.048978012 0.07676654 0.20454276 0.18153463 -0.09244346 -0.047583908 -0.044096902 -0.17529555
0.03197187 0.024573788 -0.10315455 0.07422093 0.057235803 0.15998492 0.0205217 -0.07099591
-0.023063827 0.127589 0.21680975 -0.02637429 0.10581737 0.013397178 -0.34141397 -0.1370428
-0.11245198 0.08661529 -0.020845897 -0.13326988 -0.026684128 -0.28050983 -0.11719415 0.16278888
0.1857158 0.10747314 -0.1525421 -0.1176132 -0.29963306 -0.12757073 -0.10460014 0.19055672
-0.2948091 0.0059264908 -0.0059428853 -0.113331854 0.08533902 0.074550614 -0.069560535 -0.006561212
-0.14547911 -0.15992415 -0.025107104 0.15186366 0.21604294 0.051036075 -1.2781763 0.072420806
-0.061806694 -0.3037192 0.21085052 -1.0767918 -0.042131536 0.27549636 -0.031249668 -0.16852713
-0.097513214 0.21624577 -0.29260135 0.042083252 -0.027325979 0.077399805 0.121355936 -0.11686015
-0.10399161 -0.19125879 0.23631503 -0.023401706 -0.03550323 -0.13812035 0.14371426 -0.1658347
-0.036227114 0.07334704 0.018612893 -0.11083746 0.048516143 -0.18380025 -0.27886972 -0.059756294
-0.0951895 0.22726916 -0.27530804 -0.032779705 -0.008880946 -0.009845262 -0.055713914 -0.13935931
-0.016052388 0.02674454 -0.0319809 -0.0864218 -0.20449656 -0.06441846 0.19984812 -0.04995059
0.694939 0.09086284 -0.10163277 -0.1771234 0.09657387 0.7512437 -0.119689405 0.10252672
0.27515334 -0.10199631 -0.19375525 0.07172243 -0.02640109 0.10763668 0.15049364 0.19132799
0.06331045 -0.24524365 -0.26040742 -0.053185288 0.113009416 -0.05874118 -0.13183035 -0.12855032
-0.013978398 -0.15776221 -0.08173089 0.2060681 0.1481095 0.085823014 -0.14162824 -0.033593856
-0.23557453 -0.11690184 -0.014643487 0.070148535 -0.122250274 0.036833227 -0.060958136 -0.12898526
0.014078838 0.042446543 -0.02610099 0.03132491 -0.21271521 -0.119143344 0.10750536 0.06009548

output_layer.bias f4 [49]
00000000: 095a c33e 2327 f13e 4e99 253f b51f df3e
00000010: 3877 dc3e 933e ca3e e166 363e bcff de3e
00000020: b462 d23e 492f bd3e 062b 883e d87a d63e
00000030: bafe a0bd eacd ba3e 93fd bb3e 366a cb3e
00000040: 7cad 7c3e 1e37 3bbb 23af af3e 4595 cb3e
00000050: a9e3 b93e 6a1e 033f 6a0c 8e3e 9596 6f3e
00000060: b618 843e d6a5 a03e 0ca2 7f3e 447c aa3e
00000070: 6190 ad3e 2638 e73e 3609 eb3e 0490 9a3e
00000080: 1697 383e 0793 e03e 45ad a33e 27dd db3e
00000090: 66ee db3d bc33 d83e b2e3 0e3f ff1f b23e
000000a0: 71aa ee3e 371d c63e af44 0c3e bd45 e03e
000000b0: 8866 b93e 43f7 db3e 369b dd3e dec5 df3e
000000c0: 125b ed3e
0.3815463 0.4710017 0.6468705 0.43578878 0.43059707 0.39500865 0.17812683 0.43554485
0.4109093 0.36950138 0.26595324 0.41890597 -0.07861085 0.36485225 0.367169 0.3972947
0.24675554 -0.0028566788 0.34313306 0.3976232 0.36306503 0.51218283 0.27743846 0.23397286
0.25800103 0.31376523 0.2496416 0.33297932 0.33899215 0.45160025 0.45905465 0.30188
0.18026385 0.43862173 0.31968132 0.42942163 0.1073883 0.4222697 0.55816185 0.34790036
0.4661441 0.38694164 0.13698076 0.43803206 0.36211038 0.42962083 0.4328248 0.43705648
0.46358544
