models/2600episodes/350episodes.pth (torch, 43824 bytes, 8 tensors)

input_layer.weight f4 [50, 50]
0	0x40acac72	5.3960505
1	0x40046816	2.068853
2	0xc04f72b9	-3.241377
3	0x3f0e29ce	0.5553254
4	0x405b6cb3	3.4285095
5	0x4004f5f7	2.0775125
6	0xbe81823b	-0.2529467
7	0x3e5506b6	0.20803341
8	0x40200de9	2.500849
9	0x3f692002	0.91064465
10	0xc0010c6f	-2.016384
11	0x3facc3d6	1.3497264
12	0xbf388b90	-0.72087955
13	0x4033aab6	2.8072944
14	0x3e63a86d	0.22232218
15	0xbf137883	-0.5760576
16	0xbe8be3a1	-0.27322105
17	0xc035bfe9	-2.8398383
18	0xc02212ff	-2.5324094
19	0xc01701bc	-2.3594809
20	0xc048d29f	-3.1378553
21	0x3fbd5e61	1.4794427
22	0xbff02f96	-1.8764522
23	0x3fb5c337	1.42002
24	0xc09527ad	-4.661093
25	0x3e9dba7c	0.3080634
26	0x3ea7b786	0.32757205
27	0xbf3f6734	-0.7476685
28	0xc05fa2ab	-3.4943035
29	0xbfe46f33	-1.7846435
30	0x3fd70044	1.6796956
31	0xbfbde12a	-1.483434
32	0xbee0ae79	-0.43883112
33	0x3f90b0cc	1.1303954
34	0xbf434a34	-0.762851
35	0xc018aebd	-2.3856652
36	0xc064c994	-3.5748034
37	0x3f33cb2e	0.702319
38	0xc003d63b	-2.0599506
39	0xc0157f3b	-2.3358905
40	0x3e829f21	0.2551203
41	0x4006670e	2.10004
42	0xbeb91239	-0.36146715
43	0xc0711a9c	-3.767249
44	0x3f8dccc9	1.107812
45	0xbf8e4c90	-1.1117115
46	0xc009a3ce	-2.1506228
47	0x3fc3184e	1.5241792
48	0xc03c7335	-2.9445317
49	0xbf19341f	-0.59845155
50	0x3ff73209	1.9312145
51	0x4006fecf	2.1093023
52	0xc0a456d1	-5.1355977
53	0x40022721	2.0336382
54	0xbfb16253	-1.3858131
55	0xc07d7761	-3.9604113
56	0xbf795a78	-0.9740367
57	0x400c2560	2.1897812
58	0x3f94f7cf	1.1638125
59	0xc014ae2f	-2.3231313
60	0xbf92ace1	-1.1459008
61	0x3f74b03a	0.955814
62	0xbf16e7b3	-0.58947295
63	0xc083b2c7	-4.1155734
64	0xc0583616	-3.3783011
65	0xbf8f1937	-1.117957
66	0x3f383a7a	0.7196423
67	0x4029ec24	2.6550379
68	0x4069006e	3.6406512
69	0xbfe7bc8f	-1.8104419
70	0x40763b54	3.847371
71	0x3ef5d5b5	0.48014608
72	0xbe12f8f3	-0.14352779
73	0x3f796829	0.9742456
74	0x4005e61d	2.09217
75	0x4079adec	3.9012403
76	0xbfce6459	-1.6124374
77	0xbf420639	-0.75790745
78	0xbea1d051	-0.31604245
79	0x3f690cc8	0.9103513
80	0xbf90c43b	-1.1309885
81	0xbe9275ec	-0.28605592
82	0xc04c4e59	-3.192282
83	0xc08c1ab1	-4.378258
84	0xbbb38d82	-0.0054795155
85	0x3fed68d8	1.8547621
86	0xbfb8f86d	-1.4450814
87	0x40487b2b	3.1325176
88	0x4012d152	2.294026
89	0x3f990a49	1.1956264
90	0xc046e518	-3.1077328
91	0x3f7f64af	0.99763006
92	0xc08e6562	-4.449876
93	0xbf72fa63	-0.9491331
94	0xbfd9e300	-1.70224
95	0x40c0c642	6.0242014
96	0xbfe982da	-1.8243058
97	0xbeb48127	-0.35254785
98	0xbf96642e	-1.1749322
99	0xbedf2f3c	-0.43590724
100	0x3f9b9c63	1.21571
101	0xc028b4d8	-2.6360378
102	0x40502658	3.2523403
103	0x4006d661	2.1068347
104	0x3f939f00	1.1532898
105	0x3f96deb0	1.1786709
106	0x402b079c	2.6723394
107	0xc0244226	-2.5665374
108	0x3fa48429	1.2852832
109	0x4082789a	4.077222
110	0xbecd2f57	-0.4007518
111	0x40583def	3.3787801
112	0x400bd405	2.1848156
113	0xbefe22f4	-0.49636042
114	0x3f108d69	0.56465775
115	0xbf0f0fcf	-0.55883497
116	0xbf0df8cd	-0.55457765
117	0x4041c7cd	3.0278199
118	0x3f3060c2	0.6889764
119	0x3fd86d95	1.6908442
120	0x3f7df89b	0.99207467
121	0x4057206f	3.3613546
122	0x3f12d66d	0.5735844
123	0xc05ecc18	-3.481207
124	0xc0ab52ca	-5.353856
125	0xc0a7856b	-5.2350364
126	0xc065b3b5	-3.5890934
127	0xc0018e2f	-2.0243032
128	0x409fe9d0	4.9972916
129	0x40153b44	2.3317423
130	0xbd36b610	-0.044607222
131	0xbfa5a05e	-1.2939565
132	0xbf9a2c78	-1.2044821
133	0x40511046	3.2666183
134	0xc0221c45	-2.5329754
135	0x3f15a04f	0.58447737
136	0x3f640b34	0.89079595
137	0x3f81fc0b	1.0155042
138	0x3f0377c0	0.513546
139	0xbf3ae6fa	-0.7300869
140	0x3ff91987	1.9460915
141	0x4028ad45	2.6355755
142	0x3f9aa75a	1.2082322
143	0x3bb539ea	0.0055305855
144	0xbf4b5d69	-0.7943941
145	0x4085ab21	4.1771398
146	0x3e1edde0	0.15514326
147	0xbfb3f5ee	-1.4059427
148	0x3fa61c3c	1.2977366
149	0x3f8771b6	1.0581577
150	0xbe5510da	-0.2080721
151	0xbf3e8690	-0.74424076
152	0x3fd7144d	1.680307
153	0x4040c1a3	3.0118186
154	0x3e6eaa53	0.23307161
155	0x3fedb249	1.8570033
156	0xbf34773b	-0.7049443
157	0x3e88b180	0.26697922
158	0xc0508890	-3.258335
159	0x3fc43e2f	1.5331477
160	0xbf5bf7df	-0.85925096
161	0x3fb2d9e5	1.3972746
162	0xbff5febf	-1.9218367
163	0xbff7515c	-1.9321704
164	0xbf9e6c33	-1.237677
165	0x3fa7775c	1.30833
166	0xbfe3dfdf	-1.7802695
167	0x3fff5201	1.9946901
168	0x3e4f95f3	0.20272045
169	0x4034d50e	2.8255038
170	0x40127f11	2.2890055
171	0x3d77368d	0.060354758
172	0xbff40910	-1.9065266
173	0x3dffb38a	0.12485416
174	0xbef98535	-0.4873444
175	0xc0536c6d	-3.3034928
176	0x403f70a1	2.9912493
177	0x3d128710	0.035773337
178	0x3ee97b6f	0.45601985
179	0xbf8d35e7	-1.1032075
180	0x3f11b548	0.5691724
181	0xbfd1da41	-1.6394731
182	0xbef4eb2c	-0.47835672
183	0xbfb7a295	-1.4346491
184	0x400ef2c3	2.233567
185	0x402d3521	2.7063677
186	0xbfc39c36	-1.5282047
187	0x3f3b596e	0.73183334
188	0xbf4aca9d	-0.79215413
189	0x408af9d8	4.3429985
190	0xbf8e1adc	-1.1101947
191	0x4007d510	2.1223793
192	0x3f957985	1.167771
193	0x40254792	2.5824933
194	0xbfeafe8c	-1.8358932
195	0x3fc39873	1.5280899
196	0x401d6fbe	2.4599452
197	0x409d0a57	4.907512
198	0x40abfdff	5.3747554
199	0x3fcb48c4	1.5881581
200	0x3f4a7b74	0.79094625
201	0xbf968dae	-1.1761987
202	0x402f7f0f	2.74213
203	0x3fa7e3ea	1.3116429
204	0x3fce2c01	1.6107179
205	0x400869eb	2.1314647
206	0x3fe940dc	1.8222919
207	0x40ba9fa5	5.831988
208	0xbf980ce3	-1.1878933
209	0x408c8540	4.391266
210	0x3f53dcd0	0.8275881
211	0xc032ba7b	-2.7926319
212	0x3f93a1f7	1.1533803
213	0xbf4723bd	-0.7778891
214	0x3dcdfee6	0.10058384
215	0x4031f9c4	2.7808695
216	0x3f966130	1.1748409
217	0xbe473114	-0.19452316
218	0xc04f5711	-3.239689
219	0xbde08204	-0.109622985
220	0xc091bf9d	-4.5546403
221	0x40aa48e6	5.3213987
222	0xbefde3d7	-0.4958789
223	0x3fed1a45	1.8523642
224	0xbe09c8d9	-0.13455524
225	0x3e9d6d8e	0.30747646
226	0x3fbf6acd	1.4954468
227	0x40c272f2	6.0765314
228	0x3fb3d030	1.4047909
229	0x3fe51d69	1.78996
230	0x3f3a66ea	0.72813284
231	0xbf7e4fd5	-0.99340564
232	0x3ee6e724	0.4509822
233	0xc0723ba9	-3.7848914
234	0xc05517cb	-3.3295772
235	0xbf7cf4e4	-0.98811173
236	0x3fcf7881	1.620865
237	0xc07ba814	-3.9321337
238	0xbfe91f19	-1.8212615
239	0x40239b4f	2.5563543
240	0xbfa3324f	-1.2749728
241	0xc035cf9f	-2.8407972
242	0xbfc1dd3b	-1.5145639
243	0xbeee433c	-0.4653567
244	0x4085aee2	4.177598
245	0xbe04d9d4	-0.1297372
246	0x408055bc	4.0104656
247	0x3cb1056c	0.02160903
248	0xbfd3b8e2	-1.6540797
249	0xbfc4db99	-1.5379516
250	0xbdc5db31	-0.09660948
251	0x3f6a0f0c	0.9142921
252	0xc0a6b7c2	-5.2099314
253	0xc046bd15	-3.1052907
254	0x40399e28	2.900278
255	0xbf86dc12	-1.053591

input_layer.bias f4 [50]
0	0x3d652322	0.05594171
1	0xbffc4b21	-1.9710428
2	0xbe7a35c7	-0.24434577
3	0xbfe9156b	-1.8209661
4	0x3e73e11a	0.23816338
5	0x3fa5c0b9	1.2949439
6	0x3eca9c5c	0.39572418
7	0x3f2dd695	0.6790555
8	0x3e96a67f	0.294239
9	0x3fadb806	1.3571784
10	0x3fee89fa	1.8635857
11	0xbfb3376e	-1.4001291
12	0x3f782eca	0.96946394
13	0xbd875d14	-0.0660955
14	0x40172333	2.3615234
15	0x3f953bbd	1.1658856
16	0xbe3dfbd1	-0.18553092
17	0xbfa37db9	-1.2772743
18	0xbf71a50c	-0.94392467
19	0xbf45ff7f	-0.7734298
20	0xbf6b5573	-0.9192726
21	0xbffb6bbe	-1.9642255
22	0x3ff367b6	1.9016025
23	0xbf940690	-1.1564503
24	0xbf0dcf0b	-0.5539405
25	0x3f4f5307	0.80986065
26	0xbfc32866	-1.5246704
27	0xbde3dce1	-0.11126114
28	0x401fdfaf	2.4980276
29	0xbfd53d7c	-1.6659389
30	0x3f95b56f	1.1695994
31	0xbf577155	-0.84157306
32	0xbf0d9234	-0.55301213
33	0x3f15beaf	0.58494085
34	0xbf9acdc2	-1.2094042
35	0x3ef53989	0.47895458
36	0x403d71cd	2.9600708
37	0xbf063b95	-0.52434665
38	0x3f37cd29	0.71797425
39	0x40496d7a	3.147307
40	0xbf506a4b	-0.8141219
41	0x3feef1ab	1.8667501
42	0xbea84609	-0.32865933
43	0xbfd5d170	-1.670454
44	0xbeb24e9b	-0.34825596
45	0x3e2acd35	0.16679843
46	0x3ef4e559	0.47831228
47	0xbfe2c23b	-1.7715524
48	0x3f15c34a	0.5850111
49	0xbe0c1c7b	-0.1368274

hidden.0.weight f4 [50, 50]
0	0x3f937be0	1.1522179
1	0x3fe2619e	1.768604
2	0xbf154737	-0.5831179
3	0xbe9cb1cf	-0.30604407
4	0xc0123073	-2.284207
5	0xbf5946ac	-0.8487346
6	0xbf6d93bb	-0.92803544
7	0xc05188b6	-3.2739692
8	0x406f1e5d	3.7362282
9	0x3fe01e90	1.7509327
10	0xc011ca0c	-2.277957
11	0xbf387b2d	-0.7206295
12	0x3f3f2714	0.74669003
13	0x400c3bad	2.1911423
14	0x401f5013	2.4892623
15	0x4004c1e2	2.0743337
16	0x402ce815	2.7016652
17	0x4077a3dc	3.8693762
18	0xc076794c	-3.8511534
19	0x4030ce47	2.7625902
20	0xc072b6e4	-3.7924128
21	0xbfa42f84	-1.2827001
22	0xc04ec30e	-3.2306552
23	0x4061afa4	3.5263453
24	0x3f9748d1	1.1819097
25	0x3f242623	0.6412069
26	0xbfaa91d6	-1.3325756
27	0xc037d3ee	-2.8723102
28	0xbf92f245	-1.1480185
29	0x3f0d591f	0.55214113
30	0xbf561a63	-0.8363401
31	0xbe2bbc53	-0.16771059
32	0xc0940d25	-4.6266046
33	0x3fa91286	1.3208778
34	0xbe1781d2	-0.14795616
35	0x404dca50	3.2154732
36	0xbec11217	-0.37709114
37	0x3fdd7629	1.7301685
38	0xbfe02d9c	-1.7513919
39	0x4010981f	2.2592847
40	0xbf1e2cc7	-0.61787075
41	0xbfe27b39	-1.7693855
42	0xc0765ef4	-3.8495455
43	0x3f314816	0.6925062
44	0x40159ea7	2.3378084
45	0xc045a109	-3.0879538
46	0x409f3672	4.975396
47	0xbfb2f906	-1.3982246
48	0xc013d6d2	-2.3099866
49	0xc033c0b1	-2.808636
50	0x3fb83f1d	1.4394261
51	0x3ffffe78	1.9999533
52	0x4039c82e	2.902843
53	0x3fc7d628	1.561223
54	0xbfe3b750	-1.7790318
55	0xc03ec30b	-2.9806545
56	0x3fa03a80	1.2517853
57	0xc028dc28	-2.6384373
58	0xc0027cc3	-2.0388649
59	0x3f6fde1e	0.936983
60	0x3f113a91	0.5672999
61	0xbf9ce8d8	-1.2258558
62	0xbdc068de	-0.09395002
63	0xbfaef9f4	-1.367003
64	0x3ce18016	0.027526896
65	0x3e2e8fd9	0.17047061
66	0x3d6b0d03	0.057385456
67	0xbf640787	-0.89073986
68	0xbfbedd10	-1.4911213
69	0xc007a859	-2.1196501
70	0x3bd2656f	0.0064207832
71	0x3e995bb6	0.29952782
72	0xbfbfa64c	-1.4972625
73	0xc0656d51	-3.5847971
74	0x407293fd	3.7902825
75	0x3d59d38e	0.05318027
76	0x3dbfb08e	0.09359847
77	0xbd71d3e5	-0.05903997
78	0x4016c4b1	2.355755
79	0xbfd80661	-1.6876947
80	0xc069df07	-3.6542375
81	0x3dd0bf02	0.10192682
82	0x3fd83c95	1.6893488
83	0xbf17e374	-0.5933144
84	0xc08d436e	-4.414481
85	0xc00ad76a	-2.1693978
86	0xbf6e0231	-0.92972094
87	0x3fe520a9	1.7900592
88	0x40871adf	4.22203
89	0x3f3f7d67	0.74800724
90	0x4055d78d	3.3412812
91	0x410f6f5a	8.964685
92	0xc01f1e6c	-2.4862318
93	0x3fccc399	1.5997192
94	0xbf07c6e2	-0.53037846
95	0x3f99bf14	1.2011437
96	0xc005c65c	-2.090232
97	0xbeb89037	-0.36047527
98	0x3fcbafe1	1.5913049
99	0x40813efc	4.0389385
100	0xc07b3537	-3.925123
101	0xbfbd625e	-1.4795644
102	0x3fe51ec1	1.790001
103	0x3f323c89	0.6962362
104	0x404f8de0	3.2430344
105	0xc08e0c92	-4.4390345
106	0x3f79be34	0.9755585
107	0x3fa8056d	1.3126656
108	0x404324ff	3.049133
109	0x4006f5a1	2.108742
110	0x3ff652fb	1.9244074
111	0x3f924e5f	1.1430167
112	0xbeb38b78	-0.35067344
113	0x4014d599	2.325537
114	0xc08a2c1f	-4.317886
115	0xbfa14eb0	-1.2602139
116	0x3ee338a6	0.44379157
117	0xc01f3324	-2.4874964
118	0xbf8d52be	-1.1040876
119	0xbf027063	-0.5095274
120	0x40135221	2.3018878
121	0x4046e0db	3.107474
122	0xbfe53e75	-1.7909685
123	0xbfbfadb3	-1.4974884
124	0xc00afe67	-2.1717775
125	0xbe914286	-0.28371066
126	0x40673b07	3.6129777
127	0x403c3148	2.940508
128	0xc00ed8d2	-2.2319837
129	0x3efc84c0	0.4932003
130	0x3f8dae7a	1.1068871
131	0x3e942b76	0.28939408
132	0x403f95f7	2.9935281
133	0xbfeb88de	-1.8401144
134	0xbfd0e97e	-1.6321256
135	0x3e00331f	0.12519501
136	0xbfcb18fe	-1.5867002
137	0x3f956431	1.1671201
138	0xbf383cd2	-0.71967804
139	0xbf63254f	-0.88728803
140	0x3fca1630	1.5788021
141	0xc0321d87	-2.7830522
142	0x3e6cf201	0.23139192
143	0xbff2fe07	-1.8983773
144	0x4011eb79	2.279997
145	0x3f7d8a68	0.99039316
146	0xc02d25ed	-2.7054398
147	0xc034c4f4	-2.824521
148	0xc03938b9	-2.894087
149	0xbea6523a	-0.3248461
150	0x40ab2aa8	5.348957
151	0xbf2e7bb6	-0.6815752
152	0x3f1d5c62	0.6146909
153	0xc0328985	-2.7896435
154	0xbfe99aa1	-1.8250314
155	0x402b3b33	2.6754882
156	0xc00634a3	-2.0969627
157	0xc0bce2d3	-5.9026885
158	0x3fab791a	1.3396332
159	0xc018a475	-2.3850377
160	0xbe9791c6	-0.29603404
161	0xbe3ad4e1	-0.1824527
162	0xbd1bb222	-0.038011678
163	0xbfa698a1	-1.3015329
164	0xbf5d7cf9	-0.8651882
165	0xc08d2fba	-4.412076
166	0xbfa3d567	-1.27995
167	0xbf4a538d	-0.7903374
168	0xc050f65c	-3.2650366
169	0xbe66b54e	-0.225301
170	0x3f802fed	1.0014626
171	0x409a0773	4.8134093
172	0x3f6ff7cd	0.9373749
173	0xbfed07df	-1.8518027
174	0x3fe5f17e	1.7964323
175	0xc0139f24	-2.3065882
176	0xbf7eedff	-0.99581903
177	0xc08ac2ef	-4.3362956
178	0x3f3b1b93	0.7308895
179	0xbf79dc3e	-0.9760169
180	0x403b2451	2.9240916
181	0x40270b9c	2.6100836
182	0xbfe1b329	-1.76328
183	0xbf784222	-0.9697591
184	0xbe21ddd7	-0.15807281
185	0xc048ea4b	-3.1393
186	0xbd1b7a80	-0.037958622
187	0xbff14bae	-1.8851221
188	0xbf9b8ea5	-1.2152907
189	0x3f700a5b	0.937658
190	0xc0261c9e	-2.5954967
191	0xc046f975	-3.1089756
192	0x3fea6c12	1.831423
193	0x3fae37f1	1.3610822
194	0xbfad9c40	-1.3563309
195	0x405a192d	3.4077866
196	0x3e978265	0.2959167
197	0x3f91cd9e	1.1390874
198	0x3fd3bc87	1.6541909
199	0xc082e16e	-4.0900183
200	0xbfb48354	-1.4102578
201	0xc058f978	-3.3902264
202	0x3e18ab1c	0.14909023
203	0x404a5594	3.1614733
204	0x3fdd28c0	1.7278061
205	0xc05698d8	-3.3530788
206	0x3f0fd986	0.5619129
207	0xc02d1e28	-2.7049656
208	0xbff79d26	-1.9344833
209	0xbfd2a936	-1.6457889
210	0x3f92a332	1.1456053
211	0xc0307023	-2.7568443
212	0xc03253b4	-2.7863588
213	0x3ffe43c0	1.9864426
214	0x3fad812a	1.3555043
215	0x403b4e1c	2.9266424
216	0xc03778b6	-2.8667426
217	0x3fade3d4	1.3585153
218	0x40380a5d	2.8756325
219	0xbffb2564	-1.9620786
220	0xc0c23f8e	-6.070258
221	0x4084b646	4.14725
222	0x4043fb20	3.0622025
223	0xbf13ed94	-0.5778439
224	0xc02fcc88	-2.7468586
225	0xc0000389	-2.0002158
226	0xc05a7645	-3.4134686
227	0xbf5f239a	-0.871637
228	0x3eefe3a3	0.4685336
229	0x3f9c2e55	1.220164
230	0xc00828ce	-2.1274905
231	0x3fc6711f	1.5503272
232	0xbf9e4ea1	-1.2367746
233	0xbffe1a3a	-1.9851754
234	0x3f93c477	1.1544331
235	0xbf111309	-0.5666967
236	0xbfe9af56	-1.8256633
237	0x3f904e71	1.1273938
238	0x3ce4cb63	0.027929014
239	0xbfccfd1b	-1.6014742
240	0x3f9874c7	1.1910638
241	0xbf45b190	-0.77224064
242	0xbf676d01	-0.904007
243	0xbe2a7941	-0.16647817
244	0x3d86cd0e	0.0658208
245	0x402eb6c2	2.7299047
246	0x40956be8	4.669422
247	0xbf3e4fdf	-0.74340624
248	0x404f1a46	3.2359786
249	0xc000402b	-2.0039165
250	0x40341284	2.81363
251	0xc0c3afec	-6.115225
252	0x4023722b	2.5538433
253	0xbef808b3	-0.48444137
254	0xc049192f	-3.142162
255	0x3fb7c3ea	1.4356663

hidden.0.bias f4 [50]
0	0xc0581dec	-3.3768263
1	0xbfa14d72	-1.260176
2	0xc0e928ca	-7.286229
3	0xbd5ef90c	-0.05443673
4	0x3ff4be2a	1.9120533
5	0x40389158	2.883871
6	0x4056b0f3	3.3545501
7	0x3eec885f	0.46197793
8	0x3ea284e5	0.31742015
9	0xc03c65fe	-2.943725
10	0x408d1b9e	4.4096212
11	0x3f84f0ec	1.0386024
12	0xbfb60371	-1.42198
13	0xc03bf53d	-2.9368432
14	0xbf4aa3b9	-0.7915607
15	0x3ff80eee	1.9379556
16	0xbd5d2730	-0.05399245
17	0x3ff06092	1.8779471
18	0xc08b20e9	-4.3477674
19	0xbfffb80b	-1.997804
20	0xbec840ac	-0.3911184
21	0xbfa84c9d	-1.314838
22	0xbf811a61	-1.0086175
23	0x40e1bfb6	7.054652
24	0x4097f6d9	4.748883
25	0xc037602c	-2.8652449
26	0x4097fdbf	4.749725
27	0xbe886cca	-0.266455
28	0x3f1f0000	0.62109375
29	0xc050dca1	-3.2634661
30	0xbff16668	-1.8859377
31	0x4039df9c	2.904273
32	0x40479d54	3.1189775
33	0xbfba127d	-1.4536892
34	0xc02b15cd	-2.6732056
35	0xc021a04a	-2.5254083
36	0x3f8fd91f	1.1238135
37	0x40849b67	4.14397
38	0x40b69fa4	5.7069874
39	0xbfab0fe8	-1.3364229
40	0x4017ff07	2.3749406
41	0x40a32640	5.098419
42	0x3f40154f	0.75032514
43	0xbee0ec9f	-0.43930528
44	0xc09c2048	-4.8789406
45	0x41149698	9.286766
46	0x408234f1	4.0689626
47	0x4096fe4d	4.7185426
48	0xbf7ef72a	-0.9959589
49	0x3f0a754d	0.54085237

hidden.1.weight f4 [50, 50]
0	0x40dd6fbd	6.91989
1	0xc025437f	-2.5822446
2	0xc0b9a101	-5.800904
3	0xbf10d0e0	-0.5656872
4	0xc0add303	-5.4320083
5	0xc0293ee3	-2.6444633
6	0xc1212876	-10.072378
7	0xc06d5414	-3.7082567
8	0xbfc7a224	-1.5596356
9	0x3f8740ab	1.056661
10	0xc1308236	-11.03179
11	0x4101e39c	8.118069
12	0x40478889	3.1177084
13	0x4115146b	9.317485
14	0xc09e708b	-4.951238
15	0xbf405309	-0.751267
16	0xbf7bbd77	-0.98335975
17	0x40837c94	4.1089573
18	0xc0164bee	-2.3483844
19	0x405fb63e	3.4954982
20	0xc027c7bd	-2.621566
21	0x41604701	14.017335
22	0x41090e2a	8.565958
23	0xbfb52077	-1.4150532
24	0xc064edb8	-3.5770092
25	0x40816875	4.044001
26	0xc08dc7a4	-4.43062
27	0xbf2bbace	-0.67081916
28	0xc15b9cc4	-13.725773
29	0x404554c0	3.0832977
30	0x41075cf6	8.460196
31	0xbf8ed7cf	-1.115961
32	0x3fb5b822	1.4196818
33	0x405685cc	3.3519163
34	0x3e3eaf02	0.18621448
35	0xbff2468f	-1.8927783
36	0xc0d46d77	-6.6383624
37	0x3e4df7c2	0.20114043
38	0x3e986218	0.2976234
39	0x4091b94d	4.5538697
40	0xc0a9f61a	-5.3112917
41	0x410410dc	8.254116
42	0xbfae415c	-1.3613696
43	0xbfc00657	-1.5001935
44	0x3fe5318d	1.7905747
45	0x4107e27f	8.492797
46	0x40abc802	5.368165
47	0xbf9aab96	-1.2083614
48	0x408cf16f	4.404472
49	0x41382b20	11.510529
50	0xc0cb2d9c	-6.3493176
51	0xbf367b0d	-0.7128151
52	0x40b0ae09	5.5212445
53	0xc042feec	-3.0468092
54	0x404ecdca	3.2313104
55	0x3f6db17e	0.92848957
56	0xc0de9697	-6.9558825
57	0x40cafa2a	6.3430376
58	0xc00536b9	-2.081465
59	0x3feb83c6	1.8399589
60	0x4087c938	4.243313
61	0xbef8797f	-0.48530194
62	0xbf118bed	-0.56854135
63	0x4013dc6f	2.3103292
64	0x4001885e	2.0239482
65	0xc132625f	-11.149016
66	0xc14a5c64	-12.647556
67	0xbfa60b50	-1.2972202
68	0x3ff2c097	1.8965024
69	0x401e3ceb	2.4724681
70	0x406cff3f	3.703079
71	0xc09f55f9	-4.9792447
72	0x3fddfad7	1.7342175
73	0x3f430ddf	0.7619304
74	0x4146a5bd	12.415463
75	0xc010e370	-2.2638817
76	0xbfbe27b0	-1.4855862
77	0x3feb481c	1.8381381
78	0xc0ee5c00	-7.4487305
79	0x412c2d5b	10.761073
80	0x4000bf77	2.011686
81	0x3f9bd4d6	1.2174327
82	0x3eee88e9	0.4658883
83	0x40c231c4	6.068575
84	0xc0c5c21d	-6.1799455
85	0xbff06625	-1.8781172
86	0x3e6d2dda	0.23162022
87	0x3fb568cf	1.417261
88	0x401d1d70	2.4549217
89	0x408fcc60	4.493698
90	0xc0f09234	-7.517847
91	0xc11919b1	-9.568772
92	0xc036c5cc	-2.8558226
93	0xc0aa024f	-5.312782
94	0x409280fb	4.5782447
95	0xc12badfd	-10.729978
96	0x40d6e9d0	6.7160416
97	0xc04dfb58	-3.2184658
98	0xbfc53f1f	-1.5409888
99	0xc064f492	-3.5774274
100	0x4052d337	3.2941415
101	0x40c65ef2	6.19909
102	0x4122b67b	10.169551
103	0x3f4f3d67	0.8095307
104	0xbb8246f6	-0.0039757444
105	0xc008b080	-2.1357727
106	0x3f972dc6	1.1810844
107	0xc0d16370	-6.5433884
108	0x3f2dd3cd	0.6790131
109	0x40980afb	4.7513404
110	0x4064e7f0	3.5766563
111	0xbf3684ec	-0.7129657
112	0x3fd587bb	1.6682047
113	0x4098e995	4.7785134
114	0x40cc6e07	6.388431
115	0xbfc138cb	-1.5095457
116	0x40a8d077	5.2754474
117	0xc06d7a9b	-3.7106082
118	0x4074a28a	3.8224206
119	0xc0635e41	-3.5526278
120	0xc0c82c7e	-6.255431
121	0x40bcb805	5.8974633
122	0x412f93e9	10.973611
123	0xc0a342ba	-5.1018953
124	0xc11eb863	-9.920016
125	0x40f86962	7.762864
126	0xc14d4f4e	-12.8318615
127	0xc0699467	-3.6496828
128	0xc0912250	-4.5354385
129	0xbf5729ef	-0.8404836
130	0x40a38267	5.1096683
131	0xc08ff015	-4.498057
132	0xc114dde7	-9.304175
133	0xc0bdc191	-5.9298787
134	0x40e99eb7	7.3006244
135	0x41341d02	11.257082
136	0xc01d621d	-2.4591134
137	0xc0ea060b	-7.3132377
138	0x408f49b3	4.4777465
139	0x3f96628b	1.1748823
140	0x40ab3d27	5.351215
141	0x403658f2	2.8491788
142	0xc046a6a3	-3.1039207
143	0x40672a75	3.6119664
144	0xc01c1c78	-2.4392376
145	0x3febd029	1.84229
146	0xbee36fb9	-0.44421175
147	0xc0af60c9	-5.4805646
148	0x402995a0	2.6497574
149	0xc0cefe17	-6.468517
150	0x3fa70f4a	1.3051541
151	0x3f8affdd	1.0859333
152	0xc0053202	-2.0811772
153	0xc02875c8	-2.6321888
154	0x404fc95d	3.2466652
155	0xc0509fb9	-3.2597487
156	0xc09dee0f	-4.93531
157	0x403ee650	2.9828072
158	0x3f15946b	0.5842959
159	0xc0d54d7a	-6.6657076
160	0x40b1ce4e	5.5564337
161	0x409f0d29	4.9703565
162	0x3efcea64	0.49397576
163	0x4196e54d	18.861963
164	0x409c9fe7	4.8945193
165	0x3f183dd0	0.5946932
166	0x40bb43e6	5.8520384
167	0xc117edcc	-9.495556
168	0xc06bb830	-3.683117
169	0x4008485e	2.129417
170	0xbfb3487b	-1.4006494
171	0x4046cbac	3.1061811
172	0xc010b9ad	-2.2613328
173	0x413f2de4	11.948704
174	0xbeb35af6	-0.35030335
175	0xc11ef039	-9.933648
176	0x3f515f94	0.81786466
177	0xbfbd6519	-1.4796478
178	0xbf07efdb	-0.53100365
179	0x4120e8dd	10.056851
180	0x408c0453	4.375528
181	0xc08954cb	-4.2916007
182	0xbf42b228	-0.76053095
183	0x3e5510e6	0.20807227
184	0x4106189c	8.381008
185	0x3fa3047c	1.2735744
186	0xbfa4f41d	-1.2886997
187	0x40655b28	3.5836887
188	0xc02cb2e6	-2.698419
189	0x40067713	2.1010177
190	0x40f0ef92	7.5292444
191	0xc1021114	-8.129169
192	0xbe477180	-0.1947689
193	0x40014bee	2.0202594
194	0x40e7d690	7.2449417
195	0x4065a11a	3.5879579
196	0xbf850333	-1.0391601
197	0xc0ac1a74	-5.378229
198	0x3e7106bf	0.2353773
199	0xc105737b	-8.340693
200	0x409d300e	4.912116
201	0xbffe5d6f	-1.9872264
202	0x4012a652	2.2914014
203	0xbe24aa8f	-0.16080688
204	0xc0b9c4ce	-5.805274
205	0xc0aebe5e	-5.460738
206	0xc082685b	-4.0752387
207	0xc025725a	-2.5851045
208	0xc0c257af	-6.0732036
209	0xc019154b	-2.3919246
210	0xbe71eee7	-0.2362629
211	0xbe313d51	-0.17308547
212	0xbfc1f521	-1.5152932
213	0xc03a23d7	-2.9084375
214	0x4192e6d1	18.362703
215	0x3fb90b28	1.445653
216	0xc0dde188	-6.9337807
217	0xc09e3247	-4.9436374
218	0xbfa8f4ac	-1.3199668
219	0x3efbe75d	0.49199954
220	0x40183723	2.3783653
221	0x3fd12362	1.6338923
222	0xc0a475ca	-5.1393785
223	0x40e7a183	7.238466
224	0x409c7470	4.8892136
225	0xc0f7fbc1	-7.7494817
226	0xc0bd8693	-5.9226775
227	0x410d84f9	8.844964
228	0x4103a0dd	8.226773
229	0xc06545f1	-3.582394
230	0xc0f4c92a	-7.649556
231	0x3f65531b	0.89579934
232	0xc08d43d5	-4.4145303
233	0x400d6356	2.209188
234	0xc04c4098	-3.1914425
235	0xc026f727	-2.608835
236	0xc0678b4a	-3.6178765
237	0x40f8bbb2	7.772912
238	0x4114df13	9.3044615
239	0xc07f24b0	-3.9866142
240	0xbfd5cde5	-1.6703459
241	0xc13e9bfc	-11.913082
242	0xc056a2d1	-3.3536875
243	0xbcce639d	-0.025193984
244	0x40fa5dba	7.823941
245	0x4119d199	9.613671
246	0xc00e31ab	-2.2217815
247	0xbfcf5ef5	-1.6200854
248	0xc0aba0fe	-5.3634024
249	0x3f9b4835	1.2131411
250	0x3dfb5091	0.12271226
251	0x3d6d8240	0.057985544
252	0x40e5875a	7.1727724
253	0x410c0e44	8.753483
254	0xc009ab12	-2.1510663
255	0xbf8b3fc9	-1.0878841

hidden.1.bias f4 [50]
0	0x407b12ef	3.9230306
1	0x3d8c57b8	0.068526685
2	0x40403ed3	3.0038345
3	0x4129c4ba	10.610529
4	0xc092eb29	-4.591206
5	0xc0a028f9	-5.0050015
6	0xc05fce57	-3.496969
7	0x409b69dd	4.856673
8	0xc02250c3	-2.5361793
9	0xc12eb52f	-10.919234
10	0xbf4dbe3f	-0.8036842
11	0x408033c6	4.00632
12	0x3f6603da	0.89849627
13	0x4035b373	2.8390777
14	0x4059ac9e	3.4011607
15	0x4151095b	13.064784
16	0x40738bbc	3.8054037
17	0xc1888e06	-17.069347
18	0xc074f041	-3.827164
19	0x40ce7881	6.45221
20	0xbfd94179	-1.6973106
21	0x3f028a29	0.50992066
22	0xc03f7f4e	-2.992145
23	0x414098a5	12.037267
24	0x3f1c22d7	0.6099066
25	0x4072dde6	3.7947936
26	0xc14dc013	-12.859393
27	0xc12f9fa4	-10.976475
28	0xbf8ff5ee	-1.1246927
29	0xc04bcf63	-3.1845329
30	0xc1908d16	-18.06889
31	0xc0dfbf3f	-6.9920955
32	0xbfd50cda	-1.6644547
33	0xc0a1dd90	-5.058296
34	0xc078f4a3	-3.8899314
35	0x4108b7df	8.54489
36	0x3e211b74	0.15733129
37	0xc11a1aa6	-9.631506
38	0xc06f02e0	-3.7345505
39	0xbf3c9d59	-0.73677593
40	0x4049b433	3.1516235
41	0x4145dc8b	12.3663435
42	0xc14aad88	-12.667366
43	0x41291521	10.567658
44	0xc02a71a9	-2.6631873
45	0xbfb05143	-1.3774799
46	0xc08c0b0a	-4.3763475
47	0x40da91e4	6.830309
48	0x4143cbfc	12.237301
49	0x414a6361	12.649262

output_layer.weight f4 [49, 50]
0	0xbdd023aa	-0.101630524
1	0xbd5bd592	-0.053670473
2	0xbe355e47	-0.17711745
3	0xbe0894d2	-0.1333802
4	0xbd7f1291	-0.062273566
5	0x3cca66d7	0.024707241
6	0x3e2a45f5	0.16628249
7	0x3d937fa4	0.0720208
8	0xbdafdcb1	-0.085870154
9	0x3cc88baf	0.024480669
10	0xbdd6a29a	-0.104802325
11	0xbea37dc0	-0.31931877
12	0x3e20ccb5	0.1570309
13	0x3d0165bc	0.031591162
14	0xbd43ce8a	-0.047804393
15	0x3e011bf5	0.12608321
16	0x3da24fa0	0.079253435
17	0xbd51f6b5	-0.05126067
18	0xbdc35d20	-0.095392466
19	0x3dd74cdb	0.10512706
20	0xbe03b4fc	-0.12862009
21	0xbc461fc2	-0.012092533
22	0x3e16bdbc	0.14720815
23	0x3e71cd50	0.23613477
24	0x3d96717c	0.07345864
25	0xbe93eb20	-0.28890324
26	0xbe9140d5	-0.28369775
27	0xbd96e7df	-0.07368445
28	0x3db3881a	0.08766194
29	0x3d2b219c	0.0417801
30	0xbe2f6a20	-0.17130327
31	0xbdefc880	-0.11708164
32	0x3df7835f	0.12085604
33	0xbde7ea71	-0.11324013
34	0xbe43138a	-0.19050422
35	0x3e2637fc	0.16232294
36	0x3e8dca52	0.2769342
37	0x3c2f0f06	0.010684734
38	0x3c62032a	0.0137947
39	0xbd80d1fc	-0.06290051
40	0xbe43e9e9	-0.19132198
41	0xbc09c56d	-0.008408886
42	0x3c138471	0.009003744
43	0x3e466af4	0.19376737
44	0xbe29f4b0	-0.16597247
45	0x3c1bef06	0.009517437
46	0xbe06e493	-0.13173132
47	0xbcb8993a	-0.022534002
48	0xbd92af01	-0.071622856
49	0xbb5cad3d	-0.0033672594
50	0xbde8e065	-0.11370925
51	0x3d445aae	0.04793804
52	0xbe6a3566	-0.22871932
53	0xbe2cb21a	-0.16864815
54	0xbcf12862	-0.029438201
55	0x3d633e10	0.05547911
56	0x3e9e77af	0.30950686
57	0x3e488249	0.1958095
58	0xbdb9c06d	-0.090699054
59	0x3ca3946a	0.01996823
60	0xbe2fae6f	-0.17156385
61	0xbe7975c9	-0.24361338
62	0x3e09cbf5	0.1345671
63	0x3d514e29	0.05109993
64	0xbc4a88d0	-0.01236172
65	0x3e8d525e	0.27601904
66	0x3dcfcc5b	0.101463996
67	0xbd244067	-0.04010048
68	0xbd048ccd	-0.03236084
69	0x3dbff8b5	0.09373609
70	0xbe0957af	-0.13412355
71	0x3d67a623	0.056554925
72	0x3d9e95d6	0.07743423
73	0x3e032b01	0.12809373
74	0x3deb7a02	0.114978805
75	0xbe514209	-0.20435347
76	0xbe633eb7	-0.22191893
77	0xbda6eb09	-0.08150298
78	0x3e2bf21c	0.16791576
79	0x3da3b09a	0.079926684
80	0xbe8484f9	-0.258827
81	0xbe3b0d57	-0.18266807
82	0x3dbd534a	0.09244402
83	0xbd70dd45	-0.05880477
84	0xbe3776d2	-0.1791642
85	0x3df49b72	0.11943711
86	0x3e82a5d2	0.25517136
87	0x3df037c6	0.11729388
88	0xbde77e05	-0.11303333
89	0xbe205576	-0.15657601
90	0xbe467d04	-0.19383627
91	0x3d3958fc	0.045250878
92	0x3c782f3e	0.015147982
93	0x3da2e1f3	0.07953253
94	0xbe537951	-0.20651747
95	0xbb112cc0	-0.0022151917
96	0xbe320940	-0.17386341
97	0xbdaebd9a	-0.085322574
98	0xbc89bf40	-0.016814828
99	0xbdd5519b	-0.10415956
100	0xbe346419	-0.17616309
101	0xbb785c12	-0.0037896675
102	0xbe6c677d	-0.23086353
103	0xbe8004d3	-0.2500368
104	0xbce8fbdc	-0.028440408
105	0xbb59488a	-0.003315481
106	0x3e56b063	0.20965724
107	0x3e698624	0.22805077
108	0xbdc73c6d	-0.09728322
109	0x3dc9ce6f	0.09853827
110	0xbe0a931e	-0.13532683
111	0xbe8b998c	-0.27265584
112	0x3d868280	0.0656786
113	0xbccd7ae8	-0.02508302
114	0xbdc588b3	-0.09645214
115	0x3e06c282	0.13160136
116	0xbdac8708	-0.08424193
117	0xbd84854b	-0.06470736
118	0x3ccd76ae	0.025081005
119	0xbc2be68d	-0.010491979
120	0xbd0acebd	-0.033888567
121	0x3d15f720	0.03661263
122	0x3cd2e722	0.025744978
123	0x3e209943	0.15683465
124	0x3e3ee6c8	0.18642724
125	0xbe4f356f	-0.20235227
126	0xbe894dba	-0.26817113
127	0xbe0cca1e	-0.13748977
128	0x3d50e28a	0.050997294
129	0x3d22a548	0.039708406
130	0xbe897272	-0.26845127
131	0xbe1da8d4	-0.15396434
132	0x3c978759	0.018497156
133	0xbc9ead4f	-0.01936975
134	0xbea417e1	-0.32049468
135	0x3e56e50c	0.20985812
136	0x3eb10b67	0.34579012
137	0x3d949e96	0.0725681
138	0x38c06500	9.174086e-05
139	0xbe16890c	-0.14700717
140	0xbe4045da	-0.18776646
141	0x3cbf936f	0.023385732
142	0xbdf7cc91	-0.12099565
143	0x3dee3efc	0.11633107
144	0xbe79ae75	-0.24382956
145	0xbd8f7bc7	-0.070060305
146	0xbe3213f2	-0.17390421
147	0xbe4afc82	-0.19822887
148	0x3a9477fa	0.001132726
149	0xbdd4119c	-0.10354921
150	0xbd0401b6	-0.032228194
151	0xbd670278	-0.05639884
152	0xbe90a523	-0.2825099
153	0xbe2c9ea1	-0.16857387
154	0xbd058fdb	-0.032607894
155	0x3d3e40a4	0.046448365
156	0x3e4af317	0.19819294
157	0x3e0ce12c	0.13757771
158	0xc0170ade	-2.3600383
159	0x3e20459f	0.15651558
160	0xbe09cc07	-0.13456737
161	0xbe780536	-0.24220738
162	0x3e7d6999	0.24747314
163	0xc00aafd3	-2.1669815
164	0xbd6be4a8	-0.05759111
165	0x3e54b608	0.20772564
166	0x3d5d66bb	0.05405305
167	0xbe18db1b	-0.14927332
168	0xbdc08148	-0.093996584
169	0x3dd667f8	0.10469049
170	0xbe4acf0d	-0.19805546
171	0xbe01e74e	-0.12685892
172	0xbcd19b3c	-0.025586717
173	0x3d96e935	0.073686995
174	0x3d9e0278	0.077153146
175	0xbe169f4b	-0.14709203
176	0xbdeed796	-0.116622135
177	0xbe85b965	-0.26118007
178	0x3e27a37f	0.16370963
179	0xbd825ec4	-0.06365731
180	0xbe2060d4	-0.15661937
181	0xbd7eae74	-0.06217809
182	0x3e752aca	0.23942104
183	0xbdc843c0	-0.09778547
184	0xbe79f170	-0.24408507
185	0x3e06d58c	0.13167399
186	0x3e45e66b	0.19326179
187	0x3d6725c8	0.056432515
188	0x3c03328c	0.008007657
189	0xbdc5a62b	-0.09650835
190	0xbe8784ea	-0.26468593
191	0x3da7cc33	0.08193245
192	0x3d179f77	0.037017312
193	0x3e61419e	0.21997687
194	0xbe4ad6cc	-0.19808501
195	0xbd1d61a4	-0.038423195
196	0x3b118940	0.0022207052
197	0xbe3c9940	-0.18417835
198	0xbcf1de6b	-0.029525002
199	0xbcbb2b57	-0.022847814
200	0xbdbd0fad	-0.092315055
201	0xbdd1d1ba	-0.1024508
202	0xbe34de58	-0.17662942
203	0xbd75958c	-0.059957072
204	0x3da3cb3f	0.079977505
205	0xbdfba648	-0.12287575
206	0x3db96437	0.090523176
207	0x3d6b5b78	0.05746028
208	0xbcc05680	-0.023478746
209	0x3dca91e6	0.09891109
210	0x3c235f31	0.009971426
211	0xbe47c490	-0.19508576
212	0x3e67f18a	0.22650734
213	0x3dff9f53	0.124815606
214	0xbdebef4a	-0.1152025
215	0x3e0747ec	0.1321103
216	0x3d9a431b	0.075323306
217	0xbe147a73	-0.14499836
218	0xbdedc317	-0.11609476
219	0x3dda8810	0.10670483
220	0xbcdef9ee	-0.027218785
221	0xbe293fb8	-0.16528213
222	0x3dd1a3fc	0.10236356
223	0x3ea5732e	0.32314438
224	0x3d8d10db	0.068879806
225	0xbeb45142	-0.35218245
226	0xbe94a10c	-0.2902912
227	0xbdedb006	-0.116058394
228	0x3e619eb1	0.22033192
229	0x3cf41c2e	0.029798593
230	0xbd9c1a97	-0.07622259
231	0x3d12cce4	0.03583993
232	0x3e27534f	0.16340373
233	0xbe4d0c49	-0.20024218
234	0xbd206f88	-0.039168864
235	0x3e0b2bb3	0.13590889
236	0x3e39eeda	0.18157521
237	0x3e1dc777	0.15408121
238	0x3d85d64d	0.06535015
239	0x3d0d884d	0.034553815
240	0xbee156eb	-0.44011626
241	0xbd5cb01d	-0.053878892
242	0x3e160772	0.14651278
243	0x3e87f776	0.26555985
244	0xbe861e04	-0.26194775
245	0xbd41b138	-0.04728815
246	0xbdc88e3a	-0.097927526
247	0x3d74756c	0.059682295
248	0xbd829b76	-0.06377308
249	0xbdd45c4d	-0.103691675
250	0xbdffcef5	-0.12490646
251	0xbdd5c387	-0.104376845
252	0xbe75f392	-0.24018696
253	0xbd9c8371	-0.07642258
254	0x3e4776c4	0.19478899
255	0x3d9e4b98	0.07729262

output_layer.bias f4 [49]
0	0x3ec36986	0.38166445
1	0x3eceeb94	0.40414107
2	0x3ee30368	0.44338536
3	0x3efeb5e7	0.49748155
4	0x3f066807	0.52502483
5	0x3ea7a8c8	0.32745957
6	0x3ea38c7f	0.31943128
7	0x3ec51d17	0.38498756
8	0x3f03828b	0.5137107
9	0x3f050fc1	0.51977164
10	0x3eb51688	0.35368752
11	0x3e8c036b	0.27346358
12	0x3e6a695f	0.22891758
13	0x3ec62a12	0.38703972
14	0x3eedec7f	0.46469495
15	0x3ecbf487	0.39834997
16	0x3e6013bb	0.21882527
17	0x3eb999c8	0.36250138
18	0x3f003b0e	0.5009011
19	0x3ee9245e	0.45535558
20	0x3e5d95f4	0.21639234
21	0x3f0f003d	0.5585974
22	0x3eb7a461	0.358676
23	0x3e1e6f36	0.15472111
24	0x3e9d76eb	0.3075479
25	0x3e2cb203	0.16864781
26	0x3eafdd8f	0.34348723
27	0x3e86d9f5	0.26338163
28	0x3ea5fe11	0.324204
29	0x3ede1a25	0.43379322
30	0x3ec2043f	0.37893865
31	0x3ea8506b	0.32873854
32	0x3e6e0c7f	0.23246954
33	0x3eb9e95d	0.36310855
34	0x3ea0b646	0.31389064
35	0x3ef62334	0.48073733
36	0x3eae6bca	0.34066612
37	0x3eb867c9	0.36016682
38	0x3f11d1db	0.5696084
39	0x3eb2e23f	0.34938237
40	0x3ecc1e95	0.39867082
41	0x3ed21462	0.41031176
42	0x3e4baec5	0.19890888
43	0x3eaea5a6	0.34110755
44	0x3ebb3bed	0.36569157
45	0x3ee8a53b	0.4543856
46	0x3ed0b415	0.40762392
47	0x3ec5b34e	0.3861336
48	0x3ecab987	0.3959467
