models/2600episodes/450episodes.pth (torch, 43824 bytes, 8 tensors)

input_layer.weight f4 [50, 50]
0	0x40aec21b	5.4611945
1	0x3f1a89f5	0.60366756
2	0xbfc167e2	-1.5109828
3	0x3f024117	0.5088057
4	0x4067d8f6	3.6226172
5	0x3f9c6a4f	1.2219943
6	0x3e507456	0.20356879
7	0x3cd6d967	0.026226712
8	0x4025ff53	2.5937088
9	0x4006aece	2.1044192
10	0xbf66007b	-0.89844483
11	0x3fca1c69	1.578992
12	0x3e303621	0.17208149
13	0x40851297	4.1585193
14	0xbf0be992	-0.54653275
15	0xbf734a83	-0.9503557
16	0x3e50261a	0.20327035
17	0xc082af1e	-4.0838766
18	0xc030d447	-2.7629564
19	0xc05113e6	-3.2668395
20	0xc02d8c5c	-2.7116919
21	0x3fa5cf8c	1.2953963
22	0xbfef49d1	-1.8694402
23	0x3ea4bf5d	0.3217725
24	0xc08e4c1a	-4.4467897
25	0xbdb59c87	-0.08867746
26	0xbea54481	-0.32278827
27	0xbd02ebc2	-0.031963117
28	0xc0ac4e2e	-5.3845434
29	0xc033e7be	-2.8110194
30	0x3f711e41	0.9418679
31	0xc017db8c	-2.372775
32	0xbfd3dbe9	-1.6551486
33	0x4011b02b	2.2763774
34	0xbf16802b	-0.5878932
35	0xc0838600	-4.1101074
36	0xc04fcd8f	-3.2469213
37	0x4035d482	2.8410954
38	0xc0505c16	-3.2556205
39	0xc06634b0	-3.5969658
40	0xbe7ea01f	-0.24865769
41	0x3fef92e8	1.8716707
42	0xbe682e7c	-0.22673982
43	0xc00b3257	-2.1749475
44	0x3f9e46fd	1.2365414
45	0x3f2a4939	0.6651798
46	0xc0034120	-2.05085
47	0xbe3c2631	-0.18373944
48	0xc07e8332	-3.9767575
49	0xbe1324ec	-0.14369553
50	0x3fa0159c	1.2506595
51	0x3ea06022	0.31323344
52	0xc0dcdcac	-6.9019375
53	0x40100e07	2.2508562
54	0xbf8a18eb	-1.0788854
55	0xc0bb712c	-5.857565
56	0xbf8dc4e9	-1.1075717
57	0x3e95f6cb	0.2928985
58	0x401baf4c	2.4325743
59	0xbfd9d963	-1.7019466
60	0xbfec499a	-1.8459961
61	0x3f3b27e5	0.7310775
62	0x3f7d1435	0.9885896
63	0xc0604e77	-3.504789
64	0xc05ec47c	-3.4807425
65	0xbf99795b	-1.199016
66	0x3ffd9547	1.9811181
67	0x3fd66093	1.6748222
68	0x4064dc12	3.575932
69	0xc018b8da	-2.3862824
70	0x408f21a9	4.472859
71	0x3f725fce	0.94677436
72	0x3e8e4dc7	0.27793714
73	0x3f9749d5	1.1819407
74	0x407258fc	3.7866812
75	0x409782e4	4.734728
76	0xbfe25431	-1.7681943
77	0xbfc394e8	-1.5279818
78	0xc00f12bd	-2.2355187
79	0xbe65b86a	-0.2243363
80	0xc0263a70	-2.5973167
81	0x3dce29a0	0.10066533
82	0xc08e0999	-4.4386716
83	0xc09474cd	-4.639258
84	0x400f705a	2.2412324
85	0x402c06e5	2.6879208
86	0xbe4b1b62	-0.19834664
87	0x4056165d	3.345115
88	0x3fab73a7	1.3394669
89	0x3ffc2593	1.9698967
90	0xc095c354	-4.680094
91	0x3fce3b33	1.6111816
92	0xc0847bb7	-4.140102
93	0xbf52d7a7	-0.8236031
94	0xc011412e	-2.2696033
95	0x408d8a7e	4.423156
96	0xc03ca685	-2.9476635
97	0xbf1944cc	-0.598706
98	0xbf176045	-0.5913127
99	0x3e8c8c80	0.27450943
100	0x3e509cbe	0.20372292
101	0xbe9a8e39	-0.30186632
102	0x406b0d96	3.6727042
103	0x4073bcdc	3.808402
104	0x40300b19	2.7506773
105	0x3f7716ee	0.9651936
106	0x4063915c	3.555747
107	0xc043bd33	-3.0584228
108	0x400a846b	2.1643322
109	0x40a3fed6	5.124858
110	0xc00d039e	-2.2033458
111	0x408a1760	4.3153534
112	0x401df4f7	2.4680765
113	0x3f2e8214	0.68167233
114	0x3f68fb15	0.9100812
115	0xbf8e2d60	-1.1107597
116	0xbed08bfc	-0.407318
117	0x4091ed2c	4.5602016
118	0x3e0b4f30	0.13604426
119	0x404637fe	3.0971675
120	0xbf15d24a	-0.58524
121	0x4065022e	3.578258
122	0x3f1b690b	0.6070716
123	0xc08f331a	-4.474988
124	0xc0c80614	-6.250742
125	0xc0d53828	-6.663105
126	0xc08f462e	-4.477317
127	0xc01ba2ee	-2.4318194
128	0x40a412a8	5.1272774
129	0x3fc0a4ef	1.5050334
130	0xbf7c2fc2	-0.9851037
131	0xbfc493ac	-1.5357566
132	0xbfe4070f	-1.7814654
133	0x406a4974	3.6607332
134	0xc02b825b	-2.6798313
135	0x3f21c293	0.6318752
136	0x3c18afe8	0.009319283
137	0x3f72dfac	0.94872546
138	0x3f532a7f	0.8248672
139	0xbf578e0c	-0.8420112
140	0x40637de2	3.5545583
141	0x4035fecc	2.8436766
142	0xbf5a1368	-0.8518586
143	0x3f253215	0.64529544
144	0xbda9cbef	-0.0829085
145	0x409443ce	4.633277
146	0x3fe8a6ac	1.8175864
147	0xc0519147	-3.274492
148	0x3fe5b4dc	1.7945819
149	0x3f75bcb8	0.95991087
150	0xbf73888f	-0.95130247
151	0xbfcf72b7	-1.6206883
152	0x4007807a	2.1172166
153	0x40769845	3.8530438
154	0x3fdfb83a	1.7478096
155	0x40820e0d	4.064215
156	0xbe9b593e	-0.30341524
157	0xbf75d89c	-0.96033645
158	0xc03267d1	-2.7875865
159	0xbee03321	-0.43789008
160	0xc001c407	-2.0275896
161	0x4011375f	2.2690046
162	0xbfa2b7b0	-1.2712307
163	0xbf465246	-0.7746929
164	0xbfda8c7b	-1.7074121
165	0x40156c3a	2.3347306
166	0xbf88ef6c	-1.0698066
167	0x3fb64826	1.4240768
168	0x3da43090	0.08017075
169	0x406e1f44	3.7206583
170	0x4029f845	2.6557782
171	0x3eb3652b	0.35038123
172	0xc0756086	-3.8340163
173	0x40121a08	2.2828388
174	0xbf2149d1	-0.6300326
175	0xc08d6bcb	-4.4194083
176	0x409a8943	4.8292556
177	0xbfe00bcd	-1.7503601
178	0x3f83d713	1.030001
179	0xc0656a43	-3.5846107
180	0x3f7e76bf	0.9939994
181	0xbff3bf70	-1.9042797
182	0xbeba853a	-0.3642977
183	0xbf25c1ba	-0.6474873
184	0x40679b98	3.6188717
185	0x406db4d1	3.7141612
186	0xbfe45dcf	-1.7841128
187	0x3cdaf177	0.026726468
188	0xbf70e3f0	-0.94097805
189	0x409138b1	4.5381703
190	0xc043c312	-3.0587811
191	0x3fc17f8d	1.511705
192	0xbda97167	-0.08273583
193	0x402f94e7	2.7434633
194	0xc01a9278	-2.4151897
195	0x3f1ea102	0.6196443
196	0x40826dff	4.0759273
197	0x409673a3	4.701616
198	0x40b66588	5.699894
199	0x3ff70b93	1.9300407
200	0x4008a482	2.1350408
201	0xbf633ccf	-0.8876466
202	0x401ee5b0	2.482769
203	0x3fb9d5dd	1.4518391
204	0x3fd58753	1.6681923
205	0x40000c52	2.000752
206	0x3fa097c8	1.254632
207	0x40f0b033	7.5215087
208	0xbf165ddc	-0.5873697
209	0x409f4e70	4.978325
210	0x3e7894cb	0.2427551
211	0xc0741636	-3.8138556
212	0x3fb5066c	1.4142585
213	0xbf02be5e	-0.5107173
214	0xbd7ce43e	-0.061741106
215	0x40571904	3.3609018
216	0x3f97eeac	1.1869712
217	0xbef90df5	-0.4864346
218	0xc0833760	-4.1005096
219	0xbde11bf1	-0.109916575
220	0xc0a0aa3f	-5.020782
221	0x40b6460a	5.6960497
222	0xbfb309ba	-1.3987343
223	0x3fbeea0d	1.4915177
224	0xbf83f8c2	-1.031029
225	0x3df05b4b	0.11736163
226	0x40336957	2.8033044
227	0x40c344c0	6.1021423
228	0x3ff4574e	1.9089143
229	0x4020a19f	2.5098646
230	0x3ff80750	1.9377232
231	0xbdad643b	-0.08466383
232	0x3f4e0061	0.8046933
233	0xc0636bb3	-3.5534484
234	0xc0b4c2e1	-5.648789
235	0xbfbf8aa8	-1.496419
236	0x3f828d68	1.0199404
237	0xc0981938	-4.7530785
238	0xbfbae9c0	-1.4602585
239	0x4044b04d	3.0732605
240	0xc0066849	-2.100115
241	0xc084c663	-4.149217
242	0xbf77790a	-0.96669066
243	0xbf3ee2d2	-0.7456485
244	0x40b04604	5.508547
245	0xbef7b333	-0.48378906
246	0x408b98c7	4.3623996
247	0xbc98ec6e	-0.018667426
248	0xbf3cb731	-0.7371703
249	0xbffed39c	-1.9908328
250	0x402403d0	2.5627327
251	0x3e00de71	0.12584855
252	0xc0c60cf3	-6.1890807
253	0xc08ac43c	-4.3364544
254	0x403ac168	2.9180546
255	0xc05232fa	-3.2843614

input_layer.bias f4 [50]
0	0xbf30de37	-0.6908907
1	0xc04c5a08	-3.192995
2	0xbe1c5bd5	-0.15269406
3	0xc0194a84	-2.395173
4	0x3f65a344	0.8970225
5	0x4033adcd	2.807483
6	0x3c8dfcbe	0.01733243
7	0x3f3fd4e3	0.74934214
8	0x3f17cad3	0.5929386
9	0x4020f19c	2.5147467
10	0x40047ba4	2.0700464
11	0xbfc95d22	-1.5731547
12	0x3fe781d9	1.8086501
13	0xbf944a14	-1.1585107
14	0x4082f6f4	4.0926456
15	0x3fc4852d	1.5353142
16	0x3e98759b	0.29777226
17	0xbfcc5cce	-1.5965822
18	0xbfd503c5	-1.6641775
19	0xbf2795b8	-0.6546283
20	0xbf6281fb	-0.88479584
21	0xc069ea89	-3.65494
22	0x403e019f	2.968849
23	0xc01af89a	-2.4214234
24	0xbf0f2d63	-0.5592863
25	0x3ff7fc32	1.9373839
26	0xbfefc26c	-1.8731208
27	0x3e105cbc	0.14097875
28	0x40178bb4	2.3679018
29	0xbff4eca0	-1.9134712
30	0x4001d943	2.0288856
31	0xc010af83	-2.2607124
32	0x3d821ebf	0.063535206
33	0xbf4c1399	-0.79717404
34	0xc02e37ef	-2.722164
35	0x3fcf50a4	1.6196485
36	0x4083ee76	4.122859
37	0xbf0c29d3	-0.5475132
38	0x3fa0b4fb	1.2555231
39	0x4077f5a8	3.8743687
40	0xbfb69a61	-1.4265863
41	0x3fd3dd15	1.6551844
42	0xbddf4286	-0.1090136
43	0xc031b053	-2.776387
44	0x3e4df5c4	0.20113283
45	0xbf597d86	-0.8495716
46	0xbe332a87	-0.17496692
47	0xc0416d39	-3.0222914
48	0x3f9c863f	1.2228469
49	0xbf79bbff	-0.97552484

hidden.0.weight f4 [50, 50]
0	0x3fffab71	1.9974195
1	0x3fa514b4	1.2896943
2	0xbf55868b	-0.8340842
3	0x3f00ec88	0.5036092
4	0xbff29e12	-1.8954489
5	0xbf1e92c6	-0.6194271
6	0x3f780d62	0.9689542
7	0xc08c3940	-4.3819885
8	0x404b7647	3.179094
9	0x3f8dbba7	1.1072892
10	0xc02b3f38	-2.6757336
11	0x3d440988	0.047860652
12	0x3f6da0d3	0.92823523
13	0x3f32a7fa	0.6978756
14	0x408387a9	4.11031
15	0x403d5d67	2.9588258
16	0x40250b29	2.5788062
17	0x407e2943	3.9712684
18	0xc09fdfa9	-4.9960523
19	0x40614fb5	3.52049
20	0xc0a5b0b4	-5.17782
21	0xc03c9660	-2.9466782
22	0xc083abb7	-4.1147113
23	0x40a31842	5.096711
24	0x3f925966	1.1433532
25	0xbf90b501	-1.1305238
26	0xbfcb89fd	-1.5901486
27	0xc07bc9db	-3.9341953
28	0xbfbc8d45	-1.4730612
29	0x3f9d5b88	1.2293558
30	0x3f08e60e	0.53476036
31	0xbef10b5c	-0.4707898
32	0xc0a60832	-5.1885004
33	0x4043fa64	3.0621576
34	0x3fd2b07e	1.6460111
35	0x402aff2e	2.671825
36	0x3fd68137	1.6758183
37	0x3f12d3f3	0.5735466
38	0xbf5daa33	-0.8658783
39	0x402ba5f5	2.6820042
40	0xbf44e2e6	-0.7690872
41	0xbffeba8b	-1.9900678
42	0xc08d3b6a	-4.4135027
43	0x3f30c245	0.6904643
44	0x40088737	2.1332529
45	0xc04aed6d	-3.1707413
46	0x40bdc0d0	5.9297867
47	0xbf5bbe1f	-0.85836977
48	0xc0121df3	-2.283078
49	0xc02b66d8	-2.678152
50	0x400cc562	2.1995473
51	0x3fbb237f	1.4620208
52	0x408f5027	4.478534
53	0x400175ea	2.022822
54	0xbfd7b87a	-1.6853173
55	0xc00d41c0	-2.207138
56	0x4006ae12	2.1043744
57	0xc046e4ba	-3.1077104
58	0xbfcc6a19	-1.5969878
59	0x3e69ce4f	0.22832607
60	0x3f3ba549	0.7329908
61	0xbf1930fe	-0.5984038
62	0xbff5da76	-1.9207294
63	0xbfe2fa2f	-1.77326
64	0xbeb0956c	-0.34489
65	0xbca9f1d6	-0.0207452
66	0xbe5bca39	-0.2146386
67	0xbe67e567	-0.22646104
68	0xbfc7e41d	-1.561649
69	0xbfbe1f8c	-1.4853377
70	0xbf453352	-0.77031434
71	0x3f924386	1.1426857
72	0x3e682839	0.22671594
73	0xc0801f88	-4.003849
74	0x409f8dc9	4.9860578
75	0xbf54336c	-0.82890964
76	0xbdee9c59	-0.11650915
77	0x3ccea972	0.025227282
78	0x4028c291	2.6368754
79	0xbfdbe8ef	-1.7180461
80	0xc0acf57b	-5.404966
81	0x3fbd3fb7	1.4785069
82	0x3fd4c8d9	1.6623794
83	0xbf1a2f01	-0.6022797
84	0xc0a1d181	-5.056824
85	0xc00d40fb	-2.207091
86	0x3f454bcd	0.7706879
87	0x400ff22b	2.2491558
88	0x40a3adf2	5.1149836
89	0x3e256a86	0.16153917
90	0x3fedc6e8	1.8576326
91	0x4111a40a	9.102549
92	0xc06b6278	-3.677885
93	0x4074d2ca	3.8253655
94	0xbf1087c0	-0.5645714
95	0x3f5bd5fb	0.85873383
96	0xc00cdaff	-2.2008665
97	0x3e912fb9	0.28356722
98	0x3f939420	1.1529579
99	0x40a94945	5.290194
100	0xc07e8f11	-3.977482
101	0xbfeb35be	-1.8375776
102	0x3fc20615	1.5158106
103	0x3ff0c145	1.8808981
104	0x404cca61	3.1998522
105	0xc0a2d306	-5.0882597
106	0x3f0653c3	0.5247156
107	0x3fa45749	1.2839137
108	0x408fc8ca	4.4932604
109	0x3febb01b	1.8413118
110	0x3fb99853	1.4499611
111	0x3fd6567b	1.6745142
112	0xbf93ae61	-1.1537591
113	0x4010bac7	2.2614
114	0xc08dafb6	-4.427699
115	0xc0159ccd	-2.3376954
116	0x3fe4934b	1.785745
117	0xc065c009	-3.589846
118	0xbfa41531	-1.2818967
119	0xbf92301f	-1.1420935
120	0x40414c8a	3.0202966
121	0x3ff5a4df	1.919094
122	0xc0027b8f	-2.0387914
123	0xbf9ff0ce	-1.2495363
124	0xc0514f24	-3.2704554
125	0xc018979c	-2.3842535
126	0x40b1fea8	5.562336
127	0x407dff6d	3.968715
128	0xc04bde0e	-3.1854281
129	0x3f5523bd	0.8325766
130	0x40358a74	2.8365755
131	0x3f44a8c5	0.7682002
132	0x403e2bb6	2.971418
133	0xbfee59d0	-1.8621159
134	0xbf930186	-1.148484
135	0xbf62d952	-0.88612854
136	0xbfdb86c3	-1.7150501
137	0xbacea748	-0.0015766406
138	0xbfbedb9a	-1.4910767
139	0xbf83f446	-1.0308921
140	0x3fb8640d	1.4405533
141	0xc050bf66	-3.261682
142	0xbe804af4	-0.25057185
143	0xc019b8da	-2.4019074
144	0x403954f7	2.8958108
145	0x3fae6d8c	1.3627181
146	0xc02e7a4d	-2.7262146
147	0xc0725abe	-3.7867885
148	0xc02d2663	-2.705468
149	0xbf5f380a	-0.87194884
150	0x40e82e8b	7.2556815
151	0xbfd87e1d	-1.6913487
152	0x3fb67a4f	1.4256076
153	0xc03b4079	-2.92581
154	0xc05f40cf	-3.4883306
155	0x4031a90a	2.7759423
156	0xc009cdb4	-2.1531801
157	0xc102fbfa	-8.186518
158	0x4025fbe6	2.5934997
159	0xbff6a575	-1.9269243
160	0xbf609dfe	-0.87741077
161	0xbf153494	-0.5828335
162	0xbf2bb117	-0.6706709
163	0xc006661b	-2.099982
164	0xbfaa74a1	-1.3316842
165	0xc0da1ec9	-6.816258
166	0x3f175744	0.5911753
167	0xbf77b625	-0.96762305
168	0xc09c6d06	-4.8883085
169	0xbed8b021	-0.42321876
170	0x40127055	2.2881062
171	0x4084a18c	4.14472
172	0x3f7265db	0.9468667
173	0x3edbc39a	0.4292267
174	0x40143749	2.3158743
175	0xc056b065	-3.3545163
176	0x3e26041a	0.16212502
177	0xc04a2d04	-3.1589975
178	0x3ef3fc9f	0.47653672
179	0xc045a021	-3.0878985
180	0x40874a35	4.2278085
181	0x40099066	2.1494384
182	0xc02bdc7c	-2.6853323
183	0xbfd8b5f8	-1.6930532
184	0x3cd84250	0.026398808
185	0xc03b61ff	-2.9278562
186	0xbeb040d6	-0.34424466
187	0xc0408011	-3.0078166
188	0xbfb6f627	-1.429387
189	0x3f57f5e1	0.84359556
190	0xbf5e0b87	-0.8673634
191	0xc00bd30d	-2.1847565
192	0x3fd0b0fe	1.6304014
193	0x3fd040fc	1.6269832
194	0xc0066f64	-2.1005487
195	0x4058a164	3.3848505
196	0x3e6f72c9	0.23383631
197	0x3fd68340	1.6758804
198	0x3fd43105	1.657746
199	0xc065d35c	-3.5910254
200	0xbfcdf404	-1.6090093
201	0xc075de9e	-3.8417125
202	0x3f28e56d	0.65975076
203	0x40484115	3.1289723
204	0x402f00ac	2.734416
205	0xc092c8b1	-4.5869985
206	0x3f97d501	1.1861879
207	0xc086b7b2	-4.2099237
208	0xbfd0645e	-1.628063
209	0xbfd7864f	-1.6837863
210	0x3fb20142	1.3906634
211	0xc04fc2d5	-3.2462666
212	0xbfda4259	-1.7051498
213	0x4027e3f2	2.6232877
214	0x3fa3d76f	1.280012
215	0x404dfa03	3.2183845
216	0xc0431217	-3.047979
217	0x402ba663	2.6820304
218	0x4041e30c	3.0294828
219	0xbfd101e3	-1.6328701
220	0xc0e1195f	-7.034347
221	0x40ae6211	5.449471
222	0x3ff4c892	1.9123709
223	0xbdd2c283	-0.102910064
224	0xc01b80a0	-2.4297256
225	0xbdfa907f	-0.12234592
226	0xc0664103	-3.597718
227	0xbfe35dc9	-1.7762996
228	0xbf1debb3	-0.61687773
229	0x402e53c1	2.723862
230	0xbfe9ec21	-1.8275186
231	0x3fedf74a	1.8591092
232	0xbeae093a	-0.33991414
233	0xc03af480	-2.921173
234	0x40699372	3.6496243
235	0x3f8f1d98	1.1180906
236	0xbff57640	-1.9176712
237	0x4033831f	2.804878
238	0x3f117374	0.5681679
239	0xc00f3d80	-2.2381287
240	0x4045cb94	3.0905504
241	0xbf381f9b	-0.71923226
242	0xbf2d9f6e	-0.67821395
243	0x3ef926dc	0.4866246
244	0xbf807735	-1.0036379
245	0x400a4a6f	2.160793
246	0x40c9ea94	6.309885
247	0xbfb5d797	-1.4206418
248	0x3fe64e30	1.7992611
249	0xbffac7ca	-1.9592221
250	0x409342c7	4.6019015
251	0xc0cad5b7	-6.338588
252	0x40454136	3.0821052
253	0xbf7b6bcf	-0.9821138
254	0xc02f60e6	-2.7402892
255	0x400ee919	2.2329772

hidden.0.bias f4 [50]
0	0xbff0f385	-1.8824316
1	0xc0432460	-3.0490952
2	0xc0d566cd	-6.668799
3	0xbde4043b	-0.111336194
4	0xbe955381	-0.2916527
5	0x405e7baf	3.476299
6	0x4076f46c	3.8586683
7	0xbe7ac0c2	-0.24487594
8	0x3f000cb5	0.5001939
9	0xc025cd88	-2.5906696
10	0x40a8e4f3	5.277948
11	0x3f654bfa	0.89569056
12	0xc02963e1	-2.6467211
13	0xc09a163d	-4.8152146
14	0xbebb7b0f	-0.36617324
15	0x40037182	2.053803
16	0x3ed07707	0.4071581
17	0x3fd14e83	1.6352085
18	0xc05ea176	-3.4786048
19	0xc0234701	-2.5512087
20	0x3e4e5afd	0.20151897
21	0xc03617d7	-2.845205
22	0xbf828d3b	-1.019935
23	0x40e024fe	7.0045156
24	0x40a97aca	5.296239
25	0xc095a9cc	-4.676977
26	0x40cc8378	6.3910484
27	0x3f2a97be	0.6663779
28	0xbde42d66	-0.111414716
29	0xc07a28b9	-3.9087355
30	0xbf6f5a04	-0.9349673
31	0x402d2de5	2.7059262
32	0x409d957c	4.9244976
33	0xc00446bb	-2.066817
34	0xc013500a	-2.3017602
35	0xc0597954	-3.3980303
36	0x3f18d7e2	0.5970441
37	0x40a0bf22	5.0233316
38	0x40c1a327	6.051166
39	0x3ef8538a	0.48501235
40	0x40241cf3	2.564267
41	0x40a3cd69	5.1188245
42	0x40256715	2.5844166
43	0xbf495cb6	-0.7865709
44	0xc0eada3c	-7.33914
45	0x414d7b8e	12.842665
46	0x40aa8dde	5.329818
47	0x4081fd21	4.0621495
48	0xc010089b	-2.2505252
49	0x3fe601ac	1.796926

hidden.1.weight f4 [50, 50]
0	0x410141c2	8.078554
1	0xc10f3da2	-8.952547
2	0xc04eb0d7	-3.2295434
3	0xc0b3837f	-5.609802
4	0xc0c5b528	-6.178364
5	0xc0110134	-2.2656984
6	0x3fc8fb2c	1.5701652
7	0xc034e1b0	-2.8262749
8	0xbea968dc	-0.33087814
9	0x40318fa5	2.7743924
10	0xc166df7e	-14.4295635
11	0x3fd5342b	1.6656545
12	0x40220163	2.5313346
13	0x410884b0	8.532394
14	0xc10cc51b	-8.798121
15	0x3fba68af	1.4563197
16	0xc0739f53	-3.8065994
17	0xbf843569	-1.03288
18	0x3fa15a89	1.2605754
19	0x40748c9d	3.8210824
20	0xc0844e41	-4.1345525
21	0x416bbacd	14.733106
22	0x415fa5e5	13.978002
23	0x3fc06436	1.5030582
24	0x40444658	3.0667934
25	0x4046d95e	3.107017
26	0xc103cbc2	-8.237246
27	0x4030b123	2.7608116
28	0xc154ebcc	-13.307568
29	0x40423e33	3.0350463
30	0x40d1aa9a	6.5520754
31	0xc0e86533	-7.2623534
32	0xc012f9f6	-2.2965064
33	0x4113aacb	9.2291975
34	0xc05837ae	-3.3783984
35	0xc05db4c6	-3.4641585
36	0xc1277b5c	-10.467617
37	0x3f358dc4	0.7091944
38	0x3fb55026	1.4165084
39	0x3fde2ee1	1.7358056
40	0xc11b7b2e	-9.717573
41	0x40c73140	6.224762
42	0x40529a90	3.2906837
43	0x3f838f4a	1.0278103
44	0x4040bd26	3.0115447
45	0x40e5db37	7.1830096
46	0x3f9e3c13	1.2362083
47	0x3fe513f4	1.7896714
48	0x410910e0	8.56662
49	0x416af028	14.683632
50	0xc0e98b5b	-7.298261
51	0x3c91a7dd	0.017780239
52	0x409df4b4	4.936121
53	0x404d1653	3.2044876
54	0xbe3178f0	-0.1733129
55	0x40dbe67f	6.8718867
56	0xc12f2a13	-10.947772
57	0x40d4ce14	6.650156
58	0xbf2a470f	-0.66514677
59	0xbfa63323	-1.2984356
60	0x411dda68	9.865822
61	0x40683391	3.6281474
62	0x3f546911	0.8297282
63	0x406be68e	3.685947
64	0x40691cd7	3.6423852
65	0xbf41fb9a	-0.7577454
66	0xc15bd75a	-13.740076
67	0x402cb1bb	2.6983478
68	0x407f0a62	3.9850087
69	0x40af449d	5.4771256
70	0x3fd9ab43	1.700539
71	0xc07141af	-3.769634
72	0x401e007b	2.4687793
73	0xbf36dfa9	-0.7143503
74	0x41618cfd	14.096921
75	0x400429f5	2.0650609
76	0xbf81e528	-1.0148058
77	0xc0cd9c2e	-6.425315
78	0xc0ccb48e	-6.3970404
79	0x414058a5	12.021642
80	0x40cd6303	6.4183364
81	0x3fcd4598	1.6036863
82	0xc0a65fa9	-5.1991773
83	0x4042d91f	3.044502
84	0xc128ab90	-10.541885
85	0xbf803dd6	-1.0018871
86	0x407e26f7	3.9711282
87	0xbf9e630d	-1.2373978
88	0x3face5cc	1.3507628
89	0x40a343c6	5.102023
90	0xc1179d7f	-9.475951
91	0xc14e77d7	-12.904258
92	0xc0a361c4	-5.1056843
93	0xc0bcc65d	-5.8992143
94	0x405470cb	3.3193843
95	0xc105225c	-8.3208885
96	0x40ec367f	7.3816524
97	0xc0e210b7	-7.0645404
98	0xbf57d358	-0.8430686
99	0xc02cdc81	-2.7009585
100	0x40c39dfd	6.1130357
101	0x410658f6	8.396719
102	0x40ea0633	7.3132567
103	0x40c940f1	6.2891774
104	0x40ca97fc	6.331053
105	0x3f151b54	0.58244824
106	0x3f4b11bb	0.7932393
107	0xc11a99a3	-9.662509
108	0xc0c25300	-6.072632
109	0x4072d4fc	3.7942495
110	0x3d1d0c27	0.038341668
111	0xc031ea41	-2.7799227
112	0x40af6e2d	5.482199
113	0x40325dfc	2.7869864
114	0x41017496	8.090963
115	0xc0cf34ef	-6.4752116
116	0x401340f2	2.300839
117	0xc00ea602	-2.2288823
118	0xbe771cb5	-0.24132045
119	0xc0792d53	-3.8933914
120	0xc0a30e38	-5.0954857
121	0x40ade590	5.434273
122	0x40ac64c0	5.3872986
123	0x3fddf215	1.7339503
124	0xc110a966	-9.041357
125	0x404d750a	3.2102685
126	0xc14170f6	-12.090078
127	0xbcf5bc04	-0.02999688
128	0xc02076fe	-2.5072627
129	0x4049e665	3.1546872
130	0x409d1776	4.909114
131	0xc1172dde	-9.448698
132	0xc14da75e	-12.853361
133	0xc090ea0e	-4.528571
134	0x40a844b4	5.2583866
135	0x415633b8	13.387627
136	0xbdf23446	-0.118263766
137	0xc12c14fc	-10.755123
138	0x410719f5	8.443837
139	0x40ff6999	7.9816403
140	0x411830ac	9.511883
141	0x400b3754	2.175252
142	0x3e9e580e	0.30926555
143	0xc0a20daf	-5.0641704
144	0xc06333b8	-3.5500317
145	0xbeeace93	-0.4586073
146	0xc07adf80	-3.9198914
147	0xc0de8f8a	-6.955022
148	0x40a1d315	5.057017
149	0xc11f4251	-9.953691
150	0x3f3b6c9c	0.732126
151	0xbdbdabac	-0.092612594
152	0x3f5e672c	0.8687618
153	0xbf9b3b87	-1.2127541
154	0x4093f161	4.623215
155	0xc0d581ed	-6.67211
156	0xc1377889	-11.466928
157	0xbf07eee4	-0.53098893
158	0x401c511a	2.44245
159	0xc12b604e	-10.711012
160	0x4068dd3d	3.6385033
161	0x405887bf	3.3832853
162	0xc063fe1a	-3.5623841
163	0x4193b338	18.46251
164	0x4079c616	3.9027152
165	0x3f629304	0.8850558
166	0x411044ee	9.016829
167	0xc0dab0de	-6.83409
168	0xbf55fdbf	-0.8359031
169	0xbf16c002	-0.5888673
170	0x4095b8bb	4.6788
171	0x401c2e41	2.440323
172	0xbfd6ea3c	-1.6790233
173	0x416294d8	14.161339
174	0xc025c6fc	-2.59027
175	0xc0fdb000	-7.9277344
176	0xc089db1f	-4.307998
177	0x3f9d6968	1.2297792
178	0xc04ca6dd	-3.1976845
179	0x40ecf452	7.4048243
180	0x403fccfa	2.9968858
181	0x401124e5	2.2678769
182	0xc01fcdaa	-2.4969277
183	0x3e49b624	0.19698387
184	0x40df756a	6.983083
185	0x3ff9d1d9	1.9517165
186	0xc02afe35	-2.6717656
187	0xbe308fda	-0.17242375
188	0xc0ea0134	-7.312647
189	0x40013ff6	2.0195289
190	0xbe4f0a3f	-0.20218752
191	0xc0c893c0	-6.268036
192	0xc09dbdfa	-4.9294405
193	0x40be959a	5.955762
194	0x410b3609	8.700692
195	0x408fdd13	4.4957366
196	0x3ecb3e8d	0.3969616
197	0xc0f96d46	-7.794589
198	0xbf003d6b	-0.50093716
199	0xc0fa7e6e	-7.8279333
200	0x405f559f	3.489601
201	0xc0b11183	-5.5333877
202	0xc06dd31a	-3.7160096
203	0x4013e545	2.3108685
204	0xbf3b5c79	-0.7318798
205	0xc0d23cd7	-6.5699267
206	0xc0326ad6	-2.7877707
207	0xbda36889	-0.07978923
208	0xc08a97fd	-4.3310533
209	0x4049052d	3.140941
210	0x40927476	4.5767164
211	0x3f0c3b19	0.54777676
212	0x3e8622cc	0.26198423
213	0x3fa94d00	1.3226624
214	0x41d70501	26.877443
215	0x41048983	8.283572
216	0xc12b7c41	-10.717835
217	0x3ebbf84e	0.3671288
218	0x3f9834e3	1.189114
219	0xbd2e1bd6	-0.042507015
220	0x40244655	2.5667927
221	0x3fa8dbf2	1.3192122
222	0xc03bbcd6	-2.9334006
223	0x40d8a659	6.770306
224	0x40584ffe	3.3798823
225	0xc0a18865	-5.0478997
226	0xc0ea26fc	-7.317259
227	0x40eb6ceb	7.3570457
228	0x40cc387d	6.3818955
229	0xbf1dd85e	-0.61658275
230	0xc0ae8d7c	-5.454771
231	0xc02ba217	-2.6817682
232	0xc1063962	-8.389009
233	0x4046ed88	3.1082478
234	0xc0f33e2d	-7.60134
235	0xc08984c4	-4.2974567
236	0xc09c039a	-4.8754396
237	0x40b806d5	5.750834
238	0x417182e9	15.0944605
239	0xc0b388a8	-5.6104317
240	0xc05a3868	-3.4096928
241	0xc12297d3	-10.162066
242	0xc0890ea8	-4.283039
243	0x3f276220	0.653841
244	0x40ef7d42	7.4840403
245	0x411db6bf	9.857116
246	0xbf4f70d1	-0.8103152
247	0x406bb7b0	3.6830864
248	0xbfa2309d	-1.2671086
249	0x3f99ba5b	1.2009996
250	0x3b9e3de0	0.0048291534
251	0x40f76e2d	7.732199
252	0x40bf5fa8	5.980427
253	0x4110ee7a	9.058222
254	0xbea9bc84	-0.33151639
255	0xc04215b3	-3.0325744

hidden.1.bias f4 [50]
0	0x3eec5441	0.4615803
1	0xc109062d	-8.564008
2	0x3f85ec94	1.0462823
3	0x419aed3e	19.36584
4	0xc0ce76a9	-6.451985
5	0xc17287bd	-15.158139
6	0xc12b2ef8	-10.698967
7	0x4119f77d	9.622922
8	0xc05cd9fa	-3.4508042
9	0xc1550f17	-13.316184
10	0x400d229b	2.2052372
11	0xc0969917	-4.7061877
12	0x3f9893b8	1.192008
13	0x40855d5d	4.167647
14	0x40cdf536	6.436183
15	0x41bb72b3	23.431005
16	0x40353893	2.831578
17	0xc1c49528	-24.57283
18	0xbf3d802d	-0.74023706
19	0x418d62db	17.67327
20	0xc0a34304	-5.1019306
21	0xc04b9250	-3.1808052
22	0xc08f6d1e	-4.48207
23	0x4157f437	13.497123
24	0x409d72ab	4.9202476
25	0x40b1852c	5.5475063
26	0xc182fb10	-16.37259
27	0xc164d80e	-14.302748
28	0x3fff8cef	1.9964885
29	0x400929a3	2.1431663
30	0xc1b5baa6	-22.716137
31	0xc18acc8c	-17.349876
32	0xc099fb34	-4.8119144
33	0xc0c11c36	-6.0346937
34	0xc117b03f	-9.480529
35	0x41089c67	8.538184
36	0x401ab0bd	2.4170372
37	0xc17a5d86	-15.647833
38	0xc0bd49c7	-5.915256
39	0x409996d2	4.7996607
40	0x4140c4d2	12.048052
41	0x416b7a3e	14.717344
42	0xc1b1d169	-22.227251
43	0x41905dc9	18.045794
44	0xc10b4946	-8.705389
45	0x3fe493db	1.7857622
46	0xc07a2db8	-3.9090405
47	0x4099c20d	4.804938
48	0x41a27110	20.305206
49	0x41ca8e07	25.31935

output_layer.weight f4 [49, 50]
0	0xbe4fd4fc	-0.20296091
1	0xbdcf1401	-0.10111237
2	0xbdac153f	-0.0840249
3	0xbe510b64	-0.20414501
4	0x3bf2ca25	0.0074093514
5	0x3d53ec8a	0.051739253
6	0x3e8bde45	0.27318016
7	0x3ddb497e	0.10707377
8	0xbe55d049	-0.20880236
9	0x3d322934	0.043496326
10	0xbe0a3e55	-0.1350034
11	0xbe7cc60f	-0.24684928
12	0x3e823596	0.25431508
13	0x3c204466	0.009781932
14	0xbde67e08	-0.11254507
15	0x3e8e2fcb	0.27770838
16	0x3e483b43	0.19553857
17	0xbd8705aa	-0.06592877
18	0xbdda8b88	-0.10671145
19	0x3e433238	0.19062126
20	0xbd0e0d02	-0.034680374
21	0xbdcd2ab2	-0.10017909
22	0x3d3db3e3	0.04631413
23	0x3e48a22d	0.19593115
24	0x3db0d315	0.08634011
25	0xbe704a50	-0.23465848
26	0xbe9fa444	-0.31180012
27	0xbd5f4214	-0.054506376
28	0x3e302006	0.17199716
29	0xbc111a87	-0.008856422
30	0xbe5e4420	-0.21705675
31	0xbd254872	-0.040352292
32	0x3e24123e	0.16022584
33	0xbdbf4885	-0.09340004
34	0xbea9a456	-0.3313319
35	0x3e9b2876	0.30304307
36	0x3ecd7b3f	0.40133092
37	0x3d832f7d	0.06405542
38	0xbc2022a9	-0.009773889
39	0xbe5b38fc	-0.21408457
40	0xbeaf7e3e	-0.34276003
41	0x3e3ae0c0	0.18249798
42	0xbdd0f457	-0.10202854
43	0x3e020dde	0.12700602
44	0xbe17b902	-0.14816669
45	0x3cc7a516	0.024370711
46	0xbdcbd320	-0.09952378
47	0xbdec9ebb	-0.11553713
48	0xbd76c634	-0.060247615
49	0xbd6b5428	-0.057453305
50	0xbd860048	-0.065430224
51	0xbe1c41c9	-0.1525947
52	0xbe7e5981	-0.2483883
53	0xbe78e3c4	-0.24305636
54	0x3dc3bf7f	0.09558009
55	0x3dc44604	0.09583667
56	0x3ebdcec8	0.37071824
57	0x3e746898	0.23868024
58	0xbe431ef5	-0.19054778
59	0x3d3f05cd	0.04663639
60	0xbe56f095	-0.20990212
61	0xbe976e06	-0.2957613
62	0x3dc875c8	0.0978809
63	0x3d51a08f	0.05117851
64	0xbca242b3	-0.019807195
65	0x3e886bcf	0.2664475
66	0x3d817aed	0.06322274
67	0xbe0e6982	-0.13907436
68	0xbbabf8ac	-0.00524815
69	0x3e01d52b	0.12678973
70	0xbd52146c	-0.051289007
71	0x3c74cd16	0.014941474
72	0x3dcbb2a6	0.09946184
73	0x3dc6e01f	0.097107165
74	0xbd89d7e7	-0.06730633
75	0xbea3b95a	-0.3197735
76	0xbec76c4f	-0.3894982
77	0xbd1a14d0	-0.037617505
78	0x3de4b24d	0.11166821
79	0x3da4d864	0.08049086
80	0xbe7e0eec	-0.2481038
81	0xbd96fbbc	-0.07372233
82	0x3dcc1633	0.09965172
83	0xbda9acaf	-0.0828489
84	0xbebb97db	-0.36639294
85	0x3e7eafed	0.24871798
86	0x3e7c2e3e	0.24627015
87	0x3df99bd3	0.12187924
88	0xbd9bf5b9	-0.07615227
89	0xbe35845e	-0.17726275
90	0xbeb3d85a	-0.35126
91	0x3e06a8ec	0.13150376
92	0xbd907796	-0.07054059
93	0x3e596047	0.21228133
94	0xbde94c48	-0.113915026
95	0x3d546735	0.05185624
96	0xbe2731c2	-0.16327575
97	0xbdfef606	-0.12449269
98	0xbe4ad954	-0.19809467
99	0xbd2153c4	-0.039386526
100	0xbe004d63	-0.1252952
101	0xbe29a96a	-0.16568533
102	0xbe9b2a71	-0.30305818
103	0xbe1b6b90	-0.1517775
104	0x3e0481c8	0.12940133
105	0xbdd10ee6	-0.1020792
106	0x3e8be6aa	0.2732442
107	0x3e822101	0.25415805
108	0xbe57f420	-0.2108922
109	0x3e1b271f	0.15151642
110	0xbe6d051a	-0.23146477
111	0xbea015a3	-0.31266508
112	0x3d9dca3e	0.0770459
113	0xbd7cb2d4	-0.06169398
114	0xbd10b387	-0.03532746
115	0x3d8e27a2	0.06941153
116	0xbd4e6fba	-0.05039952
117	0xbe10949e	-0.14119193
118	0x3dea262f	0.11433064
119	0x3dca3d05	0.0987492
120	0x3d870da1	0.065943964
121	0xbd46d77f	-0.048545357
122	0x3db5268f	0.08845245
123	0x3e6faf18	0.23406637
124	0x3e2a49cd	0.16629715
125	0xbe8b9958	-0.2726543
126	0xbea2d373	-0.31801948
127	0x3cc775dc	0.024348192
128	0x3e0dfb80	0.13865471
129	0x3e1757d9	0.14779605
130	0xbe5b29c3	-0.2140265
131	0xbdee2bd7	-0.116294555
132	0x3db9d96d	0.09074674
133	0xbe0d3a6d	-0.13791819
134	0xbeafbb0d	-0.34322396
135	0x3e32389c	0.17404407
136	0x3ea005a9	0.31254318
137	0x3e1627a8	0.14663565
138	0xbe0a33de	-0.13496348
139	0xbda5a794	-0.080886036
140	0xbebb5fb5	-0.36596456
141	0x3da32a3a	0.079670385
142	0x3ba46ec6	0.005018088
143	0x3e178bc0	0.14799404
144	0xbe2d20d9	-0.16907062
145	0x3d690783	0.05689193
146	0xbd9ebdf7	-0.07751077
147	0xbe3c44ea	-0.18385664
148	0x3d8f2769	0.06989939
149	0xbdd5005f	-0.104004614
150	0xbe14c08b	-0.14526574
151	0xbd90780d	-0.07054148
152	0xbe6ded77	-0.23235117
153	0xbe139b3f	-0.1441469
154	0xbb8855bf	-0.0041606124
155	0xbb7d09a5	-0.0038610485
156	0x3e7aa33f	0.24476336
157	0x3e20ea3f	0.15714358
158	0xbe367462	-0.17817834
159	0x3dbce574	0.09223452
160	0xbe1a2fa7	-0.1505724
161	0xbeaaa543	-0.3332921
162	0x3e280c65	0.16410978
163	0xbd1d1719	-0.038352106
164	0xbe333ff0	-0.17504859
165	0x3e17c309	0.14820494
166	0x3dd7cd1e	0.1053717
167	0xbe4a151d	-0.19734617
168	0xbe512a3c	-0.20426267
169	0x3d4e82c7	0.050417688
170	0xbe292e8c	-0.16521662
171	0x3c4fa738	0.012674145
172	0x3e66de7c	0.22545809
173	0x3e48d604	0.1961289
174	0xbbb38b2c	-0.005479237
175	0xbe83d9b6	-0.25752038
176	0xbe921270	-0.28529692
177	0xbc6214e3	-0.013798925
178	0x3e6a098a	0.22855201
179	0xbcf1be1b	-0.029509595
180	0xbe9babad	-0.30404416
181	0xbc73177e	-0.014837144
182	0x3e65cd99	0.2244171
183	0xbe122572	-0.14272097
184	0xbec7f3db	-0.39053234
185	0x3e7bd908	0.2459451
186	0x3e8f8263	0.28029165
187	0x3e031ec0	0.12804699
188	0x3d2bc3cc	0.041934773
189	0xbe51c23f	-0.20484255
190	0xbeb1214b	-0.34595713
191	0x3e3aee1d	0.18254896
192	0xbc6b8a51	-0.014376239
193	0x3e5283e0	0.20558119
194	0xbe36b8b3	-0.17843895
195	0x3d8f1c99	0.069878764
196	0xbe5fb57e	-0.21846578
197	0x3d89aa6e	0.0672196
198	0xbe29be03	-0.1657639
199	0x3c162484	0.009163979
200	0xbd578553	-0.052617382
201	0xbdab9bef	-0.08379351
202	0xbe7ff2b0	-0.24994922
203	0xbcd3f476	-0.025873404
204	0x3ead6717	0.33867714
205	0x3e01f2f5	0.12690337
206	0x3e1ffd23	0.15623908
207	0x3e36ac81	0.17839243
208	0x3e880ac4	0.26570714
209	0x3e70e644	0.2352534
210	0xbdb3488b	-0.08754071
211	0xbe8dbead	-0.27684537
212	0x3e4774b5	0.19478114
213	0x3ecfe2a2	0.40602595
214	0xbd598a6a	-0.053110518
215	0x3e0b0993	0.13577871
216	0x3d9798da	0.07402201
217	0xbe3e287d	-0.18570133
218	0xbbd65601	-0.006541014
219	0x3ddc81ed	0.10766969
220	0xbda20cb4	-0.07912579
221	0xbd07f471	-0.033192102
222	0x3e5f4637	0.21804129
223	0x3e76f920	0.24118471
224	0x3dddeb67	0.10835915
225	0xbeb9b422	-0.36270243
226	0xbe7bece9	-0.24602093
227	0x3e09638f	0.13416885
228	0x3e38e667	0.18056642
229	0xbd1da981	-0.03849173
230	0xbeb6fa8a	-0.3573802
231	0xbd5f4fcb	-0.054519456
232	0x3e55cd5e	0.20879123
233	0xbc48b459	-0.0122500295
234	0xbe9a146b	-0.30093703
235	0x3e8d7658	0.27629352
236	0x3ebfa9cd	0.37434235
237	0x3e593938	0.21213233
238	0xbd190c2f	-0.037365135
239	0xbdf134dc	-0.1177766
240	0xbedc4bc6	-0.4302656
241	0x3e23b4f4	0.15986997
242	0x3b4a7694	0.0030893432
243	0x3e1734df	0.14766262
244	0xbe2f3fc6	-0.17114171
245	0xbe1848f9	-0.14871587
246	0xbe0ffef5	-0.14062102
247	0x3e020004	0.12695318
248	0xbdf2076b	-0.11817821
249	0x3d448568	0.04797879
250	0xbe1a5190	-0.15070176
251	0xbd5c1d3d	-0.05373882
252	0xbe848a4a	-0.25886756
253	0xbd878d2f	-0.066187255
254	0x3e46dab7	0.1941937
255	0x3d3236fc	0.04350947

output_layer.bias f4 [49]
0	0x3ef36daf	0.4754462
1	0x3ef885c6	0.4853956
2	0x3f259d8d	0.6469353
3	0x3f0c50b9	0.54810673
4	0x3f036caa	0.51337683
5	0x3f145904	0.5794833
6	0x3f2f9e1f	0.6860065
7	0x3f29b782	0.66295636
8	0x3f207b52	0.6268817
9	0x3f14ffe0	0.58202934
10	0x3f4ccd6c	0.8000095
11	0x3eb519fc	0.35371387
12	0x3ee34602	0.4438935
13	0x3f034713	0.51280326
14	0x3f143c7b	0.57904786
15	0x3eea9994	0.45820296
16	0x3e697ce2	0.22801545
17	0x3e87b593	0.26505718
18	0x3f020b70	0.507987
19	0x3f234667	0.637793
20	0x3eaf8767	0.3428299
21	0x3ebc0643	0.36723527
22	0x3ead3dc0	0.33836174
23	0x3ed1e04e	0.40991443
24	0x3eadb464	0.3392669
25	0x3e1806d4	0.14846355
26	0xbe2aa636	-0.16664967
27	0x3ea6d3a1	0.32583335
28	0x3efa2a34	0.48860323
29	0x3ef974af	0.48721835
30	0x3dfac0d9	0.12243814
31	0x3e8d3c5b	0.2758511
32	0x3e1fbd26	0.15599498
33	0x3e925b12	0.28585106
34	0x3e5b5c59	0.21421947
35	0x3e9bf65e	0.304614
36	0x3e0cae21	0.137383
37	0x3deb8726	0.11500387
38	0x3e844019	0.25830153
39	0x3edac935	0.42731634
40	0x3eb317ec	0.34979188
41	0x3ec1f58f	0.3788266
42	0x3de60468	0.11231309
43	0x3e97300b	0.2952884
44	0x3e47e3f5	0.19520552
45	0x3ee00dcb	0.43760523
46	0x3ef39d52	0.47580963
47	0x3ec5714b	0.38562998
48	0x3ece2d91	0.4026914
