models/7x7-4-99-tanh/24sekMC/100episodes.pth (torch, 202354 bytes, 12 tensors)

input_layer.weight f4 [99, 50]
000000 54 b9 9f 3d 9d 51 64 be 29 2e 07 be bd 78 3d be
       0.077990204 -0.22296758 -0.13201202 -0.18503089
000010 31 02 01 be a1 d4 08 be f2 43 20 be 8f 36 20 3c
       -0.12598492 -0.13362361 -0.15650919 0.009778633
000020 2a 14 b1 bc f4 e9 84 3d 09 09 6d 3c 55 9c db 3d
       -0.02161606 0.064899355 0.014467486 0.10723177
000030 33 da 54 bd bf ee d0 bd e0 e7 14 bd 17 33 82 3d
       -0.051965903 -0.10201787 -0.036353946 0.06357401
000040 7e 12 45 3d a6 6c 08 3d e7 5f e6 3d 5b b9 55 bc
       0.04811334 0.03330674 0.11248761 -0.0130446805
000050 b2 ff 47 be 7b 24 52 3e 03 f6 4d bc 57 2a bd 3c
       -0.19531134 0.20521729 -0.012570861 0.023091478
000060 91 d1 43 3d a1 38 c8 3d 40 94 ad bd 8e cc 29 be
       0.04780728 0.09776426 -0.08475542 -0.16581938
000070 bd cb 28 be 53 d6 81 3d 91 49 32 be 78 ad 07 be
       -0.1648397 0.06339707 -0.17410876 -0.13249767
000080 36 be f4 bb 4c 49 7b bd 7b 47 8e bd 27 0a a4 bc
       -0.007468964 -0.0613492 -0.069472276 -0.020024372
000090 9b e2 72 bd 81 49 2e 3d 0b 5e 06 be 4e ce 20 be
       -0.05929814 0.042550568 -0.13121812 -0.15703699
0000a0 5d 37 c7 3d 01 eb 76 bd 6f 81 9f 3d cb 64 9f 3b
       0.097273566 -0.06028271 0.077883594 0.0048643104
0000b0 dc de 8d bc c0 4f 41 3e 84 6c 3e 3d 00 d6 0a be
       -0.017318182 0.18878078 0.046490207 -0.13558197
0000c0 17 80 9c bd da 5f cd 3d ca 68 0a 3e c5 1f 07 be
       -0.07641619 0.10028048 0.13516536 -0.13195713
0000d0 3d cf 11 3d f7 e3 a4 bd e0 64 79 bd c8 a7 05 3e
       0.03559803 -0.08051293 -0.060887218 0.13052285
0000e0 a3 d3 5b 3d f4 fd 0e 3e 3b de ff bd e5 36 06 bc
       0.05366863 0.13964063 -0.12493559 -0.008191799
0000f0 57 a8 eb bd 35 87 15 be 60 4c 2e 3e 6b 69 f1 bd
       -0.11506718 -0.14602359 0.17021322 -0.11787685
000100 d2 61 49 3c 07 e2 5f 3d c8 ed 0d bd 08 6c fd 3d
       0.012291389 0.054658916 -0.034650594 0.12374121
000110 a3 52 e2 bd ed 5f 55 3c 46 37 82 3d 3d cc d5 bb
       -0.11050918 0.013023359 0.06358199 -0.0065245912
000120 00 21 4d bd 96 8f a1 3c d3 e4 e8 bd 62 06 d7 bc
       -0.0500803 0.019721787 -0.1137177 -0.02624816
000130 76 27 3a be 3d fa 4e 3c 1d eb f4 3d d0 f3 11 be
       -0.18179116 0.012632904 0.11958907 -0.14253163
000140 bb 67 6a 3c 8a df 9d 3d b2 bf de 3d 0e d4 83 bc
       0.014306958 0.07708652 0.10876407 -0.016092326
000150 a0 4f 95 bc 50 19 3d be fc a1 b1 bd de 65 08 bc
       -0.018226445 -0.18466687 -0.08673474 -0.008325068
000160 f7 4d bb 3d f1 08 41 bc 13 93 f9 bd 4a 95 51 bd
       0.0914573 -0.011781917 -0.12186255 -0.051167764
000170 b4 26 1a bd 85 97 d9 bb 42 b0 33 bd a3 ae e8 bc
       -0.037634566 -0.006640377 -0.043869264 -0.028403586
000180 d2 d3 0a be cd f9 c7 bd 14 1b b4 bc c5 67 c9 3b
       -0.13557366 -0.097644426 -0.021985568 0.0061464035
000190 f2 d8 96 be 84 8f ad bd 1d 05 e7 bd 55 5f da 3d
       -0.2946239 -0.08474639 -0.11280272 0.106627144
0001a0 23 d9 24 3c 9c 64 d8 3d dd b4 43 bd 67 ae fa bb
       0.010061535 0.10566065 -0.047779907 -0.007650185
0001b0 78 8e 23 3e 8b 32 f0 bd 92 54 ae bd 80 5c 3a be
       0.15972316 -0.1172839 -0.08512224 -0.18199348
0001c0 d4 54 5b 3d c0 b3 ca 3d 99 50 c9 bc 05 51 34 3d
       0.053547695 0.09897566 -0.024574565 0.04402258
0001d0 47 37 45 bd 8f 69 11 3e 42 57 09 3e 6d 96 f1 3d
       -0.04814842 0.14200424 0.13412192 0.117962696
0001e0 79 4c db 3b 30 8a 0b 3e af ac ee bd 6e 44 90 bd
       0.006692466 0.13626933 -0.116540305 -0.07044302
0001f0 97 62 02 3e 80 00 24 3d 1f a2 1a be 1b 53 89 bd
       0.12732922 0.04003954 -0.15100907 -0.06705304
000200 83 12 94 3c 57 51 a5 bd ff 43 54 3d 10 1c b8 bd
       0.018075233 -0.08072155 0.05182266 -0.089897275
000210 ae 19 a3 3d 1c df 98 bd b7 b7 ec 3c f6 1e b6 3d
       0.079638824 -0.0746443 0.028896196 0.08892624
000220 09 5a 02 be b1 79 e2 bd 2c 5e 0a be 65 66 be 3d
       -0.12729658 -0.11058367 -0.13512486 0.09296874
000230 a4 4a a0 bc 0b 1f cc bd fe 45 e6 3c b8 f8 c0 3d
       -0.019566841 -0.099668585 0.028109547 0.09422439
000240 df 52 c6 bc cd a6 aa 3d 55 9b 23 3e a4 fa a9 bd
       -0.024209438 0.08332596 0.15977223 -0.08299759
000250 d7 38 b8 3c a5 3a 8b bd 4e 3e c0 3b 2e da 25 bd
       0.02248804 -0.06798295 0.0058668023 -0.040491275
000260 87 5f 03 be 96 8c 90 bd cc f1 67 bd 44 4e 71 bd
       -0.1282941 -0.07058065 -0.05662708 -0.05891253
000270 0e 75 77 3d 85 2b e2 3c 35 84 4d bb 07 c7 13 3e
       0.060414366 0.027608642 -0.003135932 0.14431392
000280 fa 8e 02 3e 01 e2 24 be f3 b4 55 3d 0f 05 11 bd
       0.12749854 -0.16101839 0.05217452 -0.035405215
000290 02 d6 62 3e 5e 80 17 3e 93 e9 f2 3c 7c bc f5 3d
       0.2215195 0.14795062 0.029652392 0.11998841
0002a0 23 f0 14 3c 78 a2 73 bd b1 34 1d be 60 ea fb 3d
       0.009090456 -0.059481114 -0.15352131 0.12300563
0002b0 40 95 7f bd 2c 15 10 bc de e6 bb bc f7 23 ca bd
       -0.062398195 -0.00879411 -0.022937234 -0.09870141
0002c0 3b 0b 3b bd 1a 0e c1 bd ed 8d 38 be 08 24 95 bd
       -0.045665007 -0.09426518 -0.1802289 -0.07282263
0002d0 4c 3a 71 3d a5 22 d0 bc 84 34 e5 bd 4c 4f 5f bd
       0.058893487 -0.025407145 -0.11191657 -0.054518983
0002e0 da 16 35 be 29 6b 27 3d 9e 32 7d 3d b8 12 5e 3c
       -0.17684498 0.04087368 0.06181585 0.013554268
0002f0 a2 1f e4 3d c3 5a 18 3c 59 ac 57 3d dc d5 96 bd
       0.11138846 0.009298983 0.052654598 -0.07365009
000300 ac 12 fd bb 44 0e 48 bc 4f 3b 01 3d cc 88 2a 3e
       -0.007723173 -0.012210432 0.0315507 0.16653746
000310 c3 99 93 bd e3 40 f8 bc 58 50 16 3d ec 0d be bd
       -0.07207062 -0.030304378 0.036697716 -0.09279999
000320 41 a9 6f bd ec 76 78 bd 4b ec 72 3b d9 10 41 3e
       -0.058511022 -0.060660288 0.003706711 0.18854083
000330 3c 6f 93 3c 1f 55 a1 3d 6d f0 ae bd 99 23 96 bd
       0.017997377 0.07877564 -0.08541951 -0.073310085
000340 49 5f e4 3c 83 18 1e bd 57 ef 28 3d 8b 85 11 3e
       0.027877467 -0.038597595 0.041243877 0.14211099
000350 7b 71 2d bc 89 6c 97 bd 1e ae 16 be de 58 71 bd
       -0.010586138 -0.07393748 -0.14714858 -0.05892264
000360 71 95 1d 3e d2 42 be 3d b0 f6 70 bd ef fe 2b be
       0.15389039 0.09290089 -0.05882901 -0.16796468
000370 7c 4b 16 3d 47 b5 01 3e cc 7e 91 bd e0 88 0d 3e
       0.03669308 0.12666808 -0.07104263 0.13821745
000380 dc 56 0c be 0c 2f 16 3d 9d eb 3f 3d e0 ae ee bd
       -0.13705009 0.03666596 0.046855558 -0.116544485
000390 d4 d5 c7 3d 2f 0e be bd ea ca 6c 3d 6a dc ae 3d
       0.09757581 -0.09280049 0.0578107 0.085381344
0003a0 2f 09 09 bd 83 74 9f bd db be b2 3d 1a 16 8d 3d
       -0.033456024 -0.07785895 0.08727809 0.06888981
0003b0 6d 83 3e 3d 34 ed 84 3b 53 55 23 bd f0 b1 b7 3d
       0.046512056 0.004056597 -0.039876293 0.08969486
0003c0 c3 27 dc bd 30 3d 03 be 2b d3 16 bd 83 4a 15 3d
       -0.107497714 -0.1281631 -0.03682248 0.036448013
0003d0 3f a0 8f bd 32 45 09 be 4e 3c c0 bc aa 8c 26 be
       -0.070129864 -0.13405302 -0.023466256 -0.16264597
0003e0 10 46 13 bc b8 13 d4 3d 29 6a 85 bd 7c 8c 8f bd
       -0.008988872 0.103553236 -0.06514389 -0.07009217
0003f0 27 06 68 bd 61 45 30 be a2 a8 50 3d 64 3e 98 bd
       -0.056646492 -0.17213966 0.05094207 -0.07433775

input_layer.bias f4 [99]
000000 0b c2 68 bc 1d 3f 0e be ed ef 12 3e 7c 25 e2 bc
       -0.01420642 -0.13891263 0.14349337 -0.027605765
000010 b6 96 5b 3e fa e4 00 be 93 37 e5 bd 0f bf 2a 3d
       0.2144421 -0.12587348 -0.111922406 0.041686114
000020 de e7 bc bd 4b 6c 2a 3d f8 f3 1c be bd 5a ba 3c
       -0.09223913 0.041607182 -0.15327442 0.022748346
000030 1e 76 c6 bd b5 67 fb 3d 9e af 38 bd 98 d0 4d 3d
       -0.09690498 0.1227564 -0.045089357 0.05024776
000040 07 fa 59 bc 7b 56 0a be c7 3e cd bd 5d 37 ba 3d
       -0.01330424 -0.13509552 -0.100217395 0.09092591
000050 08 7e 48 3d 92 81 d6 3d ab 44 d8 3d 4e f2 e2 bd
       0.048948318 0.10473932 0.105599724 -0.11081372
000060 0f 85 e9 3d 21 ad 1a 3e 16 ca cc bd 3a 4d 01 3e
       0.11402332 0.15105106 -0.09999482 0.12627116
000070 5c b3 6a bc 0a d6 9c bd d3 a2 da bd 08 f5 54 bc
       -0.014324989 -0.07658012 -0.106755875 -0.012997873
000080 63 5b 59 bc c2 02 c7 bd ff e8 08 3d 7e 13 f1 3d
       -0.013266417 -0.09717323 0.033425327 0.11771296
000090 bc a7 21 bd 85 c6 a5 bd ff 4c f8 bd 62 00 46 bd
       -0.039466605 -0.08094505 -0.12124061 -0.04834021
0000a0 6c 60 ee bc 2f 44 d6 3c 04 0e 3d 3e ff d8 d1 bd
       -0.029098712 0.02615556 0.18462378 -0.10246467
0000b0 2b 55 59 bd 47 80 98 3d 83 15 52 3c 96 74 e0 3d
       -0.053059738 0.07446342 0.012822512 0.10959737
0000c0 ba 33 97 3d 8f db 11 bd 1f 45 da 3d 0d 2b e5 3d
       0.07382913 -0.035609778 0.10657715 0.11189852
0000d0 16 89 7c 3d aa 02 29 bd 2d b8 cb bd e4 52 14 be
       0.061654173 -0.041262306 -0.09947238 -0.14484745
0000e0 a8 c4 cf bd c2 d1 fc bd 4b 21 02 be 14 e7 4e bd
       -0.10144931 -0.12344696 -0.12708013 -0.050513342
0000f0 90 4e ec 3c 13 4c 0e 3e cf 7e f0 3b 29 c5 c5 3d
       0.028846055 0.13896208 0.0073393355 0.09656746
000100 36 62 0e be 67 a7 d7 bc b4 14 df bd 4e c6 0a be
       -0.13904652 -0.02632494 -0.10892621 -0.1355221
000110 4d 44 0e be 7c 31 8f bd 27 8c df bd e6 c6 0a 3e
       -0.13893242 -0.0699186 -0.10915404 0.13552436
000120 2a e9 94 bd 14 a3 01 3e 96 b3 dc bd c7 43 03 bd
       -0.07271035 0.12659866 -0.10776441 -0.03204706
000130 3f 65 95 bc 83 2d 3c be 41 5e d3 3d b0 9c a7 bd
       -0.018236754 -0.18376736 0.10320712 -0.08184183
000140 e1 f6 ec 3d 9a 07 dd bd f1 fb 0d be 9d 37 11 3e
       0.11570526 -0.107924655 -0.1386564 0.14181371
000150 28 ac 06 be 7e ba 85 3d ff bf 13 be 51 cb 96 3d
       -0.1315161 0.06529711 -0.1442871 0.07362998
000160 a8 0a 07 be 0c 18 ac 3b 80 f0 d6 3d ee cc 22 3e
       -0.13187659 0.00525189 0.104950905 0.15898487
000170 a1 6c ab 3d 87 a5 bb bd 8b 24 57 bc 37 8c 07 3e
       0.08370329 -0.09162431 -0.013131271 0.13237081
000180 19 0a c6 bd 80 44 a8 bc 42 24 02 bd
       -0.09669895 -0.020540476 -0.03177286

hidden.0.weight f4 [99, 99]
000000 de cd 09 be 7c 55 ff bc f7 07 d9 bb 22 43 0b be
       -0.13457438 -0.031168692 -0.006623264 -0.13599828
000010 fd 2e c7 3d 77 44 ba bc b0 79 25 3c da a3 b8 3d
       0.09725759 -0.022737725 0.010099813 0.09015627
000020 38 89 91 bc 02 11 8a 3d 3c 7c 1e 3c 3b 02 40 3d
       -0.017765626 0.06741525 0.0096731745 0.046877127
000030 35 2c 64 3d 0f 72 46 3d 3b 45 92 3d f0 e8 0d 3e
       0.05570622 0.04844862 0.07142111 0.1385839
000040 84 e9 fa bd 10 33 07 3d d2 fa 92 bd e4 03 0e 3c
       -0.12251571 0.03300768 -0.071767464 0.00866792
000050 11 ca a7 bd f2 4e 37 3d 25 76 61 3c 7d 9c e1 3d
       -0.08192838 0.044753022 0.013761078 0.11016176
000060 86 2d bb 3d 60 4b 7b 3d 67 57 65 bd 32 54 8c bd
       0.09139542 0.06135118 -0.055991556 -0.068519965
000070 d4 2e 55 bd e7 46 82 bd 7b 67 f8 bd 68 43 e5 bc
       -0.052046612 -0.0636118 -0.12129112 -0.027986243
000080 c3 85 f3 bd fc bb 61 3d fa a1 e8 bb a2 58 ba 3d
       -0.118907474 0.055110916 -0.0070993872 0.090989366
000090 e8 1f 73 3d 5f 75 a9 3d 8a af 9e 3d 8b da b4 3d
       0.0593566 0.0827434 0.07748325 0.08830746
0000a0 3f 46 16 3e f2 51 1d 3e f9 bd 42 bd 68 7f 6b bb
       0.14675234 0.15363291 -0.047544453 -0.0035934094
0000b0 13 f3 9c 3d 82 a3 a9 3c 72 e8 9b bd 4c ea 0e 3c
       0.0766355 0.02070785 -0.07612695 0.008722853
0000c0 7a fd 73 bd 3c 6c b6 bd b0 b5 a6 bd 73 3a f4 3d
       -0.059567906 -0.08907363 -0.08140123 0.11925211
0000d0 c5 b9 01 bd 96 4e 80 3a 47 f9 d6 bd 22 59 81 bc
       -0.031671304 0.0009789045 -0.10496765 -0.015789572
0000e0 5a 2b 4f 3c e0 ca 71 3c 53 e2 3f 3d 8f 01 f0 3c
       0.012644613 0.014757842 0.0468467 0.029297618
0000f0 8e fa 30 3e bc cd 07 3e 0d 34 42 3d 35 f3 09 3e
       0.17283079 0.13262075 0.04741292 0.13471682
000100 65 2b 98 bd 63 ef d9 bc fb 53 df 3d ac 44 c0 3d
       -0.07430152 -0.026603406 0.1090469 0.09388098
000110 e5 61 a0 3d 2e d6 ea 3c 1f 3e b2 bb 8d a1 de 3d
       0.07831172 0.028666582 -0.0054395343 0.10870657
000120 52 f0 f3 3c 10 84 93 bd 82 23 ac 3c 88 f8 6a 3c
       0.02977768 -0.07202923 0.021013025 0.014341481
000130 84 e6 76 bd ae 85 b3 3b 95 88 f1 3d cb 96 10 bd
       -0.06027843 0.0054785823 0.11793629 -0.035300057
000140 ec 0e 6e bc 5e e0 06 bd 34 65 39 bc 92 b3 ff 3c
       -0.014529925 -0.032928817 -0.011315633 0.031213555
000150 2f e4 02 3e e2 82 39 bd 5a 8c 30 bd 08 0b 31 3c
       0.12782358 -0.045290835 -0.0431026 0.010805853
000160 fe 27 62 bd a0 d2 e0 3c 97 c8 c3 b7 79 fb c5 3d
       -0.05521392 0.027444184 -2.3339218e-05 0.09667105
000170 14 83 d1 bd 49 b4 3e 3d 4f 0d 38 bd 5f c0 78 3d
       -0.10230079 0.046558652 -0.044934567 0.060730334
000180 2c c7 fe 3d 21 a0 ea 3d b3 d9 46 bd 50 63 53 3d
       0.12440333 0.114563234 -0.048547458 0.051608384
000190 d0 6e 1d bb 86 28 26 bd 7f 61 bc 3d c9 55 f2 3a
       -0.0024022348 -0.04056599 0.091982834 0.0018488701
0001a0 72 82 1f 3d 54 ea 81 3d 70 7c 70 3d 35 1c e3 3d
       0.03894276 0.06343523 0.058712423 0.110893644
0001b0 c3 9d 89 bd 31 4b 8a 3d 3b 93 db bd 35 5e 3f bd
       -0.06719544 0.06752623 -0.10721441 -0.046720702
0001c0 2d 97 e5 bd 75 59 a1 3d 47 56 2f bd 7c 01 f4 bc
       -0.11210475 0.07878391 -0.04280689 -0.029785864
0001d0 8f 53 26 3d 95 02 c2 bd 0d 74 c3 3b a8 d3 9e ba
       0.04060703 -0.09473149 0.005964762 -0.0012117522
0001e0 9f 86 2d 3c e5 4e 1f be d0 05 34 bd bd 2b 12 bd
       0.010591178 -0.1555744 -0.043950856 -0.035686243
0001f0 16 d4 f1 3c f7 08 7a bd c5 4e ac bd e9 70 83 bd
       0.029520076 -0.061043706 -0.084134616 -0.0641802
000200 75 f0 05 3d ab 53 af 3c 6e 64 c9 3d 42 81 35 bd
       0.03270002 0.0214022 0.098336086 -0.044312723
000210 7a 59 00 be c8 9c 20 bd 83 fc 8d bd 89 cf 02 3e
       -0.12534133 -0.03921202 -0.069329284 0.12774481
000220 a1 ce e3 bb ca ee 73 3d d9 c4 85 bd a9 cf 06 3e
       -0.0069521223 0.0595539 -0.06531686 0.13165154
000230 03 c3 a8 bd 65 48 a8 3d 0a 55 3e 3d ec 1c 18 3b
       -0.082403205 0.08216933 0.04646782 0.0023210598
000240 f5 79 9a bd e3 13 8e bd b0 2b 85 3c ed 24 04 be
       -0.07542793 -0.06937387 0.016256183 -0.12904711
000250 a6 11 3c bb 5f e4 66 3d a6 e8 6f 3d a1 d9 d0 3b
       -0.0028697043 0.056370135 0.05857148 0.0063735996
000260 45 97 13 3d ab 68 dc bd 03 86 a7 3c db f1 74 3c
       0.036032934 -0.10762151 0.020449644 0.014950241
000270 e4 33 dc bc 41 8d aa 3b c4 43 8e 3c d7 81 0c bd
       -0.026880212 0.005204827 0.017366298 -0.034303512
000280 7d f5 b4 3c 74 1e ad bc c8 40 cb 3d cb 3f 5e bc
       0.022089714 -0.021132685 0.099244654 -0.013565014
000290 3a 28 5d bb 22 a6 dd 3c ef 14 aa bd ce 09 ad bd
       -0.00337459 0.027056757 -0.08304774 -0.08449136
0002a0 64 e8 45 bd 76 33 d7 bd 85 35 c1 bd 9b 20 aa bc
       -0.048317328 -0.10507862 -0.09434036 -0.0207675
0002b0 17 eb 84 bb c6 43 0c be b1 1e 0a bc b2 43 01 3d
       -0.004056345 -0.13697729 -0.008430169 0.0315587
0002c0 a8 a6 e2 bd 70 90 9f 3c 54 dc 33 bd cb c9 0c bc
       -0.110669434 0.019478053 -0.043911293 -0.008593033
0002d0 1d d2 12 be da 44 e8 bd a5 30 46 bc 10 b1 ba 3d
       -0.14337964 -0.113412574 -0.012096559 0.09115803
0002e0 15 51 b3 bc b3 92 7f 3d b5 b3 a5 bd 6b e1 33 bc
       -0.021889249 0.062395763 -0.08090917 -0.010979037
0002f0 73 1f 4a bd ef c6 48 bd b5 02 4d 3d d4 f7 c0 3d
       -0.0493464 -0.049017843 0.05005141 0.094222695
000300 6c 64 19 3c 23 f3 fb bd 09 44 5f 3d a3 b2 b9 ba
       0.009362321 -0.12302234 0.054508243 -0.0014167618
000310 93 c2 d7 3c e3 6e a1 bc 17 7f 8e bd db 51 c5 3d
       0.026337897 -0.019706195 -0.06957834 0.09634753
000320 e9 16 90 bd 5d e4 65 3c 15 01 04 be be 3e 4a 3d
       -0.0703562 0.014031497 -0.12891038 0.049376242
000330 76 f4 59 bc f5 5d 82 3d 76 2d 27 3d 17 99 ec bd
       -0.013302913 0.06365577 0.04081484 -0.11552637
000340 d7 89 f3 3d 59 87 b6 3d 00 90 40 bd ac 15 eb bd
       0.11891525 0.08912534 -0.04701233 -0.11478743
000350 e5 be 30 3d 81 13 2b 3e 89 53 ea bb 98 2f ad bd
       0.0431508 0.16706659 -0.0071510714 -0.084563434
000360 c8 66 44 3d 64 9a b1 3b 1b 34 97 bd 23 5c 64 3d
       0.047949582 0.005420016 -0.07382985 0.05575193
000370 48 91 ca 3d 51 ba 4f 3d cd 76 6f bd cb 5d dc 3b
       0.098909914 0.050714795 -0.058462907 0.006725048
000380 bf 44 0d bc c8 5f f5 3c 7f 1d c6 3c e6 04 a6 bd
       -0.008622347 0.029952899 0.024183987 -0.08106403
000390 90 55 9f bd fc de 57 bd 7b 44 d7 3d 03 80 41 bd
       -0.077799916 -0.05270289 0.105111085 -0.047241222
0003a0 fa ab 68 3d 32 40 14 3e 2c ba b9 bd 89 99 1c be
       0.056804635 0.14477614 -0.090687126 -0.15292944
0003b0 ae cf be bd f2 ea 15 3d 7b 7b 1c bc 63 a4 97 3d
       -0.093169555 0.036601014 -0.009550924 0.07404401
0003c0 38 30 99 bc 4c 05 32 3c 95 85 fe 3a ee 46 90 bd
       -0.01869975 0.010865521 0.0019418473 -0.07044779
0003d0 ac a7 18 bc 63 78 73 3d a7 2c df 3d 7b cb 0d bc
       -0.00931732 0.05944098 0.10897189 -0.008654471
0003e0 83 ef a9 bd 5a 65 c8 bd 59 d9 a1 3c d7 96 b0 bd
       -0.08297636 -0.09784956 0.01975696 -0.086225204
0003f0 22 10 9c bd b7 ce 5d bd 63 93 f6 bd 6f 72 07 bd
       -0.076202646 -0.054152217 -0.120398305 -0.033068117

hidden.0.bias f4 [99]
000000 6f 55 0c bd 99 dc e6 3d 50 a9 c9 bd ee e3 7c bd
       -0.034261163 0.112725444 -0.09846747 -0.06174081
000010 2d d3 a0 3d 7b f9 a1 bd 4c 90 96 bd ed 31 1f bd
       0.078527786 -0.07908913 -0.07351741 -0.038865972
000020 6c f8 64 bd 98 6f 82 3d ad 94 d8 3d cf c1 6a 3d
       -0.055900976 0.06368941 0.10575233 0.057313737
000030 d0 6e 94 bd dc f0 35 3d ec 95 c2 3d ab e7 06 bb
       -0.07247698 0.044419155 0.095012516 -0.0020584862
000040 f7 a3 10 3d 4e 49 98 3d e8 6c 18 bd 1b d1 1f bc
       0.03531262 0.07435857 -0.037213236 -0.0097544445
000050 14 7f 9d bd b6 a8 c5 3d 3c c9 e4 bc a0 43 53 bd
       -0.07690254 0.0965132 -0.027927987 -0.051578164
000060 cc 8b 3f bd 1b d1 d5 3c dc cb 0b be 56 8e ee 3c
       -0.04676418 0.026100686 -0.13651985 0.029120605
000070 d7 18 68 bc e0 ff b3 3d b3 0b 15 3d 0b 24 a0 bd
       -0.0141660785 0.08789039 0.03638811 -0.07819375
000080 b2 b1 b7 bd 88 1d be bd 5a 68 37 bb 7c be f4 bd
       -0.089694396 -0.092829764 -0.0027985782 -0.119503945
000090 62 26 2a 3d 1b f8 fc b8 ca ee 53 3d 97 15 bc bd
       0.04154051 -0.000120625096 0.0517414 -0.091838054
0000a0 9e f2 ac 3d 1a ef 80 3d 9a db ee 3c c5 db 9f bd
       0.08444713 0.06295605 0.029157449 -0.078055896
0000b0 c8 f1 91 3d 71 aa 09 3d ab 60 c7 bc 12 0c 96 bc
       0.07126194 0.03360981 -0.024338087 -0.018316302
0000c0 3b 69 44 bd 8a a2 2b 3d ac 0a 8e 3d 8d 47 e3 3d
       -0.047951918 0.041903056 0.06935629 0.110976316
0000d0 a9 08 83 bd ee fa c7 bc bd ee 8b bc b1 ec 8b 3d
       -0.06398136 -0.024411645 -0.017081613 0.06832255
0000e0 1a ef 9a 3d b1 f6 a5 3d 81 22 14 bd 9f f5 2d 3d
       0.07565136 0.08103693 -0.036165718 0.04247057
0000f0 cb ac 59 3d ee 59 f0 3d c0 49 df bd 48 6f 34 3d
       0.053143304 0.11735903 -0.109027386 0.04405144
000100 ee d5 71 bd 38 b4 33 3d 4e 17 b5 bd c3 bc d2 3d
       -0.05904191 0.043873042 -0.08842336 0.1028991
000110 af 27 d4 3c 8c bf 9e bd 65 ae eb bd 39 91 be 3b
       0.025897829 -0.077513784 -0.115078725 0.0058156517
000120 4c 03 c7 3d ac 7f 9f ba 6e 6e 66 bd f0 2a 4d 3d
       0.09717426 -0.0012168786 -0.056257658 0.050089777
000130 a2 06 cb bc b1 4c 5d 3d 0a 21 2b bd db 54 11 3e
       -0.024783436 0.054028217 -0.041779555 0.14192526
000140 8f 2c f3 3c 13 62 ae bd 96 35 5f bd 8e 2b 7d bd
       0.029684333 -0.085148 -0.054494463 -0.061809115
000150 c6 85 24 bd 1f e0 a4 bc fb d7 7c 3b ea df 65 bd
       -0.04016664 -0.0201264 0.0038580883 -0.056121744
000160 47 25 15 3d 87 90 b1 3d 7f ff f9 bc 74 40 e1 bd
       0.036412504 0.086701445 -0.030517338 -0.109986216
000170 a5 62 25 bd 4d 2e 69 bd 93 06 bb ba 67 1c 9e 3d
       -0.040377278 -0.05692892 -0.0014268927 0.07720261
000180 d2 4c de 3d 05 72 c8 bd d2 4d 19 bc
       0.10854496 -0.097873725 -0.009356933

hidden.1.weight f4 [99, 99]
000000 d9 7a 68 3c ac 46 a6 bc 37 1c b4 3d ba e4 32 3e
       0.014189445 -0.02029737 0.08794444 0.17470065
000010 95 a6 d5 bd c0 e8 a6 3d aa 15 0f 3e 78 af ef 3d
       -0.104321636 0.08149862 0.13973108 0.1170339
000020 c0 40 7f bd 59 1c 63 3a 17 52 e5 3d dd 73 a1 bd
       -0.06231761 0.0008663587 0.11197298 -0.07883427
000030 71 92 11 be 80 cd 7e bd cf 41 8d bd b9 b4 38 be
       -0.14216019 -0.0622077 -0.068973176 -0.1803769
000040 a7 00 ef bc 26 6e de bc bb 33 9e 3c 56 09 12 3d
       -0.029175116 -0.027152132 0.019311776 0.035653435
000050 5c f8 e8 bd e7 e7 a5 3d bf 51 de 3d ae 92 2b bc
       -0.11375496 0.081008725 0.108554356 -0.010471983
000060 fd 90 0f 3d bc 81 10 3d 30 ce 13 3e 67 2e 86 3d
       0.03505038 0.035279974 0.14434123 0.06551819
000070 ae e6 82 bd 86 7c 2b bd 5a a6 86 bd eb 62 42 3e
       -0.06391655 -0.0418668 -0.06574698 0.18983047
000080 24 45 d2 3d 00 a0 32 3e 85 f9 12 3d c6 f6 8a bc
       0.10267094 0.17443848 0.03588249 -0.016963374
000090 63 da 08 3d a9 87 c0 bd f2 15 68 bd 95 8c 87 bd
       0.033411395 -0.09400875 -0.056661554 -0.06618611
0000a0 29 ae e1 3b 9d 38 a7 3d b9 2a d0 bd d7 ed 33 3d
       0.0068872166 0.08165095 -0.10164399 0.043927994
0000b0 86 fc 9e 3d 8f 9c 00 3d e8 cd 2e 3c e0 36 f9 3d
       0.07763009 0.031399306 0.010669209 0.1216867
0000c0 9c 5e e9 bd 47 c5 08 be eb ed a5 3d b0 db 0a 3e
       -0.113949984 -0.13356505 0.0810202 0.13560367
0000d0 f1 d5 5e 3c ea 5d 07 bd 9e c1 7c bd 8d 17 a8 bc
       0.013600812 -0.033048548 -0.061708085 -0.020519042
0000e0 a6 83 14 3c b0 54 f5 bd 18 6b 92 bd cf 66 62 bc
       0.009064591 -0.119790435 -0.07149333 -0.013818457
0000f0 3a bc db bd 51 db 84 3d dc b4 60 bd 6f 51 5e 3d
       -0.10729261 0.06487144 -0.05485998 0.05427688
000100 15 40 28 3d 4c 5e 20 bb 64 4b b7 3d b5 1d 4b be
       0.04107674 -0.0024470268 0.089499265 -0.19835551
000110 c8 34 bc bd 44 64 0c 3b 73 d1 28 3e 9b d7 fc 3c
       -0.09189755 0.0021422068 0.16486149 0.030864527
000120 e4 cb 15 3e 8d 48 af bd 79 6b bf bd 2b 2d 7e 3d
       0.1462856 -0.0855876 -0.09346671 0.062054794
000130 72 c3 91 3d b4 30 ad bb bf db ae 3d 4a d9 2c bc
       0.07117356 -0.005285347 0.08538007 -0.010549853
000140 1c 8c e2 bd e8 55 23 3e b3 a6 8b 3d df 83 35 3d
       -0.1106188 0.1595074 0.06818905 0.044315215
000150 55 28 88 3d bc 70 e4 bd df 0c 81 bd 24 9b d0 3d
       0.06648318 -0.11154315 -0.06301283 0.10185841
000160 05 1c 61 bd d7 61 6b 3d 65 df 15 3e f2 1c 43 bd
       -0.054958362 0.057466354 0.14636 -0.047635026
000170 62 17 06 3e d7 e4 07 be 96 d8 8c bd a4 f5 a7 bc
       0.13094857 -0.13270889 -0.06877248 -0.020502873
000180 8e 34 fd bd cd 73 66 3d cc 0d a2 3b 78 34 bd bd
       -0.1236354 0.05626278 0.0049454924 -0.09238523
000190 62 d4 02 3e 7f b8 cd 3d 85 2a 04 be 7a 60 dd 3c
       0.1277633 0.100449555 -0.12906845 0.027023543
0001a0 af c6 20 3e 3e d6 da bd 44 4c b2 bd e1 1c bf bc
       0.15700792 -0.10685395 -0.08705953 -0.0233292
0001b0 72 3f c0 bb c1 7e f7 bd 80 28 0d 3d a1 db 84 ba
       -0.0058669383 -0.12084723 0.034462452 -0.0010136255
0001c0 0f 91 85 3c c3 b7 e0 bd fd fc 80 bb f3 74 bf 3d
       0.01630452 -0.1097255 -0.0039364086 0.09348478
0001d0 5c dc 80 bd c7 c4 dd bc f6 14 0c be 6a 33 bd bd
       -0.0629203 -0.02707137 -0.13679871 -0.09238322
0001e0 cc 38 5f be 5e 15 e1 3d cb cf 75 bd 02 90 1d 3e
       -0.2179901 0.109904036 -0.06001262 0.15386966
0001f0 0b ab 55 3d 7c 90 a9 bd ae e1 2e be 76 a8 6c 3d
       0.052165072 -0.08279511 -0.17078277 0.057777844
000200 c5 f9 33 be 45 33 15 be 65 10 d9 bd 9c 8d a7 3b
       -0.17575748 -0.14570339 -0.1059883 0.0051133167
000210 af 68 92 3d ad 65 83 3d 7b 01 2e 3e f7 70 36 bd
       0.07148873 0.064158775 0.16992752 -0.044541325
000220 16 30 ba 3d d5 66 f8 38 ca 65 8d 3d d0 74 bf 3b
       0.09091203 0.000118447155 0.0690418 0.0058427826
000230 fa 39 19 be 84 15 7e bd 55 be ad 3c 1a ee a4 bc
       -0.14963523 -0.062032238 0.021208921 -0.020133067
000240 ca 59 48 3e 23 1f 83 3d 99 a0 cd 3a 02 31 1e 3d
       0.19565502 0.06402423 0.0015688121 0.038620956
000250 fe 2e 89 bd 49 31 93 3d 9d 8c ab bd a3 a2 9b bd
       -0.06698416 0.07187135 -0.08376429 -0.0759938
000260 f2 90 7c bd f6 31 55 3e ea 03 da 3d 9e 00 0f be
       -0.061661668 0.2081984 0.10645278 -0.13965079
000270 62 59 27 3d d2 86 c8 bc 84 f9 71 3d 97 17 73 bd
       0.040856726 -0.02447835 0.059075847 -0.05934867
000280 22 e0 25 be 77 3a fd 3d c0 1d 8d bd 46 af 12 3b
       -0.16198781 0.12364667 -0.0689044 0.0022382303
000290 cd 57 1b 3d 3a 45 39 bc d0 b2 79 3c 85 55 2e 3d
       0.03792553 -0.011308009 0.015240386 0.042562027
0002a0 61 8c 84 bc c0 e8 e8 bd 77 b4 4a be 0f 11 dd bd
       -0.01618022 -0.113725185 -0.19795404 -0.10794269
0002b0 02 0a f4 3d f5 9b 18 bd 76 21 f1 3d 0f ea b3 bd
       0.11915971 -0.037258107 0.1177396 -0.087848775
0002c0 71 25 0a bd b0 d5 ad 3d 39 0b 21 be 3f 4e 43 be
       -0.033727113 0.08488023 -0.15726937 -0.19072817
0002d0 16 9b a3 3d 71 68 a8 3d 37 df 36 bd 9d 4a 22 3d
       0.07988565 0.082230456 -0.044646468 0.039621938
0002e0 1a ce ca 3d 3c 23 ac bd cd ef 61 bd 37 08 d1 bc
       0.09902592 -0.08405158 -0.055160332 -0.025516612
0002f0 a1 59 db bc 33 c5 b9 3c e9 2c 6d bd 0f 2d dd bd
       -0.026776137 0.02267704 -0.057904158 -0.1079961
000300 a5 2d 52 3d 7b 41 4b 3d 62 f5 47 bd 84 02 62 3d
       0.05131306 0.049622994 -0.048818 0.05517818
000310 41 1b 08 3e 01 70 6e bd 74 de e8 3d ef bd a6 3d
       0.13291647 -0.058212284 0.113705546 0.08141696
000320 b4 07 b5 3c 4e 07 c4 3b a3 c7 a9 3c 94 f9 b6 3d
       0.0220984 0.005982316 0.020725077 0.08934322
000330 57 03 02 3b 5d fe d6 bc bb 55 0a 3e 00 6d 1c 3e
       0.0019838416 -0.026244337 0.13509266 0.15275955
000340 da e3 61 3c 8d c5 f3 bd 0a ff 66 bc 77 2c 44 bd
       0.013787234 -0.11902914 -0.014098892 -0.047893967
000350 90 0c 5e 3d 65 82 ff bc e9 d5 0e 3e b6 b1 69 3d
       0.0542112 -0.031190107 0.13948788 0.057054244
000360 9b 64 8c 3d d2 b2 1e be 8a 62 b6 bd 61 1a 9d bd
       0.068551265 -0.15497902 -0.089055136 -0.07671047
000370 9c 65 3f bd 42 d4 03 bd 3f ef cc 3d d4 04 e4 3c
       -0.04672776 -0.032184847 0.1000657 0.027834333
000380 ed 56 ad 3a 99 e8 71 3c 5e e0 79 3c 9a 25 33 3c
       0.0013224758 0.014764928 0.015251247 0.010934258
000390 1b 39 1d 3d 65 e0 37 bc 2f 19 f1 bd 3f 41 00 bd
       0.03838454 -0.011222933 -0.117723815 -0.031312224
0003a0 e8 7f 4f 3d 69 4c c5 bd 76 25 77 bd 3e 80 c3 bd
       0.05065909 -0.09633715 -0.06033846 -0.09545945
0003b0 22 d5 a1 bc 9f f7 3a bd e0 95 18 be 43 41 9d 3c
       -0.01975495 -0.045646306 -0.14900923 0.019196158
0003c0 19 86 b3 3d 09 bb a5 bd 3c c2 2e bd c0 5b 93 3c
       0.087658115 -0.08092315 -0.042665705 0.017988086
0003d0 82 2e b3 bb 78 2b 7a 3b 10 67 e2 bc a7 14 77 bd
       -0.0054681906 0.0038172882 -0.027637035 -0.06032243
0003e0 76 ed b0 bd 69 6f 48 3d 2f 6c c8 3b 26 01 f8 3d
       -0.08639042 0.048934374 0.006116412 0.12109594
0003f0 bd 22 1e bc a4 fd ca bb 4d d9 c4 3d 5b 6f d2 3d
       -0.009651837 -0.006194787 0.09611759 0.102751456

hidden.1.bias f4 [99]
000000 3b 3c c0 bd 6c 10 be 3c 1e 8d 4f bd 34 38 1e 3d
       -0.09386488 0.02320119 -0.05067169 0.03862782
000010 aa df 0f 3d 58 0a 57 bd 41 36 ab bb fe 42 d8 bb
       0.035125412 -0.0525001 -0.0052249734 -0.006599783
000020 10 f6 c9 bc d8 39 f2 bd e0 31 e0 bc 13 43 4a 3c
       -0.024653465 -0.11827439 -0.027367532 0.012345093
000030 ac 85 ae bd df f0 10 3d fd f3 a9 bc 78 c7 97 bc
       -0.0852159 0.035385963 -0.020746225 -0.018527731
000040 f5 45 8d bd 0b a9 63 3d c6 16 ba bc e5 49 a4 bd
       -0.06898109 0.055581134 -0.022715937 -0.08021907
000050 0f 54 74 bd 20 57 13 3d fd 19 18 bd ac 03 90 bd
       -0.059650477 0.03597176 -0.03713416 -0.0703195
000060 97 29 84 bd 2d 89 8e bd c4 5a 90 3d 40 ce bc bd
       -0.06453245 -0.06959758 0.07048562 -0.092190266
000070 b5 c1 2a bd 8d 46 1a bc 2f fa 00 3e 83 5c ab 3d
       -0.04168864 -0.009416235 0.12595437 0.083672546
000080 32 a9 00 3e 93 fd ce bd 8c 94 1a 3d 4a f5 8a bd
       0.12564543 -0.10106959 0.03773932 -0.067850664
000090 f3 89 4c 3d d7 a8 ea bd d8 65 b4 bc fc c4 29 bd
       0.049936246 -0.11457985 -0.02202122 -0.041447625
0000a0 e2 79 f3 bd d0 a0 d4 3d b6 00 27 3c 93 24 b4 bd
       -0.11888482 0.10382235 0.010193041 -0.087960385
0000b0 97 c3 94 bd 59 bf 9b bc cc b9 09 be 35 c9 ef 3d
       -0.07263868 -0.01901214 -0.13449782 0.11708299
0000c0 87 c8 0a bc 40 69 a3 bc 8e cd 41 bc ca 65 a6 3d
       -0.008470661 -0.019947648 -0.011828793 0.081248835
0000d0 5c e5 6d bd 11 12 a8 3d 00 f8 b7 bd 02 ba 0e bd
       -0.058080062 0.08206571 -0.08982849 -0.03484536
0000e0 70 58 e9 3c 82 dc 1d 3d e5 21 d8 3c 51 69 8b bd
       0.028484553 0.03854037 0.02638335 -0.06807197
0000f0 b4 8e 9d bc d5 bd 25 3b 99 60 01 3d ca a8 f9 3d
       -0.019233085 0.002529015 0.031586263 0.12190397
000100 98 a1 96 3d 9b 70 72 bc dd 13 1d 3d 89 eb d1 bc
       0.0735504 -0.014797355 0.03834902 -0.025625007
000110 3f 99 d4 bd 8e 3a 4e 3d 88 eb af 3c b0 d8 34 3d
       -0.10380792 0.05034881 0.021474615 0.04415196
000120 e7 cc 6f bd 57 0a 0a 3c 41 91 8c bd d4 cf 86 3d
       -0.05854502 0.008425317 -0.068636425 0.06582609
000130 c3 4a 78 3d 5c 7c 50 bc 82 e4 c8 3d 7f a4 2f bd
       0.060618173 -0.012724962 0.098092094 -0.042881485
000140 77 1f 8b 3d 74 aa bb 3d bd 69 78 3d af 5c de bd
       0.06793111 0.09163371 0.060647715 -0.10857522
000150 c4 3c 67 3d 3b ae dc bd df 36 0b be 90 45 ab bd
       0.056454435 -0.10775419 -0.1359515 -0.08362877
000160 f6 c8 07 bd f4 fd 49 bd 10 bb 1a bd 54 fa 29 bb
       -0.033150636 -0.049314454 -0.037776053 -0.002593656
000170 48 5d d7 3d 32 8c eb 3c b9 8c f4 3b a1 24 d5 bd
       0.10515839 0.028753374 0.0074630645 -0.10407377
000180 e6 75 e3 bd 9a b6 11 3d 39 dd eb bc
       -0.11106472 0.035574533 -0.02879201

hidden.2.weight f4 [99, 99]
000000 b1 57 53 3d f8 ce 19 3e 36 2d ac 3d 9c f7 56 3d
       0.0515973 0.15020359 0.08407061 0.052482232
000010 57 3f 30 bd 24 6d bc bb 19 3c 9f bd 1c d0 ee bc
       -0.043029156 -0.0057503153 -0.077751346 -0.029151969
000020 7a 62 35 be 92 bc 06 3e 6e 6b e8 3c 42 55 31 3d
       -0.17713347 0.13157871 0.028371539 0.0432942
000030 29 16 08 bd 24 75 43 3c 74 06 f3 3d d8 43 e2 3a
       -0.03322426 0.011929784 0.11866465 0.0017262651
000040 5f a9 46 be 56 ba 1d 3d c4 d2 cd 3d 02 60 b4 bd
       -0.19400547 0.038507782 0.10049966 -0.088073745
000050 72 a9 01 bd 44 1d fb bd f6 5b a0 bd 7f fa 90 bd
       -0.031655736 -0.12261441 -0.0783004 -0.07079028
000060 e4 b4 82 3d 54 6a 21 3c 4e 38 77 3a cb d5 4a bc
       0.063821584 0.009852011 0.00094306923 -0.012380074
000070 af cf b2 3a fc e3 0e be 19 bd 80 bd 59 97 88 3c
       0.0013642217 -0.13954157 -0.062860675 0.01667373
000080 ef 95 22 bd 44 7d 8a 3d ab 7f 6b 3d 4b c2 6e 3e
       -0.03969377 0.06762174 0.0574948 0.23316304
000090 ef 7c 40 3c 76 27 05 be 34 98 2b bd 4c 4f 25 be
       0.0117485365 -0.13003334 -0.0418932 -0.1614353
0000a0 7c 97 4f bd 4c 2f e0 bd e2 c0 05 3e 9b 18 1c 3d
       -0.050681576 -0.10946521 0.1306186 0.038109403
0000b0 b6 ee 0b bd 40 23 8f ba 27 80 bf 3d f2 08 90 bd
       -0.0341632 -0.001092054 0.09350615 -0.07032956
0000c0 ca 93 c3 3d 89 48 e6 3d b0 0b 9c bd 72 79 18 bd
       0.09549673 0.11244304 -0.07619417 -0.037225194
0000d0 bb 59 6b 3d 43 dd 9d bd f1 75 bc 3d 75 89 dc bd
       0.05745862 -0.07708218 0.09202183 -0.10768405
0000e0 ea 38 3b bd 71 52 ba 3d 4f bd f7 3d ec f9 1a be
       -0.045708574 0.09097756 0.120966546 -0.151344
0000f0 e8 0e 2f bd 3d 89 85 be 90 06 20 bc 94 12 9b 3d
       -0.042738825 -0.26081267 -0.00976719 0.07571903
000100 69 93 0e bd fa 0e a7 3d 9f 31 4b 3e 5d cc 24 bc
       -0.03480855 0.081571534 0.19843148 -0.01005849
000110 b1 67 82 3e c8 65 82 3d 50 92 63 3d f3 e2 8c 3d
       0.25469735 0.063670695 0.055559456 0.06879225
000120 0e 9e 16 bd d1 aa 28 3d 22 51 31 3d a4 4c b5 bd
       -0.036771826 0.04117853 0.043290265 -0.08852509
000130 e2 2d 33 be 1d 90 b2 bd 66 da ca bd 36 63 fa 3c
       -0.17497972 -0.08718894 -0.099049374 0.030564886
000140 6e fe ce bd ab fc 65 be 09 e3 d1 bd 1a 66 03 3d
       -0.10107122 -0.22459666 -0.10248382 0.032079794
000150 a8 c7 8f 3d ef e3 0a 3d 43 c3 a2 bc 9b d5 bd 3d
       0.07020503 0.03390878 -0.019868499 0.09269258
000160 1d 44 53 bd 59 5c 1e 3c 04 04 dc bd 42 2b cf bd
       -0.05157863 0.009665572 -0.107429534 -0.10115673
000170 cd 10 06 3e 10 29 5e 3d 59 8f d5 bd 9c 79 d3 bd
       0.13092346 0.05423838 -0.10427732 -0.103259295
000180 e7 6a 2b 3d d1 1f 9b bc df 24 86 3e af 97 be 3d
       0.041849997 -0.01893607 0.26200005 0.09306275
000190 e0 19 99 bd d7 09 ea 3d 11 24 b4 bc ac c4 cf bd
       -0.074756384 0.11427658 -0.021989854 -0.10144934
0001a0 4d f9 5a 3c 50 d6 58 3c 31 6f 24 3d 9d cb 06 3e
       0.013365102 0.01323469 0.040145103 0.1316361
0001b0 26 29 58 bd f5 50 87 bd 27 32 ec bd 17 3d 44 3d
       -0.052773617 -0.06607238 -0.11533003 0.047909822
0001c0 50 85 e0 3c b9 b7 a3 3d bf 3f 5c bd dc a9 73 bd
       0.027407318 0.07994027 -0.05377173 -0.059488162
0001d0 02 1f 4a bd c5 8d 3b 3e 41 b2 0c 3b 4c 45 02 bd
       -0.049345978 0.183158 0.0021468552 -0.031804368
0001e0 c9 c5 95 3d d7 66 c4 bc 59 b5 32 3e 98 ca cb bc
       0.07313115 -0.02397482 0.17451991 -0.024876878
0001f0 2b c4 1a 3e 20 26 ed bb 98 c9 f0 3d bd 99 43 3d
       0.15113895 -0.007237211 0.11757201 0.047754038
000200 ad 0d a9 3b a6 98 36 3d 07 3d 16 3e d7 93 0f 3d
       0.005159101 0.04457917 0.14671718 0.0350531
000210 c4 6b cd bd b1 7c c2 bd 69 2c 81 3d 39 e8 7b bd
       -0.1003032 -0.09496439 0.06307299 -0.06150076
000220 95 a4 5e 3c 4f bd 25 be b2 05 8d 3d 35 5a 88 bb
       0.013589044 -0.16185497 0.06885852 -0.004161144
000230 3a 82 e9 3d 98 a2 02 be ba 26 3f bd 37 fe 35 3e
       0.11401792 -0.12757337 -0.046667792 0.17772757
000240 23 d4 39 3d 7f 6b a1 3d a1 ed ea 3d c5 d3 bd bd
       0.045368325 0.078818314 0.11471105 -0.092689075
000250 20 2e 22 3d 94 3b ee bc 2d 2c 4e be a5 6f d3 bd
       0.03959477 -0.029081143 -0.20134039 -0.10324029
000260 e1 24 ac bd c0 dd f3 bd 5f b8 28 3d 4e bd 89 3d
       -0.084054716 -0.1190753 0.041191455 0.0672556
000270 e6 fc 08 be 2b f4 d8 bc 56 fe 35 3e 6b 63 29 3e
       -0.13377723 -0.026483616 0.17772803 0.16541831
000280 de 4e bb 3b 98 2b 25 3d 1c 32 25 bd 5e 61 45 bc
       0.005716189 0.040324777 -0.04033099 -0.01204714
000290 91 41 b3 bb fd 75 3c 3d 7e 3a 9f bd 88 cc 33 bd
       -0.0054704626 0.04601096 -0.077748284 -0.043896228
0002a0 18 9f da bd b9 e4 bc 3c b3 ff a8 bc 00 77 a0 3c
       -0.10674876 0.023058282 -0.02062974 0.019587994
0002b0 07 24 54 3d 77 32 ab bd 78 90 17 bd ff 8b 51 be
       0.05179217 -0.08359235 -0.03700301 -0.2046356
0002c0 9a 5a e5 bd ad bf 62 3d e8 dc 3f bc 05 eb ec bd
       -0.111989215 0.055358578 -0.011710383 -0.11568264
0002d0 36 75 8c 3d 23 d3 9a bd 0b 15 44 3e 61 80 94 3d
       0.06858294 -0.075598024 0.19148652 0.07251049
0002e0 63 47 be bd 9e 34 e2 bd 5f 9f 17 bc 70 69 d5 bd
       -0.0929096 -0.11045192 -0.009254306 -0.10420501
0002f0 b9 eb c6 bd b2 85 4d 3d 7e df 85 bd fd b6 1a be
       -0.09712929 0.05017633 -0.065367684 -0.15108867
000300 2d 06 f2 3d 43 55 3a 3d 2d 9f 8c 3d 50 84 56 3d
       0.11817584 0.04549147 0.06866298 0.052372277
000310 bb cc 91 bc 7d 70 12 bd 2d 9f a7 bd cc 74 ad bc
       -0.017797818 -0.03575181 -0.08184657 -0.021173857
000320 8a 0e d3 bc 7a 0a 9c 3d b9 74 2e bd 19 2a 2f bd
       -0.025763769 0.07619186 -0.042591784 -0.042764757
000330 e8 a4 8f bd 00 38 1a 3d 87 1d 11 3e 3f 16 f1 bc
       -0.07013875 0.037651062 0.1417142 -0.029429553
000340 cc 59 3c 3e 75 ab b5 bd 9b 6a 1a be a0 cd 77 bc
       0.1839363 -0.088705935 -0.1507973 -0.015124708
000350 ed 67 12 be 23 dd 14 3e 3f a7 c0 bd c2 a1 e3 bd
       -0.14297457 0.14537482 -0.094069 -0.11114837
000360 a0 49 79 3d eb 29 21 3d 04 1d 66 bc 83 17 09 3e
       0.06086123 0.039346617 -0.014045004 0.13387875
000370 88 49 c2 bd 25 8f 5c 3d da d8 d8 bb 9a 02 84 bd
       -0.09486681 0.05384745 -0.0066176476 -0.06445809
000380 78 57 12 be 92 17 79 3d 29 cf 98 3c 97 96 a8 bc
       -0.14291179 0.060813494 0.01865347 -0.02057962
000390 23 8b 9c bd 9c 98 8c bd 88 f5 35 bb 2c a0 91 3d
       -0.07643726 -0.068650454 -0.0027764756 0.071106285
0003a0 4c e5 5b bd 3a d8 77 3c 9b 73 10 be ba 97 0b ba
       -0.05368547 0.015127236 -0.141066 -0.0005325038
0003b0 d4 78 36 3d 5f 21 13 3e 9d 8e a0 bd 23 42 d0 bb
       0.044548824 0.14368199 -0.07839701 -0.0063555404
0003c0 f7 3b f4 3d f7 7c d1 3d f6 d8 4a bd 92 ea 3c be
       0.119255 0.10228913 -0.049523316 -0.18448856
0003d0 2c 24 08 bd f9 51 4d 3d b9 ad e4 bc 4d 64 82 3d
       -0.03323762 0.050127003 -0.027914869 0.06366787
0003e0 04 ab 3d 3e 98 c8 5b bd 23 a6 e2 3d 49 e0 da 3c
       0.18522269 -0.053658098 0.11066844 0.026718276
0003f0 5e 68 b3 bc 8f 1c b2 3d ea 62 bd 3d f0 2a 1e 3d
       -0.021900352 0.08696853 0.09247382 0.038615167

hidden.2.bias f4 [99]
000000 74 a0 bd 3d 92 d8 4b bd d8 dd 4b 3c 77 e8 c5 3c
       0.0925912 -0.049767084 0.012443028 0.0241587
000010 7c db 06 be c4 be a3 3d d0 bd ca bc 9a c3 63 bd
       -0.13169664 0.0799537 -0.024748713 -0.055606462
000020 5c cf d8 bd ec 76 98 3d 5e 26 aa 3d 16 95 0e 3e
       -0.10586426 0.074445575 0.08308099 0.1392406
000030 46 60 6f bc 36 7c da 3c e9 2c 89 3d 9b d2 b5 3d
       -0.014610356 0.026670557 0.06698019 0.088780604
000040 0d 2a 5c bd b4 d5 50 3c bb 17 af 3d 87 94 5b bc
       -0.05375104 0.012746263 0.08549448 -0.013402111
000050 6c 21 bc 3d 16 bd c5 bb e9 05 bc 3d 27 f1 9d 3d
       0.09186062 -0.0060345037 0.09180815 0.07712012
000060 17 83 55 bd 54 44 0f 3d a9 9f bd 3d e6 3a a0 bc
       -0.05212697 0.034977272 0.092589684 -0.019559335
000070 99 b4 e1 bc 88 1e 4e 3d d0 af cf ba 75 c5 ee bc
       -0.027551936 0.050322086 -0.0015845243 -0.02914689
000080 4b 4a 3b 3d 4f cc a6 bd 5d 08 aa 3d 3f 75 4f bc
       0.04572515 -0.081444375 0.083023764 -0.012662231
000090 3c 63 d7 bb 57 6f f8 bc 7f c9 86 3d 5c a6 58 bd
       -0.006573109 -0.030326528 0.06581401 -0.052893028
0000a0 77 3b 16 3e ca 84 8d 3d a5 86 b0 3d 40 c6 10 be
       0.14671122 0.06910093 0.086194314 -0.14138126
0000b0 55 79 48 bc 23 4a c2 bd f0 f5 fa 3d 9a 9a b4 bd
       -0.012235959 -0.09486797 0.1225394 -0.088185504
0000c0 1d 48 ac bb 32 a0 98 3d 63 92 01 3d 8e 5a 53 3d
       -0.00525762 0.0745243 0.031633746 0.05160003
0000d0 64 cb 18 bd cf 26 3b 3c 37 b8 a1 3d 54 23 3a 3d
       -0.037303343 0.011422827 0.07896464 0.045443848
0000e0 56 df 8e bd f5 e0 41 bd 20 d2 a1 bd 80 ff b0 bc
       -0.06976192 -0.047333676 -0.07901406 -0.021606207
0000f0 5a 4c ad bd 57 13 ea 3d ee d3 8e 3c af d0 e7 3d
       -0.084618285 0.1142947 0.01743504 0.113191
000100 03 15 46 bc 37 53 db bd 4e 58 cc 3d 96 40 06 bd
       -0.0120899705 -0.10709231 0.0997778 -0.032776438
000110 ff c3 bc 3c 8c ad 0e bc 80 cf a2 3d da 34 e6 3d
       0.023042677 -0.008708369 0.07949734 0.112405494
000120 ce 12 9b 3d d1 42 9b 3d d7 b7 ee bd 4f 7b fd bd
       0.07571946 0.075811036 -0.116561584 -0.12377035
000130 82 82 5a bc e2 26 09 be 37 3f 2f bd aa b0 2d 3d
       -0.01333678 -0.13393739 -0.042784896 0.042404808
000140 0e a7 26 3b 66 48 a1 3d dc ed e1 bd da da 4e 3c
       0.0025429162 0.07875137 -0.11031696 0.0126254205
000150 53 b7 22 3e 6d 07 bd 3d 88 bc f7 bd 60 39 82 3b
       0.15890245 0.09229932 -0.12096506 0.003974125
000160 bb 90 36 bd c3 08 e5 3d 3f a8 f1 bc 55 8b 18 bb
       -0.04457162 0.11183312 -0.029499171 -0.0023276408
000170 dd 9f 8a 3d 03 f8 96 bd ff 73 c2 bb a8 a2 b1 3b
       0.06768773 -0.07371523 -0.005934238 0.0054210015
000180 3f 89 a9 3c 56 0c 3c 3d a3 ed 29 bd
       0.020695327 0.045910202 -0.041486394

hidden.3.weight f4 [99, 99]
000000 ca 50 67 bd 3f f7 63 3d 1d c9 b9 bc 3f f6 4d 3c
       -0.05647353 0.055655714 -0.022678906 0.012570917
000010 a7 a2 98 3d d8 f3 1d 3c 66 6e 8e bc 8d 15 b2 3d
       0.074528985 0.009640656 -0.017386626 0.08695517
000020 a6 cc d5 bc a3 f7 54 bd d6 16 7c bd b6 9d ac 3d
       -0.02609856 -0.051993977 -0.061545216 0.084285185
000030 2a 09 4d 3d 44 02 a2 bd 36 b6 1a 3e ce e6 0b 3e
       0.050057568 -0.079105884 0.1510857 0.13662264
000040 71 3f c7 bd c5 ea 26 be 3a fb 53 bb bb f6 a7 3d
       -0.09728897 -0.16300495 -0.0032345788 0.08201357
000050 76 81 e0 bd db 64 8c 3d a2 b8 65 3d 1a d9 3d 3d
       -0.10962193 0.06855174 0.056084283 0.046349622
000060 03 a4 76 3d ce 19 01 3e 9a 3f 2a be 34 36 a2 3c
       0.060215008 0.126075 -0.16625825 0.019801237
000070 c4 a9 a2 bd b2 86 91 bd 94 c5 1b bd 31 10 25 3c
       -0.079425365 -0.07105769 -0.038030222 0.010074661
000080 af a3 d7 3d 0c d9 78 bd 85 3a 2a be 66 c1 fb 3c
       0.10529267 -0.060753867 -0.16623886 0.030731868
000090 02 8f 1c be 98 0b 88 3d 4d 07 8a 3d 99 2a 9c 3d
       -0.15288928 0.06642836 0.06739674 0.07625312
0000a0 e2 33 80 bd 95 67 5a be 86 81 8a 3d 65 e0 a7 3d
       -0.06259896 -0.21328576 0.06762986 0.08197097
0000b0 bb 80 96 3d cc 1d c0 3d 9a 63 f6 3c 7e 79 2d 3e
       0.07348772 0.09380683 0.03007679 0.16940877
0000c0 0b 0f 74 3d 51 67 4b 3d 60 70 98 3c c0 ad 2d bc
       0.05958466 0.049659077 0.018608272 -0.010600507
0000d0 c9 3d f7 bd 8b b8 00 3d 72 4d 10 be fe 99 d2 bd
       -0.120723315 0.031425994 -0.14092043 -0.10283278
0000e0 71 3a de bd fd d0 6c bd 62 d5 0e bd b1 ea e1 bd
       -0.108509906 -0.057816494 -0.034871466 -0.11031092
0000f0 0d 01 e1 ba b7 e0 09 bc 71 82 f7 3d 55 4e 99 bd
       -0.0017166451 -0.008415393 0.120854266 -0.07485644
000100 a4 bf f3 bd 83 1a 88 bc 46 e0 0e be 20 7e e4 bd
       -0.11901787 -0.016614204 -0.13952741 -0.11156869
000110 3d b9 ba bc 06 4a b9 3d a9 bc bf 3d 02 ca 15 bd
       -0.022793407 0.09047322 0.09362156 -0.036569603
000120 74 4b cc 3d 0a f2 97 3d 21 e2 26 be a8 57 6f 3d
       0.09975329 0.07419212 -0.16297199 0.058433205
000130 7d 15 8a bd 6a e4 7b 3c ba f4 31 3e fe d5 92 bd
       -0.0674238 0.015374282 0.17378512 -0.07169722
000140 19 25 41 bd f7 ad 82 3d 83 8d 39 be f9 2f b2 bd
       -0.04715452 0.063808374 -0.18120389 -0.08700556
000150 d9 19 44 bd 30 be 0d 3e a5 c5 9a 3d ce 39 17 3e
       -0.047876213 0.13842082 0.07557229 0.14768144
000160 a9 c3 d2 bd 44 16 d5 3d d9 e4 1f 3d 88 6a 08 3d
       -0.102912255 0.104046375 0.039036606 0.03330472
000170 9f 88 1f bd 5a 04 c4 bd 04 bb 16 3e ec 40 f3 3c
       -0.03894865 -0.095711425 0.14719778 0.029694043
000180 5c 60 a7 3d 5d ba 11 3e ff 69 57 3d 79 ef de bd
       0.08172676 0.14231248 0.05259132 -0.108855195
000190 04 10 40 3e 92 68 3d be 60 19 ee bb 12 81 73 3b
       0.1875611 -0.18496922 -0.0072662085 0.003715579
0001a0 f4 68 da 3d 57 18 46 bd 6e f2 c8 3d c3 5c c2 3d
       0.106645495 -0.048363056 0.09811865 0.09490349
0001b0 da 53 c3 3d 21 ea ea 3d 6d 91 ce bc f1 95 81 3d
       0.09537478 0.11470438 -0.025215829 0.06327427
0001c0 0d 36 99 3d 22 c0 ff bd a0 c7 81 3a e9 89 30 3e
       0.074810125 -0.12487818 0.0009901412 0.17240109
0001d0 24 51 00 3e 90 e0 84 3d dd 5b 2f be 69 55 9d bd
       0.12530953 0.064881444 -0.17124887 -0.07682306
0001e0 ed 14 39 3e a9 b8 40 3e a2 8b 51 bd 36 fc b7 3d
       0.18074389 0.18820442 -0.051158555 0.08983652
0001f0 44 7b ec bd d6 29 9b bd f3 8d 4c 3d 9d cb 72 3e
       -0.115469486 -0.07576339 0.04994006 0.23710485
000200 15 18 4f bd cf fe 58 3d d1 2c bb 3d ca b0 80 3d
       -0.050560076 0.05297738 0.091394074 0.0628372
000210 35 a8 02 bd b8 57 92 bd 93 1c 03 bd 68 d4 b9 3d
       -0.031898696 -0.07145637 -0.032009672 0.090737164
000220 ed 0e 14 3c b3 1a 41 ba d8 c1 8a 3d 05 85 18 3e
       0.009036762 -0.0007366344 0.06775254 0.14894493
000230 41 20 8b bd 6e 10 61 3d 57 1e a6 bd 92 3a 91 3d
       -0.06793261 0.05494731 -0.081112556 0.070912495
000240 86 98 c1 3c 44 f0 cb bd fc c7 5a 3d 39 76 df 3d
       0.0236323 -0.099579364 0.053413376 0.10911221
000250 98 e3 a7 bd c6 74 0e 3b b7 98 16 bd 31 ff 25 bd
       -0.08197707 0.0021737083 -0.036766734 -0.040526573
000260 24 9e 58 be e7 f3 9c 3d 8b 0b 9b 3d 49 b1 28 3d
       -0.21154076 0.07663708 0.07570561 0.041184697
000270 2f 40 42 3e 04 0a 15 bd a1 a0 e0 3d a7 9a 3d bd
       0.18969797 -0.036386505 0.109681375 -0.046290066
000280 85 fc 2d bd d8 d9 bc bd d6 89 88 bc 45 cd 1e 3e
       -0.04247715 -0.09221238 -0.016667288 0.15507992
000290 b1 98 8c 3d 8f e1 89 be 09 bc 1d be 16 23 14 be
       0.06865061 -0.269299 -0.15403761 -0.14466509
0002a0 17 b7 96 bc ed ab 83 3c 74 73 e9 3d f7 8a 11 bd
       -0.01839785 0.016073192 0.11398974 -0.035532918
0002b0 59 69 22 bd 37 e2 51 bd 42 f1 6c bd 9c 18 a7 bc
       -0.03965125 -0.051241126 -0.05784727 -0.020397477
0002c0 b6 12 2e be 1c 34 3f bc f7 5b 99 bd 47 1e d0 bd
       -0.16999325 -0.011670139 -0.07488244 -0.10162025
0002d0 3a 73 cb bd 70 11 3e 3e e6 16 ac bd 63 a7 5c bb
       -0.09934087 0.1856134 -0.08402805 -0.0033669106
0002e0 9e 22 39 bd 52 69 22 3d f7 c3 63 3c 10 be 14 3e
       -0.04519903 0.039651223 0.013901702 0.14525628
0002f0 d4 b0 87 bd 85 98 f2 3c d2 96 10 3d 2c 97 01 3c
       -0.06625524 0.029613743 0.035300083 0.007909577
000300 fc 19 48 3d 78 b2 8f 3c fd 6a e0 bd 4c bb f5 3d
       0.048852906 0.017541155 -0.109579064 0.11998615
000310 08 84 fe ba 7d ab 43 bb 3e a9 53 bd 71 45 cd 3d
       -0.001941801 -0.0029856854 -0.051675074 0.100230105
000320 c1 65 a0 3c d2 fb e8 bb e3 47 81 3d de a2 b3 3c
       0.01957977 -0.0071100974 0.063125394 0.021928247
000330 81 8e b0 bd 46 67 1c 3d b7 0f 60 3d c6 39 d5 bc
       -0.086209305 0.038184427 0.054702487 -0.026028525
000340 4d 63 45 bc 97 42 59 3d b8 4b 1a 3d 5c 33 11 3e
       -0.012047601 0.05304202 0.037669867 0.14179748
000350 5f 14 c4 3c a0 b5 e0 bd ce da 92 3d 6b 88 b3 bd
       0.023935495 -0.10972142 0.0717064 -0.08766254
000360 9c 7c 3f be 70 b4 c1 3c 09 de 58 bd 09 1d d0 bd
       -0.18699878 0.02364561 -0.052946124 -0.10161788
000370 bf b6 13 be d0 ac 4f 3e f5 2d 35 bd 93 35 9c 3b
       -0.14425181 0.20280766 -0.04423328 0.0047671287
000380 07 95 16 be 0f 80 22 bd 39 1b b6 bd 3f a5 34 bc
       -0.14705287 -0.039672907 -0.08891911 -0.011025726
000390 1c 66 e8 bd 74 bd f7 3d f3 38 1b 3d ab e4 4d bd
       -0.11347601 0.12096682 0.037896108 -0.050266903
0003a0 ba 07 ea 3c 0a 74 5a be 6e 61 45 be 4e 9f 91 3d
       0.028568137 -0.21333328 -0.19275448 0.07110463
0003b0 8b 73 a4 3d 68 31 2b 3e 71 7b 12 be 22 52 d6 bc
       0.080298506 0.16718066 -0.14304902 -0.02616221
0003c0 e6 b4 c3 3d 79 5d dd bd dd 49 72 3c c9 15 87 3d
       0.09555988 -0.10808844 0.014788118 0.06595952
0003d0 1f 3a de 3c 27 c5 b2 bd d0 9f a4 bd b8 1f 3b be
       0.027127324 -0.0872901 -0.08038294 -0.18273818
0003e0 08 74 a8 bd 39 c1 d8 3c 7d ff 84 bb 30 01 a0 bd
       -0.08225256 0.026459323 -0.004058777 -0.078127265
0003f0 bc dd c8 bd b3 9d 56 bd 64 74 94 bd d1 a6 77 be
       -0.098079175 -0.052396487 -0.07248762 -0.24184729

hidden.3.bias f4 [99]
000000 76 eb b1 3d cc 45 a9 bd c2 3d ce 3d e1 26 3d 3d
       0.08687489 -0.08265266 0.10070373 0.046179656
000010 99 c5 8b bd 9d 56 99 bd 38 f6 4a bd 26 55 ef 3d
       -0.06824798 -0.07487223 -0.04955122 0.11686163
000020 67 50 9f 3c c6 72 50 bd 8b 6a 16 bd c1 09 b6 bd
       0.019447519 -0.050890706 -0.0367227 -0.08888579
000030 20 be 4e 3d 8b 63 2a bd 98 34 92 bc 11 82 c0 bc
       0.050474286 -0.041598838 -0.017847344 -0.02349952
000040 4f 55 24 3d af ff e9 bc f9 77 88 bb 0f 97 b5 bd
       0.04012042 -0.028564302 -0.0041646925 -0.08866703
000050 52 3f 8c 3d df e2 2c bd 7b b8 3a 3d 84 08 5e bd
       0.06848015 -0.04220855 0.04558609 -0.05420734
000060 87 ae 8e bd b1 31 55 be b0 a4 03 3e 10 0f 19 be
       -0.06966882 -0.20819737 0.12855792 -0.14947152
000070 35 11 46 bd eb db 1e 3b 8b 00 11 39 85 d4 db 3c
       -0.048356254 0.0024239968 0.0001382848 0.026834736
000080 78 51 ef 3d 84 f4 9d 3d f9 97 db bc bf e6 ca bc
       0.11685461 0.07712653 -0.026805865 -0.024768231
000090 f9 2d eb bc 13 94 f1 3c 0b 49 24 bb d6 43 f2 3d
       -0.028708445 0.029489553 -0.002506795 0.11829345
0000a0 2f 92 97 3b d0 d0 f6 bb 65 c2 3f bd 83 78 47 bd
       0.0046255807 -0.0075322166 -0.04681625 -0.048698913
0000b0 d9 09 2b bd a5 56 25 bd f9 30 99 3d ea 30 85 bd
       -0.04175744 -0.040365834 0.07480044 -0.0650347
0000c0 04 56 5b 3d e2 0d a4 3d 72 00 3f 3d da 5d 2c ba
       0.053548828 0.080104604 0.046631284 -0.0006575264
0000d0 37 e0 bd bd 6a 50 b3 bd c6 10 8f 3d be 65 75 bc
       -0.09271281 -0.08755572 0.06985621 -0.0149778705
0000e0 17 40 08 3d b2 11 61 3d fe 9e 09 bc b8 3d ab 3d
       0.033264246 0.054948516 -0.008399723 0.08361381
0000f0 52 bd ab bd 0f 87 b9 3d 8b 7c 4f 3c 8d 27 2c bd
       -0.08385719 0.090589635 0.012663971 -0.042029906
000100 8e 07 f0 bd 39 4b 2c bd 79 3e 96 3d 94 a7 83 3d
       -0.11720191 -0.042063925 0.073361345 0.06428447
000110 cd 09 19 bd 7d 64 d9 3c 3a 57 47 3d 91 47 8a bd
       -0.037362862 0.026537174 0.04866717 -0.067519315
000120 fd f9 a2 bc d5 23 bd 3b db 98 94 3d 50 65 ff bd
       -0.019894594 0.005772094 0.07255717 -0.12470496
000130 2a 93 0a 3d c8 c8 1a bd 50 c2 46 bd 75 6a a1 bd
       0.033831753 -0.037789136 -0.048525155 -0.07881633
000140 a8 05 f0 bd fc b8 2e bd c8 e6 8a bb 80 b7 3c bd
       -0.11719829 -0.042656884 -0.004238937 -0.046073437
000150 33 0b f8 3d 9d 72 02 bd 65 ca 8b bd 5d d6 a2 3d
       0.12111511 -0.031847585 -0.06825713 0.07951043
000160 62 4c 9c bd ef e5 89 bb 48 38 02 bd 35 96 e1 bd
       -0.07631756 -0.0042083184 -0.031791955 -0.11014978
000170 05 d6 0d 3b f8 37 c5 bc 10 64 81 3d 52 86 56 3b
       0.0021642458 -0.02407454 0.063179135 0.003273387
000180 77 a3 99 3d b6 f7 af 3d 20 c3 8f bd
       0.075018816 0.08592169 -0.07019639
