models/7x7-4-99-tanh/24sekMC/115episodes.pth (torch, 202354 bytes, 12 tensors)

input_layer.weight f4 [99, 50]
0	0x3d9d3a97	0.07677191
1	0xbe642731	-0.22280575
2	0xbe06b230	-0.1315391
3	0xbe3edaaf	-0.18638109
4	0xbe012a10	-0.12613702
5	0xbe09e797	-0.13467251
6	0xbe201150	-0.15631604
7	0x3c0ee01f	0.008720427
8	0xbcad7501	-0.021173956
9	0x3d867624	0.06565502
10	0x3c72c0b3	0.014816451
11	0x3ddb737e	0.10715388
12	0xbd56ac66	-0.052410506
13	0xbdd3109a	-0.10305901
14	0xbd1332a3	-0.035936963
15	0x3d81494d	0.06312809
16	0x3d497107	0.049180057
17	0x3d0a6b7b	0.033793908
18	0x3de89024	0.11355618
19	0xbc61d2f8	-0.013783209
20	0xbe4a4b28	-0.19755232
21	0x3e533ab7	0.20627867
22	0xbc4784de	-0.012177674
23	0x3cbefeb1	0.023314806
24	0x3d447790	0.047965586
25	0x3dc887cb	0.097915255
26	0xbdacc60e	-0.084362134
27	0xbe2b2d16	-0.16716418
28	0xbe280a5c	-0.16410202
29	0x3d8183e0	0.06323981
30	0xbe326d16	-0.17424425
31	0xbe07d2a3	-0.13263945
32	0xbbcae0cb	-0.006191348
33	0xbd7e4ef3	-0.06208701
34	0xbd91a973	-0.07112398
35	0xbca2edf2	-0.019888852
36	0xbd6ff62f	-0.05858439
37	0x3d2fbd49	0.042905126
38	0xbe04fffa	-0.12988272
39	0xbe20f894	-0.15719825
40	0x3dc47909	0.09593398
41	0xbd716803	-0.058937084
42	0x3d9e942b	0.077431045
43	0x3bd5804b	0.006515538
44	0xbc8c448d	-0.017122531
45	0x3e409344	0.18806177
46	0x3d42fac2	0.047602423
47	0xbe0a6f87	-0.13519107
48	0xbda0891d	-0.07838652
49	0x3dcb3b46	0.09923415
50	0x3e0c3f0d	0.13695927
51	0xbe066126	-0.13122997
52	0x3d0ff4fa	0.035145737
53	0xbda58019	-0.08081073
54	0xbd77fc51	-0.060543362
55	0x3e05844f	0.13038753
56	0x3d5c7608	0.0538235
57	0x3e10afe1	0.14129592
58	0xbe00b101	-0.12567522
59	0xbc1743a2	-0.0092324335
60	0xbdedde66	-0.11614685
61	0xbe151174	-0.14557439
62	0x3e2f5592	0.17122486
63	0xbdf08092	-0.11743273
64	0x3c5a748c	0.013333451
65	0x3d658115	0.056031305
66	0xbd150b69	-0.036387835
67	0x3dfdb8f8	0.123887956
68	0xbde21ac8	-0.11040264
69	0x3c4ae49d	0.012383607
70	0x3d83dcc5	0.06438593
71	0xbbf7d262	-0.0075629214
72	0xbd4c4682	-0.04987193
73	0x3ca878a6	0.020565342
74	0xbde6212b	-0.11236795
75	0xbcd80698	-0.026370332
76	0xbe3a4c58	-0.18193185
77	0x3c4c34d0	0.012463763
78	0x3df22643	0.11823704
79	0xbe121b58	-0.14268243
80	0x3c66c426	0.014084851
81	0x3da006bd	0.07813785
82	0x3ddd9cc8	0.10820919
83	0xbc81fb0e	-0.015866783
84	0xbc87d0a2	-0.016578976
85	0xbe3c4d4c	-0.18388861
86	0xbdb3334c	-0.087500185
87	0xbc1c68cf	-0.009546473
88	0x3dbb138c	0.09134588
89	0xbc4c8f3d	-0.012485323
90	0xbdf8105e	-0.12112497
91	0xbd571c2b	-0.052517097
92	0xbd1e7280	-0.038683414
93	0xbbe91c30	-0.007113956
94	0xbd31b719	-0.043387506
95	0xbcdae87c	-0.026722185
96	0xbe099f81	-0.13439752
97	0xbdc98e9b	-0.09841653
98	0xbcab847e	-0.0209372
99	0x3bde41e5	0.0067827576
100	0xbe979cea	-0.29611903
101	0xbdabd123	-0.08389499
102	0xbde4d152	-0.11172737
103	0x3dda150c	0.106485456
104	0x3c242fc6	0.010021156
105	0x3dd80b57	0.10549038
106	0xbd41cc1d	-0.0473138
107	0xbc0e8af8	-0.008700125
108	0x3e22bf59	0.15893306
109	0xbdefe508	-0.11713606
110	0xbdae12fa	-0.08499713
111	0xbe3ace37	-0.18242727
112	0x3d585878	0.052818745
113	0x3dca5c52	0.0988089
114	0xbccaaaad	-0.024739588
115	0x3d2d7762	0.04235018
116	0xbd419d21	-0.04726899
117	0x3e124c4c	0.14286917
118	0x3e098131	0.13428189
119	0x3df28a2d	0.11842761
120	0x3bc26edc	0.0059336256
121	0x3e0c13a7	0.13679372
122	0xbdedba5e	-0.11607812
123	0xbd90cc75	-0.07070247
124	0x3e01df97	0.12682949
125	0x3d280b25	0.041026253
126	0xbe1ac09e	-0.1511254
127	0xbd8a4c5b	-0.06752845
128	0x3c97e0f5	0.018539885
129	0xbda6e8d4	-0.08149877
130	0x3d54ec0a	0.051982917
131	0xbdb92aa1	-0.09041334
132	0x3da38cb7	0.079858236
133	0xbd97ceea	-0.074125126
134	0x3cdcbc3f	0.026945231
135	0x3db5f035	0.088837065
136	0xbe01d64e	-0.12679407
137	0xbde0f1c9	-0.10983617
138	0xbe09febf	-0.13476084
139	0x3dbf504d	0.09341488
140	0xbc9f1783	-0.019420391
141	0xbdc9fa78	-0.09862226
142	0x3ceae3c0	0.028673053
143	0x3dc28d34	0.094995886
144	0xbcc78a34	-0.024357893
145	0x3da6b6fc	0.0814037
146	0x3e2405b5	0.16017802
147	0xbda87b7d	-0.082266785
148	0x3caab4ec	0.020838223
149	0xbd8bf7b2	-0.068343535
150	0x3b98dd23	0.0046650334
151	0xbd2a08e1	-0.041512374
152	0xbe0472ec	-0.12934464
153	0xbd92a2dc	-0.07159969
154	0xbd689cfd	-0.05679034
155	0xbd712da5	-0.05888142
156	0x3d7479bd	0.05968641
157	0x3cd9937e	0.026559588
158	0xbb1ea113	-0.0024204894
159	0x3e148ae0	0.14506102
160	0x3e0345a8	0.1281954
161	0xbe2471c1	-0.16059019
162	0x3d5b8334	0.053591922
163	0xbd111e9a	-0.035429575
164	0x3e61f9a3	0.22067885
165	0x3e180266	0.14844665
166	0x3cf3f1a6	0.029778313
167	0x3df4cc67	0.11953049
168	0x3c1c0f6c	0.009525161
169	0xbd72d095	-0.05928095
170	0xbe1e2fce	-0.15447924
171	0x3dfe2582	0.12409498
172	0xbd7c5666	-0.061605833
173	0xbc07eb33	-0.008295822
174	0xbcbfc9ea	-0.02341171
175	0xbdca7def	-0.09887301
176	0xbd396d00	-0.045269966
177	0xbdc147f3	-0.09437551
178	0xbe395f87	-0.18102847
179	0xbd944351	-0.07239402
180	0x3d7451a4	0.05964817
181	0xbcccfa48	-0.025021687
182	0xbde4e413	-0.11176314
183	0xbd60f03f	-0.054916617
184	0xbe3400ad	-0.17578383
185	0x3d25a906	0.040444396
186	0x3d7a2b36	0.061076365
187	0x3c5bf1ca	0.013424346
188	0x3de66b5e	0.112509474
189	0x3c1acf2f	0.0094488105
190	0x3d598a07	0.05311015
191	0xbd97db08	-0.07414824
192	0xbbf82007	-0.0075721773
193	0xbc592b6b	-0.013254981
194	0x3d01bef2	0.03167624
195	0x3e2aa6c0	0.16665173
196	0xbd9485d0	-0.07252085
197	0xbcfc7f73	-0.030822491
198	0x3d0e5336	0.034747325
199	0xbdbdc26f	-0.09265601
200	0xbd6ac7bd	-0.05731939
201	0xbd7f6a1d	-0.062357057
202	0x3b87ca84	0.004144015
203	0x3e413c21	0.18870594
204	0x3c971c30	0.018446058
205	0x3da1bc9f	0.07897305
206	0xbdaf51dc	-0.08560535
207	0xbd95362e	-0.072857246
208	0x3cea8c2d	0.028631294
209	0xbd1ed125	-0.038773675
210	0x3d299a00	0.04140663
211	0x3e124aac	0.14286298
212	0xbc1d2509	-0.009591349
213	0xbd971efa	-0.07378955
214	0xbe16d553	-0.14729814
215	0xbd71c1e7	-0.05902281
216	0x3e1d70cb	0.15375058
217	0x3dbb6f44	0.091520816
218	0xbd6c8658	-0.057745308
219	0xbe2d4d66	-0.16924056
220	0x3d1e67bb	0.038673144
221	0x3e00e4d8	0.12587297
222	0xbd926679	-0.07148451
223	0x3e0e51b6	0.13898358
224	0xbe0b4546	-0.13600644
225	0x3d179a34	0.037012294
226	0x3d3cf7a8	0.04613462
227	0xbdebcd41	-0.115137585
228	0x3dc7979a	0.097457126
229	0xbdbc5ccb	-0.09197386
230	0x3d6df962	0.058099158
231	0x3dad4da6	0.08462076
232	0xbd0b362e	-0.033987217
233	0xbd9f412b	-0.07776102
234	0x3db6bf82	0.08923246
235	0x3d8c1cad	0.06841407
236	0x3d3b39e9	0.045709524
237	0x3b8a29fb	0.0042164302
238	0xbd24fdfb	-0.040281277
239	0x3db9e8d8	0.090776145
240	0xbdda9ed5	-0.10674826
241	0xbe0452ae	-0.12922165
242	0xbd14f356	-0.036364876
243	0x3d0e5ac1	0.03475452
244	0xbd90a5e4	-0.07062891
245	0xbe09bb57	-0.1345037
246	0xbccb721d	-0.024834687
247	0xbe27f58c	-0.16402262
248	0xbc1f9b72	-0.009741651
249	0x3dd43ce0	0.103631735
250	0xbd831720	-0.06400895
251	0xbd9210f6	-0.07132141
252	0xbd6b138d	-0.057391692
253	0xbe310d80	-0.17290306
254	0x3d51c19f	0.051210042
255	0xbd99192c	-0.07475504

input_layer.bias f4 [99]
0	0xbc66096c	-0.014040332
1	0xbe0ea655	-0.13930638
2	0x3e12cabe	0.14335153
3	0xbce3424f	-0.02774158
4	0x3e5c74c1	0.21528913
5	0xbe00f1ea	-0.12592283
6	0xbde59f1a	-0.11211987
7	0x3d2a374b	0.041556638
8	0xbdbd8553	-0.09253945
9	0x3d2c2db7	0.042035785
10	0xbe1d687e	-0.15371892
11	0x3cb92145	0.022598872
12	0xbdc61b91	-0.096732266
13	0x3dfc3eb6	0.12316649
14	0xbd39cd0d	-0.045361567
15	0x3d4b8fe5	0.049697775
16	0xbc5803f0	-0.0131845325
17	0xbe09ce4a	-0.134576
18	0xbdccb7fa	-0.09996028
19	0x3db9900d	0.09060679
20	0x3d47c7f8	0.04877469
21	0x3dd6c7aa	0.10487302
22	0x3dda0da4	0.10647133
23	0xbde2b011	-0.11068738
24	0x3de894c9	0.113565035
25	0x3e1ab4be	0.1510801
26	0xbdcb9b79	-0.099417634
27	0x3e01b053	0.12664919
28	0xbc71da87	-0.014761574
29	0xbd9d2d09	-0.076746054
30	0xbdda2abd	-0.10652683
31	0xbc57489a	-0.013139868
32	0xbc57390d	-0.013136161
33	0xbdc7512b	-0.097322784
34	0x3d05d471	0.032673303
35	0x3df14aeb	0.117818676
36	0xbd243274	-0.04008718
37	0xbda6eff1	-0.08151234
38	0xbdf6dac3	-0.12053444
39	0xbd46912c	-0.04847829
40	0xbcf455aa	-0.029826004
41	0x3cd7671e	0.026294287
42	0x3e3c30a1	0.18377925
43	0xbdd1941c	-0.10233328
44	0xbd59f3e4	-0.053211108
45	0x3d97626e	0.07391821
46	0x3c4652be	0.012104688
47	0x3ddfa83e	0.109207615
48	0x3d97dc01	0.07415009
49	0xbd12427d	-0.03570794
50	0x3ddbdef2	0.10735883
51	0x3de48429	0.1115802
52	0x3d7f65bc	0.06235288
53	0xbd29b037	-0.041427817
54	0xbdc98ffa	-0.098419145
55	0xbe14bf03	-0.1452599
56	0xbdd025f6	-0.101634905
57	0xbdfc9d14	-0.12334648
58	0xbe01fc0e	-0.12693807
59	0xbd4cf5ef	-0.050039228
60	0x3cf01339	0.029306041
61	0x3e0d7a51	0.13816191
62	0x3bf7fdb7	0.007568087
63	0x3dc46a88	0.09590632
64	0xbe0e32f4	-0.13886625
65	0xbcd91cb3	-0.026502943
66	0xbddf379e	-0.1089928
67	0xbe0a6e90	-0.13518739
68	0xbe0e5384	-0.13899046
69	0xbd8ef015	-0.06979386
70	0xbdde9362	-0.10867955
71	0x3e0b2f08	0.1359216
72	0xbd944e5d	-0.07241509
73	0x3e017d32	0.12645414
74	0xbddbf7cb	-0.10740622
75	0xbd016742	-0.031592615
76	0xbc969c48	-0.018385068
77	0xbe3b2b15	-0.18278153
78	0x3dd41784	0.10356048
79	0xbda7f5cb	-0.08201178
80	0x3decc085	0.11560158
81	0xbddce022	-0.107849374
82	0xbe0e1e75	-0.13878806
83	0x3e116ca4	0.142016
84	0xbe06d4b6	-0.1316708
85	0x3d85ed7b	0.065394364
86	0xbe143580	-0.14473534
87	0x3d95f0dd	0.07321332
88	0xbe06f03f	-0.13177584
89	0x3b9e795c	0.0048362445
90	0x3dd690af	0.10476815
91	0x3e22e831	0.15908886
92	0x3dac3960	0.08409381
93	0xbdba99ab	-0.09111341
94	0xbc551a80	-0.013006806
95	0x3e06de9c	0.13170856
96	0xbdc644c9	-0.096810885
97	0xbca6da3b	-0.020367732
98	0xbd02ac27	-0.03190246

hidden.0.weight f4 [99, 99]
0	0xbe095dfc	-0.13414758
1	0xbd02106e	-0.03175395
2	0xbbdc87b4	-0.0067300443
3	0xbe0c6831	-0.13711621
4	0x3dc62bd5	0.09676329
5	0xbcc10f4c	-0.023566864
6	0x3c2b6b91	0.010462658
7	0x3db9af8b	0.09066685
8	0xbc92a152	-0.01789919
9	0x3d8b8dd4	0.06814161
10	0x3c14d919	0.009084963
11	0x3d420817	0.047370996
12	0x3d637d4a	0.055539407
13	0x3d46ad17	0.048504915
14	0x3d90c860	0.070694685
15	0x3e0e602f	0.13903879
16	0xbdfadff0	-0.12249744
17	0x3d05046d	0.032474924
18	0xbd93e83a	-0.07222028
19	0x3c10992b	0.008825581
20	0xbda95486	-0.08268075
21	0x3d35342e	0.044239216
22	0x3c68bafc	0.014204737
23	0x3de28939	0.110613294
24	0x3dbaf74a	0.09129198
25	0x3d75dc36	0.060024463
26	0xbd623ab1	-0.055231754
27	0xbd8d4ad0	-0.06899035
28	0xbd586dd5	-0.05283912
29	0xbd84fdf1	-0.06493748
30	0xbdf8c54b	-0.12147006
31	0xbcda3eef	-0.026641337
32	0xbdf45cd2	-0.119317666
33	0x3d627ad2	0.05529291
34	0xbc0013bc	-0.007817205
35	0x3db98b50	0.09059775
36	0x3d74c581	0.059758667
37	0x3da9a4f3	0.08283415
38	0x3d9efbbe	0.0776286
39	0x3db4609f	0.088074915
40	0x3e157ba2	0.14597943
41	0x3e1e20ce	0.15442201
42	0xbd45b803	-0.04827119
43	0xbb8453ab	-0.0040382943
44	0x3d9d5508	0.07682234
45	0x3ca82976	0.020527583
46	0xbd9d6c9d	-0.07686732
47	0x3c11ff8d	0.008911026
48	0xbd7634c4	-0.060108915
49	0xbdb5ef19	-0.08883495
50	0xbda7037f	-0.08154964
51	0x3df3dff9	0.11907954
52	0xbd05da82	-0.03267909
53	0x3a589c47	0.0008263033
54	0xbdd576a8	-0.104230225
55	0xbc85114f	-0.016243605
56	0x3c42e9b1	0.011896537
57	0x3c73f1f6	0.014889231
58	0x3d452f74	0.048140958
59	0x3cf1f6df	0.029536663
60	0x3e3173fe	0.17329404
61	0x3e074f13	0.13213758
62	0x3d4044d9	0.04694066
63	0x3e09d496	0.13460001
64	0xbd996790	-0.07490456
65	0xbcd62daa	-0.026144821
66	0x3dde67e9	0.10859663
67	0x3dbf375f	0.09336733
68	0x3da170b7	0.07882827
69	0x3cee33c9	0.029077427
70	0xbbc8b161	-0.006124661
71	0x3ddd2bcc	0.10799369
72	0x3cf6ae65	0.030112455
73	0xbd91efcc	-0.07125816
74	0x3cb1b0e3	0.021690791
75	0x3c776493	0.015099662
76	0xbd778e8a	-0.06043867
77	0x3bcba8fc	0.006215213
78	0x3df3277c	0.118727654
79	0xbd112779	-0.035438035
80	0xbc68e9f9	-0.01421594
81	0xbd04920b	-0.03236584
82	0xbc2d0ece	-0.010562612
83	0x3cfdcfe2	0.030982915
84	0x3e025cd6	0.12730727
85	0xbd3b5103	-0.045731556
86	0xbd2d5faa	-0.04232756
87	0x3c23c44c	0.009995531
88	0xbd5e195c	-0.054223403
89	0x3cdc652e	0.026903715
90	0xba8ae4b2	-0.0010596721
91	0x3dc53d8c	0.0963088
92	0xbdd1d145	-0.10244993
93	0x3d3ddb69	0.046351824
94	0xbd362f0c	-0.04447846
95	0x3d7c0190	0.061524928
96	0x3dffb23e	0.12485169
97	0x3deaf169	0.114718266
98	0xbd460950	-0.048348725
99	0x3d5375e7	0.051626112
100	0xbadca5d9	-0.0016834094
101	0xbd25869b	-0.040411573
102	0x3dbdf1e4	0.092746526
103	0x3a6424f1	0.00087030145
104	0x3d1d5cbd	0.03841852
105	0x3d830fb8	0.063994825
106	0x3d6cc8f1	0.05780882
107	0x3de359f5	0.11101142
108	0xbd89002e	-0.066894874
109	0x3d8a9fd9	0.0676877
110	0xbddcd4ed	-0.107828
111	0xbd4279c5	-0.04747941
112	0xbde6824c	-0.11255321
113	0x3da1e623	0.07905223
114	0xbd375569	-0.044759188
115	0xbcf355f2	-0.029704068
116	0x3d270c09	0.040782962
117	0xbdc17b09	-0.09447295
118	0x3bbefb93	0.00582833
119	0xb9f7e333	-0.00047280788
120	0x3c24e910	0.010065332
121	0xbe1f14ac	-0.1553523
122	0xbd337de1	-0.04382122
123	0xbd10f7cd	-0.03539257
124	0x3ceb4155	0.028717676
125	0xbd78a51b	-0.06070433
126	0xbdac0023	-0.083984636
127	0xbd83c96d	-0.06434903
128	0x3d0bb72a	0.034110226
129	0x3cb0a122	0.02156121
130	0x3dc9b0f4	0.09848204
131	0xbd33b9d6	-0.0438784
132	0xbe00cb48	-0.12577546
133	0xbd1e5e8e	-0.038664393
134	0xbd8e0063	-0.069336675
135	0x3e029eda	0.1275591
136	0xbbfba829	-0.0076799584
137	0x3d7481a9	0.059693966
138	0xbd86b4e5	-0.06577472
139	0x3e07707c	0.13226503
140	0xbda87171	-0.08224762
141	0x3da9e413	0.08295455
142	0x3d3cdab1	0.046106998
143	0x3b2358fc	0.0024924865
144	0xbd9ab062	-0.075531736
145	0xbd8d17b2	-0.06889285
146	0x3c7cd842	0.015432419
147	0xbe03fbce	-0.12889025
148	0xbb2f7e25	-0.002677807
149	0x3d66d5ba	0.05635617
150	0x3d6edd1c	0.058316335
151	0x3be0129b	0.0068381554
152	0x3d141a00	0.036157608
153	0xbddb68f8	-0.107133806
154	0x3cab15ca	0.020884413
155	0x3c7a0873	0.0152608035
156	0xbcd3ff15	-0.025878469
157	0x3b9c66c4	0.004772993
158	0x3c975226	0.018471789
159	0xbd0fe272	-0.035128064
160	0x3cb27962	0.021786395
161	0xbcaedd68	-0.02134581
162	0x3dcc388d	0.09971724
163	0xbc51ccce	-0.012805177
164	0xbb65c76f	-0.0035061499
165	0x3cdeb4f9	0.027185904
166	0xbda92e26	-0.08260755
167	0xbdaca8fb	-0.08430668
168	0xbd442466	-0.047886275
169	0xbdd97e20	-0.106197596
170	0xbdc1b378	-0.09458059
171	0xbca3aa13	-0.019978559
172	0xbb599e22	-0.0033205827
173	0xbe0c90b0	-0.13727069
174	0xbc10fcc2	-0.008849325
175	0x3d05ac39	0.032634947
176	0xbde1c945	-0.11024717
177	0x3ca0c344	0.01962436
178	0xbd33204b	-0.04373197
179	0xbc1520e8	-0.009102084
180	0xbe134ab3	-0.14383964
181	0xbde7d852	-0.11320557
182	0xbc57c819	-0.013170266
183	0x3dbbf173	0.09176912
184	0xbcb0a38f	-0.021562366
185	0x3d7d88be	0.061897986
186	0xbda61cc6	-0.08110957
187	0xbc363b02	-0.011122467
188	0xbd4851fe	-0.04890632
189	0xbd4e76a2	-0.050406106
190	0x3d4d78e6	0.050164126
191	0x3dbfd2b5	0.09366361
192	0x3c2153fe	0.009846685
193	0xbdfcd8bc	-0.12346026
194	0x3d5d128d	0.05397277
195	0xbafc209f	-0.0019235796
196	0x3cd9116c	0.026497565
197	0xbca02cb6	-0.01955257
198	0xbd8d8a9b	-0.069112025
199	0x3dc4f18b	0.09616383
200	0xbd8fac05	-0.07015232
201	0x3c6cd277	0.014454476
202	0xbe046596	-0.12929377
203	0x3d46db61	0.04854906
204	0xbc51b669	-0.012799838
205	0x3d82b765	0.06382636
206	0x3d292071	0.041290704
207	0xbded89a5	-0.11598519
208	0x3df47d1a	0.11937924
209	0x3db6e1a7	0.089297585
210	0xbd4102dc	-0.047121868
211	0xbdebfb24	-0.11522511
212	0x3d364525	0.044499535
213	0x3e2b4a99	0.16727675
214	0xbbf368f9	-0.007428285
215	0xbdaed7bc	-0.08537242
216	0x3d427b0e	0.047480635
217	0x3ba81e4e	0.0051305657
218	0xbd98335d	-0.07431672
219	0x3d60cd38	0.05488321
220	0x3dcc1c56	0.09966342
221	0x3d50581a	0.05086527
222	0xbd73eabf	-0.059550043
223	0x3bbb1761	0.005709574
224	0xbbee856b	-0.0072790883
225	0x3cf6506d	0.030067647
226	0x3cc21b0e	0.023694541
227	0xbda63ef3	-0.08117475
228	0xbd9fa151	-0.077944405
229	0xbd548ede	-0.05189406
230	0x3dd760c4	0.105165035
231	0xbd41fbe6	-0.04735937
232	0x3d680d13	0.056653094
233	0x3e1419c2	0.14462951
234	0xbdbb4c68	-0.09145433
235	0xbe1d0c72	-0.15336779
236	0xbdc0580d	-0.09391794
237	0x3d18f85c	0.03734623
238	0xbc2525a6	-0.010079777
239	0x3d988da4	0.07448891
240	0xbca18f90	-0.019721776
241	0x3c2edcea	0.010672787
242	0x3aedd213	0.0018144272
243	0xbd90b4cf	-0.070657365
244	0xbc290498	-0.010316037
245	0x3d725d5b	0.059171062
246	0x3de00d35	0.10940019
247	0xbc00fa46	-0.00787217
248	0xbdacbb48	-0.084341586
249	0xbdca7655	-0.09885851
250	0x3c996a5d	0.018727476
251	0xbdb174b4	-0.086648375
252	0xbd9e0c86	-0.077172324
253	0xbd60e328	-0.054904133
254	0xbdf77a9a	-0.12083931
255	0xbd05a253	-0.032625508

hidden.0.bias f4 [99]
0	0xbd0ed5bb	-0.034871798
1	0x3de4a438	0.11164135
2	0xbdca7326	-0.09885244
3	0xbd7c4713	-0.06159122
4	0x3da21a28	0.07915145
5	0xbda2d732	-0.079512015
6	0xbd96d3ba	-0.073646024
7	0xbd1cf4ce	-0.0383194
8	0xbd659773	-0.056052636
9	0x3d8356ac	0.06413016
10	0x3dd81601	0.10551072
11	0x3d6b29f7	0.057413068
12	0xbd94045f	-0.07227396
13	0x3d351d18	0.0442172
14	0x3dc21880	0.09477329
15	0xbaf8920c	-0.0018964424
16	0x3d0fe0e6	0.03512659
17	0x3d991cd8	0.07476205
18	0xbd1547cf	-0.036445435
19	0xbc235b24	-0.00997046
20	0xbd9e5712	-0.07731451
21	0x3dc56239	0.09637875
22	0xbce32c2e	-0.027731027
23	0xbd516bd2	-0.051128216
24	0xbd3da3c8	-0.046298772
25	0x3ccf8bcd	0.025335217
26	0xbe0b9041	-0.13629247
27	0x3cf03508	0.029322162
28	0xbc6f2c40	-0.014597952
29	0x3db3b87e	0.087754235
30	0x3d167018	0.036727995
31	0xbd9e46be	-0.07728337
32	0xbdb8de02	-0.0902672
33	0xbdbe4ce2	-0.09292008
34	0xbb338910	-0.0027394928
35	0xbdf48d01	-0.11940957
36	0x3d26e219	0.040742967
37	0xba12af24	-0.0005595556
38	0x3d549ccd	0.05190735
39	0xbdbb1c0e	-0.091362104
40	0x3dac3ca8	0.08410007
41	0x3d80f7e1	0.06297279
42	0x3cf3c9a4	0.029759236
43	0xbd9f94d5	-0.07792059
44	0x3d910d85	0.07082657
45	0x3d095fdf	0.033538695
46	0xbcc6341c	-0.02419477
47	0xbc969f53	-0.018386519
48	0xbd44ad30	-0.048016727
49	0x3d2b043a	0.041752078
50	0x3d8dbe0d	0.06921015
51	0x3de24e90	0.11050141
52	0xbd8326b7	-0.06403869
53	0xbcc375ad	-0.023859823
54	0xbc8a9b37	-0.016919715
55	0x3d8b1d57	0.067927055
56	0x3d9b874d	0.07594166
57	0x3da778bd	0.08177326
58	0xbd15a688	-0.03653577
59	0x3d2fa5e4	0.042882815
60	0x3d59c80b	0.05316929
61	0x3df038a7	0.117295556
62	0xbddef942	-0.10887386
63	0x3d336746	0.04379966
64	0xbd7392e9	-0.059466276
65	0x3d34acb3	0.04411001
66	0xbdb6262f	-0.08894002
67	0x3dd27a31	0.102772124
68	0x3cd77143	0.026299125
69	0xbd9cd49f	-0.07657742
70	0xbdebc60e	-0.11512385
71	0x3ba7b1e2	0.005117641
72	0x3dc58f33	0.09646454
73	0xba8dd950	-0.001082221
74	0xbd66e5a3	-0.056371342
75	0x3d4eefba	0.05052159
76	0xbcc81b72	-0.02442715
77	0x3d602c50	0.05472976
78	0xbd29c6d2	-0.041449375
79	0x3e11345f	0.14180134
80	0x3cf1a227	0.029496266
81	0xbdad725d	-0.08469079
82	0xbd601740	-0.054709673
83	0xbd7de02e	-0.061981373
84	0xbd266a8b	-0.04062895
85	0xbca3af4c	-0.019981049
86	0x3b9f2ba7	0.0048574987
87	0xbd671ead	-0.05642574
88	0x3d138471	0.036014978
89	0x3db0f0b5	0.08639661
90	0xbcfa9296	-0.030587476
91	0xbddf11b4	-0.108920485
92	0xbd261fdc	-0.040557727
93	0xbd689fe9	-0.056793127
94	0xba97fcdc	-0.0011595744
95	0x3d9d0977	0.07667821
96	0x3ddf16bf	0.1089301
97	0xbdc80166	-0.09765892
98	0xbc1b6bb9	-0.009486132

hidden.1.weight f4 [99, 99]
0	0x3c577b96	0.013152024
1	0xbc9eb865	-0.019375036
2	0x3db54cde	0.08852552
3	0x3e32ca3a	0.17459956
4	0xbdd54898	-0.10414237
5	0x3da63481	0.08115483
6	0x3e0e40ed	0.13891955
7	0x3df1e0cc	0.11810455
8	0xbd809372	-0.06278123
9	0x3aa38e08	0.0012478242
10	0x3de47740	0.11155558
11	0xbda389d0	-0.0798527
12	0xbe11beb1	-0.14232899
13	0xbd7f1543	-0.062276136
14	0xbd8fc7e4	-0.07020548
15	0xbe396ffb	-0.18109123
16	0xbce5e702	-0.028064255
17	0xbcdf085b	-0.027225664
18	0x3c91a75f	0.017780004
19	0x3d108aa5	0.03528847
20	0xbdeb3b1e	-0.11485885
21	0x3da48abd	0.08034275
22	0x3ddd67f5	0.10810844
23	0xbc1f5d12	-0.00972678
24	0x3d13c477	0.036076035
25	0x3d0fbfbb	0.035094958
26	0x3e1358d8	0.1438936
27	0x3d85cc6b	0.0653313
28	0xbd815c23	-0.06316402
29	0xbd2e68f7	-0.04258057
30	0xbd895d4f	-0.0670725
31	0x3e42e371	0.19032075
32	0x3dd28565	0.10279349
33	0x3e330df4	0.17485791
34	0x3d135b7d	0.035975922
35	0xbc8be69d	-0.017077738
36	0x3d0a8fce	0.03382855
37	0xbdbf87ff	-0.09352111
38	0xbd695101	-0.056962017
39	0xbd875547	-0.06608062
40	0x3bde0b9e	0.006776287
41	0x3da65808	0.081222594
42	0xbdd0bbb3	-0.10192051
43	0x3d35b41d	0.044361223
44	0x3d9d6db4	0.0768694
45	0x3d010c4c	0.031505868
46	0x3c3ad771	0.011403904
47	0x3dfa632a	0.12225945
48	0xbdea8f3e	-0.114531025
49	0xbe084b30	-0.13309932
50	0x3da6f929	0.08152992
51	0x3e0b16a9	0.13582863
52	0x3c65e4db	0.014031614
53	0xbd088f78	-0.033339947
54	0xbd7c9daf	-0.061673816
55	0xbcabbe3e	-0.020964738
56	0x3c021fd3	0.007942158
57	0xbdf5a9d2	-0.11995281
58	0xbd9429e7	-0.07234555
59	0xbc6c3f1d	-0.014419344
60	0xbddde558	-0.108347595
61	0x3d85f841	0.06541491
62	0xbd608f57	-0.0548242
63	0x3d603087	0.05473378
64	0x3d28d766	0.041221045
65	0xbb15ff55	-0.0022887785
66	0x3db7a0dc	0.08966228
67	0xbe4bcaaf	-0.19901536
68	0xbdbb489c	-0.091447085
69	0x3b3b7705	0.0028604877
70	0x3e28fa24	0.16501671
71	0x3cfbe1e3	0.03074736
72	0x3e166e24	0.14690453
73	0xbdb177aa	-0.08665402
74	0xbdbfa17b	-0.09356972
75	0x3d81e213	0.06341948
76	0x3d916855	0.07099978
77	0xbbb21838	-0.005435016
78	0x3dafc1e4	0.085819036
79	0xbc26ca9b	-0.010180141
80	0xbde35f30	-0.1110214
81	0x3e238226	0.15967616
82	0x3d8b5c9d	0.06804774
83	0x3d377f3b	0.04479907
84	0x3d8889bf	0.06666898
85	0xbde588d7	-0.11207741
86	0xbd82a4a9	-0.06379063
87	0x3dcf089a	0.101090625
88	0xbd6006bb	-0.05469392
89	0x3d6c23d0	0.05765134
90	0x3e15a78e	0.14614698
91	0xbd43af75	-0.04777475
92	0x3e078091	0.13232638
93	0xbe085b97	-0.13316189
94	0xbd8dc0c5	-0.069215335
95	0xbcabb83e	-0.020961877
96	0xbdff2e10	-0.124599576
97	0x3d66fb5d	0.056392062
98	0x3ba857aa	0.0051374035
99	0xbdbc281e	-0.09187339
100	0x3e02fee2	0.12792543
101	0x3dcf539a	0.101233676
102	0xbe044aba	-0.12919131
103	0x3cd9385b	0.02651613
104	0x3e21365c	0.15743393
105	0xbdd80f09	-0.10549743
106	0xbdb201c5	-0.08691744
107	0xbcc2b7ad	-0.023769224
108	0xbbd85e89	-0.0066030663
109	0xbdf6925a	-0.12039633
110	0x3d08ff9b	0.03344689
111	0xb9f78b0d	-0.00047215112
112	0x3c82335a	0.015893627
113	0xbde238af	-0.11045968
114	0xbbb6a20e	-0.0055735176
115	0x3dbfc1d2	0.0936314
116	0xbd81da6d	-0.063404895
117	0xbcd9d0be	-0.026588794
118	0xbe0b57a9	-0.13607658
119	0xbdbb14e2	-0.091348425
120	0xbe5f0a58	-0.2178129
121	0x3de20ab0	0.11037195
122	0xbd779b36	-0.060450755
123	0x3e1e5e02	0.15465549
124	0x3d586d5c	0.05283867
125	0xbda80bbd	-0.08205364
126	0xbe2faf1c	-0.17156643
127	0x3d6acffb	0.057327252
128	0xbe336cca	-0.17521968
129	0xbe15a1ec	-0.1461255
130	0xbdd7a58f	-0.10529625
131	0x3bc009a6	0.005860525
132	0x3d92f81e	0.07176231
133	0x3d81335b	0.063086234
134	0x3e2e5f29	0.17028488
135	0xbd3bf9a1	-0.04589236
136	0x3db9d4c4	0.09073785
137	0xb9b74d97	-0.0003496229
138	0x3d8daec8	0.069181025
139	0x3bafc43d	0.0053639696
140	0xbe195950	-0.14975476
141	0xbd812ceb	-0.063073955
142	0x3ca7d04c	0.020485066
143	0xbca154e1	-0.019693794
144	0x3e48e360	0.19617987
145	0x3d8373bc	0.06418559
146	0x3b312b0b	0.0027033712
147	0x3d1b30de	0.0378884
148	0xbd8ab0af	-0.06771981
149	0x3d937f6c	0.07202038
150	0xbdacad2c	-0.084314674
151	0xbd9a98f6	-0.07548706
152	0xbd7e69b0	-0.06211251
153	0x3e55f1f8	0.20893085
154	0x3dda55c9	0.106608935
155	0xbe0f823c	-0.14014524
156	0x3d2596a6	0.040426873
157	0xbcc74e59	-0.024329351
158	0x3d6d9c2f	0.058010276
159	0xbd70cfc9	-0.05879191
160	0xbe260544	-0.16212946
161	0x3dfc4a91	0.1231891
162	0xbd8dff21	-0.069334276
163	0x3a9b7667	0.0011860848
164	0x3d17d7f0	0.03707117
165	0xbc36fb58	-0.011168323
166	0x3c808bb0	0.015691608
167	0x3d2b3f94	0.04180868
168	0xbc85a21a	-0.016312648
169	0xbde92aae	-0.11385094
170	0xbe49f6bd	-0.1972303
171	0xbdde1098	-0.10843009
172	0x3df61f5c	0.120177
173	0xbd1950f4	-0.03743072
174	0x3df171e8	0.11789304
175	0xbdb450a5	-0.08804444
176	0xbd095d35	-0.033536155
177	0x3daeb543	0.08530667
178	0xbe207023	-0.15667777
179	0xbe4461e2	-0.19177964
180	0x3da523fe	0.080635056
181	0x3da8fff5	0.08251945
182	0xbd375d69	-0.044766817
183	0x3d22edf8	0.039777726
184	0x3dcb3cf4	0.09923735
185	0xbdaa1df4	-0.08306494
186	0xbd6294b4	-0.055317596
187	0xbcd72b3c	-0.026265733
188	0xbce185a8	-0.027529553
189	0x3cbacd24	0.022802897
190	0xbd6b95c6	-0.057515882
191	0xbdde17fa	-0.10844417
192	0x3d4f258f	0.050572928
193	0x3d479dec	0.04873459
194	0xbd4c5c10	-0.049892485
195	0x3d65e7de	0.05612933
196	0x3e08e5db	0.13368933
197	0xbd7086d2	-0.058722325
198	0x3dea8048	0.11450249
199	0x3da71cc8	0.081597865
200	0x3cbda40f	0.023149518
201	0x3bba8e2a	0.005693217
202	0x3ca92dc4	0.020651706
203	0x3db9d0f4	0.09073058
204	0x3b58ad32	0.0033062217
205	0xbcdfc90d	-0.027317548
206	0x3e0a2da5	0.13493975
207	0x3e1cf1f5	0.15326674
208	0x3c4bb25a	0.012432659
209	0xbdf225e0	-0.1182363
210	0xbc602bd9	-0.013682329
211	0xbd3fc5aa	-0.046819367
212	0x3d5d80e1	0.054077987
213	0xbd019b0b	-0.031642
214	0x3e0d81fb	0.13819115
215	0x3d6ccfa4	0.05781521
216	0x3d8c21c2	0.06842376
217	0xbe1d94c8	-0.15388787
218	0xbdb61675	-0.08891002
219	0xbd9d6f50	-0.07687247
220	0xbd3e07de	-0.04639422
221	0xbd06af3c	-0.03288196
222	0x3dcb5e40	0.09930086
223	0x3cdb225a	0.026749779
224	0x3b07886d	0.0020680681
225	0x3c6a4d81	0.014300705
226	0x3c59ef38	0.013301663
227	0x3c396a72	0.011316882
228	0x3d1c895d	0.038216937
229	0xbc2fd593	-0.010732072
230	0xbdf0b95a	-0.11754103
231	0xbd00dbd0	-0.03145963
232	0x3d551c71	0.052029077
233	0xbdc48478	-0.09595579
234	0xbd72d4c9	-0.05928496
235	0xbdc5ba2c	-0.0965465
236	0xbcaa2075	-0.02076743
237	0xbd3e1a67	-0.046411898
238	0xbe181ee4	-0.14855534
239	0x3c986965	0.018604944
240	0x3db2a270	0.08722389
241	0xbda4c4d0	-0.080453515
242	0xbd31af74	-0.043380216
243	0x3c9ff2f6	0.019525032
244	0xbb8f68e5	-0.004376518
245	0x3b335695	0.002736484
246	0xbce40312	-0.027833495
247	0xbd779f89	-0.06045488
248	0xbdb13652	-0.08652939
249	0x3d49438e	0.04913669
250	0x3bafdcd7	0.0053669023
251	0x3dfca879	0.12336821
252	0xbc1d8682	-0.009614589
253	0xbbc62ebb	-0.006048051
254	0x3dc8dba1	0.09807516
255	0x3dd3ef5a	0.10348387

hidden.1.bias f4 [99]
0	0xbdbfca97	-0.09364813
1	0x3cbb90b2	0.022896145
2	0xbd4d6d73	-0.050153207
3	0x3d1edbb8	0.03878376
4	0x3d104fcb	0.035232347
5	0xbd5abd82	-0.053403385
6	0xbb9d4551	-0.004799523
7	0xbbb40f68	-0.0054950006
8	0xbcc82e80	-0.024436235
9	0xbdf2b049	-0.1185003
10	0xbcdee92e	-0.027210798
11	0x3c46236d	0.012093407
12	0xbdaf3b7d	-0.08556268
13	0x3d0e41b4	0.034730628
14	0xbca88628	-0.020571783
15	0xbc98aae9	-0.018636184
16	0xbd8d2621	-0.06892038
17	0x3d63f58e	0.0556541
18	0xbcbb4a97	-0.022862716
19	0xbda458a4	-0.08024719
20	0xbd71101f	-0.058853265
21	0x3d148bb4	0.036266044
22	0xbd1506c1	-0.036383394
23	0xbd90d077	-0.070710115
24	0xbd83b757	-0.06431454
25	0xbd8e88e2	-0.06959702
26	0x3d8ebd60	0.06969714
27	0xbdba7a38	-0.091053426
28	0xbd295e52	-0.041349716
29	0xbc1dc071	-0.009628401
30	0x3e0095f0	0.12557197
31	0x3dab04cc	0.08350524
32	0x3e007966	0.1254631
33	0xbdcf57fb	-0.10124203
34	0x3d17f7e9	0.03710166
35	0xbd89fbec	-0.067375034
36	0x3d488462	0.048954375
37	0xbdea461e	-0.11439155
38	0xbcb8620c	-0.02250769
39	0xbd280256	-0.041017853
40	0xbdf3ce13	-0.1190454
41	0x3dd6055a	0.104502395
42	0x3c2e5f0a	0.010642776
43	0xbdb3d6e1	-0.08781219
44	0xbd9585b8	-0.073008955
45	0xbc9c6860	-0.019092739
46	0xbe0978bb	-0.13424961
47	0x3decf0be	0.115693554
48	0xbc18238e	-0.009285821
49	0xbca58b66	-0.020208072
50	0xbc432b65	-0.0119122015
51	0x3da5df51	0.08099235
52	0xbd6d305a	-0.05790744
53	0x3da7a1f4	0.08185187
54	0xbdb8eef5	-0.090299524
55	0xbd1164de	-0.035496585
56	0x3ceb6ece	0.02873936
57	0x3d1df26f	0.03856128
58	0x3cd270b7	0.025688512
59	0xbd8a7bdd	-0.06761906
60	0xbc9d7e7b	-0.01922535
61	0x3b1ad5ae	0.0023625898
62	0x3d0209fd	0.031747807
63	0x3df8bf63	0.12145879
64	0x3d95c8cb	0.07313689
65	0xbc6947cb	-0.014238308
66	0x3d20c6e9	0.039252196
67	0xbcd18be2	-0.025579397
68	0xbdd57d5c	-0.10424301
69	0x3d4c5ffd	0.04989623
70	0x3cb4ed1f	0.022085724
71	0x3d34ce5c	0.044142112
72	0xbd6e0dd9	-0.058118675
73	0x3c032295	0.0080038505
74	0xbd8b4fb6	-0.06802313
75	0x3d860b02	0.06545068
76	0x3d790cec	0.06080334
77	0xbc459071	-0.012058363
78	0x3dc92efb	0.09823414
79	0xbd3044d0	-0.043034375
80	0x3d892407	0.06696325
81	0x3dbca11b	0.09210416
82	0x3d77d1ba	0.060502745
83	0xbddc877f	-0.10768031
84	0x3d6a162e	0.05715006
85	0xbddb35ff	-0.10703658
86	0xbe0ab5de	-0.1354594
87	0xbdad4376	-0.08460133
88	0xbd05c20b	-0.032655757
89	0xbd49d24b	-0.049272817
90	0xbd1ca5df	-0.038244125
91	0xbb0e33f3	-0.0021698445
92	0x3dd52850	0.104080796
93	0x3cef5a9e	0.029218014
94	0x3be5fb24	0.0070184637
95	0xbdd512ef	-0.10404002
96	0xbde3168b	-0.11088284
97	0x3d0dd907	0.0346308
98	0xbce83fab	-0.028350672

hidden.2.weight f4 [99, 99]
0	0x3d5663b1	0.052341167
1	0x3e194e9c	0.14971393
2	0x3dad2d60	0.0845592
3	0x3d5658ae	0.052330665
4	0xbd3186e8	-0.043341547
5	0xbbb7b947	-0.0056068036
6	0xbd9f7cbd	-0.07787464
7	0xbcec18b0	-0.028820366
8	0xbe3438fe	-0.17599866
9	0x3e06ccbc	0.13164037
10	0x3ce157a4	0.02750761
11	0x3d2e41da	0.04254327
12	0xbd054d1f	-0.03254425
13	0x3c40cca9	0.011767545
14	0x3df3e0d7	0.11908119
15	0x3ac6b6d4	0.0015160688
16	0xbe480a2e	-0.19535133
17	0x3d1d3418	0.03837976
18	0x3dcebb29	0.10094292
19	0xbdb54153	-0.0885035
20	0xbcffdc7f	-0.03123307
21	0xbdfdcf6f	-0.123930804
22	0xbd9f789b	-0.077866755
23	0xbd910095	-0.07080189
24	0x3d844e51	0.0646025
25	0x3c2906c2	0.010316553
26	0xb8db585c	-0.00010459192
27	0xbc4921b3	-0.012276101
28	0x3a6722e4	0.000881715
29	0xbe0f5f34	-0.14001161
30	0xbd7e4a15	-0.06208237
31	0x3c8559c8	0.016278163
32	0xbd222598	-0.039586633
33	0x3d8a6964	0.06758383
34	0x3d6ba909	0.05753425
35	0x3e6f0953	0.233434
36	0x3c491c4c	0.012274813
37	0xbe0647db	-0.13113348
38	0xbd2b24ec	-0.04178326
39	0xbe25c65d	-0.16188951
40	0xbd4ee45c	-0.05051075
41	0xbde1b1c0	-0.11020231
42	0x3e05880d	0.1304018
43	0x3d207d52	0.039182015
44	0xbd09eb83	-0.033671867
45	0xba58f1a9	-0.0008275756
46	0x3dc185ec	0.09449372
47	0xbd90dcd4	-0.070733696
48	0x3dc43441	0.09580279
49	0x3de63fec	0.11242661
50	0xbd9c2f5e	-0.07626222
51	0xbd1cbeb0	-0.03826779
52	0x3d6bbb4d	0.05755167
53	0xbd9d7615	-0.07688538
54	0x3dbd5291	0.09244264
55	0xbdde12bb	-0.10843416
56	0xbd3a8be0	-0.04554355
57	0x3dbbd4dc	0.09171459
58	0x3df91e4c	0.12163982
59	0xbe1bbaab	-0.15207927
60	0xbd2af15b	-0.04173408
61	0xbe85c6ac	-0.26128137
62	0xbc2265cc	-0.009911966
63	0x3d99830c	0.07495698
64	0xbd105ec1	-0.035246614
65	0x3da6308f	0.081147306
66	0x3e4c9605	0.19979103
67	0xbc140be6	-0.00903604
68	0x3e829735	0.25505987
69	0x3d817b8f	0.06322395
70	0x3d68dfb2	0.056853957
71	0x3d8dc9cb	0.069232546
72	0xbd182215	-0.03714188
73	0x3d2a8d3f	0.04163861
74	0x3d33fafd	0.043940533
75	0xbdb6bedf	-0.089231245
76	0xbe3442fa	-0.17603675
77	0xbdb37cf0	-0.08764064
78	0xbdc93e55	-0.09826342
79	0x3ceff315	0.029290715
80	0xbdd0fee3	-0.10204866
81	0xbe665db9	-0.2249669
82	0xbdd40890	-0.10353196
83	0x3d05370a	0.032523192
84	0x3d90b6f9	0.07066149
85	0x3d0f0274	0.03491445
86	0xbca467e2	-0.020069066
87	0x3dbd1c24	0.09233883
88	0xbd51abed	-0.05118935
89	0x3c24aee4	0.010051463
90	0xbddc4bd5	-0.10756651
91	0xbdcf7eb7	-0.10131591
92	0x3e05f26f	0.13080762
93	0x3d6286b8	0.05530426
94	0xbdd6d1d7	-0.104892425
95	0xbdd3e600	-0.103466034
96	0x3d2780be	0.040894262
97	0xbca178a3	-0.019710844
98	0x3e86b538	0.26310134
99	0x3dc02eea	0.09383948
100	0xbd971453	-0.073769234
101	0x3de92881	0.11384679
102	0xbcb5c137	-0.022186859
103	0xbdcf5e08	-0.10125357
104	0x3c581f5c	0.01319107
105	0x3c611123	0.013736996
106	0x3d2293a7	0.039691593
107	0x3e06a5f1	0.13149239
108	0xbd56b2c3	-0.052416574
109	0xbd853d72	-0.065058604
110	0xbde9cd08	-0.1141606
111	0x3d3ef429	0.046619568
112	0x3ce47721	0.027888836
113	0x3da344dd	0.07972119
114	0xbd5a53ed	-0.053302694
115	0xbd7552c7	-0.059893396
116	0xbd4b7c16	-0.049678884
117	0x3e3c469b	0.18386309
118	0x3b50f0ac	0.0031881733
119	0xbd055367	-0.03255024
120	0x3d950352	0.07276024
121	0xbcc32905	-0.02382327
122	0x3e333a7d	0.1750278
123	0xbcd0927e	-0.025460478
124	0x3e1af0a9	0.15130867
125	0xbbf9dad0	-0.0076249614
126	0x3defcfb8	0.11709541
127	0x3d46b291	0.048510138
128	0x3ba4d191	0.005029865
129	0x3d3c78f9	0.046013806
130	0x3e1667ed	0.14688082
131	0x3d11eb1e	0.035624616
132	0xbdcc88ab	-0.09987005
133	0xbdc0692e	-0.093950614
134	0x3d81724c	0.063206285
135	0xbd7c7d26	-0.06164279
136	0x3c6b1108	0.014347322
137	0xbe2515f4	-0.16121656
138	0x3d8c9ec7	0.06866222
139	0xbb9fbb3c	-0.004874615
140	0x3de87bc8	0.113517344
141	0xbe03741d	-0.12837262
142	0xbd426d18	-0.04746732
143	0x3e35fe95	0.17772897
144	0x3d3d039b	0.046146017
145	0x3da01273	0.07816019
146	0x3dec169c	0.1152775
147	0xbdbe3455	-0.09287325
148	0x3d258133	0.040406417
149	0xbcea9bb3	-0.028638696
150	0xbe4e56cc	-0.20150298
151	0xbdd34897	-0.1031658
152	0xbdade575	-0.08491031
153	0xbdf4c93c	-0.11952445
154	0x3d282705	0.041052837
155	0x3d87386f	0.06602561
156	0xbe083f93	-0.13305502
157	0xbcda2ce1	-0.026632728
158	0x3e3673b7	0.17817579
159	0x3e28a8c8	0.16470635
160	0x3bc2aeae	0.0059412336
161	0x3d20227a	0.03909538
162	0xbd26f05a	-0.04075656
163	0xbc3f76a8	-0.011686005
164	0xbbdd7ee4	-0.0067595113
165	0x3d3ec318	0.046572775
166	0xbd9f1061	-0.07766796
167	0xbd363304	-0.044482246
168	0xbdd82e86	-0.10555749
169	0x3cb9cfae	0.022682037
170	0xbca2505e	-0.019813713
171	0x3ca1a37b	0.019731274
172	0x3d572114	0.05252178
173	0xbdab1865	-0.08354262
174	0xbd133fec	-0.035949633
175	0xbe5122d3	-0.2042344
176	0xbde2d7e0	-0.11076331
177	0x3d6413c5	0.055682916
178	0xbc40d73e	-0.011770068
179	0xbdeac735	-0.11463777
180	0x3d8d43b0	0.06897676
181	0xbd9a7be8	-0.075431645
182	0x3e43e76e	0.19131252
183	0x3d938267	0.07202607
184	0xbdbe8647	-0.09302955
185	0xbde4bc42	-0.1116872
186	0xbc14aa8a	-0.009073863
187	0xbdd47d12	-0.10375418
188	0xbdc73ee3	-0.097287916
189	0x3d4ab2dc	0.04948698
190	0xbd85bd73	-0.06530275
191	0xbe1a327e	-0.15058324
192	0x3df00e66	0.11721496
193	0x3d39ac3b	0.045330267
194	0x3d8cc433	0.068733595
195	0x3d558b0e	0.052134566
196	0xbc90e7a5	-0.017688582
197	0xbd10d977	-0.03536364
198	0xbda84b61	-0.082175024
199	0xbcb4f112	-0.022087608
200	0xbcd466c4	-0.025927909
201	0x3d9b31e8	0.07577878
202	0xbd2d4b5d	-0.0423082
203	0xbd2e12a1	-0.042498235
204	0xbd901706	-0.07035641
205	0x3d183e95	0.037169058
206	0x3e10e6cf	0.14150546
207	0xbcee2987	-0.029072536
208	0x3e3c5ee1	0.18395568
209	0xbdb561f5	-0.088565744
210	0xbe1b4034	-0.1516121
211	0xbc7ff3ed	-0.015622121
212	0xbe12ca9b	-0.143351
213	0x3e14ca19	0.14530219
214	0xbdc307b4	-0.09522954
215	0xbde22e83	-0.11044028
216	0x3d79cd98	0.060987085
217	0x3d243e4d	0.040098477
218	0xbc58a9b7	-0.013224057
219	0x3e0898fd	0.1333961
220	0xbdc21232	-0.09476127
221	0x3d5b9ec0	0.053618193
222	0xbbd17d25	-0.006393092
223	0xbd8494e4	-0.06473711
224	0xbe1149a2	-0.14188245
225	0x3d78783a	0.060661532
226	0x3c986cfc	0.018606655
227	0xbca80730	-0.02051124
228	0xbd9ce2f2	-0.07660474
229	0xbd8da576	-0.06916325
230	0xbb60f465	-0.0034325358
231	0x3d92547e	0.07145022
232	0xbd5dc0c1	-0.054138903
233	0x3c7a8caf	0.015292331
234	0xbe0fa8c4	-0.14029223
235	0xbac08a3b	-0.0014689633
236	0x3d39caf4	0.045359567
237	0x3e12f741	0.14352132
238	0xbda0e092	-0.078553334
239	0xbbb7b259	-0.0056059775
240	0x3df493a6	0.11942224
241	0x3dd32939	0.10310597
242	0xbd4a18b5	-0.04933997
243	0xbe3ce96a	-0.18448415
244	0xbd067121	-0.032822732
245	0x3d4dd970	0.050256193
246	0xbce1bebd	-0.027556771
247	0x3d8290ff	0.06375312
248	0x3e3e7a89	0.18601431
249	0xbd5cb367	-0.05388203
250	0x3de1c839	0.110245176
251	0x3cdbf787	0.026851429
252	0xbcaecf67	-0.021339132
253	0x3db141d3	0.08655133
254	0x3dbc6df6	0.09200661
255	0x3d216dee	0.039411478

hidden.2.bias f4 [99]
0	0x3dbdfaf4	0.09276381
1	0xbd4b0f0f	-0.049574908
2	0x3c4da3e5	0.0125512825
3	0x3cc25bc4	0.023725398
4	0xbe06b8f7	-0.13156496
5	0x3da4a2db	0.08038875
6	0xbcc1ee79	-0.023673283
7	0xbd61f8d1	-0.05516893
8	0xbdd90e3e	-0.105984196
9	0x3d96f4b9	0.07370896
10	0x3da929f8	0.08259958
11	0x3e0f5b7d	0.13999744
12	0xbc70aa44	-0.014689032
13	0x3cdc1d69	0.026869493
14	0x3d878ae1	0.06618286
15	0x3db5fd84	0.08886245
16	0xbd5a7af5	-0.053339917
17	0x3c4eaf14	0.012614984
18	0x3dafff94	0.085936695
19	0xbc6e229d	-0.01453462
20	0x3dbd57af	0.0924524
21	0xbbb4340d	-0.005499369
22	0x3db9bfeb	0.090698086
23	0x3d9d8d7a	0.07693
24	0xbd5870b8	-0.052841872
25	0x3d0d87cc	0.034553334
26	0x3dbc1049	0.09182794
27	0xbc9d25c1	-0.019183042
28	0xbce0ced8	-0.02744238
29	0x3d53c56e	0.051701955
30	0xbb18f976	-0.002334205
31	0xbceb4b95	-0.028722564
32	0x3d385547	0.0450032
33	0xbda66821	-0.0812533
34	0x3da74f0c	0.08169374
35	0xbc5ae6bd	-0.013360676
36	0xbbe45e02	-0.0069692144
37	0xbcfc6cc8	-0.03081359
38	0x3d8689b6	0.06569235
39	0xbd559600	-0.052145004
40	0x3e15b9fa	0.14621726
41	0x3d8dda16	0.06926362
42	0x3db0b3d4	0.086280495
43	0xbe0ff1ec	-0.1405713
44	0xbc4afd4e	-0.012389494
45	0xbdc2047a	-0.0947351
46	0x3dfb7064	0.12277296
47	0xbdb39cd8	-0.0877015
48	0xbb93e468	-0.004513312
49	0x3d99985b	0.074997626
50	0x3cfcbf60	0.030852973
51	0x3d57b298	0.052660555
52	0xbd18d91c	-0.037316427
53	0x3c36af85	0.011150246
54	0x3da00c84	0.07814887
55	0x3d36e071	0.044647638
56	0xbd8f3a44	-0.06993535
57	0xbd415afe	-0.047205918
58	0xbda2a41a	-0.07941456
59	0xbcb86dec	-0.022513352
60	0xbdacffae	-0.084472045
61	0x3de8979f	0.113570444
62	0x3c8a8eb0	0.016913742
63	0x3de77806	0.113021895
64	0xbc476e50	-0.012172297
65	0xbddcde55	-0.10784594
66	0x3dcbfc3d	0.0996022
67	0xbd01e2ea	-0.031710543
68	0x3cbd1adc	0.023084097
69	0xbc0a0f14	-0.0084264465
70	0x3d9ffbfa	0.078117326
71	0x3de606c7	0.112317614
72	0x3d9a7661	0.0754211
73	0x3d9a4eaf	0.07534539
74	0xbdebf89b	-0.11522027
75	0xbdfd25ca	-0.12360723
76	0xbc4d2384	-0.012520675
77	0xbe093f0a	-0.13402954
78	0xbd2f8b18	-0.04285726
79	0x3d31de4a	0.043424882
80	0x3b3316f8	0.0027326923
81	0x3da1a8cf	0.07893526
82	0xbde05ec3	-0.10955574
83	0x3c529e4f	0.0128551265
84	0x3e22d021	0.15899707
85	0x3dbda938	0.092607915
86	0xbdf7911d	-0.12088225
87	0x3b74b930	0.0037341826
88	0xbd3727b2	-0.04471559
89	0x3de53192	0.111910954
90	0xbceb438a	-0.028718729
91	0xbb2ad018	-0.0026063975
92	0x3d8d2558	0.068918884
93	0xbd97da83	-0.07414725
94	0xbbd0c98d	-0.006371683
95	0x3bad0cab	0.005281051
96	0x3cac017d	0.020996803
97	0x3d3ca9ce	0.046060376
98	0xbd2bb588	-0.04192117

hidden.3.weight f4 [99, 99]
0	0xbd6a5fa2	-0.05722011
1	0x3d612a47	0.05497196
2	0xbcb34ac5	-0.021886239
3	0x3c5a8225	0.013336693
4	0x3d99029f	0.07471203
5	0x3c2442e0	0.01002571
6	0xbc862077	-0.016372902
7	0x3db1cdf7	0.08681863
8	0xbcd934a4	-0.026514359
9	0xbd5333a3	-0.051562916
10	0xbd7f683d	-0.06235527
11	0x3daa8cd3	0.08327641
12	0x3d50031d	0.05078422
13	0xbda08e58	-0.0783965
14	0x3e1b0047	0.15136825
15	0x3e0b7aef	0.13621114
16	0xbdc50263	-0.09619596
17	0xbe271a45	-0.16318615
18	0xbb0d35ad	-0.0021546886
19	0x3da88503	0.08228495
20	0xbdde47d2	-0.108535424
21	0x3d8ab821	0.06773401
22	0x3d66614b	0.05624513
23	0x3d3aae29	0.04557625
24	0x3d7d5362	0.0618471
25	0x3e01421c	0.12622875
26	0xbe2a01ea	-0.16602293
27	0x3ca3c7f3	0.019992804
28	0xbda0dd9c	-0.07854769
29	0xbd901c5a	-0.07036658
30	0xbd1ed9c0	-0.03878188
31	0x3c30ba6b	0.010786633
32	0x3dd81772	0.10551347
33	0xbd7ada43	-0.061243307
34	0xbe29cad0	-0.16581273
35	0x3cf82dd9	0.0302953
36	0xbe1cbdad	-0.1530673
37	0x3d85df21	0.06536699
38	0x3d893d69	0.06701166
39	0x3d9be40d	0.076118566
40	0xbd8095de	-0.06278585
41	0xbe5b3ba4	-0.2140947
42	0x3d8a2584	0.06745437
43	0x3da791c0	0.081820965
44	0x3d96f3f3	0.07370748
45	0x3dc08ac9	0.09401471
46	0x3cf807c5	0.030277142
47	0x3e2e02e7	0.16993295
48	0x3d75e9bf	0.06003737
49	0x3d4e4ea3	0.050367963
50	0x3c917680	0.0177567
51	0xbc3091d1	-0.010776953
52	0xbdf772ec	-0.120824665
53	0x3d001e3c	0.031278834
54	0xbe1148b0	-0.14187884
55	0xbdd1560c	-0.1022149
56	0xbdddfb5e	-0.1083896
57	0xbd67707e	-0.056503765
58	0xbd0e7630	-0.03478068
59	0xbddf7dec	-0.109126896
60	0xbacc403c	-0.0015583108
61	0xbc16513a	-0.009174639
62	0x3df60357	0.12012356
63	0xbd99a088	-0.07501322
64	0xbdf36e44	-0.11886266
65	0xbc8c0369	-0.01709147
66	0xbe0fa4e7	-0.14027749
67	0xbde44fd6	-0.1114804
68	0xbcc0986f	-0.023510186
69	0x3db7e107	0.089784674
70	0x3dc17462	0.094460264
71	0xbd12b346	-0.0358155
72	0x3dcc229d	0.099675395
73	0x3d9862a0	0.07440686
74	0xbe276327	-0.16346417
75	0x3d72bcbb	0.05926202
76	0xbd8a638f	-0.067572705
77	0x3c6f060e	0.014588846
78	0x3e32d21e	0.17462966
79	0xbd91780b	-0.071029745
80	0xbd404cd0	-0.046948254
81	0x3d809482	0.062783256
82	0xbe382e83	-0.17986493
83	0xbdb4f48a	-0.088357046
84	0xbd487346	-0.04893806
85	0x3e0d4cc3	0.13798814
86	0x3d9b7aec	0.07591805
87	0x3e17b24b	0.14814107
88	0xbdd1d3af	-0.102454536
89	0x3dd65dcc	0.10467109
90	0x3d1bb61e	0.038015477
91	0x3d08c84d	0.033394147
92	0xbd1f9aaa	-0.03896586
93	0xbdc27f4c	-0.09496936
94	0x3e16e25a	0.14734784
95	0x3cef7cd5	0.02923433
96	0x3da797cf	0.08183252
97	0x3e1195cc	0.14217299
98	0x3d5594e2	0.05214394
99	0xbdde445a	-0.10852881
100	0x3e3ecfe5	0.18633993
101	0xbe3df00a	-0.18548599
102	0xbbc2baf7	-0.005942698
103	0x3b1dc089	0.0024071059
104	0x3ddbcfdd	0.10733006
105	0xbd45e2f2	-0.048312135
106	0x3dc6183f	0.09672593
107	0x3dc1d67f	0.0946474
108	0x3dc76f9b	0.09738084
109	0x3dea3761	0.11436344
110	0xbcca911d	-0.024727399
111	0x3d800da7	0.06252604
112	0x3d9ab091	0.075532086
113	0xbdfc5a8b	-0.12321957
114	0x3a089316	0.0005209906
115	0x3e309604	0.17244726
116	0x3dfdc131	0.12390364
117	0x3d82026e	0.0634812
118	0xbe2e262f	-0.17006753
119	0xbd9b4785	-0.07582001
120	0x3e3804f5	0.17970641
121	0x3e41e9be	0.18936822
122	0xbd50c3a9	-0.050967846
123	0x3db5e768	0.08882028
124	0xbdea5e6e	-0.11443792
125	0xbd9ba2f6	-0.07599442
126	0x3d4d9939	0.050194953
127	0x3e72dc82	0.2371693
128	0xbd4f9bd9	-0.050685737
129	0x3d575063	0.052566897
130	0x3dbae9b3	0.09126606
131	0x3d8259a5	0.063647546
132	0xbd098cbf	-0.03358149
133	0xbd8f994e	-0.070116624
134	0xbd074429	-0.033023987
135	0x3db7cc80	0.08974552
136	0x3c01f90d	0.0079329135
137	0xbb304697	-0.0026897544
138	0x3d8a5eff	0.067564
139	0x3e194e00	0.14971161
140	0xbd8ad203	-0.06778338
141	0x3d6956f0	0.056967676
142	0xbda8c1f7	-0.08240121
143	0x3d906297	0.070500545
144	0x3cca9d79	0.024733292
145	0xbdca2a85	-0.09871391
146	0x3d565c93	0.05233438
147	0x3de38dd9	0.1111104
148	0xbda46952	-0.08027901
149	0x3b47ed9b	0.0030506614
150	0xbd170042	-0.03686548
151	0xbd2981a2	-0.041383393
152	0xbe59e7d2	-0.21279839
153	0x3d9fe805	0.07807926
154	0x3d9e5efd	0.07732961
155	0x3d2848cc	0.04108505
156	0x3e413b83	0.18870358
157	0xbd155619	-0.036459062
158	0x3de1805f	0.11010813
159	0xbd3e9a1e	-0.046533696
160	0xbd31753e	-0.0433247
161	0xbdbd63f3	-0.092475794
162	0xbc787f17	-0.015167019
163	0x3e1fd345	0.15607937
164	0x3d89304b	0.06698664
165	0xbe8a44c4	-0.2700559
166	0xbe1e3dc6	-0.15453252
167	0xbe14076d	-0.14455958
168	0xbc98bfd9	-0.018646168
169	0x3c8ddc90	0.017317086
170	0x3ded12ce	0.11575852
171	0xbd0d648f	-0.03451973
172	0xbd21c018	-0.039489836
173	0xbd59dc20	-0.053188443
174	0xbd6db0d0	-0.05802995
175	0xbcad515f	-0.021156965
176	0xbe2fd972	-0.17172793
177	0xbc46c652	-0.012132244
178	0xbd999981	-0.07499982
179	0xbdcfcc0a	-0.10146339
180	0xbdcbd049	-0.099518366
181	0x3e3d0325	0.18458231
182	0xbdaee3a2	-0.08539511
183	0xbb7af94e	-0.003829557
184	0xbd3fefc2	-0.04685951
185	0x3d22a701	0.03971005
186	0x3c81e75d	0.015857393
187	0x3e13f94d	0.1445057
188	0xbd883238	-0.066502035
189	0x3ceea01c	0.02912908
190	0x3d0f2710	0.034949362
191	0x3be1dd25	0.0068928176
192	0x3d476ea7	0.04868951
193	0x3c8c8d2f	0.017157165
194	0xbde3d54b	-0.11124667
195	0x3df636f9	0.12022204
196	0xbb1f604f	-0.002431888
197	0xbb1e0d4d	-0.0024116815
198	0xbd53041c	-0.05151759
199	0x3dce25fe	0.1006584
200	0x3c9a4b91	0.018834861
201	0xbbee2218	-0.007267248
202	0x3d81369f	0.06309246
203	0x3cb230ad	0.021751726
204	0xbdb203e1	-0.08692146
205	0x3d1a535d	0.037677158
206	0x3d61f3f0	0.055164278
207	0xbcd6873a	-0.026187528
208	0xbc25cc1a	-0.010119462
209	0x3d5b1ece	0.053496175
210	0x3d1d5d44	0.038419023
211	0x3e111d9b	0.1417145
212	0x3cc283bf	0.023744462
213	0xbde3eb06	-0.111288115
214	0x3d90a6c3	0.07063057
215	0xbdb21052	-0.08694519
216	0xbe3fa84d	-0.18716545
217	0x3cc4d40a	0.02402689
218	0xbd5aa1ff	-0.053377148
219	0xbdd095fc	-0.10184857
220	0xbe1486ac	-0.14504498
221	0x3e4f3b94	0.20237571
222	0xbd35d6d6	-0.044394337
223	0x3b6db8e6	0.0036273538
224	0xbe16c0e9	-0.14722027
225	0xbd244bd4	-0.040111378
226	0xbdb693aa	-0.089148834
227	0xbc4aae78	-0.012370698
228	0xbde8bf6e	-0.11364637
229	0x3df76b27	0.120809846
230	0x3d16d942	0.036828287
231	0xbd4e6717	-0.050391283
232	0x3ced90bd	0.02899968
233	0xbe5bc091	-0.21460177
234	0xbe450a7e	-0.19242284
235	0x3d929319	0.07156963
236	0x3da5b6c4	0.080915004
237	0x3e2cd194	0.16876823
238	0xbe12af39	-0.14324655
239	0xbcd9f6b8	-0.026606902
240	0x3dc28a4a	0.09499033
241	0xbddbc569	-0.107310124
242	0x3c75c7b9	0.015001231
243	0x3d877fc5	0.06616167
244	0x3cdbd029	0.026832657
245	0xbdb27b8d	-0.08714972
246	0xbda57c90	-0.08080399
247	0xbe3c1e6d	-0.18370982
248	0xbda843b0	-0.08216035
249	0x3cd4c018	0.025970504
250	0xbb423cef	-0.002963837
251	0xbd9ef8d0	-0.07762301
252	0xbdc954df	-0.09830641
253	0xbd57557e	-0.052571766
254	0xbd9384f4	-0.07203093
255	0xbe78323d	-0.24237914

hidden.3.bias f4 [99]
0	0x3db250b7	0.087068014
1	0xbda7b7ff	-0.08189391
2	0x3dcde6c1	0.100537784
3	0x3d37fa85	0.04491665
4	0xbd8b6a37	-0.06807368
5	0xbd9733a8	-0.073828995
6	0xbd4cd934	-0.05001183
7	0x3defa15a	0.11700697
8	0x3c9915de	0.018687185
9	0xbd5116f4	-0.05104728
10	0xbd14a5c0	-0.036290884
11	0xbdb8463b	-0.089977704
12	0x3d4f48a6	0.050606392
13	0xbd2be559	-0.04196677
14	0xbc95bd6c	-0.0182788
15	0xbcb60f24	-0.022224016
16	0x3d207712	0.039176054
17	0xbce3b8f7	-0.027798159
18	0xbb79cb4f	-0.0038115566
19	0xbdb403b6	-0.0878977
20	0x3d8abbc8	0.06774098
21	0xbd3277ed	-0.0435714
22	0x3d3a4a4f	0.045481022
23	0xbd56e190	-0.052461207
24	0xbd8ec92e	-0.06971966
25	0xbe55ab7f	-0.20866202
26	0x3e038269	0.12842716
27	0xbe19d158	-0.15021265
28	0xbd4401a7	-0.04785314
29	0x3b05f441	0.0020439776
30	0x3992abea	0.00027975376
31	0x3ce40db2	0.027838562
32	0x3dee62c6	0.11639933
33	0x3d9c70d2	0.07638706
34	0xbce30999	-0.027714537
35	0xbcc743d4	-0.024324335
36	0xbce7c9c3	-0.02829445
37	0x3ced6441	0.028978469
38	0xbb5497c6	-0.0032439097
39	0x3df049c8	0.11732823
40	0x3b96d778	0.0046033226
41	0xbbe54378	-0.0069965683
42	0xbd3b768f	-0.045767363
43	0xbd46b1b5	-0.04850932
44	0xbd2bae4b	-0.041914266
45	0xbd25dcd8	-0.040493816
46	0x3d9a09a0	0.07521367
47	0xbd83932f	-0.064245574
48	0x3d5b07d8	0.053474277
49	0x3da36a63	0.07979276
50	0x3d412c40	0.04716134
51	0x38b7db6d	8.766991e-05
52	0xbdc03083	-0.09384253
53	0xbdb34132	-0.087526694
54	0x3d8e5ba7	0.06951075
55	0xbc731620	-0.014836818
56	0x3d0b746e	0.034046583
57	0x3d61fa92	0.055170603
58	0xbc0a8efd	-0.008456943
59	0x3dab868f	0.083752744
60	0xbdacecb2	-0.084435835
61	0x3db8b9d1	0.09019817
62	0x3c5c4881	0.013445021
63	0xbd2e1c63	-0.04250754
64	0xbded4bf4	-0.115867525
65	0xbd2bac27	-0.041912224
66	0x3d9560c1	0.07293845
67	0x3d83f5c7	0.06443363
68	0xbd1d0327	-0.038333084
69	0x3cdb7e0e	0.026793506
70	0x3d467e0b	0.048460048
71	0xbd89c76e	-0.06727491
72	0xbca224ac	-0.019792877
73	0x3baebfd2	0.0053329254
74	0x3d94db29	0.07268364
75	0xbdff1051	-0.12454284
76	0x3d090fd9	0.03346238
77	0xbd1b8f47	-0.037978437
78	0xbd487439	-0.048938964
79	0xbda1f024	-0.07907131
80	0xbdee7cc2	-0.116448894
81	0xbd30b151	-0.043137852
82	0xbba4b109	-0.005025987
83	0xbd397fe8	-0.045287997
84	0x3df9cb9e	0.1219704
85	0xbcf7abe7	-0.030233337
86	0xbd8d570e	-0.0690137
87	0x3da28639	0.07935757
88	0xbd98c3b6	-0.07459204
89	0xbb8caedf	-0.004293307
90	0xbd004141	-0.03131223
91	0xbde093e0	-0.10965705
92	0x3b2a3978	0.0025974195
93	0xbcbd9558	-0.023142502
94	0x3d806072	0.062683955
95	0x3b64861a	0.003486997
96	0x3d9aa6ab	0.07551321
97	0x3dad252b	0.08454355
98	0xbd928ef0	-0.071561694
