models/7x7-4-99-tanh/24sekMC/125episodes.pth (torch, 202354 bytes, 12 tensors)

input_layer.weight f4 [99, 50]
000000 6e b2 9b 3d 85 15 65 be d9 ff 06 be 13 c6 3f be
       0.07602392 -0.2237149 -0.13183536 -0.18727903
000010 d2 75 01 be 9f 2f 09 be b8 b7 1f be 7e d9 04 3c
       -0.12642601 -0.13397072 -0.15597427 0.008108495
000020 d2 09 ab bc aa 50 88 3d 32 a5 5e 3c 23 a3 dc 3d
       -0.020878706 0.066560104 0.01358919 0.10773303
000030 d4 e5 54 bd 19 f2 d4 bd f1 75 14 bd e0 0f 80 3d
       -0.051976994 -0.10397739 -0.03624529 0.06253028
000040 14 e4 4c 3d ff ec 0c 3d 33 08 eb 3d 15 d5 5f bc
       0.0500222 0.034405705 0.11476173 -0.013661643
000050 16 7f 4b be ba 3d 53 3e 70 a6 56 bc 75 18 c4 3c
       -0.19872698 0.20629016 -0.013101205 0.023937443
000060 ea 31 43 3d ba 62 c7 3d 56 cb ac bd 72 95 2a be
       0.047655024 0.097356275 -0.08437221 -0.16658571
000070 c7 a7 28 be 3d e0 80 3d c2 b6 32 be 03 d0 07 be
       -0.16470252 0.0629277 -0.17452529 -0.13262944
000080 51 e0 c0 bb 57 8d 7f bd 85 e2 92 bd 67 fb a2 bc
       -0.0058861156 -0.06239065 -0.071721114 -0.019895269
000090 fd 48 71 bd ef 4c 2e 3d ab 57 05 be cc 99 21 be
       -0.058907498 0.04255384 -0.13021724 -0.15781325
0000a0 27 44 c3 3d 58 ba 6d bd 11 8c 9e 3d ff da e8 3b
       0.095344834 -0.05803904 0.07741559 0.0071061845
0000b0 81 b8 8e bc 02 9e 40 3e 8a 68 45 3d 90 70 0a be
       -0.017421963 0.18810275 0.0481954 -0.13519502
0000c0 e1 fd a1 bd cd 2d cb 3d 63 04 0d 3e 4a c4 05 be
       -0.07909752 0.09920845 0.13771205 -0.1306316
0000d0 e5 dc 0e 3d 7e 76 a5 bd ae 1b 77 bd 9c 3c 05 3e
       0.03487863 -0.08079241 -0.06032913 0.13011402
0000e0 a3 37 58 3d 14 9b 11 3e 5f 9a 01 be 81 bb 25 bc
       0.052787434 0.14219314 -0.12656544 -0.010115505
0000f0 92 e2 ed bd 8e c3 14 be e0 f3 2f 3e a2 d9 ef bd
       -0.116154805 -0.14527723 0.17182875 -0.11711432
000100 a4 5f 5f 3c 9a 4a 64 3d 3c 06 15 bd df 92 fc 3d
       0.013633642 0.055735208 -0.0363829 0.12332701
000110 37 91 e3 bd 05 d3 53 3c ad 5c 84 3d ac 22 f8 bb
       -0.11111682 0.012928729 0.06462989 -0.0075724926
000120 64 b8 49 bd 40 8e aa 3c fa df e4 bd ee d2 d0 bc
       -0.049248114 0.020819783 -0.11175533 -0.025491204
000130 65 aa 3a be a0 1a 50 3c 09 df f2 3d fd 19 12 be
       -0.18229063 0.01270166 0.11858947 -0.14267726
000140 99 44 6c 3c 6c 77 9f 3d 5e 0b dd 3d 51 bc 84 bc
       0.014420652 0.0778645 0.10793184 -0.016203078
000150 fe 6c 80 bc 7e 58 3b be 63 88 b2 bd 7f fd 1d bc
       -0.015676972 -0.18295476 -0.0871742 -0.009642958
000160 da 6c ba 3d c4 99 4c bc 22 aa f8 bd c6 05 5b bd
       0.09102793 -0.012487832 -0.12141825 -0.053472303
000170 99 d6 1f bd ab f7 e8 bb a3 5a 30 bd 44 e1 da bc
       -0.039023016 -0.0071096024 -0.043055188 -0.026718743
000180 44 4c 09 be 06 4e c8 bd d9 79 a8 bc fb c5 da 3b
       -0.13408 -0.09780507 -0.020565914 0.006676433
000190 8d af 97 be 83 09 ad bd af 2e e4 bd 24 ab da 3d
       -0.29626122 -0.0844908 -0.11141717 0.10677174
0001a0 48 5f 29 3c 16 e6 d9 3d a1 a7 40 bd aa 45 22 bc
       0.010337658 0.106395885 -0.047034863 -0.0099043045
0001b0 31 6e 22 3e a8 4c ef bd d4 2d ad bd e9 c9 3b be
       0.15862347 -0.11684543 -0.08456007 -0.18338741
0001c0 52 49 58 3d 71 52 ca 3d 28 4d cd bc e7 68 2d 3d
       0.0528043 0.09879006 -0.025061205 0.04233637
0001d0 13 64 40 bd 38 ed 12 3e be d0 09 3e 87 ac f2 3d
       -0.04697044 0.14348304 0.13458535 0.11849313
0001e0 76 2c b8 3b f8 14 0c 3e c8 10 ef bd 42 57 91 bd
       0.0056205345 0.13679874 -0.11673123 -0.07096721
0001f0 86 3f 01 3e 0b 9e 25 3d 54 c6 1a be 51 90 8b bd
       0.12621889 0.040433925 -0.15114719 -0.068146355
000200 50 f6 97 3c 5a ec a6 bd 45 23 54 3d 0b 6b b8 bd
       0.018550068 -0.08150549 0.05179145 -0.09004792
000210 bc 26 a4 3d de 34 97 bd 96 3e d5 3c 7e cc b4 3d
       0.080152005 -0.073831305 0.02603082 0.08828066
000220 96 e8 00 be 81 ec e0 bd 15 99 0a be d5 16 be 3d
       -0.12588724 -0.109826095 -0.13534959 0.092816986
000230 20 eb 9e bc dd 83 c7 bd 2f d7 ea 3c d4 77 c2 3d
       -0.019399226 -0.09741948 0.02866706 0.09495512
000240 ee 5e cd bc 92 49 a6 3d 8a 53 24 3e a5 d4 aa bd
       -0.02506968 0.08119501 0.16047493 -0.0834134
000250 53 73 a9 3c 84 40 8d bd a7 41 8a 3b ca 92 2d bd
       0.020684874 -0.06897071 0.004219252 -0.042376317
000260 b1 c0 04 be 17 da 93 bd 2c bf 6b bd af 1f 71 bd
       -0.12964131 -0.07219332 -0.057555363 -0.058868106
000270 28 bf 76 3d 8f 19 d7 3c 11 b7 c7 ba a5 c4 15 3e
       0.060240895 0.026257304 -0.0015237053 0.14625795
000280 56 45 03 3e 13 1b 24 be 92 bd 5d 3d 6d 45 12 bd
       0.12819418 -0.16025953 0.054135866 -0.03571074
000290 f4 f5 61 3e b4 54 18 3e e2 ef ee 3c 46 a2 f3 3d
       0.2206648 0.14876062 0.02916712 0.118961856
0002a0 01 ef 25 3c ac b2 72 bd 26 18 1f be 59 c3 fe 3d
       0.010127784 -0.059252426 -0.15536556 0.12439603
0002b0 6c 87 7d bd 12 3c 0c bc 69 65 bd bc 3b 29 cb bd
       -0.061896726 -0.008559244 -0.023119645 -0.099199735
0002c0 54 76 39 bd 19 a1 c0 bd 69 4f 3a be 7d 7f 95 bd
       -0.045278862 -0.09405727 -0.18194355 -0.07299707
0002d0 1b 48 74 3d 85 59 ca bc 6f 09 e3 bd cb 3f 62 bd
       0.059639078 -0.02470089 -0.11085784 -0.05523662
0002e0 31 1c 34 be a3 2e 23 3d be f0 79 3d 40 21 52 3c
       -0.17588879 0.039839398 0.061020605 0.01282531
0002f0 bd a3 e7 3d 5a 9a 24 3c cf c0 5a 3d e0 39 97 bd
       0.113105275 0.010046566 0.053406533 -0.07384086
000300 61 4b d1 bb d0 46 59 bc dd ed 02 3d 2c 57 2a 3e
       -0.0063871597 -0.013261512 0.031965125 0.16634816
000310 df f8 96 bd ea 3a ff bc 31 b5 0d 3d e0 fa bb bd
       -0.07371687 -0.031156022 0.034596626 -0.0917871
000320 2d 37 6a bd ac 35 7e bd d1 1a 69 3b e3 a0 40 3e
       -0.057181526 -0.062062904 0.0035568962 0.18811373
000330 3e 88 97 3c 79 cc 9f 3d ad 4c af bd 26 64 93 bd
       0.018497583 0.07802672 -0.085595466 -0.07196836
000340 f1 b2 ed 3c a1 3a 1c bd ed 98 29 3d d7 fb 11 3e
       0.02901599 -0.03814185 0.041405607 0.14256226
000350 1e d0 1c bc dc 5f 98 bd 8e 2f 17 be 28 fd 72 bd
       -0.009571103 -0.07440159 -0.14764234 -0.05932346
000360 c5 c1 1d 3e 6f a4 ba 3d dd c0 6a bd 11 5b 2d be
       0.15405948 0.091133945 -0.057312835 -0.1692927
000370 e0 56 23 3d 09 34 01 3e 30 aa 91 bd 21 7e 0e 3e
       0.039877772 0.12617506 -0.07112539 0.13915302
000380 af cb 0a be 9d 95 17 3d 18 e2 3b 3d 3c 76 ea bd
       -0.13554262 0.037007917 0.045869917 -0.11448333
000390 07 fa c6 3d b9 0a bd bd 31 22 6d 3d f7 55 ad 3d
       0.09715658 -0.09230561 0.057893936 0.08463662
0003a0 fa 43 0d bd 45 46 9f bd d8 2e b7 3d 71 1b 8c 3d
       -0.034488656 -0.07777075 0.089444816 0.068411715
0003b0 08 02 39 3d f5 0f 88 3b a9 2a 21 bd b5 28 bb 3d
       0.045167953 0.004152293 -0.039347325 0.091386236
0003c0 71 cc db bd 3c 3d 05 be dd 2f 16 bd 63 ff 0c 3d
       -0.107323535 -0.1301164 -0.03666674 0.034423243
0003d0 50 09 90 bd 01 0e 0a be 50 dd d2 bc a4 f4 27 be
       -0.07033026 -0.13481905 -0.025740296 -0.16401917
0003e0 b6 77 18 bc 70 2a d4 3d ee b6 82 bd 4f b0 92 bd
       -0.009305885 0.10359657 -0.06382547 -0.071625344
0003f0 72 3b 6c bd 5d f8 31 be ea 87 50 3d c0 56 9a bd
       -0.05767388 -0.173799 0.050910868 -0.075360775

input_layer.bias f4 [99]
000000 df 51 57 bc 52 bb 0e be 9e d7 12 3e f3 31 e3 bc
       -0.013142078 -0.13938645 0.14340064 -0.027733779
000010 99 5f 5c 3e 1a 89 00 be fe ba e4 bd e3 1a 2b 3d
       0.21520843 -0.125523 -0.111684784 0.041773688
000020 c0 f0 bc bd 10 be 28 3d f4 5e 1d be f5 aa b7 3c
       -0.09225607 0.041196883 -0.15368253 0.022420386
000030 28 06 c5 bd 78 80 fa 3d f8 85 38 bd d0 dd 4d 3d
       -0.09620315 0.12231535 -0.045049638 0.050260365
000040 30 22 61 bc 5e f3 09 be 50 7e cc bd 42 36 ba 3d
       -0.013741061 -0.13471743 -0.0998503 0.0909238
000050 5d 62 49 3d 4e 2a d6 3d 51 e9 d8 3d a2 2e e3 bd
       0.049166072 0.10457288 0.105913766 -0.11092879
000060 90 ae e6 3d 9e 33 19 3e e7 1b cc bd 5a e7 00 3e
       0.11263764 0.14961097 -0.099662594 0.12588254
000070 8a 7e 7e bc a9 a7 9d bd c1 df da bd ef 65 57 bc
       -0.015533099 -0.07697994 -0.10687209 -0.013146861
000080 7d 98 52 bc c8 50 c7 bd 48 b1 07 3d aa 1d f0 3d
       -0.012853739 -0.09732205 0.033128053 0.11724408
000090 04 65 22 bd e5 9b a7 bd 65 f9 f6 bd 9d 9a 48 bd
       -0.039647117 -0.081840314 -0.12059287 -0.048975576
0000a0 6f e4 f4 bc 5f 2a d4 3c 76 89 3b 3e 3b 09 d1 bd
       -0.029894082 0.02589911 0.18314156 -0.10206839
0000b0 5a d7 58 bd 46 70 97 3d 4b c4 4c 3c 3b de df 3d
       -0.05293975 0.07394461 0.012497972 0.10931059
0000c0 28 0d 99 3d 8a 2b 0d bd 70 b7 dc 3d 87 ee e3 3d
       0.074732125 -0.03446535 0.107771754 0.1112948
0000d0 9a 42 7d 3d f8 cc 28 bd 98 be c8 bd c7 8c 14 be
       0.061831094 -0.0412111 -0.09801978 -0.14506827
0000e0 4e 9a d2 bd 21 c8 fd bd 8a 20 02 be 18 91 4a bd
       -0.102833375 -0.12391687 -0.12707725 -0.04945478
0000f0 29 cd ee 3c 16 95 0c 3e 14 47 f0 3b c4 9e c2 3d
       0.029150562 0.13728747 0.007332692 0.095029384
000100 32 7d 0e be bb 66 db bc 66 2d df bd 1f f0 0a be
       -0.13914946 -0.026782384 -0.10897331 -0.13568161
000110 6b 6c 0e be ec 6f 8f bd 9d 49 e0 bd 3a a5 0a 3e
       -0.13908546 -0.07003769 -0.109515406 0.13539591
000120 99 5b 95 bd 4e f0 00 3e d0 19 dd bd 2d f8 fb bc
       -0.072928615 0.12591669 -0.10795939 -0.030757988
000130 6a 5f 97 bc 84 5a 3b be 54 da d3 3d f2 f2 a6 bd
       -0.018478114 -0.18296248 0.10344377 -0.08151807
000140 17 dd ec 3d 65 cd db bd 6c fb 0e be 86 7c 11 3e
       0.11565607 -0.10732535 -0.13963097 0.14207658
000150 c9 18 07 be c9 7e 85 3d 17 f1 13 be e7 b9 94 3d
       -0.13193049 0.06518323 -0.14447437 0.072620206
000160 2a 47 07 be 26 cb c1 3b 4e 9f d6 3d 2f 50 23 3e
       -0.1321074 0.0059141098 0.10479604 0.15948556
000170 aa 5f aa 3d 6b ba bb bd 27 b5 48 bc 3b 0f 07 3e
       0.08319028 -0.09166416 -0.012250221 0.13189404
000180 cb 5d c7 bd fa a1 a9 bc 7c ef 03 bd
       -0.097346865 -0.02070712 -0.032210812

hidden.0.weight f4 [99, 99]
000000 f6 62 09 be 84 60 04 bd 2d a3 d3 bb d7 b2 0c be
       -0.13416657 -0.032318607 -0.006458661 -0.13740097
000010 ec 33 c6 3d 9d 5b c1 bc 5c 4c 35 3c 06 3c ba 3d
       0.09677872 -0.023603255 0.011065569 0.0909348
000020 96 9b 94 bc 52 c0 8a 3d 7c a0 10 3c 27 e8 46 3d
       -0.018140595 0.067749634 0.008827325 0.04856124
000030 b6 42 64 3d c1 6c 46 3d 7b 32 90 3d 69 d5 0e 3e
       0.055727683 0.04844356 0.070408784 0.13948597
000040 59 74 fb bd 6f 5a 02 3d 8c 1e 95 bd 01 b5 1a 3c
       -0.12278051 0.031824525 -0.07281217 0.009442569
000050 d7 ea a9 bd af 3e 30 3d 81 aa 66 3c dd fb e3 3d
       -0.08296745 0.04302853 0.014078737 0.111320235
000060 f3 38 ba 3d 6d 4e 74 3d d1 ee 61 bd 9a 48 8d bd
       0.090928935 0.059645105 -0.055159394 -0.06898613
000070 2f 58 58 bd 43 23 86 bd ea 0d f8 bd 65 ba d7 bc
       -0.052818473 -0.065496944 -0.12112029 -0.026333997
000080 e9 ca f3 bd b9 5b 67 3d 18 7c 06 bc 8e 32 b8 3d
       -0.119039364 0.056483958 -0.008208297 0.089940175
000090 77 6a 75 3d 89 da aa 3d c8 b1 9f 3d 9d 21 b3 3d
       0.059915986 0.083424635 0.07797581 0.087466456
0000a0 2f 8f 15 3e f8 24 1e 3e 16 8d 49 bd 8d e4 a1 bb
       0.14605401 0.1544379 -0.049206816 -0.0049405755
0000b0 bf a9 9c 3d 68 ff a7 3c a8 09 9e bd c3 53 16 3c
       0.07649564 0.02050753 -0.077166855 0.009175244
0000c0 37 ff 75 bd b4 c1 b4 bd 3a ad a7 bd f8 9d f2 3d
       -0.060057845 -0.088260084 -0.08187337 0.118465364
0000d0 72 24 0b bd b9 b2 30 39 6f 49 d5 bd 47 18 8a bc
       -0.033970304 0.00016851247 -0.10414397 -0.01685728
0000e0 90 0e 43 3c 8e ea 76 3c 2f d5 48 3d af 0a f2 3c
       0.011905327 0.015070571 0.049031433 0.02954611
0000f0 22 1b 32 3e fd f9 06 3e 85 f4 3d 3d 06 4c 0a 3e
       0.17393163 0.131813 0.04637577 0.13505563
000100 bc 78 9a bd bd d1 d3 bc ad dd de 3d 57 6b bd 3d
       -0.075425595 -0.025856847 0.10882125 0.09248989
000110 a6 1c a2 3d bc 7a ee 3c 9e 95 ab bb 9a f7 db 3d
       0.079156205 0.029111259 -0.0052363416 0.107405856
000120 6f a2 fb 3c 9c 05 92 bd 23 cf b1 3c bb 02 6d 3c
       0.030717103 -0.07129976 0.021705216 0.014465983
000130 6f 36 7b bd 22 64 d6 3b 7b 6c f5 3d 48 47 11 bd
       -0.06133121 0.0065426985 0.11983582 -0.03546837
000140 90 0b 65 bc 99 2c 03 bd bd e1 2c bc 44 c7 ff 3c
       -0.0139798075 -0.032024954 -0.010551867 0.031222947
000150 0e 86 02 3e 8f 0c 3a bd 45 d8 2a bd 1a 6c 23 3c
       0.1274645 -0.045422133 -0.041710157 0.009974504
000160 d6 89 5d bd f7 0f d5 3c 82 af b9 ba 6d d4 c4 3d
       -0.05408653 0.02600859 -0.0014166685 0.096108295
000170 b4 92 d0 bd 30 12 3d 3d 92 38 36 bd 75 64 7c 3d
       -0.101842314 0.046159923 -0.044487543 0.06161924
000180 4a a1 00 3e 8b f1 ea 3d c3 ba 44 bd 52 26 57 3d
       0.12561527 0.11471852 -0.048029672 0.05252678
000190 40 b4 b4 ba 7a 19 23 bd 5b 6a bd 3d 60 75 38 3a
       -0.0013786629 -0.03981922 0.09248801 0.0007036533
0001a0 34 65 1d 3d 09 24 83 3d 06 fc 6e 3d 54 ce e2 3d
       0.038426593 0.064033575 0.058345817 0.1107451
0001b0 ed c2 89 bd e5 93 89 3d 60 a4 db bd 83 f1 3f bd
       -0.06726632 0.06717662 -0.107247114 -0.046861183
0001c0 5e 17 e6 bd 10 51 a1 3d 9d 3e 36 bd 32 38 f3 bc
       -0.11234926 0.078767896 -0.044493306 -0.029689882
0001d0 df 82 23 3d b6 a2 c0 bd e5 38 c5 3b 32 55 0b ba
       0.03991973 -0.09406035 0.0060187452 -0.0005315124
0001e0 28 43 24 3c 1b 25 1f be 43 a1 2f bd 24 83 11 bd
       0.010025777 -0.15541498 -0.0428784 -0.035525456
0001f0 2f c8 ee 3c 9e 0a 77 bd 22 93 ab bd cd 9d 85 bd
       0.02914819 -0.06031286 -0.08377673 -0.06524239
000200 d1 f7 0b 3d 94 56 ae 3c d0 2f c9 3d 5e d6 35 bd
       0.034171883 0.021281518 0.09823573 -0.04439389
000210 d2 ad ff bd 09 1d 1d bd 81 0f 8e bd c1 0a 02 3e
       -0.124843255 -0.03835777 -0.06936551 0.12699415
000220 c6 b4 e8 bb 79 17 72 3d d3 4d 87 bd 57 2c 07 3e
       -0.007101628 0.059104417 -0.06606641 0.13200508
000230 26 90 a9 bd 04 d6 aa 3d b3 2c 3f 3d 26 72 56 3b
       -0.08279447 0.083416015 0.046673488 0.0032721846
000240 d1 99 9c bd 06 74 8b bd 48 6b 7c 3c bc 50 04 be
       -0.07646526 -0.06809239 0.015406437 -0.12921423
000250 e3 a1 07 bb 45 71 65 3d a0 c4 6e 3d 36 20 cd 3b
       -0.0020695857 0.056016225 0.058292985 0.0062599434
000260 cb 4b 15 3d 92 d5 db bd c3 ec aa 3c 1e 4b 82 3c
       0.036449235 -0.10734095 0.02086485 0.01590496
000270 d0 cb d2 bc cc e0 af 3b 55 08 9a 3c 40 0c 10 bd
       -0.025731951 0.005367374 0.018802801 -0.035167933
000280 74 84 af 3c 9f 24 b1 bc 84 02 ce 3d d7 75 5a bc
       0.021425463 -0.021623908 0.100590736 -0.013333759
000290 44 b2 4e bb 96 51 dd 3c 7a 25 aa bd bb 80 ac bd
       -0.003153936 0.027016442 -0.08307929 -0.08422991
0002a0 02 c5 42 bd f9 b8 d9 bd 4b 1a c1 bd 4e aa 9e bc
       -0.047551163 -0.10630984 -0.09428843 -0.019368317
0002b0 d4 05 37 bb b3 05 0c be f8 45 16 bc 0a 14 06 3d
       -0.0027927058 -0.13674049 -0.009171955 0.032733954
0002c0 8c bc e1 bd b8 10 a1 3c 62 fe 33 bd 91 d6 14 bc
       -0.110222906 0.019661292 -0.04394377 -0.00908436
0002d0 df fe 12 be 96 eb e5 bd bc 94 4f bc 1c 11 bc 3d
       -0.14355038 -0.11226575 -0.012669738 0.09182951
0002e0 3d f4 ad bc 0b 33 7f 3d 48 1f a6 bd b0 fc 39 bc
       -0.021234626 0.062304538 -0.08111435 -0.011351749
0002f0 b4 9c 49 bd 01 2c 50 bd 18 6d 4d 3d 5e 73 c0 3d
       -0.04922171 -0.050823215 0.050152868 0.093970045
000300 fb 0d 22 3c d6 1c fc bd 06 ac 5b 3d 3d 54 f8 ba
       0.0098910285 -0.123101875 0.05363085 -0.0018946003
000310 cd 1f d9 3c bc 7c a2 bc f6 3c 8e bd 65 5e c4 3d
       0.026504422 -0.019834869 -0.06945221 0.09588317
000320 27 5e 8e bd b2 9e 71 3c 4f 35 04 be 62 af 45 3d
       -0.06951552 0.014747309 -0.1291096 0.04826296
000330 89 c3 55 bc 3d db 83 3d 03 98 25 3d 13 92 ed bd
       -0.0130471075 0.06438301 0.040428173 -0.11600127
000340 2c 84 f3 3d 8f e0 b6 3d c4 4a 42 bd 75 64 eb bd
       0.11890444 0.0892955 -0.047434583 -0.1149377
000350 af 9a 37 3d 48 e4 2b 3e 77 cf fc bb 4d e4 b0 bd
       0.044825252 0.16786301 -0.0077151614 -0.08637295
000360 50 b1 3d 3d 31 50 bb 3b c9 62 98 bd 70 a9 5f 3d
       0.046311677 0.0057163467 -0.07440717 0.054604948
000370 dc 1d cc 3d c2 a2 4f 3d d6 ac 72 bd c1 00 cd 3b
       0.09966633 0.050692327 -0.05924686 0.0062561934
000380 d4 bd f8 bb 8c d9 f9 3c 7d 73 bd 3c 4e ea a6 bd
       -0.0075909887 0.030499242 0.023126358 -0.08150159
000390 92 91 9f bd cf bd 50 bd 84 2c d6 3d 53 56 41 bd
       -0.07791437 -0.050962266 0.104577094 -0.047201466
0003a0 6b 61 66 3d a9 b6 14 3e f0 3d bb bd 8b c3 1c be
       0.05624525 0.14522804 -0.09142673 -0.15308969
0003b0 b5 e2 c0 bd 0e b9 17 3d 51 dc 22 bc dd 59 97 3d
       -0.09418241 0.037041716 -0.009940223 0.07390187
0003c0 ca d9 a1 bc cc 2e 25 3c 23 ab 0e 3b 71 15 90 bd
       -0.01975717 0.010081958 0.0021769486 -0.070353396
0003d0 7f e9 27 bc 15 7b 73 3d 8f 09 e0 3d 2d 27 0b bc
       -0.010248541 0.059443552 0.10939323 -0.008493227
0003e0 e0 cf ac bd 95 e1 c9 bd 82 9a 94 3c 1d ad b2 bd
       -0.084380865 -0.098574795 0.018140081 -0.08724425
0003f0 eb 80 9d bd 4f 8d 64 bd cf f2 f7 bd f7 86 06 bd
       -0.07690605 -0.055798825 -0.12106859 -0.032843556

hidden.0.bias f4 [99]
000000 f7 42 0f bd 98 04 e5 3d d1 66 c8 bd 44 ee 79 bd
       -0.034975972 0.11182517 -0.09785236 -0.061018243
000010 1c 01 a1 3d 50 3c a1 bd 4e 2b 96 bd 17 86 1c bd
       0.0786154 -0.07872832 -0.073324785 -0.038213816
000020 dc 46 63 bd 97 81 84 3d 20 5c d6 3d 6c 1c 68 3d
       -0.0554875 0.0647003 0.1046679 0.05666773
000030 9c 3c 95 bd d7 6a 37 3d 9e 84 c1 3d e2 1f 28 bb
       -0.07286951 0.044779625 0.09449123 -0.002565377
000040 2b f9 11 3d 7c b2 99 3d d1 73 17 bd 7e fa 2b bc
       0.035638016 0.07504746 -0.036975686 -0.010496734
000050 68 e9 9e bd 07 38 c6 3d f7 4c e4 bc 3a 2a 51 bd
       -0.077593625 0.09678655 -0.027868731 -0.05106566
000060 13 9a 3d bd 2e 94 d1 3c 02 c5 0a be 4c 0a f1 3c
       -0.046289515 0.025583353 -0.13551715 0.029423855
000070 7b 48 77 bc b2 4e b4 3d 21 37 14 3d 02 c6 9e bd
       -0.015092964 0.088040724 0.036185388 -0.07752611
000080 65 19 b7 bd 5d 6a bc bd 1a b8 0f bb e7 b5 f3 bd
       -0.089403905 -0.09199975 -0.0021929801 -0.118999295
000090 2e c4 27 3d e0 eb eb 38 21 97 53 3d 31 4a bc bd
       0.040958576 0.00011249608 0.0516578 -0.091938384
0000a0 4b c5 ab 3d 76 ae 82 3d 15 c4 f5 3c a6 c9 9e bd
       0.0838724 0.06380932 0.030000726 -0.07753305
0000b0 a8 e8 8f 3d e4 dd 0a 3d 5c 3e bf bc 5c 27 8f bc
       0.070267975 0.033903018 -0.023345165 -0.017474823
0000c0 8d b1 42 bd c8 6b 2c 3d 00 8d 8c 3d cc 75 e3 3d
       -0.047532607 0.042094976 0.06862831 0.11106452
0000d0 de 64 81 bd 3c 24 c8 bc 37 3b 8a bc 77 a9 8b 3d
       -0.06318067 -0.02443134 -0.016873939 0.06819432
0000e0 b9 d4 9a 3d c6 3a a6 3d 78 b6 15 bd 62 22 2c 3d
       0.07560105 0.08116679 -0.03655097 0.042024978
0000f0 2c 88 59 3d 47 73 f0 3d 94 a2 df bd 9f 81 34 3d
       0.05310838 0.117407374 -0.10919681 0.04406893
000100 d1 b1 75 bd 6d 42 32 3d 31 09 b6 bd 32 e0 d1 3d
       -0.059984032 0.04352038 -0.08888472 0.1024784
000110 57 35 d7 3c 58 9b 9c bd da ca ec bd 2a 3a c3 3b
       0.026270552 -0.07646817 -0.11562128 0.0059578614
000120 08 df c6 3d 46 91 d7 ba d2 ea 67 bd 69 98 52 3d
       0.097105086 -0.0016446493 -0.056620426 0.05141488
000130 74 0a c7 bc 72 4f 60 3d 11 92 29 bd d4 e4 10 3e
       -0.024296977 0.054763265 -0.041399065 0.14149791
000140 cf bc ec 3c 32 b2 ab bd c8 36 5f bd 46 6d 7c bd
       0.028898625 -0.083835974 -0.054495603 -0.06162765
000150 9f f1 23 bd 53 ac a6 bc bd ec 97 3b 83 00 66 bd
       -0.04002535 -0.020345842 0.0046363757 -0.05615283
000160 e2 76 14 3d 61 25 b2 3d ea 48 fb bc 16 2a e0 bd
       0.036246188 0.08698536 -0.030674417 -0.10945527
000170 86 d6 23 bd b0 0f 6b bd 14 1c be ba 4e 05 9e 3d
       -0.039999507 -0.057388008 -0.0014504218 0.077158555
000180 fb fe de 3d 75 0f c9 bd 9f f5 15 bc
       0.108884774 -0.09817401 -0.009152799

hidden.1.weight f4 [99, 99]
000000 c9 ac 61 3c 1a 2e 9c bc 64 56 b4 3d b9 88 32 3e
       0.013774105 -0.019064952 0.0880554 0.17434968
000010 12 22 d4 bd d3 7b a4 3d 24 06 0e 3e 98 b3 f0 3d
       -0.10358061 0.0803143 0.1386953 0.11753005
000020 5f 35 81 bd 50 99 cc 3a 02 46 e6 3d f8 7a a2 bd
       -0.06309008 0.0015609656 0.11243822 -0.07933611
000030 a9 a2 11 be d7 63 7b bd e4 c5 8f bd 82 8e 39 be
       -0.14222206 -0.06137451 -0.070201665 -0.18120769
000040 05 cc e2 bc eb 37 da bc d1 a3 96 3c 09 ab 0c 3d
       -0.027685175 -0.026637992 0.01838866 0.0343428
000050 bc c1 ed bd 1c fe a5 3d 3e 1e dc 3d 69 e7 10 bc
       -0.116092175 0.08105108 0.10747956 -0.008844235
000060 d0 9b 0d 3d c5 f1 0f 3d 36 dd 12 3e e4 c6 85 3d
       0.034572423 0.03514268 0.14342198 0.06532076
000070 46 04 82 bd a4 83 29 bd 73 64 89 bd f2 5c 42 3e
       -0.06348471 -0.041385308 -0.06708612 0.18980768
000080 3d ed d1 3d ef 85 32 3e d9 ce 11 3d 4f ed 8d bc
       0.10250328 0.17433904 0.035597656 -0.017325072
000090 57 fd 0c 3d d9 6f bf bd d5 7f 6a bd 70 bc 86 bd
       0.03442129 -0.09347505 -0.057250816 -0.0657891
0000a0 9a ec ef 3b 83 80 a6 3d 43 9a cf bd 56 0f 39 3d
       0.0073219063 0.081299804 -0.10136845 0.04518064
0000b0 14 0e 9e 3d 10 fe ff 3c f7 89 3b 3c bf 49 f9 3d
       0.07717529 0.031249076 0.011446468 0.12172269
0000c0 71 19 eb bd 89 57 08 be 17 26 a8 3d 5f fa 0b 3e
       -0.11479462 -0.13314642 0.0821039 0.13669728
0000d0 d0 10 61 3c 56 16 0b bd 40 2e 80 bd ec 0f b1 bc
       0.013736919 -0.033956848 -0.062588215 -0.021614037
0000e0 fb f1 0a 3c 37 8a f4 bd 9e fb 95 bd 72 67 67 bc
       0.008480544 -0.11940425 -0.07323383 -0.014123784
0000f0 9e b9 dc bd 8b 48 87 3d de de 62 bd 69 52 60 3d
       -0.10777591 0.06605633 -0.055388324 0.054766092
000100 13 f9 28 3d a8 22 06 bb f9 09 b7 3d 3a 2a 4b be
       0.04125316 -0.0020467434 0.08937449 -0.19840327
000110 a6 2d bd bd 18 41 15 3b 63 3a 28 3e f5 54 00 3d
       -0.092372224 0.0022774395 0.16428523 0.03133102
000120 ea a2 17 3e 9c 42 b1 bd 1c 3d c0 bd 23 19 83 3d
       0.1480824 -0.08655283 -0.09386656 0.06401279
000130 81 42 90 3d d2 d1 ba bb a7 78 af 3d 85 7a 1c bc
       0.070439346 -0.005701282 0.085679345 -0.009550695
000140 17 1d e2 bd 78 40 24 3e e2 0d 8c 3d bb 96 38 3d
       -0.11040705 0.16040218 0.068385854 0.045065623
000150 7f 33 89 3d 89 b2 e6 bd a6 8d 82 bd 18 3f cf 3d
       0.06699275 -0.11264522 -0.063746735 0.10119456
000160 67 b7 5d bd b1 6b 6f 3d 73 a1 15 3e 69 50 47 bd
       -0.054129984 0.058452312 0.14612369 -0.04866067
000170 bd 2c 08 3e f9 55 08 be 68 45 8d bd 6a 97 a3 bc
       0.13298316 -0.13314046 -0.06898004 -0.01996966
000180 f5 29 ff bd bd 1a 62 3d 8e 91 9b 3b 53 45 bd bd
       -0.124591745 0.05520128 0.004747576 -0.09241738
000190 4b 8f 03 3e ba 3a d1 3d 05 e4 04 be a1 cf dd 3c
       0.1284763 0.10216279 -0.12977608 0.027076544
0001a0 00 ec 20 3e ea e3 d9 bd da 9e b2 bd c7 78 c2 bc
       0.15715027 -0.10639174 -0.08721705 -0.023739232
0001b0 cc fc ce bb 9e f4 f5 bd 93 e9 08 3d c7 02 80 ba
       -0.006316757 -0.12009548 0.03342588 -0.0009766453
0001c0 8e 24 84 3c ee 42 e2 bd 47 8f b6 bb 65 2d bf 3d
       0.016130712 -0.11047922 -0.005571279 0.0933483
0001d0 69 b0 82 bd 90 ec d9 bc 1f 0b 0b be b6 41 b9 bd
       -0.06381304 -0.02660206 -0.13578461 -0.090457365
0001e0 54 cf 5d be d2 b0 e2 3d 1d 16 7a bd 38 b9 1e 3e
       -0.2166112 0.11068882 -0.061056245 0.15500343
0001f0 fe a7 59 3d 67 58 a7 bd 28 fb 2f be 17 c6 6a 3d
       0.053138725 -0.08171158 -0.17185652 0.05731782
000200 0a 6f 33 be 7c 5a 15 be ab 36 d8 bd 4a ca ca 3b
       -0.17522827 -0.14585298 -0.10557302 0.0061886655
000210 02 36 90 3d 5b 08 80 3d a7 1c 2e 3e 17 08 3c bd
       0.07041551 0.06251594 0.17003118 -0.045906153
000220 af a4 b8 3d 5c 02 b1 ba 82 d0 8d 3d 82 db c2 3b
       0.09015786 -0.0013504731 0.06924535 0.0059465775
000230 63 c3 18 be 55 2f 81 bd bb db ae 3c 09 5b a1 bc
       -0.14918284 -0.06307856 0.02134501 -0.01969673
000240 28 e6 48 3e 22 71 83 3d b1 18 46 3b ff e7 18 3d
       0.19619048 0.06418063 0.003022712 0.037330624
000250 25 d4 89 bd ad d0 93 3d 5e 19 ac bd e9 6b 9c bd
       -0.067299165 0.07217536 -0.08403276 -0.0763777
000260 41 7a 80 bd 30 90 56 3e 69 af d9 3d cd 44 0f be
       -0.06273318 0.2095344 0.1062916 -0.13991089
000270 52 c1 26 3d 96 bd c4 bc df b5 6f 3d 49 1b 72 bd
       0.04071171 -0.024016183 0.058523055 -0.059108052
000280 e7 d5 24 be d9 25 fb 3d f9 f6 8d bd 54 97 c0 3a
       -0.16097222 0.12263078 -0.06931872 0.0014693537
000290 22 5b 15 3d a9 bd 37 bc 08 03 83 3c 20 9a 2d 3d
       0.036463864 -0.011214652 0.015992656 0.042383313
0002a0 66 74 8a bc 8d fb ea bd 9e 45 4a be d1 50 df bd
       -0.016901206 -0.11473761 -0.1975312 -0.109040864
0002b0 96 e3 f4 3d b3 c7 15 bd 16 12 f2 3d fa df b4 bd
       0.11957471 -0.0365674 0.11819856 -0.08831783
0002c0 88 b3 0a bd f2 80 ad 3d a1 31 20 be 26 03 45 be
       -0.03386262 0.0847186 -0.15643932 -0.19239482
0002d0 1f f2 a3 3d c6 21 a9 3d 60 c6 39 bd ab 58 25 3d
       0.08005165 0.08258395 -0.0453552 0.040367763
0002e0 19 1e cd 3d 35 57 ab bd 64 e1 5f bd 09 3b dc bc
       0.10015506 -0.08366243 -0.05465831 -0.026883619
0002f0 d2 0e e4 bc c7 ad ba 3c 7e 23 6a bd 99 87 dd bd
       -0.027839098 0.022787942 -0.057162754 -0.10816879
000300 51 cd 4c 3d 37 b8 43 3d 4b aa 4d bd 79 f0 65 3d
       0.050000492 0.047783103 -0.050211232 0.056137536
000310 66 9d 08 3e 39 ba 73 bd 54 c0 eb 3d 42 66 a6 3d
       0.13341293 -0.059503768 0.11511293 0.08124973
000320 f2 26 c0 3c 5c ea b6 3b 4f 85 a6 3c 88 75 ba 3d
       0.02345607 0.005582137 0.020327238 0.091044486
000330 be 63 6e 3b 1d 31 e6 bc df 2e 0a 3e 94 28 1d 3e
       0.003637537 -0.02809959 0.13494442 0.1534751
000340 cb f6 41 3c b6 c6 f2 bd b4 47 5f bc 3b 2a 41 bd
       0.011838625 -0.11854307 -0.013627935 -0.047159415
000350 86 76 5e 3d 62 f7 02 bd ab 81 0d 3e 1b 28 6f 3d
       0.05431225 -0.031974204 0.13818996 0.058387857
000360 41 8f 8c 3d 25 49 1d be 9a b8 b6 bd de fa 9c bd
       0.06863261 -0.15359934 -0.08921929 -0.076650366
000370 ff f6 3d bd 17 fe 07 bd 96 db ca 3d bb 1c dd 3c
       -0.046378132 -0.033201303 0.09905164 0.026991239
000380 e2 e6 42 3b 26 d0 65 3c e2 7f 4b 3c 77 2f 34 3c
       0.0029739668 0.014026677 0.012420626 0.010997645
000390 8f c7 1e 3d 7f de 34 bc 8e 2f f1 bd 28 9d fc bc
       0.038764533 -0.011039375 -0.117766485 -0.030836657
0003a0 ad 54 56 3d 90 dd c4 bd bc bc 71 bd 16 a9 c6 bd
       0.052326847 -0.09612572 -0.05901788 -0.09700219
0003b0 ff 1f a8 bc f1 10 3e bd 69 c8 18 be b8 ac 95 3c
       -0.02052307 -0.046402875 -0.149202 0.018270835
0003c0 13 b3 b0 3d 0a 58 a4 bd c8 c1 32 bd b1 8b a7 3c
       0.08627906 -0.080246046 -0.043641835 0.020452352
0003d0 7d 8c 99 bb f9 5e 47 3b 77 c7 df bc 96 46 7a bd
       -0.004685937 0.0030421598 -0.027316792 -0.061102472
0003e0 05 f3 b1 bd 98 a8 46 3d 61 f6 9d 3b 6b 7a fe 3d
       -0.086889304 0.048500627 0.0048206304 0.12425693
0003f0 5a 6c 18 bc a3 5b bb bb 26 77 c9 3d 1e bb d3 3d
       -0.009303177 -0.005717711 0.09837179 0.10338424

hidden.1.bias f4 [99]
000000 5a 51 bd bd 37 45 bd 3c ba 73 4f bd d3 a0 1e 3d
       -0.09244032 0.023104293 -0.050647475 0.038727593
000010 dc 97 0b 3d 23 9b 58 bd e4 0c 97 bb f6 2a b1 bb
       0.03408037 -0.052882325 -0.004609691 -0.0054067327
000020 9a df c4 bc 3e de f0 bd 6b 59 e3 bc ec 09 40 3c
       -0.024032403 -0.11761139 -0.027752599 0.011721116
000030 41 26 af bd 92 4d 0f 3d a0 cb a8 bc 7a 46 99 bc
       -0.08552218 0.034986086 -0.020604908 -0.018710364
000040 db d8 8a bd eb ad 65 3d 64 a7 bc bc 22 80 a5 bd
       -0.06779643 0.056074064 -0.023029037 -0.0808108
000050 8b 2f 73 bd 62 61 14 3d f4 69 18 bd a6 4a 90 bd
       -0.059371512 0.036225684 -0.03721042 -0.07045488
000060 0c 32 84 bd 79 91 8d bd ce ef 8c 3d 04 c3 b9 bd
       -0.06454858 -0.06912512 0.068816766 -0.090703994
000070 17 5f 2b bd 6c 2d 17 bc 2b 2a 01 3e e0 0d ab 3d
       -0.04183873 -0.009227138 0.12613742 0.08352256
000080 de 23 00 3e 3a 2d d0 bd b4 a9 16 3d 33 b3 8a bd
       0.12513682 -0.10164876 0.036782935 -0.06772461
000090 b1 63 49 3d 56 13 eb bd 84 03 b9 bc 1a f0 28 bd
       0.04916734 -0.114782974 -0.022584684 -0.041244604
0000a0 b0 01 f3 bd 4f c8 d4 3d 46 31 25 3c d0 db b4 bd
       -0.11865556 0.10389768 0.0100825485 -0.088309884
0000b0 03 c2 93 bd a6 e4 97 bc aa 36 09 be ae b3 ee 3d
       -0.07214739 -0.018541645 -0.13399759 0.11655365
0000c0 27 cd 14 bc 50 97 a3 bc 23 85 47 bc a9 10 a4 3d
       -0.009082115 -0.019969612 -0.012177738 0.0801099
0000d0 5c 7d 6f bd e0 80 a6 3d 76 c6 ba bd de 04 0f bd
       -0.05846916 0.0813005 -0.09119885 -0.03491675
0000e0 c0 d0 ed 3c e9 7b 1a 3d cc 82 d4 3c 1a f0 8a bd
       0.029030204 0.037715826 0.025941275 -0.06784077
0000f0 1f 3e 99 bc 1b cc 96 3a a4 0d 03 3d 52 23 f9 3d
       -0.01870638 0.001150492 0.03199543 0.1216494
000100 36 a1 96 3d ec 89 6b bc 2e 45 24 3d f7 57 d3 bc
       0.07354967 -0.014376145 0.040105037 -0.02579878
000110 40 64 d4 bd 4d a2 4e 3d fe 36 bc 3c fc f8 34 3d
       -0.10370684 0.05044775 0.022975441 0.044182763
000120 88 5f 6e bd 80 fe 0e 3c e7 a7 8a bd 25 3b 85 3d
       -0.058196574 0.00872767 -0.06770306 0.065054215
000130 81 c2 76 3d 6d d4 4d bc 1e 97 c8 3d 92 8c 30 bd
       0.060244087 -0.012562853 0.09794448 -0.04310281
000140 6b 06 8a 3d 5c 7d bb 3d ae 45 76 3d 2a af dc bd
       0.067395054 0.0915477 0.060125045 -0.107755974
000150 94 f2 68 3d 88 15 da bd 7e 02 0b be 66 30 ad bd
       0.056871966 -0.10648638 -0.1357517 -0.08456497
000160 ce 92 03 bd 50 64 4c bd 06 49 19 bd 68 e2 0a bb
       -0.032122426 -0.049900353 -0.037423156 -0.0021192078
000170 67 17 d6 3d 96 b5 ef 3c 7e 30 e7 3b 75 46 d3 bd
       0.104536824 0.029261392 0.0070553413 -0.10316173
000180 5e 13 e3 bd 35 d6 0d 3d 00 1f ec bc
       -0.110876784 0.034628112 -0.028823376

hidden.2.weight f4 [99, 99]
000000 aa f4 53 3d 82 0f 19 3e 85 d6 ac 3d d6 b5 58 3d
       0.051747 0.14947322 0.08439354 0.052907787
000010 dc a2 31 bd 36 be b8 bb c6 27 a0 bd c1 62 ec bc
       -0.043368205 -0.0056379093 -0.07820086 -0.028855683
000020 25 f8 33 be ff 27 07 3e 13 b8 de 3c 41 88 2d 3d
       -0.17575128 0.13198851 0.027187383 0.04236627
000030 f6 24 05 bd 29 67 33 3c 79 10 f4 3d a0 a8 e9 3a
       -0.03250595 0.010949888 0.119172044 0.0017826743
000040 99 0a 48 be 09 47 18 3d 70 b5 ce 3d 41 08 b4 bd
       -0.19535293 0.03717712 0.100932 -0.08790637
000050 77 54 03 bd 2c aa ff bd da a2 a1 bd 2a 00 91 bd
       -0.032062974 -0.124836296 -0.078923896 -0.070801094
000060 70 19 83 3d 30 69 1a 3c 7d e3 53 3a 5d 03 4d bc
       0.06401336 0.009424493 0.00080829096 -0.012513009
000070 f5 47 8e 3a d1 71 0e be c3 f5 7d bd 3b 83 84 3c
       0.0010855185 -0.13910605 -0.062001955 0.016175857
000080 73 53 22 bd 9e ed 8a 3d db 87 6a 3d 49 19 6f 3e
       -0.039630365 0.06783603 0.057258468 0.2334949
000090 98 7b 4e 3c d9 e2 06 be f4 09 2b bd fa 11 26 be
       0.012602709 -0.13172473 -0.04175754 -0.16217795
0000a0 ed 18 51 bd 38 06 e0 bd 71 0d 06 3e 82 f4 22 3d
       -0.05104916 -0.10938686 0.13091065 0.039783962
0000b0 ca 37 0c bd 0a 60 6d b9 2b f6 c0 3d 54 c4 8f bd
       -0.034232892 -0.00022637859 0.09421953 -0.070198685
0000c0 90 94 c3 3d 59 a1 e5 3d a2 41 9c bd b9 6c 1a bd
       0.095498204 0.11212415 -0.07629706 -0.037701342
0000d0 3f f2 6b 3d 47 25 9b bd a3 85 be 3d f8 99 db bd
       0.05760407 -0.075754695 0.09302833 -0.107227266
0000e0 ed 23 3e bd 1a 4f be 3d ad 29 f9 3d a4 af 1b be
       -0.04642098 0.09292431 0.12166152 -0.1520372
0000f0 3f 9a 2a bd 93 39 86 be 79 27 0e bc 0e 1c 9a 3d
       -0.041651007 -0.262158 -0.008676403 0.07524882
000100 30 2b 0f bd b7 6a a8 3d 51 60 4c 3e 77 72 22 bc
       -0.034953296 0.08223479 0.19958617 -0.009914986
000110 22 8e 82 3e 03 0b 81 3d 0f 5a 6a 3d 48 fd 8b 3d
       0.25499064 0.063009284 0.057214793 0.06835419
000120 ff a8 15 bd 1d 01 28 3d c0 b7 36 3d 4c 30 b6 bd
       -0.03653812 0.041016687 0.04460883 -0.08895931
000130 37 47 34 be 99 88 b3 bd c7 de c9 bd fa 24 f8 3c
       -0.17605291 -0.08766288 -0.098569445 0.03029107
000140 a8 02 d1 bd e5 d0 65 be a8 c6 d2 bd 40 cd 02 3d
       -0.10205585 -0.22442968 -0.10291797 0.031934023
000150 64 37 91 3d f5 c1 0d 3d 58 1a a9 bc c8 4e be 3d
       0.07090643 0.0346088 -0.020642444 0.0929237
000160 0c 55 52 bd 7e b2 16 3c d6 67 da bd bb a4 cf bd
       -0.05135064 0.009197829 -0.106643364 -0.10138842
000170 87 8b 06 3e b1 5e 60 3d 4f 5a d8 bd 5c 3e d3 bd
       0.13139163 0.054777805 -0.105641 -0.103146285
000180 30 00 2a 3d 90 d6 a1 bc 8d 08 87 3e 11 4a c0 3d
       0.041504085 -0.019755632 0.2637371 0.09389127
000190 9d e3 96 bd b3 13 e8 3d 23 1b bf bc eb 80 cf bd
       -0.073676325 0.11331882 -0.02332837 -0.10132011
0001a0 57 36 66 3c c5 e6 65 3c 9e c3 23 3d c7 3b 07 3e
       0.014051042 0.0140320705 0.039981477 0.13206397
0001b0 6b f7 57 bd 46 5f 85 bd 29 04 e9 bd 7e b9 3c 3d
       -0.05272619 -0.065123126 -0.113777466 0.046075337
0001c0 76 b1 e0 3c 90 be a2 3d 7f 67 59 bd 6b 9c 76 bd
       0.02742837 0.07946503 -0.053077217 -0.060207766
0001d0 aa ac 47 bd 6c 47 3c 3e f0 28 63 3b 53 b3 07 bd
       -0.04874865 0.1838662 0.0034661852 -0.03313
0001e0 6b 14 95 3d db 74 c7 bc 60 a6 32 3e 31 a4 d0 bc
       0.07279285 -0.024347713 0.1744628 -0.025468918
0001f0 af c1 1a 3e 05 ef 06 bc ae 88 ed 3d 2e 91 48 3d
       0.15112947 -0.008235698 0.11598335 0.04896658
000200 9d ac 9c 3b 58 d7 40 3d 5c 18 17 3e c4 ae 15 3d
       0.0047813193 0.047080368 0.14755386 0.036543623
000210 85 95 cc bd aa 0f c0 bd a4 9e 80 3d f2 50 7b bd
       -0.09989456 -0.09377988 0.06280258 -0.061356492
000220 7c 59 5d 3c a6 ba 24 be 67 df 8d 3d 38 07 bb bb
       0.013510104 -0.16086826 0.06927376 -0.0057076477
000230 b5 f8 e8 3d be c8 03 be 8f c0 44 bd 43 9a 36 3e
       0.11375562 -0.12869546 -0.0480352 0.17832284
000240 c2 89 3f 3d 0a 0b 9f 3d 79 d7 ed 3d 64 fc bc bd
       0.046762235 0.077657774 0.11613364 -0.09227827
000250 a7 e9 27 3d 3d 37 ea bc 49 64 4d be 99 c3 d3 bd
       0.040994313 -0.028590793 -0.20057787 -0.10340042
000260 1d b8 af bd 28 72 f5 bd 60 d5 23 3d 64 ca 87 3d
       -0.08580039 -0.11984664 0.039998412 0.066304
000270 35 33 08 be 3b 42 da bc 19 4d 36 3e da a0 28 3e
       -0.13300784 -0.02664291 0.17802848 0.1646761
000280 a8 13 bf 3b e9 12 20 3d e0 92 25 bd a7 ac 3b bc
       0.0058312006 0.039080534 -0.040423274 -0.011454738
000290 98 93 fb bb ab 41 40 3d 58 64 9e bd a3 8f 37 bd
       -0.0076775067 0.046937626 -0.07733983 -0.044814717
0002a0 24 89 d7 bd fb a8 ba 3c 87 af a1 bc f6 71 9f 3c
       -0.105242044 0.022785654 -0.019737018 0.01946352
0002b0 7b 14 57 3d 32 97 ab bd fe ce 0e bd 64 15 52 be
       0.052509766 -0.083784476 -0.034865372 -0.20515972
0002c0 24 e8 e2 bd 38 f0 63 3d 1d c7 3d bc 0d 9c e9 bd
       -0.110794336 0.055649012 -0.011583117 -0.114067174
0002d0 3d 7f 8c 3d 98 96 9b bd 6a 85 44 3e 3d 75 94 3d
       0.06860206 -0.07597083 0.19191518 0.07248924
0002e0 3b 15 bf bd 3d 7c e6 bd a8 c9 0f bc 9d 3c d6 bd
       -0.09330221 -0.11254165 -0.008776106 -0.1046078
0002f0 81 f2 c5 bd 2e a9 4a 3d d8 29 85 bd 1a ed 19 be
       -0.096653946 0.04947775 -0.06502122 -0.15031853
000300 a0 e0 ee 3d a1 fb 38 3d c6 5c 8a 3d f0 b1 50 3d
       0.116639376 0.045161847 0.067559764 0.050950944
000310 c4 e8 90 bc 5c af 10 bd b6 ff a7 bd 85 0d ae bc
       -0.017689116 -0.035323486 -0.0820307 -0.021246681
000320 fc 49 d4 bc 08 09 9c 3d 7c 2d 2c bd 89 42 30 bd
       -0.025914185 0.0761891 -0.042035565 -0.043032203
000330 7f 79 8f bd 1a 2a 18 3d cb f8 10 3e e3 21 ee bc
       -0.070055954 0.037149526 0.14157407 -0.029068893
000340 27 ff 3c 3e 43 9d b6 bd 30 ed 1b be f6 48 80 bc
       0.18456708 -0.08916714 -0.15227199 -0.01565979
000350 58 33 13 be 36 2a 14 3e 8e 95 c5 bd 4e eb e3 bd
       -0.14375055 0.14469227 -0.09647666 -0.11128865
000360 9e f5 79 3d d0 ef 26 3d 8e 73 57 bc 40 86 08 3e
       0.061025254 0.040756047 -0.013150109 0.13332462
000370 4c 77 c2 bd 2f 44 5f 3d a3 f0 ba bb a4 63 83 bd
       -0.0949541 0.054508384 -0.0057049557 -0.06415489
000380 bc 96 11 be cb 28 75 3d 3a 1f 97 3c ee dd af bc
       -0.14217657 0.059853356 0.018447507 -0.021468129
000390 7d 75 9d bd 13 0a 8e bd 05 ce 81 bb a5 41 92 3d
       -0.07688425 -0.06935515 -0.003961327 0.07141427
0003a0 cd 26 5c bd 82 23 84 3c 39 77 0f be e5 cf c2 ba
       -0.05374794 0.016130213 -0.14010324 -0.0014862983
0003b0 9c f5 3a 3d 73 48 13 3e 60 e3 a1 bd 06 ec a3 bb
       0.045644388 0.14383106 -0.079046965 -0.0050025014
0003c0 11 9b f4 3d 3b a4 d3 3d 2f 89 4a bd f4 2a 3d be
       0.11943639 0.10334059 -0.049447235 -0.18473417
0003d0 7b 3d 04 bd e8 ad 4a 3d d1 11 e8 bc 3b 02 82 3d
       -0.032285195 0.049482256 -0.028328808 0.06348082
0003e0 fa 49 3e 3e aa 21 5c bd 6d 4d e2 3d ba 5b d7 3c
       0.18582907 -0.053743042 0.11049924 0.026288856
0003f0 a3 db b0 bc ef 07 b0 3d dd 01 bd 3d ae 4e 20 3d
       -0.021589106 0.08595263 0.09228871 0.039137535

hidden.2.bias f4 [99]
000000 9c fc be 3d 7d 57 45 bd 23 62 44 3c 37 90 c9 3c
       0.09325525 -0.04817914 0.011986288 0.0246049
000010 ff 4f 07 be 8f 58 a3 3d 92 5f c1 bc a8 e7 62 bd
       -0.1321411 0.079758756 -0.023605142 -0.055396706
000020 84 01 d9 bd af 1b 98 3d 79 ee aa 3d 65 93 10 3e
       -0.10595992 0.07427155 0.08346266 0.14118727
000030 04 a2 7a bc 22 a8 d4 3c 0f 75 86 3d 91 97 b6 3d
       -0.015297417 0.025959078 0.06565296 0.08915628
000040 d1 37 5e bd a9 0b 5d 3c d4 7a b0 3d d9 3a 7c bc
       -0.05425245 0.0134915495 0.086171776 -0.01539489
000050 ed 8f bd 3d 3c 0b b9 bb 78 7e b9 3d b5 3a 9b 3d
       0.09255967 -0.005647091 0.09057325 0.07579557
000060 a3 1b 5b bd 0a c3 08 3d 4c 3c bd 3d 98 b2 9a bc
       -0.053493153 0.03338913 0.09240016 -0.018883988
000070 61 af d7 bc 3f c8 58 3d 77 c5 1e bb f7 2a e7 bc
       -0.026328744 0.052925345 -0.0024226585 -0.02821873
000080 0d 35 3b 3d a3 3e a6 bd fe 83 a7 3d d7 44 52 bc
       0.04570489 -0.08117416 0.081794724 -0.0128337955
000090 89 72 df bb 20 b0 fe bc a9 9b 86 3d 20 9d 56 bd
       -0.0068190736 -0.031089842 0.065726586 -0.05239594
0000a0 f8 c3 15 3e 1b d0 8d 3d 7d 4a b1 3d 09 e5 0e be
       0.14625537 0.069244586 0.08656786 -0.13954557
0000b0 12 85 41 bc 8c b6 c0 bd c5 a4 f9 3d a6 64 b2 bd
       -0.011811512 -0.09409818 0.121896304 -0.087106034
0000c0 16 82 94 bb e8 db 98 3d 10 e4 01 3d 39 22 5a 3d
       -0.004532109 0.07463819 0.031711638 0.053255294
0000d0 77 e5 16 bd 9d 57 39 3c a1 63 a2 3d 55 c4 35 3d
       -0.03683993 0.011312393 0.07929159 0.04437669
0000e0 96 70 8d bd 9c ae 3f bd 92 e6 a2 bd fd d5 c0 bc
       -0.0690624 -0.04679738 -0.07954134 -0.023539538
0000f0 15 ac ab bd 36 09 e8 3d fd 13 81 3c be e6 e7 3d
       -0.083824314 0.11329882 0.015756601 0.113233075
000100 86 82 4d bc c3 db dc bd 12 91 ce 3d d5 10 ff bc
       -0.012543326 -0.10784104 0.10086264 -0.031135956
000110 6d 5f b6 3c 7e fb 07 bc a0 f9 9f 3d cd fb e5 3d
       0.0222623 -0.0082997065 0.07811284 0.11229668
000120 22 67 9b 3d 37 65 9a 3d f3 27 ea bd 9c 84 fd bd
       0.075880304 0.075388364 -0.11433401 -0.12378809
000130 df 1d 3a bc 2e 6a 0a be aa 1f 32 bd ba 1f 34 3d
       -0.011359661 -0.13517067 -0.04348723 0.04397557
000140 c9 6e 0d 3b 51 26 a1 3d ae f3 dd bd 21 89 4f 3c
       0.0021580926 0.078686364 -0.10837494 0.012666971
000150 a4 3b 22 3e 27 f2 bd 3d ff 6f f7 bd ce 6f 5a 3b
       0.15843064 0.092747025 -0.120819084 0.00333308
000160 2f 5b 33 bd c4 91 e3 3d 2f 07 e8 bc 44 e2 5a bb
       -0.04378813 0.11111787 -0.028323738 -0.0033399025
000170 ab 92 8f 3d 1d 1f 99 bd 0d a1 ed bb 23 0a 99 3b
       0.070103966 -0.074766375 -0.0072518648 0.004670398
000180 cd 88 b5 3c 12 71 3a 3d 07 e5 2a bd
       0.022159958 0.04551799 -0.041722324

hidden.3.weight f4 [99, 99]
000000 45 c5 6a bd 10 62 63 3d 3e 17 b5 bc a2 d6 5b 3c
       -0.057317037 0.05551344 -0.02210581 0.013417872
000010 39 ba 99 3d 71 c3 1b 3c 2f 9f 88 bc da f6 b2 3d
       0.07506222 0.009507046 -0.016677467 0.087384894
000020 35 30 d6 bc 88 02 54 bd d8 4d 7d bd f2 6c aa 3d
       -0.026146034 -0.051760226 -0.061841816 0.08321561
000030 42 85 52 3d 47 a2 a1 bd 61 d7 1a 3e e6 e9 0a 3e
       0.051396616 -0.0789228 0.15121223 0.13565788
000040 a8 6a c4 bd a2 d5 26 be 60 84 fd ba 3c fb a7 3d
       -0.095906556 -0.16292432 -0.0019341819 0.08202216
000050 a3 a8 de bd 50 82 8c 3d e3 af 64 3d f0 4a 39 3d
       -0.10872009 0.06860793 0.0558318 0.04523748
000060 66 31 81 3d 51 89 00 3e e3 5a 2a be 80 d6 a5 3c
       0.0630825 0.12552382 -0.16636233 0.020243883
000070 85 dd a0 bd 64 81 8f bd 4f 93 21 bd bb b3 27 3c
       -0.078547515 -0.07007101 -0.039447125 0.010235722
000080 92 ff d6 3d 36 72 7a bd bf 06 2a be 43 5f f5 3c
       0.10497965 -0.061144076 -0.16604136 0.02995265
000090 f1 58 1c be 3a b6 85 3d ca 56 8a 3d dc 9b 9c 3d
       -0.15268303 0.065288976 0.06754835 0.07646915
0000a0 7b 24 81 bd b0 a6 5b be 8f 5d 88 3d e6 56 a9 3d
       -0.06305786 -0.21450305 0.0665847 0.08268528
0000b0 1f 9b 98 3d d5 6c bf 3d 7b d2 f3 3c 9b ed 2e 3e
       0.07451462 0.0934693 0.02976345 0.17082827
0000c0 60 4f 76 3d c8 6c 4f 3d b2 81 89 3c 0c e4 23 bc
       0.06013429 0.05064085 0.016785476 -0.010003101
0000d0 3b a8 f5 bd 99 2b 01 3d aa 34 12 be da 06 d3 bd
       -0.11994978 0.03153572 -0.14277902 -0.10304041
0000e0 99 b2 de bd 88 4a 69 bd 9a ae 0f bd 56 7c df bd
       -0.108739085 -0.056955844 -0.035078622 -0.10912387
0000f0 2e 56 bb ba 35 1d 0e bc 78 15 f6 3d 1d 72 9b bd
       -0.0014292651 -0.008673956 0.120158136 -0.07590125
000100 e9 2f f5 bd 6a a5 8e bc 78 9d 0f be 14 b6 e3 bd
       -0.11972029 -0.01741286 -0.14024913 -0.11118713
000110 d8 8e c4 bc e5 c5 b7 3d 3c 1f c2 3d 9f 85 12 bd
       -0.023993894 0.08973292 0.09478614 -0.035771962
000120 4a a0 cb 3d c9 4b 98 3d 95 8f 27 be bf 52 76 3d
       0.09942682 0.0743633 -0.16363366 0.060137507
000130 66 cf 89 bd b7 46 78 3c b4 c8 33 3e ec 7d 91 bd
       -0.06729011 0.0151535785 0.17557031 -0.07104096
000140 bb 6c 3f bd fe d9 7e 3d 6d f9 36 be 06 92 b5 bd
       -0.046734553 0.062219612 -0.17868586 -0.088657424
000150 ba b2 49 bd 7c 82 0d 3e f0 a3 99 3d df 5e 18 3e
       -0.049242713 0.13819307 0.07501972 0.1487994
000160 f7 c3 d3 bd 10 a0 d4 3d c0 16 18 3d 0a f1 07 3d
       -0.10340112 0.10382092 0.03713107 0.033188857
000170 38 84 1d bd 3b 84 c2 bd 7b 19 18 3e 51 c8 f4 3c
       -0.03845617 -0.09497877 0.1485347 0.029880675
000180 20 33 a8 3d 9e 50 11 3e 56 bc 53 3d ef 5d de bd
       0.08212876 0.1419091 0.051693283 -0.1085776
000190 4d bb 3e 3e e9 57 3e be ee ba bb bb ae 27 dd 3a
       0.18626137 -0.18588223 -0.005729071 0.0016872787
0001a0 c7 37 db 3d e2 37 46 bd 78 2c c5 3d 76 21 c1 3d
       0.10703998 -0.048393138 0.09627622 0.0943021
0001b0 79 6a c7 3d c8 61 eb 3d 55 b5 c5 bc 57 2b 7f 3d
       0.09737105 0.1149326 -0.024134317 0.06229719
0001c0 89 5d 99 3d b8 c0 fb bd 7d 3e 42 3a 2d 95 30 3e
       0.074885435 -0.122926176 0.0007409824 0.17244406
0001d0 18 c0 fc 3d 72 a0 81 3d c5 c0 2d be 4e d6 9a bd
       0.123413265 0.06329431 -0.16968067 -0.075604066
0001e0 1a 0c 39 3e f7 26 42 3e 7d 2d 52 bd df 1b b7 3d
       0.18071023 0.18960176 -0.051312912 0.08940863
0001f0 71 85 ea bd 16 17 9b bd 0f 8d 50 3d b9 85 72 3e
       -0.11451233 -0.07572763 0.050915774 0.23683824
000200 5e 85 4f bd 50 b0 58 3d aa 10 ba 3d 61 3d 82 3d
       -0.0506643 0.05290252 0.0908521 0.06359363
000210 e6 1a 08 bd 6a 0c 8f bd 67 1d 07 bd 99 c3 b9 3d
       -0.033228777 -0.0698479 -0.032987025 0.090705104
000220 6c 42 fc 3b 67 c4 19 bb 2c a9 89 3d 68 34 1a 3e
       0.007698348 -0.0023463012 0.0672172 0.15059054
000230 82 39 8a bd 7e e4 68 3d 32 66 a9 bd 47 ed 8f 3d
       -0.0674925 0.056858532 -0.08271445 0.07027679
000240 88 23 cc 3c 97 55 ca bd 3a 98 58 3d 5d 75 e4 3d
       0.024919286 -0.09879606 0.05287955 0.11155198
000250 9e 53 a4 bd 45 62 7e 3b c6 30 18 bd a5 94 2a bd
       -0.08023761 0.0038815897 -0.03715589 -0.041645665
000260 fa 30 5a be 87 0e 9e 3d ce 23 9e 3d 50 f4 25 3d
       -0.21307746 0.077176146 0.07721673 0.040516198
000270 47 8e 41 3e 56 f7 12 bd 49 d6 e0 3d b1 fd 42 bd
       0.18901931 -0.03588041 0.10978372 -0.04760522
000280 d1 9b 31 bd 28 18 be bd e4 a0 70 bc a6 70 1f 3e
       -0.04336149 -0.09281951 -0.014686797 0.15570316
000290 df a0 88 3d d6 1d 8a be bb ec 1d be e9 f9 14 be
       0.06671309 -0.26975888 -0.15422337 -0.14548458
0002a0 6b e2 9a bc bf aa 8f 3c 8e 15 ee 3d 12 cb 0c bd
       -0.018906793 0.017537473 0.11625205 -0.03437335
0002b0 3d 35 20 bd 2f f6 5b bd 03 44 6e bd 8a 70 a8 bc
       -0.039113272 -0.053701576 -0.05817033 -0.020561475
0002c0 7b a6 30 be 97 c5 33 bc 73 4a 9a bd 34 34 cf bd
       -0.17251007 -0.010972402 -0.07533731 -0.10117379
0002d0 bd 01 cc bd 0d c9 3c 3e 09 10 b0 bd a9 75 86 bb
       -0.09961269 0.1843607 -0.085968085 -0.0041033817
0002e0 02 47 3f bd d2 0a 20 3d 92 5d 7f 3c 92 ad 13 3e
       -0.046698578 0.03907282 0.015586274 0.1442168
0002f0 33 94 89 bd e4 14 ee 3c b1 ee 0e 3d ff 6c c5 3b
       -0.0671772 0.029062696 0.034895603 0.0060249562
000300 9e 35 46 3d c2 6d 8f 3c f5 c2 e4 bd 3b c9 f8 3d
       0.048390977 0.017508391 -0.111699976 0.12147757
000310 bc f8 47 bb ad 9f 0d bb 22 b6 50 bd 59 d4 cc 3d
       -0.0030513247 -0.0021610067 -0.050954945 0.100014396
000320 64 03 93 3c dc 0d ee bb 3c c6 81 3d 91 96 b2 3c
       0.017945953 -0.0072648358 0.06336638 0.021800311
000330 ba fe b1 bd d8 2b 1a 3d c1 6c 5e 3d dc 78 d6 bc
       -0.08691163 0.03763947 0.054302935 -0.026180677
000340 a1 44 12 bc 5d a7 5d 3d c0 f0 1f 3d e0 d2 10 3e
       -0.008927495 0.05411469 0.039047956 0.14142942
000350 41 01 c5 3c 92 db e3 bd b9 fb 8f 3d f6 76 b1 bd
       0.02404845 -0.11125864 0.07030434 -0.08665268
000360 f9 af 3f be 1e 2f c6 3c 46 a6 5a bd 81 42 d0 bd
       -0.18719472 0.02419239 -0.053381227 -0.101689346
000370 af 21 15 be eb 03 4e 3e 83 e4 35 bd 28 15 20 3b
       -0.1456363 0.20118682 -0.04440738 0.0024426673
000380 8f 60 16 be 91 82 25 bd 57 b2 b9 bd b0 7d 59 bc
       -0.14685272 -0.04040772 -0.09067219 -0.013274595
000390 59 f8 e8 bd 36 cb f6 3d 7b 13 12 3d 53 72 4d bd
       -0.113754936 0.12050478 0.03566311 -0.050157856
0003a0 87 f4 ee 3c 83 17 5c be 09 b9 44 be 6d dd 93 3d
       0.029169334 -0.21493344 -0.1921121 0.07219968
0003b0 80 bc a5 3d af ca 2d 3e 59 a8 12 be eb 17 da bc
       0.08092594 0.16971849 -0.14322032 -0.026622733
0003c0 cd b8 c0 3d 69 d7 db bd 0f a7 84 3c 5c f8 85 3d
       0.09410248 -0.107344456 0.016192941 0.065415114
0003d0 61 b4 dc 3c cd ec b1 bd 99 ec a7 bd 23 83 3c be
       0.02694148 -0.08687744 -0.08199424 -0.184094
0003e0 36 82 a9 bd b0 66 cf 3c 7e d7 07 bb 1a 46 9d bd
       -0.08276789 0.02531752 -0.0020727809 -0.076793864
0003f0 1d 58 c9 bd e3 a4 58 bd a6 6d 92 bd 50 83 78 be
       -0.098312594 -0.052891623 -0.0714982 -0.24268842

hidden.3.bias f4 [99]
000000 0c c9 b1 3d 67 b6 a7 bd e0 f5 cd 3d 6b dc 35 3d
       0.08680925 -0.08189087 0.100566626 0.04439966
000010 89 0e 8c bd b0 51 95 bd 64 a5 4b bd 63 80 ee 3d
       -0.0683871 -0.07290971 -0.049718276 0.116455816
000020 bf f6 92 3c fa 38 51 bd 54 66 13 bd 7b 3c b8 bd
       0.017939923 -0.051079728 -0.03598626 -0.08995911
000030 8c 35 4e 3d f6 5f 2e bd a7 40 98 bc 52 b5 b3 bc
       0.050344035 -0.042571984 -0.018585516 -0.021937046
000040 44 e7 21 3d 45 be e0 bc a2 72 77 bb 6b 73 b3 bd
       0.039527193 -0.027434478 -0.0037757535 -0.087622486
000050 ef 95 88 3d 2d 39 34 bd 2a ec 3d 3d 3b 54 53 bd
       0.066692226 -0.04399984 0.0463678 -0.051594
000060 2c be 8b bd 0d e3 56 be 65 5f 03 3e 69 06 1a be
       -0.06823382 -0.2098505 0.12829359 -0.15041508
000070 f1 c0 41 bd f5 c8 e4 3a 81 fc 15 3a 7d a5 e6 3c
       -0.047303144 0.0017454909 0.0005721525 0.028155083
000080 c0 d4 ef 3d f8 10 9d 3d e6 85 e6 bc 42 0c c0 bc
       0.11710501 0.07669252 -0.02814002 -0.023443345
000090 33 7e eb bc 36 b5 e8 3c 8f c1 59 bb 6d 57 f0 3d
       -0.0287467 0.02840672 -0.0033226942 0.11735425
0000a0 5b f3 8d 3b 5d 5e be bb 83 36 3c bd b9 63 45 bd
       0.0043319887 -0.005809589 -0.045950424 -0.048190806
0000b0 5c 5d 2a bd 45 eb 25 bd a5 6a 9a 3d 8b fc 82 bd
       -0.04159294 -0.040507574 0.07539872 -0.06395825
0000c0 bf f9 5a 3d 7c 22 a4 3d 1f a7 42 3d a1 94 a4 38
       0.053460833 0.0801439 0.04752266 7.847814e-05
0000d0 bc 2f c0 bd fb 24 b3 bd a9 1e 8d 3d 35 ed 77 bc
       -0.093841046 -0.08747288 0.068906136 -0.015132238
0000e0 15 dd 0d 3d e0 cf 60 3d f1 38 0b bc de a5 ac 3d
       0.03463467 0.054885745 -0.008497463 0.08430074
0000f0 3f c1 ae bd 15 a9 b8 3d 99 1b 55 3c 20 ab 2b bd
       -0.085329525 0.09016625 0.013007068 -0.041911244
000100 9b be ee bd 02 4b 29 bd 1d 22 95 3d 1f ba 82 3d
       -0.11657449 -0.0413313 0.07281897 0.06383156
000110 f9 83 19 bd 6c d4 db 3c fe b7 41 3d 61 f2 8a bd
       -0.037479375 0.02683469 0.04729461 -0.06784511
000120 cb ff 9c bc c1 f8 b6 3b db 43 95 3d c2 6b fe bd
       -0.01916494 0.005583853 0.07288333 -0.12422897
000130 f7 43 05 3d 53 aa 1b bd a0 66 47 bd da d7 a0 bd
       0.03253552 -0.03800423 -0.048681855 -0.078536704
000140 98 ab ec bd 5c e0 31 bd 72 e7 c1 bb 8e 64 3a bd
       -0.115561664 -0.043426856 -0.005917483 -0.045506053
000150 81 31 fc 3d 0e bf f9 bc 80 ba 8c bd 31 0e a3 3d
       0.123141296 -0.03048661 -0.068715096 0.07961691
000160 cc c9 98 bd eb fa 72 bb d0 50 fe bc da 2e e1 bd
       -0.07460365 -0.0037075828 -0.031044394 -0.10995264
000170 79 58 16 3b af ae b3 bc e0 b2 7e 3d c0 3d 42 3b
       0.0022940917 -0.021933882 0.062182307 0.0029638857
000180 31 a0 9a 3d 69 ac ad 3d 72 fa 91 bd
       0.07550085 0.0848015 -0.07127847
