models/7x7-4-99-tanh/24sekMC/30episodes.pth (torch, 202338 bytes, 12 tensors)

input_layer.weight f4 [99, 50]
0	0x3da054f6	0.07828705
1	0xbe6693a7	-0.22517262
2	0xbe07e92c	-0.13272542
3	0xbe373a4a	-0.1789333
4	0xbdfc305e	-0.12313913
5	0xbe0339ec	-0.12815064
6	0xbe230cd0	-0.15922856
7	0x3c73f91e	0.014890937
8	0xbcc1dbec	-0.023664437
9	0x3d84c3b1	0.06482638
10	0x3c7a315d	0.015270558
11	0x3ddb5444	0.10709432
12	0xbd604689	-0.054754768
13	0xbdc1a615	-0.09455506
14	0xbd1d31fd	-0.03837775
15	0x3d809ada	0.062795356
16	0x3d2a5d0b	0.04159264
17	0x3d161c68	0.036648184
18	0x3dda8d9f	0.10671543
19	0xbc4c8da8	-0.012484945
20	0xbe40f25f	-0.18842457
21	0x3e4ff35b	0.20307676
22	0xbc0fd7e4	-0.0087795
23	0x3ca9e5d5	0.020739475
24	0x3d44ff3b	0.04809497
25	0x3dc47b26	0.09593801
26	0xbdae342e	-0.08506046
27	0xbe28f9ed	-0.16501589
28	0xbe243a7f	-0.1603794
29	0x3d80d3ae	0.06290375
30	0xbe2fd9c1	-0.1717291
31	0xbe071ecf	-0.13195346
32	0xbbb66caf	-0.0055671553
33	0xbd6be556	-0.05759176
34	0xbd891808	-0.06694037
35	0xbcc8d326	-0.024514746
36	0xbd699338	-0.057025164
37	0x3d3e3d0e	0.046444945
38	0xbe081e6d	-0.13292857
39	0xbe255458	-0.16145456
40	0x3dc46e5a	0.095913604
41	0xbd77e441	-0.060520414
42	0x3da14b0b	0.078756414
43	0xbb1d493c	-0.002399995
44	0xbc8899fc	-0.016674988
45	0x3e482581	0.19545557
46	0x3d345017	0.044021692
47	0xbe0d6052	-0.13806275
48	0xbd8d31bd	-0.068942524
49	0x3dcf8d07	0.10134321
50	0x3e05e031	0.13073803
51	0xbe08e35b	-0.13367979
52	0x3d267b2d	0.040644813
53	0xbdab6dda	-0.08370562
54	0xbd768550	-0.06018573
55	0x3e0234d5	0.12715466
56	0x3d6bfb59	0.05761275
57	0x3e076f87	0.13226138
58	0xbdf6f5fd	-0.12058637
59	0xbb4721df	-0.003038518
60	0xbde7c4f6	-0.11316864
61	0xbe16756f	-0.14693235
62	0x3e2b0ac7	0.1670333
63	0xbdf957ed	-0.12174974
64	0x3c0ae57c	0.008477565
65	0x3d5e6523	0.05429567
66	0xbcfaad85	-0.030600319
67	0x3e004e4a	0.12529865
68	0xbde3ad47	-0.111170344
69	0x3c4df547	0.012570686
70	0x3d790e3b	0.060804587
71	0xbbc47a7e	-0.0059960475
72	0xbd5f3cbf	-0.05450129
73	0x3c87ce7a	0.016577948
74	0xbde809c9	-0.11329991
75	0xbcdef3b0	-0.027215809
76	0xbe391958	-0.18076074
77	0x3c590afb	0.013247247
78	0x3decf269	0.115696736
79	0xbe0f3ae5	-0.1398731
80	0x3c468905	0.012117629
81	0x3d9d5cc4	0.07683709
82	0x3ddb9a4a	0.10722788
83	0xbc9c155b	-0.019053152
84	0xbca5fc2e	-0.02026185
85	0xbe42a13c	-0.19006819
86	0xbdb18bd9	-0.08669252
87	0xbc1c0abe	-0.0095240455
88	0x3dba3dd6	0.090938255
89	0xbbac060b	-0.005249744
90	0xbdfb987b	-0.12284943
91	0xbd4f35ff	-0.050588604
92	0xbd014806	-0.031562828
93	0xba249697	-0.0006278543
94	0xbd27caae	-0.040964775
95	0xbced23f4	-0.028947808
96	0xbe0d2e52	-0.13787201
97	0xbdc4d0d9	-0.09610147
98	0xbcec96c8	-0.028880492
99	0x3b6d0603	0.0036166913
100	0xbe94b37d	-0.2904319
101	0xbdb351e5	-0.087558545
102	0xbdee183f	-0.11625718
103	0x3ddd1499	0.10794944
104	0x3c0442a8	0.008072533
105	0x3dd70e81	0.10500813
106	0xbd45943f	-0.04823708
107	0x3a40f205	0.00073602825
108	0x3e22b417	0.15889011
109	0xbdf452e0	-0.1192987
110	0xbdb22f6f	-0.087004535
111	0xbe367e48	-0.1782161
112	0x3d5827c4	0.0527723
113	0x3dd30ff6	0.10305779
114	0xbcdf56b7	-0.027263029
115	0x3d4c562f	0.04988688
116	0xbd55bdf6	-0.052183114
117	0x3e0f2db8	0.13982284
118	0x3e089d48	0.13341248
119	0x3df99f10	0.12188542
120	0x3c1fab6a	0.009745458
121	0x3e08b29c	0.13349384
122	0xbded0371	-0.11572922
123	0xbd8e40bf	-0.06945943
124	0x3e0388d9	0.12845172
125	0x3d1f2080	0.038849354
126	0xbe193b9b	-0.14964144
127	0xbd86a6f0	-0.065748096
128	0x3c8e029d	0.01733523
129	0xbda53b71	-0.08067978
130	0x3d5a220a	0.05325512
131	0xbdbaadfe	-0.091152176
132	0x3da8a94e	0.08235417
133	0xbd95338d	-0.07285223
134	0x3d0af96b	0.03392927
135	0x3db5d7c5	0.088790454
136	0xbe03a3ac	-0.12855405
137	0xbde33d88	-0.110957205
138	0xbe07e3e9	-0.13270535
139	0x3dbc833a	0.09204717
140	0xbc990bf3	-0.018682456
141	0xbdd17f12	-0.10229315
142	0x3cc62633	0.024188137
143	0x3db18722	0.08668353
144	0xbcd4bbff	-0.02596855
145	0x3dad88c5	0.08473352
146	0x3e2197b4	0.15780526
147	0xbdb5e188	-0.08880907
148	0x3cf33ef7	0.02969311
149	0xbd8ceb21	-0.06880785
150	0x3bca4960	0.0061732978
151	0xbd21521d	-0.03938495
152	0xbdfbba18	-0.12291354
153	0xbd881788	-0.06645113
154	0xbd6cde5e	-0.057829253
155	0xbd535ed5	-0.05160411
156	0x3d630fbb	0.055434924
157	0x3cc715f4	0.02430246
158	0xbbf209c4	-0.007386418
159	0x3e119daf	0.14220308
160	0x3e009dc0	0.12560177
161	0xbe24ac4f	-0.16081356
162	0x3d4fe12b	0.050751846
163	0xbcfd90c3	-0.030952817
164	0x3e6478da	0.22311726
165	0x3e1556fe	0.14583966
166	0x3ce32d40	0.027731538
167	0x3dfd3b0f	0.1236478
168	0x3bf460bb	0.0074578202
169	0xbd8055cd	-0.06266365
170	0xbe167801	-0.14694215
171	0x3def901d	0.11697409
172	0xbd808201	-0.06274796
173	0xbbfb920f	-0.0076773237
174	0xbcb75f45	-0.022384295
175	0xbdcb2da6	-0.09920816
176	0xbd45dec3	-0.048308145
177	0xbdc24608	-0.09486014
178	0xbe315f0a	-0.17321411
179	0xbd90d2b3	-0.07071438
180	0x3d753770	0.059867322
181	0xbcc49f25	-0.024001667
182	0xbde697e6	-0.11259441
183	0xbd5a8542	-0.05334974
184	0xbe36c40b	-0.17848222
185	0x3d2825f3	0.041051816
186	0x3d7e2a08	0.062051803
187	0x3c8b9a21	0.017041268
188	0x3dd9e9a5	0.10640267
189	0x3b9d6097	0.004802774
190	0x3d543810	0.051811278
191	0xbd8d417e	-0.06897257
192	0xbc02f288	-0.007992394
193	0xbc1d7c42	-0.009612145
194	0x3d041e66	0.032255553
195	0x3e287931	0.16452481
196	0xbd89ca21	-0.06728006
197	0xbce43837	-0.027858837
198	0x3d24fb5d	0.04027878
199	0xbdbcea8c	-0.09224424
200	0xbd7be64e	-0.061498933
201	0xbd6ff230	-0.058580577
202	0x3b124e45	0.0022324484
203	0x3e3fde49	0.18737139
204	0x3ca4b6c7	0.020106686
205	0x3da2bc30	0.0794605
206	0xbda9adfb	-0.08285137
207	0xbda0a7c7	-0.07844501
208	0x3ce6efce	0.02819052
209	0xbd20db0d	-0.039271403
210	0x3d365457	0.044514026
211	0x3e123041	0.1427622
212	0xbc270297	-0.010193489
213	0xbd9e546a	-0.077309445
214	0xbe134766	-0.14382705
215	0xbd81e636	-0.063427374
216	0x3e1dbfd5	0.1540521
217	0x3dc227db	0.09480258
218	0xbd6bc705	-0.057562847
219	0xbe2db33c	-0.16962904
220	0x3cec38a3	0.0288356
221	0x3e034a49	0.12821306
222	0xbd886393	-0.06659617
223	0x3e0c4bfc	0.1370086
224	0xbe138f2f	-0.14410089
225	0x3d1011f3	0.035173368
226	0x3d45203e	0.04812645
227	0xbded9152	-0.11599983
228	0x3dc9139a	0.09818192
229	0xbdc0724e	-0.09396802
230	0x3d5b895a	0.053597786
231	0x3dbc18e4	0.09184435
232	0xbd06760c	-0.032827422
233	0xbda2a062	-0.07940747
234	0x3dac986f	0.08427512
235	0x3d96d622	0.07365061
236	0x3d40d925	0.047082085
237	0x3bca582c	0.0061750617
238	0xbd2bbf85	-0.041930694
239	0x3daab781	0.08335782
240	0xbddc9dfb	-0.1077232
241	0xbe004d5b	-0.12529509
242	0xbd25f309	-0.04051498
243	0x3d302780	0.04300642
244	0xbd8ec68f	-0.06971466
245	0xbe0be850	-0.13662839
246	0xbc7f4914	-0.015581388
247	0xbe1e51d1	-0.15460898
248	0xbc02264e	-0.007943703
249	0x3dd89de7	0.105769925
250	0xbd8c3bc0	-0.06847334
251	0xbd863e05	-0.06554798
252	0xbd5446be	-0.051825278
253	0xbe295fe8	-0.16540492
254	0x3d4d7307	0.050158527
255	0xbd95af7c	-0.073088616

input_layer.bias f4 [99]
0	0xbc79c803	-0.01524544
1	0xbe0f85c5	-0.14015873
2	0x3e146b9a	0.14494172
3	0xbcea4624	-0.028597899
4	0x3e5b98f1	0.21445061
5	0xbe051272	-0.12995318
6	0xbde86b24	-0.113485605
7	0x3d29b9bb	0.041436892
8	0xbdc1b562	-0.09458424
9	0x3d2c95c1	0.042135004
10	0xbe1b7a3e	-0.1518335
11	0x3ccbaf87	0.024863971
12	0xbdcdbc87	-0.10045724
13	0x3df65312	0.12027563
14	0xbd417fba	-0.04724095
15	0x3d3f4d3d	0.04670452
16	0xbc21df27	-0.009879864
17	0xbe0e92ca	-0.13923183
18	0xbdd11b1f	-0.10210251
19	0x3dc2c011	0.0950929
20	0x3d523d0f	0.05132776
21	0x3ddde95c	0.108355254
22	0x3ddaf874	0.1069192
23	0xbde97891	-0.11399949
24	0x3de57bf8	0.11205286
25	0x3e1e4d59	0.15459193
26	0xbdcbdb22	-0.09953906
27	0x3e050283	0.1298924
28	0xbc3f3f3d	-0.011672792
29	0xbd9a4406	-0.07532506
30	0xbddffe3a	-0.10937162
31	0xbc7a5289	-0.015278467
32	0xbc54a15a	-0.012977922
33	0xbdc9eadc	-0.09859249
34	0x3d18653a	0.037205912
35	0x3df588b0	0.11988962
36	0xbd253bae	-0.040340118
37	0xbdace2e0	-0.084417105
38	0xbdfa2b1c	-0.12215254
39	0xbd462ad7	-0.0483807
40	0xbceb9c17	-0.028760953
41	0x3cbe3cd2	0.02322236
42	0x3e4394aa	0.1909968
43	0xbdcf8c0b	-0.10134133
44	0xbd63e88f	-0.055641707
45	0x3da23a74	0.07921305
46	0x3c452849	0.0120335305
47	0x3ddfc370	0.109259486
48	0x3d9a53ed	0.07535539
49	0xbd268f86	-0.04066422
50	0x3dd29cbf	0.10283803
51	0x3de328da	0.11091776
52	0x3d8164eb	0.06318077
53	0xbd29f632	-0.041494556
54	0xbdd63f38	-0.10461277
55	0xbe18cf88	-0.14922917
56	0xbdceb1a2	-0.100924745
57	0xbdfa30ee	-0.12216364
58	0xbe03bbff	-0.12864684
59	0xbd54313a	-0.05180476
60	0x3cd7a14c	0.02632203
61	0x3e1209c0	0.14261532
62	0x3b69d05f	0.0035677177
63	0x3dc13d7e	0.09435557
64	0xbe0e1842	-0.13876441
65	0xbce9e6cd	-0.028552437
66	0xbddc4db4	-0.10757008
67	0xbe0f250b	-0.13978975
68	0xbe0e93ef	-0.1392362
69	0xbd914f3b	-0.0709519
70	0xbde00cbc	-0.10939929
71	0x3e082a99	0.132975
72	0xbd8d1090	-0.06887925
73	0x3e00c4c4	0.1257506
74	0xbdd9d9f6	-0.10637276
75	0xbd11c4f8	-0.035588235
76	0xbc7bf6b8	-0.015378647
77	0xbe42f3e7	-0.19038354
78	0x3dcd1a05	0.100147285
79	0xbda63d3d	-0.08117149
80	0x3ded3b0c	0.11583528
81	0xbdd9161d	-0.10599921
82	0xbe0c5130	-0.13702846
83	0x3e0c6887	0.13711749
84	0xbe0c6413	-0.1371005
85	0x3d8a11f7	0.06741708
86	0xbe15c431	-0.14625622
87	0x3d9a8c0e	0.075462446
88	0xbe090cb7	-0.13383757
89	0x3be1d7dd	0.006892188
90	0x3de04632	0.10950889
91	0x3e200e69	0.15630497
92	0x3dae37df	0.0850675
93	0xbdba2001	-0.090881355
94	0xbc3a0fda	-0.011356318
95	0x3e0c9fb0	0.13732791
96	0xbdcb3196	-0.09921567
97	0xbcb5874a	-0.022159237
98	0xbd0d6a97	-0.03452548

hidden.0.weight f4 [99, 99]
0	0xbe093714	-0.13399917
1	0xbcdf2946	-0.02724136
2	0xbb1ccb9a	-0.0023925067
3	0xbe033c9e	-0.12816092
4	0x3dbdf68c	0.09275541
5	0xbca67ce5	-0.020323226
6	0x3c0d5026	0.008625066
7	0x3db05e2a	0.0861171
8	0xbcac686f	-0.021045892
9	0x3d8e592a	0.069506004
10	0x3c14dc42	0.009085717
11	0x3d3b49fa	0.045724846
12	0x3d5e54f6	0.054280244
13	0x3d3f5dee	0.046720438
14	0x3d98e75d	0.07466004
15	0x3e0a1fa6	0.13488635
16	0xbe0035fe	-0.12520596
17	0x3d1de3c3	0.03854729
18	0xbd834c8d	-0.06411085
19	0x3baff102	0.0053693065
20	0xbdad6e1c	-0.08468267
21	0x3d450251	0.048097912
22	0x3c5dd890	0.013540402
23	0x3ddcfdd2	0.107906
24	0x3db69f16	0.08917062
25	0x3d761949	0.060082708
26	0xbd654c0e	-0.055980735
27	0xbd83f472	-0.064431086
28	0xbd58eb73	-0.052958917
29	0xbd815ec9	-0.06316907
30	0xbdf7dcf5	-0.12102691
31	0xbcd44cc6	-0.025915515
32	0xbdf0adbe	-0.11751889
33	0x3d50146d	0.05080073
34	0xbb457a45	-0.0030132693
35	0x3dc33b34	0.095327765
36	0x3d7bebf5	0.061504323
37	0x3d9d5de3	0.07683923
38	0x3da2e90a	0.07954605
39	0x3dbd5343	0.092443965
40	0x3e1b24ed	0.15150805
41	0x3e1689ad	0.14700957
42	0xbd4113b5	-0.047137935
43	0x39a54289	0.00031520825
44	0x3d97f00f	0.074188344
45	0x3c94ce7d	0.018164868
46	0xbd9b3a74	-0.075795084
47	0x3ae0ae3a	0.0017141767
48	0xbd6c83d1	-0.057742897
49	0xbdb48c56	-0.088158295
50	0xbda5a3ff	-0.080879204
51	0x3dee97cd	0.116500475
52	0xbce85b5c	-0.028363876
53	0x3a95ff5c	0.0011443901
54	0xbdd6d3aa	-0.104895905
55	0xbc89a487	-0.016802086
56	0x3c7af529	0.01531724
57	0x3c4d9a86	0.012549048
58	0x3d2e4110	0.042542517
59	0x3ce9a91e	0.028523024
60	0x3e317002	0.17327884
61	0x3e0d022a	0.13770357
62	0x3d53272d	0.051551033
63	0x3e08a849	0.13345446
64	0xbd8fc058	-0.070191085
65	0xbce9f846	-0.028560769
66	0x3de55b51	0.11199058
67	0x3dc73ed7	0.097287826
68	0x3d9b2645	0.07575659
69	0x3ce5bd9e	0.028044518
70	0xbb85b912	-0.0040809
71	0x3dd90d7d	0.10598276
72	0x3cdd1553	0.026987707
73	0xbd9ed357	-0.077551536
74	0x3cb41678	0.02198337
75	0x3c669995	0.014074703
76	0xbd598a90	-0.05311066
77	0x3bb399d5	0.0054809847
78	0x3de2f763	0.110823415
79	0xbcf81c4e	-0.030286934
80	0xbc8266e2	-0.015918199
81	0xbcf35f60	-0.029708564
82	0xbc19d7b6	-0.009389808
83	0x3ce1cf16	0.027564567
84	0x3e05ae9e	0.13054892
85	0xbd32024a	-0.043459214
86	0xbd2bbddd	-0.041929115
87	0x3c2de376	0.010613313
88	0xbd63d14b	-0.05561952
89	0x3cfa3284	0.030541666
90	0xbb951653	-0.0045497804
91	0x3dc77b47	0.0974031
92	0xbdd1978e	-0.10233985
93	0x3d42b6e7	0.04753771
94	0xbd349ee1	-0.04409683
95	0x3d7c7e97	0.061644163
96	0x3df4f6db	0.119611464
97	0x3de5b19f	0.11215519
98	0xbd45aeb2	-0.048262306
99	0x3d4e1502	0.050313003
100	0xbb350f81	-0.002762765
101	0xbd14e313	-0.036349367
102	0x3dc322c6	0.09528117
103	0x3af6cf26	0.0018830046
104	0x3d17d34b	0.03706674
105	0x3d7bacff	0.06144428
106	0x3d7568ad	0.05991428
107	0x3de91c24	0.113823205
108	0xbd87e18f	-0.06634819
109	0x3d87d127	0.066316895
110	0xbdd1794a	-0.10228212
111	0xbd3e5e90	-0.0464769
112	0xbddf0b5b	-0.10890838
113	0x3da08a0e	0.07838832
114	0xbd27dda6	-0.040982865
115	0xbcf621d8	-0.030045435
116	0x3d27494a	0.04084138
117	0xbdbc8026	-0.0920413
118	0x3c0e0a68	0.008669473
119	0xb9b31806	-0.0003415944
120	0x3c639ce6	0.013892388
121	0xbe1c6d10	-0.15275979
122	0xbd38d879	-0.04512832
123	0xbd1a349d	-0.037647832
124	0x3cea82bb	0.02862679
125	0xbd796a52	-0.06089241
126	0xbdb21b46	-0.08696608
127	0xbd851514	-0.06498161
128	0x3d085fbb	0.03329442
129	0x3c9f0f2c	0.019416414
130	0x3dc73230	0.097263694
131	0xbd3f7c25	-0.046749253
132	0xbe01434f	-0.12623332
133	0xbd2690f4	-0.04066558
134	0xbd8c8330	-0.068609595
135	0x3e02a363	0.1275764
136	0xbbf2ca7a	-0.007409391
137	0x3d676ad2	0.056498356
138	0xbd8124d6	-0.06305854
139	0x3e053d62	0.13011697
140	0xbda8dcd0	-0.08245242
141	0x3da525c3	0.08063843
142	0x3d4badcb	0.04972629
143	0xb9f61b71	-0.00046941222
144	0xbd9d5388	-0.07681948
145	0xbd8fed75	-0.07027713
146	0x3c847ef9	0.016173827
147	0xbe000690	-0.12502503
148	0x390cd1b9	0.00013429568
149	0x3d684151	0.056702916
150	0x3d6063e0	0.05478275
151	0x3bdc0325	0.006714242
152	0x3d16186e	0.03664439
153	0xbdddc545	-0.10828642
154	0x3cba8f92	0.022773538
155	0x3c713b2b	0.014723579
156	0xbced06f7	-0.028933985
157	0x3b9a8f26	0.0047167717
158	0x3c79a42c	0.0152368955
159	0xbd0ec65b	-0.034857135
160	0x3ca8ae6c	0.020590983
161	0xbc954edf	-0.018226085
162	0x3dcd8a75	0.10036174
163	0xbc6c3f50	-0.014419392
164	0xbb12e0b8	-0.0022411775
165	0x3cf149f9	0.029454218
166	0xbda00b95	-0.07814709
167	0xbdae2c7c	-0.085045785
168	0xbd4bdc4c	-0.04977064
169	0xbdd2014f	-0.10254156
170	0xbdc67527	-0.09690314
171	0xbca2f6ec	-0.019893132
172	0xbae0e490	-0.0017157961
173	0xbe0d56e8	-0.13802683
174	0xbbf7f152	-0.0075666094
175	0x3d0009f2	0.031259485
176	0xbde27e69	-0.11059267
177	0x3c94b398	0.018152043
178	0xbd3433ca	-0.043994702
179	0xbc0bf3d1	-0.008542017
180	0xbe1282fe	-0.14307782
181	0xbded8c35	-0.11599008
182	0xbc4ae5b0	-0.012383863
183	0x3db33dfc	0.08752057
184	0xbcc6ae17	-0.024252934
185	0x3d78467e	0.0606141
186	0xbda3d0c5	-0.07998804
187	0xbc2ed855	-0.010671695
188	0xbd43584e	-0.047691636
189	0xbd4b0609	-0.049566302
190	0x3d541a83	0.051783096
191	0x3dc39a11	0.0955087
192	0x3bcd4a52	0.006264963
193	0xbdfc6ca5	-0.1232541
194	0x3d690d49	0.056897435
195	0xba9235ed	-0.0011154987
196	0x3cd2952a	0.025705893
197	0xbc910970	-0.017704695
198	0xbd8f21ec	-0.06988892
199	0x3dcab315	0.098974384
200	0xbd8814e5	-0.0664461
201	0x3c79ef36	0.015254786
202	0xbe01e99b	-0.1268677
203	0x3d56aa64	0.05240859
204	0xbc6cd798	-0.014455698
205	0x3d7c561e	0.061605565
206	0x3d266f2c	0.040633366
207	0xbde88ca7	-0.11354952
208	0x3ded72fc	0.11594197
209	0x3db933dd	0.09043095
210	0xbd45c02c	-0.048278973
211	0xbde9aa0b	-0.11409386
212	0x3d249aa8	0.040186554
213	0x3e28ee93	0.16497259
214	0xbc213821	-0.009840042
215	0xbda82465	-0.08210067
216	0x3d53433b	0.051577788
217	0x3b9610d4	0.004579643
218	0xbd9b65b6	-0.07587759
219	0x3d71ca02	0.05903054
220	0x3dcfd1c4	0.101474315
221	0x3d4fdc3a	0.050747134
222	0xbd725bde	-0.059169643
223	0x3c0a9402	0.008458139
224	0xbc0c53e8	-0.008564927
225	0x3ce0fdc4	0.027464755
226	0x3ce3985b	0.02778261
227	0xbda6f30e	-0.08151828
228	0xbda0a2cb	-0.0784355
229	0xbd594ddd	-0.05305277
230	0x3ddc2643	0.10749485
231	0xbd4605b6	-0.04834529
232	0x3d687455	0.056751568
233	0x3e12f4be	0.14351174
234	0xbdb6bb3e	-0.08922432
235	0xbe1da85d	-0.15396257
236	0xbdbf3c7e	-0.0933771
237	0x3d24e35e	0.040255897
238	0xbc1fe75c	-0.00975975
239	0x3d963789	0.07334811
240	0xbc7ba5f4	-0.0153593905
241	0x3c64161a	0.013921285
242	0x3997645b	0.00028875735
243	0xbd919cc1	-0.071099766
244	0xbc38976a	-0.011266569
245	0x3d6b0be7	0.057384398
246	0x3de52958	0.11189526
247	0xbc1c6c43	-0.009547296
248	0xbda274c6	-0.07932429
249	0xbdca72cd	-0.09885178
250	0x3cb98b9d	0.02264958
251	0xbdada39a	-0.0847847
252	0xbd997e5a	-0.07494803
253	0xbd56a917	-0.05240735
254	0xbdf81db8	-0.121150434
255	0xbd1a5e52	-0.037687607

hidden.0.bias f4 [99]
0	0xbd18aace	-0.037272267
1	0x3de98011	0.1140138
2	0xbdc53fa8	-0.09631282
3	0xbd820416	-0.063484356
4	0x3da92cce	0.08260499
5	0xbd9f32fe	-0.07773398
6	0xbd9949e9	-0.074848
7	0xbd31b1bf	-0.043382403
8	0xbd686294	-0.056734636
9	0x3d8d5235	0.06900445
10	0x3dd410b0	0.103547454
11	0x3d7354fa	0.05940721
12	0xbd94bea6	-0.07262926
13	0x3d34ab62	0.044108756
14	0x3dc98c26	0.09841184
15	0xbb4b163e	-0.00309886
16	0x3d0eea80	0.034891605
17	0x3d9ba132	0.07599105
18	0xbd25edf5	-0.040510137
19	0xbc2a832a	-0.0104072485
20	0xbd98caab	-0.07460531
21	0x3dc8e32d	0.09808955
22	0xbce1211a	-0.027481604
23	0xbd4d64b7	-0.050144877
24	0xbd3657ac	-0.044517204
25	0x3cec1e3c	0.02882301
26	0xbe12498b	-0.14285867
27	0x3d014995	0.031564314
28	0xbc4f9c07	-0.012671477
29	0x3db21860	0.086960554
30	0x3d1251f4	0.035722688
31	0xbdab9703	-0.083784126
32	0xbdbaba74	-0.09117594
33	0xbdc1dc7c	-0.09465882
34	0xbb90882f	-0.0044107656
35	0xbdf55fc0	-0.119811535
36	0x3d3818d7	0.044945564
37	0xbb524f76	-0.003209082
38	0x3d4a5270	0.049395025
39	0xbdbe5b49	-0.09294755
40	0x3dae8636	0.085216925
41	0x3d82174d	0.063521005
42	0x3d01114e	0.031510644
43	0xbd963073	-0.0733346
44	0x3d8ca5d5	0.068675674
45	0x3d0b484e	0.034004502
46	0xbcd05bbf	-0.025434373
47	0xbcb276c3	-0.021785146
48	0xbd522f33	-0.051314544
49	0x3d3263e1	0.043552283
50	0x3d8f2a89	0.06990535
51	0x3dea74f6	0.1144809
52	0xbd8ae12e	-0.06781231
53	0xbccbeeff	-0.024894236
54	0xbca3a78f	-0.01997736
55	0x3d87509a	0.066071704
56	0x3d9665ce	0.073436365
57	0x3daadb4d	0.083426096
58	0xbd18499c	-0.037179574
59	0x3d3259fa	0.04354284
60	0x3d570136	0.05249139
61	0x3debc762	0.11512639
62	0xbde87f43	-0.11352398
63	0x3d40050a	0.046879806
64	0xbd6bf8df	-0.05761039
65	0x3d40ecf6	0.047100984
66	0xbdb45106	-0.088045165
67	0x3dd2dbc3	0.102958225
68	0x3cea30f4	0.028587796
69	0xbda4bed9	-0.08044214
70	0xbdf34541	-0.118784435
71	0x3b9d4928	0.0047999807
72	0x3dce3590	0.1006881
73	0x399d24ff	0.00029972938
74	0xbd6522c6	-0.055941366
75	0x3d5d7b17	0.054072466
76	0xbcd6a0c8	-0.026199713
77	0x3d62bad7	0.055353966
78	0xbd316e19	-0.043317888
79	0x3e12e91f	0.14346741
80	0x3d026e45	0.031843442
81	0xbdb5bc5f	-0.088738196
82	0xbd5b9544	-0.053609148
83	0xbd812502	-0.06305887
84	0xbd1c6298	-0.038179964
85	0xbc9489aa	-0.01813205
86	0xba47e3db	-0.00076252007
87	0xbd6c2d33	-0.057660293
88	0x3d1b5a80	0.037928104
89	0x3dafe854	0.08589235
90	0xbd01026d	-0.031496454
91	0xbde2763a	-0.11057706
92	0xbd1d0c0a	-0.03834156
93	0xbd5f0e64	-0.054457083
94	0xba8c6ca9	-0.0010713536
95	0x3da27a32	0.07933463
96	0x3de6052a	0.11231454
97	0xbdcd9ab1	-0.10039271
98	0xbbc6d4a5	-0.0060678297

hidden.1.weight f4 [99, 99]
0	0x3c528647	0.012849397
1	0xbcb1a2dc	-0.021684103
2	0x3db2aee5	0.08724765
3	0x3e30d0fa	0.17267218
4	0xbdcdc1b9	-0.10046715
5	0x3dab7b84	0.08373168
6	0x3e0e42b8	0.13892639
7	0x3de54ae2	0.111959234
8	0xbd7dcd5c	-0.061963424
9	0x3b25fbc2	0.0025327061
10	0x3de1f521	0.11033083
11	0xbd9ce30d	-0.07660494
12	0xbe13145f	-0.1436324
13	0xbd83ce37	-0.06435817
14	0xbd89945b	-0.0671775
15	0xbe39e687	-0.18154345
16	0xbcf7b790	-0.030238897
17	0xbcea06aa	-0.02856763
18	0x3c7bcaed	0.0153682055
19	0x3d12d5fb	0.0358486
20	0xbdd68ccb	-0.10476073
21	0x3d9e3754	0.07725397
22	0x3de41c73	0.11138239
23	0xbc79a8df	-0.015238016
24	0x3d191b49	0.037379537
25	0x3d2215bc	0.03957151
26	0x3e128fb6	0.14312634
27	0x3d84c300	0.06482506
28	0xbd832624	-0.06403759
29	0xbd2b0965	-0.041757006
30	0xbd8cdf77	-0.0687856
31	0x3e42bee8	0.19018137
32	0x3dd4861c	0.10377142
33	0x3e3209e2	0.17386582
34	0x3d0cde9e	0.03439199
35	0xbc7f1216	-0.015568277
36	0x3d093e2b	0.033506554
37	0xbdbff12b	-0.09372171
38	0xbd5ec6f5	-0.05438896
39	0xbd899967	-0.06718712
40	0x3b802911	0.0039111455
41	0x3dad30b2	0.084565535
42	0xbdd0daff	-0.1019802
43	0x3d2866f3	0.041113805
44	0x3da071a4	0.07834175
45	0x3d012075	0.031525094
46	0x3c2b6911	0.0104620615
47	0x3df3af59	0.11898679
48	0xbdebf3ef	-0.11521136
49	0xbe06d115	-0.13165696
50	0x3da1d4aa	0.079018906
51	0x3e0946d7	0.1340593
52	0x3c2cfd9f	0.010558515
53	0xbd024d72	-0.03181214
54	0xbd6a70c3	-0.057236444
55	0xbc94a2c2	-0.018144015
56	0x3c235a30	0.009970233
57	0xbdf6fc96	-0.12059896
58	0xbd912515	-0.07087151
59	0xbc40d354	-0.011769135
60	0xbdd1b975	-0.10240451
61	0x3d855a77	0.065113954
62	0xbd6664b2	-0.056248374
63	0x3d66d6f1	0.056357328
64	0x3d198127	0.037476685
65	0xbb25b171	-0.0025282765
66	0x3db9ed63	0.09078481
67	0xbe5001a3	-0.20313124
68	0xbdb94a4f	-0.09047376
69	0x3afd6d21	0.0019334891
70	0x3e298b56	0.16557059
71	0x3ce6bc21	0.028165879
72	0x3e116272	0.1419771
73	0xbdaef787	-0.08543306
74	0xbdc075e9	-0.093974896
75	0x3d76239a	0.060092546
76	0x3d94270b	0.07234009
77	0xbb91b3a0	-0.004446462
78	0x3daf1ae3	0.0855005
79	0xbc38ae07	-0.01127196
80	0xbde78c3f	-0.11306047
81	0x3e208c1c	0.15678447
82	0x3d85b194	0.06528011
83	0x3d1fed48	0.03904465
84	0x3d8ae759	0.06782407
85	0xbde11e95	-0.10992161
86	0xbd85328c	-0.06503782
87	0x3dd045b9	0.101695485
88	0xbd649dff	-0.05581474
89	0x3d615729	0.055014763
90	0x3e170fc3	0.14752106
91	0xbd3e4290	-0.046450198
92	0x3e02c502	0.12770465
93	0xbe0690a3	-0.13141112
94	0xbd8f2c20	-0.06990838
95	0xbcb08c4b	-0.021551272
96	0xbdf588ca	-0.11988981
97	0x3d62d9ad	0.055383373
98	0x3bb8b507	0.0056368145
99	0xbdba77b6	-0.09104864
100	0x3e00d46f	0.12581037
101	0x3dca1526	0.09867315
102	0xbe027cd1	-0.12742926
103	0x3cd9bf34	0.02658043
104	0x3e1dd21a	0.15412179
105	0xbddccf8e	-0.107817754
106	0xbda6a883	-0.0813761
107	0xbcc3f791	-0.02392176
108	0xbbac39b4	-0.005255902
109	0xbdfa4c6e	-0.12221609
110	0x3d11d0f2	0.035599656
111	0xbb2202f0	-0.002472099
112	0x3c8e38c5	0.017361054
113	0xbdda5680	-0.1066103
114	0xba00840b	-0.00049024884
115	0x3dc158fd	0.09440801
116	0xbd806df2	-0.062709704
117	0xbcdc6866	-0.02690525
118	0xbe0c3ca0	-0.13695002
119	0xbdc78088	-0.09741312
120	0xbe62340d	-0.22090168
121	0x3ddac595	0.10682217
122	0xbd6ee33c	-0.058322176
123	0x3e1ec17d	0.15503497
124	0x3d53622b	0.051607292
125	0xbdb202bd	-0.086919285
126	0xbe2eacf9	-0.17058171
127	0x3d7ef9a5	0.0622498
128	0xbe36b7d2	-0.1784356
129	0xbe1405e8	-0.14455378
130	0xbddd347f	-0.108010285
131	0x3aed1538	0.0018087989
132	0x3d91dfac	0.0712274
133	0x3d82852e	0.06373058
134	0x3e2dca8d	0.16971798
135	0xbd3a9a78	-0.04555747
136	0x3dc2d10f	0.09512531
137	0x3b70423c	0.0036660573
138	0x3d8fa68b	0.070141874
139	0x3baa6f52	0.0052012587
140	0xbe1ae8e4	-0.15127903
141	0xbd71a83c	-0.05899833
142	0x3c994147	0.018707884
143	0xbc975d0b	-0.018476984
144	0x3e472d91	0.19450976
145	0x3d7f3d1e	0.062314145
146	0xb8836607	-6.265571e-05
147	0x3d1ec691	0.038763586
148	0xbd8de619	-0.06928653
149	0x3d8d628c	0.06903562
150	0xbda4bcd6	-0.0804383
151	0xbd9a4d23	-0.07534244
152	0xbd8237f8	-0.063583314
153	0x3e55192c	0.20810384
154	0x3dd9b389	0.10629947
155	0xbe0ece11	-0.13945796
156	0x3d25ef73	0.04051156
157	0xbcc3b7e5	-0.023891399
158	0x3d758221	0.059938554
159	0xbd7a3a7f	-0.061090942
160	0xbe24de08	-0.16100323
161	0x3dfcd194	0.12344661
162	0xbd8e7fe0	-0.06957984
163	0x3b528c1b	0.0032126966
164	0x3d271a45	0.040796537
165	0xbc29de90	-0.010368004
166	0x3c8cd3e4	0.017190881
167	0x3d25b3c9	0.04045466
168	0xbc507a73	-0.012724507
169	0xbde7334d	-0.11289082
170	0xbe485dcc	-0.1956703
171	0xbdd83e6d	-0.10558782
172	0x3df0ff41	0.11767436
173	0xbd258fe3	-0.040420424
174	0x3deff1e6	0.1171606
175	0xbdaeb2a4	-0.08530167
176	0xbd0270c0	-0.031845808
177	0x3db34d03	0.08754923
178	0xbe1fb4b9	-0.15596284
179	0xbe417aab	-0.1889445
180	0x3da68632	0.081310645
181	0x3da49587	0.080363326
182	0xbd303a7d	-0.04302453
183	0x3d1776da	0.03697858
184	0x3dc905e7	0.09815579
185	0xbdadb6d1	-0.08482135
186	0xbd6d5023	-0.057937752
187	0xbccb7252	-0.024834786
188	0xbcdf960e	-0.027293231
189	0x3cc90b0d	0.024541402
190	0xbd726bf3	-0.05918498
191	0xbde08a4d	-0.10963879
192	0x3d5c9a11	0.053857867
193	0x3d5738bb	0.052544337
194	0xbd3bfbbe	-0.045894377
195	0x3d5e1f3d	0.05422901
196	0x3e079e22	0.13243917
197	0xbd712f5e	-0.058883063
198	0x3de715d1	0.11283458
199	0x3dae2f18	0.08505076
200	0x3cb423e1	0.021989765
201	0x3ab356bb	0.0013682464
202	0x3cb7ac3b	0.022420993
203	0x3dbb2464	0.091378
204	0x3b66643b	0.0035154957
205	0xbcd61369	-0.026132302
206	0x3e0cef08	0.13763058
207	0x3e1c968a	0.15291801
208	0x3c4dee38	0.012569003
209	0xbdfa4e06	-0.12221913
210	0xbc5045e0	-0.012711972
211	0xbd4fc737	-0.050727095
212	0x3d576d37	0.05259439
213	0xbce3d1bd	-0.027809972
214	0x3e0cc6bd	0.13747688
215	0x3d5ebc60	0.054378867
216	0x3d8d6ed1	0.06905902
217	0xbe1f69c6	-0.15567693
218	0xbdb20636	-0.08692591
219	0xbd9fa5cc	-0.07795295
220	0xbd34f68e	-0.044180445
221	0xbd07b44a	-0.03313092
222	0x3dd382b7	0.10327666
223	0x3ce3b847	0.027797831
224	0x3ba20451	0.004944362
225	0x3c7e5eac	0.015525501
226	0x3c86c438	0.016450986
227	0x3c22e472	0.009942161
228	0x3d14f6ef	0.036368307
229	0xbc30bcc0	-0.010787189
230	0xbdfb2363	-0.12262609
231	0xbd037ac7	-0.03209951
232	0x3d4d965b	0.05019222
233	0xbdc9821f	-0.09839272
234	0xbd7e18dd	-0.06203543
235	0xbdc41b49	-0.09575517
236	0xbc990904	-0.018681057
237	0xbd3a3abd	-0.045466173
238	0xbe13a3cd	-0.14417954
239	0x3ca8683b	0.020557513
240	0x3db2e60d	0.08735285
241	0xbda19233	-0.078892134
242	0xbd337204	-0.043809906
243	0x3c9a6914	0.018848933
244	0xbba07535	-0.0048967847
245	0x3bdfd1cb	0.006830429
246	0xbcfaf8d4	-0.030636229
247	0xbd721a0e	-0.05910688
248	0xbdaf5ff1	-0.08563221
249	0x3d4874ea	0.048939623
250	0x3c1b23a7	0.009468949
251	0x3df80768	0.12110788
252	0xbbe0476d	-0.006844452
253	0xbbd9e9d0	-0.006650187
254	0x3dc70cdf	0.09719252
255	0x3dd4f9d8	0.103992164

hidden.1.bias f4 [99]
0	0xbdc2061e	-0.09473823
1	0x3cd21d74	0.02564881
2	0xbd55c22e	-0.052187137
3	0x3d131c07	0.0359154
4	0x3d1e16d4	0.03859599
5	0xbd4a4449	-0.049381528
6	0xbb06d4d8	-0.0020573642
7	0xbc2138a8	-0.009840168
8	0xbcb0f36a	-0.021600444
9	0xbdf1a74d	-0.11799488
10	0xbce3847e	-0.027773138
11	0x3c6cf3b5	0.014462401
12	0xbdacfbab	-0.08446439
13	0x3d1a4539	0.037663672
14	0xbcbe8e90	-0.023261338
15	0xbca16aeb	-0.019704303
16	0xbd8a0d4f	-0.0674082
17	0x3d69a2d7	0.05704006
18	0xbcbf03d4	-0.023317255
19	0xbda5df44	-0.08099225
20	0xbd816d23	-0.06319644
21	0x3d1862c7	0.037203576
22	0xbd20dc80	-0.039272785
23	0xbd90bc4d	-0.070671655
24	0xbd8a231b	-0.06744977
25	0xbd8ff804	-0.07029727
26	0x3d8c5485	0.06852058
27	0xbdc836a4	-0.09776047
28	0xbd2e1317	-0.042498674
29	0xbc12cc49	-0.008959838
30	0x3e001338	0.12507331
31	0x3daf83a4	0.0857003
32	0x3e027a37	0.12741934
33	0xbdc6c488	-0.09705454
34	0x3d249e5d	0.04019009
35	0xbd93614a	-0.07196291
36	0x3d514ea5	0.051100392
37	0xbddf2824	-0.10896328
38	0xbca98edc	-0.020698003
39	0xbd15e03f	-0.03659081
40	0xbdf86d91	-0.12130273
41	0x3dd3904c	0.10330257
42	0x3c38d917	0.011282227
43	0xbdba2ffe	-0.09091185
44	0xbd95c11d	-0.07312224
45	0xbca75824	-0.02042777
46	0xbe0d258f	-0.13783859
47	0x3df7711d	0.120821215
48	0xbc3e36f0	-0.011609778
49	0xbc9b85f2	-0.018984769
50	0xbc579f62	-0.013160558
51	0x3da717e5	0.081588544
52	0xbd775d2c	-0.06039159
53	0x3da7ad12	0.081873074
54	0xbdb62296	-0.088933155
55	0xbd11824e	-0.03552466
56	0x3ce0fb0d	0.02746346
57	0x3d1f99d3	0.038965058
58	0x3cda3c33	0.026640033
59	0xbd8a8dd0	-0.0676533
60	0xbcbcdbb9	-0.02305399
61	0x3b449e32	0.0030001518
62	0x3ce51877	0.027965767
63	0x3e001a1c	0.1250996
64	0x3d9d2945	0.07673887
65	0xbc98fb0e	-0.0186744
66	0x3d037bd0	0.0321005
67	0xbcbc0c9a	-0.022955228
68	0xbddb1df4	-0.106990725
69	0x3d528046	0.051391862
70	0x3c886dbc	0.016653888
71	0x3d2d601d	0.04232799
72	0xbd751dfd	-0.059843052
73	0x3c1b1ed9	0.009467804
74	0xbd8dfe75	-0.069332995
75	0x3d8acd91	0.0677749
76	0x3d83d876	0.06437771
77	0xbc3d27f9	-0.011545175
78	0x3dcc296f	0.0996884
79	0xbd2d3af1	-0.04229254
80	0x3d8e3145	0.06942991
81	0x3dba31aa	0.09091504
82	0x3d74204f	0.059601124
83	0xbde05d4e	-0.109552965
84	0x3d54ee39	0.051985
85	0xbdd55b58	-0.10417813
86	0xbe098d06	-0.13432702
87	0xbda9ca0e	-0.08290492
88	0xbd0a5ca8	-0.03377977
89	0xbd46be6b	-0.04852144
90	0xbd206098	-0.03915462
91	0xb996b842	-0.00028747512
92	0x3ddcaca8	0.10775119
93	0x3cb3d158	0.021950409
94	0x3c1f343f	0.009717046
95	0xbdd4bb34	-0.10387269
96	0xbde50aba	-0.111836866
97	0x3d2d8bd4	0.04236968
98	0xbcfae016	-0.03062443

hidden.2.weight f4 [99, 99]
0	0x3d5da5cc	0.054113194
1	0x3e1b129a	0.15143815
2	0x3db23ff1	0.08703602
3	0x3d5275d1	0.05138189
4	0xbd4308d5	-0.047615845
5	0xbc1f5720	-0.009725362
6	0xbda416fd	-0.08012197
7	0xbcce9be0	-0.025220811
8	0xbe34fad7	-0.17673813
9	0x3e05cc2e	0.1306617
10	0x3d019bf8	0.031642884
11	0x3d422d96	0.047406755
12	0xbd19c990	-0.03754574
13	0x3c88541f	0.016641675
14	0x3df07ca7	0.117425255
15	0x3b0e78a8	0.0021739397
16	0xbe426e55	-0.18987401
17	0x3d1dffb4	0.038573936
18	0x3dca8d92	0.09890284
19	0xbdaf7b2e	-0.085684165
20	0xbcef9b4f	-0.029248862
21	0xbdf59fde	-0.11993383
22	0xbd9ffe8e	-0.07812224
23	0xbd8f9eef	-0.07012736
24	0x3d83b116	0.06430261
25	0x3c013022	0.007885011
26	0x3a66d272	0.00088051625
27	0xbc22b230	-0.0099301785
28	0x3b94d918	0.004542481
29	0xbe125a9d	-0.14292379
30	0xbd83d038	-0.06436199
31	0x3c6be464	0.014397714
32	0xbd1f6de2	-0.03892315
33	0x3d877218	0.066135585
34	0x3d7e2421	0.062046174
35	0x3e6f4fdd	0.23370309
36	0x3bbd693a	0.0057803662
37	0xbe01aca6	-0.12663516
38	0xbd176a27	-0.03696647
39	0xbe22fc24	-0.15916497
40	0xbd50436a	-0.05084554
41	0xbdde8adb	-0.10866328
42	0x3e05a15c	0.13049835
43	0x3d221589	0.03957132
44	0xbd0c6b90	-0.034282267
45	0xbb3d703c	-0.0028906008
46	0x3dc1892f	0.09449994
47	0xbd94b522	-0.07261111
48	0x3dc80f16	0.097685024
49	0x3ddbf9f9	0.10741038
50	0xbd97e6ec	-0.07417092
51	0xbd1aa90e	-0.03775888
52	0x3d6a6cd8	0.057232708
53	0xbda25cf8	-0.07927889
54	0x3db53157	0.088473015
55	0xbdd89cd7	-0.1057679
56	0xbd4ab7f2	-0.04949183
57	0x3db1cb83	0.08681395
58	0x3df16dec	0.11788544
59	0xbe175ada	-0.14780751
60	0xbd2dfd38	-0.042477816
61	0xbe8628a1	-0.26202872
62	0xbbf7033b	-0.007538227
63	0x3d94a525	0.07258061
64	0xbd21d517	-0.03950986
65	0x3da596c1	0.08085395
66	0x3e479af1	0.19492699
67	0xbc26d4ae	-0.010182543
68	0x3e82a13a	0.2551363
69	0x3d83b700	0.06431389
70	0x3d6a0cc7	0.05714109
71	0x3d8ca828	0.06868011
72	0xbd18875d	-0.037238467
73	0x3d1917e4	0.0373763
74	0x3d369a35	0.044580657
75	0xbdb1ecdb	-0.08687755
76	0xbe2e6937	-0.17032324
77	0xbdae30ef	-0.08505427
78	0xbdd1ddc3	-0.10247376
79	0x3d09a34b	0.033602994
80	0xbdcbdd24	-0.099542886
81	0xbe630e2b	-0.22173373
82	0xbdd439ea	-0.10362609
83	0x3cf5384c	0.029934071
84	0x3d8977aa	0.06712277
85	0x3d03ae5a	0.032148696
86	0xbc8aa631	-0.01692495
87	0x3dbeec5a	0.09322424
88	0xbd46c1a8	-0.04852453
89	0x3bdbf6bc	0.0067127626
90	0xbde273ce	-0.11057244
91	0xbdd707ac	-0.1049951
92	0x3e05cbf5	0.13066085
93	0x3d5b9720	0.05361092
94	0xbdd2231f	-0.10260605
95	0xbdd0d5e0	-0.101970434
96	0x3d255626	0.04036536
97	0xbcb04e8f	-0.021521835
98	0x3e865da3	0.26243314
99	0x3dba3439	0.09091992
100	0xbd9b18ae	-0.07573067
101	0x3dea3774	0.11436358
102	0xbc904293	-0.01760987
103	0xbdd18ba9	-0.10231716
104	0x3c3fe529	0.011712351
105	0x3c58b497	0.01322665
106	0x3d32095f	0.04346597
107	0x3e09bef9	0.13451757
108	0xbd5f3a9d	-0.054499257
109	0xbd8ab89a	-0.06773491
110	0xbdef41fd	-0.11682508
111	0x3d42da0c	0.047571227
112	0x3cd846de	0.02640098
113	0x3d9d83b5	0.07691137
114	0xbd5c43fe	-0.05377578
115	0xbd641d5f	-0.055692073
116	0xbd56b43f	-0.05241799
117	0x3e35fa2a	0.17771211
118	0x3b34b8cc	0.0027575968
119	0xbcf90bd5	-0.03040115
120	0x3da31cf6	0.07964508
121	0xbcd6cbcb	-0.026220223
122	0x3e36f70b	0.17867677
123	0xbccedda9	-0.02525218
124	0x3e16336a	0.1466805
125	0xbbcbb247	-0.0062163207
126	0x3df776b3	0.12083187
127	0x3d2d3647	0.04228809
128	0x3b413638	0.002948178
129	0x3d31a839	0.04337332
130	0x3e13897c	0.14407915
131	0x3d041bbf	0.032253023
132	0xbdc67917	-0.09691065
133	0xbdc50ce7	-0.096216016
134	0x3d7843a9	0.0606114
135	0xbd84a7ca	-0.06477316
136	0x3c949a70	0.018140048
137	0xbe2493a1	-0.16071941
138	0x3d940bda	0.07228823
139	0xbb3f8936	-0.0029226071
140	0x3df226f0	0.11823833
141	0xbdfec869	-0.12440569
142	0xbd335579	-0.043782685
143	0x3e349701	0.17635728
144	0x3d38dfeb	0.04513542
145	0x3d9fae63	0.077969335
146	0x3de65579	0.11246771
147	0xbdc22ff4	-0.094818026
148	0x3d15d7d5	0.036582787
149	0xbcd73383	-0.02626968
150	0xbe4de7bd	-0.20107932
151	0xbdd3e512	-0.10346426
152	0xbd9f571c	-0.07780287
153	0xbdf2a00c	-0.11846933
154	0x3d3a5077	0.045486894
155	0x3d89528e	0.06705199
156	0xbe0b12bc	-0.13581365
157	0xbcdae658	-0.026721165
158	0x3e38cbdf	0.1804652
159	0x3e2b2568	0.16713488
160	0x3bb0c9bd	0.005395143
161	0x3d2e4666	0.042547606
162	0xbd27884d	-0.04090147
163	0xbc3427b7	-0.010995797
164	0xb9c9fe0b	-0.00038526984
165	0x3d325596	0.043538652
166	0xbda027ae	-0.07820068
167	0xbd32ae9a	-0.043623544
168	0xbde1df1d	-0.110288836
169	0x3cbfa3f8	0.023393616
170	0xbce17dee	-0.027525868
171	0x3ca7655a	0.02043407
172	0x3d3c0d01	0.04591084
173	0xbdb2e71d	-0.087354876
174	0xbd239656	-0.039938293
175	0xbe4d3b2d	-0.20042105
176	0xbde2db9f	-0.11077046
177	0x3d56ceb1	0.05244321
178	0xbbe233d2	-0.00690315
179	0xbdf075f0	-0.11741245
180	0x3d93dbc0	0.07219648
181	0xbd9d6c24	-0.07686642
182	0x3e4116ab	0.18856303
183	0x3d95e120	0.0731833
184	0xbdc0fdd3	-0.09423413
185	0xbddbc96a	-0.10731776
186	0xbc27ec23	-0.0102491705
187	0xbdd0f0fb	-0.102022134
188	0xbdccc3e3	-0.099983
189	0x3d5a0463	0.05322684
190	0xbd8a25be	-0.0674548
191	0xbe19d4fa	-0.1502265
192	0x3df0e7d3	0.11762967
193	0x3d2fe55e	0.04294335
194	0x3d8cb22c	0.06869921
195	0x3d58bb6b	0.05291311
196	0xbc778b14	-0.015108842
197	0xbd1ad059	-0.037796352
198	0xbda2db92	-0.07952036
199	0xbcc6357a	-0.024195421
200	0xbcaf4835	-0.021396736
201	0x3d95e569	0.07319147
202	0xbd38ea36	-0.045145236
203	0xbd29f060	-0.041489005
204	0xbd8e91fb	-0.06961437
205	0x3d22aa57	0.03971323
206	0x3e12c95e	0.14334628
207	0xbd0d57c4	-0.034507528
208	0x3e399da9	0.18126549
209	0xbdaf6648	-0.085644305
210	0xbe18effe	-0.149353
211	0xbc99617a	-0.018723238
212	0xbe10ca48	-0.14139664
213	0x3e16d806	0.14730844
214	0xbdb23798	-0.0870201
215	0xbde0ad17	-0.10970514
216	0x3d64e7e6	0.055885218
217	0x3d191a5b	0.03737865
218	0xbc5eff46	-0.013610667
219	0x3e0adf7d	0.13561817
220	0xbdc2096d	-0.09474454
221	0x3d545451	0.051838223
222	0xbbf3c89c	-0.007439686
223	0xbd86103f	-0.065460674
224	0xbe13a163	-0.14417033
225	0x3d7f1446	0.062275194
226	0x3cb62694	0.022235192
227	0xbc6f32f2	-0.014599549
228	0xbd98abd8	-0.074546516
229	0xbd8e59f6	-0.069507524
230	0x3aad3ebf	0.0013217552
231	0x3d8c3b34	0.068472296
232	0xbd572eea	-0.052534975
233	0x3c5054a0	0.012715489
234	0xbe14d77f	-0.1453533
235	0x3ae44e6b	0.001741839
236	0x3d24d672	0.040243573
237	0x3e13f0c6	0.14447317
238	0xbd9f2716	-0.07771127
239	0xbbd58e2b	-0.006517192
240	0x3df09fcf	0.11749231
241	0x3dcf7b47	0.10130935
242	0xbd431e57	-0.047636356
243	0xbe3ad961	-0.18246986
244	0xbd0ebec8	-0.034849912
245	0x3d4e6f6a	0.05039922
246	0xbcda123a	-0.02662002
247	0x3d7b9232	0.06141872
248	0x3e3d3105	0.1847573
249	0xbd555bff	-0.052089687
250	0x3ddc67f9	0.10762019
251	0x3cf729cf	0.030171303
252	0xbcce3d20	-0.025175631
253	0x3dba6af3	0.0910243
254	0x3dc0f03a	0.094208196
255	0x3d1abe1c	0.03777896

hidden.2.bias f4 [99]
0	0x3db2e786	0.08735566
1	0xbd5b002e	-0.05346697
2	0x3c63cf3b	0.013904388
3	0x3cdcbf13	0.02694658
4	0xbe059ee4	-0.13048893
5	0x3dacc45e	0.084358916
6	0xbcd31624	-0.025767393
7	0xbd6ac535	-0.057316978
8	0xbdd31517	-0.10306757
9	0x3d958c01	0.07302094
10	0x3da38061	0.07983471
11	0x3e0c5f1b	0.13708155
12	0xbc5d932f	-0.013523861
13	0x3ccb2508	0.024797931
14	0x3d92cda5	0.0716813
15	0x3db4c921	0.08827425
16	0xbd4f1f51	-0.050566975
17	0x3c4e211a	0.012581134
18	0x3da9c687	0.08289819
19	0xbc0fd054	-0.008777697
20	0x3dbce51d	0.092233874
21	0xbc011e56	-0.007880768
22	0x3dc70533	0.097177885
23	0x3da4f1a4	0.08053902
24	0xbd5a43e8	-0.053287417
25	0x3d184a3e	0.037180178
26	0x3dc2be2b	0.09508928
27	0xbc9b662c	-0.018969618
28	0xbcf537dd	-0.029933864
29	0x3d4683c0	0.04846549
30	0x3a94f51e	0.0011364555
31	0xbcdb1842	-0.026744965
32	0x3d50662a	0.05087868
33	0xbda9d5d4	-0.082927376
34	0x3dae4608	0.08509451
35	0xbc7bb645	-0.015363281
36	0xbb9a448e	-0.0047078794
37	0xbd06ac5a	-0.03287921
38	0x3d8564bb	0.065133534
39	0xbd5be701	-0.0536871
40	0x3e1797f8	0.14804065
41	0x3d8bb0a0	0.06820798
42	0x3db5a4b0	0.08869302
43	0xbe15f1a8	-0.14642966
44	0xbc69e9c9	-0.01427693
45	0xbdc02c46	-0.093834445
46	0x3dfbbdb5	0.12292043
47	0xbdbbc840	-0.09169054
48	0xbbf14ca7	-0.007363874
49	0x3d984e6a	0.07436831
50	0x3d08976f	0.033347543
51	0x3d4b0c56	0.04957231
52	0xbd2a6d39	-0.04160807
53	0x3c01078e	0.007875336
54	0x3da7088c	0.08155927
55	0x3d4ecfe3	0.050491225
56	0xbd8c3071	-0.06845177
57	0xbd36c0bb	-0.044617396
58	0xbda0303d	-0.07821701
59	0xbc6e90ac	-0.01456086
60	0xbdab1999	-0.08354492
61	0x3deeabd3	0.116538666
62	0x3ca8a243	0.020585185
63	0x3debcac2	0.11513282
64	0xbbba1cdc	-0.00567971
65	0xbddd872c	-0.108167976
66	0x3dc86b4e	0.09786092
67	0xbd0a5436	-0.033771716
68	0x3cb07902	0.021542076
69	0xbc4b907c	-0.0124245845
70	0x3da4cd4b	0.08046969
71	0x3dea22b8	0.11432403
72	0x3da1ee47	0.07906776
73	0x3d9ce5fd	0.07661054
74	0xbdfa6f96	-0.122283146
75	0xbdfd03e4	-0.12354258
76	0xbc74e99f	-0.014948278
77	0xbe07e30f	-0.1327021
78	0xbd310051	-0.043213192
79	0x3d34879d	0.044074643
80	0x39942e69	0.00028263338
81	0x3d9cafde	0.076507315
82	0xbde72d1f	-0.11287903
83	0x3c4dd4e7	0.012562967
84	0x3e1ef9af	0.15524934
85	0x3db59618	0.08866519
86	0xbdf24139	-0.118288465
87	0x3bad1b76	0.0052828146
88	0xbd34784e	-0.044060044
89	0x3de45496	0.11148946
90	0xbcd11790	-0.02552393
91	0x395847f8	0.00020626176
92	0x3d797c2f	0.060909446
93	0xbd9a7789	-0.07542331
94	0xbc10fcfe	-0.008849381
95	0x3b742935	0.0037256007
96	0x3cb1e238	0.021714315
97	0x3d492c5d	0.049114574
98	0xbd2b1194	-0.04176481

hidden.3.weight f4 [99, 99]
0	0xbd5da9c5	-0.054116983
1	0x3d7c6cdc	0.061627254
2	0xbceb49fe	-0.028721806
3	0x3bd70215	0.0065615275
4	0x3d989d13	0.074518345
5	0x3c2157a4	0.009847555
6	0xbcb74c2b	-0.022375187
7	0x3dbebc28	0.09313232
8	0xbce3e8ee	-0.02782103
9	0xbd69a4d8	-0.057041973
10	0xbd7549f8	-0.059884995
11	0x3db4c626	0.08826856
12	0x3d35081e	0.044197194
13	0xbda3b5c3	-0.07993653
14	0x3e16bc8a	0.1472036
15	0x3e08c0d5	0.1335481
16	0xbdc02bbd	-0.093833424
17	0xbe244b28	-0.16044295
18	0xbb7a273f	-0.0038170365
19	0x3d9f9ea4	0.0779393
20	0xbdeeda25	-0.116627015
21	0x3d991a6b	0.07475742
22	0x3d523ba4	0.05132641
23	0x3d33d015	0.043899614
24	0x3d6320e1	0.055451278
25	0x3e035a60	0.12827444
26	0xbe2b1d7c	-0.16710466
27	0x3ca35ad9	0.01994078
28	0xbd9b7d03	-0.075922035
29	0xbd959d6e	-0.07305418
30	0xbd064700	-0.032782555
31	0x3c37193b	0.011175449
32	0x3dcee43e	0.101021275
33	0xbd72508d	-0.05915885
34	0xbe2b35fc	-0.16719812
35	0x3cea783e	0.028621789
36	0xbe1cca1d	-0.15311475
37	0x3d9760ba	0.07391496
38	0x3d87e56a	0.06635554
39	0x3da592e8	0.08084661
40	0xbd881953	-0.06645455
41	0xbe554e4c	-0.20830649
42	0x3d884727	0.06654196
43	0x3dafee39	0.08590359
44	0x3d9f56f8	0.0778026
45	0x3db534fb	0.08847996
46	0x3cc76212	0.024338756
47	0x3e2c4d04	0.16826254
48	0x3d6c2ba2	0.0576588
49	0x3d498feb	0.049209516
50	0x3cbc1ee4	0.022963949
51	0xbc103710	-0.00880219
52	0xbdf0333f	-0.117285244
53	0x3cf6080e	0.030033138
54	0xbe0c919f	-0.13727425
55	0xbddc74b3	-0.10764446
56	0xbddf3189	-0.1089812
57	0xbd84ec63	-0.064904
58	0xbd09f929	-0.033684883
59	0xbde083b9	-0.10962624
60	0xb96a4e75	-0.00022345207
61	0xbbef1c89	-0.007297103
62	0x3df26387	0.118353896
63	0xbd9c3aae	-0.0762838
64	0xbdf2429a	-0.118291095
65	0xbc4408c5	-0.011964981
66	0xbe13953a	-0.14412394
67	0xbdea477b	-0.11439415
68	0xbcafe08e	-0.02146938
69	0x3db27595	0.08713833
70	0x3db61a3f	0.08891725
71	0xbd29c213	-0.04144485
72	0x3dbfd3d6	0.093665764
73	0x3d8f8fc4	0.07009843
74	0xbe23c161	-0.15991737
75	0x3d6feae0	0.058573604
76	0xbd8e20c5	-0.06939844
77	0x3ca66bd0	0.02031508
78	0x3e2b3dde	0.16722819
79	0xbda4cddc	-0.08047077
80	0xbd3428f3	-0.043984365
81	0x3d8043f1	0.06262959
82	0xbe3af3a9	-0.18257011
83	0xbda7b637	-0.081890516
84	0xbd307a14	-0.043085173
85	0x3e0cc3b2	0.13746527
86	0x3d92f107	0.071748786
87	0x3e15e80d	0.14639302
88	0xbdd71492	-0.1050197
89	0x3dcb4fa2	0.09927298
90	0x3d3123cc	0.04324703
91	0x3d1d69e3	0.03843106
92	0xbd0ba5f6	-0.03409382
93	0xbdc6e00a	-0.09710701
94	0x3e167ff1	0.14697243
95	0x3d06f9ea	0.03295318
96	0x3da49bcc	0.080375284
97	0x3e12b75e	0.14327762
98	0x3d650670	0.055914342
99	0xbddf6cd6	-0.10909431
100	0x3e3bde4c	0.18346518
101	0xbe3ada5b	-0.18247359
102	0xbbc5be15	-0.0060346224
103	0x3bc91bbc	0.0061373394
104	0x3ddf2075	0.108948626
105	0xbd45ba32	-0.048273273
106	0x3dcfa397	0.10138624
107	0x3dc63214	0.096775204
108	0x3dbd21a5	0.09234933
109	0x3de68061	0.11254955
110	0xbcfa2d4a	-0.030539174
111	0x3d8964e2	0.06708695
112	0x3d9d413f	0.0767846
113	0xbe022ce6	-0.1271244
114	0x3b8065dd	0.003918393
115	0x3e2d6f6f	0.1693704
116	0x3e027633	0.12740402
117	0x3d897354	0.0671145
118	0xbe2e3911	-0.17013957
119	0xbd9dcbc2	-0.07704879
120	0x3e3b7409	0.18305983
121	0x3e3f0018	0.1865238
122	0xbd53afb1	-0.051681224
123	0x3dbd1f35	0.09234468
124	0xbded35f6	-0.11582558
125	0xbd9c198c	-0.0762206
126	0x3d40c06e	0.047058515
127	0x3e72b66f	0.23702405
128	0xbd4c2936	-0.04984399
129	0x3d5a501e	0.053299062
130	0x3dc10781	0.094252594
131	0x3d7e2978	0.062051266
132	0xbd03cc2a	-0.032177128
133	0xbd998d51	-0.07497657
134	0xbcfcbece	-0.030852702
135	0x3db6d9fd	0.08928297
136	0x3bed6fd1	0.0072459956
137	0xba1473d8	-0.0005663014
138	0x3d91b1e4	0.07114008
139	0x3e178d0b	0.14799897
140	0xbd88d571	-0.06681336
141	0x3d63d47b	0.05562256
142	0xbda97d6b	-0.08275875
143	0x3d9662b9	0.073430486
144	0x3cb79578	0.02241014
145	0xbdc559d4	-0.09636274
146	0x3d50e3bc	0.050998434
147	0x3dd8d97f	0.10588359
148	0xbdab937a	-0.08377738
149	0x3b3dcba5	0.0028960493
150	0xbd194b33	-0.03742523
151	0xbd2174f8	-0.03941819
152	0xbe58cb87	-0.2117139
153	0x3d9d3a1e	0.076771006
154	0x3d9f73ec	0.07785782
155	0x3d227c87	0.03966954
156	0x3e46961e	0.19393203
157	0xbd150fa4	-0.03639187
158	0x3de21196	0.110385105
159	0xbd459fd0	-0.048248112
160	0xbd26dea3	-0.040739667
161	0xbdb2929e	-0.08719371
162	0xbc8b1b1f	-0.016980706
163	0x3e1d5573	0.15364628
164	0x3d9508b5	0.07277051
165	0xbe8b7a40	-0.27241707
166	0xbe1dc536	-0.15407261
167	0xbe0c93c7	-0.13728248
168	0xbc8757c8	-0.01652135
169	0x3c808828	0.015689924
170	0x3de3b59e	0.11118625
171	0xbd106b3a	-0.03525851
172	0xbd220064	-0.039551154
173	0xbd507af3	-0.050898504
174	0xbd62869f	-0.055304166
175	0xbcc04ced	-0.023474181
176	0xbe2d8180	-0.16943932
177	0xbc58cd94	-0.013232607
178	0xbd941543	-0.07230618
179	0xbdcc950e	-0.099893674
180	0xbdd29b70	-0.102835536
181	0x3e3f2c7e	0.18669316
182	0xbda68fb4	-0.08132878
183	0xbb4795a5	-0.0030454185
184	0xbd2f7af3	-0.042841863
185	0x3d3b088c	0.045662448
186	0x3c3e4114	0.0116121955
187	0x3e135b2e	0.14390251
188	0xbd77a79d	-0.060462583
189	0x3cd33033	0.02577982
190	0x3d156f3b	0.03648303
191	0x3c3a5813	0.011373538
192	0x3d3805da	0.044927455
193	0x3c74d21d	0.014942673
194	0xbddf0848	-0.108902514
195	0x3df75a69	0.12077791
196	0x3b7b1094	0.0038309442
197	0xbbdb4aad	-0.0066922517
198	0xbd69e13c	-0.057099566
199	0x3dcdc887	0.10048013
200	0x3ccaa12f	0.024735061
201	0xbba6493d	-0.0050746487
202	0x3d84e0be	0.06488179
203	0x3ccd636d	0.025071824
204	0xbda51fe8	-0.08062726
205	0x3d17880a	0.03699497
206	0x3d674b85	0.056468505
207	0xbcb95410	-0.022623092
208	0xbc993c51	-0.018705519
209	0x3d49aedb	0.04923902
210	0x3d1dd714	0.038535193
211	0x3e153861	0.14572288
212	0x3cd53ed2	0.026030932
213	0xbdd7bd98	-0.10534209
214	0x3d9ee91a	0.07759304
215	0xbdb70178	-0.08935827
216	0xbe403ba2	-0.18772748
217	0x3cbe9942	0.023266438
218	0xbd4c7a13	-0.049921107
219	0xbdd7d224	-0.10538128
220	0xbe0fb07a	-0.14032164
221	0x3e5189d3	0.20462732
222	0xbd30fe84	-0.043211475
223	0x3c4035be	0.011731563
224	0xbe147c88	-0.1450063
225	0xbd13485d	-0.035957683
226	0xbdacf75f	-0.0844562
227	0xbbdd9d44	-0.0067631323
228	0xbdf2ab9b	-0.118491374
229	0x3e008d4b	0.12553899
230	0x3d32d91d	0.043664087
231	0xbd52c085	-0.051453132
232	0x3ce0e2cd	0.027451897
233	0xbe581bfc	-0.21104425
234	0xbe456e65	-0.19280393
235	0x3d88b4d5	0.06675116
236	0x3d9b1f4f	0.07574331
237	0x3e2585c9	0.16164316
238	0xbe1179e1	-0.1420665
239	0xbceea99f	-0.029133616
240	0x3dc8519c	0.09781191
241	0xbddec2e3	-0.108770154
242	0x3c047de3	0.008086654
243	0x3d8bc878	0.06825346
244	0x3cf30103	0.029663568
245	0xbdb4d2eb	-0.08829292
246	0xbd9bda26	-0.07609968
247	0xbe3aa7cf	-0.18228076
248	0xbdafb054	-0.08578554
249	0x3d083446	0.033252977
250	0xbc2abab7	-0.010420493
251	0xbda74a10	-0.08168423
252	0xbdcfdc31	-0.1014942
253	0xbd48a837	-0.048988547
254	0xbd8f00bf	-0.06982564
255	0xbe6eec99	-0.23332442

hidden.3.bias f4 [99]
0	0x3dabb255	0.083836235
1	0xbda8cbef	-0.08242022
2	0x3dcf748b	0.10129651
3	0x3d436feb	0.047714155
4	0xbd927ee6	-0.0715311
5	0xbd9a23f9	-0.075263925
6	0xbd394ab0	-0.045237243
7	0x3de9e7d6	0.11421172
8	0x3c9044a4	0.017610855
9	0xbd4b95f0	-0.04970354
10	0xbd1dbd2e	-0.038510494
11	0xbdb6dc5c	-0.08928749
12	0x3d54f475	0.051990945
13	0xbd2c162e	-0.04201334
14	0xbc970022	-0.01843268
15	0xbcebb0d8	-0.02877085
16	0x3d2355e8	0.03987685
17	0xbd062ae7	-0.03275576
18	0xbb495aec	-0.003072436
19	0xbdaf3f54	-0.08557001
20	0x3d8d15e9	0.06888945
21	0xbd20ac59	-0.039226864
22	0x3d3e5e6e	0.046476774
23	0xbd7c1eeb	-0.061552923
24	0xbd9499f1	-0.072559245
25	0xbe50e7b1	-0.20400883
26	0x3e02d1d0	0.1277535
27	0xbe1793b7	-0.14802442
28	0xbd4fcf38	-0.05073473
29	0x3aeba2ad	0.0017977558
30	0xbb07eef1	-0.0020741785
31	0x3cdc6bf3	0.026906943
32	0x3def632b	0.11688837
33	0x3d9836d7	0.07432335
34	0xbcec556b	-0.028849324
35	0xbcd3cd6a	-0.025854785
36	0xbcd7f4e3	-0.026361888
37	0x3d00664a	0.03134755
38	0x3ad9dce0	0.0016621612
39	0x3deede5e	0.11663507
40	0x3ad354fa	0.0016123347
41	0xbc2a28e7	-0.010385728
42	0xbd47bc82	-0.04876376
43	0xbd595bd9	-0.05306611
44	0xbd21dd91	-0.039517943
45	0xbd2ecf2b	-0.04267804
46	0x3d9b1041	0.075714596
47	0xbd8afd1e	-0.067865595
48	0x3d573b4c	0.052546784
49	0x3da66a91	0.08125795
50	0x3d3b9869	0.045799647
51	0xbb504ae6	-0.0031782924
52	0xbdbb28e1	-0.091386564
53	0xbdb424b8	-0.08796066
54	0x3d930d16	0.0718023
55	0xbc6c85a3	-0.014436158
56	0x3d094575	0.033513505
57	0x3d655a79	0.055994485
58	0xbc088b43	-0.008333984
59	0x3daeae4b	0.085293375
60	0xbda20f0b	-0.079130255
61	0x3dbb4d71	0.0914563
62	0x3c4f279c	0.012643721
63	0xbd24cc44	-0.040233865
64	0xbdf115a9	-0.117717095
65	0xbd36d395	-0.044635374
66	0x3da2cff9	0.07949824
67	0x3d813b22	0.06310107
68	0xbd15d760	-0.03658235
69	0x3cf03a2f	0.02932462
70	0x3d59e007	0.053192165
71	0xbd89583c	-0.067062825
72	0xbc9a0e80	-0.018805742
73	0x3b8ca157	0.004291694
74	0x3d9ab926	0.075548455
75	0xbdfd0494	-0.12354389
76	0x3d1eeef5	0.038802106
77	0xbd2716cf	-0.040793236
78	0xbd43ea90	-0.047831118
79	0xbda37c33	-0.079826735
80	0xbdf9e77d	-0.12202356
81	0xbd27c311	-0.040957514
82	0x3b32641c	0.0027220314
83	0xbd405313	-0.046954226
84	0x3df5562f	0.11979329
85	0xbd0dfab6	-0.034662925
86	0xbd88bc82	-0.0667658
87	0x3daca744	0.08430341
88	0xbda39e55	-0.07989184
89	0xbc0064b5	-0.00783651
90	0xbd09a4de	-0.033604495
91	0xbde13626	-0.10996656
92	0x3a2f6019	0.000669004
93	0xbcf24992	-0.029576097
94	0x3d86a1f7	0.06573861
95	0x3b0faf80	0.0021924675
96	0x3d949ab8	0.07256073
97	0x3db49f3f	0.08819436
98	0xbd8e61b7	-0.069522314
