models/5x5-2-26-tanh/2950episodes.pth (torch, 34108 bytes, 8 tensors)

input_layer.weight f4 [50, 26]
00000000: a5a1 87c0 6e70 de40 e520 f73f f099 1441
00000010: 0f2c c9bf a649 a5bf 12bb 07c0 86fa 8640
00000020: 0e96 cd40 903e 37c0 77e8 cfbf cd93 e2bf
00000030: 9a26 92c0 e8f5 97bf a1e8 3441 6067 2cc1
00000040: 5b81 2bc1 299e 1441 84e1 f540 a097 eec0
00000050: 519d 45c0 19ac 8cc0 11c5 1240 7863 39c1
00000060: c4eb 7840 5a33 6c40 0344 bbc0 81d9 99c0
00000070: 9cef bb40 00ee 1240 eaec 0a41 e6b6 f6c0
00000080: 1fd0 6c40 e1da ad40 63f8 b940 d782 0e40
00000090: a2c4 65be c8ce 2041 333c 88c0 3c4e 703f
000000a0: a5bf 14c1 350e ce3f cd69 00c1 8afd 9bc1
000000b0: a84e a83e 70b7 0740 10e0 c2c0 fcbc 683f
000000c0: 158a 9540 7cb1 2141 02b8 e1c0 db19 933f
000000d0: 53bb 7fc0 560e 86c0 cb70 cdc0 77bd 1bbf
000000e0: 94a2 4540 0f9a c540 0125 aac0 1df7 91c0
000000f0: e750 ee40 6a13 31c0 3259 19c1 275d d0bd
00000100: ad17 9540 729b d640 2cb5 4cc0 3b00 7541
00000110: b8d7 3241 d102 9dc0 3a5d 4a40 70c4 5b41
00000120: 2cd8 14c0 9137 3bc1 3eaa 08c0 b969 5d41
00000130: d2b3 493f 7464 25c0 6765 8940 7e60 17c1
00000140: 5093 11c1 c7f1 eec0 79f3 2ec0 711d 9840
00000150: f81e c73f 0efe a6c0 46dc 2b41 3991 d9c0
00000160: 2fda 6abf b2c3 9ec0 e074 0dc1 c290 97bf
00000170: 2b3e 4c41 7f84 6dbf e4ad 0bbf 20aa 2340
00000180: 2188 863f d992 3e41 9105 6bbf c95c 9040
00000190: 1e3e ea40 fe51 b740 9205 0241 351c cdc0
000001a0: e453 5641 5420 9e3f d56b bc3f c649 4cc0
000001b0: 8319 28c1 88dc 9e40 49f0 9c40 8886 ad40
000001c0: 31f8 c940 e03b 46c1 2fdc e83f 4656 9b3f
000001d0: 3f86 88c0 22d2 31c0 2554 2c3c 2aa6 0841
000001e0: 691e bbbf e9c1 d7bf 5d2a 7dc0 b2ad f03e
000001f0: b737 b03e 6410 9f40 90ea 2241 88ab 3241
00000200: f067 2841 66bc 8cc0 289b 0341 efcd 14c1
00000210: 7fd1 25c0 cdd0 893f b274 68c0 6706 6c40
00000220: 0bbc 8640 28c0 c43f bfa7 42c0 47e1 5abf
00000230: a5c4 ee40 9642 1e41 f183 7240 5d44 7a3e
00000240: d08e 3441 1fdf a040 0168 0ac1 b904 2441
00000250: f6dd 1d41 23f9 47bf 7e68 fbc0 ec1f 0740
00000260: 6da2 b840 ba47 21c1 1bca ecc0 6574 31c1
00000270: 65a7 6940 8aa0 1241 9349 c1c0 7f8b 1d40
00000280: 2dbf 1741 326c b040 f931 7f40 25d4 e3c0
00000290: 1319 8b3f cdfa 8940 7aca c8c0 fea1 7bc0
000002a0: 32a2 2cc0 b56a 72c0 2d4f 4841 1348 8140
000002b0: 97c4 b9c0 340e 19c0 0128 e640 3fe1 9540
000002c0: c50e 5ec0 bf40 6840 7ae0 adbf 2af9 f2bf
000002d0: 8de8 cdc0 3dec f4c0 2201 f43f 560b ae40
000002e0: 7a5f 09c0 3878 4ec0 0bd2 0cc0 ddc9 bec0
000002f0: b6d7 39bf 5a44 b8c0 bc61 e240 ab35 b6bf
00000300: 8bbe 5e40 3e82 063e dda8 c340 217a e4be
00000310: e0ed 72c1 7602 4c40 0ea2 b2c0 866e 9041
00000320: 77f9 2641 c969 40c1 0fc8 14bf d693 f23f
00000330: 4bb9 83c0 38d3 4ec1 2e74 33c1 a67b 4140
00000340: 5060 0ec1 f278 eec0 6111 dd3f 479e 3141
00000350: a81d 8640 2267 e5c0 1346 aa40 a96d 04c0
00000360: ce31 4241 58c3 fdc0 5a53 fbbe f5a5 4541
00000370: b25a 0240 fd7f 09c1 39c3 02be a03d bf40
00000380: 1764 663f ccf7 cebf b1f2 9ac0 7c5b 63c1
00000390: 8608 8b3e 7330 5d3f 08ce 80c0 8d62 9ac1
000003a0: 4929 d03f 866c 32c0 40ba 0f40 7b20 abc0
000003b0: 41da eabe 4e41 fcbd 8559 06bf 8169 71c0
000003c0: 3c24 9740 6c36 2140 99b7 c4bc 25b7 8d3f
000003d0: 31da 1440 1cd6 f140 2364 0ac1 9a80 2c40
000003e0: 427b f4bf b2c1 3fc1 da0c 7e40 16a5 1c40
000003f0: 3ec2 f940 b377 ffbf 826c 5440 2997 52bf
-4.238482 6.9512243 1.9306914 9.287582 -1.5716571 -1.2913101 -2.1207929 4.2180815
6.424567 -2.8631935 -1.6242818 -1.7701355 -4.567212 -1.187192 11.306794 -10.775238
-10.719081 9.288613 7.683779 -7.456009 -3.0877268 -4.396008 2.293278 -11.586784
3.88939 3.6906343 -5.852052 -4.807801 5.872999 2.2957764 8.68284 -7.7098265
3.7002027 5.4329686 5.8115706 2.2267358 -0.2243829 10.050484 -4.2573485 0.93869376
-9.296788 1.6098086 -8.02583 -19.498798 0.3287251 2.1205711 -6.0898514 0.9091337
4.6731057 10.105831 -7.053712 1.1492265 -3.9958084 -4.18925 -6.4200187 -0.60835975
3.088048 6.175056 -5.317017 -4.561415 7.447376 -2.76681 -9.584276 -0.101740174
4.65914 6.7064753 -3.1985579 15.312556 11.177666 -4.906594 3.16194 13.735458
-2.325694 -11.701066 -2.1353908 13.838311 0.7879001 -2.5842562 4.293628 -9.461058
-9.098465 -7.467014 -2.7336104 4.753594 1.5556326 -5.2185125 10.741278 -6.7989774
-0.9173917 -4.9613886 -8.841034 -1.1841052 12.765178 -0.927803 -0.5456221 2.5572586
1.0510293 11.9108515 -0.9180537 4.5113263 7.3200827 5.728759 8.12636 -6.4096932
13.395481 1.2353616 1.4720408 -3.1920028 -10.506228 4.9644203 4.9043317 5.4226723
6.311547 -12.389618 1.8192195 1.2135704 -4.2663875 -2.7784505 0.0105181085 8.540567
-1.4618655 -1.6856052 -3.9557106 0.4700752 0.34417507 4.970751 10.182266 11.166878
10.525375 -4.397998 8.22538 -9.300277 -2.5909116 1.0766846 -3.6321225 3.6878908
4.2104545 1.5371141 -3.0414884 -0.85499996 7.4615045 9.891256 3.789303 0.24440141
11.284866 5.0272365 -8.650392 10.251153 9.86669 -0.7811453 -7.8565054 2.1113234
5.7698274 -10.080011 -7.399671 -11.090917 3.650842 9.164194 -6.040231 2.4616392
9.484174 5.5132074 3.987425 -7.1196465 1.0867027 4.3118653 -6.2747164 -3.9317622
-2.6973996 -3.7877629 12.51933 4.040048 -5.805248 -2.391492 7.1923833 4.683746
-3.4696515 3.6289518 -1.358413 -1.8982289 -6.4346375 -7.6538377 1.9062846 5.438884
-2.1464524 -3.2260876 -2.20032 -5.9621415 -0.72594774 -5.7583437 7.0744305 -1.4235128
3.4803798 0.13135621 6.114363 -0.44624427 -15.183075 3.1876502 -5.582282 18.053967
10.4359045 -12.025826 -0.58117765 1.8951366 -4.116369 -12.926567 -11.215864 3.023172
-8.898514 -7.452264 1.7270929 11.101142 4.19112 -7.1688395 5.321054 -2.0691931
12.137159 -7.9300957 -0.4908703 12.353017 2.0367856 -8.593747 -0.12769784 5.9762726
0.89996475 -1.6169372 -4.8421254 -14.209835 0.2715494 0.8640205 -4.0251503 -19.29812
1.6262599 -2.7878737 2.2457428 -5.347715 -0.4586964 -0.123171434 -0.52480346 -3.7720644
4.723173 2.5189466 -0.024013327 1.1071516 2.3258173 7.5573864 -8.649447 2.6953492
-1.9100115 -11.984789 3.9695344 2.447576 7.804961 -1.9958404 3.3191228 -0.822619

input_layer.bias f4 [50]
00000000: fa32 2e40 4bbd a4c0 3591 9f3f 9798 8c40
00000010: 36a5 c3c0 a955 1c41 b4b9 7c41 a573 d640
00000020: ae54 d13f 4e24 53c0 ffb6 49c0 f2a0 6841
00000030: 734c d33f a70b 38c1 7c05 34bf de18 e240
00000040: fc99 7d40 2cc4 653e a6d1 f8bf 01b7 bd3f
00000050: d549 88bd 720d b140 3a2e 45c1 cf8a d340
00000060: b157 0f3f 9873 c43f b39b d23f 8684 0dc0
00000070: b50b 7c40 89fe f9c0 e301 4e40 c52a 81be
00000080: f1a8 91c0 734f 2ac1 11b9 6941 47db 5a41
00000090: 6aed 0bc1 ec54 d8bf 786c a2c0 754b 0941
000000a0: d50d 1341 8fee 66c1 e673 4c41 54de c5c0
000000b0: 8e7c 3c41 3575 f13f 3ca4 0ac0 1f56 6740
000000c0: d25f b1c0 7d2c a0c0
2.7218614 -5.148107 1.2466189 4.3936267 -6.1139174 9.770913 15.795338 6.701617
1.6353967 -3.2990909 -3.1517942 14.539293 1.6507705 -11.502845 -0.7032087 7.0655355
3.9625235 0.22438115 -1.943898 1.4821473 -0.06654707 5.5328913 -12.323786 6.6106944
0.5599318 1.5347776 1.6453766 -2.2112136 3.9382145 -7.812321 3.2188652 -0.25227943
-4.5518727 -10.644397 14.607682 13.6785345 -8.745462 -1.6900916 -5.075741 8.580922
9.190877 -14.433242 12.7782955 -6.1833897 11.780409 1.8863894 -2.166274 3.6146314
-5.542947 -5.0054307

hidden.0.weight f4 [50, 50]
00000000: 7139 04c0 445c e5bd bd1a 26c0 20fd 27be
00000010: 7d43 1b41 7dc0 6041 b676 3940 9b4b 5d40
00000020: 1f54 9f41 e5d0 cf3f e78c dec0 03c1 ef3f
00000030: 0961 76bf 4f7b d440 8d3f 4fc1 add0 5940
00000040: bcf8 1abe 85ba d540 8d28 4ec1 026f 5fc1
00000050: 9a85 9041 7133 1040 1eb1 a2bf 061e b5bf
00000060: 1a2c d1c0 adbf cdc0 891c b440 13d9 3b40
00000070: 9524 b73f 62c5 b3c0 71e0 b140 8af6 10c1
00000080: 566f b8c0 dc9d 58c0 ba4a bd40 9782 17c1
00000090: cd9f 6741 80c5 91c0 eaac ce40 fde9 9640
000000a0: 2935 f6bf f49a 1d41 a990 a640 7a90 05c0
000000b0: 73b5 a740 3a85 3440 91ed 39c0 2f50 d9bf
000000c0: d9bd 1a41 a342 3241 9561 62bf 4afc c03f
000000d0: d5b0 ebc0 0dc6 d53e dd0b 98c1 f99e 5cc1
000000e0: ddd7 cec0 ed80 9cc0 c00c bec0 54ef 0940
000000f0: 7109 5ec1 5c31 ea40 adf4 d1c0 2036 ce40
00000100: 2990 7440 69de 2b40 8e95 ba3f 8c9a ec3f
00000110: 5cdd 2dc1 5800 4040 22a0 09be fd92 d5c0
00000120: 8a3b fec0 0b96 27c1 1fc6 a43f 23c4 8640
00000130: 3186 32c0 8012 1441 30d5 b3c0 e65f 10c1
00000140: 7114 64c1 f5c6 0b40 2506 0841 269f 5241
00000150: 62f6 3e40 037e 4340 847d 0cc0 b0fd 6abe
00000160: 8d34 8ac0 bbe0 3bc1 3b1b 12c1 afe0 3141
00000170: a2d3 b93f 24a1 d13f 7112 32c1 f1cc 92c0
00000180: d80d d2bf 8ad1 9bc0 0095 91c1 8003 f340
00000190: 18e6 a140 a4c1 aec0 5466 0340 a16c de40
000001a0: 8bcc 98c0 a158 c6bf 319b 0740 4b9d 1541
000001b0: 422f 08c1 d40b 93c0 9d0d 2241 28a2 e4bf
000001c0: c7d1 1fbf b9b9 8bc0 5186 21c1 7116 bd40
000001d0: eb26 5741 cae4 04c0 bdb7 cc40 09da 2a41
000001e0: 26ca 16c0 045a e9c0 3f7b e6bf 3e50 51c0
000001f0: d6ed 3d40 d542 62c1 987b d840 9c11 83c0
00000200: 68c3 32c1 545b b140 2684 25c0 cc8c b03f
00000210: 0345 043f 5993 9e41 5da0 33c0 423b 3cc1
00000220: 98f5 8ac0 5fb7 24c1 4388 2541 08b2 6e40
00000230: ed7d 8abf f58e 3740 c643 593f 1196 01c1
00000240: d98c 40c1 99e3 74bf 7d2c 99bf 84cd 7d41
00000250: 870a 68c0 0f00 1d3f 1ec4 4840 974e a040
00000260: a538 1cc1 7eaf c9c0 043c 3741 a84b 4abf
00000270: 26a6 4dc1 d6e6 8cc1 d152 88c0 fbce 9dc0
00000280: c844 fb3f 8d6b 5141 19ca a13f 4796 9f40
00000290: 7b4c 08c0 38c7 1ac0 ebea 1441 70d5 4c40
000002a0: b4fb 1a40 58a2 20c1 e761 87c0 6f40 a4c1
000002b0: 5c19 4bc0 a642 07c1 5047 713e 4f38 e9c0
000002c0: 20d1 91c0 f1ef 1ebf 5b44 c8bf ad57 1840
000002d0: 7c63 85bf 5d6c e3c0 3b84 18c0 b1c9 c640
000002e0: d1c3 0d40 539d 5d3f 6b63 9140 2786 b0bd
000002f0: 63d2 0241 5f50 01c1 51e6 a5c0 f3f7 3240
00000300: a261 bec0 3db5 91c0 b469 1d41 d6b0 a43d
00000310: c2da 2f41 9320 cd40 d28a 7341 1c89 b43f
00000320: d4a5 3bc1 df45 f040 02ad e4c0 405c b0c0
00000330: 7534 dc40 4589 a03f e713 0cc1 b96a d8bf
00000340: dd43 0fc1 19da 3e3f 355e ff40 85ff 20bf
00000350: ce48 14c0 ab51 df3e df09 db40 50fb 06c1
00000360: 3536 f7bf 83db 8cc0 b199 3441 c2dd fb40
00000370: 4e00 f8bf d1ec 68c1 6222 1e40 8730 8040
00000380: 8812 84c0 d2bc ca3f 659d 2441 743f 37c0
00000390: 9ff5 dbc0 6928 73c0 67e1 8e41 6621 28bf
000003a0: d55f 44c0 11fb 9040 0099 f1be 806a 1f40
000003b0: 63e3 8140 6dfa 26bf 518f 9fbe 583d 9541
000003c0: c0e8 4740 1de0 1ec1 d6ef 0541 59e2 48c0
000003d0: e344 053f 339a b040 8dad 65c0 4b37 02c1
000003e0: 7be5 9040 42b8 6740 6494 8240 382d 2840
000003f0: df67 45c0 a60e 10bf c164 2ec0 f3cd b840
-2.066006 -0.11199239 -2.595382 -0.16405153 9.703977 14.046994 2.8978705 3.4577396
19.916075 1.6235625 -6.9547 1.8730778 -0.96241814 6.6400523 -12.953015 3.4033616
-0.15133947 6.6790185 -12.8849 -13.9646015 18.065235 2.2531397 -1.2710302 -1.4149787
-6.5366335 -6.429648 5.6284833 2.9351242 1.4308039 -5.6178446 5.5586476 -9.06019
-5.763591 -3.384635 5.915372 -9.469382 14.476514 -4.555359 6.4586077 4.716063
-1.9234973 9.85033 5.2051587 -2.0869431 5.2408996 2.8206315 -2.905125 -1.6977595
9.67135 11.141269 -0.8843015 1.5076993 -7.365336 0.41752663 -19.005793 -13.788812
-6.4638505 -4.890738 -5.9390564 2.1552324 -13.877305 7.3185253 -6.5611176 6.444107
3.8212988 2.6854498 1.457689 1.8484664 -10.866543 3.000021 -0.13439992 -6.674193
-7.944768 -10.474132 1.2872962 4.2114425 -2.7894404 9.254517 -5.619774 -9.023413
-14.254991 2.1840184 8.5015 13.163855 2.983788 3.0545661 -2.1951609 -0.22948337
-4.318915 -11.742366 -9.131648 11.117354 1.451771 1.6377301 -11.129502 -4.5875173
-1.6410475 -4.8693285 -18.197754 7.5941772 5.0593376 -5.461138 2.0531206 6.9507604
-4.7749686 -1.5495797 2.1188471 9.350902 -8.511538 -4.595194 10.128324 -1.7861986
-0.6242947 -4.366421 -10.095292 5.9089894 13.447001 -2.0764642 6.397429 10.678231
-2.3560882 -7.292238 -1.8006362 -3.2705226 2.9676414 -14.141316 6.765087 -4.0958996
-11.172707 5.5423985 -2.5861907 1.3792968 0.51667804 19.821947 -2.8066628 -11.764467
-4.3424797 -10.294768 10.345767 3.7296162 -1.081968 2.8681004 0.8486904 -8.099137
-12.034387 -0.95659786 -1.1966702 15.862675 -3.6256425 0.61328214 3.13697 5.0095935
-9.763829 -6.3026724 11.452152 -0.7902169 -12.853064 -17.612713 -4.2601094 -4.931516
1.9630365 13.0887575 1.26398 4.9870944 -2.129668 -2.4184093 9.307353 3.2005272
2.4216127 -10.039635 -4.230701 -20.531462 -3.1734228 -8.453772 0.2356236 -7.2881236
-4.556778 -0.6208487 -1.564586 2.3803513 -1.0420985 -7.106978 -2.3830707 6.2121205
2.2150767 0.8656818 4.543386 -0.086193375 8.176364 -8.082122 -5.184365 2.7963836
-5.949418 -4.553374 9.838306 0.08041541 10.990908 6.4102263 15.221392 1.4104342
-11.727985 7.508529 -7.146119 -5.511261 6.8814034 1.2541891 -8.754859 -1.6907569
-8.954068 0.7455154 7.98025 -0.6288989 -2.3169436 0.43616995 6.844955 -8.436356
-1.9313418 -4.401796 11.287522 7.87082 -1.9375093 -14.5578165 2.4708486 4.0059237
-4.127262 1.5838873 10.288426 -2.8632479 -6.873733 -3.7993414 17.86006 -0.6567596
-3.0683491 4.5306478 -0.47187042 2.4908752 4.059007 -0.6522587 -0.3116403 18.654953
3.123581 -9.929715 8.371054 -3.1388152 0.5205824 5.518823 -3.5887177 -8.138499
4.5280128 3.6206212 4.080614 2.62776 -3.0844648 -0.5627235 -2.7248995 5.7751403

hidden.0.bias f4 [50]
00000000: 090e 3dc1 5ed6 09c1 9569 b240 928e 8bc0
00000010: 987a ce3f 3c20 d73e 7c7a 0940 9b28 14c1
00000020: 01d9 0a41 1ff9 43c0 6112 0441 969f 1c40
00000030: 37a4 0a40 055c 81c0 99a7 7840 75fa 5041
00000040: f618 4dbf 0173 41c0 f100 b13d 46a4 6dc1
00000050: 405f d340 b067 8b41 ce43 22c0 c29a 4bbf
00000060: 78c2 6ec1 18fd bb3f 8201 4840 4ad4 bec1
00000070: e484 f4c0 efd5 be3f 324b 8741 7479 ff3f
00000080: 1b22 02c1 c997 c940 c17c bac1 d88c 17c1
00000090: d74c 0b40 da1d 14c0 c49b dcc0 7f9b 4cc1
000000a0: f93d 17c1 ea91 2dc1 6d54 8ac1 3d2e 9cc1
000000b0: 2274 5640 7533 4a41 dd75 7dc1 472a 0ac0
000000c0: bc2d 68c0 a2cf 0641
-11.815927 -8.614836 5.5753884 -4.3611536 1.6131163 0.4201678 2.1481009 -9.259913
8.677979 -3.0620801 8.254487 2.4472404 2.1662729 -4.042483 3.8852293 13.061147
-0.8011621 -3.0226443 0.08642758 -14.852606 6.605377 17.425629 -2.5353885 -0.79533017
-14.922478 1.4686613 3.125092 -23.853657 -7.641222 1.4909037 16.911716 1.995894
-8.133327 6.2997785 -23.310915 -9.471886 2.176565 -2.314322 -6.8940144 -12.787963
-9.45263 -10.848124 -17.291224 -19.522577 3.3508382 12.637563 -15.841275 -2.1588304
-3.6277914 8.425692

hidden.1.weight f4 [50, 50]
00000000: d6b8 93c0 a9ba 08c2 4e98 eac0 773a fec1
00000010: c1f2 f040 a666 34c1 b140 04c1 a92d febf
00000020: 15ec efc1 c9f4 69c1 7c7a 5d41 824a 3741
00000030: 6c63 47c1 dcdd 03c1 c1c1 1cc1 09f6 38c1
00000040: bd97 4541 ec96 a23f 11b5 1141 8ffb d73f
00000050: f15d 96c0 030a 2142 3790 85c0 2f3c 0041
00000060: d134 5a41 1af7 a9bf 1c9a ed40 5e03 27c0
00000070: 889c d1c1 2ff4 9541 fe9d 9fc0 0be6 6a41
00000080: ed68 cebf a01b 0dc0 845d 8941 acbc 2541
00000090: d9f0 c040 4a2e 4cc1 18fd 49c0 f4ea 9641
000000a0: 399b 1f40 9ea2 2241 49c5 8dc0 d56e 07c1
000000b0: a4a9 87c1 d9f8 e141 3434 adc1 c8e5 2dc0
000000c0: 82fc 41c1 d674 8640 9c72 82c1 8698 07c1
000000d0: 1071 68c1 903c 76c1 42d9 8d40 327e 8940
000000e0: 6248 ae41 8d4a c441 6083 49c0 9a88 dec0
000000f0: 060c 9d3f 7acd 0a41 2d87 7b3f 11d1 c9c0
00000100: 4775 09c1 c18d 8b40 0422 4041 358d 4941
00000110: 6aeb 8440 99a8 66c2 7222 e540 c6c2 40c0
00000120: 1a45 f840 fc1d b83d ea87 52c1 ca8e ce3e
00000130: d2a8 46c0 3f32 5b40 89af e740 f8d6 82c0
00000140: 637d 05c1 2d69 54c0 a9b9 9cc1 f80a 8ac1
00000150: 0212 10c1 5a9a 6f40 69ce a9c0 bccc 1f41
00000160: 6428 6d40 f036 20c1 2913 e03f 9503 eb3f
00000170: bd20 09c2 40a3 10c0 8561 18c0 e822 5241
00000180: 2b71 94c0 170e acc0 573b 4cc1 3260 d340
00000190: c157 45c1 dcca b83f 0a1c 8241 91b2 a2bf
000001a0: b3c0 a341 d2c1 86c1 4c57 10c0 097a 0442
000001b0: 18e7 94c1 c892 4340 181c 8f41 d8b9 8ac0
000001c0: 45cd 86c1 0ef8 ccc0 fd8c 3bc1 dbd8 0342
000001d0: f88b f5bf e5cc 6c41 ae17 4841 d667 c93f
000001e0: 78ed 5ac1 7c0c 88c1 ee92 b03f 0b81 9441
000001f0: e860 25c1 5420 bc40 de68 86c1 4e38 1c40
00000200: 2bcf d740 230a 8c40 c9cd 8f41 c7b7 f940
00000210: 210c 3041 0d2c 24c1 8218 f4bf 3153 c43f
00000220: 8270 6b40 2531 a240 6c79 82c1 51c5 8541
00000230: a0b4 2f40 0741 b0c1 9877 8b41 792c 37c1
00000240: 64ac 29bf 145f 8ac1 8495 a4c0 cdfb 3541
00000250: 8361 b8c0 ca3a 0741 491a c6c0 56a5 2d40
00000260: f058 11c1 e594 4a40 5efc 79bf c8f4 81c0
00000270: 851c 8941 170f dcc0 72e7 b23e 404f b1c0
00000280: 31a6 a6bf 44f3 64bf f07d 3dc1 c722 6240
00000290: 4b52 86c0 e97a 0440 df41 6140 e64b b740
000002a0: 6399 f740 6b4f 1841 ed12 ed40 74c1 51c0
000002b0: f081 8641 c4cb 86be 374d 88c1 f977 383f
000002c0: 6a70 47c1 a018 2fc0 87fb 7b40 5d54 dd3d
000002d0: 9027 cec0 b635 8c40 dc02 0dbe d7de 56c1
000002e0: 8e0d a340 0a82 d540 10da efc0 0e91 e040
000002f0: 4579 933f b929 17c1 7204 6bc0 846d dd40
00000300: 645c 19c1 d6c5 b340 5bbe 97c0 4f82 3641
00000310: 28f6 6540 ae39 b7c0 ea19 1340 1592 c340
00000320: e577 f340 6fa0 56c1 9cf6 c9c0 46e3 4ec1
00000330: 0410 39c2 1881 6c41 8d06 f641 6e6b 3fc1
00000340: f6c5 0bc1 5380 59c0 d8dc bdbf e3be 01c1
00000350: d0bc 8cc1 72d4 07c1 8a10 8d3f 5837 84c1
00000360: 1235 69c0 2fdb 3b3f c536 3340 0f7d dac0
00000370: 85ee a140 1a68 d540 dc0b 80c1 af86 a8bf
00000380: ac81 dbc0 3198 1a40 fef8 07c1 3cea 1e41
00000390: d2e4 4bc0 e8cc 8440 674f c2c1 8236 5f41
000003a0: 1323 ecbe 0948 2041 1190 0f41 8303 19c1
000003b0: 5409 d940 892c b33e 4cfe 88c0 4315 5440
000003c0: e230 11c1 274c 1441 084a 1cc0 5f7a f43e
000003d0: f218 413f 0bbc e940 716b db40 3139 9740
000003e0: ba0e d740 10a6 02c1 0bb5 1841 c674 07c2
000003f0: b160 6340 1f59 9740 170b 4140 91c8 5e3f
-4.616313 -34.182285 -7.331092 -31.778547 7.529633 -11.275061 -8.265794 -1.9857684
-29.990274 -14.622262 13.842403 11.45569 -12.461773 -8.241665 -9.797303 -11.560067
12.3495455 1.2702308 9.106706 1.6873645 -4.6989675 40.259777 -4.1738544 8.014693
13.637895 -1.3278534 7.425062 -2.6095805 -26.201431 18.74423 -4.988036 14.681163
-1.6125771 -2.204811 17.170662 10.358562 6.0294003 -12.761301 -3.1560726 18.864723
2.493849 10.164701 -4.4303327 -8.464559 -16.957832 28.246508 -21.65049 -2.7171497
-12.124147 4.201762 -16.305962 -8.474737 -14.527603 -15.389786 4.4327707 4.2966547
21.785343 24.536402 -3.1486435 -6.954175 1.2269294 8.675165 0.98253137 -6.306771
-8.591132 4.361054 12.008305 12.596974 4.153737 -57.664646 7.1604548 -3.011888
7.7584352 0.08990094 -13.158182 0.40343314 -3.104054 3.4249418 7.2401776 -4.0887413
-8.343112 -3.3189194 -19.590654 -17.255356 -9.004396 3.7437959 -5.3064466 9.987484
3.7055902 -10.013412 1.7505847 1.8360468 -34.28197 -2.259964 -2.3809521 13.133522
-4.6388144 -5.37672 -12.764487 6.6054926 -12.333924 1.4436908 16.26369 -1.2710744
20.469091 -16.844639 -2.2553282 33.119175 -18.612839 3.0558338 17.888718 -4.335186
-16.85023 -6.40528 -11.721921 32.961773 -1.918334 14.800023 12.505781 1.5734813
-13.682976 -17.006096 1.3794839 18.56301 -10.336159 5.8789463 -16.801205 2.4409366
6.744039 4.3762374 17.975481 7.8036838 11.002961 -10.260755 -1.9069979 1.5337888
3.678742 5.068499 -16.309288 16.721346 2.7453995 -22.031752 17.433395 -11.448358
-0.6627867 -17.296425 -5.1432514 11.373975 -5.7619033 8.451853 -6.1907086 2.7132163
-9.084213 3.1653378 -0.97650707 -4.0611305 17.138926 -6.876842 0.34942204 -5.540924
-1.3019468 -0.89433694 -11.843246 3.5333726 -4.1975455 2.0700018 3.5196455 5.728015
7.737474 9.519389 7.4085603 -3.2774324 16.813446 -0.26327336 -17.037703 0.72058064
-12.464945 -2.735878 3.937227 0.10807107 -6.4423294 4.3815565 -0.13770622 -13.429404
5.0954046 6.672124 -7.495369 7.017707 1.1521384 -9.447686 -3.6721463 6.9196186
-9.585056 5.6179 -4.7419868 11.406814 3.5931492 -5.725791 2.2984567 6.1115823
7.6083856 -13.414168 -6.3113537 -12.930487 -46.26564 14.781517 30.753199 -11.963728
-8.73583 -3.3984573 -1.4833021 -8.109103 -17.592194 -8.489367 1.1020672 -16.527023
-3.6438642 0.7338132 2.8002179 -6.827766 5.060366 6.6689577 -16.00579 -1.3166102
-6.859579 2.415539 -8.498289 9.932186 -3.185841 4.150013 -24.28877 13.950808
-0.4612051 10.017587 8.972672 -9.563357 6.7823887 0.34994915 -4.281042 3.3137977
-9.074434 9.268592 -2.4420185 0.47749612 0.7542869 7.3042045 6.8568654 4.7257314
6.7205477 -8.165543 9.5442 -33.864037 3.5527766 4.729629 3.0163019 0.8702479

hidden.1.bias f4 [50]
00000000: b9df ab41 07f6 22c2 a4ab 5142 3724 53c2
00000010: 9e2c 95c2 7b13 2641 763c 21c2 a04a 58c2
00000020: 53d6 4cc2 0aa9 4942 5920 79c1 f9ce 9c41
00000030: bf94 5ac2 a984 2e42 0e4b ef41 7263 fe3e
00000040: 77a8 6442 6b0f 6a41 655f 69c2 8d72 56c1
00000050: 46c1 0bc1 452f 6dc2 663c 4a42 25a8 9842
00000060: d78c 1e42 1b59 fbc1 d864 4e42 edbc 11c2
00000070: b79d 2642 f387 6f42 53d1 fa40 bc72 8142
00000080: f5b3 8142 fdac a9c2 b69e 2ec2 f753 71c2
00000090: d8d9 a4c2 2795 dac1 cdd1 2342 3eef a9c1
000000a0: 3373 9c42 3251 62c2 e83c 2fc2 f50c a3c2
000000b0: 2895 6c42 1c88 b940 3076 88c2 544c 6242
000000c0: 0081 39c2 29a7 39c2
21.48424 -40.74026 52.417618 -52.785366 -74.58714 10.379756 -40.309044 -54.072876
-51.2093 50.415077 -15.570397 19.60106 -54.64526 43.62955 29.911648 0.49685246
57.164516 14.628764 -58.34316 -13.4029665 -8.734686 -59.29616 50.558983 76.32841
39.63754 -31.418509 51.59848 -36.434498 41.65402 59.882763 7.8380523 64.72409
64.85148 -84.83787 -43.65499 -60.331997 -82.425476 -27.322828 40.954884 -21.241817
78.225 -56.579292 -43.80948 -81.52531 59.14566 5.797865 -68.230835 56.57454
-46.375977 -46.413242

output_layer.weight f4 [25, 50]
00000000: 8c3c 3e3b c344 963f 21e6 1a3e fcb2 aabf
00000010: f6da 51bf 69e6 1dbf 75cf c7be d58c 34be
00000020: 2410 b53e 385d 0e40 164c dbbe 4a60 b7be
00000030: 481b 823f d2b6 76bf 6412 bfbf 1011 473e
00000040: c7c2 0fbf a885 a53f 5cd6 25bf e86c 143e
00000050: 724c 74be f2e0 d1be e9d5 dbbe a445 1a3e
00000060: 6148 91bf 4e5c edbe 6094 e93e c65c 013f
00000070: 2ee2 103f 1578 583f ee13 a7bf c3a4 553f
00000080: 3981 b13f 686a 2b3f 1304 8abf beb3 35c0
00000090: 3aa7 60bf c821 11c0 7698 9a3e d80b 76be
000000a0: 87a6 363f 475e c83f 3056 0bbe 10c4 f7be
000000b0: faa4 58bf ecd1 303f 2fda a5bf b64b 3c40
000000c0: 3153 82bf 326f 15bf 8471 c7be 1998 913f
000000d0: 3815 59bd acb8 a4bf a424 00bf 649a 32bf
000000e0: c27d ddbe 0bac ed3d 443d f83d 2478 0f40
000000f0: 5088 43bf 2052 9cbe 0987 883f 5220 6cbf
00000100: 0390 d8bf c157 083e 987a c3be 7e26 a13f
00000110: d0b6 2abf 3816 ab3e 9598 a03d bc5d 34bf
00000120: ae81 d9be 08d4 803e 4cb4 57bf d26e b1be
00000130: b901 ec3e 3644 133f 17fb 043f 3472 363f
00000140: 9bbe a1bf a945 3d3f 750b b63f e0ac 403f
00000150: a228 30bf 52a2 30c0 ceb5 7fbf 6cdf 10c0
00000160: 2942 ba3e 7c81 e4be c60a 4e3f a455 df3f
00000170: b9ed 6c3d a186 f0be 3f60 86bf be78 373f
00000180: d2fc 96bf dee6 3b40 5834 8ebf ca5e 18bf
00000190: 3465 943d 3601 7f3f f600 dabd 54ef a8bf
000001a0: a5d0 40be 0f1c 2ebf 6004 0abf 3ee4 533e
000001b0: 34a3 d13e fa94 0940 f1bd 14bf cb19 8abe
000001c0: 8818 9e3f 06e6 4ebf c0dc d5bf faf1 9a3e
000001d0: 620e d5be 7c64 983f ba9e 53bf d878 8dbc
000001e0: 8d73 e6bd 68af 18bf 87fe febe 7aed e93d
000001f0: 6457 4fbf 0c85 5cbe 2128 093f 4a47 113f
00000200: 139c 2e3f 3973 363f f777 b3bf 7b94 413f
00000210: f28a ac3f 3761 383f bc14 4bbf 6695 31c0
00000220: e680 70bf fa78 13c0 6ac9 e43e 9914 82be
00000230: b64a 1b3f 2728 be3f 4dd5 9b3e 1f58 2dbe
00000240: 31ee 5ebf 29ca 323f 09ba 95bf 4db4 4640
00000250: ddb2 89bf 0fdb 09bf 45a3 843e 8170 a63f
00000260: 8509 aabd aa28 90bf de29 aebe 258e 22bf
00000270: 6293 f5be cf77 033d dfd5 b73e 0e8d 0140
00000280: 62a6 3dbf ef13 9fbe 3950 9f3f 7862 51bf
00000290: 852d c2bf 93e5 613e 8a55 01bf afbf 983f
000002a0: 9aee 34bf 038b d33d 69db debd d9e6 20bf
000002b0: 0e16 d6be f84c 003e 72ce 5dbf 82aa c6be
000002c0: 05f6 f63e 9bc7 ac3e 95c4 443f fc58 133f
000002d0: ef0b 9cbf 26cc 443f 8163 b23f 26b0 173f
000002e0: c3c1 36bf 40d1 43c0 8807 50be fa90 1bc0
000002f0: ba35 753e 0522 90be 27f5 553f 0d25 c63f
00000300: a81f 65bc 0eed 8dbe 7b8c 54bf e297 c43d
00000310: b324 8cbf fc9c 5040 759a afbf aecc 83bf
00000320: 4867 c43e 35ec 963f 7437 67be 2784 9dbf
00000330: 1438 06bf 794a 2abf 5ea6 ecbe 4cdd 2f3e
00000340: d8e1 c43d a686 5940 bbfb d9be 9a5e 92be
00000350: 3b73 653f 6356 51bf aa2d cdbf f929 a03c
00000360: c987 2abf 1ee1 a93f 4b33 14bf 537e 023e
00000370: c383 fc3c 0d2a 63bf e411 f0be 1e5e b53e
00000380: ab70 00bf 5811 c1be d85e cc3e a85c 8a3c
00000390: 3495 56bb 07eb 473f ab39 a8bf a17f 9d3f
000003a0: ded4 aa3f 72e8 2c3f fc69 d6be 9d83 3ec0
000003b0: dd41 1bbf 7e0b 1cc0 aa54 24be a14a 36bf
000003c0: 4f51 4e3f 1949 bb3f d964 07be 96f6 babd
000003d0: 594b 58bf 5493 62be 320f abbf cc0d 7040
000003e0: 4757 c0bf c0bf 5bbf 1b72 d6bc 8ff3 9a3f
000003f0: e53a d6bc 8c30 a8bf c07b 50bf 047c 25bf
0.0029027788 1.1739734 0.1512685 -1.3335872 -0.8197473 -0.61679703 -0.39025465 -0.17631848
0.35363877 2.2244396 -0.42831486 -0.3581565 1.0164576 -0.9637271 -1.4927487 0.19440103
-0.5615658 1.2931414 -0.6478021 0.1449467 -0.23857287 -0.40991932 -0.42936638 0.15065628
-1.1350213 -0.46359485 0.45621014 0.50532186 0.5659512 0.8455823 -1.3052957 0.8345453
1.3867561 0.6695924 -1.0782493 -2.8390956 -0.8775517 -2.2676868 0.30194443 -0.24027956
0.7134785 1.5653771 -0.13607097 -0.4839177 -0.84626734 0.69070315 -1.2957209 2.942121
-1.0181638 -0.58372796 -0.38953793 1.1374542 -0.05299875 -1.2868857 -0.5005591 -0.6976683
-0.43260008 0.1160508 0.121210605 2.2417078 -0.7637987 -0.30531406 1.066621 -0.92236817
-1.6918949 0.13314725 -0.3817947 1.2589872 -0.666852 0.3341539 0.07841603 -0.7045553
-0.4248175 0.25161767 -0.84259486 -0.34654862 0.46095064 0.57525957 0.5194563 0.7126801
-1.2636293 0.7393442 1.4222246 0.75263786 -0.68812 -2.7599072 -0.99886787 -2.2636366
0.363786 -0.4463004 0.8048519 1.744801 0.057843897 -0.46977714 -1.0498122 0.7166861
-1.1795905 2.935966 -1.1109724 -0.59519637 0.072458655 0.9961122 -0.106447145 -1.3198037
-0.18829592 -0.68011564 -0.53912926 0.20692536 0.40944827 2.1497178 -0.5810233 -0.26972803
1.2351236 -0.8081974 -1.6707993 0.30262738 -0.41612536 1.1905665 -0.8266407 -0.017269537
-0.11252508 -0.5964265 -0.49803564 0.11422248 -0.8099272 -0.21535128 0.53576857 0.56749403
0.682069 0.71269566 -1.4020985 0.7561719 1.3479903 0.7202334 -0.79328513 -2.7747436
-0.93946683 -2.3042588 0.44684917 -0.2540634 0.60660875 1.4856004 0.30436173 -0.16928147
-0.870822 0.6983972 -1.1697398 3.1047547 -1.075771 -0.5384988 0.25905815 1.3003083
-0.08302597 -1.126241 -0.34016317 -0.63498145 -0.47964007 0.03209668 0.35905358 2.0242343
-0.74082005 -0.31069896 1.2446357 -0.81790876 -1.5170141 0.22060232 -0.5052115 1.1933497
-0.7067658 0.10329249 -0.10881693 -0.62852246 -0.418137 0.12529361 -0.86643136 -0.38801962
0.48234573 0.33746037 0.7686246 0.57557654 -1.2191142 0.76874006 1.3936616 0.59253156
-0.71389407 -3.0596466 -0.20315373 -2.4307237 0.23946276 -0.28150955 0.835772 1.5480057
-0.013984598 -0.2771992 -0.83026856 0.09599282 -1.09487 3.2595816 -1.3719012 -1.0296838
0.38360047 1.1790835 -0.22579747 -1.2305955 -0.5242932 -0.66519886 -0.46220678 0.17174262
0.09613389 3.3988433 -0.42574868 -0.285878 0.8962895 -0.8177244 -1.602956 0.019551264
-0.6661344 1.3271825 -0.57890767 0.12743501 0.030824548 -0.8873604 -0.4688865 0.35423368
-0.5017192 -0.37708545 0.3991611 0.016889885 -0.003274274 0.78093 -1.3142599 1.2304574
1.3346212 0.67542183 -0.41877735 -2.976783 -0.60647374 -2.4382014 -0.16047922 -0.71207625
0.8059282 1.4631683 -0.13222064 -0.09129064 -0.8448997 -0.22126514 -1.3364012 3.750842
-1.5026635 -0.8583946 -0.026177457 1.2105578 -0.02615113 -1.3139815 -0.8143883 -0.6464236

output_layer.bias f4 [25]
00000000: 62b7 a93f 7ca5 ee3f 45ea 1e40 688d fc3f
00000010: 6b18 99bd 59af c93f a896 b93f cabe 0940
00000020: 6abc 23c0 10cd 843f 6216 e93f 1ed4 2540
00000030: 789f dd3f e754 45bf 2134 bc3f 38fd 1940
00000040: 897f 2240 20b9 22bf 9f66 873f ac92 d83f
00000050: 77c2 1640 3ea5 da3f 9952 51be 0d81 ca3f
00000060: dd9c e13f
1.3259089 1.8644252 2.4830487 1.9730654 -0.074753605 1.5756637 1.4499102 2.1522698
-2.558375 1.037508 1.8209956 2.5910716 1.7314291 -0.77082676 1.4703408 2.4060802
2.5390341 -0.6356373 1.0578192 1.6919761 2.3556192 1.7081678 -0.20441665 1.5820633
1.7625996
