models/150episodes.pth (torch, 34096 bytes, 8 tensors)

input_layer.weight f4 [50, 26]
000000 83 ab c6 bd d9 de 91 bf fb 91 d1 3f 29 b1 4a 3f
       -0.09700682 -1.1396133 1.6372675 0.79176575
000010 6a 14 20 3e 37 11 a7 bf 68 dd fd 3d 14 b0 63 3f
       0.15632787 -1.3052129 0.123957455 0.8894055
000020 dd ab 91 3f 33 5a ba be 27 21 c0 bf 4c 28 cd be
       1.1380574 -0.36396942 -1.5010117 -0.40069807
000030 86 75 9a bf a1 e7 80 bd ae 1f c7 3e 67 0b 56 3f
       -1.2067115 -0.0629418 0.38891357 0.8361115
000040 37 c1 05 c0 75 a5 55 40 ce c5 c5 3f b6 d0 9d bf
       -2.089918 3.3382237 1.545099 -1.2329319
000050 c9 8c 53 bf d6 40 34 bf 32 39 62 bf ef 96 2b bf
       -0.82636696 -0.7041143 -0.88368523 -0.6702718
000060 92 63 69 3f 3a 27 67 3e bf be 9d c0 d5 4b e1 bf
       0.9116756 0.22573557 -4.9295344 -1.7601267
000070 ab 3f 59 3f ce 66 e3 3e 25 79 2f 3e 51 49 68 bd
       0.84862775 0.4441437 0.17136057 -0.056710545
000080 23 cf 8b bf 73 f9 76 3f 28 f8 4a 3f 43 ab bd be
       -1.0922588 0.9647438 0.79284906 -0.37044725
000090 41 40 be 3f 04 a6 85 3f 9a 88 81 bf 31 72 26 3f
       1.4863359 1.0441289 -1.0119812 0.6501799
0000a0 a6 76 6c bf 8d bd 07 40 62 bf 2f bf 44 96 23 c0
       -0.92368543 2.1209443 -0.686514 -2.5560465
0000b0 9c 58 24 bf 5e 7e c4 3f 6b 4e 86 be fe 17 a7 be
       -0.6419771 1.5351064 -0.26231703 -0.32635492
0000c0 c9 02 07 40 68 28 20 40 4d 61 6a c0 33 6a 85 3e
       2.109545 2.5024662 -3.6621888 0.26057586
0000d0 67 ee 80 3e 62 5a 9a bf b2 97 0e 3e cd 7b 79 bf
       0.25181887 -1.2058833 0.13925055 -0.9745453
0000e0 e9 af de 3e bd 46 dd 3f 0b 98 29 bf 0c c8 d8 bf
       0.43493584 1.7287213 -0.66247624 -1.693605
0000f0 2c 61 96 3f 89 a3 d8 3c a7 aa 12 bf 27 50 00 bf
       1.1748405 0.026445167 -0.57291645 -0.501223
000100 ac a7 2b 3f 53 4e f0 3f f2 82 2c bf 02 67 9b 3f
       0.6705272 1.8773903 -0.67387307 1.214081
000110 fd 50 ac 3f 22 2c 71 bf 28 81 96 bf 94 86 a9 3f
       1.3462216 -0.94207966 -1.1758165 1.3244195
000120 63 21 68 be 4f 3a 03 c0 18 a3 be 3c 5c 9e 25 40
       -0.22668986 -2.0504339 0.023271129 2.5877905
000130 3e fd 78 3f 32 41 59 bf 78 df 0b 40 c6 27 44 c0
       0.97261417 -0.84865105 2.1855145 -3.0649276
000140 f0 78 00 c0 9d f9 b1 bf d6 71 54 3a 14 76 92 3f
       -2.0073814 -1.3904301 0.0008104121 1.1442285
000150 28 db 03 3f 16 41 90 bf a5 3b d3 3f 37 0b d7 3e
       0.5150628 -1.1269863 1.6502577 0.42000744
000160 da c5 d4 be 17 74 ae be 5f 1c ad bf 5d 75 8b be
       -0.415572 -0.34072945 -1.3524283 -0.2723798
000170 74 2a 11 3f c1 01 c5 3f 8d da 3b be 6f 30 ca 3f
       0.56705403 1.539116 -0.1834509 1.5796031
000180 f4 43 f0 3e 9c 1f ae 3f f0 8c 55 be dd 66 ac 3f
       0.46926844 1.3603396 -0.20854545 1.3468891
000190 50 93 f6 3d c7 46 53 40 0c 08 23 40 49 05 8f bf
       0.120398164 3.301195 2.5473661 -1.1173488
0001a0 d0 eb ac 3f 90 59 9e bf 1c fe e0 3f 76 81 89 bf
       1.3509464 -1.2371082 1.7577548 -1.0742633
0001b0 76 aa 09 c0 16 55 8d 3f 36 d4 63 be db e6 86 3f
       -2.151029 1.1041591 -0.22248921 1.0539201
0001c0 6c 0a ca 3f 61 8f 4f bd e4 32 f9 3e d5 40 b2 3f
       1.578443 -0.050673846 0.4867164 1.3926035
0001d0 37 a3 c4 bf 9a 31 79 bf 2b 26 2e be e5 f8 3c 40
       -1.5362309 -0.9734131 -0.17006747 2.9526913
0001e0 58 88 d0 3e ee 83 e6 be ab b8 f7 bd df f4 6a 3f
       0.40729022 -0.4502253 -0.120957695 0.91779894
0001f0 8a 81 4e be ce 96 4b 3f 3c 0c 90 3d bf 79 41 40
       -0.20166603 0.79526985 0.070335835 3.0230558
000200 2d 1d ad 3f f6 34 c4 bf ba 73 57 3f e0 17 e1 bf
       1.3524529 -1.5328662 0.8416096 -1.7585411
000210 9c c0 b6 3f 04 66 92 bf 6a aa 18 bf 99 a8 e1 bf
       1.427753 -1.1437383 -0.5963503 -1.7629577
000220 94 05 36 bf 35 d5 93 3f 08 e2 90 be 72 e2 3d 3f
       -0.7110226 1.1549441 -0.28297448 0.74173653
000230 c2 50 a8 3f da af a4 3f b5 23 91 3e 19 26 5c bf
       1.3149645 1.2866166 0.28347555 -0.8599563
000240 6c 63 e2 bd c0 30 ae 3f 44 1b b9 bf 8c 7a 0b 3f
       -0.110541195 1.3608627 -1.4461446 0.54483867
000250 91 6a 0f 40 5b 6d 22 3f 11 f7 31 bf 03 b6 5c 3f
       2.2408793 0.63448113 -0.6951762 0.8621523
000260 1b d2 1c 3e 8a c9 78 bf b6 71 80 bd 41 15 d3 bf
       0.15314524 -0.97182524 -0.06271689 -1.6490861
000270 a0 62 f4 bf f5 cd 46 40 de c1 e7 be b4 ec 19 3d
       -1.9092598 3.1063206 -0.45265096 0.037579253
000280 9c 8a d4 3f 10 3a 83 bf 5e cd 5a 3f 83 cb dd bf
       1.66048 -1.0252094 0.85469615 -1.7327732
000290 ce 6b a5 bd 5d d5 68 3f 40 d0 01 3f f2 4f 8c bf
       -0.08077203 0.90950567 0.5070839 -1.0961897
0002a0 fb 00 21 3e 2f 2d 91 bd 8c 82 f5 3f cb dd e2 bf
       0.1572303 -0.07088696 1.9180465 -1.7723936
0002b0 1c 07 97 bf 4f 7a 86 3d 69 e7 cf 3f 62 25 82 3f
       -1.1799045 0.06566297 1.6242496 1.0167658
0002c0 17 a2 0d be e7 68 4a 3f 8e b9 e7 bf 5d b3 3d c0
       -0.13831364 0.7906632 -1.8103502 -2.9640725
0002d0 6f f9 88 be 6a e9 42 bf a5 7e 60 40 05 28 8c bf
       -0.26752803 -0.7613741 3.5077298 -1.0949713
0002e0 6e b6 91 3f b4 5c 74 bf a6 4e 98 be bb 12 03 c0
       1.1383798 -0.95453954 -0.29747504 -2.0480182
0002f0 d4 70 89 bd 16 32 93 bf 41 71 61 3f 68 85 4b be
       -0.067109734 -1.149966 0.88063437 -0.19875109
000300 44 29 09 be 78 95 7a bf 29 19 d1 3f 01 83 00 be
       -0.13394648 -0.9788432 1.6335803 -0.12549974
000310 d8 39 b4 bf 87 f1 80 be 48 1b a9 bf 0d f5 3e 40
       -1.4080153 -0.2518427 -1.321145 2.9837067
000320 1d 06 f9 3f 3e de cb bf 4c 11 36 3e e2 ba 06 bf
       1.9454991 -1.5927198 0.17780036 -0.5262891
000330 90 7d c9 bf 1b 88 db bf c1 9d 0e bf 8a bc 42 3f
       -1.5741444 -1.7150911 -0.55709463 0.7606894
000340 dc a2 51 c0 c9 48 02 3f 2a 0f 06 3f bc 55 26 bf
       -3.2755651 0.5089231 0.5236689 -0.6497457
000350 a0 4c 3d 3f 62 3c c7 bd d4 b5 2c 3f 1c c4 ba 3d
       0.73945045 -0.09728314 0.6746495 0.09119436
000360 70 4c b7 3f b4 a7 c8 3e ac 2e 95 bf b3 73 24 3f
       1.4320202 0.39190447 -1.1654868 0.64239043
000370 cc 07 d8 be 6b 18 93 bf 6a 9c 6a 3f cb 63 1c 40
       -0.4219345 -1.1491827 0.9164492 2.4435909
000380 78 23 aa be 90 9c 53 bf 44 0b 34 3e 17 e3 19 bf
       -0.33230186 -0.8266077 0.17582422 -0.60112137
000390 c8 8a 00 c0 48 db 13 3f 40 58 48 3f 41 1d f1 bf
       -2.0084705 0.5775647 0.7825966 -1.8837053
0003a0 38 94 18 3f 6f 20 7f bf e5 37 0c 3e fe 57 c8 3e
       0.59601164 -0.99658865 0.13693197 0.39129633
0003b0 c2 84 39 bf 36 eb b6 3f f5 02 e8 be 58 68 07 40
       -0.724682 1.4290531 -0.45314756 2.1157436
0003c0 cf 37 b7 3f 00 02 f2 be 38 7e 1c bf 56 37 fe bf
       1.4313906 -0.4726715 -0.61130095 -1.9860637
0003d0 99 dc 81 bf 46 6c 2d 3e d3 78 dd be 94 ac 5d 3f
       -1.0145446 0.16935834 -0.43256244 0.8659146
0003e0 bb 12 8a be b0 31 91 be b4 d1 5f 3f 0f 0c f2 bd
       -0.26967415 -0.2835822 0.87429357 -0.11818706
0003f0 0a 8d e3 3e 12 18 19 3f 6c 45 72 3e 19 07 59 3e
       0.44443542 0.59802353 0.23659295 0.21194114

input_layer.bias f4 [50]
000000 f5 d0 1d 3f 63 c1 f3 3a 60 f7 78 3e 62 9a 83 3e
       0.6164697 0.0018597062 0.24313116 0.25703722
000010 01 e2 d7 3e c2 93 7d 3e 44 4d 4e 3f ee e7 5c be
       0.42164615 0.24763396 0.8058665 -0.21572849
000020 9b 7b c9 be 57 6f 0b be 8f 5a 04 3f a4 4d 23 3f
       -0.39352116 -0.13616692 0.5170068 0.63790345
000030 33 98 04 3f bc ee fd be e4 0d 80 3e 71 f1 9a 3f
       0.5179474 -0.49596202 0.25010598 1.2104932
000040 c8 f8 28 3d 7a 4c e5 be 3f a6 a8 bd cc b0 09 bf
       0.04125288 -0.4478491 -0.08234834 -0.53785396
000050 2d 08 47 be be 28 58 3d 8e 77 50 bf 2e c2 7d 3f
       -0.19436713 0.05277323 -0.81432426 0.9912442
000060 58 13 72 3e d4 f8 54 be c8 90 d1 be 2e 27 07 be
       0.23640192 -0.20798045 -0.40930772 -0.1319854
000070 c5 f1 1f 3e 96 c9 a6 be b8 1c 98 3e 75 4b b6 3d
       0.15619572 -0.32575673 0.2970941 0.08901111
000080 dd 0f 4f be 72 e9 3a bf 4e 35 96 3f 61 6b 8e 3f
       -0.20220895 -0.7301246 1.1735017 1.112652
000090 cb 0a 4a be 63 ce d1 3e 7e 22 00 bf b1 8e e7 bd
       -0.1973068 0.40977773 -0.5005263 -0.11306513
0000a0 ce 8a 66 bb ab ff b5 bf c5 a2 fc 3e 2b ba ab be
       -0.003517795 -1.4218649 0.49342933 -0.33540472
0000b0 8c e4 81 3f c1 a2 a6 3e 77 1b 09 3f ef 54 1a 3e
       1.0147872 0.32546046 0.53557533 0.15071462
0000c0 83 ad f8 3e 46 57 88 bf
       0.4856988 -1.0651634

hidden.0.weight f4 [50, 50]
000000 75 57 b0 3f d6 72 33 bf 5c a6 7c bf 07 16 07 3f
       1.377669 -0.700971 -0.98691344 0.52767986
000010 2a 45 da 3f 7d 92 2f 40 cc 08 4f 3f 36 2a ea 3e
       1.7052357 2.743316 0.808728 0.4573533
000020 ee 4c fc 3f 34 2c a5 bd 17 db 16 c0 6c 71 15 3e
       1.9710977 -0.08065072 -2.3571222 0.14594048
000030 65 81 25 c0 9f 68 20 3f 9b bc ff 3e dd 1f 91 be
       -2.5860226 0.6265964 0.49948582 -0.28344622
000040 44 82 91 bf 0f 87 d9 3f 5f 5f ee bd e0 40 61 bf
       -1.1367879 1.6994342 -0.11639284 -0.87989616
000050 c3 36 8b 40 67 6c 33 be f0 84 ff bf 1a b3 57 3f
       4.350435 -0.17521821 -1.9962444 0.8425766
000060 37 05 7c bf a8 f1 a7 bf 3a 78 8e 3f f6 ac a9 bf
       -0.9844546 -1.3120623 1.113044 -1.3255908
000070 80 ea 39 bf 12 2d e7 3e ad 47 1a 40 dd ea e4 be
       -0.72623444 0.45151573 2.4106247 -0.44710436
000080 7e 9f b4 bf 88 21 57 bf d9 90 ec 3f 72 38 43 bf
       -1.4111173 -0.8403554 1.8481704 -0.76258004
000090 4f 32 76 3f ed d9 2d bf 5d e5 a6 3f 2b e5 9c 3f
       0.96170515 -0.67910653 1.3038746 1.2257437
0000a0 4a 5c a0 3c b8 2f 62 bd aa 40 1a 3f f4 91 3e bf
       0.019575257 -0.05522129 0.6025492 -0.74441457
0000b0 25 d6 87 3f cd 56 ac 3d 08 78 82 bf 75 63 ab 3e
       1.0612227 0.084149934 -1.0192881 0.33474317
0000c0 7b fd 8c be 64 5b 37 3f 51 e1 00 40 36 10 46 bf
       -0.2753714 0.71623826 2.0137522 -0.77368486
0000d0 89 e1 34 c0 b3 f9 b1 bf ae 86 38 c0 45 f2 05 c0
       -2.8262656 -1.3904327 -2.8832202 -2.092912
0000e0 5d 0f 4f 3d fd 9a 6e 3f 24 10 03 bf 8b 13 bb 3c
       0.05055176 0.93205243 -0.51196504 0.022836467
0000f0 46 d1 d4 bf 1f 9e 12 40 67 95 01 bd 6b 35 2f 3f
       -1.6626365 2.290901 -0.03163662 0.68440884
000100 e9 2d 42 bf e3 82 cd 3e 25 31 33 be d2 d3 92 3f
       -0.75851303 0.4013892 -0.17499216 1.1470892
000110 c2 a7 ea be e6 92 c0 bd 9a 9e 26 3f d4 a9 9d bf
       -0.45831114 -0.09403019 0.65085757 -1.2317452
000120 e9 94 1c c0 c8 4d 0d 3f 87 3f 63 be 62 e7 9d bf
       -2.4465888 0.5519681 -0.22192203 -1.2336237
000130 d7 38 39 bf d5 ec e1 3f fe b6 35 c0 dd 0c 83 be
       -0.72352356 1.76504 -2.839294 -0.2559575
000140 54 e7 d5 bf f1 73 eb 3f e6 0d fc 3f 4d 49 ab 3f
       -1.6711221 1.8394758 1.9691741 1.3381745
000150 ae 76 f6 3f 0e a8 e0 3e 62 9d 3c 3e 31 bb 9f 3f
       1.9254968 0.43878216 0.18419412 1.2479001
000160 94 0c ad 3d 6e 1b 96 be 09 9d ea bf 89 30 17 40
       0.08449665 -0.29317802 -1.8329173 2.3623374
000170 7f cc 33 40 29 94 69 3e 83 e1 15 c0 78 bc d9 be
       2.8093565 0.22810425 -2.3418891 -0.42526603
000180 c2 c9 e8 bf 70 88 0a bc f6 b5 4a c0 d2 74 10 bf
       -1.8186572 -0.008455381 -3.167356 -0.56428254
000190 ab 51 2a 40 79 22 8d bf 43 5a e0 be 8f 27 73 3f
       2.6612346 -1.1026145 -0.43818864 0.94982237
0001a0 fb f2 b2 bf dc d2 90 3f 47 07 19 40 19 2a 04 40
       -1.3980402 1.1314349 2.3910692 2.0650694
0001b0 78 dd e5 3d 9b 0c d8 3e 56 91 28 3f 93 0d a0 3f
       0.112238824 0.42197117 0.65846765 1.2504143
0001c0 a4 60 d1 bf 7f 37 85 bb d3 ef 42 c0 7c 18 49 3f
       -1.6357617 -0.0040654535 -3.0458877 0.78552985
0001d0 bf ea 13 3e 30 ea 7f be 9e de 91 bf b7 a7 d2 3e
       0.14445017 -0.24991679 -1.1396062 0.4114358
0001e0 01 05 0a 40 c8 05 b4 3e ba 57 29 c0 48 a5 4c 3f
       2.1565554 0.3516066 -2.6459794 0.799397
0001f0 17 f3 9a 3f 0e 12 3b c0 fd 69 f7 be 0e 8e be be
       1.2105435 -2.922977 -0.4832305 -0.37217754
000200 ce 66 d8 bf 11 bb c7 3d 99 6e 9a bf 64 94 8f bf
       -1.6906374 0.09752477 -1.2065002 -1.121716
000210 0d 7c cc 3e 13 6f 87 3f d9 06 27 3f 3a 1c d1 bf
       0.39938393 1.0580772 0.65244824 -1.6336739
000220 01 0a d7 3e 7f bb 37 c0 56 20 d5 3f 18 94 9c 3d
       0.4199982 -2.8708189 1.6650493 0.07645434
000230 d4 1d a0 3f f9 3a 91 bd 0c 5c 4f 3f d0 94 cc bf
       1.2509103 -0.07091326 0.8099983 -1.5982914
000240 50 ae 1c bf a0 73 0e be ab 40 d6 be c6 00 c2 3f
       -0.6120348 -0.13911295 -0.41846213 1.5156486
000250 ba ae 3f 3f 1f 5c 66 3f 1e 4c 9a 3f 85 ec 2a bf
       0.74875987 0.89984316 1.2054479 -0.6676715
000260 0a c8 6a c0 df b0 cc bf 3e 57 b4 3e 68 a8 93 3f
       -3.6684594 -1.5991477 0.3522281 1.1535769
000270 f5 2b 0b c0 e2 1c e0 3e 14 26 09 bf c7 f4 a3 bf
       -2.174558 0.43772036 -0.5357373 -1.2809075
000280 89 70 36 bf b2 f1 1f 40 b6 09 6d 40 bb 5f ac 3d
       -0.71265465 2.499127 3.7037177 0.08416697
000290 90 7a 86 3f 37 c5 07 c0 b0 9b d9 3e d5 13 37 40
       1.0506153 -2.121412 0.42501593 2.8605855
0002a0 4e dc a5 3d 34 04 60 bf d1 cc 76 3f 6f c6 7d c0
       0.080986604 -0.87506413 0.96406275 -3.9652364
0002b0 4a 5f 0a 3e ea 4e a7 be 0c fb cc be 4f 8c 9e bf
       0.13512912 -0.32677394 -0.40035284 -1.2386569
0002c0 71 bd 4f 3f a7 d0 47 bf 71 b9 20 3f db 94 1c bf
       0.8114844 -0.78052753 0.6278296 -0.61164635
0002d0 10 b7 65 bd 95 d2 4f bf ed c1 17 40 6d 5c 09 3f
       -0.056082785 -0.811807 2.3712113 0.53656656
0002e0 d5 5a c1 3f 83 1c da 3f cb 48 77 be c3 74 0f bf
       1.5105845 1.7039951 -0.24148862 -0.5603754
0002f0 47 5e 38 be bd 59 2d bf 96 8d 0d be ac a4 b2 3d
       -0.18004714 -0.67715055 -0.13823542 0.08722815
000300 0c 94 55 bf b1 6c fd be 08 55 ef 3f f3 33 02 3f
       -0.83429027 -0.49496987 1.8697824 0.5086052
000310 dd 39 ec bf fc c9 d6 be 6e e1 37 3f a6 0a 29 be
       -1.8455158 -0.41950977 0.71828353 -0.16507968
000320 1e cf 84 bf 74 fb 70 3f 02 fe d6 bf be 1b 4b bf
       -1.0375707 0.94133687 -1.6796267 -0.79339206
000330 4b 81 6a be 4d c0 1c 40 c8 98 a8 bd dc f1 4f 3e
       -0.22900884 2.449237 -0.08232266 0.20307106
000340 21 3c 50 bf a7 e5 16 be 4a 29 d5 3f b4 31 46 bd
       -0.8134175 -0.14736043 1.6653225 -0.048387244
000350 0a f2 d3 3f a1 f3 63 3f 80 cb c6 bf bc c8 e9 3e
       1.655824 0.89043623 -1.5530853 0.4566096
000360 6d 59 9b 3f 8a f3 25 c0 c7 0b b7 3f 86 f0 d4 3f
       1.2136666 -2.5929894 1.4300469 1.6635902
000370 35 36 55 bf 38 73 5e be ad 30 0e bf 36 20 ae 3f
       -0.8328584 -0.2172364 -0.55543023 1.360358
000380 ee 48 3b bf d8 93 c9 3e 4b 4a 01 bf a1 20 fa be
       -0.73158157 0.39370608 -0.5050399 -0.4885302
000390 8f cc 8e 3f 8a 81 32 c0 0e 67 ec 3c e4 60 c3 3e
       1.1156176 -2.7891564 0.028857734 0.3815986
0003a0 da 5d 44 bf de 07 df 3f 99 51 8e bf 7b 97 21 3f
       -0.76705706 1.7424276 -1.1118652 0.63121766
0003b0 e4 43 1e 3f 2b 22 66 bf 80 7b c4 3e 80 a3 31 40
       0.6182234 -0.89895886 0.38375473 2.7756042
0003c0 f7 e8 3e 3f 57 2e 29 bf 78 2e 47 3f bc 7b ed bf
       0.74574226 -0.66086334 0.7780528 -1.8553386
0003d0 66 d1 c1 be f6 a7 8b 3f 5b aa cb bf db 7f a2 bf
       -0.3785507 1.0910633 -1.5911363 -1.2695268
0003e0 42 02 fd be be d0 11 bf f7 ea c4 3f 19 ac 73 3f
       -0.49415785 -0.5695914 1.5384206 0.95184475
0003f0 de 94 d6 bf a3 d5 88 3e 64 22 48 bf 2f a0 5a be
       -1.6764181 0.26725492 -0.78177476 -0.21350168

hidden.0.bias f4 [50]
000000 7d c3 b8 bf 2a 81 a4 bf 49 b1 68 3f 95 3e 68 be
       -1.4434658 -1.2851918 0.90895516 -0.22680123
000010 f7 42 5d 3f 98 0d a6 be c1 99 fd 3f 0b c5 14 c0
       0.86430305 -0.32432246 1.9812547 -2.3245265
000020 8d 28 67 3f 7e e9 b3 3f cf 3f 14 3f 86 d6 96 3f
       0.9029625 1.4055631 0.57909864 1.1784217
000030 d0 54 f2 bf 8e 01 83 3f 2c 2b 98 bf e6 a5 23 40
       -1.8932133 1.023485 -1.1888175 2.5570006
000040 b2 93 18 3f 09 bf ee bf af 82 3d bf f3 75 51 c0
       0.59600365 -1.8652049 -0.7402753 -3.272824
000050 c5 88 ab be 87 32 f9 3f a0 bd 49 bf 6e c8 81 bf
       -0.33502784 1.9468545 -0.7880497 -1.0139291
000060 f0 47 f1 bf 64 4d fe 3f a7 55 a7 3f 1e 93 55 c0
       -1.8850079 1.9867368 1.3073014 -3.3371043
000070 7c da 12 3e 69 52 85 3f 48 c5 83 40 46 2e cd 3d
       0.14341158 1.0415775 4.117832 0.100185916
000080 b6 dc 07 be 7f 37 99 bf 18 b3 5b c0 09 96 2e 3f
       -0.13267788 -1.1970061 -3.432806 0.68197685
000090 57 c3 4a bf 59 c7 00 bc 48 a9 ef bf 2d 40 2e c0
       -0.79204315 -0.007860028 -1.8723536 -2.722667
0000a0 96 e8 c0 be 49 85 e6 bf d3 96 d7 bf 62 8a a0 bf
       -0.3767745 -1.8009425 -1.6842903 -1.2542231
0000b0 76 1d ae 3f 3a b8 85 3f d5 53 34 c0 5e 75 55 bf
       1.3602741 1.0446846 -2.8176167 -0.83382213
0000c0 e0 76 0f c0 e7 74 c5 3d
       -2.2416306 0.09641438

hidden.1.weight f4 [50, 50]
000000 cb 41 25 3f 8f 5e 02 3e 27 bb fe bf c7 72 03 c0
       0.6455352 0.12731384 -1.9900864 -2.0538805
000010 5c ae 55 3f 35 7f 91 3f c9 fa 2a bd 2c bc 48 c0
       0.83469176 1.1366946 -0.041743074 -3.136485
000020 fd 52 77 bf fb 04 aa c0 ec 05 0a 40 6c 63 cc bf
       -0.96611005 -5.313108 2.1566114 -1.5967841
000030 34 c5 a6 be cf 25 4d 3f 8a b5 4d bc 2e bd e8 bf
       -0.3257233 0.80135816 -0.012555489 -1.8182733
000040 6f 1b 39 3f 08 0d 38 40 f8 88 fb 3f c5 d8 dd bf
       0.72307485 2.8757954 1.9651175 -1.7331778
000050 8e 12 3f 3e 19 18 64 3e f2 06 86 3c e5 22 18 40
       0.18659422 0.22274818 0.016360734 2.3771298
000060 ce d3 1c 40 3b 6f 45 3f 5e f0 94 bf 82 b0 19 3f
       2.4504275 0.7712285 -1.1635854 0.60034955
000070 cb b1 bd bf 48 47 70 3f 11 db 82 40 05 6f 49 3f
       -1.4819883 0.93858767 4.0892415 0.7868503
000080 a5 c3 fb bf 2f 15 27 bd 51 30 02 40 5a 43 7c 40
       -1.9669081 -0.040791687 2.034199 3.9416108
000090 a0 c8 97 3e 00 58 4a 3e 67 57 67 c0 3a 61 7a 40
       0.29645252 0.19760132 -3.6147096 3.9121842
0000a0 95 04 dc 3f 95 76 56 3f f0 64 16 c0 53 07 97 3e
       1.7188898 0.8377469 -2.3499107 0.29497775
0000b0 2a 63 2f 3f 9a 1b 61 3f 02 bc 0c c0 6a 93 20 c0
       0.6851069 0.8793274 -2.198975 -2.5089974
0000c0 69 46 35 40 f6 35 43 3e 56 ce 9a 3f d6 3e 64 bf
       2.8324225 0.19063553 1.2094219 -0.8915838
0000d0 64 85 3a bf b5 37 49 3d ad 55 4e 3d 6d b3 50 3f
       -0.7285979 0.049125392 0.050374676 0.8152378
0000e0 cd b9 67 3f cd e2 d4 bf 54 24 6a 40 57 46 1d 3f
       0.90517884 -1.6631714 3.6584673 0.61435455
0000f0 ef b1 8a 3f 0d 1f b9 3e d1 af 55 bf 84 16 ef bf
       1.0835551 0.36156502 -0.834714 -1.8678746
000100 3d 3b 1d c0 57 8a 74 40 84 74 a6 bf bc af ca 40
       -2.4567406 3.8209436 -1.3004308 6.333952
000110 62 b9 da 3f 28 5c ff bf fc b6 03 40 4c d3 80 bf
       1.7087824 -1.9949999 2.0580435 -1.0064483
000120 79 10 c5 bf 1c b7 c3 3f f5 c1 0f bf 84 fe 0c 40
       -1.5395652 1.5290256 -0.5615533 2.2030344
000130 4f 8b 0e 3f 9d ac 26 c0 1b 01 c4 bf 81 bf fc bf
       0.5568132 -2.6042855 -1.5312837 -1.9745942
000140 b6 23 a9 3f 8d c1 73 bf 6d eb cc 3f d5 ab 01 3f
       1.3214023 -0.9521721 1.6009346 0.5065282
000150 b7 b0 d5 3e 61 19 76 3d 68 8c a7 be 4c 30 b1 bf
       0.41736385 0.060082797 -0.3272431 -1.3842864
000160 53 7f 21 be 8b cd dd bf 13 24 36 3f d6 11 b8 3f
       -0.15771227 -1.7328352 0.71148795 1.4380443
000170 f7 fc 0e c0 2e fb 82 40 dc 2b 79 bf d4 c2 4f 3f
       -2.2341897 4.0931616 -0.9733255 0.8115666
000180 82 be 86 3e 62 be 8f be b3 f3 b9 3f 32 1d 5c 3f
       0.2631722 -0.28074938 1.4527496 0.8598205
000190 25 48 6f bf dc 62 85 bf 23 c5 35 be b0 66 c8 3f
       -0.9346946 -1.0420794 -0.17750983 1.5656338
0001a0 92 3f 13 c0 ed 14 95 3f a9 bc 85 bf 7d e4 f5 3f
       -2.300755 1.1647011 -1.04482 1.9210354
0001b0 a1 9d 0b 3f ff 1e b1 3e d9 cf bf 3e 9b 0b b0 3f
       0.545374 0.3459396 0.37463263 1.3753542
0001c0 ce 09 8c 3f c1 a0 30 c0 03 89 20 bb 98 6a 22 40
       1.0940492 -2.7598116 -0.0024495728 2.537756
0001d0 06 f2 91 be 06 0e 94 3e d7 e9 5c 40 5f f7 c8 bf
       -0.28504962 0.2891695 3.4517725 -1.5700492
0001e0 42 8b fc 3f 00 5f 49 3f 4e fc 69 bf 9d 28 a5 3f
       1.9729998 0.78660583 -0.9140061 1.2903019
0001f0 f2 8d 9c bf 35 4b c0 3f 27 a0 10 3f 74 46 47 c0
       -1.2230818 1.5022951 0.56494373 -3.113675
000200 a2 30 90 c0 d8 e7 07 40 be b5 56 c0 02 b3 35 3c
       -4.5059366 2.1235256 -3.3548427 0.011090042
000210 db ba 9b 3f 7d b9 b2 bf ca 67 be bf 43 93 48 3f
       1.2166399 -1.3962857 -1.4875424 0.78349704
000220 ac 8f af bf 3e 18 01 3f 37 3b 0c bf eb 01 44 40
       -1.371572 0.50427616 -0.54777855 3.062617
000230 0c 01 f4 3f 2d 2a 4e 3f cb ea 3d bf 7b 91 c8 3f
       1.906282 0.80533105 -0.7418639 1.5669397
000240 9e 67 dc 3f 66 d8 18 3f ea a4 14 c0 e4 3a f6 bf
       1.7219121 0.597052 -2.3225656 -1.9236722
000250 a4 fd 2f 3f 94 41 0d bf c6 96 05 3f 1c 80 83 3f
       0.687464 -0.5517819 0.52183187 1.0273471
000260 d2 a8 e1 bf 84 be d7 bf b1 bf 3f 3f 3a 8d 20 40
       -1.7629645 -1.6855016 0.7490187 2.5086198
000270 9b e1 f6 bf 81 9c ea bf 4a 42 23 c0 ad 79 27 bf
       -1.9287599 -1.8329011 -2.550921 -0.6542004
000280 4c a6 6a bf 7c de 6a 3f 31 25 a0 3f 54 78 52 3f
       -0.9166 0.91745734 1.251135 0.82214856
000290 95 a5 ed be 04 01 8f bf b7 71 5f 3f 30 1c 49 be
       -0.46415392 -1.1172185 0.8728289 -0.19639659
0002a0 99 3d 0b 40 20 3f 8f 40 22 7e 1c bf f8 d9 95 be
       2.1756346 4.4764557 -0.61129963 -0.2926786
0002b0 52 05 66 3f 54 4b be 3f c8 11 aa bf 47 40 07 40
       0.8985187 1.4866738 -1.3286676 2.1132982
0002c0 a6 57 12 c0 13 86 18 bf e4 8c 43 3e 62 5d fc 3f
       -2.2865996 -0.5957958 0.19096714 1.9715998
0002d0 77 ae e5 bf a0 5a 5f bf 53 d6 cc be 7a be b1 bf
       -1.7943867 -0.8724766 -0.40007266 -1.3886254
0002e0 96 ff cb bf 3d e6 ba 3f 39 77 13 bd d0 2e 3e be
       -1.5937374 1.4601513 -0.03600237 -0.18572545
0002f0 86 68 7b bf b4 10 59 40 7b 7e 90 bf 53 f5 22 3f
       -0.98206365 3.3916445 -1.1288599 0.63655585
000300 40 af 49 c0 b3 35 69 3f 07 62 bf 3f 05 0b bc 3f
       -3.1513214 0.91097564 1.495179 1.4690863
000310 3f 48 cb bd 9f 36 b4 bf 1c 4b db 3f 3c 5a 0a 40
       -0.09925889 -1.4079169 1.7132297 2.1617575
000320 b4 20 a0 3f 78 f9 7f 3e 44 03 1b c0 19 92 64 c0
       1.250998 0.24997509 -2.4220743 -3.571417
000330 58 45 82 c0 92 46 fc 3f 25 a1 b7 3e f6 7f 9e 3f
       -4.070965 1.9709036 0.3586513 1.23828
000340 0e 53 3c c0 a1 0c 04 3e 3b 00 ab 3f 7f da 3f 40
       -2.9425693 0.12895443 1.3359445 2.997711
000350 e2 e1 ec bd a7 21 65 3f 3f 01 50 3f be f2 07 c0
       -0.11566521 0.89504474 0.812519 -2.1241908
000360 56 54 1d c0 3b 23 74 bf 16 1f 8a 3f 69 c0 cd bd
       -2.4582725 -0.9536626 1.0790737 -0.10046465
000370 fe 1d 14 c0 32 03 e1 bf eb 7a 53 c0 34 e3 e3 be
       -2.3143306 -1.75791 -3.3043773 -0.4450928
000380 f3 70 16 bf dc aa a3 bf 4e 7e 27 c0 8c 89 12 c0
       -0.58766097 -1.2786517 -2.617084 -2.2896452
000390 5f 89 88 bf 5f 89 a9 3f 5d 06 f3 be 39 57 12 bf
       -1.0666922 1.3245047 -0.47465792 -0.5716434
0003a0 74 70 b5 bf a0 63 70 bf da d8 df 3d dc d2 da bf
       -1.4174943 -0.93902016 0.10930033 -1.7095599
0003b0 97 37 e3 bf cc 92 eb 3f 33 cd ac 3e 09 e5 b6 be
       -1.775134 1.8404174 0.33750305 -0.35721615
0003c0 f6 45 90 bf 95 ea ef bf 75 85 69 bf bd 4b 54 40
       -1.127135 -1.8743464 -0.91219264 3.3171227
0003d0 1c dd 5a be 11 65 81 3f 8e 7a 31 40 6e 0a ad 3e
       -0.21373409 1.0108968 2.7731051 0.3379702
0003e0 fc df af 3f 10 84 5e be d0 f4 1c bf db e7 10 3f
       1.374023 -0.21730065 -0.61311054 0.56603783
0003f0 c4 c7 8b bf 66 36 cd be c0 dc 1a 40 f2 65 9a 3f
       -1.0920339 -0.40080565 2.4197235 1.2062361

hidden.1.bias f4 [50]
000000 5d 20 8a 3e 1b b2 1e c0 3e 0e ff 3f aa ad 8f c0
       0.26977816 -2.4796207 1.9926221 -4.489949
000010 7b 43 1e c0 ac 8a 51 be 13 f2 f4 bf c3 32 b3 be
       -2.4728687 -0.20463055 -1.9136375 -0.34999666
000020 e7 36 ae 3e 23 ba 55 40 b5 21 56 be a4 33 05 40
       0.34026262 3.339486 -0.20911296 2.081277
000030 40 4f 46 3f 7a e6 a8 3f e1 15 42 3f 68 e7 be 3f
       0.77464676 1.3195336 0.75814635 1.491437
000040 6f 90 ed 3f e2 2e 9f 3f 4d 00 cd 3e 68 20 07 c0
       1.8559703 1.2436182 0.40039292 -2.111353
000050 00 11 c5 be 48 b1 43 40 4a c7 1c c0 ba 97 c6 bf
       -0.38489532 3.0576954 -2.4496636 -1.5515053
000060 45 cc ee 3e 6d 27 86 bf 8b 11 a8 bf 63 54 a3 bf
       0.4664022 -1.0480782 -1.3130354 -1.2760128
000070 7b 5a 26 bf 87 3b 1f 40 ab 0d 45 be 48 8e 08 40
       -0.6498181 2.4880083 -0.19243495 2.1336842
000080 d3 df 92 40 12 44 b5 3e d0 fa d3 3f 60 d9 65 c0
       4.5898223 0.35403496 1.6560917 -3.5913925
000090 d1 b4 bd bf 09 a0 67 3e 19 75 26 bf d0 a4 36 3d
       -1.4820806 0.22619642 -0.65022427 0.04459077
0000a0 2c 32 31 3e ae 78 08 c0 f4 58 32 c0 d3 a1 5e c0
       0.17304295 -2.1323657 -2.7866793 -3.478627
0000b0 b4 d2 d8 be aa a3 c4 bf 8f 19 a9 bf 98 eb 80 3f
       -0.42348254 -1.5362446 -1.3210925 1.0071898
0000c0 4c ee b5 bf 38 42 48 bf
       -1.4213347 -0.7822604

output_layer.weight f4 [25, 50]
000000 9c 2d a0 bd 5a f1 e2 be b0 58 88 bd aa fa bc bd
       -0.07821199 -0.44324762 -0.06657541 -0.09227498
000010 d5 07 34 3e a3 fa 1f be a4 82 c0 3d 05 c2 70 3d
       0.17581113 -0.15622954 0.09399918 0.05877878
000020 55 b3 c0 3e 1c 69 dd bd c1 ae c0 3d 61 93 4a bd
       0.3763682 -0.10811064 0.09408332 -0.049456958
000030 db ea d6 be 5b e4 10 bc a2 35 f8 3e 22 49 c3 bd
       -0.41976056 -0.008843507 0.4847842 -0.09535433
000040 56 d5 c2 3e 70 6d 0e 3e ba 6f 83 be ac 93 f8 3d
       0.38053387 0.13908935 -0.25671178 0.12137541
000050 d6 d8 9a bd 68 e2 89 bd 9a ce 94 3e 2d 4c bd 3e
       -0.075608894 -0.06732637 0.29063874 0.3697218
000060 81 d9 ef 3e b0 53 44 be e3 e0 f2 3d 7d c6 74 bd
       0.4684563 -0.19172549 0.118593 -0.059759606
000070 0d ec 52 3e 29 2f 83 3d ff b6 d2 bc 8e ae b4 3e
       0.20597859 0.064054795 -0.025722025 0.35289425
000080 4e 37 b4 3d da 93 d5 be 78 00 47 be 3e 70 a2 be
       0.08799611 -0.41714364 -0.19433773 -0.3172626
000090 b1 af 7c bd e8 94 3d bd c3 98 54 be db 9b 98 be
       -0.06169099 -0.046284586 -0.20761399 -0.29806408
0000a0 dd f2 da 3e 2a e4 5b 3b d2 38 47 bf f6 34 e4 be
       0.42763415 0.0033552744 -0.77821076 -0.44571656
0000b0 81 fd 1f bd 25 28 b0 be 0d a1 60 be c4 dc ca 3d
       -0.03906012 -0.34405628 -0.21936436 0.09905389
0000c0 f3 72 37 be 13 58 3a 3d ee 98 a7 be a6 e7 c2 bd
       -0.17914943 0.04549415 -0.32733864 -0.0951684
0000d0 50 17 b2 be a2 c3 bb be 4b 28 d5 3e 55 ef 82 be
       -0.3478341 -0.36672693 0.41632304 -0.2557322
0000e0 8d 64 4a be 8c d6 ef 3e 17 f1 4d bd ec 7a a2 be
       -0.1976492 0.46843374 -0.05027875 -0.31734407
0000f0 28 7c 0c be d2 e1 98 be 74 29 32 be 69 a6 ce bd
       -0.13719237 -0.29859787 -0.17398626 -0.10090334
000100 fe ab b3 3d 7a 13 8e be 9b 36 06 3f 04 18 33 3e
       0.08773039 -0.27749234 0.5242707 0.1748963
000110 bb 5f 21 be ea 3d 01 be 37 db c5 3e 03 ea 95 bd
       -0.15759175 -0.12621275 0.3864381 -0.07320025
000120 78 3f b1 3e 56 1b 22 3f 39 67 81 3c 74 91 00 be
       0.34618735 0.6332296 0.01579629 -0.12555486
000130 7f ce 1b be 0c c1 2f bd 8b 06 5b 3d 74 54 73 3e
       -0.15215491 -0.042908713 0.053473037 0.23762685
000140 a7 bb e9 3c 2d e0 18 be 29 9d 68 bd bb 21 d8 bd
       0.028531862 -0.14929266 -0.056790505 -0.105533086
000150 49 1d ae bb 48 a4 01 bf 57 f2 9e be 35 e1 bf 3e
       -0.0053135497 -0.506413 -0.31044266 0.37476507
000160 33 e3 c5 3d ad cb 4a 3d 35 48 c1 3c c2 8c 39 be
       0.096624754 0.049510647 0.023594001 -0.18120101
000170 c1 ef cd be 29 f3 f7 be 77 f8 1b bd 95 ce 5f bd
       -0.4022198 -0.48427704 -0.03807875 -0.05464037
000180 8a 4f d5 be 50 f5 7e 3e 00 94 72 be 94 68 87 be
       -0.41662246 0.24898267 -0.2368927 -0.26446974
000190 bc 1e 45 be b1 b9 07 be 24 28 a5 be 9b 45 9b bd
       -0.19250005 -0.1325443 -0.32257187 -0.075816356
0001a0 ee 65 e7 3e c5 8a 2d 3e 49 97 09 be dd ee fc 3e
       0.45194954 0.16947468 -0.13436617 0.49400988
0001b0 ce 8e 02 3f 38 42 16 be 48 37 c9 3e ce 98 4b be
       0.5099915 -0.14673698 0.3929999 -0.19882509
0001c0 6b de 6c be cc 5d 0c be d3 69 9a bd 43 7f 1d be
       -0.2313172 -0.13707656 -0.075397156 -0.15380578
0001d0 55 97 ba bc 1d a4 ac 3e 2f af b2 3e ea 87 86 be
       -0.022777239 0.33718958 0.3489928 -0.2627557
0001e0 f1 ea f4 3d 3e c6 17 be 02 e7 9c 3e 8f eb cb 3d
       0.11958874 -0.14821717 0.30644995 0.099570386
0001f0 f0 e5 7c 3e 9b 5b 18 3e 84 9e 2f 3e fc a8 33 bf
       0.24697089 0.14878695 0.17150313 -0.70179725
000200 2a 09 ec bd 14 52 d0 3d 9c 69 87 3e 90 89 4c 3d
       -0.115251854 0.10171905 0.2644776 0.049935877
000210 02 68 17 3d e4 92 6d 3d bb 01 bc 3e 18 1f 17 bc
       0.036964424 0.058001414 0.3672007 -0.009223722
000220 1e 5e f4 bd ee 2f 0b be aa 6a 2b 3e 2c 6f bb bd
       -0.11932014 -0.13592502 0.16739908 -0.09152064
000230 c8 94 8b be 85 05 00 3f 92 24 fe bc a6 a5 aa be
       -0.2726195 0.5000842 -0.031023297 -0.33329505
000240 35 e8 25 3f 08 87 ef bc 8f fd 9d be 59 0a ee 3e
       0.64807445 -0.029239193 -0.30857512 0.4649227
000250 01 bb df be ab 23 aa be a8 7c 9b be 81 df 06 be
       -0.4369736 -0.33230338 -0.30368543 -0.13171197
000260 a5 ba 57 3e cf be b6 bd 73 b1 a3 3e d3 5c c6 3d
       0.21067293 -0.089231126 0.3197132 0.096856736
000270 69 74 84 3e 33 29 80 3f ae e2 95 3e 5f fb 6e bd
       0.25870064 1.0012573 0.29274505 -0.058345195
000280 43 f3 83 3d 79 0f 98 3e 62 48 98 3e a6 c7 cb 3e
       0.06442883 0.29699305 0.29742724 0.39800757
000290 99 ca 04 3f 24 d1 11 3e 53 90 4f be b9 63 18 3f
       0.5187164 0.14239937 -0.20269899 0.59527165
0002a0 eb 58 bf 3d 69 c6 5c bf 81 26 e4 bd f4 8d 63 be
       0.09343132 -0.8624025 -0.111401565 -0.2222212
0002b0 94 f0 26 bd f8 85 a3 3d 21 25 91 3e e0 85 d8 3e
       -0.040756777 0.07984537 0.2834864 0.4228964
0002c0 bd 8e e5 3c 50 bc fb be 39 ef da be 95 10 d1 be
       0.028022164 -0.4916711 -0.42760637 -0.40832964
0002d0 a3 c1 cd 3e e5 20 cb be bc 94 e6 bd c8 63 10 be
       0.40186796 -0.39673534 -0.112588376 -0.14100564
0002e0 a3 56 00 bf c0 5c a5 be b9 72 1e 3f dd fe 99 3d
       -0.501322 -0.32297325 0.618938 0.075193144
0002f0 2f fa 34 3f 9f d2 22 be f3 41 f9 be 29 64 b5 be
       0.7069425 -0.15900658 -0.48683128 -0.3542798
000300 2b 5c 22 3f 3d 8f 96 3e d5 8f 4f 3e 3c 61 e1 be
       0.6342189 0.29406157 0.20269711 -0.44019496
000310 7d ef ce be 6e 9b 19 3f 9e fe f3 be e7 1a ad be
       -0.4041709 0.6000279 -0.47655195 -0.33809587
000320 c7 09 ba bc ca 18 a4 bd 6c e6 1b 3e c3 b7 a9 be
       -0.02270974 -0.08012541 0.15224618 -0.33148012
000330 f4 21 95 3d 37 83 9d bd 63 a2 22 3f e2 53 c3 3f
       0.07281867 -0.07691043 0.6352903 1.5259974
000340 20 4c 76 3e b3 d4 2a 3e d8 f7 66 3e 99 74 94 3e
       0.24052477 0.16682701 0.22555482 0.28995207
000350 37 b3 95 3e 80 a0 d1 be d4 31 bd 3d 3d d3 93 bd
       0.29238293 -0.40942764 0.092380196 -0.07218025
000360 05 f0 ec be a3 77 25 3f 0f dd 52 be cf 4b bb bd
       -0.4627687 0.64635676 -0.2059214 -0.09145319
000370 5c 47 86 3f 7d c4 5f 3f 65 10 25 bf 6a d6 cc 3d
       1.0490527 0.8740919 -0.6447814 0.10001834
000380 ff 28 dc 3e ab f3 29 3f b6 01 fc 3e 28 ea 05 bf
       0.43000028 0.6638743 0.49220055 -0.5231042
000390 61 4f c9 3d 4c 70 70 bf c5 ae 22 3f bf 68 db be
       0.098295934 -0.9392135 0.6354793 -0.42853352
0003a0 1c 3f b9 3e bf 1c 2c bf 8f dd 3c bf 0f 46 30 bf
       0.3618096 -0.67231363 -0.7377557 -0.688569
0003b0 85 c6 26 3f b1 ef 25 be 60 53 7f 3f 4c b5 53 bf
       0.65146667 -0.16204716 0.99736595 -0.8269851
0003c0 bc c2 fd bd d5 4e 02 3f 5c b9 97 3e fb a7 a4 3e
       -0.12390658 0.5090154 0.29633605 0.3215941
0003d0 a0 6a 2e be b3 b0 4d bf 95 35 1e bf ca 67 10 3f
       -0.17032862 -0.80347747 -0.6180051 0.5640837
0003e0 6c e3 a2 3d f6 f4 81 3e 54 ec 7d 3d e5 da 32 be
       0.079535335 0.25382203 0.06199296 -0.17466314
0003f0 a9 30 3f bf ec 49 df bd 18 e9 b9 3d f8 cf 11 be
       -0.74683625 -0.10902771 0.09077662 -0.1423949

output_layer.bias f4 [25]
000000 b5 2b c3 3e 22 7d 03 3f 9b a6 61 3f ff 31 38 3f
       0.38119283 0.5136281 0.88144845 0.7195129
000010 49 3e 6a 3e 71 f4 29 3e 80 68 de 3e b5 9b 47 3e
       0.22875322 0.16597153 0.43439102 0.19492991
000020 cf be b3 be 68 c4 68 3f 40 03 99 3e bc 5e 28 bf
       -0.35106513 0.9092469 0.29885292 -0.65769553
000030 de 16 26 bf a4 a0 a2 3e 6d ae 68 3f 99 cf c1 bc
       -0.6487864 0.31763184 0.9089115 -0.02365856
000040 25 96 f7 be 81 6d dc 3d db 0b 41 3f dd 0b 5a 3f
       -0.4835674 0.10763074 0.75408715 0.8517435
000050 d2 9f c1 be 49 b1 17 be 7d a6 18 3e 51 c3 0c 3f
       -0.37817246 -0.14813723 0.1490726 0.5498553
000060 af 22 45 3f
       0.7700605
