models/450episodes.pth (torch, 34096 bytes, 8 tensors)

input_layer.weight f4 [50, 26]
00000000: 6d2a f7bf 6c8e 05c0 b3a6 2a40 c26c e83f
00000010: 8936 653f de96 2bc0 7d5f b1be a400 ce3f
00000020: 1656 1240 847e c43e 620c 1bc0 09a8 06bf
00000030: dc2e 3cc0 26a7 20bf 871d 823f 6182 c83f
00000040: 26c4 58c0 3e39 b440 5f10 4740 aa44 04c0
00000050: 6dc3 34c0 3077 a1bf 5809 16c0 7073 ddbf
00000060: 7800 f83f 95dc 393f 3d5e ebc0 f65c 9bc0
00000070: bd3a b83f df0c 973f ae68 7d3e 9f4f 1340
00000080: 2111 fabf 7f24 e83f 1243 c73f 90af fbbe
00000090: ded9 fb3f dabf d63f 5e08 c0bf 3c44 363f
000000a0: a927 b2bf 1557 4740 a36c 90bf b8f8 87c0
000000b0: 5791 88be 47f9 4e40 407a 31bf bba8 52bf
000000c0: eb69 6940 6eb6 7940 efc4 f3c0 e21c 3e3f
000000d0: 2d13 423f 99e0 3dc0 7118 973f f76e cdbf
000000e0: bf85 eb3e cefe 1540 9353 dfbf e264 39c0
000000f0: b419 3740 277d f3bd 003f 0fbf 9803 0dbf
00000100: 7456 873f 69b1 1e40 5023 35bf 3023 0d40
00000110: 98d9 2940 a498 07c0 48d4 d3bf 3642 713f
00000120: a9cf 98bd cb78 54c0 e138 82bf 61b6 9740
00000130: 5cdb e33e 9aca b8bf 8a96 9c3f 02bb cbc0
00000140: 3845 1fc0 0af9 57c0 afdf b6be acf1 0040
00000150: 6413 af3f 2192 c1bf a94e 2f40 0a37 1a3f
00000160: 0c81 53bf 33a6 7abf f73d 6fc0 137b f5be
00000170: 3c1a 983f 5ac2 6d40 ae55 31bf 3d91 5940
00000180: d4ab c33f 393e 0040 999b 2bbf 0d00 4240
00000190: 20c4 ef3d 5857 e040 c5d6 af40 59c4 28c0
000001a0: 9210 0840 83df 6ec0 955a 5440 a60a 21c0
000001b0: d88e 85c0 17ae 0d40 ccc1 94bf 5db5 1840
000001c0: e868 2540 76ca 18bd a883 de3e fd72 2740
000001d0: a1cf 25c0 f840 ffbf 0abc 033f 06d8 9140
000001e0: 00a1 dd3e 3f8d 18bf 6768 cbbe a3f1 783f
000001f0: 1b2e 393e a93a b93f efc4 583f b659 9d40
00000200: 1a9d 7f40 4afd 30c0 99e4 11bf 2392 4fc0
00000210: a773 2d40 775c 23c0 3f8b d4bf 9c91 21c0
00000220: 70cd 01bf e668 0540 56e9 09bf 6aab 553f
00000230: b02e 3e40 66ab 2e40 6687 ca3e ab10 c8bf
00000240: 516a f13e f104 863f fb0c 1ec0 98fb ac3f
00000250: 7be4 9c40 eeaa e53f b5e1 eebf c969 ad3f
00000260: 0394 493f dbd5 0bbf 654c 9d3f 4be7 4ac0
00000270: 781c 54c0 99e2 a040 f155 96bf 607d 4a3f
00000280: 5258 4040 6693 d7be 8e73 e73f fea6 23c0
00000290: ba61 7bbf 2f30 d13f b609 c93f 9a55 04c0
000002a0: 03f3 22bf 9124 65bf 014b 8240 bff7 01c0
000002b0: 469a bfbf 26af 1c3f cefb e23f f06b 953f
000002c0: a1ba e33d cc45 d93f e16f 7cc0 e31b 96c0
000002d0: d4fb 8b3f a166 98bf 8822 ba40 4437 bdbf
000002e0: a9a4 ee3f c7d9 f5bf a771 13be 7c09 88c0
000002f0: 0896 843e afd8 11c0 f3d3 ba3f 51db febe
00000300: 4307 453e 17c2 acbf 88be e13f 0d67 6abc
00000310: baa2 33c0 194d ea3c 72ee 11c0 4bde c540
00000320: aea4 7c40 1172 79c0 a395 19bd c8a4 48bf
00000330: 39af 3fc0 363c 01c0 725e f9bf 3c30 c73f
00000340: 503b ecc0 af01 063f 2532 8c3f 6df1 66bf
00000350: b5b2 e73f 28c7 123e 5e40 bc3f 2cff 513f
00000360: a0e9 ea3f 33e2 313f 3f9a 2dbf 8eb4 4f3f
00000370: 75a9 2dbf 4bdb 1cc0 32c6 cb3d c691 6e40
00000380: 0826 85bf 43fc babf 31b9 82bf ce56 a6bd
00000390: 26ed 41c0 35ff d23f af49 3340 3a12 70c0
000003a0: c43d 2340 5aec c0bf 171b db3e 2e7d 343e
000003b0: 12fa 93bf 9ec9 1340 62ed bcbe f7d7 f83f
000003c0: a341 6940 da30 81bf a70d 30bf b2b5 6cc0
000003d0: b97c d6bf 52b2 b33e ff09 8bbf db72 583f
000003e0: 8b96 33be 5159 f9bf 7c67 c33f eba4 463f
000003f0: 7491 753e 29d0 223f f8e3 b53f 75a4 003f
-1.9309822 -2.0868177 2.6664245 1.815819 0.8953634 -2.6810832 -0.34643164 1.6093946
2.2865043 0.38377774 -2.4226308 -0.5260015 -2.94036 -0.6275505 1.0165261 1.5664788
-3.386972 5.6319876 3.1103742 -2.066691 -2.8244278 -1.2614498 -2.3443203 -1.7300854
1.9375143 0.72602206 -7.3552537 -4.855098 1.4392926 1.1800803 0.24746963 2.3017347
-1.9536477 1.8136138 1.5567343 -0.4915738 1.9675863 1.6777298 -1.5002553 0.7119787
-1.3918353 3.11469 -1.1283153 -4.249111 -0.26673386 3.2339647 -0.69327164 -0.8228871
3.6470897 3.9017596 -7.6177897 0.7426282 0.7581051 -2.9668334 1.1804334 -1.6049489
0.46000478 2.343677 -1.744738 -2.8967824 2.8609438 -0.11889105 -0.55955505 -0.5508361
1.0573258 2.4795783 -0.7075701 2.2052727 2.6539059 -2.1186914 -1.6549158 0.94241655
-0.07461483 -3.3198726 -1.0173608 4.741013 0.44503295 -1.4436829 1.2233441 -6.366578
-2.4885998 -3.3745751 -0.35717532 2.0147505 1.3677793 -1.512272 2.739176 0.6024023
-0.82618785 -0.9790985 -3.738157 -0.4794546 1.1883006 3.7149873 -0.6927136 3.3994896
1.5286813 2.0037978 -0.670343 3.031253 0.1170733 7.010662 5.494967 -2.636984
2.1260114 -3.732392 3.3180287 -2.516275 -4.173687 2.2137506 -1.1621642 2.3860695
2.584528 -0.037302457 0.4345982 2.6163933 -2.5907977 -1.9941702 0.514588 4.55762
0.43286896 -0.59590524 -0.3972809 0.9724371 0.18083994 1.4471027 0.84675497 4.917201
3.9939637 -2.7654595 -0.5698944 -3.2432945 2.7101839 -2.5525186 -1.6604995 -2.5245123
-0.507041 2.0845275 -0.5387167 0.8346468 2.9715996 2.7292113 0.39556426 -1.5630087
0.47151425 1.0470258 -2.4695423 1.351428 4.9028907 1.7942789 -1.866263 1.3547908
0.7874147 -0.5462319 1.2288939 -3.170367 -3.3142376 5.027661 -1.1744977 0.7909756
3.0053906 -0.42104644 1.808214 -2.5570674 -0.98195994 1.634283 1.5706089 -2.0677247
-0.63652056 -0.8950892 4.0716558 -2.0307462 -1.4968956 0.61204755 1.7733095 1.1673565
0.11119581 1.6974425 -3.9443285 -4.690904 1.0936227 -1.190632 5.8167152 -1.4782491
1.8644 -1.9207085 -0.14398824 -4.2511578 0.25895715 -2.2788503 1.4595932 -0.497767
0.19241051 -1.3496732 1.763627 -0.014306796 -2.806807 0.028601216 -2.2801785 6.1833854
3.9475513 -3.897587 -0.03749622 -0.78376436 -2.9950697 -2.0193 -1.9481947 1.5561595
-7.3822403 0.5234632 1.0952803 -0.90212137 1.8101412 0.14333785 1.4707143 0.82029986
1.8352547 0.6948578 -0.67813486 0.8113488 -0.67836696 -2.4508846 0.09949912 3.7276473
-1.0402231 -1.4608234 -1.0212766 -0.081220254 -3.0300994 1.6484133 2.8013723 -3.7511125
2.5506449 -1.5072129 0.42794105 0.17625877 -1.156069 2.3091807 -0.3689986 1.9440907
3.6446311 -1.0093033 -0.6877083 -3.6985898 -1.6756812 0.35096985 -1.0862426 0.84550256
-0.17537896 -1.9480382 1.5265956 0.77595395 0.23981267 0.6359888 1.4210196 0.5025094

input_layer.bias f4 [50]
00000000: 8784 ad3f 7ea2 8b3e c255 503f b745 613f
00000010: 4572 5d3f 7b8d 353f 1c52 eb3f 2dad d73d
00000020: c14c 0cbf 27b7 27bf 3e47 d83f 10c0 9a3f
00000030: c5e9 5a3f d754 67bf d983 2d3f d650 c43f
00000040: c3a4 b5be f964 bdbe cdef 86be da65 9bbf
00000050: 2b3d ddbe 3d17 0f3f d68c 00c0 5077 e03f
00000060: b288 7f3e 9c4b 06bf 46b0 fabe ff1e 25bf
00000070: fa18 0c3f bc27 81be 4d21 413e 0fcc cb3e
00000080: 90c5 1abf 5b6a 9cbf 5171 0840 0ff1 e93f
00000090: f392 2dbf 6bf5 de3e 0ffb 4fbf 55d3 c6be
000000a0: ef71 44be 5504 45c0 704a 113f 10ac 8fbf
000000b0: adb9 f63f f20c 3a3f b1e3 323f d0ee 153f
000000c0: 0209 483f ff32 18c0
1.3556069 0.2727241 0.81380856 0.87997 0.86502486 0.7091901 1.8384433 0.105310775
-0.5480462 -0.65513843 1.6896741 1.2089863 0.85512954 -0.9036383 0.6777931 1.5337169
-0.35477266 -0.369911 -0.26354828 -1.2140458 -0.4321073 0.55894834 -2.008596 1.7536411
0.24954489 -0.5245912 -0.4896261 -0.6450042 0.5472561 -0.25225627 0.1886036 0.39804122
-0.60457706 -1.2219957 2.1319163 1.827669 -0.6780235 0.43546614 -0.8124246 -0.3883311
-0.19184087 -3.0783894 0.5675421 -1.1224384 1.9275414 0.72676 0.6987868 0.58567524
0.78138745 -2.3781126

hidden.0.weight f4 [50, 50]
00000000: ef0a 8f3f e335 d9bf 2dd5 17c0 22f1 4740
00000010: 3c6e 4b40 3ae0 8140 e228 0440 c264 aa3d
00000020: 5168 a340 c993 01bf 09e7 73c0 e952 9a3f
00000030: 6783 8ec0 f733 a83f 5e8e afbd 6898 7f3f
00000040: eeb7 babf 868e 5a40 76f2 eabf 61ed 21c0
00000050: 8f52 fe40 4039 10bf 3a57 04c0 96ef f53f
00000060: e508 6bbf 31f4 21c0 b357 d23f 0d9d e8bf
00000070: 0a3d 99bf 3a9d 993e 97e5 a640 6e95 233e
00000080: 990e adbf 4202 88bf 4fde 4540 213c 13c0
00000090: f9fa cd3f c07c 0fc0 4bbd 0640 faff 3240
000000a0: 325b 79bf d470 b9bd d97c ed3f fb3d 0bbf
000000b0: ca6c 833f 339b 433e 711d f7bf e0f4 f43f
000000c0: 9014 5f3f 4667 c63f da09 5a40 8d9d d0bf
000000d0: f092 81c0 6a4f fbbf 6ee6 92c0 f8a9 15c0
000000e0: be63 19bd 230e 4d3e a2c2 e1be 6d16 4b3f
000000f0: ceda 3bc0 593b 5540 2cb7 923e c23b 183f
00000100: 9cf3 cebf 3746 d73f 3e14 77bf 99d7 733f
00000110: 1304 d5bf 6e80 71bf ea2e eb3f 1365 25c0
00000120: 7730 90c0 1215 1f3f df17 733e 0642 24c0
00000130: 1ce5 c2bf 6e05 2e40 d97f adc0 2c4f 37bf
00000140: 40eb 2ac0 c943 6d40 c4f9 5140 1a50 1c40
00000150: d0f6 5540 aca2 0340 87a6 b13f 0527 1d40
00000160: 6e90 ac3e a093 b1be 145e 45c0 a43d 6f40
00000170: 3461 c940 0523 ca3f f676 94c0 2e09 9abf
00000180: a496 e3bf d613 663f 337f 82c0 c1b4 acbf
00000190: 240f 9040 bb81 02c0 361f b1bf 540f 1f40
000001a0: 615e 03c0 03e2 bd3f 0671 ab40 acba 8b40
000001b0: 834d 5a3e 3924 8c3f 5375 f53f f446 ee3f
000001c0: 6c76 3bc0 3dce b23c f273 a0c0 77bc 1440
000001d0: 7175 c33f bdb3 68bf c99c afbf e506 803f
000001e0: b4d4 4540 317c 2abf 60a5 73c0 5759 1740
000001f0: 7e8b 7340 1fc8 b1c0 4521 acbf 571d c2be
00000200: f956 3ac0 f3d9 9ebe d859 f4bf 3b81 eebf
00000210: 571c 0340 2985 4740 bd59 4a3f 7b89 40c0
00000220: 924d a23f ca1b 94c0 6943 f13f 7862 65bf
00000230: ed59 1440 ba3c e63e 2756 1c40 43d8 33c0
00000240: 401a d2bf da3c b4be b48d 9dbf ade2 fa3f
00000250: 5efc aa3f b575 2740 dd3e 6440 4e44 a2bf
00000260: 7bdc a0c0 dfad 5cc0 1417 0a3f 18e8 a93f
00000270: 0f1a 47c0 e021 bcbe b78a 39bf fb21 3ec0
00000280: eb80 bbbf c489 9a40 b042 be40 eff4 bdbf
00000290: a701 1c3f 8150 92c0 feed f93f 0cfb c340
000002a0: 00a9 3c3e 4aa4 19c0 07f6 da3f 99d8 bdc0
000002b0: 8c86 1a3f 9e97 bcbf 6df4 65bf 0fe5 56bf
000002c0: 94ba 603f 4c82 cdbf 137c c13f e8eb bfbe
000002d0: 7755 8dbe 3afa 9abf 80e1 6f40 f434 9fbf
000002e0: 8d8b db3f 1152 4b40 f8ac 9ebf 1f98 44bf
000002f0: 8816 86bf fa51 b9bf aa31 78bf 007b 2b3f
00000300: 9fff 0fc0 c715 e8bf 1823 3e40 ac5c f73e
00000310: 7750 b6bf 3244 853f f553 1e40 e873 f9bc
00000320: bea6 1ac0 fe2a 3640 4193 4dc0 06c6 dabf
00000330: cf43 dcbd 096e 5840 8baa 2cbe a15d 38be
00000340: 2deb ddbe 05ae 883f 4934 983f 541a 4d3e
00000350: 1d46 f93f ac90 c53f 6986 24c0 bc63 88be
00000360: 44ae 0040 2b70 9ac0 41a5 2240 d67f 8a40
00000370: fb7f adbf 363f a8bf 061f e1bf f878 6e40
00000380: 2891 fbbe 6eab 603e bdbc 81bf 579c 93bf
00000390: 7a6b 483e d556 b2c0 4db2 553f 5a31 3fbe
000003a0: 1ee0 98bf 7363 6a40 af3c 313b da21 0340
000003b0: acef 0e40 3ae5 f4bf 40ba fb3e 9ad2 a840
000003c0: 5f0b 6a3f 38d6 12c0 432c 0c40 e4ea 18c0
000003d0: e7ba a9be 1edf 5440 a571 25c0 c17b 72c0
000003e0: a6d4 8bbf 87ca 78bf 549f f53f aff4 2240
000003f0: e08a 41c0 5d31 d33e d20f 86bf 384c 9c3d
1.1175212 -1.696957 -2.3723862 3.1240926 3.1786032 4.0586214 2.0649953 0.08319999
5.106484 -0.5061613 -3.8109763 1.2056552 -4.4535403 1.3140858 -0.08572076 0.9984193
-1.4587381 3.414949 -1.8355243 -2.5301135 7.947578 -0.56337357 -2.067824 1.9213741
-0.91810447 -2.5305293 1.6433014 -1.8172928 -1.1971753 0.30002767 5.215526 0.15974972
-1.352008 -1.0625689 3.0916936 -2.300545 1.6092216 -2.2419891 2.1053035 2.7968736
-0.9740478 -0.090547234 1.8553725 -0.5439145 1.0267575 0.19102173 -1.930586 1.913723
0.8714075 1.5500267 3.4068513 -1.6298081 -4.0491867 -1.963361 -4.5906286 -2.338499
-0.037448637 0.20024924 -0.44093806 0.79331094 -2.9352298 3.3317473 0.28655374 0.59466183
-1.6168094 1.6818303 -0.9651526 0.9525085 -1.6641868 -0.94336593 1.8373692 -2.584294
-4.505916 0.62141526 0.23739575 -2.5665298 -1.5226169 2.7190814 -5.4218564 -0.7160518
-2.6706085 3.7072623 3.2808695 2.442389 3.3431892 2.0568037 1.3878945 2.4555066
0.3370394 -0.3468294 -3.083867 3.7381372 6.2931156 1.5791937 -4.6395216 -1.2034051
-1.7780347 0.8987402 -4.0780272 -1.3492662 4.501848 -2.0391681 -1.383765 2.4853106
-2.0526354 1.4834598 5.357547 4.366537 0.21318631 1.0948554 1.917643 1.8615403
-2.929103 0.021826858 -5.0141535 2.324003 1.5270215 -0.9089926 -1.3719722 1.0002104
3.0911074 -0.6659575 -3.8069687 2.3648279 3.805389 -5.555679 -1.3447653 -0.3791301
-2.9115584 -0.31025657 -1.9089918 -1.8633188 2.0486047 3.1175025 0.7904318 -3.0083911
1.2679923 -4.628392 1.8848697 -0.89603376 2.3179886 0.44968206 2.4427583 -2.8100746
-1.6414261 -0.35202676 -1.2308869 1.9600426 1.3358266 2.6165593 3.5663369 -1.2677095
-5.026914 -3.4481122 0.53941464 1.3273954 -3.1109655 -0.36744595 -0.7247729 -2.970824
-1.4648718 4.829317 5.9456406 -1.4840373 0.6094002 -4.572327 1.9525754 6.1243954
0.18423843 -2.4006524 1.7106332 -5.93269 0.6036155 -1.473377 -0.8982609 -0.83943266
0.87784696 -1.6055388 1.511599 -0.3748467 -0.27604267 -1.2107613 3.7481384 -1.2438035
1.7151963 3.176884 -1.2396536 -0.7679462 -1.0475626 -1.4478142 -0.9695078 0.6698456
-2.2499769 -1.8131646 2.970892 0.4831289 -1.4243306 1.0411437 2.4738743 -0.030450776
-2.4164271 2.846374 -3.2121127 -1.7091682 -0.10755121 3.381716 -0.16861932 -0.18004467
-0.43343487 1.0678107 1.1890956 0.20029575 1.9474522 1.5434775 -2.5707037 -0.2663859
2.0106363 -4.8261924 2.5413363 4.328105 -1.3554682 -1.314429 -1.7587593 3.7261333
-0.49134183 0.21940395 -1.0135723 -1.1532086 0.19572249 -5.5730996 0.8347519 -0.1867117
-1.1943395 3.66232 0.0027044227 2.0489411 2.2333784 -1.9132454 0.49165535 5.275708
0.914236 -2.2943249 2.1902015 -2.3893366 -0.33150408 3.326118 -2.5850613 -3.7888033
-1.092427 -0.9718403 1.9189248 2.5461843 -3.0241013 0.412486 -1.0473578 0.07631725

hidden.0.bias f4 [50]
00000000: d9a1 7ec0 ad3b e2bf fac3 0d3d 7279 39bf
00000010: 8f6f 453f 2ca0 013e 61ee 8a40 f9dd 77c0
00000020: 3abf 563f 63bb 4940 dec2 5840 9a59 3d40
00000030: da0a 52c0 ac0d ff3f 834c f5bf d431 8140
00000040: ba5c 3e3e 65e9 7dc0 b6f6 18c0 5332 b9c0
00000050: de14 163f 2a36 8040 cc2a edbf 7f21 24be
00000060: 0701 6fc0 74bb 8240 c31c 0440 6837 d2c0
00000070: 6537 d3bc e56e d33f ca0a d440 8cc2 29be
00000080: 73b5 8fbf 9da5 9abf 1bea cbc0 cf00 0d40
00000090: 9791 c3bf 4cf6 863f 382c 10c0 c3ae 98c0
000000a0: ccc2 b5be 3edf 63c0 cf07 46c0 5dba 82c0
000000b0: 5231 0e40 72db 4540 3f92 c6c0 18b1 84bf
000000c0: 63dd 93c0 4826 a7bf
-3.9786284 -1.7674462 0.034610726 -0.72450936 0.7712335 0.12658757 4.341599 -3.8729231
0.8388554 3.1520622 3.3868937 2.9585938 -3.2819123 1.9926047 -1.9163975 4.0373325
0.1859006 -3.9673703 -2.390058 -5.787393 0.5862559 4.006612 -1.8528686 -0.16028403
-3.7344377 4.0853825 2.0642555 -6.5692635 -0.02578325 1.6518217 6.626317 -0.1657812
-1.1227249 -1.2081791 -6.3723273 2.2031744 -1.5278805 1.0543914 -2.252699 -4.771333
-0.3550018 -3.5605006 -3.0942266 -4.0852494 2.2217603 3.0915189 -6.2053523 -1.0366545
-4.6207747 -1.3058558

hidden.1.weight f4 [50, 50]
00000000: ca20 33c0 3a1f 25bf ea56 c9c0 cede dec0
00000010: b01c 9340 1d27 a93f 118f 2bbf aec6 1fc0
00000020: e668 5ac0 5eb8 95c1 1346 d140 4c7f 83c0
00000030: 58a3 0540 d670 8bc0 a175 2a40 5af2 0fc1
00000040: adb3 3e40 7507 d240 7f7b 8e40 e988 36c0
00000050: aa2b 1c40 d080 c040 7509 fdbe 514c eb40
00000060: 637e 2e40 cb7f a240 4921 1ac0 b0a1 dabf
00000070: d0f2 bfc0 0799 0340 2e21 e940 1d24 b040
00000080: f754 bbc0 6e3f 823f 5df2 4c40 c547 1541
00000090: a5dd 3140 2e8d 23c0 1a0e 36c1 88de 5141
000000a0: 31c2 9340 3e0e 5540 14fc c4c0 30aa 12bf
000000b0: e862 2a40 3886 a4bf a6a6 4cc0 6dc3 58c0
000000c0: bdcd f140 cff6 d83f 5cc7 f43f e8e3 ee3f
000000d0: 1b86 083f b30b 82bd 079c 4340 12d6 35bf
000000e0: c77c c940 54ef a5bf f6a7 1341 a497 80bf
000000f0: 058a 0c41 2df0 0ebf 4627 d73f 708f 9f3e
00000100: 72a2 51c0 cd59 1d41 08bd 9a3c 914a 8541
00000110: cb51 bc40 f51c acc0 cadc 8e40 0e71 c9c0
00000120: 4c78 b4c0 2fde 213e 3b4a 30bf ce07 cc3f
00000130: 6075 1fc0 0fc5 36c1 2df0 83c0 efc6 70c0
00000140: 548a 5b3f eaa0 0ac0 30c1 95bf b367 38bf
00000150: 70bc 06c0 64b2 8dc0 c38d 2dbf ac32 dac0
00000160: 6778 8a40 f166 a0c0 9ed3 853f 51d9 9e40
00000170: 5b9a 2cc0 19c7 d740 6ce1 90c0 0454 24c0
00000180: 6e60 253f d14e e4bf 8137 7b40 a5d5 8640
00000190: a4bd 3ec0 45cc 5cbf 9389 a2bf 71be 493f
000001a0: 7610 d7c0 12b9 59be 1f39 82c0 4108 0341
000001b0: c9e6 0741 5f2a 2e40 e01c 943f 6fb3 e240
000001c0: d76b 3c40 df7d 13c1 e822 3bbf f53d c140
000001d0: 73e4 5c40 c6e7 143e 7ad6 9f40 86ba 83c0
000001e0: 45a0 a640 97f6 1440 3a93 133f a81a 1441
000001f0: 7df8 1ec1 30b4 a5be 186d a53e f2e8 e9c0
00000200: b1cf 2bc1 8e7d 84bf ecd6 7bc1 553a 1a40
00000210: 6808 173e 83e9 2bc1 bd0e 82bf 6831 3bc0
00000220: 94ef 7dc0 9747 2040 44b4 98c0 3207 1841
00000230: 4366 e940 9c1c bd3f 4449 c7bf 15cf b5bf
00000240: 1986 8c40 3210 d7bf 722e 82bf bf3a 3cbf
00000250: 4f61 983f 104a 2540 6cfd fb3f 9ac4 2140
00000260: 6115 f1c0 85b1 d1bf 7d23 da3f 0f35 bd40
00000270: fd39 9dbf ee96 8ac0 73e9 8bbf 10bd 2bc0
00000280: f8f0 db3f fcb3 55bf 86db 40be 9379 103d
00000290: b22a c6be 4ecc 283f 1744 973f 1ba5 e6bf
000002a0: ccc3 0641 43bd 5041 e1f9 27c0 133f acc0
000002b0: cb5b 4140 39d4 6f40 2b02 9bc0 c93b 833f
000002c0: b828 c7c0 7569 b4bf 4357 2140 6e88 e440
000002d0: 0893 0bc0 fd4f ffbf 4617 bebf 7a85 b0be
000002e0: 9d02 8ec0 1e8f 1740 c2ea 9ec0 acf9 c2bf
000002f0: 7d88 16c0 a2b9 9d40 bb86 01c0 7679 c9bf
00000300: f3f0 16c1 10b7 bebf 0c3f a040 77a5 1b3f
00000310: 09f5 f63f cc0a eabf a327 6440 0aa9 e840
00000320: 7833 1540 463c c63f 70ce 0bc1 0486 dec0
00000330: 84c6 4fc1 6e3f db40 03d1 9c40 0d6e d23f
00000340: f605 2bc1 9280 913f ab10 1540 16b3 a540
00000350: 912e 72c0 ef04 6740 d9d9 0a3e b335 b8c0
00000360: 8d9d d1c0 7311 6fc0 af8e 5140 b035 973e
00000370: b5a1 99c0 055a c1c0 33ca ebc0 8e84 4e40
00000380: 17b7 b63f b823 0bbf bde7 ccc0 e144 04c0
00000390: 10c3 51c0 a4ea b640 8b72 533d 006a 94c0
000003a0: 0d0a 84c0 93bd 0ac0 556d c4c0 23cf a1c0
000003b0: d3db 453f 4b7a 8840 a838 a640 1354 afc0
000003c0: 3e64 c8be b4d7 0ec1 49ed 9ec0 1494 f440
000003d0: e244 cb3f aac6 4340 d614 9940 57f0 9940
000003e0: 301a 33bf ca10 32c0 7da4 ac3e fa7a 1f3f
000003f0: 7b70 32c0 2b9d f6bf a26c ca40 d857 8340
-2.7988763 -0.6450077 -6.2918596 -6.964698 4.597252 1.3215061 -0.67015177 -2.4965014
-3.4126525 -18.715023 6.539804 -4.109289 2.0880947 -4.357524 2.6634295 -8.996668
2.9797165 6.5634103 4.452575 -2.8521063 2.440165 6.015724 -0.49421278 7.353066
2.726464 5.0780997 -2.4082816 -1.7080593 -5.99839 2.056215 7.2853003 5.5044084
-5.8541217 1.0175607 3.2022927 9.330022 2.779153 -2.555492 -11.378443 13.116829
4.617455 3.3289943 -6.1557713 -0.57290936 2.6622868 -1.285346 -3.1976714 -3.3869278
7.5563645 1.695032 1.912334 1.8663301 0.5332963 -0.06349888 3.0563982 -0.7102977
6.2964816 -1.2963662 9.228506 -1.0046277 8.783696 -0.5583523 1.680886 0.31164122
-3.2755399 9.834424 0.018888965 16.66141 5.8849845 -5.378535 4.464452 -6.2950506
-5.6396847 0.15807413 -0.68863267 1.5939882 -2.491539 -11.42311 -4.1230683 -3.762142
0.85757947 -2.1660714 -1.1699581 -0.7203323 -2.1052513 -4.428026 -0.67794436 -6.8186855
4.3271976 -5.012566 1.0455205 4.964028 -2.696921 6.743054 -4.5275173 -2.567628
0.64600265 -1.7836553 3.9252627 4.2135797 -2.9803247 -0.8624919 -1.2698234 0.78806216
-6.7207594 -0.21262005 -4.069473 8.189515 8.493844 2.7213361 1.1571312 7.0844035
2.944082 -9.21823 -0.7310014 6.038813 3.4514434 0.1454154 4.994931 -4.116519
5.207064 2.3275506 0.57646525 9.256508 -9.935666 -0.32364035 0.32309794 -7.3096857
-10.738206 -1.0350816 -15.739971 2.4098103 0.147493 -10.74451 -1.0160748 -2.9248905
-3.9677477 2.5043695 -4.772005 9.501757 7.293733 1.4774356 -1.5569234 -1.4203821
4.3913693 -1.6801817 -1.0170424 -0.7352714 1.1904696 2.5826454 1.9686713 2.5276246
-7.5338597 -1.63823 1.704208 5.912727 -1.2283322 -4.330924 -1.0930618 -2.6834145
1.7182913 -0.8347776 -0.18833742 0.035272192 -0.3870445 0.65936744 1.1817654 -1.8019136
8.422802 13.046206 -2.6246264 -5.3826995 3.0212276 3.747328 -4.8440146 1.025262
-6.2237206 -1.4094683 2.520951 7.141654 -2.180849 -1.9946285 -1.4850852 -0.34476835
-4.437819 2.3681102 -4.966157 -1.5232444 -2.3520806 4.9289103 -2.0238483 -1.5740192
-9.4338255 -1.4899616 5.007696 0.60799354 1.9293529 -1.8284545 3.5649192 7.2706347
2.3312664 1.5487144 -8.7379 -6.9538593 -12.985966 6.851493 4.900514 1.6439835
-10.688955 1.1367362 2.3291423 5.178111 -3.7840922 3.6096761 0.13559665 -5.756555
-6.5504823 -3.73544 3.2743337 0.29533148 -4.8009896 -6.0422387 -7.3684325 3.2268405
1.4274625 -0.5435138 -6.4032884 -2.066704 -3.2775307 5.7161427 0.05162291 -4.6379395
-4.126227 -2.1678207 -6.138346 -5.0565352 0.7728855 4.2649283 5.194416 -5.479013
-0.3913898 -8.927662 -4.9664655 7.643076 1.5880396 3.0590005 4.7837934 4.8105884
-0.69961834 -2.7822747 0.33719245 0.6229702 -2.7881153 -1.9266714 6.325761 4.104473

hidden.1.bias f4 [50]
00000000: 9b9e 9b40 0f2c 17c0 7bc9 f640 a60f 4fc1
00000010: c677 e7c0 9e57 47c0 93a3 a5c0 ef61 38c0
00000020: 416b 62c0 c183 3841 759c bb3e 6ec2 1641
00000030: ab0d e43f 4cf1 b23f 51a2 6640 d6aa 713f
00000040: effc 1641 2533 6b40 c34c 04c0 d9fb ccc0
00000050: 1694 3cc0 631e 3b41 4666 923f f35b 9ebf
00000060: 546d 5040 5f45 c5bf 5bde b3c0 d5a2 b4c0
00000070: e55b 92bf 8e8d 5740 9d1c 00c1 5739 ca40
00000080: 76cf 4341 8cec 54bf e513 a240 4ed6 0cc1
00000090: bac3 9cc0 e67c c1c0 2701 b8c0 2353 24c0
000000a0: 5bda 963f bf10 b3c0 b3fb 04c1 da3c 34c1
000000b0: 1f8b 033f 6e9d 13c1 42be a3c0 7162 2c40
000000c0: 10f2 a7bf 09ac 04c1
4.863111 -2.3620641 7.712095 -12.94132 -7.233371 -3.1147227 -5.1762176 -2.8809774
-3.5377963 11.5321665 0.36642805 9.422468 1.7816671 1.3979888 3.603657 0.944013
9.436751 3.6749966 -2.0671852 -6.405743 -2.9465384 11.694919 1.1437461 -1.2371811
3.2566729 -1.5411795 -5.620893 -5.644877 -1.1434294 3.3680148 -8.006986 6.3194995
12.23815 -0.8317344 5.0649285 -8.8023205 -4.8988924 -6.0464964 -5.7501407 -2.5675743
1.1785387 -5.595794 -8.31145 -11.264856 0.51384157 -9.225935 -5.116975 2.6935084
-1.3120747 -8.292001

output_layer.weight f4 [25, 50]
00000000: cda6 cdbe f8d7 9ebe 92fc 12be 9e74 c2bd
00000010: 8ed2 543e 0c06 c0be bfca e5bd 1133 32bd
00000020: 7fea 203e 97dc fe3e 6bf2 1f3e 4938 cabe
00000030: a321 a2be aae9 95be dfc9 a13e 74f0 883d
00000040: 7c05 313e 1be6 6f3c 0430 dabd 7b01 cc3d
00000050: a597 85be 8d2e 01be 84c6 c0be fb6d 513e
00000060: 533b 713e 7ef0 aebc 4186 b6bd 7c86 0c3e
00000070: fa16 f9bd 5b46 bbbd 5688 3e3e 5640 193e
00000080: 2441 9d3e f54e 70be 8bf7 763e 98bb 50bf
00000090: e214 033e 4ecc cbbe 5326 84be b71c cfbd
000000a0: 00a6 da3e 5481 bd3d b4e5 03bf cb1c 6abe
000000b0: 5816 b13d 3673 3abe 239a 32be fd16 413f
000000c0: d7f8 36bf 1313 b63b df05 3abf 6663 c0be
000000d0: 4af8 adbe e6bf 62be 3c31 dd3e 15fa a2be
000000e0: 065c 74be e876 883d 9024 193e 946f d03e
000000f0: 3853 17be 40ce 9ebe 26d8 6dbe ac6e 48be
00000100: c5da 983e b694 a5bd 6a22 873e d2a7 47be
00000110: 1eca 72be c668 b4bc 6b9c d5be 17f6 2fbe
00000120: a61c 81be 529e ab3e a6ca 703e 9456 18be
00000130: 8895 1cbe 694a b93d b219 ca3b ebfd 34be
00000140: d6cb 183e 36ef 9a3d 8476 8d3e e57c 6cbd
00000150: d4b0 963e 3abb 55bf c686 9bbd cd10 eabe
00000160: f629 5abe 9788 35be bf44 283e 4b32 a13d
00000170: 64e4 c1be 1e3d cfbe 93f9 413e dd3d 9bbd
00000180: f3ac 7ebe 980e 303f ea71 5dbf 2d35 74be
00000190: f831 10bf 1efe 8abe a07b d53c c607 68bc
000001a0: 0c1f a33e c2b4 f93c effd 1d3c a519 643e
000001b0: abb5 ce3e 4659 dd3e 098b 4abd a42f 99be
000001c0: 23e7 9d3d 2e38 d3be 74e3 ae3d da48 323e
000001d0: 83df 72be e668 d53d d7c6 8ebe 2fc2 e6bd
000001e0: 7aee 8dbe a7bb 9abe 1af7 86be 13d8 4dbd
000001f0: f61d 4fbc f304 2abe 5bc1 8bbd 022a a83d
00000200: bde6 eebd fc98 90be 4822 133e bee0 afbd
00000210: 55f6 123e 37bb 03be 1181 c63e 2d9c 01bf
00000220: 9db2 26bd d89f f3be ba3d d23d ba84 0bba
00000230: 1754 d1bc eba6 0b3e a78f b3bd 7c7e 10bc
00000240: ca6c 603e 88a8 3a3d 914c ddbe ebf6 443f
00000250: 2655 48bf 13fb 1dbe 31f1 e7be 8493 71be
00000260: c548 6f3e 65dc 59be 7fe3 273e a924 95bc
00000270: 68ed 2f3e 94c3 003f 2a4b 123f 42f4 0f3f
00000280: 2a08 08be e380 4abd 9ca8 46be d7d5 87be
00000290: 2b16 f93e 7698 18bd a6ff 5fbd 1490 be3d
000002a0: 8cbe e03b 4eba a8be 1beb 1ebe 7494 bbbe
000002b0: 31d0 d9be 8736 05bd 57cc d23d 8046 493e
000002c0: 207b 83be 749b 90be da81 7bbe 43e3 0cbf
000002d0: 3495 c33e a56d a1be 1482 893e 916b a9be
000002e0: 2cd8 5c3b d8b4 51bf 145c 083f 5369 45be
000002f0: 7fea 953e e235 033d 9494 8dbe 9c5c 3ebe
00000300: cf81 ba3e abe8 723e 0f59 cd3d a713 9cbe
00000310: 42c0 86be 572a 873f 84a5 51bf 0c32 09be
00000320: 4dff d8bd 605e f1bd 0963 063f f28a 99be
00000330: c901 903e 0820 00bb ef06 7e3e 7efd 323f
00000340: 0e23 1b3f 1409 5a3f 2c07 283c 6153 133e
00000350: efd7 76bd e5b1 54bf 3908 8d3e 4c73 5e3d
00000360: da5d abbe 062e 9e3e 9700 35be 42ac 1b3e
00000370: f762 e33e a56e 673e 59df 50bf 23da 5dbd
00000380: 6865 b83e cf5f 6d3e ba64 133e 9c2e 50be
00000390: 0572 183c 7b95 a9be 0ff5 053f e2e9 fabe
000003a0: 6ced f33e 5199 afbe 7951 033e b012 83bf
000003b0: 155d 123f c561 e0be aabe b43e 1ae4 bdbe
000003c0: 737c a8be cfd2 5a3e c15d aa3e e9f3 223f
000003d0: 4191 b3bd 2768 85be 7c7d b6be 6b4d 7c3f
000003e0: 2f32 9abe 09e0 863e da76 98be b192 93be
000003f0: 2471 38be 0972 cdbc 8a41 b43e 5c6f 95be
-0.4016632 -0.31024146 -0.1435416 -0.09494899 0.20783445 -0.37504613 -0.112203114 -0.043505732
0.15714453 0.49777672 0.15619819 -0.39496067 -0.31666288 -0.29279834 0.31599328 0.06686488
0.17287248 0.014642264 -0.106536895 0.0996122 -0.26092258 -0.12615414 -0.37651455 0.2045211
0.23557787 -0.02135491 -0.08912326 0.13723177 -0.121625856 -0.091442786 0.18606696 0.14965948
0.3071376 -0.2346762 0.24117868 -0.81536245 0.12800935 -0.3980431 -0.2581049 -0.10112899
0.42704773 0.09253183 -0.51522374 -0.22862546 0.0864684 -0.18208012 -0.17441611 0.754257
-0.7147345 0.005556473 -0.7266521 -0.37575835 -0.33978492 -0.22143516 0.43201625 -0.31831422
-0.23863229 0.066633046 0.14955354 0.40710127 -0.14777839 -0.3101673 -0.23226985 -0.19573468
0.29854408 -0.08085005 0.26393443 -0.19497612 -0.23709914 -0.022022616 -0.417209 -0.1718372
-0.2521717 0.33519226 0.23514804 -0.14876777 -0.15291417 0.09047396 0.006167614 -0.17674987
0.14921507 0.07565157 0.27629483 -0.057736296 0.29431784 -0.8348881 -0.07594065 -0.45715943
-0.2130507 -0.17727886 0.16432475 0.07870921 -0.3786956 -0.40476316 0.18942861 -0.07580159
-0.24870662 0.6877227 -0.86501944 -0.2384841 -0.56326246 -0.27147 0.026059926 -0.01416201
0.31859624 0.0304817 0.009643062 0.22275408 0.40372977 0.43232173 -0.049449 -0.2991916
0.077101015 -0.412538 0.08539477 0.17410603 -0.23718075 0.104203984 -0.27886078 -0.11267506
-0.27721006 -0.30221292 -0.263604 -0.050254893 -0.012641421 -0.1660345 -0.06823989 0.08211137
-0.116651036 -0.28241718 0.14368546 -0.08587788 0.1435178 -0.12864386 0.38770345 -0.5062893
-0.040697683 -0.4758289 0.1026568 -0.0005322207 -0.025552792 0.13637893 -0.08767634 -0.008819219
0.219165 0.04557088 -0.43222478 0.76939267 -0.78254926 -0.15427808 -0.45301202 -0.23591429
0.23367603 -0.2127548 0.16395377 -0.018205957 0.17180407 0.5029843 0.5714594 0.5623208
-0.13284364 -0.049439322 -0.19400257 -0.26530334 0.48649725 -0.037254773 -0.054687165 0.093048245
0.0068586525 -0.3295464 -0.15519373 -0.36636698 -0.4254165 -0.032522704 0.10292881 0.196558
-0.25679874 -0.282436 -0.24561253 -0.55034274 0.3819977 -0.31528965 0.26857054 -0.3308988
0.0033698184 -0.8191657 0.532655 -0.19278459 0.2928047 0.03203381 -0.2765242 -0.18590015
0.3642716 0.23721568 0.10026752 -0.30483744 -0.26318556 1.0559796 -0.8189318 -0.13397998
-0.1059557 -0.11785579 0.52494866 -0.2998882 0.28126362 -0.0019550342 0.24807332 0.6991805
0.60600364 0.851701 0.010255616 0.14387275 -0.060264524 -0.83083946 0.27545336 0.054309174
-0.3347004 0.30894488 -0.17676006 0.1520243 0.44411442 0.22600801 -0.815908 -0.05416311
0.36014867 0.2318108 0.14393893 -0.2033028 0.009304528 -0.33121857 0.52327055 -0.49006563
0.47642076 -0.3429666 0.12824048 -1.0240078 0.5717328 -0.43824592 0.35301715 -0.3708809
-0.32907447 0.2136948 0.33274654 0.6365343 -0.08767939 -0.26056024 -0.35642612 0.9855563
-0.30116412 0.263428 -0.29778177 -0.28822854 -0.1801191 -0.02507879 0.35206252 -0.29186523

output_layer.bias f4 [25]
00000000: d1c9 273e 83b3 533e 75d3 5b3f 41c1 263f
00000010: 30b4 153f bd16 113e 3b73 51bd 8b79 b43e
00000020: 08cd 973c f4f7 653f 3096 a73e 39c2 193d
00000030: fa41 de3d 3914 3c3f 982b 533f 841b c3bd
00000040: f441 943e b169 07be a40b 293f 996c e33e
00000050: 9d94 0c3e d6ee 7a3e 63ad 15be 12b9 c53e
00000060: d284 f13e
0.1638558 0.20673947 0.8586953 0.6513863 0.5847807 0.1416883 -0.051135283 0.3524898
0.018530384 0.8983147 0.3273177 0.03753874 0.10852428 0.7346836 0.82488394 -0.095267326
0.28956568 -0.13223912 0.6603339 0.4441879 0.13728566 0.24505171 -0.14616923 0.3861776
0.47171646
